tutorials/W1D2_ComparingTasks/RR/models/ConvNet_inpainting_10000_epoch_2.pth (torch, 506482 bytes, 19 tensors)

encoder.conv1.weight f4 [6, 1, 5, 5]
00000000: c755 d73d d6ff 143e 9933 c63d eea9 fc3c
00000010: 79c5 883d 82a6 993d b069 08be b7c8 8cbc
00000020: edd6 3c3e a8fc 82bd 0db1 293c dde6 65bd
00000030: 7d1c e43d 0138 aa3d 6d27 07bd 6f5f 033e
00000040: 0fb0 933d 0533 dcbd e423 563d 76ed aebd
00000050: 0231 34be 4dd4 cf3c 04d7 583e e022 4fbc
00000060: 9584 a0bc 7e14 3cbd 0c7c 2d3e 24be bc3c
00000070: a82d dcbd 8fbf 5ebc 1796 2dbe 6721 45bd
00000080: 7a1f 8e3d a646 dbbc 1b9a e6bc 6fa8 b1bd
00000090: 215e 143e bcc4 e3bc ef41 4e3e ad91 e9bc
000000a0: 0b71 9bbd 3e74 fd3d e750 333e 4923 1d3e
000000b0: e9fb 4e3e 8d3e 283e ceaf 2cbe 0f2e e2bd
000000c0: f7ce 02be 718a 4b3e c43f 45be 28ae 5dbe
000000d0: dc22 37be a6d3 2bbd 9b81 85bd d7d8 79be
000000e0: fd79 7dbe ebf7 4dbe 60b6 dabd b17a 9bbd
000000f0: 0cb2 7dbe 1d73 0dbe bdf9 96be d607 2abe
00000100: bd50 e23d b77e b2be 64e9 acbe d420 2dbe
00000110: 42c2 d6bd aadd e3bd 9f36 81bd df2d 2ebd
00000120: 7813 c8bd 9640 073e ae43 243e 0278 163e
00000130: 397a ea3d 22b4 04bc f76e b43c c612 a1b9
00000140: 0c1a c4bd fadd b0bd 25d5 3ebe 9955 a33d
00000150: baa2 803d 432f 183e 79cf 663e 590c ba3d
00000160: f70a 4abb 7946 8b3d 3ca5 9fbd d829 4e3e
00000170: 5a33 adbc 6cbb 3a3e 11ea 8e3d 439b 263e
00000180: 2462 13be 470f 7c3d ca16 883d a51d 3f3d
00000190: f59f 6c3e a47a f13d 939f 0f3e 2a50 ef3c
000001a0: 289d 21be e372 07be 3d56 99bd a051 443e
000001b0: 6e8e 6bbd f382 40be eba8 8ebc b70f 1c3e
000001c0: 1bf4 983d 91b9 703e b1f6 9fbd 460e 613e
000001d0: fe8b 5c3e 2853 14be 7694 9dbd 6fb9 28be
000001e0: ca51 6b3a bc6d 743d 7b09 a23c 5844 b83d
000001f0: e082 cb3c 5c3c ed3d b3de bf3d 3ed4 ebbd
00000200: 5f3f 55bd 53e5 9a3d 9bba 03be 00ef 023d
00000210: 2dfa 09be b22a a5bc 50ca 3e3e c3c3 c43d
00000220: 7641 053e 48f1 a03d 7170 053d 042b 3d3e
00000230: 8c74 3a3e 4ca3 153e 8f6e 313d 9434 8f3d
00000240: e069 023e cf62 82bd 0ff8 21be 0aa4 943d
00000250: 50f5 6bbd ac2b b0bd
0.105144076 0.14550719 0.0967781 0.030842748 0.0667829 0.07502462 -0.13321567 -0.017185552
0.18441363 -0.063958466 0.010357154 -0.05612837 0.11138246 0.08311463 -0.032996584 0.12829374
0.07211315 -0.10751919 0.05228032 -0.08541386 -0.1759682 0.025369788 0.21175772 -0.012642592
-0.01959447 -0.04591798 0.16941851 0.023039885 -0.10750896 -0.013595476 -0.16951786 -0.048127558
0.069395974 -0.026767086 -0.028149655 -0.08674704 0.14489032 -0.027803771 0.20142339 -0.028511846
-0.075899206 0.12375687 0.1751133 0.15345491 0.20213284 0.16430111 -0.16863939 -0.11043941
-0.12774263 0.1987703 -0.19262606 -0.21648467 -0.17884392 -0.04194989 -0.06518861 -0.24399124
-0.24753566 -0.20114104 -0.106793165 -0.07591761 -0.2477495 -0.13813443 -0.2948741 -0.16604552
0.11050556 -0.348623 -0.33771813 -0.16907054 -0.104862705 -0.111262634 -0.06309246 -0.042524215
-0.09769338 0.13208231 0.16041443 0.14694217 0.11449093 -0.008099588 0.022025568 -0.000307223
-0.095752805 -0.08636089 -0.18635996 0.07975311 0.06281038 0.14861779 0.22540082 0.090843864
-0.003082929 0.06800551 -0.07795188 0.2013315 -0.02114265 0.18235558 0.069782384 0.16270165
-0.14392906 0.061538007 0.06644972 0.04665913 0.23107894 0.1179097 0.14025716 0.02921303
-0.15782607 -0.1322742 -0.07487152 0.19171762 -0.05750888 -0.18799953 -0.01741453 0.1524037
0.074684344 0.23508288 -0.078107245 0.21978101 0.21537778 -0.14484847 -0.07694332 -0.16476987
0.0008976726 0.059674963 0.019779911 0.089974105 0.02484268 0.11583778 0.093686484 -0.11515091
-0.05206239 0.075632714 -0.12864153 0.03196621 -0.1347434 -0.02016196 0.18631864 0.09607651
0.13013253 0.07858521 0.032577936 0.1847344 0.18208522 0.14613074 0.043318328 0.0699245
0.127357 -0.063665025 -0.15817283 0.072578505 -0.057606995 -0.0860208

encoder.conv1.bias f4 [6]
00000000: 75ae 3e3e 7759 d4bd b4db e93d b077 d63d
00000010: d0c4 053e c7ab 293e
0.18621238 -0.103686266 0.11418858 0.10472047 0.1306336 0.16569434

encoder.conv2.weight f4 [16, 6, 5, 5]
00000000: 93e7 753c e4f8 a53d 975e dcbc 5d0f ffbc
00000010: 1b42 16bd 9385 b93c f87f 8d3d 25c1 ad3d
00000020: 6704 8d3d ea05 4a3d 41d4 883d 1a2f 6e39
00000030: 6726 aa3d 0a29 b8bd 4e68 263c a46f 863d
00000040: 08e2 57bd 9f6c a13d f2f0 bcbc 9085 0cbd
00000050: c0aa 923d 96ae 893d 43ce 043d 6fb9 a13d
00000060: 3cbc 453b c629 a33d 3367 aa3b 57b6 2f3b
00000070: 52c4 493c d245 58bd 2af7 9ebd a48b a83c
00000080: 210a cdbd c207 c8bd 5296 903c 093c 62bc
00000090: b87e 0f3d b2d6 3a3d 1803 30bc 7a6e ad3c
000000a0: b85e 633d ae32 6b3d 0b21 3ebd cb20 89bd
000000b0: f48d 88bd 9e88 d03d 2144 273d 1461 6cbd
000000c0: a0f5 fdbc e523 57bd 090f c23d 4587 2e3d
000000d0: 511a 903c 26e3 c5bd ace5 b53b 44cc 5c3d
000000e0: 7843 4fbd 090d 9fbd 4bed f2bd b866 543d
000000f0: 6ab7 24bc c7d2 4abb 39e4 b8bd 86ae d0bd
00000100: d09c 253d 9aec c53b 6230 07bc c9de 14be
00000110: 8e32 aebd c340 98bd 7b3b f6bc 7302 e0bc
00000120: 772c 8dbd 7c99 49bd 4db3 8a3d 1189 313c
00000130: c95c 813d 056f 033d 19ee 163d 5fa8 e43c
00000140: 53ae acbc 9c96 5bbd 0e0b 0fbd f806 b2bb
00000150: dbb7 9cbd 4e23 7c3d 3d63 a13d 5d25 603d
00000160: c906 78bd 44f4 cb3c ccdb 58bd 5034 173d
00000170: 7f3f aa3d a639 21bd 2848 143c 6d60 143d
00000180: 2ee0 b23d ca9f 6b3d 5ed1 0cbd 9061 323d
00000190: efd0 4c3d 0141 edbb 8565 3c3c 3021 973c
000001a0: 036e 91bd dcc3 9cbb e7cb 9a3d 7b52 a4bc
000001b0: 1dcf b2bc fa76 debd aa0b 6dbd bf1d 24bd
000001c0: a189 a33d 8768 9c3c abf2 d9bc b9af 963d
000001d0: 8629 6abd 0ea9 253d 1d53 3d3d 0682 473d
000001e0: 6d43 193d 87e7 61bc 9ca0 a1bc 5c1c fe3c
000001f0: b9e5 8e3d 426f ec3c 4d4e 543d dd83 2a3d
00000200: efd9 ddbc d1ef 8f39 e1cc 2c3c 51e8 e43a
00000210: 0e5d 4b3d 1ddc 3dbd a248 213d 10ac 8fbd
00000220: dee4 bcbb 37d7 623d cc34 11bc edf5 a13c
00000230: 1e26 293d 99f3 2d3d 4f5c 983d 124b a73d
00000240: 8a64 a73d b8b0 d33d c2b9 b93d e125 8a3d
00000250: ee42 86bd 07d0 c53c 7d48 8bbd 570b 9ebd
00000260: 21aa 30bd b1eb 42bd d6b3 a1b9 a452 10bd
00000270: 2ed3 b63d b970 8abd 81c8 973c 1e23 8d3d
00000280: fbd1 923c 4ceb 8dbb e3d6 b83d d30a 94bb
00000290: bc70 0b3c 6ec5 96bb 03f5 ed3b af18 283d
000002a0: d709 5a3c a092 923c b293 4b3d d70f 3f3d
000002b0: 9163 db3c 9b65 a7bc 3792 06bc 5432 0bbd
000002c0: 54bc 213c 5075 9d3b 9c48 a43d ad26 3e3d
000002d0: 3535 973c fcfd 7ebd 3179 eebc ab7c 92bd
000002e0: 7824 923d 7485 853d 596c c1bc 0ab4 463d
000002f0: ac01 8e3d e406 473d ba7d 5ebc f134 90bd
00000300: c5c2 623d e8cc 66bd 2aee 66bd 17c3 30bd
00000310: 9553 a23b 7abe 793b c736 2a3d 0c0d 9abb
00000320: 6f14 b73c 8fd6 d63c 5135 38bd 6d82 9c3d
00000330: b7ce 21bd d297 a83d 11b6 e73c 1525 12bc
00000340: 90ff 53bd eb9a a8bd 67b7 6fbd 7af2 ffbc
00000350: 1901 77bd b55e debd 8121 52bd 16f1 a93c
00000360: b05f 8c3d e0b7 133c 4c4b 0ebe efe5 dabd
00000370: 0b98 84bc 0a08 483d e76f 303c e488 5abd
00000380: de3a 89bd 256b 893d 7e75 3fbc 3c4d 203c
00000390: 5816 16bd 126d 0d3d 6f03 d23d d20c b03c
000003a0: 6b20 773d d67f cd3c 7801 9b3d 9192 7c3d
000003b0: 4627 43bd aedc 10bd a961 293d 184a 323d
000003c0: 6d6e 5bbd 7360 003d 8121 59bd 6e9a b13c
000003d0: b253 91bd f59b 8bbd 3ecf c1bd 80aa 73bd
000003e0: 97bc b7bc 0966 5a3d 7ce0 023d 7929 ab3d
000003f0: 828f 5fbc 9cd5 1b3d 1637 033d 8435 eb39
0.015008825 0.08104113 -0.026900573 -0.031135255 -0.036684137 0.022646701 0.06909174 0.08484105
0.06885605 0.049322046 0.06681109 0.00022714995 0.08308106 -0.089922026 0.010156704 0.065642625
-0.052705795 0.07882046 -0.02306411 -0.034307063 0.07161474 0.06722753 0.03242327 0.07896697
0.003017201 0.07966952 0.0052002906 0.0026811564 0.012314873 -0.05280096 -0.077619866 0.020574398
-0.100116976 -0.09767105 0.017649803 -0.013808259 0.035032958 0.045614906 -0.010742925 0.021170843
0.055510253 0.05742138 -0.04641823 -0.06695708 -0.066677004 0.10182308 0.040836457 -0.05770977
-0.031000912 -0.052524466 0.09475524 0.04260947 0.017590674 -0.09662466 0.0055510607 0.05390574
-0.050601453 -0.07766158 -0.11861666 0.051855773 -0.010053495 -0.0030948387 -0.09027905 -0.10189538
0.04043275 0.006040168 -0.008251281 -0.14538111 -0.08505736 -0.07434227 -0.03005766 -0.027344918
-0.068932466 -0.04921864 0.0677248 0.010835902 0.063165255 0.0320883 0.03684816 0.027912317
-0.021079218 -0.05361043 -0.034922652 -0.0054329596 -0.07652255 0.061557107 0.07880256 0.054723132
-0.060553346 0.024896748 -0.05294399 0.036915123 0.08312892 -0.03936162 0.0090504065 0.03622477
0.08734165 0.057525434 -0.034379356 0.043550074 0.050003942 -0.007240415 0.0114988135 0.018448442
-0.07101061 -0.0047840904 0.075584225 -0.020058861 -0.021827275 -0.10862537 -0.05787245 -0.04006743
0.07985235 0.019092811 -0.02660497 0.07357735 -0.057168506 0.040444426 0.04622184 0.048707984
0.037417818 -0.013788111 -0.019729905 0.031019382 0.0697741 0.028861646 0.051832486 0.04162966
-0.027081458 0.00027453763 0.010546894 0.0017464255 0.04964929 -0.046352495 0.03937591 -0.0701524
-0.005764588 0.055381026 -0.008862685 0.019770587 0.041296117 0.04246864 0.074394815 0.081686154
0.08173473 0.10336441 0.090686336 0.06745506 -0.065557346 0.024147047 -0.068009354 -0.07717007
-0.043130998 -0.047588054 -0.000308423 -0.035235062 0.08926998 -0.067597814 0.018528225 0.06891464
0.017922392 -0.004331028 0.090253614 -0.004517892 0.008510765 -0.004601172 0.0072618737 0.041039165
0.01330801 0.017892182 0.0497014 0.046645965 0.026780875 -0.020434191 -0.008213571 -0.033983544
0.009871561 0.0048052445 0.08021662 0.046423603 0.018457988 -0.062253937 -0.029110523 -0.07152685
0.07135862 0.06519595 -0.023611235 0.048511542 0.06933913 0.048590556 -0.01357978 -0.07041348
0.055361528 -0.056347758 -0.056379475 -0.043154802 0.0049538114 0.0038107918 0.041556146 -0.0047012623
0.02234861 0.026225356 -0.04497272 0.07642064 -0.03950378 0.082320824 0.028285058 -0.008919974
-0.051757395 -0.08232673 -0.058524515 -0.031243552 -0.06030378 -0.10857908 -0.051301483 0.020744842
0.068541884 0.009016007 -0.13895911 -0.106883876 -0.016185781 0.04883579 0.010768867 -0.053353205
-0.06700681 0.06709889 -0.011685727 0.009784039 -0.036642402 0.034527846 0.10254561 0.021490488
0.06033365 0.025085371 0.075686395 0.061663214 -0.047644876 -0.035366707 0.0413529 0.043527693
-0.053572107 0.03134198 -0.053010467 0.021680083 -0.07096042 -0.06816856 -0.094633564 -0.059488773
-0.022428794 0.053319965 0.031952366 0.0835752 -0.013645055 0.03804551 0.032034956 0.00044862565

encoder.conv2.bias f4 [16]
00000000: a084 93bd db78 973d bc3e a53d 3cbf ee3c
00000010: 0009 bcbb 96ca 2ebd a70d 8e3d 2db1 983d
00000020: 04bb 823d 0d73 50bc f53d 64bc 395a 8fbc
00000030: b900 2dbc eb8b f33c 797e fdbc ee58 4cbd
-0.072030306 0.07396098 0.08068606 0.029143922 -0.0057383776 -0.04267367 0.06936198 0.074556686
0.06383327 -0.012722743 -0.013930787 -0.017499076 -0.010559254 0.029729804 -0.030944096 -0.049889497

encoder.fc1.weight f4 [120, 400]
00000000: 006c 843d 59cb 9b3b c79c 783d d77e 373c
00000010: 0478 623c 17e7 65bd 3773 92bc f603 3a3a
00000020: 5733 ca3b 5be0 103d e1b5 4cbd 3c42 f2bb
00000030: 0222 b83d dcdb 2e3d e7c9 46bd 08b8 17bd
00000040: d289 543d 43b7 b73c dc2c c7ba c7fc e0bb
00000050: ea1f 613b 1417 353d 1c41 643d 040e 1abc
00000060: aa25 f9bc b0b7 0a3c f398 0ebc 550c 943d
00000070: 2fe4 263b 0993 f0bb bd65 64bd a427 5d3d
00000080: 60c2 893d bf99 893d 7777 49bd f8f4 81bb
00000090: bf15 f53c 739e 183d 1b62 f23a 424f 15bd
000000a0: a8e6 33bd 4f90 fb3c 1bbf ae3d 5c5b 993c
000000b0: 4689 6abd 8fb4 743c 3cd3 b4bc 4db3 f9bc
000000c0: 6d32 8bbc e9fe 7abd d380 0e3d f8c4 b5bc
000000d0: 32ac 9a3d 3009 81bc 53e0 c8bc c939 febc
000000e0: 3ab1 a13d 9afa 9e3d 8e47 afbc 2b60 57bd
000000f0: 4f96 3fbd 291b b53d 4fca ca3d f8d9 60bc
00000100: 852d babc 55af 153c b62f 073d d292 ee3d
00000110: 4332 7cbb 20d3 05be d59a 09bb ef02 d13d
00000120: d8e8 5abc 19bf d8bd 1d01 f83c c476 353d
00000130: a495 8d3d 4fa7 ebbc 9b74 efbb d47e 483d
00000140: 1011 4b3d 5edc d63d 1557 ae3c e30c 933d
00000150: 058c dd3d 34ee 8c3b 3fa1 a9bc ceac 93bd
00000160: a143 813d 5507 2e3d 51fc 2a3d 1b86 dd3c
00000170: c09a dc3b 2520 083d 3ac7 a5bc 2a41 b13b
00000180: fe4e 403d be81 1a3d 67d5 153d 255f 0bbd
00000190: b240 573d c135 683d 8eb0 633d d4d3 b13c
000001a0: 7a53 1abd 6c01 8bbc 39c0 8a3d 786b 9dbc
000001b0: 1fe3 bf3d 639d a7bc 2ea5 0a3d 2e70 f3bb
000001c0: f5da 883d dcbb a03d b6b4 4ebd 1d07 f539
000001d0: 453c 38bd 73a6 883c 6e3d 993d d7f6 053c
000001e0: 7ffd 66bd 55c0 8cbd f1c1 873d 1994 7f3d
000001f0: 6c92 45bd c89d 093c f8f7 04bc c9e5 343d
00000200: 12ba a23d 1568 56bd 28a7 84bd e6da 6bbd
00000210: e407 963c 30f6 7e3d 91f1 13bd 24db eebd
00000220: 3f1d 3a3d 8b70 0f3d 0f3f 323d 5fc3 a1bd
00000230: a1f7 a23c 97d4 f8bc efc2 43bc 5da7 16bd
00000240: 17f0 1fbd 818d 0fbd a225 a1bd 7321 acbd
00000250: 3a08 343c bb19 563d 0176 48bd 073e 05bc
00000260: 2a9b d03a a11a 803d cf6d 8bba 4ca5 38bd
00000270: 299b 923c 3d14 0c3d 6860 bebb 92d6 a2bb
00000280: 563c 97bc f06e 103d 1788 4d3d 47b1 ad3d
00000290: f23f 1abd 0498 1bbd 7151 3c3d 52b9 8e3d
000002a0: 7857 523c 3433 c3bd 2fbe c6bb 2ce8 463d
000002b0: 7073 9a3d 2488 67bd bdba bebd ca1d 963b
000002c0: 894f 27bb a4af 23bc 5ceb 0e3c 2efa 103c
000002d0: d57d 8fbd 2583 b13c 7fe1 2c3d 63a8 823d
000002e0: 24ed bcbc df57 08bd b54c ffbc 5fe1 723d
000002f0: 4273 de3d c9e0 8ebd ed5c fabc 16ba 70ba
00000300: 28ba 593d 2b2d 8ebc a0f3 cebd 059c 143d
00000310: a3fa 903b 8266 19bb 69f0 133d cc23 2ebd
00000320: 07cd 353b 0f5e 7cbc d187 ff3a 0369 c03c
00000330: 8c54 ba3c 5b5d b9bb 5b46 9bbc aa77 533d
00000340: 144a b63b 4521 2d3d e8c6 9cbb d3ec 003d
00000350: bfa9 f13d 2fde 03bd cca3 ecbd 374b 68bc
00000360: ca1c ea3d 5b90 5b3d b0de 4dbd 7785 9dbd
00000370: a265 25bc 25ce 5b3d cadc ba3c a213 95bd
00000380: 2f5e 87bb b65c 173c f93d fa3b 01fc 833d
00000390: 5bbc 9b3d ff9e 3abc 8aff 5bbd 9058 b53c
000003a0: 270b 483d ce8f 973d 7b1a cebc 1a27 4e3d
000003b0: 2faa 493d c4f6 993c b75d 3e3d 4e6e f8bb
000003c0: ab47 12bd 324d 08bd 38df 7e3d 891d b43d
000003d0: aa7d 683c 66d7 93bc 89e0 46bd ba45 0abd
000003e0: e872 693d 76eb 06bd aa66 ca3d 3d96 a03d
000003f0: 9bf7 3d3b 327e b93d a904 d9bc 7f52 d2bc
0.06465912 0.0047544655 0.06069639 0.011199675 0.013822559 -0.056128588 -0.017877204 0.0007095927
0.006170671 0.035370212 -0.04997814 -0.0073931497 0.089908615 0.042690143 -0.048532393 -0.03704074
0.05188925 0.022426253 -0.0015195864 -0.006866071 0.0034351298 0.044211462 0.055726156 -0.009402756
-0.030413467 0.008466646 -0.008703458 0.07228915 0.0025465598 -0.0073417467 -0.055761088 0.053992882
0.06726527 0.06718778 -0.049186196 -0.00396597 0.029917596 0.037260484 0.0018492372 -0.03645254
-0.043921143 0.03070846 0.08532544 0.018720321 -0.05725982 0.014935627 -0.02207338 -0.030481005
-0.016991818 -0.061278258 0.034790825 -0.022188649 0.07552375 -0.015751451 -0.024521029 -0.031033413
0.078951314 0.07762642 -0.021396425 -0.052581947 -0.046774205 0.08843071 0.099018686 -0.013723843
-0.022726784 0.009136041 0.033004485 0.116490975 -0.0038482107 -0.13068819 -0.0020996828 0.10205638
-0.013361178 -0.10583324 0.030273968 0.044302717 0.06913307 -0.028766302 -0.0073076016 0.048949078
0.04957682 0.104912505 0.021281758 0.07180192 0.10817722 0.004300857 -0.020706771 -0.07210694
0.06311727 0.04248746 0.041744534 0.027041486 0.006732315 0.03323378 -0.0202366 0.0054093795
0.046950333 0.037721388 0.03658047 -0.034026284 0.052551933 0.05669189 0.055588298 0.021707453
-0.037677266 -0.016968451 0.06774945 -0.019216284 0.09369492 -0.02046079 0.033848934 -0.0074291443
0.06682388 0.07848331 -0.050465308 0.0004673534 -0.044979353 0.016680932 0.0748242 0.008176527
-0.056394096 -0.06872622 0.06628788 0.062397096 -0.048235342 0.008399434 -0.008115761 0.044164453
0.07945646 -0.052345354 -0.06477195 -0.057581805 0.01831431 0.0622465 -0.036119048 -0.116628915
0.045438047 0.03501944 0.04351717 -0.07898592 0.01989347 -0.030374808 -0.011948331 -0.036780704
-0.039047327 -0.035047058 -0.07868506 -0.084048174 0.0109882895 0.052270632 -0.048940662 -0.008132464
0.0015915383 0.06255079 -0.0010637584 -0.045079514 0.017896252 0.03419899 -0.0058098324 -0.0049694264
-0.018461388 0.03526205 0.050178614 0.084810786 -0.03765864 -0.03798677 0.045976106 0.06968941
0.012838237 -0.095312506 -0.006065152 0.04856126 0.07541549 -0.05652632 -0.09312961 0.004581188
-0.0025529584 -0.009990606 0.008723106 0.00884871 -0.070064224 0.02166898 0.042207237 0.063797735
-0.023062296 -0.033286925 -0.031164506 0.059296962 0.108618274 -0.06976468 -0.030561889 -0.00091830024
0.053156048 -0.017355522 -0.101050615 0.036281604 0.0044244095 -0.0023407047 0.036117945 -0.042514607
0.0027740614 -0.015403285 0.0019495432 0.023487573 0.022745393 -0.005656881 -0.018954447 0.051627792
0.00556303 0.042268056 -0.0047844537 0.031475853 0.117999546 -0.032194313 -0.11554679 -0.014178089
0.11431272 0.053604465 -0.0502612 -0.07691472 -0.010095032 0.05366339 0.022810359 -0.07279135
-0.0041311006 0.009238413 0.0076367822 0.0644455 0.07604285 -0.011390447 -0.053710498 0.022136956
0.04883876 0.074004754 -0.025159111 0.05033026 0.049234565 0.018794425 0.046476092 -0.0075815087
-0.03571288 -0.033276744 0.062224597 0.08794696 0.014190117 -0.018047046 -0.048553977 -0.033757903
0.05699435 -0.032939397 0.09882863 0.07841156 0.0028986696 0.09057273 -0.02649148 -0.025674103

encoder.fc1.bias f4 [120]
00000000: 23de 9a3d 1be5 02bd e7c6 55bd 1409 08bd
00000010: 2a88 543a 701b fdbc b986 443b 6839 a93b
00000020: 9a6c bd3c 5bda 593d 369e 5abc 1aad 7fbc
00000030: ea84 10bd da6f 383d 3b72 273d 188b 89bd
00000040: f5d6 dcbb a8c2 8a3b 1937 2c3d 8a96 8bbc
00000050: fd39 083d 6d19 93bb 60ba cbbc dc71 65bc
00000060: f522 75bd face 123d b564 50bd 7e8f 1cbd
00000070: 78b0 3e3c 3dae c73b a4c2 233d 5bca 3abc
00000080: 389a 38bd 9186 4dbc e999 cfbc 1341 073d
00000090: caab 89bb eba0 8e3b 3a9e c7bc 6438 6b3c
000000a0: 23f0 16bd d518 b33c 674c b63a 9456 4fbd
000000b0: 8872 84bc 78c3 cabc cc41 d43c 81ca 123c
000000c0: 7836 82bc 2e51 99bc df0c 84bc b828 17bd
000000d0: b0f7 aa3b b342 54bd 075c dc3b 9853 393c
000000e0: 006a f53c e1ef 9e3c 430e 283c 97f2 f93c
000000f0: 2531 28bd b1f7 34bd 6436 1cbc a0f3 133d
00000100: 5aa0 243d 97ae debc 871c cd3c 0765 d53c
00000110: 7bb4 743c 22bf 9fba 3825 10bd 5821 003d
00000120: 6542 22bd 1213 383c e1bf b63c 54e1 b8bb
00000130: 2d1b 15bd 0737 0e3c 4c67 56bd 72b8 45bd
00000140: d3dc f3bb 9662 e7bc f325 793c c3a5 2abd
00000150: 3e56 0a3d 9929 19bd e0ec 16bd ccbd 143d
00000160: ec7a b63c 8dc3 283c 6fa1 933c 9710 dcbc
00000170: a4b4 08bd cde2 42bd 145d 04bd c677 5f3c
00000180: be49 f03c 528a 56bd 88f2 45bd a664 a2bc
00000190: 82a0 eebb 44f5 ecbc f2a3 2abd 0a86 f9bc
000001a0: efd4 a9bb 27dd 51bd f7d6 0d3d 805b 263c
000001b0: 501b db3c c0b0 99bc 4ec2 e83c 15f9 0b3d
000001c0: fa55 9cbc ad41 0c3d 445b 03bd 04b4 f73c
000001d0: d662 603b e5b0 e53c 6cf3 a63b 431d 31bc
0.075619005 -0.031956773 -0.05219164 -0.033211783 0.0008107448 -0.030896872 0.0029987528 0.005164314
0.023123074 0.053186756 -0.0133433845 -0.0156052355 -0.035283007 0.045028545 0.040880423 -0.06715983
-0.006739492 0.0042346306 0.042044733 -0.017039556 0.033258427 -0.004489115 -0.024869144 -0.014004197
-0.05984779 0.03584192 -0.05087729 -0.038222782 0.011638753 0.006093769 0.039980546 -0.011400784
-0.04506895 -0.01254429 -0.025341945 0.033021044 -0.004201387 0.004352679 -0.02436744 0.014356706
-0.036850106 0.021862427 0.0013908268 -0.050619677 -0.016167894 -0.02475141 0.02591028 0.0089594135
-0.015895113 -0.018715467 -0.016119419 -0.036904067 0.005217515 -0.05182142 0.0067248377 0.011311434
0.029957771 0.019401493 0.0102573065 0.030511184 -0.041062493 -0.04418153 -0.009534452 0.03612101
0.040191986 -0.02718286 0.025038017 0.02604915 0.014935608 -0.0012187699 -0.035191745 0.0312818
-0.0396141 0.0112350155 0.022308292 -0.0056420956 -0.03640287 0.008680112 -0.052344605 -0.048271604
-0.007442096 -0.028245252 0.015206802 -0.04166199 0.033773653 -0.037393186 -0.036846995 0.036313817
0.02227541 0.010300529 0.018021313 -0.02686338 -0.033375397 -0.047579575 -0.03231533 0.013639396
0.029332038 -0.052378006 -0.048327 -0.019823384 -0.0072823176 -0.028925546 -0.041660257 -0.030459423
-0.0051828544 -0.051236298 0.034628835 0.010153651 0.026746422 -0.018761039 0.028412964 0.03417309
-0.019083966 0.03424232 -0.03206946 0.030237205 0.0034238598 0.028038451 0.005094936 -0.010810199

encoder.fc2.weight f4 [84, 120]
00000000: 8e36 19bd 2504 193d 4bd2 973d 264a 533c
00000010: 5637 f43d e636 383d c527 153d c238 a6bd
00000020: 6d97 dd3c 3e92 123d 3670 513d a746 b23d
00000030: eabb a4bd 849f 9b3d 69da af3c 236e 45bd
00000040: 14f5 26bd 3f49 753d cd71 bd3d 54b1 123d
00000050: f560 2e3d 6352 3d3d b0cc babc a910 bbbc
00000060: 4cf0 0abd 6537 92bd f85f 20bd 13ca a53d
00000070: 6813 633d cb78 353d 9d6e c0bc 0c59 15bd
00000080: b690 9fbd cc89 bb3d 2436 9b3d 7ef4 723d
00000090: f1e7 a3bc b883 98bd 358c 87bd efd1 39bd
000000a0: ea38 273d 767a 273c ae37 0bbd 0c32 a4bd
000000b0: 1a32 a9bd 6791 f53a 4097 9bbc 2c9a b33d
000000c0: 6a22 0c3d c6bd 1c3d 840a f5bc 5fce f7bd
000000d0: 5bb7 f33c 54be 683d b1ac e4bc 7c46 0dbc
000000e0: c34c 0e3d 90b4 103d 55bc 97bd b147 5e3d
000000f0: 2364 ebbc a3c7 01bd 6460 06bd e206 2abc
00000100: 3274 dc3d e2c9 fe3c 5a95 ccbc 0f88 463d
00000110: d738 febc 4dfc 843b e868 a63c f5c2 52bd
00000120: 1fd3 b13c e945 fb3c ec4e 35bd 1ffe f3bb
00000130: 9043 48bd 2255 cfbc 4cf0 313c cb82 28bc
00000140: f61b 8fbd c975 0c3d 6a66 be3d 86e8 19bc
00000150: 1193 b93d 07ea 463c 30d8 913d 9e54 cf3d
00000160: 4fe2 eebc 44cf 35bd 861b 063d 70c9 973d
00000170: 476b 063e 1ceb a33d 05bc 6a3d 3442 2a3b
00000180: c4d2 5839 2ed1 913d 28de a3bd 9e7e 62bd
00000190: f566 113d fe6b 9f3d 78ad ca3d f2cb 94bc
000001a0: aacd 73bd 2391 99bd f6bb e53c 79b0 1bbc
000001b0: 06d1 9cbc 91b5 9e3d 6e12 38bc a1d4 63bd
000001c0: f5f5 2d3d df0f 773d a92b 9fbd 073b b43c
000001d0: f888 b93b bb05 833d b00d 3e3c 3192 683c
000001e0: 4f39 d33d 9562 b7bd 79fc 2cbc dc82 00bd
000001f0: 9084 e2bc a92b 353d 4183 7cbd ca37 a1bd
00000200: cebc b73d 2baf b1bd 77e8 773d 2e69 c43c
00000210: 702b 3a3d c23c 2b3c d653 c6bc 0176 2b3b
00000220: 32dc 14bc 520c 70bd ca36 3a3d f869 c73b
00000230: a62b 29bd 20b7 003d f305 2abd c153 5ebd
00000240: ad9e bb3d 8233 efbc ce95 763d 8ffa 183d
00000250: acfd 45bd f4c5 fa3c cbd3 743d 78b6 a73c
00000260: e065 d5bc 5394 c5bb 4e1b fbbd 701d d9bd
00000270: b0e2 bfbc c566 b7bd c7ae 88bd c9c8 923d
00000280: 2137 cdbd f524 123e 0276 5dbd ea79 c6bd
00000290: 540e ac3d 68f4 303d 23cb 7e3c e7f4 813d
000002a0: 20c6 573d 339f 803d 8371 b3bc 4e0d 323d
000002b0: f512 803d b351 07bc 1614 bd3c 4466 3fbd
000002c0: c4c4 9a3c dcc2 1cbd f353 5d3d 5016 533d
000002d0: 048f 923d 5c34 abbc a5b6 fcbc 594a 13ba
000002e0: 62b5 0a3d 5988 9e3d c8a7 893d 2253 cabc
000002f0: c18f 273c df8f aebc 4e36 113d dc8b 5ebd
00000300: a38f cfbc 2340 6d3d 93f7 ad3d acae 7f3c
00000310: bf79 9c3d 9172 ad3c ba5a 8b3d e3d5 1d3d
00000320: c366 e5bc cc4f 8dbd cb67 0cbe fe21 943d
00000330: 7715 b1bd a921 3e3d 49e0 713d 33fa b3bd
00000340: 47dd 8a3d 7a4e 0bbd 3f47 03be b597 de3c
00000350: 2d63 57bd 652f 6ebb 832b 973d 4c77 5dbd
00000360: d5ec 443d e243 90bd d213 943c 1874 0f3d
00000370: 8442 7fbd 12a6 28bc 6e88 9fbd 6393 82bd
00000380: f2e5 733d 9712 6bbd cdae 48bd 1e47 a8bd
00000390: cda1 ed3c 3127 c9bc 714f 5dbd 8f67 0ebc
000003a0: eb4b 95bd 0c94 adba f674 e5bc 597e 6a3d
000003b0: bd69 8b3d 17dd bf3d 50df d1bc 576d 83bd
000003c0: d363 e23b 3cf1 a4bd f9ac 98bd 7b73 543d
000003d0: d8d0 703d 09e4 a93d 3dec 8dbc 7b5a 8abb
000003e0: a58f 00bc e263 87ba 6060 a53d ea9a 90bd
000003f0: edac 24bb 2a22 86bd c7d4 9a3d 4ea9 5cbd
-0.037405543 0.03735747 0.07413157 0.012896096 0.11924617 0.04497423 0.03641488 -0.081162944
0.027049745 0.035784 0.051132403 0.08704882 -0.08043654 0.075987846 0.02146645 -0.048200738
-0.04076107 0.059884306 0.092502214 0.035813645 0.042572934 0.04622115 -0.02280268 -0.022835093
-0.03392057 -0.07139472 -0.039154023 0.08095183 0.05543843 0.04430465 -0.023490245 -0.036461875
-0.07791273 0.09157142 0.07578686 0.059315197 -0.02000806 -0.07446998 -0.06618539 -0.045366224
0.04082576 0.010222068 -0.033988647 -0.08017358 -0.08261509 0.001873535 -0.01899302 0.0876964
0.034212507 0.03826692 -0.02991224 -0.12099909 0.029750517 0.056822136 -0.027914377 -0.008622762
0.034741174 0.035328448 -0.07408968 0.05426759 -0.028734272 -0.03168453 -0.03280677 -0.010377618
0.1076435 0.031102125 -0.02497356 0.0484696 -0.031032963 0.004058397 0.020313695 -0.051455457
0.021707116 0.030672984 -0.04426472 -0.007446065 -0.048892558 -0.02530915 0.010860514 -0.01028509
-0.06987755 0.034292016 0.09296878 -0.009393817 0.09061254 0.012140757 0.071213126 0.10123561
-0.029160647 -0.044387117 0.032741092 0.07411468 0.1312686 0.08003828 0.057308216 0.0025979402
0.00020677882 0.07119976 -0.08001357 -0.055296533 0.035498578 0.0778427 0.09896368 -0.018163655
-0.05952231 -0.07498386 0.028043728 -0.009502524 -0.019142639 0.07749475 -0.011234863 -0.0556227
0.04247089 0.06031787 -0.077719994 0.022000803 0.00566208 0.063975774 0.011599943 0.014195011
0.10313665 -0.0895435 -0.010558241 -0.031374797 -0.027651101 0.04423109 -0.06164861 -0.07871969
0.089715585 -0.08675989 0.06052443 0.023975935 0.04545158 0.0104514975 -0.024209898 0.0026162865
-0.009085702 -0.0586055 0.045462407 0.0060856305 -0.041301392 0.03142464 -0.04150958 -0.054279093
0.091611244 -0.029199366 0.06020146 0.037348326 -0.048337623 0.03061197 0.059772294 0.02047275
-0.026049554 -0.0060296445 -0.12261067 -0.10601318 -0.023423523 -0.089551486 -0.06673961 0.07167203
-0.10020281 0.1427191 -0.05406762 -0.09691222 0.084011704 0.043201834 0.015551361 0.063455395
0.05267918 0.06280365 -0.021904713 0.04346972 0.06253616 -0.008259225 0.023080867 -0.046728387
0.018892653 -0.03827177 0.05403514 0.05153495 0.07156184 -0.02089899 -0.03084881 -0.00056186836
0.033864386 0.0774085 0.06721455 -0.024697844 0.010227145 -0.021308837 0.03545218 -0.0543326
-0.025337046 0.057922494 0.08494487 0.01560561 0.07640409 0.021172794 0.06804414 0.038534056
-0.028003102 -0.06899986 -0.13711469 0.07233046 -0.08646672 0.04641882 0.059051786 -0.08787956
0.067804866 -0.034010388 -0.12820147 0.027171949 -0.052584816 -0.0036344167 0.07381346 -0.05406885
0.048077423 -0.070441976 0.018075857 0.035022825 -0.062319294 -0.0102935005 -0.07789694 -0.06375768
0.059545465 -0.057390776 -0.048994828 -0.082166895 0.029007817 -0.02455482 -0.05403084 -0.0086916825
-0.07289871 -0.0013242974 -0.028009873 0.0572494 0.06807277 0.093683414 -0.025619179 -0.06417339
0.0069088726 -0.08053824 -0.07454867 0.051867943 0.05879292 0.082954474 -0.017324561 -0.004222212
-0.0078467475 -0.001032945 0.08075023 -0.070607975 -0.0025127486 -0.06549485 0.07560115 -0.0538724

encoder.fc2.bias f4 [84]
00000000: 15d6 953c 8775 72bd 6f2a b5bd 27ea bf3b
00000010: d5dd b2bd 409c b6bd 43bb 433c 7f32 b5bd
00000020: 96bb d83d dc2c 77bc 88ce 90bd bf2c 7ebd
00000030: 9120 81bc 252b 053d bf93 da3c 409e 67bc
00000040: b2c9 febc de7d c5bd bcd3 81bc 5a21 a63a
00000050: 4b4a 7abc 9dd9 8c3c e936 0abc 8814 c33c
00000060: 5447 963c ce2f 4fbb 4474 423d 4a2f 3b3c
00000070: fe30 7bbd 8321 953c dc75 20bd eca7 c43d
00000080: a3c3 babd 77f1 333d 815d 38bd c7dd 733d
00000090: 6356 6cbc 6e89 6e3d 7a92 cdbd 7ead ffbb
000000a0: f85a 87bd 0cf9 af3d b88a 6bbd 80dc 833d
000000b0: 0d0d d93b 0281 2c3c dc0a 8e3d 21b3 08bd
000000c0: 063c 15bd 958f 82bd a54e 80bd f216 b3bd
000000d0: 8427 45bd d1ae a1bc 8c43 5c3c f8e8 f03d
000000e0: b1a8 1dbd fca7 d5bd 1825 9f3d c371 043d
000000f0: 0f1a 623d 8a36 3abd 3f92 d53c 38f4 afbd
00000100: 4cb0 843c a66f 90bd 39ac 85ba cf18 ea3d
00000110: 0b47 643d c0de 563a 2998 9c3c 16e3 0e3d
00000120: e08b efbc 6fe8 2bbd 424c 53bd 794f 88bd
00000130: c197 3b3d b7d0 b33c bc55 38bd 83aa 753d
00000140: 24f7 6cbd 519d 663c 7da4 2f3c 15b6 3ebd
0.018290559 -0.059194114 -0.08845984 0.0058567706 -0.08733717 -0.08916521 0.011946502 -0.08847522
0.10582654 -0.015086379 -0.07070643 -0.062054392 -0.0157626 0.03251185 0.026681779 -0.014136851
-0.031102035 -0.09643148 -0.015848033 0.0012674734 -0.015276502 0.01719361 -0.008435943 0.023813501
0.018344559 -0.0031614187 0.04747416 0.011424849 -0.06132602 0.018204456 -0.0391749 0.09602341
-0.09119346 0.04393145 -0.045011047 0.059537675 -0.014424893 0.058236532 -0.10037704 -0.0078026643
-0.06609148 0.08592424 -0.05750534 0.064385414 0.00662387 0.010528805 0.06935665 -0.033373956
-0.036434196 -0.06375042 -0.06265 -0.08744611 -0.04813339 -0.01973668 0.013443839 0.11763185
-0.038490955 -0.10432431 0.07770747 0.032335054 0.055200633 -0.04546217 0.026070712 -0.08591503
0.016197346 -0.07052545 -0.0010198421 0.11430513 0.055731814 0.00081966445 0.019115524 0.034884535
-0.029241502 -0.041969713 -0.051586397 -0.06655783 0.04579902 0.021950109 -0.045003638 0.059977066
-0.05785288 0.014075593 0.010720369 -0.046560366

bottleneck.fc.weight f4 [16, 84]
00000000: c8cf 043d 73f5 0cbd 55ba 78bd 10e3 9cbc
00000010: ca16 bcbd 6850 46bd fcf7 56bd d923 07bd
00000020: 15bc fd3d d1f1 af3d 15c7 893c 7742 06bd
00000030: b1bb 68bd f155 c63d 9674 98bd 3457 c6bd
00000040: c009 613d ca29 a1bd 1993 a43d 0546 423c
00000050: 51e0 7e3c 6f8b 603d 4049 0a3d 3e4d 753d
00000060: 7581 403b 8d9e 2dbd 3835 be3d 021e 243d
00000070: e08a 873d d686 b03d 792a f4bd e25f b6bd
00000080: 4d16 b0bd 9f78 fc3d 5fba 5ebb a236 43bd
00000090: 8fb4 a83d 5420 e33c 7656 65bc 3f7d 703d
000000a0: a46f 3c3d e38d d63d 305a 203d be1e 4e3b
000000b0: 9cf4 e4bc e5c3 09bd c72f 283d 25fb 443d
000000c0: 6071 cb3d a7b1 c6bd 4bf1 d53d e912 92bd
000000d0: e1cd 583d efe7 adbc 1bbb 9d3d bb2f a8bc
000000e0: aecf 16bc b342 48bc 28fa e73c 9d77 cb3c
000000f0: 4c52 e23d 412e a73d 9ac3 dabd b1b7 3ebd
00000100: 4c21 913d a7ce e23c 49e9 07bc f149 05be
00000110: e230 d13d b090 463c d4d9 a53d 745e 94bd
00000120: 7acf 5b3c 1b41 d1bd ca5e 90bd a131 bdbd
00000130: 50d2 80bd 95f0 093e 0aaa 593c 7b83 5b3d
00000140: 3d6f f93d 8748 a03d eba9 983d 44cd ac3c
00000150: 2559 49bd 2b82 b13c b41a cf3d f2e1 6d3d
00000160: 83c2 a8bd 3469 e43c fd8b 87bd 6ae7 60bd
00000170: b0e8 bf3d 33f4 a9bd b31a c93d 6455 30bd
00000180: 31e7 1d3d 7cab bebd b790 163d 92a6 e6bd
00000190: 5392 343d dfa0 c63d caaf bbbc d0cf 5abd
000001a0: 1c46 aa3d 47fa 10bd a564 61bd 02d0 e1bd
000001b0: 290e 943d fdaa eebc 4f80 5bbd 0de8 88bd
000001c0: f6e7 98bd 6fb3 c9bd a664 a7bb c2de b2bd
000001d0: a726 14bc c9cd a13d 9966 303d bd55 c6bc
000001e0: 7648 d6bd 62b1 ddbb 76ed c03d ec2d 22bc
000001f0: 4cd8 58bd 6747 e8bd e376 9bbd e76d 773d
00000200: 8447 eebb 2c48 b2bb d6f9 e3bd 93ca 40bd
00000210: b619 c23d 6561 80bd 823d 793d 0919 76bb
00000220: f8b4 a7bd dc1e 503d 8d0c 103d 6b45 d9bd
00000230: dbfc b83d bbf5 7a3d af7d e83c 023b 5abd
00000240: 1b31 91bd 6807 25bd 983a b33d 50f2 d0bd
00000250: 00e0 993d 0112 b43d fbf7 81bd 3cf7 303d
00000260: 3205 f1bc 75be aabd 8fcd 813d b517 cd3d
00000270: 18f3 293d c943 b93d 3f7c d4bc 6fe5 933d
00000280: 39be 35bd 6d00 c83d 78aa ea3b 67b4 83bd
00000290: 4619 af3d 61bb 5d3d 7732 b0bb 40ab 95bd
000002a0: cf2d fa3d f8a8 90bd 0098 aa3d cd77 9f3c
000002b0: a02c c9bd 198a debd ca9f 88bd 23c1 d83d
000002c0: cd75 aebd 8b45 c6bd caf3 ce3d 3663 a43d
000002d0: f188 b93d 5a03 28bc 3731 ab3d b817 3d3d
000002e0: a620 55be 867a b33c 1133 fdbd ff22 083c
000002f0: 2f9b adbd 5c4c 86bd 1601 68bd f34b e53d
00000300: c800 6ebd aabc 0d3d ae2d 83bc 5b63 c7bd
00000310: 685c 84bc abda 6f3d ef74 81bc 09c3 dc3d
00000320: 4c88 3ebd 152a 08bd b353 a13b b7ac 3e3c
00000330: 57a2 ec3d f8c6 883c f583 a8bd ee1c 99bd
00000340: 6431 073e 1374 c53d d354 f93c bac3 99bd
00000350: d446 c7b9 c883 86bc b263 fe3c 0f00 15bd
00000360: 4be3 2f3d ec9c 68bd 2f26 a33d 0384 3d3b
00000370: 33e7 ad3d a469 a0bd 6c66 97bc 2814 153e
00000380: c252 c83d e172 e13d fff5 a03d 485b bebb
00000390: 4561 3ebd c578 8abd 36e4 873d f0a4 8cbd
000003a0: 8e8d e1bd 38ea c3bd 77fa cd3c dee1 e63d
000003b0: bd68 213d 4ca0 853d 0cc6 7f3b 706a bcbd
000003c0: 45fc 523c 4e6e 383d 5ed3 b13c 801d 8abc
000003d0: 66de d73d a31b 26bd 1655 5a3d d70b b93c
000003e0: fbb0 a6bd 87d1 7e3d d1db 823d 6ba5 003e
000003f0: d2de efbc 2708 0d3d cd96 493d 0839 7ebc
0.03242472 -0.034413766 -0.060724575 -0.01915124 -0.09184034 -0.048416525 -0.05248259 -0.03299317
0.123893894 0.08591045 0.016818563 -0.03277823 -0.05681962 0.09684361 -0.07444112 -0.096846014
0.05494094 -0.07869299 0.08035869 0.011857514 0.015556411 0.054820474 0.033761263 0.059888117
0.0029374037 -0.042387534 0.092874944 0.04006768 0.06618285 0.08619468 -0.119221635 -0.08905007
-0.085980035 0.12327694 -0.0033985598 -0.047659524 0.08237564 0.027725376 -0.013997665 0.058713194
0.046004906 0.104762815 0.03914851 0.003145143 -0.02794867 -0.033634085 0.04106119 0.048091073
0.09933734 -0.09701853 0.104464136 -0.07132513 0.052930716 -0.021228759 0.07701703 -0.020530572
-0.009204788 -0.012222934 0.028317526 0.02483731 0.11050853 0.08163119 -0.10681839 -0.0465619
0.07086429 0.02768643 -0.008295366 -0.13016488 0.10214402 0.012119457 0.08098188 -0.07244578
0.0134161655 -0.10217496 -0.070493296 -0.092379816 -0.06290114 0.13470681 0.013285169 0.053592186
0.1217942 0.078263335 0.07454284 0.021093972 -0.04915728 0.021668514 0.10112515 0.058076806
-0.08240225 0.027882196 -0.066184975 -0.054908194 0.093705535 -0.082985304 0.098195456 -0.043050185
0.03855056 -0.09310052 0.036759105 -0.112622395 0.04408486 0.096986525 -0.022910971 -0.05342084
0.083141536 -0.035394933 -0.055027623 -0.110260025 0.07229263 -0.029134268 -0.05358916 -0.06684885
-0.07466118 -0.09848677 -0.005108434 -0.08733894 -0.009042419 0.079005785 0.043066595 -0.024210805
-0.104630396 -0.0067655304 0.09420292 -0.009898644 -0.05294065 -0.11341744 -0.07591035 0.060407545
-0.007271709 -0.0054407325 -0.11131637 -0.04706819 0.0947756 -0.062685765 0.060849674 -0.0037551543
-0.08188814 0.05081068 0.03516822 -0.106089436 0.09032603 0.061269503 0.028380243 -0.05327893
-0.07089444 -0.040290266 0.0875141 -0.102024674 0.07513428 0.087924965 -0.06346127 0.04320453
-0.029421423 -0.08337108 0.06338035 0.100142874 0.041491598 0.09046132 -0.025938151 0.07221495
-0.044370864 0.09765706 0.0071614347 -0.064308934 0.085497424 0.054133777 -0.0053771096 -0.07308054
0.122157685 -0.07063478 0.08329773 0.019466305 -0.09822965 -0.10866184 -0.06671102 0.10583713
-0.085185625 -0.09681233 0.10105093 0.080267355 0.090593226 -0.010254705 0.08358996 0.046165198
-0.20813236 0.02190901 -0.12363256 0.008309125 -0.084768645 -0.06557533 -0.05664166 0.11196127
-0.058106214 0.034603752 -0.016012993 -0.097357474 -0.016157344 0.058558147 -0.015802829 0.107793875
-0.0465167 -0.033243258 0.004923308 0.011637858 0.11554401 0.016696438 -0.08228294 -0.07476221
0.13202435 0.0964128 0.030435955 -0.07508035 -0.0003800901 -0.01642026 0.031053398 -0.03637701
0.042941373 -0.056790277 0.07966267 0.0028917796 0.084913634 -0.07832649 -0.018481456 0.1455847
0.0978141 0.110082395 0.0785942 -0.0058092214 -0.046479482 -0.06761316 0.06635325 -0.06867397
-0.110133275 -0.09566158 0.025143845 0.112735495 0.039406527 0.06524715 0.0039027957 -0.09199989
0.012877529 0.04502707 0.021707233 -0.01685977 0.10540466 -0.0405537 0.0533038 0.022588653
-0.08139225 0.06221154 0.06389583 0.12563102 -0.029281054 0.034431603 0.04921608 -0.015516527

bottleneck.fc.bias f4 [16]
00000000: af4b db3d d437 3a3d eb5a d9bd 9987 1cbd
00000010: 0f76 abbd ffb8 36bd 3047 9b3d bd87 893d
00000020: 170c cdbd 8db1 55bd f5e6 cf3d ef91 2dbd
00000030: b277 593c 14a4 a83d 1da8 77bd e06e e53c
0.10707795 0.045463398 -0.10613044 -0.038215254 -0.08372127 -0.04461002 0.07581937 0.06715343
-0.100120716 -0.05217128 0.101514734 -0.0423755 0.0132731665 0.082344204 -0.06046306 0.02800697

decoder.fc3.weight f4 [84, 16]
00000000: 4bc8 66bc 8836 d6bd ab34 0fbe 6691 15bb
00000010: 8071 f03b b9b7 a2bd bb53 aa3d f1cd 89bd
00000020: 0424 fdbd 9f19 a0bd fe91 1c3e cc1c 7dbe
00000030: 7deb f93d f8ae 29be 9a2e 243e b272 47be
00000040: 7cfe e3bc b6f0 74be 0114 c13d 9701 80be
00000050: 1d04 553c ab91 123e 4897 a5bc fa9f 5a3e
00000060: 60cf 93bd a8a9 45be 1ef0 1bbe 7418 453e
00000070: d7f4 903d 7098 763e ac69 4ebe d813 183e
00000080: 0ada 9ebd 170b 013e cb2d 3fbe 586f 8d3d
00000090: 9b8b 3dbe c812 8f3d 26b3 253e c69e 453e
000000a0: d8f9 773d a2c0 0fbe 3ca5 6ebe e8c1 37be
000000b0: cca3 9bbb 6685 79be f004 babc 6250 1abe
000000c0: 398a 783e d452 3c3e 6683 933e 149f 33bd
000000d0: 0054 c3bc b217 58be 79d5 133d 1a65 3bbe
000000e0: c0dd eabd e4f9 65be 5d37 133e 943f 1a3e
000000f0: fa69 be3d 421b 0a3e 4e3f 773e e06d e13d
00000100: 70a2 433d 7984 7bbe ae92 a5bd 3b56 14bd
00000110: e49e 693d 43a5 533e b937 febd 15dd 013e
00000120: b84c 4cbd a677 57be 789f 76be 401d 97bc
00000130: d4a4 3a3e bf2e f8bc 5674 7e3e e070 42be
00000140: 46bf b23d 488b 26bd 28be 5e3e f993 4b3c
00000150: 1c6b 193e 803b 393e d6ea 833e df7b 3bbd
00000160: 6e9c 243e 2c28 6b3d 4ab6 733e f7f9 c93d
00000170: 8463 093e e4f4 263e 7c8a bebd e0a1 c83c
00000180: c64c 82bc d820 d0bd 8862 8dbd 00fd f73d
00000190: b84b e2bd 6329 51be 05f7 4e3e 634b a3be
000001a0: 166b 23be 3fa3 4f3e 224e 2e3e cd03 75bd
000001b0: 4029 b3bd e84f 753e 0a3d 60be 488b 0d3d
000001c0: e111 41be 96bd 603e 09d8 0e3e 226c cdbd
000001d0: a0c1 88bd 3dd0 f4bd 61e6 5d3e cd7b 14be
000001e0: 16ee 60be b6b3 cfbd 8019 783e 0476 9e3d
000001f0: 157c 6e3e 7b21 b93d 8046 ec3b 2c85 f03d
00000200: 7413 febd 059e cebc 69ff 3d3c 178a 00be
00000210: 5dec 6fbe c85f 773e f8f1 57be e66a c63d
00000220: 0013 04be 742b 27be 4be7 5abe 2cfe f8bd
00000230: d947 083e 528e 9c3d 3432 2c3e d43f 573e
00000240: 09c6 733d f85e 6dbd 619d e8bc 4cdd e13d
00000250: c819 353d 6782 443e a650 30bd 94d5 e1bd
00000260: 5ced 083e 43c3 77be 885a 48bd c663 7f3e
00000270: 6201 1e3e 508e 823c 1cb5 7c3e 0091 7c3d
00000280: 59a7 983d 48d6 cfbd 574e 6fbe 005a 1c3c
00000290: e72c 84bd cfcf 133e 0090 a03d ab49 17bc
000002a0: 1214 203e aa6c 11bd c402 943d c893 37bd
000002b0: 7b09 86bd 6401 f3bd 88b0 603e d2dd 183e
000002c0: acc9 803e dbf4 353e 7bdf 043e 490d 703e
000002d0: 8677 8c3d 653e 043e a848 b2bd 4a00 cebd
000002e0: 20d5 473e 6bbc 103e ed8e 133e c270 03be
000002f0: 68c5 ddbd 3abe 72be 50ed 14bd 645a a1bd
00000300: 6900 14be 71a6 b43d 1058 1d3e d58a 73be
00000310: 36a9 7a3e ef3c 14bd ec6f 27be b989 a33d
00000320: dcd5 e93d 5f74 053e 60d9 1b3e 5af3 183e
00000330: 22fb 23be 6293 81be 5a2a 0dbe e8e7 1c3d
00000340: 93c9 4f3e 9a55 753e c1e4 5a3e 3ba6 3e3d
00000350: 3635 67be 388d 0f3e b43b 27be b3fc 693e
00000360: 0cab b93d 65f9 72be 49c2 0a3e 655a f63d
00000370: 6193 0c3e 258e 25bd 48e2 30be bcc7 0abe
00000380: 683c 2cbe 8c89 9abd db5d e43d 50d8 41be
00000390: 1005 db3c 6b29 95be 7d42 07be ac1e f5bc
000003a0: 98ee 7bbd 6a9a 583e 6035 1d3e b748 29be
000003b0: 501c 463e 24ee 4f3e 0c0f 063e f826 963d
000003c0: 9315 d43d 8435 ec3d 1251 2f3e 07da 5cbe
000003d0: ff86 41be 8c56 5dbe 1987 f83d c258 a23d
000003e0: b6d0 5ebe 3f2c 843c 6a4d 06be c04d 593e
000003f0: 8aea 5dbd c84e c2bd a402 c1bd 8a87 6ebe
-0.0140858395 -0.1045962 -0.13984935 -0.002282226 0.007337749 -0.079451986 0.083167516 -0.06728733
-0.12360385 -0.07817387 0.15290067 -0.24718016 0.12203119 -0.16570652 0.16033402 -0.19477347
-0.027831309 -0.23919949 0.094276436 -0.25001213 0.013001469 0.1431338 -0.020213738 0.21350089
-0.07217288 -0.19303 -0.15228316 0.1924761 0.070779495 0.24081588 -0.20157498 0.1485132
-0.077564314 0.12601887 -0.18669812 0.06906003 -0.18510287 0.06986004 0.16181621 0.19298849
0.060541004 -0.14038327 -0.2330522 -0.17945063 -0.0047497507 -0.24367294 -0.022707433 -0.15069726
0.24271478 0.18390971 0.28811187 -0.04385288 -0.023843765 -0.21102789 0.036092255 -0.18300286
-0.11468077 -0.22458607 0.14376588 0.15063316 0.09297557 0.1348696 0.24145243 0.11007285
0.047762334 -0.24562253 -0.080846176 -0.03621505 0.057036296 0.20668511 -0.12412972 0.12681992
-0.049877852 -0.21041736 -0.2408427 -0.018446565 0.1822694 -0.030295728 0.24849066 -0.18988371
0.08727889 -0.040660173 0.21752226 0.012425416 0.14982265 0.18089104 0.25765103 -0.04577243
0.16075298 0.057411358 0.23800007 0.0986213 0.13416868 0.16304356 -0.093037575 0.02449125
-0.015905749 -0.101625144 -0.06903559 0.12108803 -0.110495985 -0.20425944 0.20211418 -0.31893453
-0.15958819 0.20277117 0.17021993 -0.059818078 -0.08748102 0.23956263 -0.21898285 0.034556657
-0.18854477 0.21947321 0.13949598 -0.1003039 -0.06677556 -0.11953781 0.21669914 -0.14500351
-0.21965823 -0.10141699 0.24228477 0.077373534 0.23289521 0.09039589 0.0072105527 0.117441505
-0.12406054 -0.025221834 0.011596539 -0.12552677 -0.23430009 0.24157631 -0.21088398 0.09688358
-0.12897873 -0.1632517 -0.21377294 -0.121578544 0.13308658 0.07644333 0.16816026 0.21020442
0.059515033 -0.057951897 -0.028395357 0.11028537 0.04421404 0.1919037 -0.043045662 -0.11027065
0.13371795 -0.2419558 -0.048914462 0.24940404 0.15430215 0.015937 0.24678463 0.06166172
0.07453794 -0.10148293 -0.23369728 0.009542942 -0.06453877 0.14434741 0.07839966 -0.009233872
0.15632656 -0.03550402 0.0722709 -0.04481867 -0.06544777 -0.118654996 0.21942341 0.14928368
0.25153863 0.17769186 0.12975876 0.23442568 0.06858735 0.12914427 -0.08705264 -0.10058649
0.19514894 0.14134376 0.1440999 -0.12835982 -0.10828668 -0.23705378 -0.03635913 -0.07878569
-0.14453281 0.08820809 0.15365624 -0.23783429 0.24478611 -0.036190923 -0.16351289 0.07985253
0.114177436 0.13032673 0.1521964 0.14936581 -0.16013768 -0.25307757 -0.13785687 0.0383071
0.20291738 0.23958436 0.21376325 0.04654525 -0.22578892 0.14018714 -0.16331369 0.22850303
0.09065828 -0.23727949 0.13550676 0.1202896 0.13728096 -0.040418763 -0.1727382 -0.13552755
-0.16819918 -0.07545766 0.11150714 -0.18930173 0.026735812 -0.29133162 -0.13208957 -0.029921852
-0.061506838 0.21152654 0.15352392 -0.16531645 0.19346738 0.20305687 0.13091677 0.073316514
0.103556775 0.11533645 0.1712077 -0.21567546 -0.18899153 -0.21615046 0.12135143 0.079270855
-0.21759304 0.01613438 -0.13115469 0.21221066 -0.054178752 -0.094876826 -0.09424332 -0.23293892

decoder.fc3.bias f4 [84]
00000000: 5c6c 533e 9af7 72be 9077 e13d 6d0f 6a3d
00000010: b63d fc3d fcf9 91be 29a5 283d 1777 6a3d
00000020: 467f ea3d 48a3 6cbd 0bd0 f7bc d64e 4bbc
00000030: 9d06 173e 347f aabd b0b3 3cbe 353a 1abe
00000040: 9fd2 6ebe 7390 9f3e 4129 343c f842 a0bd
00000050: 78f5 dd3d 88b4 0fbe 3bd9 203e 9098 9cbd
00000060: 143e 5abe 2512 8dbd 4ce8 1abc a548 0e3e
00000070: fecc d23d 6bdd 31be 2bbc 143e fe02 3ebe
00000080: ae11 5c3e f345 13be 5374 10be 2c88 1d3e
00000090: 9723 bfbc 6e5a 1fbd f200 15be 9fc6 323e
000000a0: a65c fb3c fe0e 823d 6885 9fbe 39c8 4bbc
000000b0: 28c5 25bd e4f8 2a3e 6e6e 693d 4f3c d6bc
000000c0: e420 723e a699 48be 36a1 7fbe 0086 a63d
000000d0: 9880 ee3d b8d0 1bbe 4640 8abe 5146 063e
000000e0: 3837 42be b60e 1cbe f032 683e f897 603e
000000f0: 931b 203d f3ea eebd bfaf 4a3e b8cc 35be
00000100: 554d 5e3e 9404 863e 6fb6 48be 482d 9c3e
00000110: 552a 6f3e 4b65 a2bd 3600 07be f1e4 613c
00000120: 101d 8dbc bc5f 2ebd 70ce 343e b805 e7bc
00000130: 1474 4d3e a934 283e 240c 21be b19a 723e
00000140: 6ac8 9d3e 7f45 3b3d 852b 06be 3f70 303d
0.20646805 -0.23727265 0.11009133 0.057143617 0.12316458 -0.28511035 0.041173134 0.05724248
0.11450057 -0.057772905 -0.03025057 -0.012408933 0.14748617 -0.08325043 -0.1842792 -0.15061267
-0.23322533 0.31164894 0.010996164 -0.07825273 0.10837835 -0.14033711 0.15707867 -0.076462865
-0.21312743 -0.068882264 -0.009454798 0.13894899 0.102930054 -0.1736962 0.14524905 -0.18555829
0.2149112 -0.14382152 -0.14106874 0.15383977 -0.0233324 -0.0389046 -0.14551142 0.1745858
0.030683827 0.06350516 -0.31156468 -0.0124378735 -0.040471226 0.16696507 0.05699008 -0.026151804
0.2364536 -0.19589862 -0.24963841 0.08131027 0.11645621 -0.15216339 -0.27002162 0.13112761
-0.18966377 -0.15239987 0.22675681 0.21932971 0.039088797 -0.11665907 0.19793604 -0.17753875
0.21709187 0.26175368 -0.19600843 0.30503297 0.23355992 -0.07929476 -0.13183674 0.013787494
-0.017225772 -0.04257177 0.17656875 -0.02820097 0.20063812 0.16426338 -0.15727288 0.23691823
0.30816966 0.045720574 -0.13102539 0.043075796

decoder.fc2.weight f4 [120, 84]
00000000: d978 e63d 7c71 f5bd 3d50 9a3d 8aea 12be
00000010: 3310 89bd c359 bc3d 1030 e1bd 345c 073d
00000020: 3af1 09be 037b 95bd 90a6 e53d 988b e8bc
00000030: 217b a7bd 4ef3 a7bd cccb 68be 6084 b8bd
00000040: 55f9 703c ca24 17bc b4f0 a43d 4b02 0e3d
00000050: 0988 0bbd 9e4d 6bbd 77a0 3c3b 4b44 ee3c
00000060: 7f31 de3c 7588 483d ad0e 373d 2f2d c8bc
00000070: dac6 4c3d 7664 01be 1dac e03d afae e4bc
00000080: daa1 ed3b c816 74bd d677 26bc fce4 ab3d
00000090: ef13 e7bd e3c8 4f3d edb6 05be 29a4 e33d
000000a0: 5104 083e 6194 a3bd 2a6a ac3d 6102 b43d
000000b0: c78b 46bd a56a f83d 5a24 703d f7bf c6bc
000000c0: ab5d 7abc bc11 f93c 5dac d2bd 675f 0fbe
000000d0: a9cf a2bc c50e bb3d 7de6 febd e8a6 a93d
000000e0: 0a26 abbc 9e2f 9ebd bc31 f33c 8178 193d
000000f0: f47e 9a3c b982 023d a85a 8e3d 4878 db3d
00000100: 6d3e 6b3d 1616 adbd 36f8 73bd dcb7 16be
00000110: f04d a73c 73b2 193d 4746 633c 1e91 f9bd
00000120: 3706 d2bc 2c10 22bd 40bb 823c 891c 383d
00000130: dade de3d c899 9ebc f551 3abc 6f6a 3ebc
00000140: da93 24be 813b ce3d 106e 8abd c9c3 9ebd
00000150: cef4 b43d 353f 1bbd f3c3 a2bd 29e8 bf3d
00000160: 4dff e5bc bee7 6b3c e2ce e3bd 6700 6bbd
00000170: 34e1 66bd 6608 6fbd 77a1 58bd 5601 6d3d
00000180: d6a5 8ebd 4e90 89bd 75df bfbd 07ad 3ebd
00000190: abeb 103d 8702 2b3d 2404 bc3c f670 fc3c
000001a0: ad22 a2bd f8d8 193c 6bb2 e53d a183 6fbc
000001b0: a035 52bc 5006 99bd 357e 6fbc 8ead e33d
000001c0: 87c6 c33d 138a 86bd f0ec dc3d 8ada 69bd
000001d0: 067c 36bc f0c9 febd 4845 943c 0aa2 243d
000001e0: b82a 45b9 046f 5e3c e446 cbbd a4bd ce3d
000001f0: ac1c 99bd bc0c 623d 2a33 e0bd 1f17 a8bd
00000200: 042e 483c 8729 f53c bba4 9a3c b9f6 c73c
00000210: a34e b83b d231 df3d 189b 27bc e052 de3d
00000220: 4a74 dfbd 5e33 c7bc d410 c03d e091 be3d
00000230: 680e b23d 0e9d 97bd b825 adbd 63d2 0c3d
00000240: 3f60 e33c abf1 223c 4fec 393d f84c 24bd
00000250: c5f4 b03d 2962 81bc 1cc3 b23c 385a 0ebd
00000260: 936f 4d3d 7ae3 063c 1ab7 d23d 5e46 b33c
00000270: b26d 55bd 2802 053e 53d4 40bd f96e adbd
00000280: dc58 933d 76ce d03d ec3a fbb9 df77 1d3d
00000290: b9f4 15be 2930 51bc ac7f 97bd 53d3 713d
000002a0: e6ba bdbd 1885 a3bd c67f c4bd f29d a43d
000002b0: 9632 a1bc ba05 933c 4bae 31be 16ca c0bd
000002c0: b367 c73b 07d8 91bd 494d 153d 7068 8b3d
000002d0: b87a e0bc 8bd1 a8bd 7eb9 dabc 4f2c 9e3d
000002e0: 9698 553d 7014 5c3d 5437 343d 25a4 f83c
000002f0: d38d 7a3d 70fe 823d 8e0c 9fbb 4aa2 543c
00000300: 4880 81bd 2865 edbb 2b81 583d 97a5 bbbc
00000310: 9c25 d5bd d533 7fbd f522 893d 9ed4 3cbd
00000320: 8f25 8dbd a116 febd 4846 87bd ff0c a1bb
00000330: 5908 563e f321 d63d e836 d1bc f59d c43c
00000340: b628 79bd 021d df3b e4fc b5bd 70dd d63d
00000350: 0d6a cdbd 0f3a 21be 7ce0 cc3c ee37 2ebc
00000360: 5e24 f4bc 869a 83bd e073 de3d 7825 94bd
00000370: 5b69 b2b9 12e1 5cbd e5cb b7bd 4098 9a3d
00000380: e6ea 95bc 363a 4bbc a4da e13d d306 dabd
00000390: 4b4c 423c 861f c1bd acfd 5b3c bd4e 9a3d
000003a0: 631e 4f3d 2554 913d 9e1d 813d d815 d0bd
000003b0: 972b 7dbd b1bb d33c f93e 9a3d ee1f 6cbc
000003c0: ccfe 74bd 03bd 49bd d1ae 973c 323f 2f3d
000003d0: 6344 20be 6671 85bd d2d0 a3bd fef6 4bba
000003e0: 684b 2cbe 74b8 e73d 14fc 823d 5e3c 0dbd
000003f0: 7bcb dabd b28a c2bd 5b99 0fbd d9c9 cebd
0.112535186 -0.11984536 0.075348355 -0.14347282 -0.06692543 0.09196808 -0.10995495 0.033046916
-0.13470927 -0.07298853 0.1121341 -0.028386876 -0.08177782 -0.082007036 -0.22733992 -0.090096235
0.014707883 -0.00922508 0.08053723 0.034670155 -0.03406528 -0.05744707 0.0028782168 0.029085299
0.027123211 0.04895826 0.04469173 -0.024435608 0.049994327 -0.12635979 0.10970328 -0.027915327
0.00725196 -0.05959204 -0.010160407 0.08393285 -0.11283099 0.05072869 -0.13058062 0.111152954
0.13282897 -0.079872854 0.08418687 0.08789516 -0.048473146 0.12129716 0.058628418 -0.024261458
-0.015281121 0.030403964 -0.10286782 -0.14001237 -0.01987441 0.091336764 -0.12446306 0.08283788
-0.020892162 -0.07723926 0.029686801 0.037468437 0.018859364 0.031862948 0.06950885 0.10716301
0.05743258 -0.08451478 -0.059562884 -0.14718574 0.020422906 0.037523698 0.013871736 -0.12185882
-0.02563773 -0.039566204 0.015958428 0.04494909 0.10882349 -0.019360438 -0.011372079 -0.011622055
-0.16072026 0.10069943 -0.06759274 -0.07752187 0.08835755 -0.037902076 -0.079475306 0.09370453
-0.028075838 0.014398513 -0.11123444 -0.05737343 -0.056367114 -0.05835762 -0.05288836 0.057862602
-0.069652244 -0.06716977 -0.09368793 -0.04655173 0.035381 0.041750457 0.022951193 0.030815583
-0.0791677 0.009390108 0.11215671 -0.014618785 -0.012830168 -0.07471907 -0.014617492 0.11117087
0.095593505 -0.06569304 0.1078738 -0.05709318 -0.011137968 -0.1244086 0.018099442 0.040193595
-0.00018803298 0.013576273 -0.09925631 0.10094765 -0.07476172 0.055187926 -0.10947259 -0.08207535
0.012218002 0.029927028 0.018877378 0.024409639 0.0056246086 0.10898174 -0.010229848 0.10855651
-0.10910852 -0.024316486 0.0937821 0.09305167 0.08694154 -0.07403003 -0.0845446 0.034380328
0.027755855 0.009945313 0.045391377 -0.040112466 0.08640436 -0.015793877 0.021821551 -0.034754008
0.050155234 0.008232946 0.1028883 0.02188414 -0.052106567 0.12989104 -0.04707749 -0.08468432
0.07194683 0.10195629 -0.0004791835 0.038444396 -0.14644136 -0.01276783 -0.07397398 0.059039425
-0.09264164 -0.0798437 -0.09594683 0.08037938 -0.019677442 0.017947067 -0.17351644 -0.09413545
0.00608536 -0.07121282 0.036450658 0.06807029 -0.027402267 -0.08243092 -0.026699778 0.07723295
0.05214747 0.05373043 0.043998078 0.030351708 0.06117041 0.06396186 -0.0048537916 0.012978146
-0.06323296 -0.007244725 0.05285756 -0.022906108 -0.10407564 -0.06230529 0.06696121 -0.046101205
-0.06891929 -0.1240666 -0.06605202 -0.0049148793 0.20901622 0.10455694 -0.025538877 0.024001101
-0.06082984 0.006808878 -0.08886126 0.104914546 -0.10029993 -0.15744804 0.025009386 -0.010633452
-0.029802497 -0.064259574 0.10861945 -0.07233709 -0.00034029302 -0.05392558 -0.08974437 0.07548571
-0.018300485 -0.012404015 0.110280305 -0.10645833 0.01185901 -0.09429841 0.013427179 0.075345494
0.05056609 0.070961274 0.06304477 -0.10160416 -0.06180915 0.025846334 0.07531542 -0.0144119095
-0.059813306 -0.04925252 0.018515976 0.042784877 -0.15651087 -0.0651577 -0.07998814 -0.000778064
-0.1682564 0.113144785 0.06395736 -0.0344814 -0.10683342 -0.0949911 -0.03505836 -0.10097093
