tutorials/W1D2_ComparingTasks/RR/models/ConvNet_regression_classification_10000_epoch_5.pth (torch, 251432 bytes, 10 tensors)

ConvNet.conv1.weight f4 [6, 1, 5, 5]
000000 cd 1c f9 3c 98 f2 91 bd a3 01 1e bd f8 b1 11 be
       0.030409241 -0.07126349 -0.03857578 -0.14228046
000010 5d 73 c1 3c a3 a3 0b be 58 73 46 bd 9f 8a 2e bc
       0.02361458 -0.13636641 -0.048449844 -0.010653167
000020 f3 8d 19 3e f8 53 5e bc 94 3a 95 3a 51 a7 6a bd
       0.14995556 -0.013569824 0.0011385255 -0.05728847
000030 2f 93 27 3e e5 0b c5 3d ff 4b 2f 3e 23 b8 13 be
       0.1636474 0.09621409 0.17118834 -0.14425711
000040 3e 51 73 bd 54 1e 84 bd 1d 5e 0c be d2 0b 33 be
       -0.05940365 -0.06451097 -0.13707776 -0.17484978
000050 c6 7f 13 be 9c 4d 35 be a1 4d eb 3b d0 68 b4 bd
       -0.1440421 -0.17705387 0.007180885 -0.08809054
000060 9d dd 82 3d b8 fc 4c be 7a 17 54 be 3f 2c 1b 3d
       0.06389926 -0.2001828 -0.2071208 0.037883993
000070 9e 16 0c 3e 13 19 b8 bd 8b 9b 7c 3d 58 2b 8f bd
       0.13680503 -0.089891575 0.061671775 -0.06990689
000080 f5 2c de bc 96 14 0c 3e 58 cc a5 3d 19 74 99 3d
       -0.027121047 0.13679728 0.08095616 0.07492847
000090 28 4e 34 3e 7d 95 53 be 60 09 d7 3d 3a 92 ad 3d
       0.17607939 -0.20662494 0.10499835 0.08475156
0000a0 7c 39 bc bd ba 81 d5 3d d6 29 d0 3b e8 a5 76 bc
       -0.09190652 0.10425134 0.0063526435 -0.015054204
0000b0 1a 6b 76 3d b3 e2 d7 bb a9 c2 d1 bd 70 8d 85 bd
       0.060160734 -0.006588304 -0.102422066 -0.06521118
0000c0 8c c4 d1 bd 23 68 fd bd ec f7 8e bd 4c fe 1a 3e
       -0.102425665 -0.12373378 -0.06980881 0.15136069
0000d0 38 38 43 be 5f 31 c9 bb 68 f7 4d 3d cc 6c 00 3e
       -0.19064415 -0.0061399187 0.050284773 0.12541503
0000e0 69 0f 3f 3e 49 12 25 3c 66 07 58 be ba 2d 38 3e
       0.18658222 0.01007516 -0.21096572 0.17986193
0000f0 0b 93 e9 3c 87 7c 05 bd 50 2b b1 3d fa 59 f9 bd
       0.028512498 -0.03258946 0.08650839 -0.12175365
000100 54 b7 46 bd 8c 82 9e bd ce 64 23 3e 5e 20 cc bd
       -0.04851468 -0.077397436 0.15956423 -0.09967111
000110 90 94 f9 bc 07 1f 1b 3e bd 3c 0b 3c 06 d9 1b bd
       -0.030466348 0.15148555 0.008498368 -0.038048767
000120 bd e8 12 be b6 aa 40 be 8a 27 ff 3d a1 ee 1f bb
       -0.14346595 -0.18815121 0.12458713 -0.0024403709
000130 54 3b c6 bc 17 1d 7d bd d3 91 05 bd 88 06 d4 bd
       -0.024198212 -0.06179532 -0.032609772 -0.10352808
000140 ec 8f 33 be 14 a1 1b bd 4c b3 da bd e8 65 8a 3d
       -0.1753537 -0.037995413 -0.106787294 0.06757718
000150 bd cb bc bc d5 4a af bd c7 18 c2 3b 54 b9 25 3d
       -0.023046369 -0.08559195 0.005923364 0.040459946
000160 c8 8e 38 3e b3 68 f2 bc f3 02 15 3e d2 24 b8 bc
       0.18023217 -0.02959094 0.14551906 -0.022478495
000170 c1 e0 9a ba ca b1 1c be 15 c7 0b be 66 a9 42 3e
       -0.001181625 -0.15302196 -0.13650163 0.19009933
000180 20 ba 08 3e f0 f8 34 be d6 45 2a be 27 e3 57 3d
       0.13352251 -0.17673087 -0.16628203 0.052706864
000190 bf 5f d7 bd 8b 5a fb bd b7 aa 9c bb 0f de bc 3d
       -0.10516309 -0.12273129 -0.004781093 0.09222042
0001a0 fa ef 17 bd 40 7d ba 3c eb 06 56 3d ec cd 56 bc
       -0.037094094 0.022764802 0.05225269 -0.013110619
0001b0 bf 5e b7 bd a8 aa b4 bd d6 d3 99 bc 3c d9 a6 3a
       -0.08953618 -0.088216126 -0.018777769 0.0012729536
0001c0 e7 9f 35 bd 52 cf 93 bd c1 bd 2d be c0 bc 92 3d
       -0.044341948 -0.072172776 -0.16966917 0.071649075
0001d0 47 9b 31 be 7a 3c 2b 3d 5c bc e8 3d 1a ab 38 3e
       -0.1734439 0.04180572 0.11364052 0.1803402
0001e0 b9 d4 a6 3d 4f a0 ca bd 9b 7d 1b be 9a 37 7b 3d
       0.081460424 -0.09893858 -0.15184633 0.061332323
0001f0 17 c8 30 3e a8 08 2d 3e 90 54 d9 bc 29 f4 e4 bc
       0.17263828 0.16897833 -0.02652958 -0.027948456
000200 8c c0 ea 3d 81 f8 bf 3d 8c 35 4a be 92 5a 03 be
       0.11462507 0.0937357 -0.19746989 -0.12827519
000210 e4 ad 28 3c ea 23 33 3e 2d f2 b6 bd 92 4a 69 bb
       0.010295365 0.17494169 -0.0893291 -0.0035597426
000220 02 30 3c be 82 d3 37 be 4f 29 13 be df 0a 43 be
       -0.18377689 -0.17951778 -0.14371227 -0.19047116
000230 22 75 ee bd 78 b6 2a 3e c8 0f 39 be fd 50 ce bd
       -0.11643435 0.16671169 -0.18072426 -0.10074041
000240 98 40 10 3e 0e 13 a5 bc bb 4b 84 3d 7d 4d 26 be
       0.1408714 -0.020150688 0.06459757 -0.16240497
000250 f6 9a 2d 3e 95 b4 7c 3d
       0.16953644 0.061695654

ConvNet.conv1.bias f4 [6]
000000 23 3d e2 3c 07 20 cf bd 88 3d 7f bd 4e d3 1f be
       0.027617043 -0.101135306 -0.06231454 -0.1560795
000010 d0 42 5b bd 87 ea a3 bc
       -0.053530514 -0.020009292

ConvNet.conv2.weight f4 [16, 6, 5, 5]
000000 01 7a f1 bc 39 47 1a bd fd 1b 27 3c 2e 7e ce bc
       -0.029477121 -0.03766558 0.010199544 -0.025206652
000010 24 1e 50 bd a2 0d ae 3c 67 4e 82 bc 2e 8f e0 3c
       -0.050809994 0.021246735 -0.015906526 0.027412023
000020 86 25 62 3d 64 64 6a bd e0 91 35 3d 81 a2 21 3d
       0.055211566 -0.057224646 0.04432857 0.039461616
000030 13 ed 0c b8 51 ad a2 bc 4d 3d 08 bd f9 a3 55 3d
       -3.3599394e-05 -0.019858034 -0.033261586 0.05215833
000040 72 83 de bb ba ff b6 bd 61 2f a7 bc 5b 0d 91 bc
       -0.006790572 -0.08935495 -0.020408334 -0.017706564
000050 a9 8d 32 3d 31 48 ab 3c 7c a5 ac 3c df 49 b6 bd
       0.04359213 0.020908447 0.021075003 -0.089008085
000060 89 cf 51 bd 1c 06 fe ba c2 a5 90 3d d3 a3 86 bd
       -0.05122331 -0.0019380483 0.07062866 -0.06574216
000070 2c 6f 68 3d a1 1f e1 3c 19 3d b4 bb f8 2d db 3c
       0.056746647 0.027480902 -0.0055004475 0.026755318
000080 f0 bc 41 3c 38 6f 2f 3d 9e 3d 54 bc b3 91 1a 3d
       0.011824831 0.042830676 -0.012954144 0.037736606
000090 ee f1 2c 3d c2 94 75 3d 50 0b 68 bd e5 5a b2 3c
       0.04222291 0.05995632 -0.056651413 0.021771858
0000a0 29 16 8c bc 67 d6 b9 bc 4b af bc bd 06 97 aa 3c
       -0.01710041 -0.022685243 -0.09213122 0.020823967
0000b0 ee 9b 11 bd cc e6 01 3d 3c f8 13 bd bd e2 c1 3c
       -0.035549097 0.031714246 -0.036125407 0.023667688
0000c0 f0 c7 53 3d e1 b4 55 3d 50 3f 11 bd db c0 58 3d
       0.051704347 0.052174453 -0.03546077 0.052918296
0000d0 d5 1c cc 3b a1 01 7d 3d 62 e9 31 bc db ef 39 3d
       0.006229023 0.06176913 -0.010858865 0.04539476
0000e0 6f 6d 6e 3d ba 95 39 3d ee 37 33 3c c5 ef 4f 3d
       0.058209833 0.045308806 0.010938628 0.05076577
0000f0 06 e4 e6 bb f6 e5 01 bd 07 c0 bc bc 76 d8 b2 bd
       -0.0070462255 -0.03171345 -0.023040785 -0.08732693
000100 54 70 ef bc c1 b4 9a bd e0 7f 22 3d 77 e6 9f bd
       -0.029228367 -0.07554007 0.039672732 -0.078076296
000110 7d cb 89 bd 71 81 44 3d 5c 54 df 3c 8d 60 b6 bc
       -0.067282654 0.047975007 0.027261905 -0.022262836
000120 e8 96 0d 3d ef 66 84 bd 45 79 95 3d 14 0c 40 bc
       0.034567744 -0.064649455 0.07298521 -0.01172163
000130 dd c6 21 3c 05 74 7b 3d 99 10 95 bd 60 3d 89 3c
       0.009874073 0.06138994 -0.072785564 0.016752899
000140 35 1b 91 bb f7 72 37 3c 53 3b 96 bd 33 a7 9a bd
       -0.004428292 0.011196843 -0.07335534 -0.07551422
000150 b7 cd 9d 3d 3b 5a 30 bd 7c 0f af bd dd 4f a6 bc
       0.077052526 -0.0430548 -0.08547875 -0.020301754
000160 2f 1c 0a 3a 32 6a 71 bd 9b be 82 3d 4b 85 b4 bd
       0.0005268482 -0.058939166 0.06384011 -0.08814486
000170 e4 be 49 bc 7a 76 b3 bd 29 36 9c 3c ff 45 bb 3b
       -0.012313578 -0.08762832 0.019068794 0.0057151313
000180 e8 c4 18 3a 09 f0 09 bb f0 c5 01 bb 54 a1 4d bd
       0.0005827681 -0.0021047613 -0.0019801818 -0.050202683
000190 1c a3 1c 3d c1 4b 4b 3d 8a 60 85 bd 5e 7f 82 3d
       0.03824149 0.04963279 -0.06512554 0.063719496
0001a0 0a e5 06 3d 8b 92 1c bd 08 a0 3b bd 96 9f 9b 3d
       0.032933272 -0.03822569 -0.045806915 0.07598798
0001b0 b5 b3 8e 3d 66 95 ef bc 30 d2 1d bd 0f 22 ed bc
       0.0696787 -0.029246043 -0.03853053 -0.028946904
0001c0 2f 3b a3 bd 07 44 76 3c 7a cc 1d 3d b5 6e bc 3c
       -0.07970273 0.015030867 0.038525082 0.023002008
0001d0 4c fe 12 bd 99 58 1e 39 0c a3 17 bd fa 52 a6 3c
       -0.035887048 0.0001510106 -0.037020728 0.020303238
0001e0 22 b2 66 3d 11 d0 16 bc 72 77 8f 3d b5 52 77 3d
       0.056322224 -0.00920488 0.07005204 0.06038161
0001f0 db 76 30 3c ef b6 87 3c 56 ae 9a 3b 82 dc a1 bd
       0.010770525 0.016566722 0.0047204895 -0.07903387
000200 3c 73 7e 3d 74 c0 27 3d 9b a9 dd 3c 48 11 16 bc
       0.062121615 0.040955022 0.027058413 -0.009159394
000210 9f 80 6a 3d cc 18 93 bd 93 03 b2 bc 41 b4 8b 3c
       0.05725157 -0.07182464 -0.02173022 0.017053725
000220 87 83 59 bd 63 e4 d4 bc f8 41 48 bd 7f 09 30 bd
       -0.05310395 -0.02598781 -0.048891038 -0.042977806
000230 ae 14 0a 3d ed 25 98 bd c0 68 9a bd ba 7e 60 bb
       0.033711128 -0.07429109 -0.07539511 -0.0034255222
000240 99 41 5c 3d a1 72 13 3c e0 b5 56 3d 85 1e b9 bd
       0.053773496 0.008999498 0.052419543 -0.09039024
000250 85 94 49 3d 94 2b 9c bd ed d6 06 3d 11 1c 75 3d
       0.049213905 -0.07625499 0.032919813 0.05984122
000260 e6 6c 29 bd 02 6d 85 3c 70 c9 6e bd 40 a9 8e bd
       -0.04136362 0.01628733 -0.058297575 -0.069658756
000270 12 bf ec 3c c4 96 6a 3c fd 9b 50 bc 0c af 8d bc
       0.028899703 0.014318172 -0.012732503 -0.017295383
000280 e0 f2 0d bd 15 ce 50 3d 15 9e b6 bd c6 5a 88 3d
       -0.03465545 0.050977785 -0.089168705 0.06657939
000290 44 78 48 3d 52 57 80 3c f1 0c 2f bd ae 81 89 3b
       0.04894282 0.015666638 -0.04273695 0.004196367
0002a0 52 3a 8e 3d 1a 46 9c bd 5c 5f dc ba 0c 70 5f 3c
       0.069447175 -0.07630558 -0.0016813087 0.013637554
0002b0 fd 14 fa 3c 62 8e 6d bd 7b 32 3e bd db c5 19 3d
       0.030527586 -0.057997115 -0.04643486 0.037542205
0002c0 dc 92 13 3d a2 62 1d 3c d4 17 25 3c 4e db 03 bd
       0.036028728 0.009606035 0.010076482 -0.032191567
0002d0 21 92 88 bd 21 9b 03 3d 4f 33 ce bc 71 36 7b 3d
       -0.06668497 0.032130364 -0.02517095 0.061331216
0002e0 89 5b 85 3d 14 59 19 bc 5d 40 46 3b f3 d6 5c 3c
       0.065115996 -0.009359617 0.0030250766 0.013478982
0002f0 60 65 95 bd af a7 ec bc 1d 42 f7 3b 06 73 58 3b
       -0.07294726 -0.028888552 0.007545723 0.0033027544
000300 3c 60 6e 3d 44 3e 6b bd ca aa 58 bd 3f 27 69 3c
       0.058197245 -0.057432428 -0.052897252 0.014230548
000310 57 18 ab bd 49 ac 7f 3d eb ee 70 bd df ae 0a bd
       -0.08354252 0.062420163 -0.0588216 -0.033858176
000320 3d ba f4 3c 88 ce d5 3c 9a 98 66 3d e1 21 fa 3c
       0.029873962 0.026099458 0.056297876 0.030533733
000330 53 b0 16 bd a1 2f 5f 3d 6f 1f 17 bd 4c f0 38 3d
       -0.03678925 0.05448878 -0.03689521 0.04515104
000340 63 a2 31 bd b2 71 a1 bd 40 8d 8c 3d e2 f2 f8 3c
       -0.043367755 -0.07883014 0.06862879 0.030389253
000350 47 16 a3 bd ae 0c 28 3c 1e d9 07 3d 70 f3 82 3c
       -0.079632334 0.010256929 0.033166043 0.01598522
000360 9a 97 62 3d 25 d8 b3 3c b2 8c a6 bc f4 a4 d3 bc
       0.05532036 0.021953652 -0.02033076 -0.025835492
000370 72 ab 3e bb 85 b5 a6 bd 0b a0 3d bd be e5 01 bd
       -0.0029093889 -0.08140091 -0.046295207 -0.03171324
000380 7b f0 25 bd bb cf 36 bc 6e 23 29 bd d4 9a 91 3b
       -0.040512543 -0.011157925 -0.041293554 0.004443506
000390 59 fb 2f 3d cb c0 c6 3c 75 2a 9f bc 25 a7 8b bc
       0.042964313 0.024261853 -0.019429425 -0.017047474
0003a0 cf 94 7e 3d fd eb e0 3a ba 83 89 bc fb b3 ae bd
       0.062153634 0.0017160174 -0.016786445 -0.08530422
0003b0 1a 2b 89 39 39 88 9d bd c7 08 1f bd 0f 21 a4 3c
       0.0002616279 -0.07691998 -0.03882673 0.020035295
0003c0 e7 0c 49 bd ff 86 fc bb b8 77 f7 bc a2 87 11 bd
       -0.04908457 -0.0077065225 -0.030208454 -0.03552974
0003d0 22 23 07 3d fe 12 c9 bc b4 65 10 bd e0 fc b6 bd
       0.03299249 -0.024545189 -0.03525324 -0.08934951
0003e0 fe 7e 80 bc f0 14 b1 bd 68 31 2b bd fe f5 84 bd
       -0.015685555 -0.08646572 -0.041795164 -0.06492232
0003f0 c5 31 9e 3c d8 f3 71 bd 9b 2c 65 3d 7b 35 a3 bd
       0.019310841 -0.05907044 0.055950742 -0.07969185

ConvNet.conv2.bias f4 [16]
000000 58 6c fb bc 4d 8d 9a bd c6 96 ae 3c 12 30 68 3c
       -0.03069131 -0.07546482 0.021312129 0.014171617
000010 4a 3b 34 bd 2d fa 21 bc 14 86 a8 bc 86 4a a0 bd
       -0.044001855 -0.009886307 -0.020571746 -0.07826714
000020 d6 dc 8e 3d 5d 12 b4 3c 79 8b 0e bd f3 90 92 bd
       0.06975715 0.021981413 -0.03480098 -0.07156553
000030 60 4a 8a 3c f7 e3 2b bb 81 94 62 bd 71 a3 6c 3c
       0.016881168 -0.0026228407 -0.055317406 0.014443264

ConvNet.fc1.weight f4 [120, 400]
000000 b5 bb 2c 3d 63 50 50 bc 55 62 a7 3a da d4 2c bc
       0.0421712 -0.012714478 0.0012770394 -0.010548795
000010 87 9d 19 3d 15 8e d9 ba b7 81 19 bd 03 0a 29 bd
       0.037503745 -0.001659813 -0.03747722 -0.041269314
000020 35 72 18 3d 43 cb 72 bc a3 a0 79 3c 22 60 0f bc
       0.03721829 -0.014818969 0.015236053 -0.008750947
000030 59 9f 0c 3d 28 2e f7 3c c1 f3 ed 3c a8 bb 03 3d
       0.034331653 0.030173376 0.029046895 0.032161385
000040 8f e1 e1 3c 70 e5 d6 bc af 8a 9e bc 0b 1d 1f 3c
       0.027573375 -0.026232451 -0.019353239 0.009711514
000050 72 63 e6 3c 62 08 ba 3a 0d 5a ec 3b a4 86 3e bd
       0.028123591 0.0014193172 0.0072128833 -0.046515122
000060 77 79 29 3d 81 c6 c9 3c 12 99 f3 3c 02 bc e6 bc
       0.041375604 0.024630787 0.029736076 -0.028165821
000070 3a 4a 2a ba d2 10 b0 3c e4 a1 0d bd 21 77 15 bd
       -0.0006496046 0.021492396 -0.03457822 -0.036490563
000080 3b ee 3f bd fc 45 1e 3d d1 17 37 3c 60 a4 c0 3c
       -0.046858054 0.03864096 0.011175112 0.02351588
000090 be 0a 43 bd ae 44 0e bb 6d 98 09 bd f5 42 0b bd
       -0.047617666 -0.0021708417 -0.03359263 -0.033999402
0000a0 75 b7 d4 3c 37 1b d6 3b fd d6 96 3c fa 48 24 3c
       0.025966385 0.006534006 0.018413061 0.010027165
0000b0 4a 7c 30 bd 63 d1 1b 3d 5c 9a 05 3c 21 5b 24 bd
       -0.04308728 0.038041484 0.008154478 -0.04012597
0000c0 79 4c 39 3c 9c f3 c4 bb c7 b0 6c bd 39 71 84 3c
       0.011309736 -0.006010486 -0.057785776 0.01616727
0000d0 3c 9a f7 bb 3f f9 12 3d c2 68 24 bd 6d 0c 4b bd
       -0.007556228 0.03588223 -0.040138967 -0.049572397
0000e0 22 94 9b 3c bb aa 54 3c 7e a7 bf ba 05 ad dc 3a
       0.018991534 0.012980158 -0.001462206 0.0016836232
0000f0 8e ea 50 bc 59 e0 d3 bc 0d fb 37 bb 8c 51 32 bd
       -0.012751235 -0.025863813 -0.0028073222 -0.0435348
000100 1a 34 35 bd 1e 03 2d bb df b1 6f 3c 84 66 14 bd
       -0.04423914 -0.0026399563 0.01462981 -0.03623058
000110 da 58 57 bc f0 49 ef bc cd 6b 41 bd 3d 83 2e bd
       -0.013143742 -0.02921006 -0.047221947 -0.042605627
000120 88 89 92 bc 4a 44 bf 3b 8e 6d cc bc 3f c6 23 bc
       -0.017887846 0.005836998 -0.024954583 -0.009995996
000130 22 3c 93 3c 66 8d e1 3c fe 00 cc 3c 38 a5 8b 3c
       0.01797301 0.027533244 0.024902817 0.017046556
000140 b9 2c 9c bb 0a 52 ac bc f6 88 e2 3c 25 ff 1a bd
       -0.0047660735 -0.021035213 0.027653199 -0.03784098
000150 c4 84 dd 3c 70 1e a5 3c 7f 31 b4 3b 6f bd 09 3c
       0.027040847 0.020156115 0.0054990645 0.008406981
000160 03 96 22 3d a5 ba 12 bd 28 3b ae bc 88 cd 9e bc
       0.039693844 -0.03582253 -0.021268442 -0.019385114
000170 da df 81 bd a6 c3 02 bd e4 07 2a bd 57 b6 cd 3c
       -0.063415244 -0.031924866 -0.04151143 0.02511136
000180 ee d1 3d bd e9 7a ac 3b aa 64 73 ba bc bf f5 bc
       -0.046342783 0.0052636755 -0.00092847145 -0.029998653
000190 60 e0 ce 3c a7 ac 04 bd 96 18 82 bb 2f 9e 1c bd
       0.025253475 -0.032391217 -0.003970216 -0.038236793
0001a0 02 9a 40 bb 58 45 75 bd c3 45 33 3c df 51 0f bb
       -0.002938867 -0.059880584 0.010941925 -0.0021868867
0001b0 8b 19 86 3c 07 bc 72 39 7d 1b 9a bc 3e 82 86 bb
       0.016369602 0.00023148964 -0.018811936 -0.0041048815
0001c0 41 cd 13 3c 2b ef a3 3c 42 06 91 3c d1 82 7e bc
       0.009021104 0.020011505 0.01770318 -0.015534119
0001d0 0f d8 9b 3c e7 50 dc 3c 87 8a 1f 3c 1a 05 b3 3c
       0.019023923 0.026894046 0.009737617 0.021853019
0001e0 55 42 ec 3c 95 fe 1c bd 59 bd d6 bc be 46 26 bd
       0.028840223 -0.038328726 -0.026213335 -0.04059481
0001f0 25 6d 3a 3d 43 0d 10 bd 55 b9 0c bb f5 d6 fa ba
       0.045514245 -0.035168897 -0.0021472771 -0.0019137549
000200 eb 6e 16 bd 1c 46 e6 3c eb ff d8 ba 51 72 8d bc
       -0.036726873 0.028109603 -0.0016555762 -0.017266424
000210 7c ed c5 bc 3c 16 f4 3c 4b df 58 bd c8 28 a6 bc
       -0.024161093 0.029795758 -0.052947324 -0.020283118
000220 a9 fd 96 bb a9 7d 9a bd fc af 8e 3c 89 58 59 bd
       -0.0046078754 -0.07543499 0.0174179 -0.05306295
000230 83 5e 25 bd d3 28 46 bc c0 bb cd bc c3 fb 91 3c
       -0.040373337 -0.012094694 -0.02511394 0.017820245
000240 05 0d 89 bc 06 b3 49 3d 78 2c 96 3c 4e 41 1e bd
       -0.016729841 0.049242996 0.018331751 -0.0386365
000250 36 4b d1 bc 9a 01 0f bc d9 55 06 3d f5 1c 0d bd
       -0.025548559 -0.008728409 0.032796714 -0.034451444
000260 d7 fa 1f 3d 9c 0d 27 bd 0d c9 5c bd 16 5e 56 bc
       0.03905758 -0.040784463 -0.053902674 -0.013083955
000270 da 10 26 bd 02 ad b0 3c ae a2 ed bb 2e 43 93 bb
       -0.040543415 0.021566872 -0.007252059 -0.0044940924
000280 83 96 88 ba 7b 10 e5 3b f8 c2 89 3c 89 09 58 bd
       -0.0010420833 0.00699049 0.016816601 -0.05274347
000290 d1 5d 42 bd 38 3f ee 3c 2b e6 3b bd 10 c4 ab bc
       -0.04745275 0.02908288 -0.045873802 -0.020967513
0002a0 12 47 c3 bc 30 bd 2f bd 93 b7 00 bc de 13 db 3b
       -0.0238376 -0.042905033 -0.0078562675 0.006685718
0002b0 97 d9 cf 3c 56 37 47 bd db 63 45 bd 0d c2 44 3d
       0.02537231 -0.048636757 -0.048190933 0.048036624
0002c0 62 7f 49 3d 69 dd 1d bd 0a f6 d0 3c 0b 18 38 bd
       0.049193747 -0.03854123 0.025507946 -0.044944804
0002d0 b3 9f 21 3d 85 48 90 bc e1 71 a6 3c e8 cf 0f 3d
       0.03945894 -0.017612705 0.020317974 0.035110384
0002e0 30 ec 0c bd 1d 9e 3d bd 31 e8 39 3d 11 cb c0 3c
       -0.034404933 -0.046293367 0.04538745 0.02353433
0002f0 89 56 46 3d da f4 75 bb 1d a4 56 3c dd b0 0d 3d
       0.04842237 -0.0037529976 0.013100651 0.034592498
000300 5c 72 1c 3d 4b 4b c7 bc f0 a0 15 bd e3 4f 47 3d
       0.038195 -0.024327895 -0.036530435 0.04866017
000310 67 74 c0 bb 98 8d 36 3d cc f4 a0 3c fe b6 27 3d
       -0.0058732512 0.044568628 0.019647978 0.040946
000320 e8 57 d1 3c 30 86 a2 3c 67 a5 98 3c 1a 33 8e 3c
       0.025554612 0.019839376 0.018633557 0.017358351
000330 23 da 88 ba 78 23 03 bb 41 29 af 3b 40 c3 27 3c
       -0.0010440986 -0.0020010155 0.005345494 0.010239422
000340 e6 de 86 bc 3f 2f 99 3c 54 8d 64 bc 35 ef cb 3c
       -0.016463708 0.018699287 -0.013949711 0.024894336
000350 59 88 fc bb c9 bc 36 bc 81 41 47 3d e9 80 3d bd
       -0.0077066836 -0.011153408 0.048646454 -0.046265516
000360 27 17 ed ba 4a 68 81 3c fc c5 b1 3b 00 fa 9c 3b
       -0.0018088565 0.0157968 0.005425213 0.0047905445
000370 0a 44 03 3c ed 83 e9 3c 62 e1 21 bb 61 77 0b 3d
       0.008011827 0.02850529 -0.002470099 0.034049395
000380 9e 3d c6 bb 21 0b 24 3d e0 72 f7 3c bf 4f 24 3d
       -0.006049826 0.040049676 0.030206144 0.040115114
000390 b3 4c 61 3c 35 23 13 bb b6 3a 08 bc c2 db c4 bc
       0.013751197 -0.0022451405 -0.008314779 -0.02403057
0003a0 ae d5 4f 3d c2 4b 30 bd e1 ab 88 3c fd 66 11 bb
       0.05074089 -0.043041 0.01668352 -0.002218663
0003b0 63 25 ff bc 0c c6 82 bb 8e 7a 1d bc 95 da e2 bb
       -0.031145757 -0.003990894 -0.009611739 -0.0069230297
0003c0 bb 44 b2 bc 46 30 8b 39 84 91 62 bc f9 9b 45 3c
       -0.021761289 0.00026548113 -0.013828639 0.012061113
0003d0 9e 83 ab 3c 64 c4 36 bd 6f b3 58 bd 40 1f 9a bc
       0.020936783 -0.044620886 -0.052905496 -0.01881373
0003e0 d7 58 45 bd c1 37 03 bd 06 1e 0b bc fd ed 49 bc
       -0.048180427 -0.032035593 -0.008491045 -0.012324807
0003f0 a0 e0 4f 3c 17 51 85 bb 96 a4 7f bd f2 33 81 3b
       0.012687832 -0.0040685046 -0.06241282 0.00394296

ConvNet.fc1.bias f4 [120]
000000 6b 8d 20 bb 88 1c 48 bc fb 86 94 3c 6c 74 9f 3c
       -0.0024498354 -0.012213834 0.01813077 0.019464694
000010 1e 49 98 bc 65 76 b2 bc 14 a0 75 3b 65 c7 c5 bc
       -0.018589552 -0.02178497 0.0037479447 -0.02414293
000020 fe bd a1 3c dc 12 53 3b 15 61 0a bd 01 34 d6 bc
       0.019743916 0.0032207286 -0.03378399 -0.026147844
000030 16 7a 49 bc fb 4e 9e 3c a7 50 1e 3c 53 f3 68 bc
       -0.012297174 0.01932477 0.009662784 -0.014218169
000040 8c 7f 49 bd cc 2f 0b bd 7c e0 02 bc c5 bf e4 bc
       -0.049193904 -0.03398113 -0.007988092 -0.027923474
000050 29 2f d6 bb ee c9 0c bd ce d5 91 bc 70 f0 0a bd
       -0.0065363836 -0.034372263 -0.017802145 -0.033920705
000060 d8 ed ce 3c 71 63 4f bd 16 4c 69 bd fb 73 d7 bc
       0.025259897 -0.050631944 -0.056957327 -0.026300421
000070 dc 67 11 3d 7b 18 07 bb ef 64 e6 bb 87 0b b5 bb
       0.03549944 -0.0020613957 -0.007031075 -0.005525056
000080 6d 10 a7 3b 4c bd b7 3b bc 28 34 bd 3b 8f 1f bd
       0.0050983937 0.0056072827 -0.04398416 -0.038954955
000090 f4 9c 69 bd a2 a3 34 bc f7 2b 83 3b 36 0c 93 bc
       -0.057034448 -0.011025341 0.0040030438 -0.017950159
0000a0 d5 8e 11 bd 2a ab c1 bc 08 91 83 bc a3 85 06 bd
       -0.035536606 -0.023641188 -0.016060367 -0.03284229
0000b0 0d 6b e2 bc 41 8f 71 bb 7b ef 49 3b 2c 12 c1 bc
       -0.027638936 -0.0036859068 0.0030812907 -0.023568235
0000c0 ab 13 76 bc d2 97 07 bd 7a 88 62 bd fd 46 53 bd
       -0.015019338 -0.03310377 -0.055305935 -0.05158137
0000d0 64 fc f8 bc af 87 27 3c 7f c2 12 bc 87 ad 1b bd
       -0.030393787 0.010225221 -0.008957504 -0.038007285
0000e0 8e f8 80 bc 8a ff 28 bb c7 94 b3 3b 9f 42 2b bd
       -0.01574352 -0.0025787079 0.005480382 -0.04181158
0000f0 7a 5c 4d bc 01 72 d5 bc ab e0 90 bb 39 c5 0f bd
       -0.012534255 -0.026055338 -0.0044213138 -0.035100196
000100 a0 13 60 bc e9 06 a6 bc 3c b5 d3 b9 b4 d6 1c bd
       -0.013676554 -0.020266967 -0.00040380086 -0.038290694
000110 45 2f b5 3b 22 72 ed bb eb 17 4f bd 00 1a 99 bc
       0.0055293166 -0.0072462717 -0.05055992 -0.018689156
000120 33 a3 a2 bc 24 40 11 bc 17 46 3d 3c 3e 5f 6c bc
       -0.01985321 -0.00886539 0.011552355 -0.014427004
000130 83 7d 7a bc dd 79 92 3c 4f 1d 67 3b 5b a3 97 bc
       -0.015288713 0.017880375 0.0035265272 -0.018510511
000140 84 08 02 bd 20 9b 4a bc 88 20 b1 3b 7f 93 01 3d
       -0.031746402 -0.012366086 0.0054054894 0.031634804
000150 41 cf d7 bc f4 26 8e bd a6 de 8e 3c 99 b5 51 bc
       -0.026343944 -0.069410235 0.017440151 -0.012799644
000160 07 fe ce bc 82 39 7b 3b 55 22 f2 3b 36 5b 15 bd
       -0.025267614 0.0038333838 0.0073893466 -0.03646394
000170 70 40 cf b9 46 5a c0 bc 00 5e c2 3c c2 ad 06 bb
       -0.00039530126 -0.023480546 0.023726463 -0.0020550345
000180 97 13 86 bb ed 3c e2 bc 33 62 8c bc bd c8 56 bc
       -0.0040916908 -0.027616942 -0.017136669 -0.013109383
000190 6e de 2f bd 44 ea 2d bc e8 3b 84 3c e5 52 8a bc
       -0.042936735 -0.010614935 0.016141847 -0.01688523
0001a0 36 76 7c bd b8 13 f8 bb 00 a3 22 3c 2f c0 96 bc
       -0.061636172 -0.00757071 0.009926558 -0.018402187
0001b0 71 d4 a8 bb fe a0 ca bb f1 f6 00 bd 7e dc ad 3c
       -0.005152278 -0.0061837425 -0.0314855 0.021223303
0001c0 0c bd 0d bd e6 62 8e 3c 38 ac eb bc e1 a1 60 bd
       -0.034604117 0.017381143 -0.028768644 -0.05484188
0001d0 4b 8b 12 3d 83 70 76 bc 4b d0 bb 3c 28 36 29 bd
       0.03577737 -0.015041473 0.02292647 -0.041311413

ConvNet.fc2.weight f4 [84, 120]
000000 6a 1d a0 3d 96 5d 37 bd a6 8d c4 bc 22 88 80 3d
       0.0781811 -0.044766985 -0.023993324 0.06275965
000010 ba b9 ea 3c 0f 45 46 bd 88 1f 37 bd 35 f7 24 3d
       0.028653014 -0.048405703 -0.044707805 0.040274817
000020 50 2c 2e bd 9f 1e 21 3d a6 a4 90 bd 0a 5b 05 3b
       -0.04252273 0.039335843 -0.07062654 0.0020348453
000030 f0 41 9a 3d 48 ba aa bd 79 7a 7e 3d 25 30 2d bd
       0.07532108 -0.083363116 0.062128518 -0.042282242
000040 1f a2 ed 3a 2d 79 b5 bd 1e 9d fb bc 5d ad 2f 3d
       0.0018129981 -0.08861003 -0.030714568 0.04288994
000050 2c 73 a8 bc b7 31 1e 3c 7b 23 44 bc ca 83 b5 bc
       -0.02056273 0.009655408 -0.01197135 -0.022157568
000060 49 ad 08 3c 1a bf d5 bc 5d 8f 99 bd d3 26 73 bd
       0.008342096 -0.0260921 -0.074980475 -0.059363198
000070 9e 10 37 bd f0 3a 87 3c 18 5f 22 bd 6d 37 36 bd
       -0.04469358 0.016507596 -0.03964147 -0.044486452
000080 bf 25 bf 3c e0 49 4d bb b8 48 5e bd ee 4d df 3c
       0.023333428 -0.003132455 -0.05426857 0.02725884
000090 0d 82 3f bd 57 6d 7d 3c 67 cd 34 3d 38 e2 81 bd
       -0.046754885 0.015467963 0.0441412 -0.06341976
0000a0 a8 8b 91 3d d3 97 9b 3d 34 62 3a bd 71 14 23 3d
       0.071067154 0.075973175 -0.04550381 0.039814416
0000b0 f9 35 48 bd 2c d1 54 bd 4f 6e 65 3d 60 54 54 3d
       -0.048879597 -0.051957294 0.0560134 0.05183828
0000c0 b2 ba 01 be 54 c8 e1 3b da f4 87 3d 92 28 56 3c
       -0.12668875 0.006890336 0.066384986 0.013071196
0000d0 32 78 24 bd ce ea 28 3d ae 26 9a 3c 80 fa 16 3d
       -0.04015369 0.041239552 0.018817272 0.03685999
0000e0 97 35 d8 3c d3 e1 a0 bd 67 3a d7 bc 6c 97 71 bd
       0.026392741 -0.078555726 -0.026272966 -0.058982298
0000f0 1f 76 fc bc e8 3e 01 3d ef 5a b2 3d de 73 1a 39
       -0.030818043 0.031554133 0.087087505 0.00014729748
000100 29 1f 9f 3c 00 b0 83 3d de e8 b9 bd 09 67 7c 3d
       0.019424038 0.06430054 -0.09077619 0.0616217
000110 7e 1c 80 3d da 28 8a 3c 94 a7 bd bc 2e de fc 3b
       0.062554345 0.016865183 -0.023151197 0.0077169156
000120 a9 de b2 bd a9 26 b8 bd 83 6d 03 3c c8 d5 7d bd
       -0.08733875 -0.08991749 0.008021715 -0.061971456
000130 83 00 19 bd 12 a9 68 bd c2 b8 42 3d f2 76 e7 bd
       -0.037354004 -0.056801863 0.04753948 -0.11301984
000140 f5 92 88 bd b4 2c ca bd cf 78 66 3d 18 9d ad bd
       -0.06668655 -0.09871808 0.056267556 -0.08477229
000150 71 e1 a1 3d 4c 59 44 3d 8b f7 e2 ba 2f 77 88 3d
       0.07904328 0.047936723 -0.0017316205 0.066633575
000160 10 42 b5 bd 8b 76 2b bd 53 15 40 bd 0b b0 93 3c
       -0.08850491 -0.0418611 -0.046895336 0.01802828
000170 7b 3d ab bb 25 30 95 bd 99 2c 73 3c 87 28 a6 bd
       -0.005225835 -0.072845735 0.014842176 -0.08113199
000180 95 6f 44 3d 45 0d 2e bd 19 cb 91 bd 13 73 11 3c
       0.047957975 -0.042493124 -0.07118816 0.0088775335
000190 69 70 aa bd 0b 1c 56 3d 80 0d f4 3c 3f a7 61 3c
       -0.08322222 0.052272838 0.029791594 0.013772785
0001a0 1b d9 99 bd cd 2c b9 3c 99 56 2b bd 19 31 a9 bc
       -0.07512113 0.02260437 -0.041830633 -0.020653294
0001b0 8f 7e 25 bd 8b 32 8d 3c eb 31 89 3d f3 08 5a 3d
       -0.0404039 0.017236015 0.06698974 0.05323119
0001c0 17 c6 28 bd 39 19 b8 bc e1 7c 54 bd 31 35 80 3d
       -0.04120454 -0.022472965 -0.051876906 0.062601455
0001d0 47 a7 2c bd 72 51 3b 3d 1e 07 af bc 8d 67 4d 3a
       -0.042151716 0.04573197 -0.021365698 0.00078355597
0001e0 c9 66 9c 3d 08 d1 5a bd 28 6b 8f bd cb c2 b6 ba
       0.07636792 -0.053422004 -0.0700286 -0.0013943551
0001f0 27 57 8b bd 03 ab ac bd 57 08 1d bd 94 24 ad bd
       -0.06803732 -0.084310554 -0.03833803 -0.08454242
000200 b4 63 d8 bb d0 20 e4 bb 8d b4 02 3d 8f d7 8e bd
       -0.0066036824 -0.0069619194 0.031910468 -0.06974708
000210 e7 c8 60 bd 1d 99 ae 3b 2d 3a 40 bb a4 24 db 3c
       -0.054879095 0.005328311 -0.002933155 0.02675087
000220 3b 16 ac 3d d4 84 c6 bb 96 b3 3e 3d a3 91 cc 3c
       0.084026776 -0.006058315 0.046557985 0.024971789
000230 1f c4 90 bd 58 c1 dd bc 61 a6 38 3d 1c 2a 71 bd
       -0.07068657 -0.027069733 0.045080546 -0.05887805
000240 27 07 1f 3d 55 15 b7 bd 1a 9b 79 bd 09 d2 a3 bd
       0.03882518 -0.08939616 -0.060938932 -0.079990454
000250 06 98 de bc 5a 2a dd 3c 02 5e 53 3d 85 e0 a1 bd
       -0.0271721 0.026997734 0.051603325 -0.07904152
000260 c8 6f 0f bd 4d 8e 43 bc 1f 70 09 3d 11 72 d2 bb
       -0.035018712 -0.011935783 0.033554193 -0.006422289
000270 6c a2 e4 3a 5b 99 a3 3b d6 ee 79 3d 08 bc 82 3d
       0.0017443425 0.0049926466 0.061018787 0.0638352
000280 b5 4f 95 bd 52 e1 30 3d ef 20 98 3d 62 9b 7a 3d
       -0.072905935 0.043183632 0.074281566 0.06118334
000290 a4 14 91 bd 29 b9 d6 bc 82 89 b8 3c 29 28 9f bd
       -0.07084015 -0.026211338 0.022526506 -0.07771332
0002a0 b7 ad 1c 3d fe d7 6c bd 55 ed 55 3d e7 23 0a bc
       0.038251605 -0.057823174 0.05222829 -0.008431411
0002b0 2c b2 19 3d 40 48 a4 bb b2 41 29 bd 11 34 77 bd
       0.037523434 -0.0050134957 -0.041322418 -0.06035239
0002c0 93 86 bc 3c a5 3a a4 3c 3b df 98 3c 4a fa 20 3c
       0.023013389 0.020047495 0.018661132 0.009825299
0002d0 22 e4 a4 3d 4f 4c a5 bc 63 fc ab 3c cd c2 73 bc
       0.080513254 -0.020177988 0.02099437 -0.014877987
0002e0 cd 4c 48 3d af 1d be bb 63 d0 9a 3d dc 5d b6 bd
       0.048901368 -0.0058018784 0.07559278 -0.08904621
0002f0 20 de 94 3d c4 a2 23 bd 6f 62 cb 3c 7b 30 47 3c
       0.072689295 -0.039950147 0.02482721 0.012157555
000300 39 62 4c 3d fd 7f 5f 3d 99 58 6a 3d 9b b2 11 bd
       0.04989836 0.05456542 0.0572134 -0.035570722
000310 f0 00 ac 3d 1b 61 bb 3c 37 5f a7 3b 88 72 a3 bc
       0.08398616 0.022873452 0.005107786 -0.019952074
000320 a5 be 3b 3c 0a 31 e0 bb b4 ba 87 3d fb ef eb 3b
       0.011459027 -0.0068417834 0.06627408 0.0072002388
000330 b2 09 b4 3d 47 ce 61 bd 2c b3 49 bd 32 4e e0 bc
       0.08790912 -0.055128362 -0.049243137 -0.027381036
000340 bc 9b 0c bd fa 55 2e bd aa 4c 75 3d 4b 68 ab bb
       -0.034328207 -0.042562462 0.059887566 -0.0052309386
000350 d2 69 b5 3c 96 f7 5d bc bb f8 b1 3d e2 db fd 3b
       0.022145186 -0.013547799 0.0869002 0.0077471593
000360 7e 41 a3 bd 54 d3 8b bd f8 cf aa bd e1 91 6d 3c
       -0.07971476 -0.06827417 -0.08340448 0.014500112
000370 b5 fe 71 bc 0c b6 80 bd f9 3e 34 3d 40 77 7a bb
       -0.0147702 -0.06284723 0.044005368 -0.0038218051
000380 0a cc 31 3d 8b 9d bc bd 65 8f 35 bd 45 e0 a2 bc
       0.043407477 -0.092097364 -0.044326205 -0.01988233
000390 69 1d d8 3c 6c 13 0b 3d 1e 56 23 bd b7 0a c0 3d
       0.026381211 0.03395407 -0.03987705 0.09377044
0003a0 a4 f2 0f 3d 4b 25 1c 3b ac 9b 19 bd 20 c0 6f 3c
       0.03514351 0.002382594 -0.037501976 0.0146332085
0003b0 50 e3 ac bd ba 25 2e bd 0a 93 0e bb 13 29 64 bd
       -0.08441794 -0.042516448 -0.0021755123 -0.055703234
0003c0 64 46 32 bc 67 df 0b bd 0b f1 c5 3c 3a cc 85 bd
       -0.01088104 -0.0341486 0.02416279 -0.06533094
0003d0 ca ae 30 3c cb 12 95 bd 2b a5 83 3d 30 df 8d bd
       0.01078386 -0.07278975 0.06427988 -0.06927335
0003e0 a9 ba 0c bc d6 b5 91 bd f7 3a 2d bd 17 52 48 3d
       -0.008589425 -0.071147606 -0.04229256 0.048906412
0003f0 38 3e ee 3c 21 f1 48 bd 7a 4c f4 3c 36 4a 9b bd
       0.029082403 -0.049058083 0.029821623 -0.07582514

ConvNet.fc2.bias f4 [84]
000000 f2 93 de 3c 7c f7 49 3d 49 cd 8e 3c d9 be 41 3c
       0.027170155 0.049308285 0.017431872 0.011825287
000010 14 fe 84 bd 52 74 49 3c c6 ed cc bc 5b 33 e5 b9
       -0.06493774 0.012295799 -0.025015723 -0.00043716546
000020 bc ba af 3c fd ee a6 bb d8 b7 8f bb a1 7d 01 ba
       0.021451347 -0.0050944076 -0.0043859296 -0.00049396796
000030 8f eb 90 bd 3d 67 29 bc 78 79 86 bc e6 88 56 bb
       -0.07076179 -0.010339555 -0.016415343 -0.0032735406
000040 65 5b 2a 3c 4b d1 af bd 18 a0 a2 3d f9 a2 a3 bd
       0.010397767 -0.08584841 0.07940692 -0.07990069
000050 0c ad 8e 3c c1 74 6c bd db ca 94 bd 53 e6 14 3d
       0.0174165 -0.057728533 -0.07265254 0.036352467
000060 a2 ac 90 3d 13 76 11 3c ea 37 49 3d 1f 39 a5 bd
       0.07064177 0.008878249 0.04912559 -0.080675356
000070 84 05 01 bb 86 1a a8 bc a3 0f ba bd 16 3f 06 3c
       -0.0019687125 -0.02052046 -0.09085014 0.008193752
000080 21 64 86 bd 0f 16 07 bc aa 96 01 bc d1 2a a6 3b
       -0.06562067 -0.008245005 -0.007909456 0.005071022
000090 98 da 09 3d 2e 47 b6 bc 81 4d 71 3d d3 0e cc 3b
       0.033655733 -0.022250738 0.058911804 0.006227353
0000a0 8e f0 30 bc 9e 12 bd 39 b4 f2 43 bd c3 9a a5 bd
       -0.01079954 0.0003606276 -0.04783888 -0.08086159
0000b0 bd 1f 86 3c ee c9 e4 3b 11 d2 d5 bb da aa 2f bd
       0.016372556 0.0069820797 -0.006525286 -0.042887546
0000c0 d4 42 8e bc a7 5d f4 3c bb 0c f6 bc 95 49 19 3c
       -0.01736585 0.029829813 -0.030035367 0.009355922
0000d0 63 1b 05 bc 7b 43 73 bb 79 49 4f bd 56 d5 7b 3d
       -0.008124205 -0.003711908 -0.05060718 0.06148275
0000e0 a2 2b de bc bc 9c c4 bc e3 8d 9f bd d2 05 8c bd
       -0.027120415 -0.024000518 -0.077907346 -0.06837048
0000f0 94 91 c5 bc 7e 33 28 bd 20 1c 00 bd bc 8e ae bc
       -0.024117269 -0.04106473 -0.031276822 -0.021308295
000100 25 fd 3a 3c 8c b8 59 3c 97 d7 4e bc 6f 42 db bc
       0.011412893 0.013288628 -0.012624643 -0.026765076
000110 17 a8 76 3d 66 55 68 bd 01 de 71 bd ee 54 3a 3a
       0.060218897 -0.056722067 -0.05904961 0.00071079924
000120 eb e6 ef bc 76 53 17 bc 14 f7 01 bd 98 fb d8 3b
       -0.029284915 -0.009236207 -0.031729773 0.006621789
000130 6c 84 2e 38 bc 64 40 ba 96 74 a8 bd 81 5c 0f 3d
       4.160816e-05 -0.00073392293 -0.08225362 0.035000328
000140 4b bc 32 3d f8 c6 95 bd 93 01 85 bc fc 8b 3a bd
       0.0436366 -0.07313341 -0.016236102 -0.045543656

Output.fc.weight f4 [10, 84]
000000 49 d6 3f bf 91 4b 8b bd cd f0 95 3e d8 af fc 3e
       -0.7493635 -0.068015225 0.2928528 0.49352908
000010 b2 df c3 3d bb 1e 01 3f f6 4f 5b bd 72 b0 2c bf
       0.09564151 0.50437516 -0.053543054 -0.67456734
000020 7f 75 1e bf 6e a7 c5 3d 77 74 9c bc ef 98 1c be
       -0.61898035 0.09651075 -0.019098504 -0.15292715
000030 94 70 87 bd ba 90 28 bd a4 9e 64 3d 98 5d 44 bf
       -0.066132694 -0.041153647 0.055815354 -0.7670531
000040 8a 1c 2f 3f 9f fb 8f b9 98 99 5c 3d 26 ee 95 bd
       0.6840292 -0.00027462558 0.053857416 -0.07320814
000050 60 15 66 bf 73 e0 81 bd 5c d8 d6 bd 38 84 10 be
       -0.89876366 -0.063416384 -0.10490486 -0.14112937
000060 b7 e4 b4 bd 97 79 19 bf 4f c7 94 3b 85 4d 83 3c
       -0.088326864 -0.59951156 0.004540361 0.016028175
000070 72 d8 e5 be d4 0f f1 3c 39 35 81 bd 06 d3 ad 3e
       -0.44891697 0.029426493 -0.063089795 0.3395006
000080 1a e5 92 3d e0 f7 29 bf 46 21 e0 3e a9 c2 2b bf
       0.07172604 -0.6639385 0.43775386 -0.670939
000090 c6 24 c8 be 3f f3 78 bd 2e ec 4b bd 8b a0 65 3e
       -0.39090556 -0.060778853 -0.049785785 0.22424524
0000a0 d6 08 ac bd 5e 11 20 be 38 79 51 bd 78 5f 0c 3d
       -0.08400123 -0.15631625 -0.051140994 0.034270734
0000b0 24 cb 33 3d c1 35 46 bf 31 df 2b 3d 94 9c 30 3d
       0.043894902 -0.7742577 0.0419609 0.043118075
0000c0 b9 18 9e bd 13 1d 68 3e 67 b6 ca bd 07 1b 59 bf
       -0.07719559 0.22667341 -0.09898072 -0.84806865
0000d0 85 04 d6 3e 44 b6 03 bc 94 dd 9b bd b4 16 a4 be
       0.41800323 -0.008039061 -0.07610622 -0.3204857
0000e0 ef cc 51 3d f9 b4 c6 3d 1f 55 77 bd 09 f2 be bd
       0.05122083 0.097024865 -0.060383912 -0.09323508
0000f0 58 73 b2 bd 48 0c a3 3b 80 38 d0 bd 42 b6 8c 3d
       -0.08713406 0.0049758293 -0.101670265 0.068707004
000100 9d 89 2c bf 3f b1 3c bf f0 5d db bc 58 8e 2a 3c
       -0.6739748 -0.73707956 -0.026778191 0.010409914
000110 02 e5 c2 be c6 25 db bd 33 ed a9 3d 91 48 40 bf
       -0.38065344 -0.10700564 0.08297195 -0.7511073
000120 21 3c 9a bd 8f a2 5a 3d 4b 06 03 be bd 1f f5 be
       -0.07531 0.053377684 -0.1279537 -0.47875777
000130 e8 e7 46 bf 65 c6 45 bf 3d cb 2f bc fc 6d 6b bd
       -0.7769761 -0.7725585 -0.010729608 -0.057477936
000140 53 32 1c be ff 80 ab bd fe 54 ca bc b7 63 ba bc
       -0.15253572 -0.083742134 -0.02469873 -0.022752626
000150 27 22 43 3f 83 b6 91 3e f3 f5 16 3f 5e 53 0c be
       0.7622399 0.28459558 0.5896904 -0.13703677
000160 d7 52 49 bd e4 2f 66 3e ed 0a 9f 3d ab e9 34 3f
       -0.049151268 0.22479206 0.07765756 0.7066905
000170 4c 28 ec 3b 6f 28 4e 3c 97 2e 4c be 54 ff c9 bc
       0.007206952 0.012582882 -0.19939648 -0.024657883
000180 ae aa 7b 3d 0c fb aa 3c 2b 1f 93 3d 28 74 32 3f
       0.06144207 0.020871662 0.07183679 0.6970849
000190 bf e1 3c 3f 60 f3 9c bd 47 f9 a3 3d 33 1e 3e 3d
       0.7378196 -0.076636076 0.0800653 0.04641552
0001a0 bf 71 61 3f 27 2b da 3c 8e e5 73 bd b0 98 c1 3e
       0.8806419 0.026631905 -0.059545092 0.37811804
0001b0 eb 33 12 3f 8e c1 cc 3c e4 95 6e 3e 8c 93 d0 3d
       0.5711047 0.024994638 0.23299366 0.10184392
0001c0 e9 47 fe be 45 2a 20 3c cb b1 6b bc 80 e3 42 bf
       -0.49664238 0.009775703 -0.014385651 -0.7612839
0001d0 94 8c 8a bd 61 e9 23 3f 5f 96 be be d9 9c 1f 3f
       -0.067650944 0.6402798 -0.372241 0.62348706
0001e0 9b fa 80 3e 35 79 10 3d b7 35 18 3f 88 ad 3d 3f
       0.25191197 0.035271842 0.5945696 0.7409291
0001f0 a8 f2 8c bc d2 fe 3c bd 7a 7d 62 bc ee 20 a8 3d
       -0.017205551 -0.046141453 -0.013823861 0.08209406
000200 63 af 16 3f dc fb 44 3f e5 a9 ad 3d 5b db d4 bc
       0.5886137 0.76946807 0.084796704 -0.025983503
000210 38 66 1d 3d 44 bd a9 3e 14 5d 69 bb cb fc 5b 3f
       0.03842756 0.3315221 -0.0035608457 0.85932606
000220 18 77 0c bf ac 5e c9 bd 3d cd 35 3d c8 dc 18 3f
       -0.5486922 -0.0983251 0.044385184 0.59711885
000230 c3 1e 76 3d 15 85 26 bb 26 55 a3 3d 25 11 98 3d
       0.06008793 -0.0025408913 0.07975225 0.07425145
000240 fe 7a 8b bd 00 ca 22 3d 3f 7d d4 3b 98 53 3a 3b
       -0.06810568 0.039743423 0.006484657 0.0028431173
000250 37 e9 27 3f e2 93 41 3f c3 d5 4c 3c 3b ad 9f bd
       0.6559023 0.75616276 0.012502137 -0.07796713
000260 83 e8 82 3e 83 9d 94 3d 07 a2 83 3d 0a ce 3a 3f
       0.25568017 0.072566055 0.06427389 0.7297064
000270 fb 8f 1a 3e 97 2c 4b bd d6 f2 10 bd 8c 0d 0d 3f
       0.15093987 -0.04960307 -0.035387836 0.55098796
000280 97 74 39 3f cf a6 25 3f a8 6f e8 bb 98 54 85 3e
       0.72443527 0.64707655 -0.0070933886 0.26041102
000290 f7 7e ba bb 41 31 05 3c f7 00 8d 3d a3 b0 6a bd
       -0.005691405 0.008129419 0.0688495 -0.05729736
0002a0 d3 29 ff be ce 73 05 be 08 58 b0 be 25 f2 86 bd
       -0.49836597 -0.13032457 -0.34442163 -0.06589154
0002b0 5c 46 75 bd 2a ca 89 be 50 79 8f 3d cb fc 50 bf
       -0.059881553 -0.2691205 0.070055604 -0.8163573
0002c0 a9 6c d8 bd c4 5f 38 bd 64 88 b6 be dd aa 26 be
       -0.105676 -0.045013204 -0.35650933 -0.16276117
0002d0 0d db 8f 3c f1 10 db 3d b8 1a 87 bc 96 55 29 bf
       0.017560506 0.10696591 -0.016492233 -0.6614622
0002e0 46 c6 44 bf 45 1c 45 3c 41 e0 d4 3c 79 26 a6 3d
       -0.7686504 0.012030666 0.025985839 0.08112807
0002f0 a9 90 51 bf 29 b1 b9 3d 37 6e bb bd 07 ec 7b be
       -0.8186136 0.09066994 -0.09151881 -0.24601756
000300 fb 42 2c be a9 9c 79 3d a5 1d 7d bb 3b b7 11 3d
       -0.16822426 0.06094042 -0.0038622406 0.035575133
000310 63 3d f3 bd 80 bd 0a 3d 48 26 9d bd e5 f3 ed be
       -0.11876943 0.033872128 -0.07673317 -0.4647514
000320 cf a9 cc bd f0 b3 0d bf b7 9f 5f 3e 69 77 29 bf
       -0.09993326 -0.5535269 0.2183827 -0.6619783
000330 32 8d 3c 3d 1c 0f 93 3d e4 40 20 be 62 15 25 bf
       0.04603309 0.07180616 -0.15649754 -0.6448575
000340 58 0d 92 bd 98 e8 9d bc 16 a5 13 3b 5f 07 89 bc
       -0.07131451 -0.019275948 0.0022528819 -0.016727148
000350 bc 4c 58 be c4 c4 21 bf 48 0d c9 3d ee 3f 89 bd
       -0.21123022 -0.63190866 0.09816986 -0.06701647
000360 99 5c 77 bd 9b 4c 91 be 0d f6 1a 3d ad e4 59 bf
       -0.060391042 -0.28378758 0.03783231 -0.85114557
000370 03 a7 dd bc a9 7e 45 3d 2d c1 c9 bc 13 ef 6c be
       -0.027057176 0.048216496 -0.024628246 -0.23138075
000380 a1 3e d5 bd 81 7a 07 bd 07 b2 c7 bd c9 7a 86 bd
       -0.10412336 -0.033075813 -0.09750753 -0.06566388
000390 1b e6 9a bd e8 d0 8f 3d f2 68 00 bc 01 d4 ac 3b
       -0.075634204 0.070222676 -0.007837521 0.0052742963
0003a0 50 d8 2e bf 97 30 46 bf 3f 6b 47 3d 4a ba a6 3d
       -0.68298817 -0.7741789 0.048686262 0.081410006
0003b0 84 8f b0 3d e5 73 72 bd 8a a3 8c bd 44 e0 31 bf
       0.086211234 -0.059192557 -0.0686713 -0.6948283
0003c0 4c 05 eb bc 58 f6 84 bd a7 b1 d3 3d 52 3a dd 3d
       -0.02868905 -0.06492299 0.10336619 0.10802139
0003d0 60 0d 28 bf b4 e3 47 bf 38 60 cd bc ef e3 31 3d
       -0.6564541 -0.7808182 -0.025070295 0.043430265
0003e0 cc a7 01 3d 3e 35 9c 3d 88 ae e7 bc c9 41 1b 3d
       0.031654164 0.07627343 -0.028281465 0.037904534
0003f0 80 d2 0a bf 8f ab 24 bd ca 99 13 bf 45 3e 0a bf
       -0.5422745 -0.040202674 -0.5765654 -0.54001266

Output.fc.bias f4 [10]
000000 1a 1c d7 3c 10 de a1 3e 57 d6 5b bd 21 f6 e1 3d
       0.026258517 0.31614733 -0.053671207 0.110332735
000010 08 36 02 be b9 53 54 be 32 8b bc bd e7 2d cb bc
       -0.12715924 -0.20735063 -0.09206237 -0.024802161
000020 fa f4 80 3d 12 cd d2 3c
       0.062967256 0.02573255
