tutorials/W1D2_ComparingTasks/RR/models/ConvNet_regression_10000_epoch_3.pth (torch, 248022 bytes, 9 tensors)

ConvNet.conv1.weight f4 [6, 1, 5, 5]
0.045730148 -0.055639777 -0.033266928 -0.1392963 0.02427704 -0.13958476 -0.04450815 -0.0093494505
0.14943141 -0.016543834 -0.0027848724 -0.0612636 0.1620595 0.09197048 0.16441053 -0.14444837
-0.059885032 -0.06731698 -0.14776343 -0.18859348 -0.14326748 -0.17720391 0.0063361246 -0.08940432
0.05275937 -0.16716303 -0.18885 0.04175318 0.13896842 -0.08612683 0.06984024 -0.066309825
-0.024320936 0.13930723 0.086250655 0.07954715 0.1794527 -0.20358467 0.107832156 0.09045321
-0.08769744 0.10741972 0.009150295 -0.0123010585 0.06667328 -0.0031323303 -0.10288682 -0.06853174
-0.10160981 -0.11653775 -0.06860826 0.15278319 -0.18836515 8.453692e-05 0.059988584 0.12654665
0.18731295 0.011298923 -0.20636688 0.18708757 0.028888833 -0.032578927 0.08717113 -0.11945685
-0.045289796 -0.077286616 0.15925974 -0.09989074 -0.030373452 0.1536037 0.009207747 -0.038861685
-0.14569795 -0.19023895 0.12759535 0.011783132 -0.034989253 -0.08347672 -0.053448845 -0.10286513
-0.16342218 -0.060017247 -0.14363907 0.05561642 -0.02309555 -0.08471348 -0.0031218957 0.02979632
0.17712064 -0.027028205 0.14445609 -0.02782545 -0.005167253 -0.15066539 -0.1360404 0.18736653
0.1295437 -0.17602296 -0.15559502 0.055211928 -0.09156348 -0.12676756 -0.00916445 0.09942663
-0.03371758 0.011056304 0.04021195 -0.022284595 -0.085106544 -0.08581963 -0.028969616 -0.00786632
-0.05251113 -0.07219836 -0.16739342 0.07489698 -0.16934186 0.041471582 0.11508464 0.18343392
0.08597535 -0.09369333 -0.14835596 0.06467472 0.17643274 0.17781872 -0.021760574 -0.024400832
0.11769405 0.09485193 -0.19430502 -0.13730177 0.0054598213 0.17616697 -0.08670971 -0.0049143275
-0.1899572 -0.18735567 -0.14625776 -0.18733203 -0.10064976 0.1701111 -0.1712604 -0.09231558
0.14687407 0.016158337 0.08782583 -0.15184563 0.17862074 0.06916463
00000000: 894f 3b3d 89e6 63bd e742 08bd b0a3 0ebe
00000010: a5e0 c63c 4fef 0ebe 2e4e 36bd 702e 19bc
00000020: 8c04 193e ef86 87bc 6882 36bb 8aef 7abd
00000030: edf2 253e 055b bc3d 3c5b 283e 46ea 13be
00000040: 024a 75bd 7cdd 89bd 4c4f 17be a61e 41be
00000050: b6b4 12be f174 35be 449f cf3b 9d19 b7bd
00000060: 361a 583d c92c 2bbe e561 41be 6205 2b3d
00000070: bd4d 0e3e 4363 b0bd 6608 8f3d 72cd 87bd
00000080: b33c c7bc 8ea6 0e3e 2fa4 b03d 9ee9 a23d
00000090: 73c2 373e 8078 50be 1bd7 dc3d 883f b93d
000000a0: b79a b3bd dffe db3d 1eeb 153c 618a 49bc
000000b0: 008c 883d c847 4dbb 53b6 d2bd 5e5a 8cbd
000000c0: ce18 d0bd 58ab eebd 7d82 8cbd 3273 1c3e
000000d0: cbe2 40be 6a49 b138 97b6 753d 7295 013e
000000e0: f7ce 3f3e 1e1f 393c d751 53be e293 3f3e
000000f0: 46a8 ec3c 7b71 05bd c786 b23d cba5 f4bd
00000100: cb81 39bd 7248 9ebd fc14 233e 8493 ccbd
00000110: bfd1 f8bc 4a4a 1d3e 17dc 163c 6e2d 1fbd
00000120: d831 15be 00ce 42be 5ba8 023e 0a0e 413c
00000130: e450 0fbd d8f5 aabd 2ded 5abd f4aa d2bd
00000140: 2558 27be a5d4 75bd 1f16 13be 0bce 633d
00000150: e132 bdbc 437e adbd b898 4cbb 6917 f43c
00000160: 1d5f 353e 416a ddbc 4cec 133e 33f2 e3bc
00000170: 0f52 a9bb 0748 1abe 2d4e 0bbe 03dd 3f3e
00000180: 1ba7 043e 5d3f 34be 4d54 1fbe e725 623d
00000190: a285 bbbd 5bcf 01be 7d26 16bc 30a0 cb3d
000001a0: 721b 0abd 8025 353c 49b5 243d 2f8e b6bc
000001b0: 574c aebd 34c2 afbd b051 edbc bde1 00bc
000001c0: e915 57bd bcdc 93bd 2e69 2bbe 9663 993d
000001d0: f467 2dbe 1bde 293d 7fb1 eb3d 1ad6 3b3e
000001e0: d813 b03d 4ae2 bfbd a0ea 17be 2e74 843d
000001f0: c9aa 343e 1c16 363e 3b43 b2bc 41e4 c7bc
00000200: 9409 f13d bb41 c23d e5f7 46be d698 0cbe
00000210: 4de8 b23b 1d65 343e dc94 b1bd 5e08 a1bb
00000220: 2484 42be 2ada 3fbe 98c4 15be f8d3 3fbe
00000230: 7621 cebd 9b31 2e3e e35e 2fbe f30f bdbd
00000240: 2866 163e 7d5e 843c 07de b33d 6c7d 1bbe
00000250: 5be8 363e 2fa6 8d3d

ConvNet.conv1.bias f4 [6]
0.027996698 -0.095678456 -0.059982616 -0.15237078 -0.050696574 -0.014457152
00000000: 5559 e53c 11f3 c3bd 55b0 75bd 1607 1cbe
00000010: 36a7 4fbd b1dd 6cbc

ConvNet.conv2.weight f4 [16, 6, 5, 5]
-0.023782 -0.029967308 0.013805091 -0.02264937 -0.04768049 0.024249068 -0.01312624 0.030456446
0.05985251 -0.05443062 0.046886686 0.041287944 0.0015373958 -0.018206025 -0.030167297 0.05721445
-0.0031573735 -0.08562305 -0.014832615 -0.014797158 0.04798491 0.024222076 0.025458843 -0.08453214
-0.04662026 -0.0006312322 0.07045674 -0.05979976 0.06015171 0.02815783 -0.008506032 0.02356174
0.011180271 0.042842958 -0.013028439 0.034897454 0.03893628 0.059261825 -0.062836386 0.019128693
-0.012665993 -0.023265868 -0.08486886 0.018692875 -0.032780852 0.036656935 -0.03798088 0.026068727
0.053433713 0.056665003 -0.036525466 0.055735797 0.009588632 0.062214453 -0.0067688967 0.043001346
0.057880864 0.046654806 0.011613304 0.055114433 -0.01110854 -0.031996403 -0.023025598 -0.08912462
-0.030468639 -0.07677691 0.040226087 -0.07482052 -0.06790072 0.04592915 0.026940985 -0.019853853
0.04006205 -0.0655958 0.072521046 -0.0075782835 0.011446355 0.06181336 -0.077536196 0.013343946
-0.0015111122 0.013372436 -0.06953268 -0.0763195 0.069181204 -0.035983615 -0.07669089 -0.015314515
-0.001791305 -0.06327394 0.07132175 -0.08586703 -0.0036291329 -0.08277175 0.018374203 0.0060990164
0.00087162375 0.0024540706 -0.0034311505 -0.05064384 0.036548086 0.05005695 -0.063627765 0.06367999
0.037581574 -0.038038444 -0.0457746 0.07661639 0.06780515 -0.02837112 -0.036815554 -0.032210752
-0.076346956 0.017400026 0.042722512 0.024983604 -0.040341295 -5.72291e-05 -0.034536734 0.028382769
0.05526834 -0.013333527 0.07112061 0.06420529 0.014444186 0.01593156 0.00019121957 -0.08010926
0.06137636 0.043063547 0.030261384 -0.0063237357 0.060227897 -0.06960217 -0.019022396 0.017980697
-0.055044796 -0.023827622 -0.046466146 -0.038322225 0.032973412 -0.0812879 -0.07942671 -0.0064737704
0.055916734 0.010836076 0.051147718 -0.08707496 0.0512944 -0.07468376 0.03599041 0.06375872
-0.038666643 0.019428384 -0.055101085 -0.06718876 0.031636123 0.016200174 -0.010608531 -0.014058943
-0.03154451 0.05432324 -0.08821924 0.06783763 0.05156807 0.018741595 -0.039889853 0.0065339934
0.0716081 -0.07587927 0.0005206305 0.016548308 0.032245044 -0.057834003 -0.04609402 0.04099379
0.03734868 0.01183159 0.012093459 -0.029930843 -0.062975 0.034786206 -0.025305964 0.059976663
0.06451499 -0.008090592 0.0040575694 0.011152579 -0.07672337 -0.029948816 0.008883467 0.005144774
0.056664962 -0.05609649 -0.051836245 0.013396403 -0.08106763 0.06570254 -0.05761189 -0.03335431
0.030875564 0.025731588 0.056470476 0.030335875 -0.036418106 0.056978665 -0.03682348 0.046267208
-0.04216011 -0.078942515 0.06832488 0.03165025 -0.07899968 0.010793701 0.033220902 0.016909843
0.056063112 0.022922626 -0.02013982 -0.02446858 -0.0053856866 -0.081409074 -0.045922916 -0.030369246
-0.038687497 -0.0067877783 -0.038666192 0.0068097706 0.049569886 0.03056081 -0.014194467 -0.015427475
0.066264786 0.00834905 -0.010804161 -0.08162556 -0.001634171 -0.07600881 -0.03259038 0.03171206
-0.048769176 -0.01469564 -0.02859695 -0.032908708 0.043188438 -0.01788514 -0.03224268 -0.08874376
-0.015800692 -0.08399673 -0.041969948 -0.06530816 0.017316883 -0.05993966 0.056200594 -0.07840456
00000000: 78d2 c2bc 007e f5bc c02e 623c 2c8b b9bc
00000010: 9e4c 43bd fba5 c63c 710f 57bc cc7f f93c
00000020: e827 753d a4f2 5ebd 410c 403d 8c1d 293d
00000030: 7182 c93a cd24 95bc 6821 f7bc b359 6a3d
00000040: f0eb 4ebb 235b afbd 7f04 73bc c76f 72bc
00000050: d38b 443d 606d c63c 108f d03c 301f adbd
00000060: e3f4 3ebd 4779 25ba a04b 903d 98f0 74bd
00000070: a461 763d 40ab e63c e25c 0bbc 8d04 c13c
00000080: 752d 373c 197c 2f3d 3c75 55bc a2f0 0e3d
00000090: a67b 1f3d 87bc 723d 5db0 80bd c7b3 9c3c
000000a0: 0685 4fbc 1098 bebc bacf adbd cd21 993c
000000b0: 3745 06bd 9525 163d d791 1bbd 158e d53c
000000c0: 4fdd 5a3d 9019 683d ba9b 15bd 384b 643d
000000d0: a319 1d3c 95d4 7e3d 9fcd ddbb 2e22 303d
000000e0: 7c14 6d3d 1c19 3f3d ba45 3e3c acbf 613d
000000f0: 9800 36bc a90e 03bd 2ea0 bcbc f886 b6bd
00000100: 5e99 f9bc 363d 9dbd 1cc4 243d 803b 99bd
00000110: 880f 8bbd 3420 3c3d 57b3 dc3c 8ca4 a2bc
00000120: 1b18 243d 1757 86bd ea85 943d 4053 f8bb
00000130: 7e89 3b3c 0130 7d3d 4ccb 9ebd 91a0 5a3c
00000140: 8310 c6ba 1018 5b3c 2667 8ebd 664d 9cbd
00000150: e0ae 8d3d 8e63 13bd 1d10 9dbd bbe9 7abc
00000160: 39ca eaba c495 81bd 2311 923d 0edb afbd
00000170: bfd6 6dbb 3c84 a9bd 7f85 963c 42da c73b
00000180: ae7d 643a 79d4 203b 27dd 60bb ea6f 4fbd
00000190: 72b3 153d 8408 4d3d 464f 82bd a86a 823d
000001a0: 23ef 193d 33ce 1bbd 267e 3bbd 0ee9 9c3d
000001b0: 6ddd 8a3d 8d6a e8bc e8cb 16bd 6cef 03bd
000001c0: cb5b 9cbd 808a 8e3c cdfd 2e3d 6aaa cc3c
000001d0: ea3c 25bd 4709 70b8 6476 0dbd fb82 e83c
000001e0: 0e61 623d de74 5abc afa7 913d 107e 833d
000001f0: 4fa7 6c3c e782 823c 1d82 4839 5310 a4bd
00000200: c765 7b3d 6763 303d b9e6 f73c 5737 cfbb
00000210: 87b1 763d 958b 8ebd dbd4 9bbc 414c 933c
00000220: a776 61bd 2532 c3bc 4953 3ebd c4f7 1cbd
00000230: 210f 073d 457a a6bd 79aa a2bd ec21 d4bb
00000240: f208 653d cc89 313c 4580 513d 5b54 b2bd
00000250: 141a 523d cdf3 98bd ae6a 133d ef93 823d
00000260: ea60 1ebd 4628 9f3c adb1 61bd 439a 89bd
00000270: e194 013d 3ab6 843c 67cf 2dbc 7b57 66bc
00000280: d134 01bd 0c82 5e3d 4aac b4bd 75ee 8a3d
00000290: 0a39 533d f987 993c 8b63 23bd 1c1b d63b
000002a0: 44a7 923d 9766 9bbd ec7a 083a 5190 873c
000002b0: 6113 043d 59e3 6cbd 15cd 3cbd 1be9 273d
000002c0: eefa 183d 49d9 413c a523 463c 8731 f5bc
000002d0: 09f9 80bd fb7b 0e3d 744e cfbc 17aa 753d
000002e0: 6f20 843d 678e 04bc 5cf5 843b 4fb9 363c
000002f0: 2421 9dbd 3857 f5bc f68b 113c 7e95 a83b
00000300: 8519 683d 6fc5 65bd 3e52 54bd 967c 5b3c
00000310: c906 a6bd 0e8f 863d 72fa 6bbd 879e 08bd
00000320: c0ee fc3c 0dcb d23c 964d 673d f182 f83c
00000330: 272b 15bd 7662 693d 38d4 16bd af82 3d3d
00000340: 14b0 2cbd 9dac a1bd eaed 8b3d b1a3 013d
00000350: 96ca a1bd 10d8 303c a412 083d 8386 8a3c
00000360: 6fa2 653d 3bc8 bb3c 44fc a4bc 5572 c8bc
00000370: 6a7a b0bb cdb9 a6bd ab19 3cbd edc8 f8bc
00000380: c876 1ebd 036c debb 7160 1ebd 7f24 df3b
00000390: cb09 4b3d aa5a fa3c e98f 68bc 85c3 7cbc
000003a0: d5b5 873d 74ca 083c f003 31bc 4d2b a7bd
000003b0: ae31 d6ba 82aa 9bbd 7e7d 05bd 81e4 013d
000003c0: 30c2 47bd fbc5 70bc 2744 eabc 48cb 06bd
000003d0: 5ce6 303d db83 92bc e710 04bd 4abf b5bd
000003e0: 7470 81bc 7a06 acbd aee8 2bbd 49c0 85bd
000003f0: 23dc 8d3c 4a83 75bd 9832 663d 9292 a0bd

ConvNet.conv2.bias f4 [16]
-0.029322486 -0.07389508 0.021324053 0.016617663 -0.04054852 -0.0036440818 -0.025190609 -0.08071413
0.06523523 0.02178572 -0.033404823 -0.07420035 0.01969449 -0.00046189627 -0.051395886 0.013998624
00000000: b635 f0bc 4e56 97bd c8af ae3c c421 883c
00000010: 3416 26bd 8cd1 6ebb 895c cebc 734d a5bd
00000020: 0c9a 853d f777 b23c 7fd3 08bd 5af6 97bd
00000030: 5756 a13c ab2a f2b9 7e84 52bd 7c5a 653c

ConvNet.fc1.weight f4 [120, 400]
0.042680312 -0.012331888 0.0017551482 -0.008673245 0.03865343 -0.00024194768 -0.03601696 -0.039962705
0.039366245 -0.013101378 0.016985888 -0.0070076436 0.03785919 0.031933438 0.030130953 0.034045145
0.0304451 -0.024633108 -0.018987242 0.009893186 0.028902419 0.0029270547 0.007969369 -0.04623045
0.041703377 0.024629971 0.029631114 -0.028082902 -0.00041535296 0.021591181 -0.034608483 -0.03647187
-0.04640489 0.039220598 0.011586562 0.023510968 -0.047627777 -0.001931978 -0.033599906 -0.033883728
0.025923895 0.0062025795 0.01833648 0.01037051 -0.042770527 0.038845107 0.0085942475 -0.04008286
0.0120373415 -0.0058880155 -0.057487506 0.01665676 -0.006133596 0.03831363 -0.039178655 -0.049355872
0.019245975 0.013429315 -0.00064252666 0.0027791634 -0.011476045 -0.02504115 -0.0024514403 -0.042873755
-0.04427435 -0.0007060372 0.015562787 -0.035748024 -0.012572391 -0.028996306 -0.046797197 -0.04229055
-0.017641861 0.0060966434 -0.024836535 -0.010004985 0.01808415 0.028710376 0.029473854 0.019658828
-0.0046255756 -0.02214412 0.02768668 -0.031779494 0.02108019 0.021284962 0.0061054802 0.01018074
0.04755838 -0.028798314 -0.017481374 -0.018114628 -0.058356907 -0.017170189 -0.037944637 0.026969692
-0.04519496 0.006665085 -0.0009682 -0.029580904 0.0279794 -0.030751808 -0.0013830917 -0.036685575
-0.0018030219 -0.056507032 0.013660448 0.001063717 0.018560123 0.001978853 -0.015950203 -0.0027965184
0.009959707 0.022383528 0.018131346 -0.013194533 0.020777665 0.028143669 0.0107015725 0.022292782
0.033145156 -0.03667385 -0.025036642 -0.04020837 0.045485266 -0.036793794 -2.1822467e-05 0.006292589
-0.029897606 0.033027567 -0.010145745 -0.006000604 0.009147663 0.028358556 -0.05610883 -0.014573011
-0.0031500836 -0.0753895 0.014830386 -0.05213135 -0.041807692 -0.012492507 -0.023912787 0.02154132
-0.016093945 0.046908434 0.0049151257 -0.02748402 -0.023634685 -0.0090978285 0.031934008 -0.033805367
0.03934833 -0.040810272 -0.05317678 -0.013102785 -0.040012393 0.021695552 -0.0068492745 -0.0021125344
-0.00073423504 0.0071281847 0.017559346 -0.051952705 -0.04726918 0.030745214 -0.046055883 -0.016665252
-0.023494385 -0.042975854 -0.007550807 0.006866758 0.027413998 -0.048390646 -0.04803201 0.048049733
0.049206458 -0.03860089 0.025506767 -0.044306844 0.039465867 -0.017652027 0.02030923 0.03593751
-0.03314271 -0.046218727 0.04535335 0.023594037 0.049106553 -0.0029933415 0.013110388 0.034806553
0.039555077 -0.02418492 -0.03626655 0.04866597 -0.005837372 0.044611685 0.019653805 0.041051544
0.025554612 0.019851146 0.018626371 0.017267557 -0.0010448062 -0.0020010155 0.005388593 0.0106266
-0.015102473 0.0184291 -0.013986098 0.025100376 -0.0070032855 -0.010857092 0.04885381 -0.04621983
-0.0008946278 0.016491782 0.005885322 0.004817622 0.008008197 0.029293194 -0.0022787184 0.034111764
-0.006049826 0.041374385 0.03274465 0.04090446 0.015088166 0.0007399662 -0.0075576887 -0.02133946
0.048227273 -0.042916145 0.020916458 -0.0015076044 -0.029095255 -0.0011631483 -0.0079248585 -0.006016908
-0.020392183 0.0062864656 -0.0072209076 0.015892904 0.0228547 -0.043622658 -0.049821015 -0.015442657
-0.04683856 -0.029587755 -0.007920659 -0.011040902 0.015797136 -0.0027455073 -0.060965873 0.0046787043
00000000: 8dd1 2e3d b00b 4abc 000d e63a 3a1a 0ebc
00000010: 0f53 1e3d 56b3 7db9 8586 13bd efaf 23bd
00000020: 803e 213d 2aa7 56bc fd25 8b3c 60a0 e5bb
00000030: 3d12 1b3d a3cc 023d 30d5 f63c ec72 0b3d
00000040: 0168 f93c 5fcb c9bc 228b 9bbc 0817 223c
00000050: c4c4 ec3c d4d3 3f3b f591 023c 245c 3dbd
00000060: 29d1 2a3d cbc4 c93c f3bc f23c 1d0e e6bc
00000070: bbc3 d9b9 fddf b03c a0c1 0dbd 8763 15bd
00000080: 0e13 3ebd c7a5 203d 90d5 3d3c 139a c03c
00000090: 5815 43bd 6d3a fdba 0ea0 09bd aac9 0abd
000000a0: 595e d43c 023f cb3b 6336 963c 12e9 293c
000000b0: 2630 2fbd 0c1c 1f3d e3ce 0c3c ed2d 24bd
000000c0: 4538 453c 41f0 c0bb 0578 6bbd c273 883c
000000d0: 55fc c8bb c1ee 1c3d cc79 20bd 6229 4abd
000000e0: bca9 9d3c a106 5c3c 3c6f 28ba a022 363b
000000f0: 0506 3cbc 1923 cdbc 58a8 20bb 649c 2fbd
00000100: 0559 35bd 5b15 39ba 0ffb 7e3c 856c 12bd
00000110: 6efc 4dbc a989 edbc 6bae 3fbd db38 2dbd
00000120: aa85 90bc 5ac6 c73b fd75 cbbc f3eb 23bc
00000130: 3625 943c 0632 eb3c 2773 f13c 8d0b a13c
00000140: 2492 97bb 9667 b5bc 2dcf e23c 372b 02bd
00000150: 5db0 ac3c cd5d ae3c 7b10 c83b 1ecd 263c
00000160: 93cc 423d 71ea ebbc 1935 8fbc 2165 94bc
00000170: a707 6fbd 7fa8 8cbc d66b 1bbd 8bef dc3c
00000180: 5a1e 39bd c966 da3b cdce 7dba a753 f2bc
00000190: 0e35 e53c 37eb fbbc db48 b5ba 9d43 16bd
000001a0: 6053 ecba eb73 67bd 12d0 5f3c 6b6c 8b3a
000001b0: 660b 983c a5af 013b 00aa 82bc cb45 37bb
000001c0: 0a2e 233c a95d b73c 3088 943c e22d 58bc
000001d0: ec35 aa3c 8d8d e63c a655 2f3c 5a9f b63c
000001e0: 37c3 073d 5237 16bd a519 cdbc 88b1 24bd
000001f0: c24e 3a3d 17b5 16bd 640f b7b7 1032 ce3b
00000200: d3eb f4bc ea47 073d 573a 26bc b7a0 c4bb
00000210: 14e0 153c 3450 e83c 5fd2 65bd a3c3 6ebc
00000220: a271 4ebb cf65 9abd 26fb 723c af87 55bd
00000230: 8b3e 2bbd 5fad 4cbc c0e4 c3bc 6c77 b03c
00000240: 73d7 83bc 0f23 403d 100f a13b 2b26 e1bc
00000250: 879d c1bc 0f0f 15bc 3ccd 023d 7f77 0abd
00000260: b72b 213d ac28 27bd e5cf 59bd 10ad 56bc
00000270: 09e4 23bd dfba b13c e16f e0bb 7272 0abb
00000280: ae79 40ba 8c93 e93b 9ed8 8f3c 5ccc 54bd
00000290: 549d 41bd 63dd fb3c 18a5 3cbd 9185 88bc
000002a0: 4c77 c0bc 7307 30bd c36c f7bb 8b02 e13b
000002b0: 5293 e03c 4535 46bd 37bd 44bd cccf 443d
000002c0: b68c 493d f81b 1ebd 91f3 d03c 187b 35bd
000002d0: f6a6 213d fc9a 90bc 8b5f a63c 3633 133d
000002e0: a6c0 07bd d94f 3dbd 6fc4 393d 4848 c13c
000002f0: f423 493d f02b 44bb f4cc 563c 5191 0e3d
00000300: 8104 223d 741f c6bc 3c8c 14bd f855 473d
00000310: 6d47 bfbb beba 363d 0401 a13c aa25 283d
00000320: e857 d13c df9e a23c 5596 983c b174 8d3c
00000330: e1f1 88ba 7823 03bb cb92 b03b 311b 2e3c
00000340: 5d70 77bc a0f8 963c f225 65bc 4e9f cd3c
00000350: d17b e5bb f2e1 31bc ef1a 483d 0151 3dbd
00000360: 7585 6aba c619 873c a9d9 c03b 24dd 9d3b
00000370: d034 033c 48f8 ef3c 8d56 15bb c7b8 0b3d
00000380: 9e3d c6bb 3078 293d 411f 063d 6f8b 273d
00000390: 5b34 773c 4bfa 413a 7da6 f7bb 17d0 aebc
000003a0: f689 453d d7c8 2fbd fe58 ab3c cf9a c5ba
000003b0: 2c59 eebc c874 98ba 44d7 01bc 7c29 c5bb
000003c0: 820d a7bc b2fe cd3b 5d9d ecbb d631 823c
000003d0: c839 bb3c acad 32bd 1f11 4cbd 3303 7dbc
000003e0: cad9 3fbd 0562 f2bc a7c5 01bc e6e4 34bc
000003f0: ff68 813c f8ed 33bb 5ab7 79bd d14f 993b

ConvNet.fc1.bias f4 [120]
0.00696009 -0.004888859 0.029657716 0.022601452 -0.022713477 -0.006612447 0.013730308 -0.022414573
0.02809125 0.01647225 -0.0069154743 -0.025308043 -0.013832911 0.022241449 0.035686597 -0.016855279
-0.04536684 -0.030176241 0.0023044574 -0.021493435 0.0023265511 -0.028103335 -0.017802145 -0.03315868
0.032590963 -0.049638424 -0.054012086 -0.02494992 0.037843987 0.007363825 0.0043998095 0.0013486135
0.013811301 0.030422837 -0.04398416 -0.026223002 -0.049671303 -0.006533235 0.0040030438 -0.014349656
-0.024441855 -0.023368271 -0.005879459 -0.019981567 -0.02995192 0.0022232088 0.01945433 -0.020050595
-0.015036026 -0.022038884 -0.047972146 -0.05158137 -0.027252259 0.013001347 0.007223426 -0.039608486
-0.0048451517 0.002495837 0.01836774 -0.03938817 -0.0014086935 -0.02345416 0.00078260835 -0.032939624
-0.012552056 -0.00092984625 0.007151666 -0.02753517 0.017598614 0.000442071 -0.05055992 -0.015230763
-0.019971909 0.012615339 0.02287824 -0.014427004 -0.0103861075 0.021378515 0.004408845 -0.008691133
-0.030919515 0.018627185 0.018813826 0.036773443 -0.02402771 -0.05991855 0.031112004 -0.0132680815
-0.020997293 0.016530188 0.014020489 -0.03646394 0.008534253 -0.016498987 0.030164104 0.015994074
0.0024666165 -0.027616942 -0.014097578 -0.006794334 -0.04244034 -0.0035174817 0.018399112 -0.0031931552
-0.041469455 0.0051974715 0.01296491 -0.008669268 0.0042915572 0.0022680515 -0.026330618 0.033083174
-0.031598717 0.031108504 -0.021067781 -0.052471098 0.041320693 -0.008049799 0.022026572 -0.041311413
00000000: 7711 e43b b932 a0bb bdf4 f23c ae26 b93c
00000010: 9d11 babc 3aad d8bb 16f5 603c c49e b7bc
00000020: 9f1f e63c d0f0 863c 349b e2bb d052 cfbc
00000030: 6fa3 62bc b333 b63c 1c2c 123d 1514 8abc
00000040: 94d2 39bd 2a34 f7bc 6106 173b 0013 b0bc
00000050: 0d79 183b f738 e6bc ced5 91bc 65d1 07bd
00000060: 1a7e 053d a951 4bbd c73b 5dbd c663 ccbc
00000070: 4c02 1b3d 3e4c f13b 472c 903b f6c3 b03a
00000080: cc48 623c 5039 f93c bc28 34bd 9fd1 d6bc
00000090: 2374 4bbd bf14 d6bb f72b 833b d21a 6bbc
000000a0: 493a c8bc d16e bfbc 7aa8 c0bb 62b0 a3bc
000000b0: bb5d f5bc 41b3 113b b05e 9f3c 2541 a4bc
000000c0: aa59 76bc e48a b4bc 717e 44bd fd46 53bd
000000d0: 2140 dfbc 9a03 553c 7db2 ec3b 823c 22bd
000000e0: 14c4 9ebb 3291 233b f177 963c 7d55 21bd
000000f0: e9a3 b8ba f022 c0bc f527 4d3a b3eb 06bd
00000100: 24a7 4dbc edc0 73ba 8658 ea3b 7091 e1bc
00000110: f82a 903c c4c5 e739 eb17 4fbd 738a 79bc
00000120: 219c a3bc 91b0 4e3c 266b bb3c 3e5f 6cbc
00000130: 7e2a 2abc ff21 af3c 1378 903b 4165 0ebc
00000140: ec4a fdbc 0a98 983c 741f 9a3c c09f 163d
00000150: c3d5 c4bc 276d 75bd 9ade fe3c 5e62 59bc
00000160: 8402 acbc 516a 873c 31b6 653c 365b 15bd
00000170: 40d3 0b3c e228 87bc b61a f73c 0106 833c
00000180: f5a6 213b ed3c e2bc 87f9 66bc 01a3 debb
00000190: ecd5 2dbd 8d85 66bb bcb9 963c 4144 51bb
000001a0: e0db 29bd 8d4f aa3b c66a 543c 8c09 0ebc
000001b0: 31a0 8c3b 97a3 143b 4fb3 d7bc 3982 073d
000001c0: a86d 01bd 43d7 fe3c 5796 acbc efeb 56bd
000001d0: e33f 293d 4ee3 03bc 1271 b43c 2836 29bd

ConvNet.fc2.weight f4 [84, 120]
0.07830189 -0.041013118 -0.022605589 0.061831538 0.0068695056 -0.03634891 -0.025449846 0.040521543
-0.024551913 0.046815794 -0.06967739 0.004584093 0.08057181 -0.07959359 0.06657438 -0.041990776
0.002207732 -0.0878613 -0.029032733 0.04283475 -0.01650025 0.01018108 -0.01197135 -0.022210136
0.014261835 -0.026075961 -0.07477028 -0.05873213 -0.033020124 0.023684539 -0.038451944 -0.04575388
0.022919929 0.0129765775 -0.05426857 0.05792565 -0.041328035 0.013282135 0.0441412 -0.061010927
0.06970864 0.07574563 -0.04194122 0.041194227 -0.04793402 -0.05171363 0.05912654 0.054071378
-0.08857754 0.0060244147 0.06672849 0.013071196 -0.04015216 0.044746622 0.024510361 0.036784984
0.030572077 -0.07413758 -0.026006838 -0.059002914 -0.030947106 0.03274873 0.08906953 0.00012569736
0.025317501 0.06520684 -0.07791373 0.07380439 0.063354164 0.022673275 -0.023151197 0.009286923
-0.082077935 -0.08815552 0.011439778 -0.061971456 -0.02815156 -0.05607179 0.048635762 -0.083811976
-0.06489721 -0.0833596 0.05954694 -0.078240864 0.07920993 0.05025014 -0.00069445744 0.06687571
-0.088426344 -0.036358636 -0.047913726 0.01802828 0.0006278625 -0.07406227 0.017609889 -0.08070807
0.04977992 -0.042493124 -0.047925726 0.009146964 -0.081223235 0.05231873 0.032530863 0.013768173
-0.07453071 0.032659985 -0.03051723 -0.02013483 -0.032578085 0.017948339 0.068299435 0.0541049
-0.041226145 -0.018400103 -0.050017826 0.06260706 -0.020646995 0.0461729 -0.020718548 0.00078355597
0.07591516 -0.052788228 -0.06971371 -0.0039591263 -0.08665436 -0.07900088 -0.028186057 -0.084106445
-0.0027773485 -0.0037026803 0.0382043 -0.069023445 -0.05323814 0.0064014834 -0.0041233287 0.027269704
0.08422253 -0.004802225 0.048284855 0.024017172 -0.06741371 -0.027521292 0.045080546 -0.06048886
0.040989723 -0.08936387 -0.060550842 -0.07900954 -0.031399958 0.027438162 0.052842498 -0.08068772
-0.038916618 0.0047816983 0.033554193 0.01155778 0.0066198697 0.0013345969 0.061018787 0.06527072
-0.07525443 0.042541612 0.07753302 0.055648156 -0.07485956 -0.025800597 0.02221137 -0.07623096
0.053534724 -0.05935156 0.052213978 -0.008431411 0.037545107 -0.0034156528 -0.040542096 -0.060493145
0.025252016 0.030227683 0.01596698 0.009793228 0.08023628 -0.016166162 0.02086048 -0.014946524
0.05018228 -0.0025492532 0.07602515 -0.08100278 0.0719804 -0.037244365 0.02482721 0.013404617
0.048930302 0.057187166 0.0597438 -0.035570722 0.085016176 0.022725618 0.005346551 -0.012658418
0.014253813 -0.0042064358 0.06228351 0.012889943 0.08762872 -0.050271675 -0.054534063 -0.027958304
-0.03420893 -0.038456257 0.057351433 -0.0052309386 0.02053793 -0.015433947 0.08664743 0.0064518712
-0.07815226 -0.06827417 -0.07562542 0.015368343 -0.012585693 -0.06412573 0.043215863 -0.0038540373
0.04585243 -0.07800011 -0.04448036 -0.018859608 0.03172348 0.034662243 -0.03778975 0.09414351
0.035106864 0.004770694 -0.035832472 0.014641217 -0.084476605 -0.042341366 -0.009305455 -0.055703234
-0.011259199 -0.032995056 0.025116483 -0.06691257 -0.009496083 -0.06387771 0.07490189 -0.06898312
-0.0020200189 -0.067450464 -0.03919859 0.05024453 0.031612743 -0.04740321 0.030093303 -0.07546037
00000000: be5c a03d 5ffd 27bd 5b2f b9bc 1143 7d3d
00000010: 9719 e13b 98e2 14bd 327c d0bc ebf9 253d
00000020: 1821 c9bc ebc1 3f3d 05b3 8ebd 2936 963b
00000030: d502 a53d f701 a3bd 2658 883d 85fe 2bbd
00000040: 99af 103b a0f0 b3bd 0ed6 edbc 7e73 2f3d
00000050: 882b 87bc 8bce 263c 7b23 44bc 08f2 b5bc
00000060: 79aa 693c 419d d5bc 2921 99bd 1a91 70bd
00000070: 1c40 07bd 1406 c23c c97f 1dbd 6c68 3bbd
00000080: 93c2 bb3c b69b 543c b848 5ebd 7243 6d3d
00000090: 9647 29bd 509d 593c 67cd 343d 98e6 79bd
000000a0: 67c3 8e3d 8620 9b3d 8fca 2bbd 47bb 283d
000000b0: 7756 44bd acd1 53bd ac2e 723d f379 5d3d
000000c0: 2468 b5bd 7468 c53b f2a8 883d 9228 563c
000000d0: 9776 24bd 3c48 373d f4c9 c83c daab 163d
000000e0: 4b72 fa3c 72d5 97bd 4b0c d5bc 0aad 71bd
000000f0: c984 fdbc 8823 063d 166a b63d a1cd 0339
00000100: a666 cf3c 2a8b 853d 3c91 9fbd c226 973d
00000110: d4bf 813d 4ebd b93c 94a7 bdbc 2e28 183c
00000120: 7a18 a8bd e28a b4bd e86d 3b3c c8d5 7dbd
00000130: 1a9e e6bc 89ab 65bd 4b36 473d 9da5 abbd
00000140: d4e8 84bd 70b8 aabd 7ee7 733d bf3c a0bd
00000150: d138 a23d 17d3 4d3d 400c 36ba 22f6 883d
00000160: df18 b5bd cbec 14bd 2f41 44bd 0bb0 933c
00000170: 2497 243a f6ad 97bd 9d42 903c 464a a5bd
00000180: 08e6 4b3d 450d 2ebd c44d 44bd 26dd 153c
00000190: 5e58 a6bd 2a4c 563d 153f 053d e793 613c
000001a0: 8fa3 98bd 7ac6 053d 45ff f9bc cdf1 a4bc
000001b0: 9970 05bd 6508 933c 93e0 8b3d 1a9d 5d3d
000001c0: bfdc 28bd d0bb 96bc 7edf 4cbd 2138 803d
000001d0: e323 a9bc cb1f 3d3d f2b9 a9bc 8d67 4d3a
000001e0: 6879 9b3d 7838 58bd 10c6 8ebd 8fbb 81bb
000001f0: d777 b1bd 37cb a1bd 72e6 e6bc 0040 acbd
00000200: 2d04 36bb aba8 72bb 1d7c 1c3d 2a5c 8dbd
00000210: 3c10 5abd 89c3 d13b fd1c 87bb b764 df3c
00000220: dd7c ac3d fc5b 9dbb 57c6 453d a9bf c43c
00000230: 3310 8abd 5574 e1bc 61a6 383d 2bc3 77bd
00000240: d7e4 273d 6804 b7bd 2904 78bd c1cf a1bd
00000250: 3e9d 00bd ffc5 e03c 6071 583d 9a3f a5bd
00000260: 0867 1fbd cbaf 9c3b 1f70 093d d85c 3d3c
00000270: 7eeb d83b a4ed ae3a d6ee 793d a8ac 853d
00000280: ff1e 9abd 1d40 2e3d a2c9 9e3d 52ef 633d
00000290: f84f 99bd c65b d3bc 9ef4 b53c fa1e 9cbd
000002a0: 3a47 5b3d 9f1a 73bd 53de 553d e723 0abc
000002b0: e6c8 193d 25d9 5fbb 780f 26bd a9c7 77bd
000002c0: 51dd ce3c 0ca0 f73c 2fcd 823c c673 203c
000002d0: eb52 a43d e66e 84bc 99e3 aa3c 44e2 74bc
000002e0: ef8b 4d3d 5f11 27bb 13b3 9b3d c9e4 a5bd
000002f0: 766a 933d 8c8d 18bd 6f62 cb3c 0a9f 5b3c
00000300: 246b 483d 173d 6a3d eab5 743d 9bb2 11bd
00000310: f61c ae3d 132b ba3c 1f32 af3b 4165 4fbc
00000320: d388 693c 24d6 89bb fe1c 7f3d 5730 533c
00000330: b076 b33d ace9 4dbd 1c5f 5fbd d008 e5bc
00000340: aa1e 0cbd 4f84 1dbd 56e9 6a3d 4b68 abbb
00000350: 293f a83c aade 7cbc 3574 b13d 386a d33b
00000360: 4b0e a0bd 54d3 8bbd 80e1 9abd 81cb 7b3c
00000370: 3934 4ebc 5a54 83bd 1e03 313d 0494 7cbb
00000380: c2cf 3b3d 86be 9fbd 0a31 36bd 777f 9abc
00000390: 7bf0 013d fff9 0d3d 6dc9 1abd 50ce c03d
000003a0: 37cc 0f3d 7b53 9c3b 12c5 12bd b7e1 6f3c
000003b0: 1202 adbd 246e 2dbd e875 18bc 1329 64bd
000003c0: 8178 38bc d325 07bd 15c1 cd3c 7509 89bd
000003d0: 7595 1bbc 51d2 82bd 2966 993d 0647 8dbd
000003e0: 4b62 04bb 7823 8abd b38e 20bd 35cd 4d3d
000003f0: 5d7c 013d de29 42bd 3b86 f63c f78a 9abd

ConvNet.fc2.bias f4 [84]
0.068950966 0.0591822 0.034826897 0.03297595 -0.06493774 0.055553794 -0.007777807 0.012770635
0.034109987 0.0026475189 0.0054684007 0.015359637 -0.07076179 -0.0051169237 -0.002298855 0.004443592
0.017449511 -0.08584841 0.07998952 -0.07990069 0.042584788 -0.057728533 -0.07265254 0.06211892
0.07038783 0.028476099 0.055562496 -0.080675356 0.006418335 -0.02052046 -0.09085014 0.029763239
-0.06562067 -0.0025371278 8.802005e-06 0.024028836 0.055149656 -0.022250738 0.0633861 0.015336401
-0.01079954 0.0020018534 -0.04783888 -0.08086159 0.037359465 0.03278589 0.0028774736 -0.042887546
-0.009127618 0.052913725 -0.030035367 0.044617318 -0.007063446 -0.003711908 -0.05060718 0.073751785
-0.027041705 -0.024000518 -0.077907346 -0.06837048 -0.012337986 -0.04106473 -0.031276822 -0.021308295
0.05674177 0.060705498 -0.002015321 -0.0280764 0.06753885 -0.056722067 -0.05904961 0.01578185
-0.029164817 -0.0046076477 -0.032171104 0.044027045 0.008585271 0.00824257 -0.08225362 0.03662158
0.04369465 -0.07313341 -0.016236102 -0.045543656
00000000: 2a36 8d3d 0969 723d a6a6 0e3d ca11 073d
00000010: 14fe 84bd 608c 633d f9dc febb ed3b 513c
00000020: eab6 0b3d ff81 2d3b 4530 b33b fda6 7b3c
00000030: 8feb 90bd deab a7bb 63a8 16bb 8d9b 913b
00000040: 47f2 8e3c 4bd1 afbd 8cd1 a33d f9a2 a3bd
00000050: 636d 2e3d c174 6cbd dbca 94bd 6970 7e3d
00000060: 7f27 903d b546 e93c 8095 633d 1f39 a5bd
00000070: e550 d23b 861a a8bc a30f babd 09d2 f33c
00000080: 2164 86bd f145 26bb 53ac 1337 1fd8 c43c
00000090: 9be4 613d 2e47 b6bc 92d0 813d 8745 7b3c
000000a0: 8ef0 30bc 8731 033b b4f2 43bd c39a a5bd
000000b0: 3d06 193d 7f4a 063d ff93 3c3b daaa 2fbd
000000c0: 018c 15bc 10bc 583d bb0c f6bc a6c0 363d
000000d0: 7b74 e7bb 7b43 73bb 7949 4fbd 2d0b 973d
000000e0: 9186 ddbc bc9c c4bc e38d 9fbd d205 8cbd
000000f0: 4425 4abc 7e33 28bd 201c 00bd bc8e aebc
00000100: 0f6a 683d 54a6 783d 7a13 04bb 7a00 e6bc
00000110: cf51 8a3d 6655 68bd 01de 71bd f048 813c
00000120: 0eeb eebc c0fb 96bb d9c5 03bd b455 343d
00000130: 3da9 0c3c d80b 073c 9674 a8bd 8300 163d
00000140: 29f9 323d f8c6 95bd 9301 85bc fc8b 3abd

Output.fc.weight f4 [1, 84]
-0.011575963 -0.041020058 -0.024961257 0.03420183 0.04358567 0.0041045523 0.030014316 -0.0003608032
-0.030929398 0.020542933 0.009743449 -0.0941454 -0.05285563 -0.0051439693 0.025947198 0.021243924
-0.05211439 0.032234896 -0.088444486 0.067652345 -0.07437604 -0.026785085 -0.039724093 -0.01682765
-0.09083387 -0.011991945 -0.057087895 -0.019258609 0.0005132703 -0.052324865 -0.023253493 0.021783812
-0.02168702 0.021060897 -0.06588333 0.04917175 0.05880144 0.08204524 -0.056752842 -0.038738303
-0.07290983 0.006401866 0.077450134 -0.019690778 0.04423136 0.014673265 -0.017989773 -0.024058588
0.042241212 0.05008863 0.106087014 0.0015512453 -0.009152548 0.099618025 0.014905806 -0.033020616
0.02512958 0.0018014855 -0.016240645 0.043440875 0.08519395 -0.08197478 0.0009102984 0.09171739
-0.0077592083 0.0086003 -0.014440379 0.078650035 -0.052415207 -0.008810598 -0.059354335 -0.0005568008
-0.0688415 0.05800396 0.0779348 0.006975133 0.004700716 0.0062286262 0.011719413 -0.06527877
-0.09152181 -0.0156422 0.003837229 0.024658602
00000000: 1ca9 3dbc a604 28bd 8d7b ccbc 3817 0c3d
00000010: e386 323d 7b7f 863b 95e0 f53c 302a bdb9
00000020: a65f fdbc a749 a83c fda2 1f3c 4ecf c0bd
00000030: 257f 58bd be8e a8bb 388f d43c bd07 ae3c
00000040: e675 55bd bd08 043d 6222 b5bd 508d 8a3d
00000050: 7752 98bd 656c dbbc bbb5 22bd 24da 89bc
00000060: 1c07 babd dd79 44bc ffd4 69bd 3bc4 9dbc
00000070: fd8c 063a 9952 56bd 1c7e bebc f773 b23c
00000080: faa8 b1bc e787 ac3c d7ed 86bd 5168 493d
00000090: c7d9 703d 5607 a83d ab75 68bd 0eac 1ebd
000000a0: c051 95bd bfc6 d13b 2d9e 9e3d 8e4e a1bc
000000b0: f12b 353d 2268 703c 4a5f 93bc 8416 c5bc
000000c0: 1f05 2d3d bc29 4d3d 2644 d93d 2853 cb3a
000000d0: 92f4 15bc 8904 cc3d 7b37 743c a040 07bd
000000e0: 8ddc cd3c d31f ec3a 1a0b 85bc 0fef 313d
000000f0: 2a7a ae3d 65e2 a7bd 17a1 6e3a 54d6 bb3d
00000100: f540 febb 46e8 0c3c 5797 6cbc 4513 a13d
00000110: 54b1 56bd 545a 10bc 881d 73bd 45f6 11ba
00000120: c6fc 8cbd 8f95 6d3d 489c 9f3d a88f e43b
00000130: 7708 9a3b 8119 cc3b c802 403c e0b0 85bd
00000140: c96f bbbd 1224 80bc 057a 7b3b d600 ca3c
