tutorials/W1D2_ComparingTasks/RR/models/ConvNet_classification_10_epoch_7.pth (torch, 251108 bytes, 10 tensors)

ConvNet.conv1.weight f4 [6, 1, 5, 5]
000000 7a fd 22 3e a2 57 30 3e 31 22 26 bd fc a2 42 3e
       0.15917006 0.1722093 -0.04055995 0.19007486
000010 4b a7 19 bd 0b 2d 36 3d 95 d3 ba bd ab 62 fd 3d
       -0.03751306 0.04447655 -0.09122387 0.12372335
000020 b7 0a 3b 3e ca bc 0f be b7 32 36 3e d1 71 32 3d
       0.18265806 -0.14036861 0.17792784 0.043565575
000030 25 b8 1d 3e f9 01 09 3d c4 90 d2 3d 84 cf b4 bc
       0.15402277 0.033449147 0.10281518 -0.022071607
000040 69 1a 24 3e 4a 8b 12 3d 17 55 b2 bd af 23 6b 3d
       0.160257 0.035777368 -0.08707636 0.057407077
000050 c4 e5 af bd 07 69 8e bc 58 9a 99 bd 03 53 0e 3e
       -0.08588746 -0.017384065 -0.07500142 0.13898854
000060 03 02 1b be b4 3a b0 bd de 6b 4c bd c1 79 e8 bd
       -0.15137486 -0.08604947 -0.049907558 -0.11351348
000070 9e 47 d2 3c bf 90 43 be 7a 42 3f 3e 09 33 27 be
       0.025668915 -0.19098185 0.18677703 -0.16328062
000080 7f 08 25 3e 2b be 23 3d 74 08 6f bd 14 4b 05 3e
       0.16116522 0.03997628 -0.05835767 0.13016921
000090 7c fb 1a 3d 0b 4f 2c 3e 5d 2e e9 3c bb c6 67 bd
       0.03783749 0.16827027 0.02846449 -0.05658601
0000a0 f3 b4 77 3d 69 9a 42 bd ee 1d ba 3d 41 a4 3d 3e
       0.0604753 -0.04751054 0.0908774 0.18519689
0000b0 91 3f fa 3d 9c 33 a5 bd ce 1b fa 3d 06 c1 2d 3d
       0.122191556 -0.08066484 0.122123346 0.04242041
0000c0 c8 90 dd 3d 0c fb eb bd 20 5b 4b be 08 b6 98 bd
       0.108186305 -0.11522493 -0.1985898 -0.07456595
0000d0 f5 79 16 be a9 9f 2a 3e 5b 5c 75 3d 8e 46 ad 3d
       -0.1469496 0.16662468 0.05990253 0.08460723
0000e0 dc 32 8e 3d 5a c9 ca 39 8b e8 23 3e 6a 61 0e be
       0.069432944 0.0003867846 0.16006677 -0.13904348
0000f0 b4 1e 6e 3c 96 23 0a be 1f b2 82 3d 48 73 87 bd
       0.014533687 -0.13490137 0.0638163 -0.06613785
000100 17 9b 7f 3d 9b 53 28 bd 2c 64 29 3e 06 42 f4 bd
       0.062403765 -0.041095357 0.16542119 -0.119266555
000110 c3 11 f9 bd e5 1f 01 be 7c 6c 39 3e b3 b9 87 3d
       -0.12161591 -0.12609823 0.1810779 0.06627216
000120 ee 46 42 3e a9 99 2e be 22 1c 52 be 4e 72 24 be
       0.1897237 -0.17050804 -0.20518544 -0.16059229
000130 34 da 0e be aa 2f a9 3d 2d a7 9a 3d 06 b5 30 3e
       -0.13950425 0.08261044 0.075514175 0.17256555
000140 88 ce d8 bd b2 7a 05 be 6d c6 e5 3d 94 3e 99 bd
       -0.10586268 -0.13035086 0.11219487 -0.07482639
000150 ec a7 02 3e a5 65 27 bd 43 21 f8 3d 06 57 18 be
       0.1275937 -0.04086842 0.12115719 -0.14876947
000160 03 7a c1 bd 03 c7 89 3d a8 44 49 3d b7 00 35 bd
       -0.094471 0.067274116 0.04913774 -0.044190135
000170 a8 f5 00 3e 9a ee 11 3e 9f 1f 0e be 02 93 cc bd
       0.1259371 0.14251176 -0.1387925 -0.09988977
000180 70 93 42 3e 0a 6b 78 bd 9b 93 83 bd 59 c6 40 be
       0.19001555 -0.060648955 -0.06424638 -0.18825664
000190 79 ba f8 bd 15 0a 31 3d 6e 35 07 bd 75 31 1b be
       -0.12144942 0.043222506 -0.03300994 -0.15155585
0001a0 db fa 1c 3a c4 e7 12 be 06 f7 31 be e3 c5 e8 bd
       0.0005988308 -0.14346224 -0.17379388 -0.11365869
0001b0 ce d8 36 be 88 5b 05 be 89 74 48 3e 74 d0 09 3d
       -0.17856142 -0.13023198 0.19575705 0.033646062
0001c0 20 02 6d 3d 0c b4 42 be 37 72 09 be 3d 85 93 bd
       0.057863355 -0.19013995 -0.13422476 -0.072031476
0001d0 e7 2e c9 3c ee e9 3a be c7 0d b8 bd f7 3d fa bd
       0.024558498 -0.182533 -0.08987003 -0.1221885
0001e0 d5 74 bb bb e3 13 a6 bd f1 1b a9 bc d6 39 0e be
       -0.0057207146 -0.08109262 -0.020643206 -0.1388925
0001f0 59 cc 0d be ba f4 fc bd db b4 99 bd ba 08 23 be
       -0.13847484 -0.123513654 -0.075051986 -0.15921298
000200 e2 33 2e 3e 1d 86 15 bd ab 3a 29 3e 70 af 63 3d
       0.17011979 -0.036504854 0.16526286 0.055587232
000210 b8 a6 29 be 29 10 11 3e 5c 3c 55 bd c2 11 ab bd
       -0.16567504 0.14166321 -0.052059516 -0.083529964
000220 ae d9 30 be 92 f4 4a be 7a 2a 77 3d a5 1b 2a bd
       -0.17270538 -0.19819859 0.060343243 -0.04153027
000230 88 db 91 3d 59 64 2d be a2 12 18 3e 17 81 13 be
       0.071219504 -0.16932811 0.14850858 -0.14404713
000240 62 14 ff bc a0 d0 28 3d 2a b6 da 3d 34 29 2c 3e
       -0.031137649 0.041214585 0.10679276 0.16812593
000250 50 92 41 3e 02 5a 1b be
       0.1890347 -0.15171054

ConvNet.conv1.bias f4 [6]
000000 54 6b 67 3d 44 c1 a2 bd d0 dc a2 bc 47 c0 12 be
       0.05649884 -0.07947019 -0.019880682 -0.1433116
000010 e4 5b 3e 3e 7a fb 0f be
       0.18589741 -0.14060774

ConvNet.conv2.weight f4 [16, 6, 5, 5]
000000 27 7b 3c 3d bb 7e 0e 3d 6c 8d 07 3d 03 e1 24 bd
       0.046015885 0.03478883 0.033093855 -0.04025365
000010 ca de 9b 3d f2 0c c1 3c 44 c2 8a 3c 62 bc 85 bd
       0.07610853 0.023565743 0.016938336 -0.06530072
000020 cd d9 25 3d 7a e9 1a bc 0f f8 13 bd 2f 06 94 3d
       0.040490914 -0.009455079 -0.03612524 0.07227742
000030 e1 5f ab 3c 87 6b 2e bd 1b 75 21 bd 3a 8c 65 bb
       0.020919742 -0.042583015 -0.03941832 -0.0035026208
000040 0e e1 3b 3d 3f fc a5 bc 75 33 48 bd 7a a7 0e bd
       0.045868926 -0.020261882 -0.0488772 -0.034827687
000050 1f 0a 80 bd a1 23 ea 3c c2 1d 86 3d 71 35 9c bd
       -0.062519304 0.028581442 0.065486446 -0.07627381
000060 c0 01 46 3c eb 2a 47 3d 64 6f af 3c 3a 96 b7 bc
       0.012085378 0.048624914 0.02141542 -0.0224105
000070 69 73 47 3d 8a d7 3a 3d 7d 54 fc 3c 58 37 53 bc
       0.048694048 0.04561571 0.030802006 -0.012891613
000080 31 cf 91 bc 48 27 77 3c 48 3b fd bb 8e 14 e4 bc
       -0.017798992 0.015085049 -0.007728014 -0.027841832
000090 27 cb 54 3d a7 31 8f 3d da 3f 5c bc 04 7a c3 bc
       0.051951554 0.06991892 -0.013442958 -0.023861893
0000a0 fe 53 63 bb 2b 31 81 bb e4 2c c0 3c 6a 94 92 3c
       -0.0034687514 -0.003942629 0.023458906 0.017893035
0000b0 15 b5 a5 bd 0f 1c c1 bc 1c e1 99 3d 4e d1 0f 3d
       -0.08091179 -0.02357295 0.07513639 0.035111718
0000c0 26 47 4a bb e0 ab 48 bd 7a 71 4e bd 66 d9 88 bd
       -0.0030865162 -0.048992038 -0.05040119 -0.066820905
0000d0 33 49 b9 bc 00 10 0c 3d e3 3d 70 3d 48 45 35 3d
       -0.022617912 0.034194946 0.05865277 0.044255525
0000e0 82 42 87 bd b6 ad 40 bd 80 46 47 bc af 6e 9c 3d
       -0.06604482 -0.047040664 -0.012162805 0.07638299
0000f0 84 cb 99 3c 83 6a c6 bc 6e da 18 3d bb ca e3 bc
       0.018773802 -0.02422071 0.037317686 -0.02780663
000100 ee 9f 4e bd 7f 31 88 3d 80 ee fa bc 4b e2 23 bc
       -0.05044549 0.06650066 -0.030631304 -0.010002683
000110 09 53 98 bd 98 44 7b 3d db db 8b 3d 80 1e 16 3d
       -0.07437713 0.061344713 0.068290435 0.03665018
000120 26 02 4d bd 27 1a 97 bd a2 dc 81 bd be 20 89 3d
       -0.050050877 -0.07378035 -0.063409105 0.06695698
000130 18 0d 31 3d 62 83 90 3d 3b 1d 27 3d e7 51 9c 3c
       0.043225378 0.07056309 0.04079936 0.019082023
000140 ce db c4 3b 01 bb 79 bd 3a ff 8f bd 7d 0d a9 bd
       0.006007648 -0.060969356 -0.070311025 -0.08254526
000150 18 60 e8 3c 50 02 09 bd 11 aa 50 bc 10 6e 32 bd
       0.028366134 -0.03344947 -0.0127358595 -0.043561995
000160 6c a0 a7 bc c0 1e 7e bd e8 80 5c bd 41 78 f3 3c
       -0.020462237 -0.062041044 -0.053833872 0.029720427
000170 ee 45 9a bc 05 8f 63 3d a4 f0 ee bc af f6 86 bd
       -0.018832173 0.055556316 -0.02916748 -0.0659002
000180 b0 db 44 bc ec 3e 08 bd 64 14 a0 bc ff 1b a5 bd
       -0.012015268 -0.033263132 -0.019540973 -0.080619805
000190 d5 09 56 3d 4e 78 4e bd 7b a1 43 3d 9a 32 34 3d
       0.05225547 -0.0504077 0.04776142 0.04399357
0001a0 dd 91 85 3d 6b cc 63 bd ba 9b 86 3d 5e f4 01 bd
       0.06521962 -0.05561487 0.06572671 -0.031727187
0001b0 8f 35 18 3d 5c 02 ab 3d eb dd 93 bb fc 97 d0 3b
       0.037160452 0.083500594 -0.0045125387 0.006365774
0001c0 7a a0 43 bc 8c e9 7b bd 0f 78 3b 3d 1b e0 97 bd
       -0.011940116 -0.061502025 0.045768794 -0.074157916
0001d0 68 9e 6b 3d 72 1a 8b 3d b3 08 ac 3d d2 3d 4f bc
       0.057524115 0.067921534 0.08400097 -0.012649016
0001e0 66 6b 77 bd d4 01 ce 3c 27 82 54 3d 21 b4 98 bd
       -0.060405158 0.025147356 0.051881935 -0.07456232
0001f0 37 46 42 bc 04 22 2e bd a2 d8 dd bb 73 99 08 bd
       -0.011857561 -0.04251291 -0.0067702094 -0.033349466
000200 29 3a d9 bc 35 d8 9b bc 57 ab 93 bd eb aa 80 3d
       -0.02651699 -0.019023994 -0.07210415 0.062826
000210 9f 69 8b 3d 3f 39 79 bc 8e 5a 49 bc c3 70 14 bd
       0.06807255 -0.015211402 -0.012289656 -0.03624035
000220 df 27 8e bd ce 13 95 bd c3 4e 02 3d 5a f6 51 bd
       -0.069411986 -0.07279168 0.031813394 -0.05126033
000230 7c c0 3a bd 6e 26 9f ba 3f f1 b0 bc 20 a8 a0 bc
       -0.045593724 -0.001214219 -0.02159941 -0.019611418
000240 17 ab 13 3c 46 5c 2e bc be 0e b1 bc 99 97 2b bd
       0.009012959 -0.010642117 -0.021613475 -0.04189262
000250 d1 11 92 bd f9 a5 84 3d b9 a0 d6 bc 5b 80 de 3c
       -0.071323045 0.06476969 -0.026199685 0.027160814
000260 5c 64 be bc a8 87 3d 3c e0 04 a5 3d bf 70 31 3d
       -0.023241214 0.0115679875 0.080575705 0.043320414
000270 eb 07 85 bd bd 72 0c 3d 97 30 ab 3d 02 88 e1 3c
       -0.06495651 0.03428911 0.08358877 0.027530674
000280 90 3e 66 3d d5 b0 b1 3d 07 89 20 bc ab eb 9b 3c
       0.056212008 0.08676306 -0.009798295 0.019033274
000290 d4 c7 5e bd 2a 49 68 bc 9f df 88 3d 46 e2 45 3d
       -0.05438979 -0.0141776 0.06683277 0.048311494
0002a0 33 d0 4d bd 25 aa 7d bd 68 e5 55 bd f3 b5 9b bd
       -0.050247382 -0.06192984 -0.052220732 -0.076030634
0002b0 be a8 6a bd 1d 76 8c bc ab 1f 75 3d 41 a2 a3 3c
       -0.05728983 -0.017146165 0.059844654 0.01997483
0002c0 17 ec 69 bd 2d a6 72 bd 00 b6 3f 3d 22 23 60 bd
       -0.05710992 -0.05924051 0.046804428 -0.054721005
0002d0 2c 8e d1 bb 2a d3 38 3d 38 99 13 bd 04 6e 09 bc
       -0.006395122 0.045123257 -0.036034793 -0.008388046
0002e0 68 a0 94 bb df a1 76 bc 74 fa 10 bd 1e 6b 8e bd
       -0.0045357235 -0.0150532415 -0.0353951 -0.06954025
0002f0 21 e8 84 bd 49 92 26 bd e5 04 a3 3d 0b 97 13 bd
       -0.064895876 -0.040666852 0.07959918 -0.036032718
000300 d0 b3 46 bd f1 3c b8 3c e1 ca e8 3c d0 ba 41 3d
       -0.048511326 0.022489997 0.028417053 0.0472973
000310 66 7d 86 3d e6 a5 3c 3d a4 57 aa bd 66 b5 f7 3b
       0.065668866 0.04605665 -0.083174974 0.007559466
000320 54 60 4b 3d 92 a6 e5 ba 75 89 47 bd 9d 6d a0 3d
       0.049652413 -0.0017520955 -0.048715074 0.07833407
000330 17 ec ee bc ab 06 4b bd b0 29 8d bd 81 a3 23 3c
       -0.02916531 -0.049566906 -0.06892717 0.009987713
000340 6f a0 25 3d b5 40 90 3c 20 63 79 3c ec bf 67 bd
       0.040436205 0.01760898 0.015221387 -0.056579515
000350 e6 29 8f bd 7a c4 41 bb ec 81 90 3d e7 19 41 3d
       -0.06990413 -0.0029566572 0.07056031 0.047143843
000360 94 dc 30 bd 68 76 c9 bb be 49 6e bd d3 dd 07 bd
       -0.04317911 -0.0061481483 -0.058175795 -0.033170532
000370 43 ff 69 3c ef 69 34 3d 6a b7 93 3d a8 6f 95 bd
       0.014282051 0.04404634 0.07212718 -0.07296687
000380 29 c2 59 3d 8f fb 7c bd a4 ee f8 3c 4e 43 8a 3d
       0.05316368 -0.061763342 0.03038723 0.067511186
000390 26 9c 4b ba 43 bb 94 3d 3d 8e 81 bd f5 99 c9 bc
       -0.00077671034 0.0726228 -0.06325958 -0.024609545
0003a0 e8 1d 5e 3d 29 4f bf bc 8d dc bd bc 66 09 f6 bc
       0.05422774 -0.023353176 -0.023176456 -0.030033778
0003b0 af 65 81 3d 6f 9d 3c 3d a4 36 a5 3c 69 a0 56 bd
       0.06318223 0.046048578 0.020167656 -0.052399073
0003c0 66 11 75 bd ab e0 22 3c 8b c5 b8 3c dc 5d 2a bd
       -0.059831046 0.00994126 0.022555133 -0.041593418
0003d0 c4 c3 b6 bc 13 4c 7a 3d 16 fa d7 3b 50 ee ee 3b
       -0.022310145 0.061107706 0.006591092 0.0072915927
0003e0 f4 56 5c bc b1 7f 96 bd a7 b9 a3 bd 20 a1 39 bd
       -0.013448466 -0.07348574 -0.07994395 -0.045319676
0003f0 8b ef 34 bd b2 ed d8 3c c8 aa cf bc 18 9c 18 bd
       -0.04417376 0.02648053 -0.02534999 -0.037258238

ConvNet.conv2.bias f4 [16]
000000 ae e8 4a 3b 7a db 11 3d 65 59 2a 3d 01 fc 81 3b
       0.0030961442 0.0356097 0.04158916 0.003966809
000010 f4 13 17 bd e4 03 83 3d 74 d4 5c 3d fa d7 6d 3c
       -0.036884263 0.063972265 0.05391355 0.014516825
000020 b1 a5 fd bc f7 ee c5 3c 47 3b d4 3b 99 90 9c 3d
       -0.030962797 0.024161799 0.006476793 0.07644767
000030 4c 66 45 3c 61 2e 54 3c a0 2d 1b 3c 42 31 4d 3d
       0.012048315 0.012950511 0.009471327 0.050095804

ConvNet.fc1.weight f4 [120, 400]
000000 51 b0 d2 bb 6c b7 28 3d 7b 73 02 3d 39 4e fe bc
       -0.00642971 0.04119055 0.031848412 -0.031043159
000010 de 22 8f 3a c2 57 2d bd 3d bd 00 bd 2d 0e e0 3b
       0.0010920425 -0.04232002 -0.03143047 0.0068376274
000020 18 16 95 3c f3 77 88 bb 31 e1 44 3d f9 41 06 bd
       0.018199012 -0.0041646897 0.04806632 -0.03277776
000030 54 e6 c7 bc e4 be 7f ba f8 76 00 bb f4 26 e1 b9
       -0.024401821 -0.0009755923 -0.001960216 -0.00042944367
000040 ac 84 1e 3d f4 2f bd bc 3a 73 9d bc 6e 59 2b 3c
       0.038700745 -0.023094155 -0.019219983 0.010458333
000050 31 e3 1a 3d 38 1f e5 3b 9a 2b a4 3c f9 b4 6d 3b
       0.037814323 0.006992247 0.020040322 0.0036271198
000060 4e e7 42 3d 0e ec f4 3c 6a 8c 12 3d 9d 03 b7 bb
       0.04758387 0.029897716 0.03577844 -0.0055851475
000070 b1 fe 0c bd 0f bc 88 bc 8f 4e 8f 3c 87 49 09 3d
       -0.03442258 -0.016691236 0.017493514 0.033517387
000080 9e 2e b2 bc a8 31 46 3d 99 f2 68 3c d2 c4 de 3b
       -0.021750744 0.0483872 0.014217996 0.006798365
000090 95 a6 a2 bb f6 35 81 bc 42 fe 2c 3d 95 b3 05 3c
       -0.004963706 -0.0157728 0.042234667 0.0081604915
0000a0 f8 3e 1a 3d d5 5e 10 bd f4 37 9e bc be 9f 24 3b
       0.037657708 -0.03524669 -0.01931379 0.0025119628
0000b0 08 55 09 3d 22 87 f4 3c ee dd 09 3c ed d5 64 bd
       0.033528358 0.029849593 0.008414729 -0.055868078
0000c0 09 04 c1 bb 35 5b 23 bd 36 13 1c bd 04 b8 59 3c
       -0.0058903736 -0.039881904 -0.03810426 0.013288502
0000d0 d2 c1 ce bc f5 35 54 3d 6c f2 a6 bc c8 b7 b7 3c
       -0.025238905 0.05180927 -0.020379268 0.0224265
0000e0 5f b4 e1 3c 01 e2 31 bd 61 88 9a 3c 7a 92 5f bc
       0.027551828 -0.043428425 0.018863859 -0.013645763
0000f0 08 7c bf 3c b9 b3 5d 3d 7e 76 6c bc f2 51 9a bc
       0.023374572 0.054126475 -0.014432548 -0.018837903
000100 31 0b 09 3d 36 da 83 3a 68 dc 9e bb 4e 9b 33 3d
       0.03345794 0.0010059539 -0.004848052 0.043849282
000110 97 8b ce bc 1d da 14 bc 8e b0 0f 3d d8 f9 70 3c
       -0.025213046 -0.009085205 0.035080485 0.014708005
000120 68 b2 08 bd b0 26 62 3c cc 5c 0e bd 5f 14 eb bc
       -0.033373266 0.013803169 -0.034756467 -0.028696237
000130 e3 df 0f 3d ed 45 d1 bb 36 98 03 bd b8 b5 ee 3b
       0.035125624 -0.0063865096 -0.03212758 0.007284846
000140 12 16 7a 3c 3a 17 cd bc b2 c5 dc bc 79 30 2a bd
       0.015264051 -0.02503549 -0.026949737 -0.041550133
000150 4e 36 a2 3c c5 35 ec bc 7f c4 bf 3b a2 5d 93 bc
       0.019801285 -0.028834233 0.0058522816 -0.017988984
000160 73 5b 1e bd b1 a8 74 bc 29 80 02 bd 58 5f a0 bc
       -0.03866143 -0.014932797 -0.031860504 -0.019576713
000170 c1 e2 b0 3b 9f bb 18 bd d2 43 50 bd a5 c7 03 3d
       0.005398125 -0.037288304 -0.05084593 0.032172818
000180 19 5f 37 3c 31 2a 86 bc 2f c0 a6 3b 1b e2 04 3d
       0.011192107 -0.01637754 0.005088828 0.032442193
000190 7b 55 15 bd a4 20 b4 bc 95 28 f6 bc 4c b0 4e 3b
       -0.036458474 -0.02198822 -0.030048648 0.0031538187
0001a0 71 3a a7 3b 11 03 11 bd 7a 0e 0b 3d eb 83 0c bd
       0.0051034023 -0.035403315 0.033949353 -0.034305494
0001b0 89 9a 4c 3d 3c 05 e6 bc 3b 0b c4 bb b5 88 d6 3b
       0.049952064 -0.028078668 -0.005982784 0.0065470585
0001c0 f2 2c c9 bc 44 10 58 3d 0f f7 e0 bc 3a ff 82 3b
       -0.024557564 0.052749887 -0.027461557 0.0039977105
0001d0 dc 53 fd bc fc 19 5c 3c 93 3e 4a 3d 49 99 5a 3d
       -0.030923776 0.0134339295 0.04937608 0.05336884
0001e0 fe 98 52 3c b6 59 96 bc 97 83 30 3d 55 18 29 3c
       0.012853859 -0.018353324 0.043094244 0.010320743
0001f0 66 8c 26 3d 2a 96 c0 bc ce 66 b4 bc 12 7b 11 bd
       0.040661238 -0.023509104 -0.022021677 -0.03551776
000200 66 2a 51 3d ec ca dd 3b cf 15 13 bd 2f 06 36 3c
       0.051065825 0.006768575 -0.03590947 0.011109873
000210 b5 cb 92 bc 3a 33 3c 3b 43 a9 84 3c 31 c9 93 bc
       -0.0179194 0.0028717057 0.016193992 -0.018040271
000220 7b 4c 21 3c 96 cd fc bc da 3d 87 3c e0 6b 60 bd
       0.0098448945 -0.03085975 0.016508985 -0.054790378
000230 77 1a 16 3c 10 e6 4b 3d e4 72 41 3d 3f 5e cc 3c
       0.009161583 0.04977995 0.04722871 0.024947284
000240 53 06 fb 3c 2d 23 45 3d 66 ca ed 3b fb 83 a7 3c
       0.030642664 0.04812925 0.007256794 0.020448675
000250 5d ab e6 3b 80 50 1d 3d 26 c3 43 3d 4b 88 8b bc
       0.007039471 0.03840685 0.04779353 -0.017032763
000260 57 66 40 3b 9e 3b 97 bc e1 be c8 3c 00 ef 2c bd
       0.0029357874 -0.018461045 0.02450508 -0.042220116
000270 98 a4 8a 3c bb fa 8f bc 2d df 42 3c 53 88 20 3c
       0.016924188 -0.017575612 0.01189403 0.009798127
000280 89 59 9c bc 6e 06 ff 3c eb 90 e4 3c 18 a4 11 bd
       -0.019085662 0.031130996 0.027901134 -0.035556883
000290 18 83 66 3d 3b 8c 3c 3d d2 a0 0f 3d 5c 98 9f 39
       0.056277364 0.04603217 0.03506548 0.0003044036
0002a0 9d d4 c6 3c f7 82 aa bc b6 19 53 bc 16 2b ab 3c
       0.024271304 -0.020814402 -0.012884548 0.020894568
0002b0 9a 97 94 3c bb 29 94 3c 7d a1 3a bd 0d 8d 3d 3d
       0.018138696 0.018086305 -0.045564163 0.046277095
0002c0 2b f4 ac bc d7 27 3c 3d 14 14 1f 3d a2 8e cf 3c
       -0.021112522 0.04593643 0.038837507 0.025336567
0002d0 22 7c 67 3d 94 ee 10 3d 82 de 08 3d 05 38 9a bc
       0.056514867 0.035383776 0.033415325 -0.01882554
0002e0 f1 d2 4e 3d 4a 79 81 3c 62 d4 ea 3c 37 db 41 bc
       0.05049414 0.015804905 0.028665725 -0.01183205
0002f0 b6 75 05 3d 8d 40 1d 3d 61 b0 24 bd a3 de 3a 3d
       0.03258296 0.03839164 -0.04020727 0.04562248
000300 e7 9c df bc b6 34 f3 bc 04 28 42 bd f4 f9 41 3c
       -0.027296497 -0.02968822 -0.047401443 0.011839379
000310 86 89 11 bd 50 65 a2 bc d8 cc e0 bc 45 17 2f 3c
       -0.035531543 -0.0198237 -0.027441427 0.0106867
000320 0a 9f 37 bd 96 6d b7 bc e5 b9 de 3b 3b da 39 3c
       -0.044829406 -0.022391122 0.0067970627 0.011343534
000330 4e 8c 7f bc 6b bc ca 3c 68 c8 e2 bc eb 3b 45 bd
       -0.015597416 0.024748048 -0.027683452 -0.048152845
000340 24 d6 4f bc e2 f9 06 bd 67 c1 1b 3d 5b a9 de bc
       -0.012685332 -0.03295315 0.03802624 -0.027180364
000350 da 54 25 3b 15 c4 df 3c ea 20 18 bd 0b 4a 03 3d
       0.0025227577 0.027315179 -0.037140764 0.032053035
000360 8d 7c aa bc 40 e8 a4 bc dd cf 18 bd 6d 53 d1 bc
       -0.020811344 -0.020130277 -0.03730761 -0.025552476
000370 01 94 8a bc e2 80 1a bd 41 28 c0 3c f6 a0 c6 3b
       -0.016916277 -0.03772057 0.023456695 0.0060616685
000380 e5 82 61 3d f0 b3 12 3d d6 ac 48 3d 6a 46 9d 3c
       0.05505647 0.035816133 0.048992954 0.019198615
000390 95 0b 00 3d 1d dd 40 3d 9d c1 3b 3d 4b 03 0f bd
       0.031261045 0.04708587 0.04583894 -0.03491525
0003a0 c0 e8 03 bc c1 57 3c bd 43 16 13 3a 86 66 ad bc
       -0.008051097 -0.045982126 0.0005610922 -0.021167051
0003b0 d9 36 2e 3d 55 c5 5c 3c af 37 c9 3b fc 93 06 bd
       0.042532776 0.013474782 0.006140671 -0.032855973
0003c0 12 6a 36 bd 58 d0 9f 3b 7f a9 bb bc 26 eb a5 bc
       -0.04453475 0.0048771314 -0.02290797 -0.02025373
0003d0 e7 41 19 3d b4 c0 f6 bc d8 b8 cb bc 90 b1 13 3d
       0.037416365 -0.030121185 -0.024868414 0.03605801
0003e0 69 f4 94 3c 5d d0 d4 bc a2 f7 92 3c 13 48 02 3d
       0.01818295 -0.025978262 0.017940346 0.031807017
0003f0 2d 98 48 bd d6 ab 4a 3b 46 ba a1 3b e7 83 10 bc
       -0.04897325 0.0030925176 0.0049355356 -0.0088205105

ConvNet.fc1.bias f4 [120]
000000 66 4f c2 bc fd 8d af 3c 4d ab 5a bc a0 4b cc 3c
       -0.0237195 0.02143001 -0.013346505 0.024938405
000010 23 00 be 3c d3 2e 20 3d 4b e1 83 bb 08 64 ba bc
       0.023193425 0.039107155 -0.0040246597 -0.022752777
000020 8d fd d6 3b 4b 7c b8 bc 93 c6 bb 3c 1a 72 21 bb
       0.0065609873 -0.022520205 0.022921836 -0.002463466
000030 a0 f5 0a 3b 9c 0f 33 3d c8 e6 1c bd 28 58 2c 3d
       0.0021203533 0.043716058 -0.038306028 0.04207626
000040 25 f3 c4 3c 8a ad 02 bd 6f d9 3f 3d 13 d8 69 bc
       0.024041722 -0.03190378 0.04683822 -0.0142727075
000050 a5 b6 09 bd a0 01 10 bc 51 7d 41 3b b4 2f 41 bd
       -0.03362145 -0.00878945 0.0029524157 -0.047164634
000060 ee e5 2c 3c 08 ec 03 3d 8d 1f 2e bd 7d 4a d5 3c
       0.010552866 0.03220752 -0.042510558 0.026036495
000070 d0 45 85 3c 1c 97 42 3d aa 64 61 3d 12 92 30 bc
       0.01626864 0.04750739 0.05502764 -0.010777013
000080 6d 37 88 bc 81 f1 3c bd 7a 46 bf bc 4e 53 bf 3b
       -0.016627992 -0.046128754 -0.023349036 0.005838788
000090 bf 63 05 3d c1 99 28 3d 3c 6d 97 3c 4d ba a3 bb
       0.03256583 0.041162256 0.018484704 -0.004996574
0000a0 80 7d 51 3c fb b9 0b 3d 3b f5 0c 3d 03 96 06 3d
       0.012786269 0.03411291 0.034413557 0.032857906
0000b0 f3 08 e3 bc 27 55 bd bc 61 39 3e bc 68 b0 bf 37
       -0.027714228 -0.023111893 -0.01161036 2.285112e-05
0000c0 7a 78 27 bd ca 7e 1f 3d 19 54 eb 3c 30 c2 33 3d
       -0.04088638 0.038939275 0.028726624 0.043886364
0000d0 59 9a d0 3c f4 f3 5d 3d 58 52 b5 b8 d5 00 90 bb
       0.025464224 0.05418773 -8.64609e-05 -0.0043946304
0000e0 b3 b5 a6 3b d4 73 90 3c c0 53 71 3c 7c dc cc bb
       0.005087578 0.017633356 0.01472944 -0.0062518697
0000f0 16 35 d9 3b b5 0d 06 bd 00 50 4b ba 8a 21 04 3d
       0.006628643 -0.032727916 -0.00077557564 0.032258548
000100 5c 9e 88 3b 45 ab 40 bd 80 e8 22 bc f3 22 0e bc
       0.0041692685 -0.047038335 -0.009943128 -0.008675325
000110 f7 10 0d 3d 1d da 19 3d 19 39 ee bc 61 9b 8f 3c
       0.034440007 0.037561525 -0.02907996 0.017530145
000120 de da f0 3b 5c 7c 14 bd 43 ac 91 bc 7c 19 bd 39
       0.0073503098 -0.03625141 -0.017782336 0.00036067876
000130 cc 2d a9 3c 8e 29 9b bc dd 87 a3 3c d7 ea 83 3c
       0.02065172 -0.018940713 0.019962246 0.016103191
000140 00 2b 35 bd 17 82 cb bb e7 ad 63 3c cb 9e e2 3c
       -0.04423046 -0.0062105763 0.013896442 0.027663609
000150 07 fb 02 3c b7 35 c9 bc 73 09 77 bc f8 4e d6 3c
       0.00799442 -0.024561746 -0.015077936 0.026160702
000160 3e 3e 9f 3c e8 61 26 bc de a6 5c 3d eb 25 17 3c
       0.01943886 -0.010155179 0.053870074 0.009225349
000170 75 bc 28 bd a3 a8 c9 3b 20 f9 b8 38 ba f0 23 bc
       -0.04119535 0.0061541363 8.820207e-05 -0.010006124
000180 e9 3d 15 3b ef d1 07 bc d7 1a c5 bc 3a db dc 3c
       0.0022772497 -0.008289798 -0.02406065 0.026960004
000190 e6 16 1c 3d 14 16 ed bc 1a ec dc 3b 17 be 81 3c
       0.038107775 -0.028941192 0.0067420127 0.015837712
0001a0 96 a0 81 3b 6b 55 b4 3b c8 13 59 bb b3 29 84 bb
       0.003955911 0.0055033467 -0.0033123363 -0.0040332912
0001b0 f7 81 24 bd c0 2a 4c 3d 95 67 4c 3d 00 67 e2 3c
       -0.040163007 0.049845457 0.04990347 0.027637005
0001c0 7a bb a0 bc 73 d0 77 bc ae 71 7a 3c 86 79 02 3d
       -0.019620646 -0.015125382 0.015285892 0.031854175
0001d0 13 d5 0a bc 04 00 56 bc a9 e7 1b bd e0 40 05 bd
       -0.008473652 -0.013061527 -0.038062725 -0.032532573

ConvNet.fc2.weight f4 [84, 120]
000000 fa 00 cf 3b 5c d6 84 bb 5b cb 07 bc 27 20 a4 3d
       0.006317255 -0.004053874 -0.00828823 0.08013945
000010 db 7e f4 3c eb 09 8c bd 5e ec 83 bd ac 4c b1 3c
       0.029845646 -0.06837829 -0.06441568 0.021643005
000020 72 a8 64 3d df 80 ac bd 7f 1d 09 3d 0b e0 26 bd
       0.055824704 -0.08423018 0.033475395 -0.040741008
000030 ab 93 0d 3d ac c2 42 bd e0 35 9d 3d 49 e7 ae 3d
       0.034564655 -0.047548935 0.076762915 0.08540208
000040 d2 4d 82 bd d6 59 a5 bd fd e3 d7 3c a6 2b 95 3d
       -0.06362499 -0.080737755 0.02635383 0.07283716
000050 0e 09 24 3d 00 4b 36 bd 12 ab 9e 3d 4e 09 b9 bd
       0.040047698 -0.04450512 0.07747473 -0.09034978
000060 79 f0 9b 3d 21 b6 06 bd 70 d6 ce bb f4 45 2a b9
       0.07614226 -0.032888535 -0.006312184 -0.00016238523
000070 fe bc ce bc 07 08 ab bc 57 36 b8 3c 9d 4f 90 3c
       -0.025236603 -0.020877851 0.022486849 0.017616088
000080 a0 4f 2d 3c 94 86 b7 3d d0 1d 13 bc c3 7f 67 bd
       0.010578066 0.089612156 -0.008979276 -0.056518327
000090 a2 ca a3 bd 5e ba 8d 3d 29 47 87 bd 97 a6 3c 3d
       -0.079976335 0.06920312 -0.066053696 0.04605731
0000a0 31 f2 59 bd dd a2 79 bd b1 ef 6b 3c b0 0f 8e 3d
       -0.053209487 -0.060946334 0.014400409 0.06936586
0000b0 a3 5a a8 bd ac b3 75 3d ba 09 ba bd 9d a2 96 bc
       -0.082204126 0.0599858 -0.090838864 -0.018388087
0000c0 b0 00 d4 bc b0 a1 84 bd 7d de 90 bd b5 e1 1b bd
       -0.025879234 -0.06476152 -0.07073686 -0.038057048
0000d0 9b a7 95 bd e8 27 74 3a 51 ef 79 bd 49 fc 2d bd
       -0.07307359 0.0009313808 -0.061019246 -0.042476926
0000e0 72 82 3a bd f1 ea db 3c 4c 9d d6 bc 41 20 59 3d
       -0.04553456 0.026845427 -0.026198052 0.053009275
0000f0 54 e2 63 3d a6 7e 89 bd 8d e5 7d bc b8 5d ba bd
       0.055635765 -0.067136094 -0.015496624 -0.09099907
000100 11 fb 32 3d b1 f3 a2 bc ac a6 c0 3c 1b 61 f6 3c
       0.043696467 -0.019891592 0.023516975 0.0300756
000110 af bf a5 3d 52 23 15 bc 3b 38 dd bc 7e 6c b0 3d
       0.08093201 -0.009102659 -0.027004352 0.08614443
000120 7a 6e eb bb 54 fd 88 3c 72 cc 13 3c bb 1f 45 bd
       -0.0071848007 0.016722359 0.0090209115 -0.048125964
000130 8f 94 57 3d 80 96 9a bd cd f8 3a 3d b3 15 36 3d
       0.05263191 -0.07548237 0.04564743 0.044454288
000140 0c 29 74 3d 94 1c 84 bd b6 44 83 3d 78 b9 ac 3d
       0.059609458 -0.06450763 0.0640959 0.08433813
000150 74 0c c7 ba f2 f8 b0 bd f1 72 8d bb 39 ef 00 ba
       -0.0015186206 -0.086412326 -0.0043166806 -0.00049184595
000160 0c 8d a3 bd a0 50 b9 bb 3b 0e f7 bc 97 7c a9 bd
       -0.07985887 -0.005655363 -0.030158153 -0.08275717
000170 a9 e2 72 3d bb d7 c4 3c 3b 50 1f bd 38 ac a9 3d
       0.05929819 0.02402865 -0.038894873 0.08284801
000180 1d fd 97 3b 80 37 a5 3b ee 24 38 3c f3 75 9a bd
       0.0046383278 0.0050420165 0.0112392735 -0.07542028
000190 e5 d0 1d bd 36 9b 49 3c dc 40 0a bd d4 8d 42 3d
       -0.038529295 0.012305072 -0.03375326 0.04749854
0001a0 b2 e1 1e 3b 6e 44 9e 3c 58 f9 b4 3d 2d 66 20 bd
       0.0024243412 0.01931974 0.08836621 -0.039159942
0001b0 91 78 49 bc 00 47 5b bd 11 9a a3 bd 4f ac aa 3c
       -0.012296812 -0.053534508 -0.0798837 0.020834116
0001c0 09 0c 85 3d e2 1d fd 3c 1a f1 92 bd 10 10 72 3d
       0.06496436 0.030898038 -0.07174893 0.05909735
0001d0 11 b8 aa bd 97 e2 82 bd 22 23 aa 3d d1 9d 2b bd
       -0.08335889 -0.06390875 0.08307482 -0.041898552
0001e0 f5 ac 26 bd af e2 35 bd 81 6c 33 bd 66 e1 f6 3c
       -0.04069229 -0.044405635 -0.04380465 0.030136775
0001f0 da 15 45 bd 4b 36 bf bd 9c 12 ae bc e6 ef 84 3c
       -0.048116542 -0.093365274 -0.021249108 0.016227674
000200 36 79 c0 3b 9f 46 2e bb dc ed c6 bd 2b a2 d2 bc
       0.0058738245 -0.0026592386 -0.09713337 -0.025712093
000210 cd c0 6b bd dc e5 96 bc 1e 4c 4b bd d4 b4 bc bb
       -0.057556916 -0.018420152 -0.049633138 -0.005758861
000220 d6 01 63 bc 9d cb a1 bd d8 00 18 3d 2e cf 0b 3d
       -0.013855418 -0.07900164 0.03711018 0.03413313
000230 35 b7 8b 3c b9 2b f7 3c 2e 8e 16 bc 10 23 65 3c
       0.017055133 0.030172216 -0.009189172 0.01398541
000240 a4 5d b2 bd 09 2f 7a 3d 6d c2 a1 3d 51 5a 14 bd
       -0.08709267 0.061080012 0.07898412 -0.036218945
000250 1d f0 a7 3d c3 aa 0e bd 88 2d 02 3d ac 29 f9 bc
       0.08200095 -0.03483082 0.031781703 -0.030415379
000260 15 31 51 bd 89 21 26 bd b2 8c 74 3d e9 02 02 bd
       -0.0510722 -0.040559325 0.05970449 -0.031741057
000270 49 30 92 bd ad 36 95 3b 84 a6 76 bd 88 23 6b bd
       -0.07138116 0.004553637 -0.060217395 -0.057406932
000280 9f 8d 50 bd 82 db 48 bd 53 30 61 bd 8b 33 0d 3d
       -0.05091631 -0.049037464 -0.054977726 0.034472983
000290 78 b4 04 bd ee e6 b3 3c 68 7f a6 3d 9d 65 ab 3c
       -0.03239867 0.021960702 0.081297696 0.020922476
0002a0 d0 cd c4 3d e7 3f 9e 3d b4 5b 86 3b 1d 31 4b 3d
       0.09609568 0.07727032 0.0041002873 0.049607385
0002b0 90 27 bf 3d 40 27 90 bd eb 1b 82 bd 29 f3 86 3d
       0.09333718 -0.07038736 -0.06352981 0.06589348
0002c0 cb 81 3d 3d c7 24 cf 3c 5a 00 72 3c 8e ad 45 bd
       0.04626636 0.025286091 0.014770592 -0.048261218
0002d0 8b 78 28 3d c4 21 40 bc 7e c3 73 3b 19 b0 b4 3d
       0.041130584 -0.0117268 0.003719538 0.088226505
0002e0 4c 3e 37 3d c6 f3 4d 3a b6 15 93 bc e2 36 4d bd
       0.044737145 0.00078564545 -0.017954689 -0.05010117
0002f0 95 6f 1d 3d 16 cc a9 3d 80 4f 23 bd 2d b0 7c bd
       0.03843649 0.082908794 -0.03987074 -0.06169145
000300 1e da 60 3d 88 40 95 bd 96 ac aa 3d dd 63 03 3c
       0.054895513 -0.07287699 0.083336994 0.008019415
000310 b1 cc 9b 3d dc d0 5f 3c ee fd 08 3d ed 2f af bd
       0.07607401 0.013660636 0.03344529 -0.08554063
000320 55 09 30 bc 17 84 98 3d a1 16 14 bd 2a 34 8c 3d
       -0.010744412 0.07447069 -0.036154393 0.06845887
000330 ac 97 5d bc df ad 2a bd 92 a6 1e bd 9b 2c 9b bd
       -0.013524931 -0.041669723 -0.038733073 -0.07576867
000340 ac b1 f3 3c fe ec 60 bd a3 83 18 3d a5 e3 af bc
       0.029747806 -0.054913513 0.037234914 -0.021470854
000350 70 c5 44 3d 78 40 90 3d ee c5 94 bd ad 05 60 bd
       0.048039854 0.070435464 -0.072643146 -0.054692913
000360 df b8 8b 3d 48 60 ce bc bf a3 9b bd 40 9a 68 bd
       0.06822371 -0.025192395 -0.075995915 -0.05678773
000370 3a 24 b3 bd ad 17 83 bd 6d ab b7 36 30 cd 90 3d
       -0.08747144 -0.06401 5.4737816e-06 0.070703864
000380 ce 85 a1 3c a8 8f bd 3b 02 2c 6f 3b f5 27 61 bd
       0.019717123 0.0057849474 0.0036494737 -0.054969747
000390 0a cd 2f 3d 69 ee 8b 3d d5 56 be 3c 78 62 9b 3d
       0.04292015 0.068325825 0.023234764 0.07587141
0003a0 bd 88 b6 3d 8f 6e 29 3c 5a 7c 68 bd 2b 3f 89 3d
       0.089127995 0.010341301 -0.056759216 0.067015015
0003b0 b3 d5 83 3c d3 44 40 bc 76 dc 50 bc 26 d4 7b 3c
       0.01609311 -0.011735159 -0.0127478745 0.015370404
0003c0 74 df 19 bd 10 98 6a 3d 49 0a 8e bd 81 8d 6e 3c
       -0.037566617 0.057273924 -0.069355555 0.014560104
0003d0 e4 1b b8 bd 2b e5 2c 3d 29 f2 1b bd 18 09 a9 ba
       -0.08989695 0.04221074 -0.03807274 -0.0012896387
0003e0 36 75 90 3d 11 4b 9f 3c 78 ab 49 3c 09 52 15 3d
       0.07053606 0.019444974 0.012308948 0.036455188
0003f0 14 b8 58 3c 05 2e 63 3d 26 7e 16 3c 38 09 81 3d
       0.013227481 0.05546381 0.00918535 0.063005865

ConvNet.fc2.bias f4 [84]
000000 e3 f2 b8 bd c4 0a 8f 3d 25 e3 a2 3d 28 09 20 3d
       -0.09030702 0.06984475 0.07953481 0.039071232
000010 c9 d8 2a 3c 8d 5c 51 3b 7a bc 9d 3c 0d 45 93 3d
       0.010427662 0.0031946034 0.019254912 0.07190905
000020 1f 38 8e 3d 63 3e 47 bd 07 12 ed 3c 5a 5b 87 bc
       0.06944298 -0.04864348 0.02893926 -0.016523052
000030 b7 df 74 3d ec 07 27 bd 9b 87 76 3d 0d bc cc 3c
       0.059783664 -0.04077904 0.060187917 0.024992013
000040 9f 64 10 3c 8c e7 90 3b d1 16 39 3d 60 e1 b8 3d
       0.008813052 0.004422134 0.045187775 0.09027362
000050 70 0f c1 3d c6 ed 84 bc 14 1e b9 3d e8 fd b8 3d
       0.094267726 -0.01622666 0.0903894 0.09032804
000060 bc 80 aa 3d 6c 7f 18 3d 63 c4 ac bd 9b 81 96 bd
       0.083253354 0.037230894 -0.08435895 -0.07348939
000070 56 4b b3 bd 72 65 70 bd 50 8d a9 bd 56 85 a8 3c
       -0.087546036 -0.058690496 -0.08278906 0.020571392
000080 71 d4 c3 3d d9 4b 37 bd 09 5e 48 3d e2 05 f9 3c
       0.09562004 -0.04475007 0.048917804 0.030398313
000090 61 5d fe 3c 65 3b 82 3c 3e e8 22 3d 76 a7 87 3c
       0.031050386 0.015897462 0.039772265 0.016559344
0000a0 e8 95 d3 3c 36 57 46 3d 3e 06 aa bd 0b 8f b1 bd
       0.025828317 0.048423015 -0.08301972 -0.086698614
0000b0 fa 78 fd 3c 0d a1 b5 bd 5a 7b b0 3c 37 0d 11 3d
       0.030941475 -0.088686086 0.021543194 0.035412993
0000c0 05 f9 98 bd 88 e8 89 3d 34 6d 83 bd 83 09 81 bd
       -0.07469372 0.06733805 -0.06417313 -0.06300642
0000d0 13 d9 1b 3d 21 17 86 3d f5 98 38 3b f9 b7 d6 bc
       0.038048815 0.0654738 0.0028167341 -0.026210772
0000e0 61 dd 15 bb a5 ac 3b bd 9e bc 99 bd 3a 53 46 bd
       -0.0022867548 -0.045818944 -0.07506679 -0.048419215
0000f0 74 91 9e bc cb f4 24 bd 20 8c ad 3d 35 de 4c 3d
       -0.019356467 -0.040272515 0.08473992 0.0500166
000100 36 4f 77 3c 22 0d 88 3d 43 44 43 bd 2a 20 6d 3d
       0.015094569 0.0664313 -0.04767252 0.057892002
000110 26 9b 80 bd 36 84 b9 bd e9 4e 05 3d 53 c3 fd 3c
       -0.06279592 -0.0905842 0.032545958 0.030976927
000120 7a ab 52 bc 02 a0 0f 3d 1a 40 21 3b 81 c3 00 3d
       -0.012858266 0.035064705 0.0024604858 0.031436447
000130 e2 81 fb 39 b4 dc a4 bd a7 c6 b9 bd d2 f6 c6 bc
       0.0004797122 -0.08049908 -0.09071093 -0.024287615
000140 da 42 44 3c 5b d9 91 bd 2d f5 d8 3c 35 f0 f3 bc
       0.011978829 -0.071215354 0.026484096 -0.029777626

Output.fc.weight f4 [10, 84]
000000 2c ef ad bc 64 2c 3d 3d 30 86 18 bc f5 0e ab bd
       -0.02123221 0.046184912 -0.009309337 -0.08352462
000010 01 9c 92 3c 6b 92 d6 bd cb e2 c8 3d 81 41 75 bd
       0.017896654 -0.10477146 0.09808882 -0.059876923
000020 6f 49 79 3d 2e 1d 40 bc 48 b4 c6 bc 60 26 b3 3d
       0.060861047 -0.011725707 -0.024255887 0.08747554
000030 f7 3f 96 bd 38 27 a7 bd d4 58 d0 bd 01 ba 8d bd
       -0.07336419 -0.08161777 -0.101731926 -0.06920243
000040 ae d6 ce 3d 82 62 40 bd 4a ef 6b 3d 24 98 f4 ba
       0.10099541 -0.046968944 0.05760125 -0.0018661064
000050 72 f1 4d bd 96 48 7c bd 9c 68 e2 3d 0b 4c b1 bd
       -0.05027909 -0.06159266 0.11055109 -0.08657082
000060 6f bf 28 3d 1d e4 63 bb 34 15 ab bc 06 03 d9 3d
       0.04119819 -0.0034773417 -0.020884134 0.1059628
000070 3a 72 fd 3c b3 3f d6 bd 46 c9 81 3a 19 58 8c bb
       0.030938257 -0.104613684 0.0009901903 -0.004282963
000080 01 7f b4 3d f1 26 a6 bd 27 8d 42 3d 40 1b 91 3c
       0.088132866 -0.08112896 0.047497895 0.01771319
000090 b7 d3 86 3d 5b fa f1 bc 30 8a 95 3d 42 42 0a bd
       0.0658335 -0.029538324 0.07301748 -0.033754595
0000a0 6c 8e d0 bc 07 b8 c0 3d 1b 24 67 bd 07 98 1b 3d
       -0.025458537 0.094101004 -0.056430917 0.03798678
0000b0 10 23 2e bd 97 25 48 3d 16 6b df 3d 72 4b b6 bd
       -0.042513907 0.048863973 0.10909097 -0.08901109
0000c0 6c e4 a7 3d 19 13 b6 bc a6 65 63 bd 57 af 2e bd
       0.08197865 -0.022225903 -0.05551686 -0.042647686
0000d0 b2 79 a5 bb 42 f3 47 3c 13 9a 81 3d 27 e6 59 3d
       -0.0050499076 0.012203993 0.063282155 0.053198006
0000e0 34 a2 77 bd a0 da 89 3d 57 2f d7 bd b1 19 d7 3c
       -0.060457423 0.067311525 -0.10507076 0.026257368
0000f0 41 1b 84 3d 6a 2e f8 bc 04 17 78 bd d8 14 aa bb
       0.06450511 -0.03029557 -0.060568824 -0.005190473
000100 40 2d 73 3d f8 5f 68 bd 62 67 20 3d 9b a1 c5 3c
       0.059369326 -0.056732148 0.039161094 0.024124911
000110 94 9e 7e bd 87 8d bb 3c f9 11 a9 3c 1b 05 ab 3d
       -0.06216295 0.022894634 0.020638453 0.08350583
000120 0d af 8e 3c af 3d e3 3c d5 d7 65 bd d9 40 c1 bd
       0.017417455 0.027739374 -0.056114037 -0.09436197
000130 19 4e 95 3d ca c8 48 3c 05 4e e0 3c 47 ea 87 bd
       0.072902866 0.012254903 0.027380953 -0.06636482
000140 7b 86 24 bc bb a3 96 bb d3 67 cf bd 6e b1 6e 3b
       -0.010041828 -0.004597155 -0.10127225 0.0036421674
000150 23 d2 cb 3c 97 ea 95 bd c1 e5 b8 3d b1 5e de 3d
       0.024880474 -0.07320135 0.09028197 0.10857905
000160 5b f9 9c 3d 06 4e a5 bd 00 60 7d 3d 83 5b bc 3c
       0.07664748 -0.080715224 0.06185913 0.022992855
000170 15 5c ac bd eb 17 a5 bd 6e b3 67 3c 2f 4d c4 3d
       -0.08416001 -0.080612026 0.0141419 0.09585034
000180 6e c1 bf 3d 5e 01 c1 3d 65 12 ba bc 78 c4 5c bd
       0.09363066 0.09424089 -0.02271385 -0.053898305
000190 4d 9a 76 3d ed bb 3d 3c 6b a4 87 3d 27 a2 84 3b
       0.060205746 0.0115804495 0.06623157 0.0040476504
0001a0 bd d6 3a 3d 23 df b0 3d 51 50 1e bd 39 7a 87 bd
       0.045614947 0.0863631 -0.038650814 -0.06615109
0001b0 3b 69 bc 3c 6f 5c 16 3b 09 62 46 bd 73 a6 c9 3d
       0.022999397 0.0022943278 -0.048433337 0.09846201
0001c0 d7 29 c9 3d 3a d5 b1 3d 9f e5 02 bc a4 a6 98 bd
       0.098224334 0.08683248 -0.007989316 -0.07453659
0001d0 6b 33 b4 3c 2c 6e 32 3d 00 35 7d bd c8 21 96 bd
       0.021997174 0.0435621 -0.061818123 -0.07330662
0001e0 96 90 84 bd fe 5d 09 bd 0c e9 23 bd 6e df 80 bd
       -0.0647289 -0.033536904 -0.040017173 -0.06292616
0001f0 c1 1f bf 3c 02 da 47 3d 0d 69 88 bc 18 7f d6 ba
       0.023330571 0.048791893 -0.016651655 -0.0016364781
000200 15 30 ea 3c 98 d2 cd bd 0d e3 04 3d 31 10 3a 3d
       0.02858738 -0.10049933 0.032443095 0.045425598
000210 1d a4 89 3d d1 20 c5 3d 50 65 3a bd 41 dd 93 bd
       0.06720755 0.096254 -0.045506775 -0.07219935
000220 97 56 2a 3d 29 6a df bd f2 a6 86 bd b8 8c e4 3c
       0.041586485 -0.1090892 -0.06574811 0.027899131
000230 9b ea ff 3b 62 0b 67 bb 9e ab 5c bd 52 06 2a 3d
       0.0078099496 -0.0035254587 -0.053874604 0.041509934
000240 6a e4 d3 bd 7f 2d a8 3d 8b 9b ad 3c 92 9c e7 bd
       -0.10346301 0.08211803 0.021192333 -0.1130916
000250 55 b2 a1 bd 4b 9c c5 bd a9 7e b3 bd d4 7b 83 bd
       -0.07895342 -0.09648951 -0.08764393 -0.06420103
000260 7c fe be ba c5 0c 9c 3c f0 7d 99 bd 46 4f 54 3d
       -0.0014571692 0.019049058 -0.07494724 0.051833414
000270 13 75 2e 3b 93 9a ba 3c a0 76 aa 3d d2 88 20 3d
       0.0026620075 0.022778785 0.08323407 0.039192982
000280 8e d0 81 3d dc 1e df bb d4 23 96 3d 1b 85 94 3d
       0.06338607 -0.0068090986 0.073310524 0.0725195
000290 7f 3a 99 3c 3f bf ae 3d 9a 3f bd bd cc bd 86 3d
       0.01870465 0.08532571 -0.09240647 0.0657917
0002a0 fe ec 64 bd 10 3c c2 bd 46 57 d6 3d b0 09 1b bd
       -0.055890076 -0.09484112 0.10465865 -0.037851036
0002b0 36 0b 0b bd 8e 08 87 3d a1 23 a1 3d 80 91 c7 3d
       -0.03394624 0.065934286 0.07868124 0.09744549
0002c0 64 44 e3 3d d9 b3 12 bd d4 a6 28 bd 2f 70 31 bc
       0.11097029 -0.035816047 -0.041174725 -0.010829969
0002d0 c3 a1 4a 3d 5a 9d a0 3c 20 da 0f bb 85 e6 96 3d
       0.049470674 0.019606281 -0.002195008 0.07368187
0002e0 1a 5b 3b 3d 2c de b5 3c ae 84 57 bb 7d fa 7d 3d
       0.045741178 0.022200666 -0.003288548 0.062006462
0002f0 3f 6d e1 3d b1 b6 d0 3d 64 af 39 3d d1 ac 15 3d
       0.11007165 0.101910956 0.04533328 0.036541764
000300 0c c4 47 3d ba 40 ae bd 5f b5 e7 3c c4 11 41 bd
       0.04877095 -0.08508439 0.028284727 -0.047136083
000310 a8 47 15 bd f9 2c 03 3d 58 c2 14 bd c9 09 ae bd
       -0.03644529 0.03202531 -0.036318153 -0.0849796
000320 12 1d c5 3c 82 08 97 3a a4 92 d4 3d 1e 87 39 3d
       0.024061713 0.0011522921 0.10379532 0.045294873
000330 20 a5 cd b7 94 4d 7d 3d 2a e2 3d bd 13 1e d3 3d
       -2.4514797e-05 0.061841562 -0.046358265 0.103084706
000340 0d d6 bb 3d db 41 96 3d 3f cf 2f bd 39 9a 80 3c
       0.09171686 0.0733678 -0.042922255 0.01569854
000350 00 6a a5 39 6f ff 9c bd 70 2e 63 bd de ef 8a bd
       0.0003155023 -0.076659076 -0.055464208 -0.06784032
000360 e0 af bc bd 7b 69 ad 3d 7d 0b 7f 3d d6 35 17 bc
       -0.09213233 0.084673844 0.062266815 -0.009229144
000370 76 56 ea bb bb 2b ae bd 52 a4 fd bc 80 74 a2 3d
       -0.00715142 -0.08504435 -0.030962143 0.07932377
000380 13 64 02 bc eb 2e b3 bd 2d 03 ac ba 00 9f 5d bb
       -0.00795843 -0.08749183 -0.0013123505 -0.0033816695
000390 b4 20 db 3c 7b 24 a4 3d 35 0b 49 bd a6 6f 1f bd
       0.026748993 0.080147706 -0.049082953 -0.038924836
0003a0 79 8b 64 bd 06 85 ab 3d 2f da 90 3d 0a 69 40 bc
       -0.055797074 0.083749816 0.07072865 -0.011743793
0003b0 f4 ed 48 3d 05 e6 8c 3d 06 ed c9 bc d4 2d 0d bb
       0.049055055 0.0687981 -0.024649154 -0.0021542208
0003c0 6b f9 f7 3c aa 8b c7 bd 91 46 ba bc bd 77 cd 3c
       0.030270299 -0.09743436 -0.022738727 0.02508151
0003d0 14 b5 d6 bc 03 38 f9 bc ef 58 ad bd 58 32 cb bc
       -0.026209392 -0.030422216 -0.08464228 -0.02480428
0003e0 90 81 94 bd 38 4d a8 bd 5e 15 b3 3d 80 2f ee 3c
       -0.072512746 -0.08217853 0.0874431 0.029075384
0003f0 5d 9f 8a 3d 36 1e 0c bd 5d ca 94 bd 49 cc b1 3d
       0.067686774 -0.0342085 -0.0726516 0.086815424

Output.fc.bias f4 [10]
000000 3c 82 e9 3d f0 06 a2 bd 9e 4a 45 bc b6 d8 da 3c
       0.11401793 -0.079114795 -0.012041716 0.026714664
000010 56 21 09 3d 51 b7 3c bd 24 16 e5 bd 91 ed 45 bc
       0.033479057 -0.04607326 -0.111858636 -0.012080566
000020 4d ba 01 bc f0 25 89 3c
       -0.007917953 0.016741723
