tutorials/W1D2_ComparingTasks/RR/models/ConvNet_inpainting_10_epoch_6.pth (torch, 506410 bytes, 19 tensors)

encoder.conv1.weight f4 [6, 1, 5, 5]
0.15815948 0.16914798 -0.041833434 0.1869134 -0.04134298 0.045964383 -0.09173232 0.12319405
0.18191944 -0.14373386 0.17940591 0.04306179 0.15340579 0.029576052 0.09738015 -0.022611484
0.15968947 0.035086736 -0.091589056 0.050322134 -0.086489104 -0.01798356 -0.075742096 0.13512428
-0.16014023 -0.09072786 -0.054374047 -0.1165613 0.024025004 -0.19185598 0.18298568 -0.16514914
0.16015041 0.03905897 -0.05940694 0.124558814 0.036619376 0.16748716 0.027412118 -0.06029981
0.056355126 -0.048604883 0.09006848 0.18447845 0.118765675 -0.08511741 0.121175446 0.041369334
0.107352026 -0.116109066 -0.20276557 -0.08108247 -0.15593773 0.16248193 0.062691145 0.07899112
0.06120936 -0.00389517 0.15728521 -0.13668525 0.00926496 -0.13843405 0.06119356 -0.06740356
0.0663633 -0.0443597 0.16433002 -0.1191471 -0.118671805 -0.119386345 0.17789939 0.06580587
0.19554628 -0.16079597 -0.1961709 -0.15296355 -0.13073586 0.0823988 0.071808375 0.16622591
-0.10602001 -0.13656303 0.10751333 -0.08086285 0.12110533 -0.0428856 0.116500385 -0.15392645
-0.100724876 0.06010872 0.047064733 -0.045582853 0.121823005 0.13661028 -0.14533569 -0.10231303
0.18841878 -0.06586055 -0.07044118 -0.19516481 -0.11981329 0.045223176 -0.031381737 -0.15071662
0.0019008638 -0.14169866 -0.17441541 -0.1152872 -0.18046214 -0.13284455 0.1954186 0.03337493
0.056341607 -0.192011 -0.1369064 -0.070022844 0.027692966 -0.18107817 -0.09163854 -0.1252545
-0.002552415 -0.07739585 -0.018426688 -0.14078909 -0.14236864 -0.11690832 -0.07166672 -0.15994622
0.17152159 -0.036543436 0.17229699 0.066315666 -0.16511142 0.14299423 -0.05206742 -0.0774857
-0.1626961 -0.19533373 0.06086599 -0.04046469 0.074989095 -0.16873246 0.1508015 -0.1436521
-0.03164819 0.045183543 0.106156744 0.1649201 0.18597467 -0.15509342
00000000: 8ff4 213e 2135 2d3e 8959 2bbd 3a66 3f3e
00000010: 4257 29bd 2645 3c3d 28de bbbd 294d fc3d
00000020: 1749 3a3e f82e 13be 2fb6 373e 8f61 303d
00000030: 6816 1d3e 7a49 f23c 3e6f c73d b83b b9bc
00000040: a385 233e 1cb7 0f3d 0b93 bbbd 951e 4e3d
00000050: 3321 b1bd 4252 93bc ac1e 9bbd 055e 0a3e
00000060: cdfb 23be 87cf b9bd 52b7 5ebd b1b7 eebd
00000070: 16d0 c43c e575 44be 9960 3b3e db1c 29be
00000080: 78fe 233e 4cfc 1f3d b154 73bd b118 ff3d
00000090: 33fe 153d c181 2b3e 618f e03c effc 76bd
000000a0: a2d4 663d ea15 47bd d375 b83d ebe7 3c3e
000000b0: 6b3b f33d 0952 aebd d52a f83d e472 293d
000000c0: 61db db3d 97ca edbd c7a1 4fbe 910e a6bd
000000d0: 24ae 1fbe aa61 263e 3764 803d 19c6 a13d
000000e0: aab6 7a3d 1c46 7fbb 600f 213e 38f7 0bbe
000000f0: 0fcc 173c a8c1 0dbe 19a6 7a3d e10a 8abd
00000100: 7be9 873d 84b2 35bd 2146 283e 6503 f4bd
00000110: 340a f3bd d480 f4bd 422b 363e 3ac5 863d
00000120: 493d 483e b3a7 24be 06e1 48be 7aa2 1cbe
00000130: 9fdf 05be b4c0 a83d 4510 933d 2037 2a3e
00000140: 0521 d9bd 2ed7 0bbe f32f dc3d 6c9b a5bd
00000150: 1206 f83d d0a8 2fbd c197 ee3d e59e 1dbe
00000160: d848 cebd 9034 763d f3c6 403d 16b5 3abd
00000170: 577e f93d 91e3 0b3e e1d2 14be 7e89 d1bd
00000180: daf0 403e e5e1 86bd 7743 90bd 49d9 47be
00000190: ac60 f5bd f03b 393d 238a 00bd 7555 1abe
000001a0: 6826 f93a 7419 11be f499 32be b21b ecbd
000001b0: 11cb 38be 6708 08be d01b 483e 27b4 083d
000001c0: 75c6 663d 889e 44be 3131 0cbe 2368 8fbd
000001d0: 5cdc e23c 8e6c 39be fdac bbbd b742 00be
000001e0: 6b46 27bb b781 9ebd 91f3 96bc 042b 10be
000001f0: 16c9 11be a16d efbd 00c6 92bd f1c8 23be
00000200: 5ba3 2f3e 92ae 15bd 9f6e 303e 82d0 873d
00000210: f812 29be 146d 123e a644 55bd d3b0 9ebd
00000220: ce99 26be 9105 48be 9e4e 793d 4ebe 25bd
00000230: e293 993d 34c8 2cbe b56b 1a3e 8919 13be
00000240: 88a1 01bd 6112 393d b568 d93d d1e0 283e
00000250: 2570 3e3e cfd0 1ebe

encoder.conv1.bias f4 [6]
0.056070883 -0.08013999 -0.016355317 -0.148032 0.18734458 -0.14626884
00000000: 95aa 653d 6f20 a4bd 96fb 85bc b395 17be
00000010: 42d7 3f3e 80c7 15be

encoder.conv2.weight f4 [16, 6, 5, 5]
0.04744016 0.03257743 0.026283612 -0.047964394 0.07103872 0.021015994 0.013387371 -0.06963813
0.029781817 -0.015761375 -0.034216337 0.07354331 0.020451173 -0.043970518 -0.045213517 0.00023834675
0.04909025 -0.018366292 -0.0445687 -0.033090167 -0.056319304 0.03308822 0.06638876 -0.0742407
0.015106994 0.045234866 0.01765515 -0.030469516 0.03852822 0.0390869 0.028741214 -0.012331214
-0.018540861 0.011623799 -0.017038392 -0.024704851 0.05444052 0.07288925 -0.007904731 -0.022594305
0.005487507 -0.0054993285 0.022125576 0.024063248 -0.075725995 -0.025037292 0.06957284 0.033074148
-0.0047031166 -0.05248233 -0.054180123 -0.06894624 -0.023198629 0.031193497 0.05059484 0.03994507
-0.0743202 -0.045654207 -0.008829054 0.08127768 0.017287603 -0.020425228 0.03723756 -0.02732781
-0.05193223 0.059587847 -0.03356127 -0.011212085 -0.08039624 0.057879034 0.059674602 0.03442816
-0.05271497 -0.07732794 -0.06266805 0.059809968 0.03609411 0.06636141 0.042727128 0.020779815
0.0032766713 -0.06668139 -0.07172748 -0.07872481 0.031309836 -0.03590249 -0.01626423 -0.041603647
-0.013085385 -0.05835018 -0.054369997 0.03067399 -0.020168273 0.048766904 -0.02705683 -0.06212141
-0.0108866 -0.038019445 -0.02552376 -0.077971175 0.044482745 -0.058643583 0.04221139 0.0417239
0.06317989 -0.06425222 0.056720123 -0.038568195 0.035111297 0.0816127 -0.01388015 -0.0016836761
-0.018958531 -0.06596444 0.04081445 -0.08361635 0.050117984 0.061023176 0.07778563 -0.017487712
-0.069649614 0.01729832 0.046195976 -0.080725014 -0.016646337 -0.052150063 -0.011252288 -0.035819825
-0.030123683 -0.028102197 -0.077323206 0.06499604 0.07182884 -0.01281 -0.013163136 -0.03373139
-0.069860905 -0.08181678 0.031539597 -0.048573 -0.052807197 -0.0015085434 -0.027958428 -0.027577406
0.0064988793 -0.013737278 -0.023268877 -0.034147125 -0.06851968 0.06663772 -0.028766725 0.024851546
-0.027321445 0.0028082607 0.071630195 0.041594204 -0.06766106 0.03267256 0.076367944 0.02045879
0.058311693 0.08164859 -0.016322125 0.012436756 -0.05697396 -0.01319088 0.061729655 0.036732096
-0.056830972 -0.067151375 -0.052130047 -0.078533076 -0.065295145 -0.0254488 0.052671663 0.017622668
-0.059711326 -0.062274877 0.04102942 -0.05886984 -0.007474202 0.03858176 -0.039683595 -0.010626201
-0.004803828 -0.016078565 -0.04408475 -0.07790551 -0.07042324 -0.045254853 0.08238942 -0.037462678
-0.059374962 0.015075259 0.02018284 0.04816029 0.06442435 0.046319824 -0.086073115 0.0027253842
0.053063847 -0.0039546145 -0.049485292 0.07761096 -0.031776235 -0.042755507 -0.07017807 0.0043402486
0.031137895 0.016373722 0.019931916 -0.058464307 -0.0741813 -0.00034775003 0.07340968 0.05033899
-0.043949403 -0.007958983 -0.05780494 -0.038751967 0.018657226 0.047763523 0.07052657 -0.07118071
0.05835341 -0.0545946 0.028237907 0.06554575 -0.0041441196 0.06895656 -0.06781175 -0.028928433
0.044598393 -0.02234675 -0.02088338 -0.033715703 0.058120508 0.04120748 0.024390785 -0.04312773
-0.06726253 0.0049677934 0.022903448 -0.034478538 -0.018835029 0.056483787 0.0012495554 -0.0013932106
-0.019520247 -0.06986949 -0.07448828 -0.034994494 -0.03744196 0.029754724 -0.019415343 -0.028632568
00000000: 9d50 423d e96f 053d bb50 d73c 5076 44bd
00000010: c07c 913d bc29 ac3c b456 5b3c 709e 8ebd
00000020: fff8 f33c 001e 81bc 6e26 0cbd e09d 963d
00000030: 3889 a73c 6e1a 34bd cf31 39bd b8ec 7939
00000040: dc12 493d e874 96bc ab8d 36bd 8e89 07bd
00000050: 12af 66bd 8387 073d d5f6 873d 820b 98bd
00000060: 5383 773c 3248 393d 88a1 903c 359b f9bc
00000070: c4cf 1d3d 9619 203d b272 eb3c dc08 4abc
00000080: 01e3 97bc bf71 3e3c 1994 8bbc d461 cabc
00000090: 06fd 5e3d f646 953d d882 01bc b117 b9bc
000000a0: 8cd0 b33b b633 b4bb b240 b53c 4a20 c53c
000000b0: 3b16 9bbd 021b cdbc 357c 8e3d c278 073d
000000c0: 9a1c 9abb b6f7 56bd faeb 5dbd b033 8dbd
000000d0: 0d0b bebc 8189 ff3c 893c 4f3d 719d 233d
000000e0: 3035 98bd e8ff 3abd bda7 10bc ea74 a63d
000000f0: bb9e 8d3c cf52 a7bc 6986 183d 92de dfbc
00000100: e4b6 54bd 6312 743d 8b77 09bd e5b2 37bc
00000110: c9a6 a4bd 9112 6d3d 5b6d 743d 8b04 0d3d
00000120: a7eb 57bd 1c5e 9ebd 1b58 80bd 4cfb 743d
00000130: 6bd7 133d 7ee8 873d a402 2f3d 6e3a aa3c
00000140: 6cbd 563b 4190 88bd dbe5 92bd 793a a1bd
00000150: be3e 003d 7d0e 13bd 903c 85bc 9668 2abd
00000160: 1564 56bc 9900 6fbd 13b3 5ebd 0548 fb3c
00000170: ef37 a5bc cebf 473d 49a6 ddbc 0573 7ebd
00000180: b65d 32bc 47ba 1bbd 3417 d1bc 5aaf 9fbd
00000190: 8a33 363d 4134 70bd dae5 2c3d aee6 2a3d
000001a0: 7564 813d ab96 83bd 5c53 683d aff9 1dbd
000001b0: ddd0 0f3d 8f24 a73d 9269 63bc ccae dcba
000001c0: ec4e 9bbc 5d18 87bd 0d2d 273d 0d3f abbd
000001d0: 8448 4d3d 70f3 793d 134e 9f3d 6442 8fbc
000001e0: 75a4 8ebd 35b5 8d3c fe37 3d3d 2853 a5bd
000001f0: e65d 88bc 4e9b 55bd 845b 38bc cfb7 12bd
00000200: f1c5 f6bc 9436 e6bc a15b 9ebd a51c 853d
00000210: 001b 933d 09e1 51bc 32aa 57bc ed29 0abd
00000220: 3c13 8fbd 8e8f a7bd aa2f 013d 7bf4 46bd
00000230: 5c4c 58bd 51ba c5ba 1309 e5bc 03ea e1bc
00000240: 8df4 d43b 5212 61bc 5f9e bebc dbdd 0bbd
00000250: 0c54 8cbd 5b79 883d 32a8 ebbc 7895 cb3c
00000260: 39d1 dfbc cc0a 383b dab2 923d af5e 2a3d
00000270: e291 8abd aad3 053d cc66 9c3d 3199 a73c
00000280: 3ed8 6e3d 6037 a73d fab5 85bc 89c3 4b3c
00000290: 875d 69bd 901e 58bc 3cd8 7c3d 6574 163d
000002a0: 98c7 68bd a986 89bd 5186 55bd f3d5 a0bd
000002b0: 76b9 85bd 007a d0bc 3ebe 573d 6a5d 903c
000002c0: dd93 74bd f113 7fbd 770e 283d 8021 71bd
000002d0: 27ea f4bb e807 1e3d 448b 22bd 8419 2ebc
000002e0: 6e69 9dbb 32b7 83bc 3692 34bd ed8c 9fbd
000002f0: 0f3a 90bd 275d 39bd c9bb a83d 7772 19bd
00000300: 2933 73bd 38fe 763c 7c56 a53c b943 453d
00000310: eaf0 833d dbb9 3d3d 1a47 b0bd 5c9c 323b
00000320: 7a59 593d b695 81bb 17b1 4abd 7ff2 9e3d
00000330: cc27 02bd 6620 2fbd 85b9 8fbd a538 8e3b
00000340: e614 ff3c 2f22 863c 4248 a33c 4578 6fbd
00000350: 5eec 97bd 3852 b6b9 d057 963d 4230 4e3d
00000360: 4a04 34bd 6566 02bc dfc4 6cbd 62ba 1ebd
00000370: 0ad7 983c afa3 433d 3c70 903d 31c7 91bd
00000380: fc03 6f3d 969e 5fbd 2f53 e73c da3c 863d
00000390: 65cb 87bb 1939 8d3d e3e0 8abd 52fb ecbc
000003a0: ceac 363d 8810 b7bc 9f13 abbc 7a19 0abd
000003b0: c50f 6e3d 2dc9 283d 2fcf c73c b4a6 30bd
000003c0: f0c0 89bd dfc8 a23b 03a0 bb3c 5e39 0dbd
000003d0: eb4b 9abc 8b5b 673d 1fc8 a33a 649c b6ba
000003e0: ede8 9fbc bc17 8fbd 508d 98bd 6356 0fbd
000003f0: be5c 19bd 2ec0 f33c ed0c 9fbc d98e eabc

encoder.conv2.bias f4 [16]
-0.0038583667 0.03598474 0.035070643 0.003036727 -0.03624248 0.052677505 0.058749244 0.01782209
-0.036837026 0.021823347 0.0047711753 0.0804156 0.0111815315 0.0083906725 0.0010249838 0.043160874
00000000: a7dc 7cbb bc64 133d 3ca6 0f3d d303 473b
00000010: ff72 14bd 5ec4 573d 0ca3 703d a2ff 913c
00000020: 6ce2 16bd e0c6 b23c 8557 9c3b efb0 a43d
00000030: be32 373c 0879 093c c058 863a 75c9 303d

encoder.fc1.weight f4 [120, 400]
0.001793367 0.041321307 0.026726732 -0.039718356 -0.0007011472 -0.04382629 -0.04081602 0.011011999
0.009860344 -0.00064868125 0.051858705 -0.021932323 -0.017693821 -0.006877414 0.0012608361 0.0001620833
0.049456764 -0.017627586 -0.02546491 0.0047684144 0.04113129 0.010554336 0.0313205 0.013261794
0.043774307 0.03003118 0.033555377 -0.007536193 -0.04142088 -0.019544972 0.014550423 0.038481474
-0.015388163 0.041544497 0.0049263053 0.0033353397 0.0044179726 -0.011173535 0.050698563 0.00087341294
0.03040836 -0.044154026 -0.021934448 0.010327363 0.040616136 0.023387438 0.0109455725 -0.044911224
-0.0023013956 -0.035909947 -0.045213748 0.006035309 -0.03021827 0.04841465 -0.022408709 0.021440042
0.03428208 -0.0339016 0.030896908 -0.0020750656 0.02499201 0.046667427 -0.021881063 -0.017483303
0.03963851 0.0059683723 -0.0024484626 0.037065785 -0.02574568 -0.006784793 0.029887732 0.015752915
-0.033042848 0.011070735 -0.042446293 -0.027288897 0.035888735 -0.012546112 -0.02173796 0.007326138
0.0102442885 -0.029084705 -0.036119923 -0.05149184 0.01429406 -0.028949818 0.006814104 -0.008228655
-0.028330078 -0.011868376 -0.038024474 -0.025514739 -0.0027148696 -0.03797578 -0.041012812 0.03803918
0.008971709 -0.01707337 0.002735459 0.036888335 -0.042208843 -0.024889616 -0.038034193 -0.004176421
-0.0033924729 -0.03583804 0.037912473 -0.033579066 0.05176718 -0.036039963 -0.006846 0.007385786
-0.017649952 0.0483033 -0.0339972 0.00061890355 -0.031794783 0.018945666 0.045866374 0.050689913
0.0090323165 -0.020756688 0.048357934 0.0065679573 0.03821627 -0.02492383 -0.021239866 -0.044723857
0.045412075 0.0117285075 -0.03590947 0.0020357734 -0.021543128 -0.00060374255 0.012667905 -0.02481174
0.010797581 -0.030188236 0.0066837533 -0.048164032 0.0073494804 0.051826943 0.046995692 0.015653491
0.039913557 0.048612893 0.01631006 0.016675908 0.009549155 0.040849656 0.04276123 -0.023810415
0.0005561044 -0.024859458 0.02083975 -0.04401861 0.022591507 -0.00889437 0.022885574 0.019781243
-0.023633605 0.026201077 0.023933742 -0.042052053 0.0528156 0.046375692 0.034005165 -0.0008146242
0.020666862 -0.026495676 -0.017042376 0.021732891 0.022273365 0.019713169 -0.04770632 0.040041625
-0.022572085 0.042979274 0.04371078 0.017459584 0.0486488 0.028523488 0.03248661 -0.01362896
0.050454028 0.01770692 0.034064896 -0.0077065653 0.03857907 0.048824806 -0.036500428 0.04418749
-0.03003586 -0.03182907 -0.037873715 0.018367572 -0.03406731 -0.019041235 -0.024890974 0.011306937
-0.049889576 -0.018824227 0.0045745266 0.008699397 -0.023526179 0.01955098 -0.029232942 -0.04277094
-0.004020124 -0.027313955 0.034740034 -0.034755178 -0.004740356 0.023467414 -0.042626005 0.036514975
-0.019704284 -0.010765017 -0.027927788 -0.015452937 -0.021462668 -0.044485416 0.014666097 -0.0023520372
0.04928693 0.034648556 0.04360297 0.017636057 0.02721492 0.04953614 0.046121415 -0.033602573
-0.007419257 -0.04499178 0.004923381 -0.012739274 0.047926176 0.011355886 0.0028553198 -0.033082362
-0.038547218 0.010779375 -0.021820826 -0.020355234 0.037682667 -0.027726084 -0.024238685 0.040937066
0.022183696 -0.02857731 0.012980637 0.02925301 -0.040544502 0.0114225205 0.015291575 -0.0029676703
00000000: 690f eb3a 8840 293d 05f2 da3c b7af 22bd
00000010: 31cd 37ba 3283 33bd b32e 27bd ac6b 343c
00000020: 488d 213c 430c 2aba cb69 543d 6aab b3bc
00000030: a2f2 90bc ee5b e1bb a442 a53a e8f4 2939
00000040: 2d93 4a3d ba67 90bc c99b d0bc 5c40 9c3b
00000050: 4979 283d 18ec 2c3c ed49 003d ff47 593c
00000060: b04c 333d f303 f63c 5d71 093d 2bf2 f6bb
00000070: f1a8 29bd c71c a0bc e664 6e3c c09e 1d3d
00000080: a21e 7cbc 902a 2a3d d86c a13b b795 5a3b
00000090: a4c4 903b 3411 37bc 4ca9 4f3d c0f5 643a
000000a0: f41a f93c dada 34bd dfaf b3bc 1a34 293c
000000b0: 1b5d 263d 0397 bf3c 0f55 333c d5f4 37bd
000000c0: 03d3 16bb 4f16 13bd 0d32 39bd d7c3 c53b
000000d0: 4e8c f7bc 714e 463d 7892 b7bc 07a3 af3c
000000e0: 5e6b 0c3d 67dc 0abd 831b fd3c d3fd 07bb
000000f0: 0bbc cc3c 5826 3f3d ea3f b3bc 2539 8fbc
00000100: fe5b 223d 5692 c33b 6376 20bb 4bd2 173d
00000110: 9be8 d2bc f852 debb 1ed7 f43c 420c 813c
00000120: f057 07bd 0762 353c 2adc 2dbd f78c dfbc
00000130: 1100 133d 358e 4dbc ce13 b2bc 1a10 f03b
00000140: a9d7 273c 0c43 eebc 7cf2 13bd 1ce9 52bd
00000150: a231 6a3c 2b28 edbc d948 df3b 7bd1 06bc
00000160: 7b14 e8bc 9473 42bc 8dbf 1bbd 4904 d1bc
00000170: f4eb 31bb 7e8c 1bbd 0dfd 27bd f9ce 1b3d
00000180: 13fe 123c 74dd 8bbc 6345 333b 3918 173d
00000190: 2ee3 2cbd 4fe5 cbbc bec9 1bbd 5cda 88bb
000001a0: 4054 5ebb e9ca 12bd 1c4a 1b3d 348a 09bd
000001b0: d309 543d a49e 13bd 6954 e0bb 7704 f23b
000001c0: a296 90bc aed9 453d a640 0bbd ea3d 223a
000001d0: 3f3b 02bd f133 9b3c 61de 3b3d 3aa0 4f3d
000001e0: 48fc 133c ee09 aabc f812 463d 0538 d73b
000001f0: aa88 1c3d 0f2d ccbc 3aff adbc 5d30 37bd
00000200: 0302 3a3d ed28 403c cf15 13bd 9c6a 053b
00000210: 377b b0bc 7a44 1eba 0b8d 4f3c fd41 cbbc
00000220: 56e8 303c 524d f7bc 6303 db3b a647 45bd
00000230: e9d3 f03b 7d48 543d 8e7e 403d c03b 803c
00000240: 667c 233d 501e 473d ad9c 853c ea9b 883c
00000250: 0f74 1c3c f851 273d 6626 2f3d 0f0e c3bc
00000260: 89c7 113a 10a6 cbbc 20b8 aa3c dc4c 34bd
00000270: d311 b93c b1b9 11bc 877a bb3c 460c a23c
00000280: 439b c1bc a4a3 d63c b210 c43c c63e 2cbd
00000290: 2c55 583d 70f4 3d3d 0049 0b3d 818c 55ba
000002a0: 8d4d a93c 760d d9bc 749c 8bbc 2d09 b23c
000002b0: a276 b63c 837d a13c b467 43bd b002 243d
000002c0: 18e9 b8bc 090b 303d 130a 333d 6707 8f3c
000002d0: f743 473d 17aa e93c ae10 053d 004c 5fbc
000002e0: e2a8 4e3d 1a0e 913c a287 0b3d 5b87 fcbb
000002f0: 1605 1e3d 85fc 473d 7981 15bd f1fd 343d
00000300: c40d f6bc 335f 02bd 7821 1bbd 9777 963c
00000310: 2a8a 0bbd 5dfc 9bbc 28e8 cbbc bb40 393c
00000320: 0359 4cbd 4435 9abc e9e5 953b ea87 0e3c
00000330: f9b9 c0bc 6029 a03c ec79 efbc 9530 2fbd
00000340: 3fbb 83bb 84c1 dfbc 914b 0e3d 725b 0ebd
00000350: fd54 9bbb bc3e c03c 9b98 2ebd ba90 153d
00000360: e16a a1bc c15f 30bc d1c8 e4bc 512e 7dbc
00000370: 7ad2 afbc 5736 36bd 124a 703c a324 1abb
00000380: 18e1 493d a5eb 0d3d 0799 323d 7e79 903c
00000390: d3f1 de3c 68e6 4a3d cfe9 3c3d daa2 09bd
000003a0: 3d1d f3bb 4d49 38bd 5054 a13b 63b8 50bc
000003b0: 3d4e 443d 0a0e 3a3c 5120 3b3b 5f81 07bd
000003c0: b0e3 1dbd fa9b 303c 97c1 b2bc 05c0 a6bc
000003d0: 2459 1a3d d021 e3bc 3590 c6bc a0ad 273d
000003e0: 95ba b53c f61a eabc bdac 543c 02a4 ef3c
000003f0: fe11 26bd 8625 3b3c 8489 7a3c 3f7d 42bb

encoder.fc1.bias f4 [120]
-0.02519497 0.021055697 -0.013346505 0.027322218 0.023193425 0.030556507 -0.003536211 -0.01960606
0.004700466 -0.015152286 0.01426156 -0.002463466 -0.0047452236 0.048409328 -0.04027491 0.044068262
0.020403681 -0.029055757 0.03601142 -0.014964198 -0.037747804 -0.012559086 0.007033485 -0.037427068
0.0044378224 0.021959087 -0.039890427 0.022262484 0.016815512 0.05169995 0.049095064 -0.009134342
-0.019669479 -0.0461056 -0.024272755 0.007116219 0.024526702 0.035495777 0.018315336 -0.004996574
0.014297843 0.031619564 0.03796313 0.032857906 -0.027714228 -0.023111893 -0.011593032 -0.005821495
-0.04379884 0.042667452 0.037458606 0.041849148 0.017482148 0.054771435 0.00091409497 -0.010087892
0.0019088602 0.014198909 0.0115885325 0.0005036429 0.005099774 -0.029827401 -0.00077557564 0.026762428
0.0032534127 -0.047038335 -0.005381059 -0.011976852 0.034440007 0.032785464 -0.025995782 0.020040942
0.00831907 -0.037663355 -0.017782336 0.010125234 0.029789338 -0.020619687 0.010465812 0.016103191
-0.04163514 -0.009942313 0.016025491 0.02064341 0.013613691 -0.021784643 -0.013866066 0.02542693
0.01825392 -0.011017921 0.052401803 0.006320771 -0.04119535 0.004324327 -0.01085099 -0.011149328
-0.0011611549 -0.012852626 -0.026392192 0.028220583 0.037189752 -0.03393619 0.005945246 0.019181129
0.0015352719 -0.003937789 -0.014926981 -0.0058496343 -0.040356964 0.045330226 0.045688752 0.027637005
-0.019620646 -0.012809627 0.015645966 0.03150094 -0.0039250543 -0.0069933394 -0.048069615 -0.041006207
00000000: af65 cebc ff7c ac3c 4dab 5abc d8d2 df3c
00000010: 2300 be3c a451 fa3c c7bf 67bb e39c a0bc
00000020: 5e06 9a3b 4b41 78bc 51a9 693c 1a72 21bb
00000030: d27d 9bbb dc48 463d 4ef7 24bd ec80 343d
00000040: 9f25 a73c 5706 eebc b680 133d 652c 75bc
00000050: 719d 1abd a0c4 4dbc 2679 e63b 204d 19bd
00000060: 276b 913b 8be3 b33c 2564 23bd d05f b63c
00000070: afc0 893c 54c3 533d e817 493d 35a8 15bc
00000080: e321 a1bc 3ad9 3cbd a8d7 c6bc 2c2f e93b
00000090: 39ec c83c 0564 113d 0b0a 963c 4dba a3bb
000000a0: 8041 6a3c 8483 013d 3a7f 1b3d 0396 063d
000000b0: f308 e3bc 2755 bdbc b3f0 3dbc 3dc2 bebb
000000c0: 6a66 33bd 11c4 2e3d 326e 193d 036a 2b3d
000000d0: b936 8f3c 0358 603d e09f 6f3a b047 25bc
000000e0: b832 fa3a 8aa2 683c d4dd 3d3c e706 043a
000000f0: 011c a73b 9858 f4bc 0050 4bba e13c db3c
00000100: 3537 553b 45ab 40bd 9853 b0bb 8f3a 44bc
00000110: f710 0d3d 0d4a 063d 1bf5 d4bc e72c a43c
00000120: b54c 083c e444 1abd 43ac 91bc 4fe4 253c
00000130: c508 f43c 9eea a8bc cc78 2b3c d7ea 833c
00000140: 9c89 2abd 15e5 22bc e447 833c 5e1c a93c
00000150: f50b 5f3c b575 b2bc 7f2e 63bc 234c d03c
00000160: 3f89 953c 8384 34bc 46a3 563d 781e cf3b
00000170: 75bc 28bd 16b3 8d3b 5ac8 31bc acab 36bc
00000180: e531 98ba d293 52bc 7034 d8bc da2e e73c
00000190: 4854 183d ad00 0bbd 57d0 c23b be21 9d3c
000001a0: 2d3b c93a 9108 81bb 4c90 74bc 4aae bfbb
000001b0: 584d 25bd 30ac 393d 2124 3b3d 0067 e23c
000001c0: 7abb a0bc 78df 51bc f82b 803c 2107 013d
000001d0: be9d 80bb 6228 e5bb a5e4 44bd 20f6 27bd

encoder.fc2.weight f4 [84, 120]
0.006317255 -0.004053874 -0.00828823 0.08013945 0.029845646 -0.06837829 -0.06441568 0.021643005
0.055824704 -0.08423018 0.033475395 -0.040741008 0.034564655 -0.047548935 0.076762915 0.08540208
-0.06362499 -0.080737755 0.02635383 0.07283716 0.040047698 -0.04450512 0.07747473 -0.09034978
0.07614226 -0.032888535 -0.006312184 -0.00016238523 -0.025236603 -0.020877851 0.022486849 0.017616088
0.010578066 0.089612156 -0.008979276 -0.056518327 -0.079976335 0.06920312 -0.066053696 0.04605731
-0.053209487 -0.060946334 0.014400409 0.06936586 -0.082204126 0.0599858 -0.090838864 -0.018388087
-0.025879234 -0.06476152 -0.07073686 -0.038057048 -0.07307359 0.0009313808 -0.061019246 -0.042476926
-0.04553456 0.026845427 -0.026198052 0.053009275 0.055635765 -0.067136094 -0.015496624 -0.09099907
0.043696467 -0.019891592 0.023516975 0.0300756 0.08093201 -0.009102659 -0.027004352 0.08614443
-0.0071848007 0.016722359 0.0090209115 -0.048125964 0.05263191 -0.07548237 0.04564743 0.044454288
0.059609458 -0.06450763 0.0640959 0.08433813 -0.0015186206 -0.086412326 -0.0043166806 -0.00049184595
-0.07985887 -0.005655363 -0.030158153 -0.08275717 0.05929819 0.02402865 -0.038894873 0.08284801
0.0046383278 0.0050420165 0.0112392735 -0.07542028 -0.038529295 0.012305072 -0.03375326 0.04749854
0.0024243412 0.01931974 0.08836621 -0.039159942 -0.012296812 -0.053534508 -0.0798837 0.020834116
0.06496436 0.030898038 -0.07174893 0.05909735 -0.08335889 -0.06390875 0.08307482 -0.041898552
-0.047555745 -0.033153888 -0.04380465 0.027420986 -0.048116542 -0.09092515 -0.026697738 0.011298925
0.0037564707 0.0059347637 -0.09185898 -0.025712093 -0.053871274 -0.021750223 -0.051586896 -0.0013175743
-0.01455044 -0.08193122 0.038682282 0.030460387 0.023936694 0.034453996 -0.0018661792 0.020228894
-0.08916044 0.056114655 0.07439439 -0.034046613 0.07789155 -0.027539903 0.03462285 -0.033152442
-0.0510722 -0.044189904 0.06298947 -0.028447753 -0.07118024 0.008421046 -0.059551112 -0.057406932
-0.051630795 -0.05147198 -0.058521286 0.034472983 -0.03239867 0.021960702 0.073823735 0.025650712
0.09241034 0.07718005 0.012875707 0.04437362 0.08877839 -0.064396665 -0.055579353 0.063876115
0.049032055 0.028387507 0.014770592 -0.0506285 0.03653699 -0.0057416046 0.003719538 0.08343321
0.050484296 0.00078564545 -0.018155169 -0.05433126 0.03843649 0.08720753 -0.04386811 -0.064389035
0.056005355 -0.079031594 0.083336994 0.014982485 0.083485804 0.011504552 0.023888348 -0.08554063
-0.009529708 0.070863485 -0.035550192 0.072421975 -0.009536627 -0.04534075 -0.043219604 -0.06917773
0.024686882 -0.050234586 0.03885078 -0.025009621 0.048039854 0.06593727 -0.06709938 -0.0539944
0.06242177 -0.022536281 -0.0767972 -0.049681764 -0.08478832 -0.056078374 0.0003084077 0.06769437
0.016423563 0.0072565507 -0.003073943 -0.054031618 0.046351463 0.061518006 0.032092217 0.07587141
0.089127995 0.01106478 -0.04822307 0.0690403 0.012036848 -0.01637164 -0.013430049 0.009094143
-0.041355174 0.052290063 -0.069355555 0.006985819 -0.08989695 0.036284555 -0.04380772 -0.007341428
0.07003828 0.015415634 0.0033532984 0.036455188 0.009657599 0.0579103 0.010958196 0.057211157
00000000: fa00 cf3b 5cd6 84bb 5bcb 07bc 2720 a43d
00000010: db7e f43c eb09 8cbd 5eec 83bd ac4c b13c
00000020: 72a8 643d df80 acbd 7f1d 093d 0be0 26bd
00000030: ab93 0d3d acc2 42bd e035 9d3d 49e7 ae3d
00000040: d24d 82bd d659 a5bd fde3 d73c a62b 953d
00000050: 0e09 243d 004b 36bd 12ab 9e3d 4e09 b9bd
00000060: 79f0 9b3d 21b6 06bd 70d6 cebb f445 2ab9
00000070: febc cebc 0708 abbc 5736 b83c 9d4f 903c
00000080: a04f 2d3c 9486 b73d d01d 13bc c37f 67bd
00000090: a2ca a3bd 5eba 8d3d 2947 87bd 97a6 3c3d
000000a0: 31f2 59bd dda2 79bd b1ef 6b3c b00f 8e3d
000000b0: a35a a8bd acb3 753d ba09 babd 9da2 96bc
000000c0: b000 d4bc b0a1 84bd 7dde 90bd b5e1 1bbd
000000d0: 9ba7 95bd e827 743a 51ef 79bd 49fc 2dbd
000000e0: 7282 3abd f1ea db3c 4c9d d6bc 4120 593d
000000f0: 54e2 633d a67e 89bd 8de5 7dbc b85d babd
00000100: 11fb 323d b1f3 a2bc aca6 c03c 1b61 f63c
00000110: afbf a53d 5223 15bc 3b38 ddbc 7e6c b03d
00000120: 7a6e ebbb 54fd 883c 72cc 133c bb1f 45bd
00000130: 8f94 573d 8096 9abd cdf8 3a3d b315 363d
00000140: 0c29 743d 941c 84bd b644 833d 78b9 ac3d
00000150: 740c c7ba f2f8 b0bd f172 8dbb 39ef 00ba
00000160: 0c8d a3bd a050 b9bb 3b0e f7bc 977c a9bd
00000170: a9e2 723d bbd7 c43c 3b50 1fbd 38ac a93d
00000180: 1dfd 973b 8037 a53b ee24 383c f375 9abd
00000190: e5d0 1dbd 369b 493c dc40 0abd d48d 423d
000001a0: b2e1 1e3b 6e44 9e3c 58f9 b43d 2d66 20bd
000001b0: 9178 49bc 0047 5bbd 119a a3bd 4fac aa3c
000001c0: 090c 853d e21d fd3c 1af1 92bd 1010 723d
000001d0: 11b8 aabd 97e2 82bd 2223 aa3d d19d 2bbd
000001e0: d0c9 42bd 5fcc 07bd 816c 33bd faa1 e03c
000001f0: da15 45bd f736 babd 37b5 dabc 201f 393c
00000200: 1f2f 763b 6878 c23b 9020 bcbd 2ba2 d2bc
00000210: 20a8 5cbd 862d b2bc c84c 53bd 75b2 acba
00000220: f864 6ebc 8ecb a7bd 5071 1e3d 1088 f93c
00000230: e316 c43c a21f 0d3d 959a f4ba 11b7 a53c
00000240: c099 b6bd 7bd8 653d 165c 983d 7674 0bbd
00000250: 9b85 9f3d 5d9b e1bc b1d0 0d3d dbca 07bd
00000260: 1531 51bd 7900 35bd a000 813d 430b e9bc
00000270: f2c6 91bd 6df8 093c deeb 73bd 8823 6bbd
00000280: d07a 53bd 48d4 52bd 04b4 6fbd 8b33 0d3d
00000290: 78b4 04bd eee6 b33c e630 973d 7121 d23c
000002a0: a241 bd3d 9310 9e3d a1f4 523c 1dc1 353d
000002b0: 72d1 b53d 66e2 83bd 2da7 63bd 7bd1 823d
000002c0: d6d5 483d eb8c e83c 5a00 723c d45f 4fbd
000002d0: d0a7 153d 1224 bcbb 7ec3 733b 08df aa3d
000002e0: 9fc8 4e3d c6f3 4d3a 26ba 94bc 758a 5ebd
000002f0: 956f 1d3d dd99 b23d 0caf 33bd 66de 83bd
00000300: df65 653d 51db a1bd 96ac aa3d 1979 753c
00000310: 9bfa aa3d 977d 3c3c 7fb1 c33c ed2f afbd
00000320: 7e22 1cbc e020 913d 149d 11bd f951 943d
00000330: 833f 1cbc 39b7 39bd 0a07 31bd 0ead 8dbd
00000340: 253c ca3c c8c2 4dbd ff21 1f3d fae0 ccbc
00000350: 70c5 443d 1f0a 873d 666b 89bd 3b29 5dbd
00000360: f8ad 7f3d 029e b8bc da47 9dbd 1b7f 4bbd
00000370: 80a5 adbd 70b2 65bd c8b1 a139 59a3 8a3d
00000380: b58a 863c 5cc8 ed3b 3574 49bb 4250 5dbd
00000390: 08db 3d3d 4efa 7b3d 2173 033d 7862 9b3d
000003a0: bd88 b63d 0d49 353c 8e85 45bd 0065 8d3d
000003b0: 3336 453c d11d 86bc b509 5cbc 9aff 143c
000003c0: 0b64 29bd 1b2e 563d 490a 8ebd 4ce9 e43b
000003d0: e41b b8bd 1d9f 143d b96f 33bd 5d90 f0bb
000003e0: 3b70 8f3d db91 7c3c 03c3 5b3b 0952 153d
000003f0: e83a 1e3c 5a33 6d3d 018a 333c 3f56 6a3d

encoder.fc2.bias f4 [84]
-0.09030702 0.06599035 0.07108659 0.040747225 0.010427662 0.003366363 0.010843192 0.061475545
0.06646508 -0.047665894 0.02873729 -0.010310016 0.057969313 -0.04077904 0.05733623 0.024992013
0.01166755 0.003137698 0.054417353 0.0815759 0.09330631 -0.015114303 0.09138636 0.081611894
0.073784746 0.038661595 -0.09274595 -0.07556106 -0.08182757 -0.058051974 -0.0835066 0.02868321
0.09332637 -0.047313236 0.0397278 0.023821766 0.02726052 0.013485391 0.030882368 0.01984654
0.029923024 0.038795207 -0.09199565 -0.08680293 0.025019044 -0.088686086 0.021543194 0.035412993
-0.07469372 0.058386244 -0.06417313 -0.06579518 0.036724225 0.07059499 -0.00083146186 -0.028248388
0.0072294883 -0.044041224 -0.07408872 -0.045788895 -0.019356467 -0.040272515 0.081807196 0.05901587
0.00676964 0.067519605 -0.04499893 0.056309026 -0.061605867 -0.0905842 0.030368887 0.028440954
-0.004855544 0.044250302 0.009243969 0.031052314 0.0004797122 -0.07999275 -0.09071093 -0.023418387
0.006748976 -0.06526038 0.027333867 -0.039971564
00000000: e3f2 b8bd f325 873d d995 913d 90e6 263d
00000010: c9d8 2a3c 339e 5c3b a5a7 313c c8cd 7b3d
00000020: d81e 883d 503d 43bd 776a eb3c 57eb 28bc
00000030: 3b71 6d3d ec07 27bd 65d9 6a3d 0dbc cc3c
00000040: 4029 3f3c d6a1 4d3b bbe4 5e3d 4411 a73d
00000050: 6117 bf3d fba1 77bc c628 bb3d 2324 a73d
00000060: 751c 973d 9f5b 1e3d 97f1 bdbd c2bf 9abd
00000070: 3795 a7bd e8c7 6dbd 8205 abbd 0df9 ea3c
00000080: e521 bf3d 86cb 41bd 9eb9 223d dd25 c33c
00000090: 7451 df3c d4f1 5c3c 05fd fc3c 3695 a23c
000000a0: 2121 f53c b9e7 1e3d 3768 bcbd bcc5 b1bd
000000b0: bdf4 cc3c 0da1 b5bd 5a7b b03c 370d 113d
000000c0: 05f9 98bd 6a26 6f3d 346d 83bd a0bf 86bd
000000d0: 246c 163d 1b94 903d 76f6 59ba 2a69 e7bc
000000e0: 58e5 ec3b 9264 34bd d4bb 97bd 238d 3bbd
000000f0: 7491 9ebc cbf4 24bd 888a a73d a0ba 713d
00000100: dbd3 dd3b b847 8a3d cc50 38bd 4ba4 663d
00000110: 6f56 7cbd 3684 b9bd 2cc8 f83c 01fd e83c
00000120: 411b 9fbb ce3f 353d 0474 173c 6c61 fe3c
00000130: e281 fb39 3dd3 a3bd a7c6 b9bd ebd7 bfbc
00000140: 8426 dd3b 3ca7 85bd 46eb df3c 39b9 23bd

bottleneck.fc.weight f4 [16, 84]
-0.02123221 0.043924917 -0.010582535 -0.08410518 0.017896654 -0.10383205 0.096738316 -0.063055985
0.059836302 -0.012703664 -0.020325365 0.084775954 -0.069888204 -0.08161777 -0.09903263 -0.06920243
0.09705578 -0.039250422 0.05646212 -0.0054321834 -0.042790323 -0.059583336 0.10920237 -0.0885338
0.037782263 -0.0019160181 -0.023219658 0.10467798 0.036632996 -0.10387868 0.0023982187 -0.002866896
0.08670803 -0.07684531 0.046585083 0.024228795 0.06335877 -0.030945884 0.07979702 -0.035622224
-0.025268737 0.09051219 -0.048846733 0.036627583 -0.04564188 0.048863973 0.10909097 -0.08901109
0.08197865 -0.028335769 -0.05551686 -0.039951887 0.0032284353 0.011238269 0.06259006 0.05703913
-0.05944255 0.06792857 -0.10604748 0.028859999 0.06450511 -0.03029557 -0.061229624 -0.0067409542
0.05797351 -0.057182938 0.04174079 0.02327048 -0.055002697 0.022894634 0.018999651 0.08221413
0.015797103 0.026587944 -0.051088154 -0.09422452 0.072902866 0.012602772 0.027380953 -0.0627405
-0.011537987 -0.003789622 -0.09493129 0.011002316 0.024880474 -0.06804804 0.09573804 0.10857905
0.07664748 -0.07380596 0.067115776 0.029778393 -0.07888732 -0.07963515 0.017991096 0.100984864
0.096944846 0.09424089 -0.020006254 -0.053898305 0.06699695 0.017875701 0.071699634 0.010348938
0.052063335 0.08516825 -0.033095017 -0.059980474 0.029593943 0.006166875 -0.043685395 0.1037204
0.101249605 0.09231576 -0.0069469837 -0.07051805 0.02741613 0.048517123 -0.05654343 -0.06668921
-0.059693635 -0.028195104 -0.03416474 -0.058052033 0.02688023 0.054841574 -0.010250438 0.003565308
0.035218474 -0.10049933 0.032443095 0.045425598 0.06720755 0.102419786 -0.045506775 -0.072783455
0.04711271 -0.10512005 -0.060674954 0.026700173 0.01120971 0.0032414508 -0.05290923 0.04552741
-0.10346301 0.08211803 0.025841845 -0.10773185 -0.073450595 -0.09414662 -0.0890648 -0.05887611
0.0027377363 0.019049058 -0.06941095 0.057291433 0.007845527 0.028287495 0.08678267 0.04401639
0.06338607 -0.0068090986 0.073310524 0.07105644 0.024185048 0.08740066 -0.08885921 0.072635874
-0.055890076 -0.09516342 0.09451675 -0.040190175 -0.03394624 0.055691957 0.06868387 0.08741839
0.10101405 -0.034838635 -0.045615487 -0.0073811314 0.04098618 0.019606281 0.00049684674 0.07368187
0.03620088 0.0130328005 -0.0134578245 0.05283167 0.10034359 0.101910956 0.035016883 0.026305273
0.038863126 -0.09134913 0.021769885 -0.057086676 -0.031993177 0.031632453 -0.037258472 -0.08985661
0.013865575 -0.0053672562 0.09383872 0.05168369 -0.010071662 0.0518085 -0.05455465 0.09359794
0.08541772 0.06410686 -0.047953323 0.006286974 -0.009515464 -0.076659076 -0.055464208 -0.06784032
-0.09213233 0.0750345 0.062266815 -0.009229144 -0.016211903 -0.091954194 -0.04027079 0.076359466
-0.016482608 -0.084376656 -0.00034138947 0.0021714852 0.026748993 0.080147706 -0.0455437 -0.04861559
-0.06607536 0.084036954 0.07072865 -0.021854784 0.041356727 0.0687981 -0.028636586 -0.012389842
0.020360012 -0.10775041 -0.029425213 0.022165127 -0.026209392 -0.030422216 -0.08464228 -0.027334617
-0.082653835 -0.08896074 0.09099064 0.019218246 0.067686774 -0.02406846 -0.07136287 0.09193554
00000000: 2cef adbc 9dea 333d 5e62 2dbc 563f acbd
00000010: 019c 923c e6a5 d4bd bd1e c63d 7f23 81bd
00000020: e916 753d 0723 50bc 6181 a6bc 049f ad3d
00000030: 8c21 8fbd 3827 a7bd 9fd1 cabd 01ba 8dbd
00000040: 2ec5 c63d 0dc5 20bd d344 673d 7500 b2bb
00000050: e844 2fbd a80d 74bd 7ea5 df3d 3551 b5bd
00000060: 93c1 1a3d e622 fbba 2737 bebc 6961 d63d
00000070: 7b0c 163d 58be d4bd 6f2b 1d3b 89e2 3bbb
00000080: fb93 b13d 1361 9dbd 00d0 3e3d 777b c63c
00000090: 3ec2 813d 3982 fdbc 9f6c a33d 9ce8 11bd
000000a0: 6200 cfbc 745e b93d 8313 48bd ce06 163d
000000b0: fbf2 3abd 9725 483d 166b df3d 724b b6bd
000000c0: 6ce4 a73d 6a20 e8bc a665 63bd 97a4 23bd
000000d0: 2894 533b b720 383c 382f 803d dda1 693d
000000e0: 087a 73bd 221e 8b3d 6c2f d9bd ce6b ec3c
000000f0: 411b 843d 6a2e f8bc eacb 7abd 39e3 dcbb
00000100: a275 6d3d a838 6abd 64f8 2a3d bca1 be3c
00000110: 824a 61bd 878d bb3c 28a5 9b3c e25f a83d
00000120: ed68 813c f6ce d93c d041 51bd c9f8 c0bd
00000130: 194e 953d db7b 4e3c 054e e03c 177e 80bd
00000140: d309 3dbc 4f5b 78bb 566b c2bd 0f43 343c
00000150: 23d2 cb3c c55c 8bbd 4e12 c43d b15e de3d
00000160: 5bf9 9c3d 9427 97bd ff73 893d d1f1 f33c
00000170: ad8f a1bd c117 a3bd 1062 933c 27d1 ce3d
00000180: 058b c63d 5e01 c13d 28e4 a3bc 78c4 5cbd
00000190: b235 893d 1070 923c 42d7 923d 988e 293c
000001a0: 5d40 553d b16c ae3d a48e 07bd 16ae 75bd
000001b0: ff6e f23c 7f13 ca3b 75ef 32bd 5c6b d43d
000001c0: f45b cf3d 0c10 bd3d 86a3 e3bb c46b 90bd
000001d0: cb97 e03c e4b9 463d 159a 67bd 5a94 88bd
000001e0: 5081 74bd 6bf9 e6bc 54f0 0bbd f8c7 6dbd
000001f0: ee33 dc3c 8fa1 603d 74f1 27bc f1a7 693b
00000200: 3f41 103d 98d2 cdbd 0de3 043d 3110 3a3d
00000210: 1da4 893d 77c1 d13d 5065 3abd 7e0f 95bd
00000220: 42f9 403d 2e49 d7bd 4d86 78bd 52ba da3c
00000230: eea8 373c 856e 543b 59b7 58bd f37a 3a3d
00000240: 6ae4 d3bd 7f2d a83d 47b2 d33c 84a2 dcbd
00000250: 446d 96bd f1cf c0bd 9b67 b6bd 1328 71bd
00000260: 986b 333b c50c 9c3c 5427 8ebd 6caa 6a3d
00000270: 868a 003c 2dbb e73c 1dbb b13d 884a 343d
00000280: 8ed0 813d dc1e dfbb d423 963d 0a86 913d
00000290: b91f c63c 1eff b23d d1fb b5bd 1ec2 943d
000002a0: feec 64bd 0ae5 c2bd ff91 c13d 749e 24bd
000002b0: 360b 0bbd 401d 643d 21aa 8c3d 6a08 b33d
000002c0: 74e0 ce3d f5b2 0ebd 4ed7 3abd 6bdd f1bb
000002d0: 20e1 273d 5a9d a03c d23e 023a 85e6 963d
000002e0: 6047 143d 8787 553c 357e 5cbc 0566 583d
000002f0: f180 cd3d b1b6 d03d dd6d 0f3d 287e d73c
00000300: f12e 1f3d 4115 bbbd c256 b23c b8d3 69bd
00000310: 470b 03bd 0891 013d 579c 18bd be06 b8bd
00000320: 702c 633c cfdf afbb 842e c03d 47b2 533d
00000330: 9d03 25bc 2635 543d b274 5fbd 47b0 bf3d
00000340: 7cef ae3d 754a 833d b46a 44bd f602 ce3b
00000350: c0e6 1bbc 6fff 9cbd 702e 63bd deef 8abd
00000360: e0af bcbd b0ab 993d 7d0b 7f3d d635 17bc
00000370: d3ce 84bc 7b52 bcbd fcf2 24bd 5a62 9c3d
00000380: 8906 87bc abcd acbd 85fc b2b9 7a4f 0e3b
00000390: b420 db3c 7b24 a43d 088c 3abd 2421 47bd
000003a0: 8552 87bd 911b ac3d 2fda 903d ce08 b3bc
000003b0: ac65 293d 05e6 8c3d 4697 eabc c4fe 4abc
000003c0: 0aca a63c 3fac dcbd 250d f1bc a493 b53c
000003d0: 14b5 d6bc 0338 f9bc ef58 adbd d9ec dfbc
000003e0: 6a46 a9bd 0c31 b6bd 4d59 ba3d 956f 9d3c
000003f0: 5d9f 8a3d 382b c5bc b226 92bd b348 bc3d

bottleneck.fc.bias f4 [16]
-0.052410934 -0.034212623 -0.024530359 -0.0063165035 -0.073021255 -0.0021372486 0.013849298 -0.03286732
-0.058234025 0.081309706 0.04173919 0.02361727 0.010504097 0.052637376 -0.06611849 0.04873706
00000000: d9ac 56bd 8922 0cbd e4f3 c8bc acfa cebb
00000010: 2b8c 95bd 1511 0cbb 2ae8 623c e29f 06bd
00000020: cd86 6ebd b485 a63d b7f6 2a3d 0179 c13c
00000030: 6019 2c3c 4a9a 573d 2269 87bd 83a0 473d

decoder.fc3.weight f4 [84, 16]
0.09004167 0.1145449 0.116763376 -0.17205185 0.106224746 -0.20638376 0.035646655 -0.124860615
0.015778154 -0.19607633 0.11401725 0.12726967 -0.02868554 -0.07851094 -0.17797643 -0.13157554
0.026971005 -0.07462358 -0.18340659 -0.24090624 -0.0784753 -0.009098586 -0.102310196 -0.066811
0.20304503 -0.13282622 0.17413804 0.02515905 -0.08218229 -0.11339907 -0.09785321 -0.028153537
-0.14993694 0.17970586 0.030186336 -0.13806283 -0.2427369 -0.11259412 0.15153319 -0.07934214
0.09007296 -0.09047846 0.14803967 0.06954426 -0.0010328591 0.007367757 0.2123915 -0.19498774
0.08287473 0.16087146 -0.07648738 0.14618249 0.04035592 -0.06820373 0.13142231 0.030697657
0.04855121 -0.098454975 -0.14872785 -0.16124733 0.06925154 -0.052473206 -0.08988729 -0.12028652
-0.11454174 -0.13142842 0.10512927 0.14734167 -0.22788921 -0.0030780137 0.07025319 0.20189285
0.17891946 -0.07920849 0.0012969971 -0.047522604 -0.19601378 0.12026122 0.06339106 -0.11966914
0.08976896 -0.077141486 -0.041286062 -0.1076077 0.04777482 -0.031048262 0.07202703 -0.027259357
0.008700602 0.01395631 0.04191858 0.060164586 -0.16260144 -0.15799081 0.08926672 0.23097177
-0.143641 0.20539737 -0.20509419 -0.11471608 -0.0011209846 -0.19529262 -0.058107227 -0.20503503
0.09422356 -0.18787009 0.020320505 0.05353734 -0.07147047 0.24915361 0.24722877 0.21066517
0.24520746 0.009034395 0.051169425 -0.027656436 0.07901728 0.20675725 -0.23081386 -0.009087235
0.24292365 -0.060035437 -0.09250441 0.2108806 0.0027117133 -0.22740528 0.039453357 -0.11211783
-0.12891302 -0.123318166 -0.02984932 -0.06027782 0.16920507 0.16727361 -0.03492713 -0.10241267
0.16379267 0.10085195 0.07100555 -0.13281316 0.018001646 -0.017084837 0.20060804 0.059848666
0.012948364 -0.24770376 -0.09555313 0.09571865 -0.1104095 -0.14866325 -0.23593307 -0.20375061
0.055471092 0.07903716 -0.11289999 -0.19261798 0.20631826 0.18076244 0.19787785 -0.12809524
-0.02678755 0.0012690425 -0.18947822 -0.051870406 -0.15131709 0.21132839 -0.0361301 -0.24988955
-0.10108128 0.13967705 -0.08923152 0.17482981 -0.117669284 -0.09348491 -0.13096303 -0.03448832
0.14191079 0.11868076 0.1828273 0.11032061 -0.11703524 -0.23946266 -0.22463381 -0.05736932
-0.025578463 -0.104458995 -0.16101778 -0.18947656 0.12372312 -0.056430418 -0.12665361 0.0055264593
-0.21776295 0.16332662 0.17747672 0.010341613 0.22129518 -0.20705941 0.00016743098 0.22980747
-0.20161453 -0.12422392 -0.17695287 -0.12535706 0.23818302 -0.044943772 -0.009906948 -0.10306818
-0.13515314 0.06490747 -0.17555165 0.016123198 0.14650553 -0.10096225 0.01592298 0.14117514
0.2078674 -0.048966542 0.17346376 0.18242344 -0.23283029 -0.20602037 0.11337218 0.14220025
0.16448379 0.10728039 -0.10485963 -0.08155534 0.03923163 0.18423231 -0.020462306 -0.2092138
-0.14043926 -0.16360296 -0.09688756 0.2060449 0.05004722 0.10004507 -0.13962775 0.2222251
0.1890102 0.24665621 0.034892097 0.02361084 0.12964138 -0.07945683 -0.13180086 0.1017881
-0.19858746 0.15165448 0.010374355 0.03272773 0.02126968 0.09788491 -0.020930588 0.0029184865
00000000: c467 b83d 8496 ea3d a321 ef3d 5c2e 30be
00000010: 5c8c d93d 4456 53be 3a02 123d ecb6 ffbd
00000020: 3041 813c 3cc8 48be e081 e93d fb52 023e
00000030: f0fd eabc 58ca a0bd 743f 36be bdbb 06be
00000040: 4cf2 dc3c 3fd4 98bd f0ce 3bbe 20b0 76be
00000050: a8b7 a0bd 3c12 15bc 0288 d1bd 35d4 88bd
00000060: 09eb 4f3e 9903 08be 3e51 323e 5a1a ce3c
00000070: 304f a8bd c63d e8bd 4467 c8bd 3fa2 e6bc
00000080: 1289 19be d004 383e 5649 f73c 5860 0dbe
00000090: 0690 78be bf97 e6bd 842b 1b3e 227e a2bd
000000a0: 2c78 b83d c54c b9bd b697 173e 396d 8e3d
000000b0: 0061 87ba 3a6d f13b 287d 593e deaa 47be
000000c0: 3aba a93d 7dbb 243e 6aa5 9cbd ddb0 153e
000000d0: 404c 253d 66ae 8bbd 9293 063e a779 fb3c
000000e0: a2dd 463d c3a2 c9bd 1d4c 18be 051e 25be
000000f0: c0d3 8d3d 25ee 56bd d416 b8bd c758 f6bd
00000100: dc94 eabd 2c95 06be 044e d73d bce0 163e
00000110: ca5b 69be 80b8 49bb e8e0 8f3d 00bd 4e3e
00000120: aa36 373e 1038 a2bd 0000 aa3a 10a7 42bd
00000130: d6b7 48be 844b f63d 2cd3 813d 1815 f5bd
00000140: cad8 b73d 5bfc 9dbd 931b 29bd 6d61 dcbd
00000150: 88af 433d ed58 febc e882 933d 044f dfbc
00000160: f88c 0e3c 02a9 643c d1b2 2b3d 246f 763d
00000170: fe80 26be 58c8 21be 78d1 b63d dd83 6c3e
00000180: a016 13be b053 523e 3604 52be 44f0 eabd
00000190: 00ee 92ba cafa 47be d801 6ebd b4f4 51be
000001a0: 48f8 c03d 0461 40be 3077 a63c f849 5b3d
000001b0: 1c5f 92bd 2022 7f3e 8a29 7d3e 9cb8 573e
000001c0: aa17 7b3e 0005 143c 0897 513d c08f e2bc
000001d0: d0d3 a13d 2cb8 533e 785a 6cbe a0e2 14bc
000001e0: fac0 783e b8e7 75bd f472 bdbd 16f1 573e
000001f0: 00b7 313b eedc 68be d899 213d 089e e5bd
00000200: c601 04be 3c8e fcbd 9086 f4bc e0e5 76bd
00000210: 1844 2d3e c649 2b3e c00f 0fbd bcbd d1bd
00000220: 44b9 273e 788b ce3d 5c6b 913d 2c00 08be
00000230: 3078 933c 80f5 8bbc 326c 4d3e e023 753d
00000240: 6025 543c 0ea6 7dbe 5cb1 c3bd 2408 c43d
00000250: 601e e2bd 2e3b 18be 7098 71be 00a4 50be
00000260: a835 633d 3cde a13d 1c38 e7bd a63d 45be
00000270: 1845 533e ca19 393e 7ea0 4a3e 662b 03be
00000280: 9071 dbbc 0056 a63a 9406 42be 1076 54bd
00000290: def2 1abe 7866 583e 28fd 13bd 0ce3 7fbe
000002a0: b403 cfbd 8007 0f3e 04bf b6bd 9606 333e
000002b0: 98fc f0bd 0475 bfbd 2c1b 06be a043 0dbd
000002c0: 1051 113e e60e f33d 1437 3b3e c6ef e13d
000002d0: 2cb0 efbd b335 75be 6806 66be 18fc 6abd
000002e0: ed89 d1bc 99ee d5bd d8e1 24be 2506 42be
000002f0: 8c62 fd3d 9523 67bd 7cb1 01be 4d17 b53b
00000300: 40fd 5ebe 183f 273e 75bc 353e de6f 293c
00000310: 349b 623e 6207 54be 6990 2f39 a652 6b3e
00000320: 0a74 4ebe 1c69 febd 2233 35be 9a5d 00be
00000330: 40e6 733e f616 38bd c050 22bc 6915 d3bd
00000340: 9665 0abe 35ee 843d d0c3 33be cc14 843c
00000350: 8c05 163e 4cc5 cebd e970 823c 3790 103e
00000360: 31db 543e 2491 48bd 7ca0 313e 36cd 3a3e
00000370: 106b 6ebe 01f7 52be ac2f e83d f19c 113e
00000380: 706e 283e d2b5 db3d a5c0 d6bd 7c06 a7bd
00000390: 58b1 203d 65a7 3c3e 91a0 a7bc 243c 56be
000003a0: 4fcf 0fbe 8987 27be fc6c c6bd 6ffd 523e
000003b0: 50fe 4c3d 6ee4 cc3d 94fa 0ebe fa8e 633e
000003c0: e48b 413e 7293 7c3e 04eb 0e3d 856b c13c
000003d0: b6c0 043e 43ba a2bd cef6 06be 4876 d03d
000003e0: 835a 4bbe 504b 1b3e 33f9 293c 830d 063d
000003f0: c03d ae3c e277 c83d a076 abbc 1444 3f3b

decoder.fc3.bias f4 [84]
-0.00716798 0.23142274 0.18801557 0.13128692 -0.036554605 0.1481049 -0.099098444 -0.20839816
-0.15508565 -0.20926207 -0.1516518 0.0733928 0.16350718 -0.0160695 0.15403853 0.019138487
-0.18844688 0.16323556 -0.17111006 -0.008267999 0.16291268 0.1559461 -0.08615506 -0.07752586
-0.07183224 0.138401 -0.05425793 -0.1504178 -0.007135995 0.2091939 0.119831495 -0.0075216466
-0.012764367 0.14945573 -0.21137273 -0.21400362 0.010277934 -0.044241875 -0.074758954 -0.10437274
0.08505197 0.19032435 -0.089062594 -0.041532427 -0.10830051 -0.22819158 -0.025054483 -0.043013185
0.081332885 -0.17723006 0.12535986 -0.22602117 -0.046678156 -0.16176015 0.025854493 -0.014159245
-0.08936259 0.21308479 -0.22608209 -0.096954316 0.14975555 -0.089356124 0.17746161 -0.23097336
-0.17849943 0.1413295 -0.09652826 -0.15415081 -0.1962204 -0.16862667 0.19905344 -0.05493951
-0.15446815 0.24345933 -0.056935515 0.102481574 0.18065257 -0.20975414 0.23372525 -0.081133276
-0.20154646 0.23501624 0.15263148 0.24321833
00000000: 60e1 eabb 15fa 6c3e 2787 403e 1470 063e
00000010: 48ba 15bd d0a8 173e 20f4 cabd 5466 55be
00000020: c6ce 1ebe cc48 56be 9c4a 1bbe f74e 963d
00000030: 6d6e 273e 2fa4 83bc 47bc 1d3e 51c8 9c3c
00000040: 38f8 40be 3927 273e 7a37 2fbe 8076 07bc
00000050: 95d2 263e 56b0 1f3e 1072 b0bd e1c5 9ebd
00000060: c81c 93bd feb8 0d3e 903d 5ebd 2007 1abe
00000070: 11d5 e9bb ed36 563e 376a f53d 2578 f6bb
00000080: a321 51bc ec0a 193e 1872 58be c423 5bbe
00000090: c864 283c f836 35bd 391b 99bd 60c1 d5bd
000000a0: ba2f ae3d 63e4 423e 7366 b6bd e81d 2abd
000000b0: a8cc ddbd 0eab 69be 0f3f cdbc 982e 30bd
000000c0: db91 a63d cc7b 35be 565e 003e 1872 67be
000000d0: 9831 3fbd 74a4 25be cdcc d33c 2efc 67bc
000000e0: bc03 b7bd e632 5a3e 1082 67be fc8f c6bd
000000f0: 8559 193e 5800 b7bd 7fb8 353e 4884 6cbe
00000100: 8ec8 36be aeb8 103e 9cb0 c5bd b6d9 1dbe
00000110: 00ee 48be 78ac 2cbe aad4 4b3e 4008 61bd
00000120: e62c 1ebe 674d 793e 3735 69bd dce1 d13d
00000130: fdfc 383e cac9 56be ac55 6f3e 3429 a6bd
00000140: 3262 4ebe 19a8 703e 6d4b 1c3e 3a0e 793e

decoder.fc2.weight f4 [120, 84]
-0.10621196 -0.10016264 -0.063858055 0.005965373 -0.108756356 -0.10261205 -0.043030396 0.081428565
0.00057293655 -0.077478334 -0.08135833 -0.0710779 -0.0816311 -0.04888533 0.05377402 -0.009217899
-0.10327701 -0.09770929 -0.098803945 0.10681059 0.0890625 0.09868451 0.059396826 -0.07358358
-0.046812423 -0.032122366 0.037064813 -0.011871788 -0.020687 0.08521577 0.022864806 0.0017400791
-0.024891384 0.079137854 0.013504557 0.0777585 -0.065937966 -0.014711848 0.09183335 0.07614204
0.102017 -0.035874464 0.05365487 0.05878988 0.055397835 0.048765406 -0.022288311 0.08725829
0.005968308 -0.024328023 0.021797907 0.030728213 0.08730189 -0.052645646 0.011423892 -0.0038471678
0.02349075 0.033368386 -0.07445713 -0.085864134 -0.01204622 -0.039127693 0.044756815 -0.026964372
-0.07619438 -0.03154279 -0.023885362 0.032969832 0.1069365 0.079509564 -0.031427015 0.04615324
0.0902549 -0.038323678 -0.100359544 -0.0517703 0.09768672 -0.052645236 0.013127569 0.057488002
-0.07231872 -0.020872038 0.002037472 0.07997679 -0.055805728 0.091913894 0.025694361 -0.014059154
0.06540622 0.08977279 -0.025401786 0.003154201 0.0140273655 -0.10787555 -0.02325028 0.105197735
-0.05488953 0.042370964 -0.07596329 0.10095276 -0.088110015 -0.033737715 -0.068380274 -0.10268105
-0.08452582 0.043077324 -0.048249595 -0.014867605 0.051901452 -0.028526189 -0.009492584 0.08957916
0.031013519 -0.08746071 -0.08162312 0.051261827 -0.08590747 0.05726094 0.024167597 -0.022684444
0.01867549 -0.0881195 0.08077341 -0.04609601 0.07000285 0.07671051 -0.03232225 -0.09689646
-0.04157111 0.043422773 -0.074668504 0.09876313 -0.07395673 -0.017396063 -0.08614376 0.004563852
-0.056925185 -0.0076444866 0.07484454 0.105950505 0.012500718 0.025042942 0.0017506112 0.10463453
0.03621936 -0.045342878 0.05702755 -0.021915743 0.098946445 -0.05906713 -0.0489038 0.052445643
-0.071848564 -0.099797145 0.018143615 -0.02073483 0.10615781 0.0040845387 -0.0012810268 0.031678673
0.1034001 -0.018954016 -0.043887895 -0.030118963 -0.029720824 0.09081408 0.0152785545 -0.04816409
-0.074527755 0.030413775 -0.09079339 0.07807565 0.06851 -0.06676069 -0.00061050017 0.051779773
-0.055463415 -0.07856068 -0.004824027 0.09161826 -0.07298494 -0.008142075 0.073539235 0.076372795
-0.03431104 0.08377174 -0.043719262 -0.011775616 0.008711473 0.0033429686 0.028796861 0.078315586
-0.029743977 -0.007829261 -0.08490572 0.06942231 -0.07200524 -0.058125414 0.05469063 -0.047590334
0.033145774 0.016519014 -0.03585361 0.031508077 -0.07076122 -0.018490948 0.105230466 0.10314856
0.09033838 -0.098593965 -0.062122937 -0.059382923 0.07049682 -0.0074923723 -0.006570437 -0.08799464
0.03519007 -0.028494257 -0.04602243 -0.042048343 -0.081978425 0.077750266 -0.0014700936 0.0051573263
-0.10583534 -0.08713332 0.086445026 -0.043275744 0.049731422 0.09200874 -0.031184388 0.0011069437
0.022608874 0.041527733 -0.011546839 0.10788517 0.08597672 -0.07155454 0.02230929 0.013093725
0.018172346 -0.05976673 -0.099966414 0.041896332 -0.06376559 0.055685077 0.04150267 0.08096209
-0.043213896 -0.018150548 -0.00932689 0.030792078 -0.040241327 -0.04624741 -0.10331894 -0.098057345
00000000: a885 d9bd 1222 cdbd 03c8 82bd 2d79 c33b
00000010: a7bb debd 4426 d2bd a440 30bd 05c4 a63d
00000020: 1f31 163a f6ac 9ebd 329f a6bd 4a91 91bd
00000030: 352e a7bd fc3b 48bd 2642 5c3d ac06 17bc
00000040: e682 d3bd cf1b c8bd b959 cabd 83bf da3d
00000050: 6666 b63d 1b1b ca3d 164a 733d fdb2 96bd
00000060: 62be 3fbd be92 03bd 46d1 173d e381 42bc
00000070: c977 a9bc 9b85 ae3d f94e bb3c 5e13 e43a
00000080: 04e9 cbbc 0713 a23d 3842 5d3c d93f 9f3d
00000090: 7c0a 87bd f709 71bc 2013 bc3d 5cf0 9b3d
000000a0: 4aee d03d 1af1 12bd 35c5 5b3d a8cd 703d
000000b0: d7e8 623d 3cbe 473d fa95 b6bc 79b4 b23d
000000c0: cc91 c33b 904b c7bc 8691 b23c bcb9 fb3c
000000d0: 55cb b23d f6a2 57bd 472b 3b3c c420 7cbb
000000e0: ac6f c03c 4aad 083d fb7c 98bd 89d9 afbd
000000f0: 825d 45bc 5c44 20bd ec52 373d 63e4 dcbc
00000100: cd0b 9cbd 0333 01bd 3cab c3bc 600b 073d
00000110: 8601 db3d e9d5 a23d 9db9 00bd 2e0b 3d3d
00000120: 90d7 b83d 4af9 1cbd 4e89 cdbd 180d 54bd
00000130: fa0f c83d 88a2 57bd 0415 573c 8a78 6b3d
00000140: d61b 94bd d6fb aabc 1c87 053b dfca a33d
00000150: 8c94 64bd 5a3d bc3d fb7c d23c 5e58 66bc
00000160: b2f3 853d ccda b73d 6817 d0bc b6b6 4e3b
00000170: 09d3 653c dbed dcbd 5f77 bebc e971 d73d
00000180: d8d3 60bd 2d8d 2d3d a492 9bbd 52c0 ce3d
00000190: 0673 b4bd 8f30 0abd f50a 8cbd 714a d2bd
000001a0: e01b adbd d971 303d 5ea1 45bd 4197 73bc
000001b0: 9e96 543d c1af e9bc c886 1bbc 4775 b73d
000001c0: 1010 fe3c 9a1e b3bd 062a a7bd ecf7 513d
000001d0: 41f0 afbd 738a 6a3d 20fb c53c bad4 b9bc
000001e0: 57fd 983c ff77 b4bd 886c a53d 2bcf 3cbd
000001f0: a75d 8f3d 661a 9d3d 5664 04bd a771 c6bd
00000200: 7846 2abd 14dc 313d cdeb 98bd 5344 ca3d
00000210: a076 97bd 3082 8ebc 246c b0bd 5e8c 953b
00000220: 622a 69bd 9a7e fabb 1848 993d 94fc d83d
00000230: d0cf 4c3c db26 cd3c c474 e53a a14a d63d
00000240: c05a 143d 74b9 39bd b895 693d a588 b3bc
00000250: 6fa4 ca3d 60f0 71bd 5a4f 48bd 3ed1 563d
00000260: 5725 93bd 7262 ccbd eba1 943c 17dc a9bc
00000270: 4469 d93d 98d7 853b 20e8 a7ba 7fc1 013d
00000280: 6ec3 d33d 7445 9bbc cbc3 33bd 0bbc f6bc
00000290: 1679 f3bc bbfc b93d e752 7a3c b547 45bd
000002a0: 02a2 98bd 4f26 f93c e3f1 b9bd 20e6 9f3d
000002b0: f94e 8c3d d4b9 88bd f909 20ba 0717 543d
000002c0: 9b2d 63bd 6ce4 a0bd df12 9ebb 5ba2 bb3d
000002d0: 2179 95bd 5666 05bc bd9b 963d 5769 9c3d
000002e0: bc89 0cbd 8590 ab3d f812 33bd 83ee 40bc
000002f0: 91ba 0e3c b515 5b3b 65e7 eb3c ec63 a03d
00000300: a4a9 f3bc 4d46 00bc 0de3 adbd 492d 8e3d
00000310: 7c77 93bd ea14 6ebd 4803 603d 15ee 42bd
00000320: ddc3 073d e252 873c 3cdb 12bd 9d0e 013d
00000330: 42eb 90bd 547a 97bc 1283 d73d 8d3f d33d
00000340: 5403 b93d a2eb c9bd 9f74 7ebd 823b 73bd
00000350: a360 903d 9382 f5bb d24c d7bb 8936 b4bd
00000360: 7623 103d ca6c e9bc 0482 3cbd e23a 2cbd
00000370: 4ee4 a7bd 883b 9f3d 28b0 c0ba cafe a83b
00000380: 33c0 d8bd f472 b2bd 170a b13d e841 31bd
00000390: 2db3 4b3d 146f bc3d 6776 ffbc de16 913a
000003a0: 3f36 b93c fc18 2a3d f42e 3dbc e6f2 dc3d
000003b0: 9014 b03d 308b 92bd f9c1 b63c 1087 563c
000003c0: 2cde 943c f5cd 74bd 31bb ccbd 7d9b 2b3d
000003d0: 8997 82bd 0916 643d b4fe 293d 74cf a53d
000003e0: 0e01 31bd 75b0 94bc d0cf 18bc ab3f fc3c
000003f0: 17d4 24bd ed6d 3dbd e198 d3bd 4ad2 c8bd
