tutorials/W1D2_ComparingTasks/RR/models/ConvNet_autoencoder_10000_epoch_9.pth (torch, 506506 bytes, 19 tensors)

encoder.conv1.weight f4 [6, 1, 5, 5]
0.07480899 0.15298358 0.11648297 0.04394633 0.07612005 0.02051953 -0.12440765 0.039999984
0.24793929 -0.00027544977 -0.07478718 -0.07090892 0.14217219 0.11986399 0.009343954 0.04937167
0.07004993 -0.0790569 0.063334204 -0.067848116 -0.21231449 0.04222891 0.22074236 -0.044841595
-0.06061783 -0.16490462 0.08898447 0.025395267 -0.059429187 0.04232119 -0.2456036 -0.10002659
0.07620673 0.025458975 0.0159864 -0.20253207 0.05319892 -0.036560655 0.26134107 0.036440294
-0.17394859 0.06992001 0.2015252 0.2453603 0.29749992 0.10713506 -0.17413078 -0.08400837
-0.057907652 0.27367255 -0.16685763 -0.13900451 -0.14631075 -0.19200076 -0.28757492 -0.15171796
-0.1333954 -0.049800225 -0.104943134 -0.10219641 -0.12106247 -0.0020481113 -0.111162834 -0.11206238
0.1663784 -0.14502923 -0.14797817 -0.06598482 -0.110569134 -0.053356104 0.30264306 0.27266446
0.049526554 0.20820484 0.26766378 0.1440005 0.09986854 -0.03280894 -0.0011154833 0.0018395651
-0.0469627 -0.051234163 -0.15418163 0.097562596 0.07915016 0.14329834 0.23490997 0.13092734
0.030903447 0.086833544 -0.06724724 0.23634556 0.039958082 0.2270522 0.08935028 0.17436677
-0.11751883 0.089292474 0.08030714 0.06659381 0.1893703 0.15376402 0.15249485 -0.012277212
-0.26248202 -0.09122801 0.036765277 0.25348482 -0.07777712 -0.24168934 0.028521815 0.23368849
0.09222076 0.16976784 -0.11896215 0.26646852 0.2676184 -0.15555774 -0.14904681 -0.22064714
0.05467606 0.08374603 -0.01885698 -0.029433945 -0.107573345 0.14059216 0.034778554 -0.19008407
-0.09653387 0.08543012 -0.047297683 0.04966505 -0.13301425 0.015691299 0.25655162 0.11058594
0.13101837 0.10548851 0.09690155 0.25185233 0.1634696 0.13282026 0.05247967 0.09190468
0.13988899 -0.08595366 -0.167991 0.04951318 -0.09174505 -0.1255824
00000000: 7535 993d baa7 1c3e a08e ee3d 1101 343d
00000010: d4e4 9b3d 9318 a83c 70c9 febd 06d7 233d
00000020: cce3 7d3e 3e6a 90b9 052a 99bd b238 91bd
00000030: 9695 113e 407b f53d 6217 193c f339 4a3d
00000040: 5676 8f3d 96e8 a1bd 5db5 813d f4f3 8abd
00000050: f868 59be 39f8 2c3d 490a 623e d2ab 37bd
00000060: 674a 78bd c2dc 28be 7d3d b63d bc09 d03c
00000070: 056c 73bd fc58 2d3d 837f 7bbe beda ccbd
00000080: 4612 9c3d 578f d03c e9f5 823c 9164 4fbe
00000090: 1ce7 593d a0c0 15bd 7fce 853e 6b42 153d
000000a0: 941f 32be 3932 8f3d 9f5c 4e3e bb3f 7b3e
000000b0: e951 983e a069 db3d 574f 32be 950c acbd
000000c0: 9330 6dbd cf1e 8c3e badc 2abe 3357 0ebe
000000d0: 7cd2 15be d99b 44be 053d 93be f45b 1bbe
000000e0: ce98 08be 52fb 4bbd 6dec d6bd 5a4c d1bd
000000f0: 9aef f7bd 9b39 06bb 57a9 e3bd f680 e5bd
00000100: 195f 2a3e 8b82 14be 9787 17be 0d23 87bd
00000110: 1272 e2bd ee8b 5abd 08f4 9a3e ad9a 8b3e
00000120: 5bdc 4a3d a633 553e 3a0b 893e de74 133e
00000130: e187 cc3d ab62 06bd 6935 92ba 901d f13a
00000140: f65b 40bd eada 51bd cae1 1dbe e6ce c73d
00000150: 7b19 a23d cdbc 123e 3d8c 703e d111 063e
00000160: 3a29 fd3c c9d5 b13d ecb8 89bd 9204 723e
00000170: 16ab 233d 5f80 683e 48fd b63d 348d 323e
00000180: b6ad f0bd f9de b63d 1278 a43d 5662 883d
00000190: 4aea 413e 5174 1d3e 9c27 1c3e 5c26 49bc
000001a0: 0b64 86be c0d5 babd 3097 163d c3c8 813e
000001b0: 9c49 9fbd 697d 77be 95a6 e93c 094c 6f3e
000001c0: 3dde bc3d 9fd7 2d3e 6da2 f3bd 906e 883e
000001d0: 4705 893e 874a 1fbe ba9f 18be 53f1 61be
000001e0: 01f4 5f3d 0a83 ab3d f479 9abc 751f f1bc
000001f0: 6a4f dcbd 64f7 0f3e f573 0e3d 66a5 42be
00000200: 8db3 c5bd fdf5 ae3d 37bb 41bd 946d 4b3d
00000210: e334 08be 0a8b 803c bc5a 833e e27a e23d
00000220: ae29 063e 5c0a d83d 5274 c63d caf2 803e
00000230: 9364 273e 0902 083e ecf4 563d 8538 bc3d
00000240: 0f3f 0f3e 7908 b0bd d505 2cbe 55ce 4a3d
00000250: d4e4 bbbd ac98 00be

encoder.conv1.bias f4 [6]
0.27069747 0.12577097 0.2476492 0.18354982 0.2072404 0.248145
00000000: dc98 8a3e 1bca 003e c097 7d3e 7cf4 3b3e
00000010: d436 543e b919 7e3e

encoder.conv2.weight f4 [16, 6, 5, 5]
0.03130682 0.076903515 -0.019831674 -0.032504644 -0.04686356 0.024351563 0.07161598 0.088453025
0.08377437 0.07927309 0.057994578 -0.017502833 0.047744926 -0.087410636 0.01211873 0.04409176
-0.06763185 0.061041478 -0.014840835 -0.053229146 0.07148954 0.0812827 0.02922848 0.08197887
-0.004591141 0.09892497 0.032431662 0.032626558 0.032930885 -0.03574193 -0.085791126 -0.01062675
-0.14726946 -0.15733448 0.017742977 -0.020212984 0.0020647058 0.03382177 0.01723314 0.040900085
0.06460426 0.05663668 -0.040370196 -0.021974364 -0.07737055 0.091305 0.048420914 -0.094407
-0.079851285 -0.017127026 0.08781177 0.06435798 0.02514542 -0.11618611 -0.034064732 -0.008422717
-0.13968213 -0.1833376 -0.18610346 -0.01680593 -0.053733807 0.0050318674 -0.010638411 0.005728746
0.1323441 0.000654673 0.014771914 -0.102959044 -0.13885145 -0.09010854 -0.00022543946 0.015324363
-0.061698396 -0.047129564 0.111845955 0.021069707 0.09032792 0.058503374 0.06520055 0.06109383
-0.029465774 -0.06230885 -0.072180256 -0.013616739 -0.06305155 0.051312044 0.06188507 0.034062907
-0.041266207 0.039012853 -0.037546013 0.046178635 0.07519492 -0.027517825 0.0094074765 0.03760791
0.092131495 0.033209037 -0.06858492 0.044275075 -0.019307135 -0.021804474 -0.032787528 -0.009749371
-0.09844203 -0.05655557 0.06254623 -0.04894174 -0.04112499 -0.12531422 -0.07910955 -0.052299786
0.04694308 -0.0073611336 0.011337293 0.03546143 -0.07543597 -0.0005953009 0.037879296 0.07166827
-0.017245313 -0.020140063 -0.03409691 0.009276481 0.05787252 0.032833856 0.08106515 0.075054936
0.00494166 0.026439674 0.0032559342 0.012249308 0.03354768 -0.05256569 0.05710456 -0.096468166
-0.027209984 0.021369329 0.0047053797 0.03105931 0.044600442 0.07504917 0.1144682 0.12789336
0.09126169 0.101379916 0.10051412 0.054065645 -0.106803305 0.022395575 -0.1040695 -0.09387374
-0.061582115 -0.09955915 -0.033721037 -0.029828042 0.08906501 -0.08996155 0.0077012302 0.056813207
0.037987024 -0.014749106 0.07335259 0.015022146 0.014712695 -0.00092215324 -0.0093726665 0.04069668
0.031397954 -0.0068067573 0.048807442 0.05233983 0.032686546 -0.018228158 -0.04592429 -0.039345663
0.023636715 -0.00058497116 0.02022871 -0.0053702225 0.03784267 -0.037115823 -0.02670429 -0.08472192
0.10926483 0.05443533 -0.063351735 0.009564505 0.028249204 0.059764 -0.020328088 -0.091604196
0.05908166 -0.07812187 -0.060713377 -0.033592615 0.03278517 0.077263996 0.07124496 0.030448891
0.05949659 0.05866222 0.007951005 0.119596764 -0.0013845905 0.14317732 0.06682833 0.061126236
0.015007524 0.013459468 -0.06699786 -0.080756135 -0.02906586 -0.051198345 -0.028178096 -0.04705155
0.10280955 0.12585767 -0.13424489 -0.14162812 -0.04966346 0.059822913 -0.025288098 -0.15231562
-0.075420074 0.070435174 0.0005013312 0.018474152 -0.0492756 0.005892694 0.12566783 0.036716428
0.06015648 0.01793668 0.09376602 0.07202863 -0.065248445 -0.06492238 0.026307 0.051906105
-0.05448829 0.018839436 -0.05673497 0.012711781 -0.084529445 -0.047065485 -0.06733847 -0.017771708
-0.023222271 0.067538746 -0.023444455 0.008689968 -0.04708766 0.013979721 -0.028078476 -0.06075817
00000000: 953b 003d 977f 9d3d 0976 a2bc 9723 05bd
00000010: 01f4 3fbd ee7c c73c 66ab 923d dc26 b53d
00000020: e691 ab3d ee59 a23d b98b 6d3d 1a62 8fbc
00000030: 2f90 433d 5904 b3bd a38d 463c 9099 343d
00000040: 9182 8abd a106 7a3d f926 73bc ce06 5abd
00000050: 1c69 923d 8b77 a63d 9170 ef3c 8ae4 a73d
00000060: 4871 96bb 2d99 ca3d 10d7 043d 6da3 053d
00000070: 89e2 063d 2166 12bd 42b3 afbd d21b 2ebc
00000080: cecd 16be 4a1c 21be b859 913c b395 a5bc
00000090: 0450 073b b288 0a3d 842c 8d3c d986 273d
000000a0: 3d4f 843d ddfb 673d 385b 25bd 9503 b4bc
000000b0: 7374 9ebd 1efe ba3d 0255 463d 7558 c1bd
000000c0: 1289 a3bd fa4d 8cbc a8d6 b33d 1ece 833d
000000d0: c5fd cd3c fcf2 edbd 7687 0bbd 70ff 09bc
000000e0: d508 0fbe dabc 3bbe e891 3ebe 97ac 89bc
000000f0: fb17 5cbd 5de2 a43b bb4c 2ebc 34b8 bb3b
00000100: 3685 073e 5c9e 2b3a e605 723c 31dc d2bd
00000110: 132f 0ebe d48a b8bd f263 6cb9 0913 7b3c
00000120: 75b7 7cbd ee0a 41bd 7e0f e53d 619a ac3c
00000130: d8fd b83d 3ca1 6f3d de87 853d 863d 7a3d
00000140: 3562 f1bc 9137 7fbd 3ed3 93bd be18 5fbc
00000150: 2c21 81bd 942c 523d 337b 7d3d 8c85 0b3d
00000160: c106 29bd f1cb 1f3d d9c9 19bd cf25 3d3d
00000170: cbff 993d 106d e1bc d121 1a3c c00a 1a3d
00000180: 70af bc3d 3306 083d 4076 8cbd c859 353d
00000190: ff29 9ebc 4c9f b2bc 374c 06bd d3bb 1fbc
000001a0: fa9b c9bd d0a6 67bd 3d18 803d 2277 48bd
000001b0: ad72 28bd 5f52 00be 3004 a2bd 4d38 56bd
000001c0: 6347 403d aa35 f1bb 0ec0 393c 0140 113d
000001d0: 2d7e 9abd f80d 1cba 5227 1b3d d0c6 923d
000001e0: 0b46 8dbc c6fc a4bc 34a9 0bbd 62fc 173c
000001f0: bc0b 6d3d cb7c 063d 7c05 a63d 67b6 993d
00000200: a6ed a13b 0498 d83c 8361 553b 52b1 483c
00000210: 4b69 093d 1f4f 57bd 79e6 693d 1a91 c5bd
00000220: 79e7 debc bb0e af3c 962f 9a3b 1870 fe3c
00000230: f4ae 363d 61b3 993d 4e6e ea3d 7af6 023e
00000240: 69e7 ba3d 46a0 cf3d 59da cd3d f073 5d3d
00000250: b1bb dabd ed76 b73c 6422 d5bd e040 c0bd
00000260: 873d 7cbd abe5 cbbd 121f 0abd f059 f4bc
00000270: b767 b63d c33d b8bd 9a5a fc3b f7b4 683d
00000280: 4898 1b3d 3ca6 71bc e239 963d 721f 763c
00000290: 840d 713c a8bc 71ba d08f 19bc 90b1 263d
000002a0: 249b 003d 380b dfbb 50ea 473d 4a62 563d
000002b0: 54e2 053d 3853 95bc 1c1b 3cbd eb28 21bd
000002c0: c9a1 c13c c058 19ba aeb6 a53c b1f8 afbb
000002d0: ea00 1b3d c306 18bd f5c2 dabc b082 adbd
000002e0: 3dc6 df3d 95f7 5e3d 8ebe 81bd 71b4 1c3c
000002f0: e06a e73c 19cb 743d 1787 a6bc fb9a bbbd
00000300: 9cff 713d 5cfe 9fbd 97ae 78bd 6998 09bd
00000310: be49 063d 963c 9e3d e1e8 913d f46f f93c
00000320: b2b2 733d cc47 703d ef44 023c 26ef f43d
00000330: 267b b5ba 139d 123e 4bdd 883d 815f 7a3d
00000340: 1ee2 753c 1a85 5c3c 2d36 89bd 7963 a5bd
00000350: 871b eebc 5bb5 51bd c0d5 e6bc 20b9 40bd
00000360: d08d d23d d5e0 003e 7e77 09be f606 11be
00000370: ea6b 4bbd df08 753d fc28 cfbc a0f8 1bbe
00000380: d775 9abd 5140 903d c46b 033a 1b57 973c
00000390: 36d5 49bd 8017 c13b 11af 003e f763 163d
000003a0: a466 763d f2ef 923c 6608 c03d bf83 933d
000003b0: faa0 85bd 06f6 84bd c781 d73c 7f9b 543d
000003c0: 1d2f 5fbd 2955 9a3c ee62 68bd 1345 503c
000003d0: c61d adbd bdc7 40bd c0e8 89bd f995 91bc
000003e0: a23c bebc c151 8a3d 960e c0bc 5e60 0e3c
000003f0: fdde 40bd 330b 653c d504 e6bc 8fdd 78bd

encoder.conv2.bias f4 [16]
-0.05246169 0.09117419 0.07165992 -0.014437273 0.0280787 -0.07212826 0.07616221 0.07313206
0.058085103 -0.013161672 0.008168974 0.013537564 0.003810522 -0.00012372732 -0.009392644 -0.08074475
00000000: 12e2 56bd 89b9 ba3d 70c2 923d 508a 6cbc
00000010: 4d05 e63c fbb7 93bd effa 9b3d 43c6 953d
00000020: a5ea 6d3d 0ea4 57bc 29d7 053c a9cc 5d3c
00000030: f3b9 793b cdbc 01b9 9be3 19bc 815d a5bd

encoder.fc1.weight f4 [120, 400]
0.029406507 0.008007499 0.016313609 -0.035526473 -0.0040307287 -0.045879997 -0.00065019797 -0.032959778
-0.039463244 0.034510832 -0.045988485 -0.03260788 0.017921345 -0.027236346 -0.032022156 -0.03374277
0.016456274 -0.031182658 -0.027140783 0.02866884 0.014654586 0.034720916 0.009242697 -0.036469862
-0.02811051 -0.012418967 -0.017156418 0.035422552 -0.013007739 0.005582535 -0.048335057 0.022082156
0.012159658 0.028034698 -0.052903876 0.03574227 -0.0037730916 -0.014608459 -0.020342542 -0.017032925
-0.037542176 -0.031744376 0.008488101 -0.007877414 -0.026971886 0.020067569 -0.05039703 -0.05449652
-0.0078677945 -0.038029402 0.038981445 -0.038405467 0.025744619 -0.02889044 -0.011756136 -0.021246722
0.03590961 0.011307782 -0.04100309 -0.050398555 -0.010050141 0.033420164 0.00302227 -0.020391911
0.010766483 0.0111545315 -0.037976317 0.024095269 0.012115669 -0.054063767 -0.02955839 0.030494593
-0.031623185 -0.049096238 0.03217696 -0.014314562 -0.00017121137 -0.008847025 0.031077372 -0.01695429
-0.028665677 0.005311639 -0.02432129 0.026087081 0.028575487 -3.219556e-05 -0.04164922 -0.053047653
0.015613118 -0.032164887 0.0024119008 -0.020690419 -0.0046600956 -0.0291928 -0.022453826 -0.017995927
0.022632312 0.006196774 -0.031714775 -0.016088681 0.019565575 0.009009014 0.01462604 -0.016198218
-0.047772903 -0.013113723 0.021357428 -0.042968985 0.043204375 -0.04193462 0.031376924 -0.021941585
0.03334794 0.024467018 -0.050139483 -0.016510088 -0.05247383 -0.04156598 -0.012664675 0.021991873
-0.015496843 -0.024461448 0.032024935 0.014955943 -0.0062027103 -0.022643851 0.00957413 0.0021314328
0.03178952 -0.041316036 -0.049670413 -0.054121386 -0.013985449 0.033548534 -0.0054011364 -0.053844362
-0.012252918 -0.044635877 0.020675419 -0.044328842 0.025310004 -0.060287945 -0.022606855 -0.026063623
-0.038799766 -0.044323556 -0.050895583 -0.052076098 0.003561354 -0.040267445 -0.035080284 -0.021891927
-0.014729217 0.021877533 -0.04353244 -0.035942476 -0.009929686 0.008506623 -0.04854039 -0.032122213
-0.014863441 -0.016238503 -0.007363475 0.015001919 -0.021094548 -0.054665405 0.0015513599 0.012305631
-0.013498221 -0.033315845 -0.04462203 -0.013901619 0.032372676 -0.039146777 -0.05288159 -0.013015948
-0.0015752763 -0.04682994 -0.04452649 -0.006090595 -0.055778358 0.03233403 -0.0005164307 0.009988565
-0.032089178 -0.010947715 -0.05756798 -0.00860519 0.040895235 -0.04514283 -0.00087079644 -0.04390928
-0.028222414 -0.05277017 -0.049123373 0.034535192 -0.044458795 -0.054496396 0.03305777 -0.013006871
0.010825751 -0.013944084 -0.042278577 -0.023830459 0.011992447 0.029587813 -0.04138485 0.007973988
-0.039052706 0.03641931 0.039303824 -0.03671296 0.013294871 -0.04447316 -0.041695014 -0.023823299
0.028089052 -0.011659228 -0.008380936 -0.00994185 -0.04314019 -0.020126594 0.008551533 -0.0007589358
0.011764448 -0.006966482 -0.019719703 0.020779906 0.02956437 -0.005547678 -0.030567637 0.008952927
0.0195544 0.038698733 -0.027345354 0.034782745 0.0012026512 -0.02532552 0.014121989 -0.0058351997
-0.017123569 -0.028559951 0.02518936 0.028903965 -0.010271421 -0.010057705 -0.022192731 -0.051042262
-0.009786127 -0.044977617 0.036431596 0.038108077 -0.03621979 0.022237709 -0.043693412 -0.039673556
00000000: eae5 f03c e331 033c 1ea4 853c 3584 11bd
00000010: 3414 84bb aaec 3bbd 0c72 2aba d500 07bd
00000020: 36a4 21bd 3b5b 0d3d 6c5e 3cbd d78f 05bd
00000030: c9cf 923c c21e dfbc aa29 03bd dc35 0abd
00000040: 4fcf 863c c672 ffbc 5956 debc eada ea3c
00000050: ca19 703c 8537 0e3d ae6e 173c 6c61 15bd
00000060: 0348 e6bc ec78 4bbc 9e8b 8cbc 3d17 113d
00000070: 691e 55bc b3ed b63b fbfa 45bd a3e5 b43c
00000080: 4d39 473c 06a9 e53c bcb1 58bd 7d66 123d
00000090: f945 77bb 5158 6fbc 67a5 a6bc a288 8bbc
000000a0: d3c5 19bd 6406 02bd ad11 0b3c 4510 01bc
000000b0: 25f4 dcbc be64 a43c 1e6d 4ebd be37 5fbd
000000c0: ece7 00bc b8c4 1bbd 02ab 1f3d 0d4f 1dbd
000000d0: 61e6 d23c a5ab ecbc cf9c 40bc 9b0d aebc
000000e0: f515 133d 4644 393c dbf2 27bd b76e 4ebd
000000f0: 59a9 24bc 95e3 083d 4711 463b f00c a7bc
00000100: e765 303c 7fc1 363c 0e8d 1bbd 7163 c53c
00000110: cd80 463c f871 5dbd 7024 f2bc cccf f93c
00000120: 5087 01bd 2319 49bd fdcb 033d a087 6abc
00000130: 3487 33b9 1df3 10bc f995 fe3c b9e3 8abc
00000140: 48d4 eabc 420d ae3b 713d c7bc 93b4 d53c
00000150: 2417 ea3c b809 07b8 5f98 2abd 7f48 59bd
00000160: 2ace 7f3c 54bf 03bd fb10 1e3b f47e a9bc
00000170: b7b3 98bb bd25 efbc 16f1 b7bc 326c 93bc
00000180: 6667 b93c 4f0e cb3b 5ae7 01bd 69cc 83bc
00000190: fc47 a03c 8b9a 133c 0fa2 6f3c 20b2 84bc
000001a0: 85ad 43bd f1da 56bc c6f5 ae3c 3f00 30bd
000001b0: 12f7 303d a3c3 2bbd 1785 003d d7be b3bc
000001c0: d997 083d 0e6f c83c 0f5f 4dbd 2a40 87bc
000001d0: ccee 56bd 1741 2abd 7f7f 4fbc 4d28 b43c
000001e0: 78e6 7dbc 6063 c8bc 942c 033d c609 753c
000001f0: 1b40 cbbb 997f b9bc d0dc 1c3c 82af 0b3b
00000200: ba35 023d 013b 29bd 3473 4bbd 63ae 5dbd
00000210: 3a23 65bc 306a 093d 04fc b0bb e88b 5cbd
00000220: 77c0 48bc 1cd4 36bd 7f5f a93c 2992 35bd
00000230: ed56 cf3c 7ef0 76bd 0332 b9bc 6183 d5bc
00000240: 81ec 1ebd 9e8c 35bd e377 50bd bf4d 55bd
00000250: 9b65 693b 7aef 24bd 58b0 0fbd b356 b3bc
00000260: d052 71bc 8338 b33c 124f 32bd 6b38 13bd
00000270: 1fb0 22bc 5d5f 0b3c 4ad2 46bd 9592 03bd
00000280: ca85 73bc 9c06 85bc 4e49 f1bb 9cca 753c
00000290: 79ce acbc d5e8 5fbd 0057 cb3a 8f9d 493c
000002a0: a427 5dbc 3276 08bd 97c5 36bd 9ec3 63bc
000002b0: 3699 043d 5f58 20bd 5e9a 58bd d840 55bc
000002c0: 8079 ceba c0d0 3fbd 6961 36bd 9d93 c7bb
000002d0: d977 64bd b070 043d 1461 07ba 14a7 233c
000002e0: f16f 03bd 0b5e 33bc 67cc 6bbd c8fc 0cbc
000002f0: c381 273d b0e7 38bd 2946 64ba 38da 33bd
00000300: b132 e7bc 8925 58bd 9735 49bd c674 0d3d
00000310: 6d1a 36bd 9d37 5fbd 9667 073d c51a 55bc
00000320: 7e5e 313c ba75 64bc 4d2c 2dbd 1838 c3bc
00000330: f87b 443c 2462 f23c 2983 29bd 54a5 023c
00000340: bbf5 1fbd 6a2c 153d 0cfd 203d 5460 16bd
00000350: bbd2 593c 7d29 36bd 64c8 2abd 1429 c3bc
00000360: 031b e63c 5906 3fbc 3250 09bc 24e3 22bc
00000370: c5b3 30bd 87e0 a4bc bb1b 0c3c 52f3 46ba
00000380: acbf 403c 1647 e4bb 378b a1bc 9f3a aa3c
00000390: fa30 f23c 4cc9 b5bb fb68 fabc 4caf 123c
000003a0: 8d30 a03c 9082 1e3d 5d03 e0bc 5a78 0e3d
000003b0: 47a2 9d3a 7777 cfbc ea5f 673c 3435 bfbb
000003c0: ba46 8cbc 8ff6 e9bc eb59 ce3c 02c8 ec3c
000003d0: 7649 28bc 13c9 24bc 88cd b5bc b111 51bd
000003e0: fe55 20bc 733a 38bd 4c39 153d 3717 1c3d
000003f0: 345b 14bd db2b b63c ddf7 32bd bd80 22bd

encoder.fc1.bias f4 [120]
0.02159618 -0.035779707 -0.052173235 -0.03290118 -0.03591738 -0.05941651 0.0029999514 -0.0003641688
0.022105295 0.021399215 -0.014983807 -0.017154943 -0.03497142 0.046202775 0.038982157 -0.03510489
0.013702346 0.003415854 0.019696556 -0.012429143 0.032520436 -0.011836854 -0.024461664 0.050636895
-0.06436716 0.027761385 -0.050545342 -0.043353762 0.018575877 0.0067954874 0.049547363 -0.028648008
-0.04798415 -0.013463686 -0.01166315 0.041771073 0.003117061 -0.021381201 -0.02336894 0.014458464
-0.060853392 0.003088074 0.0016571308 -0.075082436 -0.057860684 -0.033310574 0.027214264 0.008176806
-0.013596125 -0.018967861 -0.015462064 -0.075554766 -0.02623433 -0.07524427 0.005323355 0.011313558
0.0065100766 0.019047579 -0.028508019 0.033253647 -0.041512147 -0.072151445 0.010506244 0.066088356
0.045199476 -0.027452769 -0.015044041 0.025150463 -0.033018664 -0.005104575 -0.06803298 0.082340464
-0.04088184 0.011577954 0.02311897 -0.004949083 0.0025195493 0.016592942 -0.062254727 -0.048840806
-0.007549474 -0.028302055 0.024477605 -0.04131497 0.031452537 -0.03554262 -0.03704384 0.039698526
0.014755339 0.0339674 0.041155875 -0.021374362 0.0012112383 -0.060168304 -0.031067608 0.013098014
0.01816455 -0.062625796 -0.065684915 -0.046682186 -0.007350711 -0.004190648 -0.039678052 -0.03073027
-0.0182806 -0.051656347 0.034539357 0.009941236 0.022144578 0.0009807248 0.030140253 0.036215555
0.012520535 0.07554503 -0.017626414 0.030253576 -0.0011275337 0.046433117 0.0056046676 -0.010163212
00000000: 79ea b03c be8d 12bd 9ab3 55bd 63c3 06bd
00000010: 1a1e 13bd ba5e 73bd d59a 443b e9ed beb9
00000020: 2a16 b53c 684d af3c a47e 75bc 8688 8cbc
00000030: 313e 0fbd 1f3f 3d3d c1ab 1f3d 25ca 0fbd
00000040: ce7f 603c 85dc 5f3b ac5a a13c 9ba3 4bbc
00000050: 2634 053d 5def 41bc d463 c8bc a268 4f3d
00000060: eed2 83bd d86b e33c a208 4fbd b793 31bd
00000070: 702c 983c aeac de3b 2df2 4a3d 3aaf eabc
00000080: 078b 44bd cb96 5cbc cc16 3fbc 2518 2b3d
00000090: 9b47 4c3b a127 afbc 3870 bfbc 32e3 6c3c
000000a0: 6841 79bd 4961 4a3b 1534 d93a d2c4 99bd
000000b0: 53ff 6cbd ab70 08bd 73f0 de3c 03f8 053c
000000c0: 48c2 5ebc 7d62 9bbc 9954 7dbc 75bc 9abd
000000d0: 61e9 d6bc ab19 9abd 8a6f ae3b 805c 393c
000000e0: 7b52 d53b ab09 9c3c a689 e9bc fa34 083d
000000f0: a408 2abd 23c4 93bd 6222 2c3c 5559 873d
00000100: 1623 393d a1e4 e0bc 487b 76bc 5808 ce3c
00000110: 943e 07bd 4744 a7bb e054 8bbd 1ea2 a83d
00000120: b773 27bd 75b1 3d3c ff63 bd3c eb2b a2bb
00000130: 061f 253b eced 873c d0fe 7ebd 4c0d 48bd
00000140: 9461 f7bb b6d9 e7bc 4285 c83c e339 29bd
00000150: 60d4 003d 2395 11bd 48bb 17bd ec9a 223d
00000160: 61c0 713c 6721 0b3d 1093 283d 4919 afbc
00000170: 6ac2 9e3a 0a73 76bd 7f81 febc 0d99 563c
00000180: d3cd 943c f441 80bd d085 86bd d235 3fbd
00000190: 3cde f0bb b451 89bb 7485 22bd 0cbe fbbc
000001a0: 32c1 95bc 9b95 53bd 2479 0d3d 91e0 223c
000001b0: 8c68 b53c aa8b 803a b1e8 f63c c356 143d
000001c0: ee22 4d3c 5ab7 9a3d 4565 90bc 59d6 f73c
000001d0: c1c9 93ba a730 3e3d 5ca7 b73b 9a83 26bc

encoder.fc2.weight f4 [84, 120]
0.025437105 0.037719864 0.07411121 0.012247128 0.07072388 0.016447447 0.037619065 -0.08727072
0.027535204 -0.012432597 0.04821796 0.08799684 -0.08026293 0.07992077 0.0134676425 -0.05215794
-0.030303217 0.057810158 0.069763795 0.08242191 0.041591387 0.0672442 -0.027256565 0.06409831
-0.077505924 -0.11864296 -0.04079138 0.07154147 0.05350518 0.04292057 -0.03732614 -0.022289624
-0.076658025 0.089871325 0.08595143 0.06550015 -0.03684914 -0.06912919 -0.06598454 -0.04780715
0.057384957 0.017309671 -0.03171198 -0.1048031 -0.08419918 -0.005719729 -0.03151902 0.085534625
0.043270584 0.03690487 -0.031030772 -0.03556123 0.027050946 0.06227564 -0.028404288 -0.008622762
0.061270695 0.03140896 -0.050840244 0.050033815 -0.025060514 -0.0013264751 -0.033653863 0.009762739
0.119229995 0.028520929 0.014912469 0.071696974 -0.08425931 0.020491594 0.036494594 -0.062251672
0.021683345 -0.011240207 -0.046655953 -0.008742507 -0.047572047 -0.016336175 0.022018384 -0.012721936
-0.07083897 0.03258691 0.11131993 -0.011091041 0.08388962 0.0072076516 0.099628374 0.11246169
0.025309462 -0.031893972 0.039583787 0.049165867 0.16391946 0.052733395 0.057439256 0.0034511595
0.001787571 0.07358802 -0.03824552 -0.07226998 0.036048353 0.06813952 0.09915968 -0.017847506
-0.062201127 -0.07717762 0.027797835 -0.007820149 -0.057442114 0.098902 -0.016266756 -0.036463883
0.07239088 0.08035064 -0.07275636 0.02189818 0.026564628 0.07874956 0.011558774 0.014160861
0.05804931 -0.10926701 -0.013478756 -0.032867488 0.0381111 0.04423109 -0.070759915 -0.07871969
0.086069554 -0.04290992 0.06052443 0.023975935 0.04545158 -0.0053411936 -0.045595653 0.015244297
-0.070093155 -0.06085853 0.0363911 0.005278536 -0.0483795 0.03142464 -0.04150958 -0.060093325
0.08329059 -0.084827095 0.058118418 0.023355331 -0.019330973 0.022955945 0.047600463 -0.00424372
-0.026867473 -0.015263966 -0.12057525 -0.118234165 -0.044930134 -0.09226521 -0.076107584 0.07022964
-0.10870046 0.09432226 -0.05406762 -0.10725788 0.040762138 0.043390915 0.015824506 0.05990592
0.07714893 0.06157579 -0.021904713 0.027809188 0.037732895 -0.035778385 0.016223429 -0.046728387
0.018892653 -0.048621923 0.027436603 0.050705206 0.070104055 -0.062707305 -0.051182114 -0.021202493
0.023164837 0.07194006 0.045915462 -0.020184224 -0.007770971 -0.027448246 -0.018985324 -0.006775069
-0.025337046 -0.0013205339 0.074205555 0.01560561 0.032277375 0.019813245 0.009624102 0.03644663
-0.038031835 -0.06899986 -0.12871799 0.07233046 -0.08646672 0.009499459 0.059051786 -0.082691975
0.042563792 -0.012679261 -0.10308632 0.025140433 -0.040121205 -0.0036344167 0.0738217 -0.05406885
0.032041803 -0.050057646 -0.0039805477 0.032056425 -0.062668994 -0.027368437 -0.0804628 -0.06465187
0.0387338 -0.060727414 -0.048994828 -0.0855588 0.01846517 -0.011543009 -0.05265095 -0.03932296
-0.058073226 -0.058800697 -0.042014685 0.055143468 0.019199522 0.088643186 -0.030394955 -0.06741058
0.019689508 -0.11191894 -0.07454867 0.051867943 0.06578997 0.082954474 -0.017324561 -0.004222212
-0.0078467475 -0.001032945 0.08075023 -0.070607975 -0.0025127486 -0.08917608 0.04304521 -0.051530547
00000000: 7a61 d03c 2580 1a3d 9ec7 973d 2ea8 483c
00000010: aed7 903d ccbc 863c 7316 1a3d feba b2bd
00000020: 8291 e13c 17b2 4bbc 3280 453d b037 b43d
00000030: e460 a4bd 80ad a33d 63a7 5c3c 90a3 55bd
00000040: 743e f8bc 58ca 6c3d 52e0 8e3d d1cc a83d
00000050: bb5b 2a3d 54b7 893d 2949 dfbc fa45 833d
00000060: 6dbb 9ebd 15fb f2bd dd14 27bd 5684 923d
00000070: 3f28 5b3d 7bcd 2f3d 4be3 18bd bb98 b6bc
00000080: e2fe 9cbd 750e b83d 4e07 b03d f124 863d
00000090: 20ef 16bd 9b93 8dbd e722 87bd 6ed1 43bd
000000a0: 7d0c 6b3d 03cd 8d3c 6ce4 01bd 02a3 d6bd
000000b0: 9f70 acbd 906c bbbb 171a 01bd c72c af3d
000000c0: 7f3c 313d 9029 173d 3f34 febc a7a8 11bd
000000d0: f299 dd3c be14 7f3d 1cb0 e8bc 7c46 0dbc
000000e0: fbf6 7a3d afa6 003d dc3d 50bd 42f0 4c3d
000000f0: b54b cdbc 1edd adba a2d8 09bd e5f3 1f3c
00000100: db2e f43d b9a4 e93c 6e53 743c ddd5 923d
00000110: 2590 acbd fddd a73c 5b7b 153d 9cfb 7ebd
00000120: 45a1 b13c d828 38bc 501a 3fbd bb3c 0fbc
00000130: e8da 42bd 71d3 85bc e65f b43c ab6f 50bc
00000140: 0614 91bd da79 053d b4fb e33d 33b7 35bc
00000150: 52ce ab3d 2a2e ec3b f609 cc3d 5152 e63d
00000160: ca55 cf3c 41a3 02bd 9c22 223d 2662 493d
00000170: 81da 273e f9fe 573d 6d45 6b3d d92c 623b
00000180: ee4c ea3a 51b5 963d 56a7 1cbd 4902 94bd
00000190: 70a7 133d bc8c 8b3d 3b14 cb3d ef34 92bc
000001a0: 9cc6 7ebd 4d0f 9ebd 49b8 e33c 1520 00bc
000001b0: 6c48 6bbd 228d ca3d dc41 85bc 275b 15bd
000001c0: ab41 943d e08e a43d 4901 95bd d063 b33c
000001d0: 109e d93c 7347 a13d 0361 3d3c f502 683c
000001e0: 1dc5 6d3d 62c7 dfbd 00d6 5cbc 0fa0 06bd
000001f0: 631a 1c3d a92b 353d 93ea 90bd ca37 a1bd
00000200: 3c45 b03d 50c2 2fbd 77e8 773d 2e69 c43c
00000210: 702b 3a3d 2e05 afbb 82c2 3abd 37c3 793c
00000220: 008d 8fbd cb46 79bd d60e 153d 92f7 ac3b
00000230: 9529 46bd 20b7 003d f305 2abd 6b24 76bd
00000240: 4294 aa3d d4b9 adbd 940d 6e3d ae53 bf3c
00000250: fd5b 9ebc 1b0e bc3c b4f8 423d e70e 8bbb
00000260: 2d19 dcbc b715 7abc 28f0 f6bd c124 f2bd
00000270: a908 38bd 8bf5 bcbd 4bde 9bbd 8fd4 8f3d
00000280: 599e debd 072c c13d 0276 5dbd 05aa dbbd
00000290: 33f6 263d acba 313d 65a2 813c e95f 753d
000002a0: 4200 9e3d e536 7c3d 8371 b3bc 18d0 e33c
000002b0: cf8d 1a3d 5b8c 12bd ffe6 843c 4466 3fbd
000002c0: c4c4 9a3c c827 47bd bac2 e03c 43b0 4f3d
000002d0: b792 8f3d b06c 80bd 56a4 51bd dab0 adbc
000002e0: 2fc4 bd3c 4f55 933d da11 3c3d 6359 a5bc
000002f0: a1a3 febb 25db e0bc 1c87 9bbc 6601 debb
00000300: a38f cfbc c415 adba 15f9 973d acae 7f3c
00000310: 4835 043d 634f a23c 69ae 1d3c 1049 153d
00000320: 45c7 1bbd cc4f 8dbd a6ce 03be fe21 943d
00000330: 7715 b1bd 9ea3 1b3c 49e0 713d 695a a9bd
00000340: 5f57 2e3d adbc 4fbc ec1e d3bd 4ff3 cd3c
00000350: 2256 24bd 652f 6ebb d52f 973d 4c77 5dbd
00000360: 443e 033d 3f09 4dbd 416f 82bb 994d 033d
00000370: 9a58 80bd c633 e0bc aec9 a4bd 3368 84bd
00000380: 55a7 1e3d 4fbd 78bd cdae 48bd 7439 afbd
00000390: 4544 973c e41e 3dbc 86a8 57bd 1d11 21bd
000003a0: 31de 6dbd 00d9 70bd 9717 2cbd 1ede 613d
000003b0: 5148 9d3c 8f8a b53d d7fe f8bc 8f0e 8abd
000003c0: e44b a13c c235 e5bd f9ac 98bd 7b73 543d
000003d0: e4bc 863d 09e4 a93d 3dec 8dbc 7b5a 8abb
000003e0: a58f 00bc e263 87ba 6060 a53d ea9a 90bd
000003f0: edac 24bb f3a1 b6bd 2d50 303d b211 53bd

encoder.fc2.bias f4 [84]
0.04671992 -0.10801745 -0.12402494 -0.0089399535 -0.03649893 -0.10633547 0.0115933055 -0.07387839
0.08399988 -0.054394685 -0.038755596 -0.034127742 0.031660043 -0.0105412705 0.056448407 -0.02033235
-0.058921207 -0.099543184 -0.08338624 0.005456926 -0.037451535 -0.039079174 -0.033487193 0.045984954
0.012917769 -0.0037202057 0.047541533 -0.006660868 -0.04440237 0.010289119 -0.05378626 0.12374448
-0.10717767 0.026905827 -0.045011047 0.10080408 -0.023679465 0.06039465 -0.038985096 -0.016896188
-0.0747323 0.052317765 -0.05191927 0.087752 -0.012495776 -0.0063028713 0.09223072 -0.030192185
-0.040561315 -0.034813903 -0.04764324 -0.09939738 -0.040775713 -0.026324578 0.010768577 0.064781696
-0.028851062 -0.123846285 0.082909025 0.038270492 0.028143592 -0.008687071 0.016021986 -0.10845983
0.018457254 -0.0831535 0.0008945802 0.1262124 0.0036752787 0.0010005666 0.003524794 0.029937727
-0.032289796 -0.041969713 -0.05158623 -0.007010467 0.064157866 0.0051847002 -0.06210704 0.058981832
-0.055406902 -0.028665658 -0.020386072 -0.0534344
00000000: 635d 3f3d 4138 ddbd ca00 febd e278 12bc
00000010: e77f 15bd 69c6 d9bd d9f1 3d3c 8e4d 97bd
00000020: 2108 ac3d f6cc 5ebd 30be 1ebd 88c9 0bbd
00000030: f6ad 013d 4bb5 2cbc 7236 673d 0790 a6bc
00000040: 5d57 71bd 4cdd cbbd 68c6 aabd 03d0 b23b
00000050: c866 19bd 7c11 20bd de29 09bd b85a 3c3d
00000060: 0da5 533c b2ce 73bb e9ba 423d 6943 dabb
00000070: 42df 35bd b193 283c fb4e 5cbd bf6d fd3d
00000080: f77f dbbd 9c69 dc3c 815d 38bd 5f72 ce3d
00000090: 70fb c1bc 6160 773d d6ae 1fbd e069 8abc
000000a0: 400d 99bd 274b 563d 4da9 54bd 52b7 b33d
000000b0: 15bb 4cbc 5188 cebb 76e3 bc3d 9a55 f7bc
000000c0: 9f23 26bd 0699 0ebd 8f25 43bd db90 cbbd
000000d0: 6f04 27bd a4a6 d7bc b06e 303c 44ac 843d
000000e0: 1059 ecbc 1fa3 fdbd 35cc a93d 85c1 1c3d
000000f0: 648d e63c 3754 0ebc 8a40 833c 3020 debd
00000100: ab33 973c 624c aabd 4382 6a3a d33d 013e
00000110: f2dc 703b 7225 833a 3b00 673b f73f f53c
00000120: 4e42 04bd 6fe8 2bbd 154c 53bd 0fb8 e5bb
00000130: 3365 833d 6be4 a93b f463 7ebd ef96 713d
00000140: 59f2 62bd 3ed4 eabc b100 a7bc 08de 5abd

bottleneck.fc.weight f4 [16, 84]
0.058161154 -0.0149290105 -0.033130683 -0.0058465996 0.16140793 -0.028463025 -0.03850565 -0.021092296
0.12181547 0.12716821 0.0333029 -0.13296811 -0.058178898 0.09262067 -0.08734114 -0.038905874
-0.06265578 -0.07394623 0.040608034 -0.00086573395 -0.01801533 0.10769806 0.062023766 0.09103134
0.03352604 -0.04158938 0.09284207 0.058308974 0.08362054 0.09908683 -0.114557415 -0.077145234
-0.1225425 0.12146162 -0.0033985598 -0.15168186 0.09640203 -0.043880377 -0.012660578 0.026151689
0.059034448 0.11639465 0.033134397 -0.046029706 -0.04538283 -0.03801431 0.08577095 0.05334825
0.11415454 -0.12303864 0.07958887 -0.07860166 0.105391614 -0.014201002 0.06892817 -0.0071467287
-0.029162394 -0.010954911 0.026948366 0.034489736 0.1197129 0.1353348 -0.104499355 -0.028854892
0.055767804 -0.00040772848 -0.0107457815 -0.11072186 0.10947833 0.018092213 0.06543896 -0.07109914
0.009167463 -0.10217496 -0.070475034 -0.15887137 -0.08469998 0.17209853 0.017181983 0.053719535
0.15184899 0.067492664 0.023136478 0.028702775 -0.077509046 0.021823537 0.10112515 0.058076806
-0.09794417 0.027882196 -0.08168042 -0.078447156 0.06602672 -0.11140596 0.07526594 -0.043285605
0.02556229 -0.1201876 0.038383987 -0.11256648 0.04408486 0.09711168 -0.022910971 -0.05342084
0.083141536 -0.035289425 -0.08211205 -0.12248202 0.07242004 -0.02908068 -0.0513467 -0.06684885
-0.07466118 -0.12685926 -0.005108434 -0.08731567 -0.009042419 0.05039553 0.043066595 -0.02410197
-0.13289465 -0.022227086 0.0661569 -0.025223056 -0.0631544 -0.14113496 -0.104458734 0.0448382
-0.0070364727 -0.0054003545 -0.1386106 -0.045175485 0.06618116 -0.07821824 0.060849674 -0.0038817911
-0.10910188 0.05281825 0.012118267 -0.105063595 0.08080704 0.048489552 0.015425201 -0.06785866
-0.09948263 -0.05586059 0.08754448 -0.102024674 0.06273423 0.0884062 -0.06338855 0.014655967
-0.057799354 -0.08329008 0.06341875 0.100461796 0.012826454 0.09046132 -0.02573908 0.04359574
-0.07281595 0.06997422 -0.021454569 -0.064308934 0.05689698 0.027619746 -0.016191479 -0.10074581
0.1336888 -0.06892532 0.07825345 -0.00014469372 -0.14130059 -0.08868125 -0.057372566 0.110104084
-0.08940603 -0.12591459 0.097324684 0.087762155 0.14823714 -0.008296604 0.08976759 -0.03471476
-0.18002576 0.028129162 -0.017279793 -0.02202998 -0.021911914 -0.042355895 -0.015086283 0.11323847
-0.10412461 0.023642419 -0.015944285 -0.079109624 0.0023627637 0.049424004 0.00087719975 0.10742519
-0.07064942 -0.03223374 0.004923308 -0.049778588 0.120215714 -0.0019097389 -0.1365363 -0.06638658
0.119543746 0.10736059 0.023291344 -0.053635966 -0.018662607 -0.021107094 0.031746313 -0.033317596
0.039366614 -0.021930948 0.066819936 0.004359441 0.08655069 -0.068577014 -0.016031755 0.100438744
0.16081318 0.11702132 0.064071536 -0.002367683 -0.053795002 -0.11919086 0.08052989 -0.050342772
-0.11150058 -0.12966812 0.020070443 0.12619284 0.049149714 0.042505227 0.0082477825 -0.06626654
0.018717397 0.04502707 0.021739056 -0.048740897 0.11654608 -0.0056241564 0.056399994 0.022901079
-0.07574156 0.07277584 0.06606628 0.12386332 -0.02892584 0.034431603 0.04921608 -0.015516527
00000000: 643a 6e3d cf98 74bc 0ab4 07bd d594 bfbb
00000010: 1f48 253e 4a2b e9bc 1ab8 1dbd c0c9 acbc
00000020: 647a f93d 6238 023e 9f68 083d cb28 08be
00000030: ff4c 6ebd e8af bd3d e9df b2bd c45b 1fbd
00000040: ac51 80bd 1f71 97bd 9c54 263d 6cf2 62ba
00000050: e394 93bc cd90 dc3d a20c 7e3d a46e ba3d
00000060: 9a52 093d a059 2abd fc23 be3d 64d5 6e3d
00000070: 3f41 ab3d 09ee ca3d 149d eabd 52fe 9dbd
00000080: 90f7 fabd dfc0 f83d 5fba 5ebb 7d52 1bbe
00000090: 6d6e c53d e9bb 33bd 506e 4fbc 113c d63c
000000a0: 1bce 713d 5160 ee3d efb7 073d a589 3cbd
000000b0: 59e3 39bd e5b4 1bbd aea8 af3d b283 5a3d
000000c0: dbc9 e93d affb fbbd 7dff a23d e8f9 a0bd
000000d0: 8fd7 d73d 52ab 68bc 362a 8d3d 1b2f eabb
000000e0: f9e5 eebc 3a7c 33bc d2c2 dc3c 1c45 0d3d
000000f0: 092c f53d 3595 0a3e c203 d6bd 1861 ecbc
00000100: c86c 643d 64c4 d5b9 130f 30bc 24c2 e2bd
00000110: 2d36 e03d 1f36 943c dd04 863d 6d9c 91bd
00000120: 2033 163c 1b41 d1bd 3755 90bd 2daf 22be
00000130: 2f77 adbd 993a 303e 3bc1 8c3c 0409 5c3d
00000140: 4d7e 1b3e 9839 8a3d b688 bd3c 1522 eb3c
00000150: 10bd 9ebd 46c7 b23c b41a cf3d f2e1 6d3d
00000160: f496 c8bd 3469 e43c 1048 a7bd e7a8 a0bd
00000170: 0439 873d cf28 e4bd 0725 9a3d 3f4c 31bd
00000180: 0268 d13c eb24 f6bd 8738 1d3d 4189 e6bd
00000190: 5392 343d 7de2 c63d caaf bbbc d0cf 5abd
000001a0: 1c46 aa3d a58b 10bd 5d2a a8bd dad7 fabd
000001b0: f550 943d 9b3a eebc eb50 52bd 0de8 88bd
000001c0: f6e7 98bd 65e7 01be a664 a7bb 8fd2 b2bd
000001d0: a726 14bc 8b6b 4e3d 9966 303d 7f71 c5bc
000001e0: 8915 08be 9415 b6bc 457d 873d 95a0 cebc
000001f0: 1857 81bd af85 10be 76ee d5bd 43a8 373d
00000200: 3692 e6bb 75f5 b0bb f0ef 0dbe ee09 39bd
00000210: fd89 873d e230 a0bd 823d 793d a665 7ebb
00000220: ce70 dfbd f357 583d b28b 463c 952b d7bd
00000230: 297e a53d fb9c 463d fbb9 7c3c 7bf9 8abd
00000240: 8dbd cbbd 13ce 64bd 854a b33d 50f2 d0bd
00000250: ce7a 803d 4f0e b53d dbd1 81bd 951f 703c
00000260: 04bf 6cbd fd93 aabd b1e1 813d eabe cd3d
00000270: 0c26 523c c943 b93d c3da d2bc 7291 323d
00000280: 8720 95bd a54e 8f3d 7ec1 afbc 67b4 83bd
00000290: cf0c 693d ce42 e23c fea3 84bc d253 cebd
000002a0: b7e5 083e b828 8dbd 5843 a03d edb8 17b9
000002b0: 1ab1 10be 849e b5bd 7fff 6abd 407e e13d
000002c0: 821a b7bd c1ef 00be 2a52 c73d a5bc b33d
000002d0: 7acb 173e 7bee 07bc 12d8 b73d 1031 0ebd
000002e0: ac58 38be 216f e63c 5a8e 8dbc 3778 b4bc
000002f0: 9d80 b3bc 607d 2dbd 752c 77bc 92e9 e73d
00000300: 493f d5bd bfad c13c 979d 82bc 3a04 a2bd
00000310: 99d8 1a3b d370 4a3d e1f3 653a bd01 dc3d
00000320: a5b0 90bd 8707 04bd b353 a13b a2e4 4bbd
00000330: a833 f63d 3450 faba 2cd0 0bbe b0f5 87bd
00000340: 5ad3 f43d dedf db3d 7dcd be3c 63b1 5bbd
00000350: 53e2 98bc c9e8 acbc 6c08 023d 0878 08bd
00000360: e33e 213d 88a8 b3bc e4d8 883d a4d9 8e3b
00000370: 7d41 b13d 1b72 8cbd 0755 83bc d4b2 cd3d
00000380: 36ac 243e e0a8 ef3d f037 833d 212b 1bbb
00000390: 2658 5cbd 561a f4bd dbec a43d 3934 4ebd
000003a0: 6b5a e4bd b8c7 04be c56a a43c b238 013e
000003b0: 3651 493d f619 2e3d b521 073c c0b6 87bd
000003c0: 3a55 993c 4e6e 383d 1b16 b23c 89a4 47bd
000003d0: b6af ee3d d84a b8bb ae03 673d 0b9b bb3c
000003e0: 641e 9bbd 800b 953d c24d 873d 0dac fd3d
000003f0: e2f5 ecbc 2708 0d3d cd96 493d 0839 7ebc

bottleneck.fc.bias f4 [16]
0.08222101 0.019264387 -0.11424136 -0.033724338 -0.096174136 -0.067169026 0.08074008 0.0880521
-0.09823813 -0.083514206 0.098254666 -0.061170682 0.07437047 0.107550934 -0.07595894 0.02800697
00000000: 7d63 a83d 59d0 9d3c 60f7 e9bd 8822 0abd
00000010: f2f6 c4bd ea8f 89bd 0e5b a53d a954 b43d
00000020: 1331 c9bd 7f09 abbd be39 c93d 1c8e 7abd
00000030: 8c4f 983d aa43 dc3d 5c90 9bbd e06e e53c

decoder.fc3.weight f4 [84, 16]
-0.03676821 -0.10456837 -0.15373206 -0.002867189 0.007337749 -0.07369314 0.076403536 -0.08137361
-0.12360385 -0.08304386 0.15291682 -0.24718016 0.11336069 -0.18004552 0.16033402 -0.19477347
-0.04501925 -0.21529049 0.09791909 -0.24949916 0.02499266 0.116926864 -0.060311783 0.20722497
-0.04803855 -0.20550764 -0.1368404 0.176981 -0.04816166 0.31638688 -0.18696237 0.1485132
-0.05668209 0.1414359 -0.19724175 0.0713443 -0.17515185 0.08538668 0.28489348 0.1901907
0.029864447 -0.052325375 -0.21421091 -0.17945063 0.08155116 -0.2359823 -0.0074767596 -0.15069726
0.24055582 0.18471308 0.24310035 -0.040206145 0.007919551 -0.23482648 0.02934756 -0.25910965
-0.14023653 -0.25141034 0.14375265 0.18383524 0.22424889 0.15049134 0.24145243 0.11007285
0.047072697 -0.2225 -0.071162194 -0.036410414 0.059807293 0.21082415 -0.13978195 0.10420409
-0.045976166 -0.28207123 -0.23763269 -0.018446565 0.13847177 0.04119382 0.2638693 -0.18988371
0.06291043 -0.05024544 0.21389094 0.014237249 0.088383295 0.14598982 0.26307175 -0.11663627
0.15091248 0.0029784143 0.2504157 0.08564594 0.097693756 0.1292636 -0.10837558 0.02449125
-0.05588279 -0.101625144 -0.085509345 0.12108803 -0.110495985 -0.085114144 0.22582668 -0.34974548
-0.15958819 0.17400388 0.17021993 -0.077397905 -0.1888185 0.23854303 -0.21898285 0.034556657
-0.22332244 0.21930033 0.0982742 -0.10018439 -0.06677556 -0.09716967 0.24840711 -0.11331697
-0.22857688 -0.23889934 0.25972748 0.093996614 0.10321276 0.18727806 0.0072105527 0.117441505
-0.16401802 -0.03560961 0.01256802 -0.12438646 -0.2079152 0.25659755 -0.15787977 0.08002612
-0.09923272 -0.15196793 -0.23334354 -0.121578544 0.13324755 0.07517625 0.15346144 0.21020442
0.097942814 -0.04269741 0.12370827 0.11028537 0.058521405 0.24870694 -0.022344043 -0.05357143
0.14301401 -0.2276977 -0.031221122 0.23474522 0.084726155 -0.033562485 0.2607895 0.06166172
0.07607919 -0.116899125 -0.22657503 0.009542942 -0.04855701 0.12841408 0.061617028 0.05592242
0.15632656 -0.0024980875 0.081913866 -0.04481867 0.1388768 -0.105273254 0.20466499 0.14928368
0.26267132 0.17061569 0.13419119 0.23315115 0.055535175 0.15700993 -0.08566378 -0.10819434
0.19514894 0.15764634 0.13217497 -0.11315702 -0.15876001 -0.4287556 -0.051745083 -0.07878569
-0.13516209 0.08620898 0.16694866 -0.23761155 0.22535515 0.035757072 -0.12198308 0.07341358
0.114177436 0.31550026 0.15221615 0.13748865 -0.18509306 -0.3375011 -0.13785687 0.0383071
0.20565335 0.2306314 0.19249721 0.045895383 -0.20106594 0.10239874 -0.20377636 0.19056977
0.11449524 -0.28238165 0.13800752 0.12164441 0.14747258 -0.039930116 -0.18774778 -0.13552755
-0.16180658 -0.07545766 0.091426 -0.18930173 0.04969008 -0.0596362 -0.111583255 -0.15657054
-0.061506838 0.29269496 0.15352392 -0.17247958 0.28121236 0.49420014 0.13091677 0.073316514
0.12005183 0.106625296 0.1649972 -0.22085789 -0.20585327 -0.21160904 0.088362925 0.07918523
-0.22089076 0.03168175 -0.13115469 0.22562438 -0.059503656 -0.15184975 -0.109446585 -0.23293892
00000000: 439a 16bd f127 d6bd f06b 1dbe 73e7 3bbb
00000010: 8071 f03b 6eec 96bd 7579 9c3d 35a7 a6bd
00000020: 0424 fdbd e612 aabd 3a96 1c3e cc1c 7dbe
00000030: a629 e83d da5d 38be 9a2e 243e b272 47be
00000040: 1b66 38bd 1c75 5cbe ce89 c83d b57c 7fbe
00000050: 68bd cc3c 5a77 ef3d 7d09 77bd c832 543e
00000060: 12c4 44bd 9870 52be e41f 0cbe 823a 353e
00000070: 2945 45bd 76fd a13e 1073 3fbe d813 183e
00000080: 7b2b 68bd 93d4 103e bef9 49be f61c 923d
00000090: 025b 33be 36df ae3d 8fdd 913e 5ac1 423e
000000a0: 49a6 f43c 2253 56bd 1b5a 5bbe e8c1 37be
000000b0: 4b04 a73d 58a5 71be 9bff f4bb 6250 1abe
000000c0: 4454 763e 6d25 3d3e 4cef 783e 33af 24bd
000000d0: 01c1 013c 5a76 70be 4b6a f03c 05aa 84be
000000e0: 2a9a 0fbe dbb8 80be e533 133e 4e3f 3c3e
000000f0: 80a1 653e 671a 1a3e 4e3f 773e e06d e13d
00000100: 4dcf 403d 0ad7 63be 7cbd 91bd 1623 15bd
00000110: 7ef8 743d 49e2 573e 0023 0fbe f468 d53d
00000120: 8151 3cbd a46b 90be fc55 73be 401d 97bc
00000130: 8bcb 0d3e daba 283d e019 873e e070 42be
00000140: 2fd7 803d 2ace 4dbd 3a06 5b3e 5a43 693c
00000150: 4d02 b53d 5b7e 153e 57b1 863e ffde eebd
00000160: cd88 1a3e 8031 433b 7d36 803e 2367 af3d
00000170: aa13 c83d ad5d 043e 04f4 ddbd e0a1 c83c
00000180: 5ae5 64bd d820 d0bd 861f afbd 00fd f73d
00000190: b84b e2bd 5350 aebd 1c3f 673e d711 b3be
000001a0: 166b 23be 132e 323e 224e 2e3e cb82 9ebd
000001b0: a359 41be a044 743e 0a3d 60be 488b 0d3d
000001c0: a3ae 64be 4490 603e fc43 c93d 792d cdbd
000001d0: a0c1 88bd e400 c7bd 6f5e 7e3e ba12 e8bd
000001e0: 0f10 6abe 07a2 74be 00fb 843e 4c81 c03d
000001f0: 3661 d33d d2c5 3f3e 8046 ec3b 2c85 f03d
00000200: 57f4 27be 62db 11bd 19ea 4d3c 54be febd
00000210: b9e7 54be c160 833e 3cab 21be bce4 a33d
00000220: 863a cbbd 7b9d 1bbe 9cf1 6ebe 2cfe f8bd
00000230: 0c72 083e 01f6 993d ff24 1d3e d43f 573e
00000240: 3e96 c83d 7be3 2ebd c35a fd3d 4cdd e13d
00000250: 24b4 6f3d 08ad 7e3e db0a b7bc b76d 5bbd
00000260: 4472 123e 9629 69be 70c3 ffbc 0d61 703e
00000270: e884 ad3d d178 09bd 3486 853e 0091 7c3d
00000280: 68cf 9b3d cf68 efbd 4903 68be 005a 1c3c
00000290: b7e3 46bd fb7e 033e 2362 7c3d e80e 653d
000002a0: 1214 203e f4b6 23bb 75c2 a73d c893 37bd
000002b0: b835 0e3e 8199 d7bd b393 513e d2dd 183e
000002c0: db7c 863e e1b5 2e3e 6a69 093e 2dbf 6e3e
000002d0: da78 633d 36c7 203e 7e70 afbd fe94 ddbd
000002e0: 20d5 473e 0b6e 213e e058 073e debe e7bd
000002f0: fc91 22be db85 dbbe a7f2 53bd 645a a1bd
00000300: ee67 0abe 558e b03d 97f4 2a3e 7150 73be
00000310: 80c3 663e 0276 123d 44d2 f9bd dc59 963d
00000320: dcd5 e93d 4089 a13e 8dde 1b3e d3c9 0c3e
00000330: 0989 3dbe f2cc acbe 5a2a 0dbe e8e7 1c3d
00000340: cb96 523e a32a 6c3e fd1d 453e ccfc 3b3d
00000350: 3be4 4dbe 6eb6 d13d c0aa 50be b924 433e
00000360: 7b7c ea3d 5494 90be d851 0d3e b420 f93d
00000370: 0d03 173e c38d 23bd f440 40be bcc7 0abe
00000380: a0b0 25be 8c89 9abd 8e3d bb3d 50d8 41be
00000390: d387 4b3d 1745 74bd c385 e4bd 0754 20be
000003a0: 98ee 7bbd 1ddc 953e 6035 1d3e 7d9e 30be
000003b0: 11fb 8f3e cd07 fd3e 0c0f 063e f826 963d
000003c0: bcdd f53d 5d5e da3d 07f5 283e 9228 62be
000003d0: 33cb 52be 0ab0 58be 9ff7 b43d de2b a23d
000003e0: 3031 62be b9c4 013d 6a4d 06be 140a 673e
000003f0: 1bba 73bd 807e 1bbe 8825 e0bd 8a87 6ebe

decoder.fc3.bias f4 [84]
0.20419939 -0.21439566 0.18874039 0.058759842 0.14564118 -0.44517532 0.05046659 0.087754756
0.093770444 0.019301888 -0.026445212 -0.008598959 0.29873604 -0.060634527 -0.23377936 -0.16388018
-0.23528355 0.3725677 0.13861755 0.036487773 0.13070418 -0.21807566 0.151682 -0.076462865
-0.21312743 0.044986255 -0.056261048 0.1870648 0.17936657 -0.12791659 0.20226908 -0.16735417
0.22531602 -0.12561226 -0.19339885 0.15279414 0.0015879276 -0.07999125 -0.18746893 0.13572235
0.14996134 0.0636292 -0.28221557 -0.08307397 0.10620773 0.14961362 0.024750141 -0.13287872
0.2265687 -0.2022294 -0.24963841 0.058394536 0.18578069 -0.15216339 -0.28663307 0.037125796
-0.17233352 -0.114435464 0.28913137 0.17262281 0.08643404 -0.12146337 0.14537561 -0.18356287
0.18505424 0.30072957 -0.087709285 0.3349229 0.31037137 -0.121561565 -0.11672918 0.1428693
0.1404881 0.045458663 0.1362562 -0.108035736 0.2493867 0.20488204 -0.15727288 0.24749993
0.25134578 0.060546987 -0.05932435 0.034118008
00000000: a519 513e 898a 5bbe 2945 413e 29ae 703d
00000010: f622 153e 05ee e3be 0eb6 4e3d c4b8 b33d
00000020: b80a c03d fe1e 9e3c a1a3 d8bc a6e2 0cbc
00000030: eef3 983e e95b 78bd db63 6fbe 35d0 27be
00000040: 2cee 70be 32c1 be3e c2f1 0d3e 3474 153d
00000050: 51d7 053e 3a4f 5fbe 8752 1b3e 9098 9cbd
00000060: 143e 5abe 8243 383d fc71 66bd ea8d 3f3e
00000070: dfab 373e 91fc 02be a01f 4f3e e45e 2bbe
00000080: 3eb9 663e 80a0 00be 590a 46be 1176 1c3e
00000090: 0222 d03a 74d2 a3bd dbf7 3fbe cdfa 0a3e
000000a0: 778f 193e 0750 823d 8f7e 90be b022 aabd
000000b0: 7083 d93d 5034 193e cfc0 ca3c 5c11 08be
000000c0: a001 683e 3915 4fbe 36a1 7fbe 1c2f 6f3d
000000d0: 4b3d 3e3e b8d0 1bbe 92c1 92be 3811 183d
000000e0: 3378 30be 245d eabd 0709 943e 09c4 303e
000000f0: 5404 b13d cac1 f8bd 58dd 143e e8f7 3bbe
00000100: dc7e 3d3e 3af9 993e eda0 b3bd 047b ab3e
00000110: ffe8 9e3e 45f5 f8bd b50f efbd 544c 123e
00000120: 1ddc 0f3e dd32 3a3d bf86 0b3e d741 ddbd
00000130: 3a5f 7f3e 99cc 513e 240c 21be 9f70 7d3e
00000140: 65b0 803e 1e00 783d 17fe 72bd 53bf 0b3d

decoder.fc2.weight f4 [120, 84]
0.10514039 -0.07338964 0.075902835 -0.0043857615 -0.05541196 0.09974719 -0.042181876 0.10516047
-0.12294844 -0.13583611 0.0050951447 -0.050082467 -0.087823264 -0.072411604 0.001681078 -0.09806575
0.013398541 -0.06270023 0.048891798 -0.07306164 -0.02091543 -0.080648646 0.0034228377 0.029085299
0.027123211 -0.04664262 0.04452898 -0.06628034 0.012317659 -0.02810473 0.105299935 0.057549417
0.010870935 -0.080556095 0.0022425596 0.08365985 -0.26173797 0.062650226 -0.04156554 0.13000071
0.073351994 -0.08005485 0.08787309 0.1050509 -0.0351833 0.06974207 0.038903154 -0.043467335
-0.02849649 0.019096551 -0.10286782 -0.13758291 0.1548962 0.091336764 -0.10436885 0.070606805
-0.03013373 -0.07532164 0.094509505 0.046545792 0.09655939 -0.010902466 0.07130958 0.1015751
0.069504656 -0.10593293 -0.03651157 -0.08891647 0.025417069 0.03908158 0.032248944 -0.058934767
-0.12340802 0.0144522935 0.002488166 0.04034318 -0.07375978 -0.08558131 -0.011372079 -0.054580983
0.042392936 0.11390344 -0.043563455 0.011694729 0.08558601 -0.08170556 0.10092418 0.0704999
-0.04834769 0.014406765 0.047828365 0.048632786 -0.01926511 -0.010536223 0.03144311 0.10949783
-0.016446104 -0.060435455 -0.13508683 -0.020476568 0.050037168 0.12279095 -0.073615015 -0.008987807
-0.1680799 0.04730367 0.07263492 -0.014618785 -0.012830168 0.13968487 -0.064092256 0.13747364
0.08696902 -0.0054534455 0.2504011 -0.21202861 0.028189395 -0.09874915 0.011651034 0.039732307
0.09033417 -0.026999645 -0.17698258 0.0464078 -0.0118096955 0.054832537 -0.056571137 -0.11741389
0.056973785 0.06269148 0.020200454 0.038397796 -0.05284814 0.12086938 -0.010229848 0.12756371
-0.061679404 -0.024316486 0.097064644 0.12839416 0.10941303 -0.084709436 -0.26895148 -0.038161654
0.05403101 0.053049162 0.046901584 -0.01127406 0.03924706 -0.026564691 -0.13773578 0.056842647
0.09967188 0.030493597 0.04644084 -0.037802886 -0.07984962 0.06802252 -0.042287774 -0.09444833
0.2299613 0.26745117 -0.0004791835 0.043190286 -0.12022893 -0.029215213 -0.12503348 0.056155566
-0.10094116 -0.06883411 -0.09321071 0.017031966 0.07254164 0.021515159 -0.1211278 -0.020327374
0.12932628 -0.047219288 0.062203262 0.00893517 -0.0072621964 -0.12088315 0.30389702 -0.035438467
0.089491 0.060052674 -0.09294117 0.2692792 0.026994737 0.023594582 -0.021243777 0.012978146
-0.06323296 0.11325917 0.08341455 -0.08966517 -0.27339843 -0.1978388 0.038691588 0.1780486
-0.054433297 -0.07980816 -0.07377803 -0.0049148793 -0.034399595 0.035187565 0.010221266 0.124044925
0.20605767 0.006808878 -0.032944795 0.13989234 -0.08243402 -0.14960283 0.054283537 -0.066734985
-0.04022597 -0.07709422 0.10861945 -0.11048784 -0.14237036 -0.05392558 -0.17285512 0.052678753
0.0087908 -0.106784634 0.15324348 -0.098795116 0.0699307 -0.025811533 0.0036020707 0.11008737
0.100865304 -0.041583877 0.18554212 -0.16257706 -0.08344622 0.044286538 -0.0043520434 0.013210947
-0.28941217 -0.04239501 -0.006945045 0.028470054 -0.24012546 -0.19348459 -0.07998814 -0.07880847
-0.16972016 0.113690816 0.062078327 -0.16834332 -0.10683342 -0.0949911 -0.03505836 -0.10097093
00000000: d853 d73d 4f4d 96bd f272 9b3d 6fb6 8fbb
00000010: a7f7 62bd 4148 cc3d e7c6 2cbd 5f5e d73d
00000020: 64cc fbbd 9f18 0bbe 2cf5 a63b 4623 4dbd
00000030: afdc b3bd 894c 94bd 9e57 dc3a b2d6 c8bd
00000040: 8e85 5b3c fa68 80bd c442 483d 57a1 95bd
00000050: d656 abbc 1e2b a5bd b051 603b 4b44 ee3c
00000060: 7f31 de3c 550c 3fbd 0564 363d fdbd 87bd
00000070: 02d0 493c e43b e6bc 7ea7 d73d f0b8 6b3d
00000080: 021c 323c 98fa a4bd e8f7 123b db55 ab3d
00000090: 8502 86be c34e 803d a140 2abd e81e 053e
000000a0: 9239 963d ccf3 a3bd cef6 b33d ed24 d73d
000000b0: 5d1c 10bd eed4 8e3d ea58 1f3d ce0a 32bd
000000c0: 7971 e9bc 5f70 9c3c 5dac d2bd 89e2 0cbe
000000d0: 1c9d 1e3e c50e bb3d 56bf d5bd 4d9a 903d
000000e0: 03db f6bc 3b42 9abd 338e c13d cda6 3e3d
000000f0: eec0 c53d 42a0 32bc c20a 923d 9b06 d03d
00000100: 7558 8e3d 5df3 d8bd 288d 15bd d719 b6bd
00000110: 7537 d03c 0214 203d 7817 043d 9565 71bd
00000120: 58bd fcbd 50c9 6c3c 8010 233b e43e 253d
00000130: 5e0f 97bd 4145 afbd f551 3abc 4f90 5fbd
00000140: 37a4 2d3d 3546 e93d 986f 32bd 409b 3f3c
00000150: b847 af3d 3f55 a7bd 56b1 ce3d 4062 903d
00000160: 3a08 46bd 5a0a 6c3c ade7 433d 2c33 473d
00000170: ddd1 9dbc 1fa0 2cbc 7eca 003d 6640 e03d
00000180: fbb9 86bc 2b8b 77bd 3454 0abe 7abe a7bc
00000190: c6f3 4c3d d279 fb3d 78c3 96bd 9841 13bc
000001a0: 231d 2cbe 7ec1 413d 9ec1 943d a183 6fbc
000001b0: a035 52bc 8d09 0f3e cd42 83bd e4c5 0c3e
000001c0: d01c b23d d1b2 b2bb 9334 803e 071e 59be
000001d0: 72ed e63c ff3c cabd fae3 3e3c 58be 223d
000001e0: 1f01 b93d 5c2e ddbc ec3a 35be 1b16 3e3d
000001f0: 747d 41bc 1598 603d 23b7 67bd b276 f0bd
00000200: 585d 693d 6464 803d 6c7b a53c 0247 1d3d
00000210: 4b77 58bd 5e8a f73d 189b 27bc 10a0 023e
00000220: 8ba3 7cbd 5e33 c7bc d4c9 c63d c279 033e
00000230: f013 e03d 247c adbd 02b4 89be 654f 1cbd
00000240: 9f4f 5d3d 144a 593d e01b 403d d6b6 38bc
00000250: 86c1 203d 329e d9bc 9c0a 0dbe d6d3 683d
00000260: c520 cc3d b5cd f93c c038 3e3d 33d7 1abd
00000270: 3388 a3bd 644f 8b3d f235 2dbd 206e c1bd
00000280: fa7a 6b3e 5cef 883e ec3a fbb9 4ce8 303d
00000290: 963a f6bd be54 efbc c708 00be 6103 663d
000002a0: 3dba cebd e6f8 8cbd 42e5 bebd 9f86 8b3c
000002b0: b690 943d 8f40 b03c da11 f8bd 9885 a6bc
000002c0: 1c6e 043e 0369 41bd d9c8 7e3d d264 123c
000002d0: b8f7 edbb 9691 f7bd 6498 9b3e ed27 11bd
000002e0: 0f47 b73d cbf9 753d f157 bebd f7de 893e
000002f0: 1124 dd3c 6d49 c13c 6e07 aebc 4aa2 543c
00000300: 4880 81bd 6cf4 e73d 3fd5 aa3d 5fa2 b7bd
00000310: e1fa 8bbe 4196 4abe 127b 1e3d 5f52 363e
00000320: 73f5 5ebd 7672 a3bd f018 97bd ff0c a1bb
00000330: 97e6 0cbd d620 103d 1977 273c 440b fe3d
00000340: c800 533e 021d df3b 1ff1 06bd f03f 0f3e
00000350: 2bd3 a8bd 7c31 19be 6a58 5e3d 5aac 88bd
00000360: fdc3 24bd 93e3 9dbd e073 de3d 7347 e2bd
00000370: 89c9 11be 12e1 5cbd ef00 31be adc5 573d
00000380: 4a07 103c e7b1 dabd dceb 1c3e 1855 cabd
00000390: d437 8f3d b572 d3bc b810 6c3b 7d75 e13d
000003a0: 7892 ce3d db53 2abd c1fe 3d3e 9a7a 26be
000003b0: dae5 aabd cd65 353d 969b 8ebb ba72 583c
000003c0: d52d 94be 64a6 2dbd 4393 e3bb 083a e93c
000003d0: 73e3 75be d320 46be d2d0 a3bd 5666 a1bd
000003e0: 1fcb 2dbe bbd6 e83d d845 7e3d 3162 2cbe
000003f0: 7bcb dabd b28a c2bd 5b99 0fbd d9c9 cebd
