tutorials/W1D2_ComparingTasks/RR/models/ConvNet_regression_10000_epoch_7.pth (torch, 248022 bytes, 9 tensors)

ConvNet.conv1.weight f4 [6, 1, 5, 5]
00000000: 717d 273d a273 83bd f6ab 1fbd 9422 12be
00000010: 751a bf3c 08da 07be b4fc 2abd 3ea6 2cbc
00000020: d999 183e e48e 80bc d9ca 4c3b 9759 56bd
00000030: 8248 2a3e be45 c13d 5f42 2b3e 51e9 10be
00000040: 73c0 66bd 85cb 78bd 57b5 0fbe 06f9 3abe
00000050: 5b54 12be a01e 34be fe92 0a3c 25fc b5bd
00000060: 1329 6a3d 8510 42be 5bd6 4abe 9a70 2a3d
00000070: 0250 0f3e dd8e b0bd 357a 863d f72b 89bd
00000080: f1b9 c3bc 6b4a 0f3e 78c0 ad3d c1e3 9e3d
00000090: ec53 373e 6268 4fbe 3db9 de3d 834e b63d
000000a0: 69b6 b5bd 04ec dd3d 1faf 463c 7295 19bc
000000b0: 682c 883d 7820 58bb 0a70 c9bd aa3f 79bd
000000c0: a8fa c3bd d8f4 e9bd ea5e 8dbd b5e9 1b3e
000000d0: 6abc 41be 8b8b e9ba 9ff1 673d 8c4c 013e
000000e0: 0dda 3f3e 8d32 3b3c 2283 54be e5b6 3c3e
000000f0: 8cb7 f13c ddb7 02bd 68e3 b23d 44e7 f6bd
00000100: 1778 42bd 9fbf 9bbd 6115 243e eacf cbbd
00000110: ac4f fdbc 3d88 1b3e 46f0 2f3c e384 19bd
00000120: 4084 15be 863d 44be caa8 003e 68e9 2aba
00000130: a7fe f7bc c260 9abd d775 54bd 68a1 ffbd
00000140: 97e4 2dbe 6494 48bd f904 0dbe b276 383d
00000150: cac0 21bd db0a adbd ecdc bfba 39d3 e73c
00000160: 49a7 2e3e 7a3d 1cbd 8e1c 143e 2b70 d9bc
00000170: 1989 b9bb adbc 1ebe 6901 0cbe 54e9 3f3e
00000180: b337 053e 5afa 35be ddc2 24be 7b8e 5b3d
00000190: 088d c6bd b6a8 f7bd 3750 37bb 9811 c83d
000001a0: 6998 0abd 9cab 4d3c 4be6 343d 288a b1bc
000001b0: c9bc b7bd 101a afbd 2115 ebbc c4d5 aebb
000001c0: 4e79 44bd 536a 91bd 5456 2abe 1f22 913d
000001d0: 14cb 30be f5da 2e3d 9f79 ed3d c2bf 3b3e
000001e0: faaa a83d 97cc c7bd f4ad 18be b6ef 843d
000001f0: 455f 343e 84a6 323e c793 b3bc b98d cabc
00000200: c296 ef3d c253 c23d 459b 49be ca82 08be
00000210: b2c1 0d3c 9391 333e c774 b3bd c42f 4abb
00000220: 4693 3fbe ddcf 3bbe 1cc8 15be d3d1 40be
00000230: 461d debd 12be 2d3e 58ad 34be 1e24 c7bd
00000240: 7ab8 133e cb68 6dbb fb0a 9b3d 4abf 21be
00000250: 7373 323e 7510 873d
0.040891115 -0.064185396 -0.038982354 -0.14271003 0.023328045 -0.13266766 -0.041744903 -0.010537682
0.14902438 -0.015693136 0.0031248836 -0.052331533 0.16629222 0.094371304 0.16724537 -0.14151503
-0.056335878 -0.060740966 -0.1403402 -0.18259057 -0.14289992 -0.17589808 0.008457897 -0.088859834
0.057168078 -0.18951614 -0.19808333 0.04161129 0.13995364 -0.08620999 0.06566278 -0.06697839
-0.023892375 0.13993232 0.08483976 0.07758284 0.17903107 -0.20254663 0.10875175 0.08901694
-0.088726826 0.10836032 0.012126713 -0.009374009 0.06649095 -0.0032978337 -0.09835823 -0.06085173
-0.09569293 -0.11423653 -0.06902869 0.15225871 -0.1891953 -0.0017818076 0.056626912 0.12626857
0.18735524 0.011425626 -0.20753148 0.18429144 0.029506467 -0.031913627 0.087347806 -0.12055829
-0.047477808 -0.07604908 0.1602378 -0.09951766 -0.03092178 0.1518869 0.010738438 -0.037480246
-0.1460123 -0.19164094 0.12564388 -0.00065197656 -0.030272795 -0.07537986 -0.051870193 -0.12481958
-0.16981731 -0.04896964 -0.13771428 0.04503507 -0.0394905 -0.08449336 -0.0014637983 0.028298961
0.17056002 -0.038144566 0.14464018 -0.026542744 -0.0056620953 -0.15501662 -0.13672413 0.18741351
0.13009529 -0.17771283 -0.1608996 0.053602677 -0.09694868 -0.12092726 -0.0027971396 0.09768981
-0.033836756 0.012553122 0.044164937 -0.021672323 -0.08971555 -0.08549893 -0.028696598 -0.0053355414
-0.047967248 -0.07100358 -0.16634494 0.07086586 -0.17264968 0.042689282 0.11595463 0.18334869
0.08235736 -0.09755819 -0.14910108 0.06491034 0.17614467 0.17446333 -0.021921052 -0.024725782
0.11698677 0.09488632 -0.19688137 -0.13331142 0.008652138 0.17536001 -0.08762508 -0.0030851224
-0.18708524 -0.18341012 -0.14627117 -0.18830042 -0.10845427 0.16967037 -0.1764425 -0.09723686
0.14425841 -0.0036225792 0.07570454 -0.15795627 0.17426853 0.06594936

ConvNet.conv1.bias f4 [6]
00000000: 53a1 df3c c9a4 c6bd 5284 7abd 48c2 1cbe
00000010: c91f 4fbd 8069 8cbc
0.027298605 -0.09699399 -0.061161347 -0.15308487 -0.050567422 -0.01714015

ConvNet.conv2.weight f4 [16, 6, 5, 5]
00000000: 925f e6bc 815b 11bd 1834 e93b 5192 d8bc
00000010: b92e 52bd 22d1 b63c 5a77 74bc 4c71 dc3c
00000020: 8cb1 5f3d d081 6cbd 89f8 383d ab45 2a3d
00000030: 1cbb 193b d499 9cbc 1a86 07bd 3495 5b3d
00000040: ebaf e8bb bfdb b8bd 1460 9fbc 075e 92bc
00000050: ada5 343d 2f9e ac3c 40e6 b73c ffc2 b3bd
00000060: 6bb4 4abd 987b 3a3a eaee 903d ec60 81bd
00000070: f589 743d f430 de3c f1a9 ddbb 1dbe d33c
00000080: 569a 373c 1f5a 2e3d 13fb 3fbc 00dc 173d
00000090: ff27 333d 16a6 813d e606 71bd 4a80 b93c
000000a0: 96ab 77bc 6785 abbc f0e5 aebd efc5 b53c
000000b0: c492 0cbd aa9f 0e3d ac3f 0abd ebf5 de3c
000000c0: 7172 603d e1f4 5b3d d90e 0dbd c44c 603d
000000d0: 5a3c 083c 41ce 7b3d c771 e6bb cb4b 3a3d
000000e0: 5f44 6f3d 3936 3d3d b978 3d3c 3043 553d
000000f0: 4681 12bc 2d9f 00bd d149 b9bc 526c b3bd
00000100: 23f7 eebc fdfe 98bd 0e47 263d 62a3 9cbd
00000110: 5cae 8abd 9c3e 443d 63d1 f03c 7011 aebc
00000120: 1435 193d 9f2b 85bd a89e 963d aa04 22bc
00000130: 4b5e f93b e296 7e3d 9b41 98bd a058 4f3c
00000140: 7311 8ebb 287e 123c 9a66 95bd 4301 9fbd
00000150: b09d 943d 11fb 1cbd 583a acbd dc6d adbc
00000160: e549 80bb 9b89 7ebd 1a2e 8d3d 7e11 b4bd
00000170: cbe4 07bc 1496 afbd 1318 863c fae4 8d3b
00000180: 8082 a53a 4e1f e1b9 9991 8abb 04a9 52bd
00000190: 6a83 1d3d 493a 573d cfee 83bd 0b89 823d
000001a0: bebb 0f3d 29eb 18bd 9392 34bd 010f 9e3d
000001b0: 7d97 8a3d a5d7 f9bc eb98 1bbd b253 e4bc
000001c0: f66a a0bd b894 5d3c 97db 1f3d 07e4 e43c
000001d0: 4ff4 0abd a593 5a3a b2c9 1bbd acd8 b63c
000001e0: 69e4 753d d98a 33bc 8705 8d3d fc01 723d
000001f0: 91fa 173c e80b 933c 8289 453b 313c a4bd
00000200: 8d70 7d3d c897 253d 155c f83c c390 e1bb
00000210: a9fb 6c3d 3362 95bd 84ab b5bc ffa0 933c
00000220: 37db 55bd 21cb ccbc 2996 4dbd 1a74 31bd
00000230: bfc6 0d3d 9b35 99bd 5815 9bbd feff aebb
00000240: 6c27 573d 3610 223c 2758 513d a70e b9bd
00000250: a183 453d 2c4c 9bbd 46ed 0b3d 1c05 7c3d
00000260: b7d0 21bd cdd5 993c c71f 65bd 74f1 8cbd
00000270: eaa6 fd3c e866 7f3c 16e2 40bc a4b8 81bc
00000280: 820b 0bbd 7d7a 583d 93d9 b5bd 630d 8b3d
00000290: 8a56 503d 3200 8a3c 0fcb 2bbd 67db ab3b
000002a0: 329c 923d f55f 98bd 8a17 a1b9 5d5d 783c
000002b0: 212e 023d d559 6bbd a4cc 3abd 9ba2 193d
000002c0: 6a5f 0f3d b9ab 233c 812e 3a3c 1f0c f8bc
000002d0: 0d66 85bd b088 0d3d a351 c3bc 8fa3 7d3d
000002e0: aeca 863d 2e60 03bc ea3a a33b 8505 593c
000002f0: 6912 98bd 5ab0 eabc 638d 1c3c df30 783b
00000300: 9d4b 653d 3595 6cbd 962b 57bd 3a68 7e3c
00000310: a444 a9bd 473b 813d d2be 6fbd fdde 0abd
00000320: 80b4 073d 88d7 d53c a3ae 693d 0daf fa3c
00000330: 32c3 1abd dc26 6f3d 04a5 1bbd 9cf9 403d
00000340: 033a 2bbd 5553 a1bd adf0 903d 130d fc3c
00000350: d73c 9dbd fad5 3f3c 2699 083d 2bcc 9c3c
00000360: 9fed 663d e5ee d13c d6d9 aebc aff7 cfbc
00000370: 54f4 f1ba 1107 a4bd e520 37bd c59f 03bd
00000380: 32ae 23bd e24c 00bc 7b33 22bd f71e e93b
00000390: f000 413d 1a96 df3c 761b 7cbc 7d11 84bc
000003a0: 3dca 853d 7149 9f3b 0036 69bc 9df2 a9bd
000003b0: 045c 7c3a 80d8 9abd 8f4d 14bd 546e c53c
000003c0: 489c 3ebd de44 31bc d26a efbc f4fd 07bd
000003d0: d77d 1e3d 0451 a2bc ffff f9bc 4c66 b3bd
000003e0: 421e 7abc f569 abbd b0d6 26bd 284d 83bd
000003f0: 71c1 993c f7a6 72bd 13f0 633d 63f0 a0bd
-0.028121743 -0.035487656 0.0071168058 -0.026436957 -0.05131409 0.02231652 -0.014921034 0.026909493
0.05461268 -0.057740986 0.045158897 0.041570347 0.0023457473 -0.01911632 -0.033086874 0.053609088
-0.007101049 -0.09026288 -0.019454993 -0.017867101 0.044103313 0.021071522 0.022448659 -0.08777427
-0.049488466 0.0007113754 0.07076819 -0.063173145 0.05970188 0.027122952 -0.0067646434 0.025847489
0.01120623 0.042566415 -0.011717576 0.037075043 0.043739315 0.063305065 -0.05884447 0.02264418
-0.015116593 -0.020937635 -0.08539951 0.022189109 -0.034319654 0.034820236 -0.03375213 0.027216872
0.05479664 0.05370033 -0.034437988 0.05476071 0.00831517 0.061475996 -0.0070326063 0.045482438
0.058414813 0.04619429 0.011564427 0.052066028 -0.008941954 -0.0314018 -0.022618206 -0.08760895
-0.029170578 -0.0747051 0.040595107 -0.0764835 -0.06771538 0.04791127 0.029396718 -0.02124855
0.037404135 -0.06502461 0.0735448 -0.009888807 0.0076101176 0.06215561 -0.07434388 0.012655407
-0.004335576 0.008941211 -0.0729496 -0.077639125 0.07256639 -0.038325373 -0.08409566 -0.02117055
-0.003915059 -0.06214295 0.06893559 -0.08792399 -0.008294295 -0.08573547 0.016368901 0.0043302746
0.0012627393 -0.00042938668 -0.0042287824 -0.051430717 0.038455404 0.05254582 -0.064420335 0.06373795
0.035091154 -0.03733364 -0.044085097 0.077177055 0.06767175 -0.030498335 -0.03798763 -0.02787194
-0.07832901 0.013524227 0.039027777 0.027940763 -0.033924397 0.0008338041 -0.03803415 0.022320114
0.060032282 -0.010958397 0.0688582 0.059083924 0.009276048 0.017950013 0.0030141775 -0.08019293
0.061874915 0.040427953 0.030317346 -0.006883712 0.05785719 -0.07294121 -0.022176512 0.018021105
-0.052211013 -0.024999203 -0.050192032 -0.043323614 0.034613367 -0.074809276 -0.0757243 -0.0053405752
0.05252783 0.00989156 0.05110946 -0.09035998 0.048221234 -0.07582888 0.03416183 0.06152831
-0.039505687 0.018778706 -0.05593851 -0.06881991 0.03096338 0.0155885 -0.011772653 -0.015835114
-0.03394652 0.05285119 -0.088793896 0.06789663 0.05086378 0.016845796 -0.0419417 0.0052446607
0.07158698 -0.07440177 -0.0003072585 0.015158978 0.031782273 -0.057458717 -0.045605317 0.03750859
0.035003103 0.009989672 0.011363626 -0.030279217 -0.06513605 0.034554183 -0.023842638 0.06192356
0.06581627 -0.0080185365 0.0049813883 0.013245945 -0.074253865 -0.028648544 0.009555194 0.0037870926
0.055980314 -0.057759482 -0.0525318 0.015527779 -0.08265045 0.063101344 -0.05853159 -0.033904064
0.033131123 0.02610375 0.057051312 0.030601049 -0.03778381 0.05838667 -0.037999168 0.047113046
-0.04180337 -0.078772224 0.07077155 0.030767953 -0.0767762 0.011708731 0.03334918 0.019140324
0.056378957 0.02562661 -0.021344107 -0.02538666 -0.0018459656 -0.0800916 -0.044709105 -0.03213479
-0.039961047 -0.00783083 -0.039599877 0.007114287 0.047120035 0.027293254 -0.015387407 -0.01612162
0.065327145 0.00486105 -0.014234066 -0.08298228 0.00096267485 -0.07560825 -0.03620678 0.02410046
-0.04653576 -0.010819642 -0.02922574 -0.033201173 0.03869423 -0.019814022 -0.030517576 -0.08759746
-0.015266003 -0.08369819 -0.040732086 -0.06411201 0.018768998 -0.05924126 0.055648874 -0.0785835

ConvNet.conv2.bias f4 [16]
00000000: d6af f7bc 269c 97bd 522c ab3c 8ac1 893c
00000010: 238d 2fbd d18c 00bc bfc5 bcbc bc91 a1bd
00000020: 20d8 873d 296c b33c 0974 0abd 2250 94bd
00000030: abfe 9d3c 2745 b8ba 98f9 4bbd e029 7d3c
-0.030235212 -0.0740283 0.020895157 0.01681592 -0.042859208 -0.007846073 -0.023043511 -0.07889125
0.066330194 0.02190216 -0.033802066 -0.072418466 0.019286474 -0.0014058695 -0.049798578 0.015451878

ConvNet.fc1.weight f4 [120, 400]
00000000: 6b45 2d3d a994 4ebc f716 cb3a 28f0 1dbc
00000010: aca7 193d 3622 d2ba 23ed 17bd 9c65 27bd
00000020: 6809 1c3d 5b2b 6fbc 079f 823c 0d02 08bc
00000030: b1d9 103d f449 fc3c 5751 ee3c b811 053d
00000040: 5078 ea3c e2d4 d2bc 074c 9fbc f122 1f3c
00000050: d176 e73c cf4a 0e3b 44c5 f43b 1394 3ebd
00000060: 016b 293d 81c6 c93c 1299 f33c 87b4 e6bc
00000070: 4f66 28ba ea14 b03c e4a1 0dbd 7d56 15bd
00000080: 096b 3fbd 0e99 1e3d d7ca 383c eadb c03c
00000090: 7fad 41bd eacd 14bb 5a92 09bd 5331 0bbd
000000a0: c943 d33c a772 ca3b d134 963c 6b07 253c
000000b0: 04fd 2fbd 55e9 1c3d 8dd1 093c b046 24bd
000000c0: 0de1 3b3c 5aa1 c4bb 993c 6cbd 9421 893c
000000d0: 5b17 e2bb 2e5f 163d 9b66 22bd 3fcc 4abd
000000e0: ecb3 9b3c d1cb 4f3c e64a 9fba 3bac ef3a
000000f0: 3bae 4abc cbce d0bc 969f 31bb 6284 31bd
00000100: 9cd2 34bd 764d 24bb 1d00 733c 8eea 13bd
00000110: d73b 53bc 9b07 efbc 1d18 42bd 80ca 2dbd
00000120: 9faa 92bc b8da bd3b 1e71 ccbc 3fc6 23bc
00000130: 1c14 933c 298f ca3c 0874 d63c 4b61 993c
00000140: b188 93bb 3f18 bcbc b499 cd3c 3b6c 12bd
00000150: 6d02 d63c 7353 a33c 86e3 ab3b 41ad 0d3c
00000160: a430 283d 297b 0dbd 609a b0bc 3098 9dbc
00000170: 60f6 7dbd dcd6 f6bc 1e48 29bd 3a1d d13c
00000180: ddb6 3dbd c819 133b cf10 dbbb 0241 ffbc
00000190: 665f d23c 7ac2 02bd cf5f 42bb 7d80 1abd
000001a0: 10a0 14bb eb4a 71bd a97f 413c eb3c 68ba
000001b0: 16d6 8c3c b67f ed39 d2cb 90bc 2b1c 59bb
000001c0: a945 1c3c 989b a73c 3a86 913c b106 6dbc
000001d0: ce76 a23c a147 e13c 2030 213c 0059 b33c
000001e0: bdf5 f93c 1608 1bbd 1d90 d3bc fc48 26bd
000001f0: 143d 3a3d bacb 0fbd 1475 4dbb 9413 47bb
00000200: a565 08bd c156 e63c ebff d8ba 71e3 85bc
00000210: bdda a6bc b1ed f33c a5e3 59bd c828 a6bc
00000220: f835 f2ba 7d23 99bd a004 783c 2032 58bd
00000230: b683 25bd e414 b9bc 8bf4 c8bc f8ff 873c
00000240: 533e 89bc b11f 4a3d 02cf 893c d28c 22bd
00000250: 4682 cfbc ca58 0bbc c963 063d a4ac 0cbd
00000260: 3a1b 203d e418 27bd 6705 5cbd d1f2 55bc
00000270: 8f18 26bd fc0b b33c f255 ebbb e386 88bb
00000280: c960 aeba 7a44 e43b 7952 8d3c a172 56bd
00000290: d448 42bd 7f34 e93c 3f20 3cbd f3b4 99bc
000002a0: 63e9 c3bc 537c 30bd 7586 01bc 8005 dd3b
000002b0: 6e9b d73c 1e32 47bd f062 45bd cccf 443d
000002c0: f078 493d 792b 1ebd 7907 d13c dd4f 35bd
000002d0: b39f 213d 8548 90bc c24e a63c a6c7 113d
000002e0: daa3 0bbd 998e 3dbd d9da 393d 299a c13c
000002f0: 91a6 483d b2fd 5ebb ba7d 573c f730 0e3d
00000300: 82a0 1f3d 26d8 c5bc 9a67 15bd bd3c 473d
00000310: 4f13 c0bb 51b1 363d db0d a13c feb6 273d
00000320: e857 d13c 3086 a23c 67a5 983c d9db 8d3c
00000330: 23da 88ba 7823 03bb c501 af3b 5e31 283c
00000340: f667 85bc 1ac3 983c 548d 64bc 97b5 cc3c
00000350: 4148 f7bb 59ca 33bc 554d 473d e07f 3dbd
00000360: bfcf e5ba 3403 813c d3b1 b33b 634e 9d3b
00000370: 0a44 033c c5e9 ec3c b0a4 1fbb e277 0b3d
00000380: 9e3d c6bb 000e 263d d2fa 003d 1cf5 263d
00000390: 721d 6d3c f1cd a8ba 7846 fabb 72e9 bdbc
000003a0: e209 513d e11c 2fbd 2927 8f3c be9c 98ba
000003b0: 8919 f8bc 5385 d4ba 26e4 0bbc 5369 ddbb
000003c0: fa7b b0bc 0c1c 863b 0262 4dbc 435a 623c
000003d0: d8b3 b13c 5859 36bd e625 55bd 5e2b 9abc
000003e0: 0889 40bd 8b20 00bd 38f6 05bc 49fb 3ebc
000003f0: fe6a 533c ab3f 7bbb fb7c 7dbd 7e8a 883b
0.04230253 -0.0126086855 0.0015494515 -0.009639777 0.03751342 -0.0016031924 -0.037091386 -0.040868387
0.038094908 -0.014597739 0.01594497 -0.00830127 0.035363857 0.030796982 0.02909152 0.0324876
0.028621823 -0.025736276 -0.019445432 0.0097129205 0.028254898 0.002171207 0.007469805 -0.046527933
0.041361813 0.024630787 0.029736076 -0.028162254 -0.00064239366 0.021494348 -0.03457822 -0.036459435
-0.046732936 0.038720183 0.01127883 0.023542363 -0.0472846 -0.0022705742 -0.033586837 -0.033982586
0.025789158 0.0061782184 0.018335732 0.010072569 -0.042965904 0.03830846 0.008411777 -0.040106475
0.0114672305 -0.00600068 -0.057674978 0.016739644 -0.006899757 0.036711864 -0.039648633 -0.04951119
0.019006692 0.012682871 -0.0012153059 0.0018285582 -0.012370641 -0.025489232 -0.0027103177 -0.04333914
-0.044146165 -0.0025070584 0.01483157 -0.03611236 -0.012892685 -0.029178431 -0.047386277 -0.042429447
-0.017903624 0.0057938956 -0.024956282 -0.009995996 0.017953925 0.024726467 0.026178375 0.01872315
-0.004502379 -0.02296078 0.025097705 -0.035747748 0.026124204 0.019937253 0.0052456288 0.008647264
0.041062012 -0.034541283 -0.021557987 -0.019237608 -0.06200254 -0.03013175 -0.041328542 0.025526632
-0.04631697 0.0022445787 -0.0066853533 -0.031158928 0.025680255 -0.03192375 -0.0029659157 -0.037720192
-0.0022678412 -0.058909338 0.011810222 -0.0008859175 0.017191928 0.00045299315 -0.017675314 -0.0033128362
0.009538093 0.020459935 0.0177642 -0.014466927 0.019832041 0.027499976 0.009838134 0.021893024
0.030512685 -0.03784951 -0.025825555 -0.040596947 0.045468405 -0.0351064 -0.0031350302 -0.003037666
-0.03330006 0.02811754 -0.0016555762 -0.016343804 -0.020367974 0.029776426 -0.053195614 -0.020283118
-0.0018479219 -0.07477472 0.015137821 -0.052782178 -0.040408812 -0.02259297 -0.02453067 0.016601548
-0.016753351 0.04934663 0.016822342 -0.039685078 -0.025330674 -0.008505056 0.032810006 -0.03434433
0.039088465 -0.040795222 -0.05371609 -0.01305838 -0.040550765 0.0218563 -0.0071818763 -0.0041664704
-0.0013303991 0.006966171 0.01725124 -0.052355412 -0.047432736 0.028467415 -0.04592919 -0.018763041
-0.023914998 -0.043087315 -0.007905592 0.0067450404 0.026319232 -0.04863178 -0.048190057 0.048049733
0.0491876 -0.038615678 0.025516259 -0.044265617 0.03945894 -0.017612705 0.020301227 0.03559079
-0.034091808 -0.04627857 0.045374725 0.02363308 0.048986975 -0.0034025726 0.013152534 0.034714665
0.03897143 -0.02415092 -0.036475755 0.04864191 -0.0058616768 0.044602696 0.019659927 0.040946
0.025554612 0.019839376 0.018633557 0.017316746 -0.0010440986 -0.0020010155 0.005340787 0.010265676
-0.016284924 0.01864772 -0.013949711 0.024988933 -0.007546455 -0.010973536 0.048657734 -0.04626453
-0.0017533227 0.015748598 0.005483845 0.004800604 0.008011827 0.028920064 -0.0024359636 0.034049876
-0.006049826 0.040540695 0.0314892 0.0407611 0.014472352 -0.0012878758 -0.007637795 -0.023182604
0.051034816 -0.04275215 0.017474728 -0.0011643392 -0.030285614 -0.001621405 -0.008538282 -0.0067569404
-0.021543492 0.004092699 -0.012535574 0.013815465 0.021692201 -0.0445188 -0.052038096 -0.018819507
-0.047005683 -0.031281035 -0.008176379 -0.011656591 0.012903927 -0.003833751 -0.06188677 0.0041669

ConvNet.fc1.bias f4 [120]
00000000: fda8 9e3a cf9c 48bb d332 983c 1095 0c3d
00000010: 24dc 91bc fafd c2bb bb9e 9f3b c975 c5bc
00000020: ffeb a23c 4e64 793b f860 0abd 3a6e dabc
00000030: fd7c fdbb 3324 a73c 4825 a23c cb62 84bc
00000040: 951d 48bd 2386 08bd 9071 feba a657 e6bc
00000050: 9104 bbbb 1f09 fabc ced5 91bc ab16 17bd
00000060: fd73 da3c 542d 4dbd a137 62bd 338e c5bc
00000070: d5fb 0f3d c946 3a3a 4a06 b2bb 18c9 92bb
00000080: 69ec f53b aa87 a63c bc28 34bd 2e19 0abd
00000090: 4f9a 69bd 9080 35bc f72b 833b 0a16 92bc
000000a0: d58e 11bd 5f3d aabc b726 46bc 2bc2 d8bc
000000b0: d7f8 06bd 418f 71bb b6f2 4b3c 8b48 b5bc
000000c0: 24dc 1dbc 53fc 03bd c66e 59bd fd46 53bd
000000d0: 3e28 ddbc 6615 333b 19d3 2bbb db5d 20bd
000000e0: cbc6 b5bb 2848 6fba 7a11 333c e02c 29bd
000000f0: a959 55bc a2ec cabc 3c22 96bb b3eb 06bd
00000100: 9c2d 15bc 393d 2dbc 4e66 443b bbbe efbc
00000110: 014d 283c 2c76 00bb eb17 4fbd 2447 72bc
00000120: 9d09 a0bc 2fb8 eb3b 3abe 6f3c 3e5f 6cbc
00000130: f350 0fbc 8803 c13c 62dc 223b 0212 90bc
00000140: ecd0 ecbc 34ae 28ba dc54 423c fef6 203d
00000150: 5266 cebc f426 8ebd d0b2 be3c 4ed4 82bc
00000160: 8225 bcbc 67e0 fc3b 7605 353c 365b 15bd
00000170: c2b1 433b fc07 b9bc 2801 e23c f2cb f73b
00000180: 18fb 25bb ed3c e2bc 5d41 79bc 7c1d 26bc
00000190: dc3f 19bd 4e01 f8bb b701 843c a43a 09bc
000001a0: 3676 7cbd 1db6 01bb 28c2 d73b 2fc0 96bc
000001b0: c840 5abb 8b7e a1ba c0b9 f6bc f3af bd3c
000001c0: 0cbd 0dbd f17e a43c c8fe e3bc e1a1 60bd
000001d0: abbe 203d 3101 48bc e776 993c 2836 29bd
0.0012104806 -0.0030611043 0.018578922 0.034321845 -0.017805167 -0.0059506865 0.004871217 -0.024104016
0.019887922 0.003805417 -0.033783883 -0.026663888 -0.007735847 0.020403003 0.019793168 -0.01616039
-0.048856337 -0.033331048 -0.0019412506 -0.028117966 -0.0057073315 -0.030521927 -0.017802145 -0.036886852
0.026666636 -0.050092056 -0.055228833 -0.024115657 0.035152275 0.0007105885 -0.0054328786 -0.0044795386
0.007504989 0.020328362 -0.04398416 -0.03371542 -0.057031926 -0.011078015 0.0040030438 -0.017832775
-0.035536606 -0.020781217 -0.012094191 -0.026459774 -0.032952156 -0.0036859068 0.0124480035 -0.022129318
-0.009635005 -0.032223057 -0.053084157 -0.05158137 -0.026996728 0.0027325987 -0.0026218353 -0.039152008
-0.0055473796 -0.00091278786 0.01092946 -0.04130256 -0.013021865 -0.024771038 -0.004581718 -0.032939624
-0.009105112 -0.010573679 0.0029968205 -0.029265752 0.010272265 -0.0019601686 -0.05055992 -0.014787469
-0.019535834 0.0071935873 0.014632756 -0.014427004 -0.008747327 0.023561254 0.0024850597 -0.017586712
-0.028908215 -0.00064346497 0.011861052 0.03929805 -0.025195275 -0.069410235 0.023278624 -0.015970375
-0.022967104 0.0077171805 0.011048665 -0.03646394 0.002986059 -0.022586815 0.027588442 0.007562154
-0.0025326665 -0.027616942 -0.015213338 -0.010138866 -0.037414417 -0.007568515 0.016114099 -0.008375797
-0.061636172 -0.0019792386 0.0065844245 -0.018402187 -0.0033302773 -0.0012321038 -0.03011787 0.023155188
-0.034604117 0.020080062 -0.02783145 -0.05484188 0.039244335 -0.012207315 0.018733455 -0.041311413

ConvNet.fc2.weight f4 [84, 120]
00000000: c088 a03d eb21 2fbd 58aa c7bc badc 7b3d
00000010: 80e3 ea3c c092 28bd dba2 1dbd 10ff 253d
00000020: 38c6 06bd 9d9a 2a3d a6a4 90bd 5e2d 0a3b
00000030: e737 9f3d b560 a7bd a7e7 803d 639e 2cbd
00000040: 6e3e f03a 6451 b5bd 7e8e f9bc 2670 303d
00000050: c437 a9bc 0a6f 1f3c 7b23 44bc a3e6 b6bc
00000060: 1249 203c 40b0 d5bc 355b 99bd 80b5 70bd
00000070: 8be4 1abd 765d a23c 9819 22bd 82e4 36bd
00000080: 7cba bd3c 2eff 2d3b b848 5ebd 3ae8 1a3d
00000090: 7283 3fbd 3961 723c 67cd 343d a802 81bd
000000a0: a88b 913d 82f8 9a3d c1f4 37bd 8151 243d
000000b0: 5cce 43bd 2cd1 54bd 4c29 633d 4b69 543d
000000c0: 006a e6bd 8a21 e13b d6be 873d 9228 563c
000000d0: 9af7 23bd b104 373d ec9b a33c daeb 163d
000000e0: 32cb d43c bcdd 98bd 2a9d d9bc c597 71bd
000000f0: 263d fcbc eb0c 043d 2b24 b43d a1cd 0339
00000100: c540 ac3c 810e 8a3d fdc1 afbd cdd9 793d
00000110: 9c5c 803d 1fc5 993c 94a7 bdbc 5698 033c
00000120: 5497 aebd 6cf5 b4bd 7c06 103c c8d5 7dbd
00000130: 3463 04bd 8d7b 66bd a08d 443d 1a23 d0bd
00000140: be02 87bd 9832 c2bd b4c5 6c3d afe8 a2bd
00000150: 92bf a13d 4c59 443d a175 2dbb fb5f 893d
00000160: 9e06 b5bd 397e 2abd 0509 40bd 0bb0 933c
00000170: 21c6 96bb 6cbe 94bd d9c9 823c 1774 a5bd
00000180: 895a 463d 450d 2ebd 7b20 7fbd 5a85 103c
00000190: 28ba a4bd 1de1 553d f456 ec3c 2bed 673c
000001a0: 1bd9 99bd e7f5 053d e9af 1cbd 1931 a9bc
000001b0: 92e1 21bd 7f53 8f3c 4690 893d 0ba9 5b3d
000001c0: 17c6 28bd dc22 b5bc f09d 53bd 3135 803d
000001d0: 2168 08bd 8d45 3b3d cba0 a7bc 8d67 4d3a
000001e0: 5eb7 9c3d 989b 55bd 1bc6 91bd ec8e 8dbb
000001f0: 0142 8bbd ce19 a7bd af5f 0abd d239 acbd
00000200: 29a6 2ebb 30f9 a3bb 8db4 023d 96ac 90bd
00000210: 77f3 5abd ed8f 023c d672 52bb 8187 dd3c
00000220: 96d7 ab3d a36d bbbb 0fec 403d 676e ce3c
00000230: 5ee8 92bd 1dbf e0bc 61a6 383d 4513 77bd
00000240: 5064 203d 230c b7bd 966f 78bd b292 a1bd
00000250: b90e dcbc 0386 ec3c 2bd9 533d c3dc a2bd
00000260: 2a8b 18bd 79f2 35bb 1f70 093d 23f0 fd3b
00000270: e844 e43a 2ae7 3f3b d6ee 793d e25c 823d
00000280: b54f 95bd d6c0 2d3d 648f 983d 3a01 783d
00000290: 044b 94bd 29b9 d6bc 3fb3 a63c 3b11 a1bd
000002a0: 93df 3e3d 4bee 6cbd 3a7f 543d e723 0abc
000002b0: f94b 1b3d 92d4 dd3a c96e 29bd 0a77 77bd
000002c0: 6573 a83c cfca f43c d5ad 873c 3df7 203c
000002d0: a8f8 a43d b29a 8abc 3760 ae3c 44e2 74bc
000002e0: b887 493d d28f 383b cbd7 9d3d ef03 bcbd
000002f0: 62c0 933d 2718 20bd 6f62 cb3c a20b 4b3c
00000300: 4ed3 4c3d 5150 6a3d 98da 6d3d 9bb2 11bd
00000310: d8c6 b13d 5630 bb3c 05b9 ad3b b059 99bc
00000320: d05e 5b3c b5b5 9dbb 5cfd 853d 54a1 6f3c
00000330: 5d33 b33d 47ce 61bd 58c7 5bbd 16db e0bc
00000340: 06db 0bbd 96ff 2fbd 835e 723d 4b68 abbb
00000350: a1d4 aa3c caba 4abc 1397 b33d d021 e83b
00000360: b0b0 a2bd 54d3 8bbd 7562 a4bd c0be 753c
00000370: 93aa 2bbc d213 82bd c6ed 253d 81e6 59bb
00000380: 0acc 313d 1de3 9ebd 45a5 3bbd 45e0 a2bc
00000390: 6d56 da3c 5f98 0c3d bf3a 20bd 8787 c13d
000003a0: a4f2 0f3d c8d9 333b 6231 17bd 20c0 6f3c
000003b0: 36f6 a6bd 36ab 2ebd 833f b7bb 1329 64bd
000003c0: a64c 30bc 1972 06bd a98b c13c 3992 89bd
000003d0: b210 313c 7d2c 89bd 75bb 8b3d fe44 8dbd
000003e0: da34 5ebb d227 8ebd f73a 2dbd d515 473d
000003f0: d7b7 fa3c acc4 41bd cd41 f63c bae2 9abd
0.07838583 -0.042756956 -0.024373218 0.061489798 0.028672934 -0.041155577 -0.03848539 0.04052645
-0.03290388 0.041651357 -0.07062654 0.002108417 0.077743344 -0.08172742 0.06294184 -0.042143237
0.0018329152 -0.08853415 -0.030463453 0.043075703 -0.020656474 0.009731064 -0.01197135 -0.022326773
0.009783046 -0.02608502 -0.074880995 -0.058766842 -0.03781561 0.019819956 -0.03957519 -0.044651516
0.023160212 0.0026549804 -0.05426857 0.037819125 -0.046756215 0.0147936875 0.0441412 -0.06299335
0.071067154 0.0756693 -0.04491115 0.04011679 -0.04780422 -0.051957294 0.055459306 0.051858228
-0.11250687 0.0068704532 0.06628196 0.013071196 -0.040031053 0.04468221 0.01997181 0.03684602
0.025975797 -0.074641675 -0.0265642 -0.05898263 -0.030790877 0.032238882 0.08795961 0.00012569736
0.021026978 0.06741048 -0.08581922 0.060998727 0.06267664 0.018770752 -0.023151197 0.008031925
-0.08524957 -0.08835873 0.0087906085 -0.061971456 -0.03232117 -0.05627017 0.047986627 -0.10162945
-0.0659232 -0.09482306 0.057805732 -0.07954537 0.07897867 0.047936723 -0.0026467817 0.0670776
-0.08839153 -0.04162428 -0.0468836 0.01802828 -0.0046012555 -0.072628826 0.01596539 -0.08078783
0.048426185 -0.042493124 -0.062286835 0.008820856 -0.08043319 0.052216638 0.028850056 0.014155666
-0.07512113 0.032705214 -0.0382537 -0.020653294 -0.03952176 0.017495869 0.06716971 0.05362801
-0.04120454 -0.022111349 -0.051664293 0.062601455 -0.03330243 0.045720626 -0.020462414 0.00078355597
0.07652162 -0.05215034 -0.07117864 -0.004320016 -0.067996986 -0.08159219 -0.033782657 -0.08409466
-0.0026649332 -0.0050040707 0.031910468 -0.07064168 -0.053454842 0.007968885 -0.0032111905 0.027042152
0.08390729 -0.005719857 0.047100123 0.025199128 -0.07173227 -0.02743488 0.045080546 -0.06032111
0.039158165 -0.08937862 -0.06065329 -0.07889308 -0.026862489 0.028872496 0.05172078 -0.07952263
-0.037242092 -0.0027762933 0.033554193 0.007749574 0.0017415555 0.0029282072 0.061018787 0.06365372
-0.072905935 0.04242023 0.074492246 0.060548045 -0.072408706 -0.026211338 0.020349143 -0.078646146
0.046599936 -0.05784444 0.051879145 -0.008431411 0.03791425 0.0016924313 -0.04136542 -0.06041626
0.020562837 0.029881863 0.016562382 0.009824571 0.0805524 -0.016919468 0.021286113 -0.014946524
0.049201697 0.0028161895 0.07707175 -0.09180438 0.072144285 -0.039085533 0.02482721 0.01239291
0.050006203 0.057205502 0.058069795 -0.035570722 0.086805046 0.022850197 0.005301597 -0.018719524
0.013389304 -0.004812921 0.06542465 0.014625866 0.08750031 -0.055128362 -0.053656906 -0.027448218
-0.034144424 -0.042968355 0.059172165 -0.0052309386 0.020853342 -0.012373636 0.087690495 0.007084109
-0.07943857 -0.06827417 -0.08026592 0.014999092 -0.01047768 -0.06351437 0.04050996 -0.0033248963
0.043407477 -0.07758162 -0.04581191 -0.01988233 0.02665254 0.034325 -0.039118525 0.09449678
0.03514351 0.002744304 -0.03691233 0.0146332085 -0.0815243 -0.04264375 -0.005592288 -0.055703234
-0.010760462 -0.032823656 0.023626165 -0.06717343 0.010807203 -0.066979386 0.06822864 -0.06897925
-0.0033906014 -0.06941189 -0.04229256 0.048604805 0.03060524 -0.0473067 0.030060673 -0.07562776

ConvNet.fc2.bias f4 [84]
00000000: 228e 323d e562 603d 9bdd d73c d5ae a43c
00000010: 14fe 84bd 69d7 a13c c6ed ccbc edf4 663b
00000020: 4bef ea3c 7913 a8ba fa02 5abb 30b9 a63b
00000030: 8feb 90bd 42e5 0dbc 7879 86bc 31ff 79bb
00000040: 5651 853c 4bd1 afbd 9527 a53d f9a2 a3bd
00000050: 4dfb d73c c174 6cbd dbca 94bd a018 473d
00000060: 8ec9 923d 872a 623c e1b8 593d 1f39 a5bd
00000070: 939f 9cba 861a a8bc a30f babd b17b 643c
00000080: 2164 86bd 88d2 90bb 6a8a d5bb 28fe 283c
00000090: 70af 2a3d 2e47 b6bc a40a 7e3d fab0 413c
000000a0: 8ef0 30bc b99f 133b b4f2 43bd c39a a5bd
000000b0: 963d c63c 6a7f 4d3c da06 94bb daaa 2fbd
000000c0: d442 8ebc ec64 1e3d bb0c f6bc c11a 7d3c
000000d0: 3aaf 0fbc 7b43 73bb 7949 4fbd 2958 8b3d
000000e0: a22b debc bc9c c4bc e38d 9fbd d205 8cbd
000000f0: 3534 c5bc 7e33 28bd 201c 00bd bc8e aebc
00000100: fc60 c13c ffea d63c 373b 27bc 704c ddbc
00000110: 427d 833d 6655 68bd 01de 71bd 7223 773b
00000120: ebe6 efbc 36b7 e4bb cfed 03bd 3723 433c
00000130: 7942 043b 4f09 223b 9674 a8bd d673 173d
00000140: 3729 373d f8c6 95bd 9301 85bc fc8b 3abd
0.04359258 0.054781813 0.026350787 0.020102898 -0.06493774 0.019756036 -0.025015723 0.0035241202
0.028678557 -0.0012823186 -0.0033265934 0.005087994 -0.07076179 -0.008660616 -0.016415343 -0.003814649
0.016274136 -0.08584841 0.0806419 -0.07990069 0.026364947 -0.057728533 -0.07265254 0.04860747
0.0716735 0.013804085 0.05315483 -0.080675356 -0.0011949412 -0.02052046 -0.09085014 0.013945506
-0.06562067 -0.0044196285 -0.0065167444 0.010314502 0.041671216 -0.022250738 0.062021866 0.01182198
-0.01079954 0.0022525622 -0.04783888 -0.08086159 0.024199288 0.012542585 -0.0045174183 -0.042887546
-0.01736585 0.038670465 -0.030035367 0.015448273 -0.008769805 -0.003711908 -0.05060718 0.068039246
-0.027120415 -0.024000518 -0.077907346 -0.06837048 -0.024072746 -0.04106473 -0.031276822 -0.021308295
0.023605816 0.026235102 -0.010206989 -0.027013987 0.064203754 -0.056722067 -0.05904961 0.0037710336
-0.029284915 -0.0069798483 -0.032209214 0.011910251 0.0020181222 0.0024724787 -0.08225362 0.036975704
0.04471704 -0.07313341 -0.016236102 -0.045543656

Output.fc.weight f4 [1, 84]
00000000: 64cf c3bb 6a48 1cbd 5fb5 7ebc 7bfe 973c
00000010: e386 323d 34cd a9b8 f71a 153c f03e 21b9
00000020: aa19 c3bc 0128 a53c 8f37 5d3b 1fa0 bfbd
00000030: 257f 58bd 5f56 60bb 4965 a63c 306c 883c
00000040: a14e 06bd bd08 043d 650f b0bd 508d 8a3d
00000050: 33e0 6cbd 656c dbbc bbb5 22bd 0610 70bc
00000060: 28b7 b1bd a8d9 50bb e574 50bd 3bc4 9dbc
00000070: dc1b 70b8 9952 56bd 1c7e bebc 5aa9 da3b
00000080: faa8 b1bc 15f0 aa3c 6529 86bd 0441 2e3d
00000090: f728 363d 5607 a83d 2049 5bbd 38cb bcbc
000000a0: c051 95bd 88b3 d23b 2d9e 9e3d 8e4e a1bc
000000b0: b29c d83c 813c 813a da76 06bc 8416 c5bc
000000c0: d044 273d 59a5 0b3d 2644 d93d d470 17b9
000000d0: 983d 0abc 8904 cc3d 7b37 743c ae98 02bd
000000e0: fa90 cd3c d31f ec3a 1a0b 85bc 0fef 313d
000000f0: cf9f a33d 65e2 a7bd 17a1 6e3a 54d6 bb3d
00000100: 6f44 feba 993f 6c39 3fe6 6abc 2a89 a13d
00000110: d6a7 4bbd 545a 10bc 881d 73bd 50a6 c136
00000120: 2bfb 8cbd 508e 6c3d adce 9f3d a7dc e2b9
00000130: fd94 0a3a 5807 9b3b c802 403c 6d2f 7bbd
00000140: 1365 afbd 1224 80bc 057a 7b3b d600 ca3c
-0.0059756506 -0.038154997 -0.015546172 0.018553963 0.04358567 -8.09677e-05 0.009100667 -0.00015377603
-0.023815949 0.020160677 0.003375504 -0.093567125 -0.05285563 -0.0034231169 0.020311968 0.01665315
-0.03278983 0.032234896 -0.08596686 0.067652345 -0.057831 -0.026785085 -0.039724093 -0.014652258
-0.086775124 -0.0031868014 -0.05089273 -0.019258609 -5.7246405e-05 -0.052324865 -0.023253493 0.0066730203
-0.02168702 0.020866433 -0.06550864 0.042542472 0.04447266 0.08204524 -0.053536534 -0.023046121
-0.07290983 0.006430093 0.077450134 -0.019690778 0.026441906 0.000985995 -0.008207047 -0.024058588
0.04083711 0.034093235 0.106087014 -0.00014442514 -0.008437537 0.099618025 0.014905806 -0.031883888
0.025093544 0.0018014855 -0.016240645 0.043440875 0.079894654 -0.08197478 0.0009102984 0.09171739
-0.0019399057 0.00022530406 -0.0143371215 0.0788749 -0.049720608 -0.008810598 -0.059354335 5.7712095e-06
-0.06883844 0.057752907 0.07803092 -0.00043270478 0.0005286483 0.0047311 0.011719413 -0.061324526
-0.085642 -0.0156422 0.003837229 0.024658602
