tutorials/W1D2_ComparingTasks/RR/models/ConvNet_regression_1000_epoch_3.pth (torch, 248008 bytes, 9 tensors)

ConvNet.conv1.weight f4 [6, 1, 5, 5]
000000 0c 75 fb 3d 98 92 e9 3d af d8 60 3c 45 a0 15 3e
       0.12278184 0.11404914 0.013723536 0.14611919
000010 a9 be 85 bd 10 64 f6 3c 8c 8b 37 3e c8 94 26 3e
       -0.06530506 0.03007701 0.17924327 0.16267693
000020 a4 9b 0e be 56 88 18 bd 9b 63 db 3d aa fb 8d bd
       -0.1392656 -0.037239395 0.107123576 -0.06932767
000030 6b ce a5 3b 23 9b d6 bd 13 84 e9 bd c2 9a 31 3d
       0.0050600073 -0.10478809 -0.11402144 0.04336048
000040 a5 e6 af bd 2c 90 6a bd dc f9 9e 3c eb ed 0e 3e
       -0.08588914 -0.0572664 0.019406252 0.13957946
000050 63 01 af bd 3e b4 90 3d f2 bf ec 3d 86 83 20 be
       -0.08545186 0.070656285 0.11560048 -0.15675172
000060 f4 3d 25 3e c3 ae 32 be 98 b9 db 3c 96 ed f6 bd
       0.16136914 -0.17449479 0.026821896 -0.12057035
000070 af 75 2c 3e d6 24 0a 3e 9b 70 32 bd 26 a0 a9 bd
       0.16841768 0.13490614 -0.04356442 -0.08282499
000080 07 00 47 be c8 93 8b 3d c3 b5 b8 3c 1c ed 53 be
       -0.19433604 0.068152964 0.022547608 -0.20695919
000090 d8 52 9a 3d 16 fc 13 3e a2 ea af bd 2e 7b 87 bd
       0.075353324 0.14451632 -0.085896745 -0.066152915
0000a0 42 eb 4a 3d 2f 96 e4 3d 45 d3 63 bd c3 d1 11 be
       0.049540766 0.11161458 -0.055621404 -0.14240174
0000b0 df 01 06 3e da 29 5d bc 1f 57 99 3d 41 a2 8c 3c
       0.13086651 -0.013498748 0.0748732 0.017167212
0000c0 cc 5b 85 3d 73 dc 1f be 04 f5 3c be d4 aa c8 bd
       0.065116495 -0.15611438 -0.18452841 -0.09798208
0000d0 4c 36 28 3c b7 f9 9b 3c 4e 06 a5 3c 2a 2c 18 3e
       0.010266852 0.019039972 0.020144608 0.14860597
0000e0 f5 14 e2 bd c2 db 28 bd e7 bb c6 3d dd 50 1e bd
       -0.110391535 -0.041225202 0.09703808 -0.038651336
0000f0 bd 73 93 3d 85 f0 ae bc c7 f7 a8 3d e7 73 62 3d
       0.0719981 -0.021354923 0.08250385 0.055286314
000100 56 91 7c 3d 09 95 3a 3d 2c e9 53 bd 09 51 93 bd
       0.06166204 0.045552287 -0.051736042 -0.071931906
000110 f8 b1 4f be e0 53 10 3e 32 e4 39 bd 61 f5 f0 bc
       -0.20282733 0.14094496 -0.04538364 -0.02941388
000120 50 eb 33 be 4a 66 6a bd 1b bd 14 3e 67 1a c1 3d
       -0.17570233 -0.057226457 0.14525263 0.09428864
000130 b9 07 00 be 07 9f f5 3d 04 3f 41 3e 63 b6 b2 bd
       -0.12502946 0.11993223 0.18871695 -0.08726194
000140 40 7c 2a be 0d 1e eb 3d a6 fa 03 3d 82 04 6f 3d
       -0.1664896 0.11480341 0.03222146 0.05835391
000150 1e a4 33 bd 22 96 91 3d 85 95 0a 3e ed d1 37 be
       -0.043857686 0.07108714 0.135336 -0.17951174
000160 c3 77 4b be 58 17 7b 3d 1a 8f 41 be 4a 63 93 bc
       -0.19869904 0.06130156 -0.18902245 -0.01799168
000170 6e b5 27 3e 9b 74 20 be 06 ac 0f bd fd a0 78 bd
       0.16377804 -0.15669481 -0.035076164 -0.060700405
000180 ec dd 3f 3e 48 25 0d 3e 4d 89 7c bd 14 4d ff bd
       0.18737 0.13783753 -0.061654378 -0.12465873
000190 27 26 95 3d 4e ab 6b 3c 40 cc ac bd c4 3d fe 3d
       0.072826676 0.014384104 -0.08437395 0.124141246
0001a0 7b e4 fc 3d ac f7 40 bd 48 9c 96 3d c0 08 0f 3e
       0.12348267 -0.0471112 0.07354027 0.13968182
0001b0 7c 7c c6 3d 6e 7c a0 bd 54 cc ea bd 5d 12 bb 3d
       0.09691712 -0.07836233 -0.11464754 0.09134362
0001c0 77 40 6c bd 2d 68 a2 3d 16 34 fb bd 2d b0 47 be
       -0.057678666 0.07930026 -0.12265794 -0.195008
0001d0 ce ac 18 be 3b 06 53 be 82 99 f2 bd 9e 10 06 3d
       -0.1490967 -0.20607845 -0.118456855 0.03273069
0001e0 5f e2 ac 3d 72 bc 39 3e df 67 27 be 78 2c 66 3d
       0.08441614 0.18138292 -0.16348217 0.056194752
0001f0 e6 24 77 3d 77 86 3b be 13 a0 22 bd 35 89 2d bd
       0.060337923 -0.18313013 -0.03970344 -0.04236718
000200 44 f6 db bd b2 2d 19 3e c9 af 22 be 7f 8d 72 bd
       -0.10740331 0.14958838 -0.15887369 -0.059216972
000210 7b 95 10 be ad fa ac 3c a8 25 4c be ef ec 0e be
       -0.14119522 0.021115625 -0.1993624 -0.1395757
000220 af 3e 82 3d 35 74 45 3e 9f b2 11 3e 72 00 9f 3d
       0.06359612 0.1928261 0.14228295 0.07763757
000230 46 0f 76 bd 52 bd 06 be 48 56 45 be 80 46 24 be
       -0.06007316 -0.13158157 -0.19271195 -0.16042519
000240 4d be d4 3a 0b ec f0 bb 4c 1b 92 3c e7 f3 28 3e
       0.001623103 -0.0073523573 0.017835282 0.16499291
000250 86 ea 00 be 00 38 38 be
       -0.12589464 -0.17990112

ConvNet.conv1.bias f4 [6]
000000 21 09 c2 ba 6c f4 36 be 7e 43 63 bd 86 76 ec 3c
       -0.0014803746 -0.17866677 -0.055484287 0.02886511
000010 01 99 38 3d bb 93 87 3d
       0.04506779 0.06619974

ConvNet.conv2.weight f4 [16, 6, 5, 5]
000000 60 5e 98 3d 97 45 99 3b 49 18 60 bd d9 54 96 bd
       0.074398756 0.004677485 -0.05471066 -0.07340402
000010 78 ac d4 bc d5 7d 9d 3d b9 fa f4 3c 72 9d a3 bd
       -0.025961146 0.07690016 0.02990471 -0.07989015
000020 0f db a9 bd 24 56 02 bd 2b da a9 3c 75 88 6a 3d
       -0.08293735 -0.03182043 0.020733913 0.05725904
000030 32 a9 62 bd 22 31 a9 bd 7e 37 1e bc 6c da 13 3d
       -0.05533714 -0.082613245 -0.009656785 0.036096975
000040 84 b6 56 3c 3d 3e 71 bd 70 bb 19 3d b1 56 1a 3d
       0.013105039 -0.058897246 0.03753227 0.03768033
000050 6c f8 d4 3c 7e 6f 2a 3d 28 7e 9e bd 25 e5 b5 bb
       0.025997363 0.041610233 -0.07738906 -0.005550998
000060 db af 33 3d 8d 36 9a bd ef 23 30 3d 8d af 98 bd
       0.04386888 -0.07529936 0.04300302 -0.07455359
000070 3e 74 40 3c 6c cf 98 bd d7 fb 8c 3d d7 32 51 3c
       0.011746464 -0.074614376 0.06883972 0.012768469
000080 f5 40 a9 bd cf 17 88 bd 95 d7 91 3d e6 12 e1 39
       -0.08264343 -0.06645166 0.07121197 0.00042929425
000090 e7 e7 3d bc bf 39 66 bd 07 02 81 bd c3 5b 56 bc
       -0.011590934 -0.056207415 -0.06299215 -0.013083401
0000a0 5d 2b 64 bd ae ac 96 3d 25 db 81 bc a9 ad 81 bd
       -0.055705417 0.07357155 -0.015851567 -0.06331951
0000b0 5d 3d 9f 3c de c1 4f 3d a9 d1 ec 3c e8 af 3b 3d
       0.01943844 0.050721996 0.028908568 0.045822054
0000c0 7a ff 12 bd b3 fa 75 3c 29 ba 15 bd 40 ea 50 bd
       -0.035888173 0.015013385 -0.03655449 -0.05100465
0000d0 49 82 b8 3c 7a 6f 83 3b cf c9 b7 ba 39 9a d8 3c
       0.022523062 0.004011092 -0.0014021936 0.026440727
0000e0 cd 53 89 3d a3 a1 41 3d b6 a8 6f bc fd 82 78 3c
       0.06705437 0.04727329 -0.014627626 0.015167949
0000f0 60 69 8a 3d 8c 88 67 bd 83 cd d2 bc 85 3b f7 ba
       0.0675838 -0.056526706 -0.025732761 -0.0018862343
000100 3e 1f 2e bd 0f 79 82 3c 10 44 f0 3c e0 63 91 3d
       -0.042510264 0.015926866 0.02932933 0.07099128
000110 aa 1f 4e bd 0a 2f 10 3d 90 ca e5 3b db 47 2b bd
       -0.050323166 0.03520111 0.0070126727 -0.041816574
000120 b4 48 74 bb 2c e0 23 3d bc b6 91 3d a4 67 51 bd
       -0.003727478 0.04000871 0.07114932 -0.05112423
000130 dc 4d 3a bd f8 ea d0 3b 97 81 3c bb 81 7f 93 bd
       -0.04548441 0.0063756667 -0.0028763765 -0.07202054
000140 6b e3 40 bd 0f 34 13 3b 90 b4 6c 3d 80 71 8e 3d
       -0.047091883 0.002246145 0.057789385 0.06955242
000150 e9 a2 0a bd b8 97 91 3d 87 46 7b bc 35 0f 4e 3d
       -0.03384677 0.07109016 -0.015336639 0.05030747
000160 04 85 df bc 34 22 d7 3c 81 c7 88 bc 98 65 4d 3c
       -0.027285106 0.026261427 -0.016696693 0.012536429
000170 47 c9 8a 3c 21 e9 64 bd 00 15 7b bd 13 7e 83 3d
       0.01694168 -0.05588639 -0.061299324 0.06420531
000180 b4 75 8b 3d 52 01 ca 3c f8 33 2d 3d d4 d8 29 3d
       0.068095595 0.024658833 0.04228589 0.04146655
000190 3b 44 08 bd 2e 04 81 3d 0d f3 48 bd 4a ff 9d 3d
       -0.033268195 0.06299625 -0.049059916 0.07714708
0001a0 4e 6f 86 3d 8b 85 33 bd b9 0d 4f 3d 9b 4b 2f 3d
       0.065641984 -0.04382853 0.050550196 0.042796712
0001b0 5c d2 8a 3c 8b 27 8d 3d 1e ae 94 3d f6 ba 41 bc
       0.01694601 0.06892308 0.07259773 -0.01182436
0001c0 a8 4d 6d 3d d3 91 39 3d 2c a2 62 bd a6 fb ba 3c
       0.057935387 0.045305084 -0.05533044 0.022825073
0001d0 0c b0 12 bc 47 dd e6 3c fb 2d 22 bd db c7 7f 3d
       -0.008953106 0.028181685 -0.03959463 0.062446456
0001e0 f3 ab 9f bd 68 72 96 3b 1c 56 29 3d 08 0b 47 bd
       -0.077964686 0.004591275 0.041341886 -0.048594505
0001f0 16 c2 98 bd bf 71 86 bd b6 66 c1 bc 90 c6 9d 3c
       -0.07458894 -0.06564664 -0.023608547 0.019259721
000200 12 be 11 3d 4c 42 62 bd c0 3b 0b 3c 3f 1c b6 bb
       0.035581656 -0.055239007 0.008498132 -0.0055575664
000210 a8 67 bb 3c 67 63 4c bd 4f 73 89 39 57 2c e3 bc
       0.022876576 -0.049899485 0.00026216588 -0.027731104
000220 6a 9b 9b 3d ff 40 42 bb 10 cb 4c 3c 7d 4d 9f 3d
       0.07598002 -0.0029640791 0.012499586 0.077784516
000230 98 d3 29 3d ca b5 a7 3d 9f fe 54 bb 10 e2 81 3d
       0.041461557 0.081889704 -0.0032500399 0.06341946
000240 78 95 04 3d ad 76 1f bc b1 01 92 3d 91 0d 6c 3c
       0.032369107 -0.009732884 0.07129229 0.014407531
000250 c8 b4 0f 3d bb 4b 2d bd dc 9b ef 3c a1 7a f8 3c
       0.035084516 -0.04230855 0.029249124 0.030331912
000260 74 4f 51 bd c1 55 10 bd 74 16 10 3c fe 8e 75 bd
       -0.051101163 -0.03523803 0.008794416 -0.05995082
000270 40 fe 70 bd 77 15 b9 bb 90 81 aa bc 7d c5 30 3d
       -0.05883622 -0.0056483108 -0.020813733 0.04315709
000280 cf bb 2c 3d c3 1b 88 ba d2 94 17 3d 29 d8 3c bd
       0.042171296 -0.001038425 0.03700716 -0.046104584
000290 f9 84 b2 bd ec b7 9f bd 92 59 4b bc 26 4e 8f bd
       -0.08716769 -0.07798752 -0.012411492 -0.069973275
0002a0 58 85 1f bd 95 c6 ce ba 9e 4c 3b bd c8 71 05 3d
       -0.038945526 -0.0015775735 -0.045727365 0.032579213
0002b0 ed 4a f6 bc bf e0 a9 3d 49 a1 b8 bc d9 5c 48 3d
       -0.030065024 0.0829482 -0.022537844 0.04891667
0002c0 03 23 20 3b 82 a6 bb bd 5f ab 4d bd 25 8c 64 bd
       0.002443493 -0.09162618 -0.05021226 -0.055797715
0002d0 45 77 80 bd 9d 06 2a 3d a4 c2 aa bd e4 c1 d4 3c
       -0.06272749 0.041510213 -0.08337906 0.02597136
0002e0 2c fe 7b bd 67 0f 66 ba 6a 54 42 3c 8d d3 95 bd
       -0.061521694 -0.0008776099 0.011860946 -0.07315741
0002f0 a9 e1 39 bc a5 35 9d 3c a5 dc 4b bd 39 d3 32 bc
       -0.0113453055 0.019190619 -0.04977097 -0.010914617
000300 ee fb 7c bd 4a 9b 17 bd dd 9b 1f 3d 75 1a 2b 3c
       -0.061763696 -0.03701333 0.038967002 0.01044332
000310 60 4a 49 bd 5f 78 ae 3d df cf 26 bd b4 2b a6 38
       -0.049143195 0.08519053 -0.040725585 7.923637e-05
000320 28 a8 64 bc 7e fe 65 bd 48 ae c7 3c 59 e6 91 bd
       -0.013956107 -0.056150906 0.024375096 -0.071240135
000330 9f c5 84 3d 7a 12 68 3d c1 69 70 3d c3 c1 27 bd
       0.06483006 0.056658246 0.058694605 -0.04095627
000340 af 62 4b bc e8 9f f5 3b d8 e7 a3 bd 02 22 1a bd
       -0.012413665 0.007495869 -0.08003205 -0.03763009
000350 26 36 0f 3d 53 67 1a bd 21 58 84 ba bf fd 4a 3d
       0.03496375 -0.037696194 -0.0010097065 0.049558397
000360 10 2f 90 ba 38 9d 2f bc 20 b9 5b bb a8 99 2d bd
       -0.0011000354 -0.010718636 -0.003352709 -0.042382866
000370 22 77 a7 3d 03 58 31 3d 43 7b 7e bd 2c 62 9a bc
       0.0817702 0.043296825 -0.06212927 -0.01884564
000380 03 9b 96 bd e5 e8 3c 3d 1f 24 40 3d 40 e6 00 bd
       -0.07353785 0.046120543 0.046909448 -0.031469584
000390 aa 25 bc bc 78 e2 a5 bd 4c 95 32 bd d6 d7 3d bd
       -0.022967178 -0.08099836 -0.04359941 -0.046348415
0003a0 6b f8 8c 3d 73 34 33 bd 9d 4d 14 3a c9 2e 9c bd
       0.068833195 -0.04375119 0.0005657317 -0.07626111
0003b0 91 22 12 3d f4 5b 0b bc bb ba e6 3c 5c fd b4 3c
       0.035677496 -0.00850581 0.028165212 0.022093467
0003c0 65 fc 54 bd a0 c4 45 3d 89 a0 6c bd fa d2 2f bc
       -0.051998515 0.04828322 -0.057770286 -0.010731453
0003d0 3d cd 83 3d c8 a3 6a bd 80 4c 0d bd 9d d5 a2 3d
       0.064356305 -0.0572851 -0.034496784 0.079509
0003e0 cd 1e 13 bc 6e a3 98 bc 13 39 e6 bc 18 f3 36 bb
       -0.008979511 -0.018632617 -0.028103387 -0.0027915891
0003f0 af 09 0a 3c db ec 21 bd 4e 10 39 3d d6 06 cb bc
       0.00842516 -0.039532524 0.045181565 -0.024783533

ConvNet.conv2.bias f4 [16]
000000 ba af 8b 3c 0a c3 9a bc 80 8d 13 3d f7 2c a5 bd
       0.017051566 -0.01889183 0.036023617 -0.08065217
000010 60 fd 71 b9 0e 92 0d bc 09 14 8a 3d c3 ca 04 bd
       -0.0002307794 -0.008640779 0.06742103 -0.03241993
000020 68 cf bf bc 16 bf de 3c af 9d 8e bd 61 9f 6d bd
       -0.023414329 0.027190726 -0.069636695 -0.058013324
000030 2b be 77 bd b9 28 64 bd 35 d0 80 3d 73 ff 8f 3d
       -0.060484093 -0.0557029 0.06289712 0.07031145

ConvNet.fc1.weight f4 [120, 400]
000000 9a 0b 13 bd 2b 59 4f bd 42 32 67 bd 1f db 55 bd
       -0.035899736 -0.050622147 -0.056444414 -0.052210923
000010 90 1b 67 bd 31 75 21 3d 69 49 2a 3d 52 40 f8 bb
       -0.05642277 0.039418403 0.041573916 -0.007576027
000020 88 91 db 3c ae 2e c3 bb 1d 08 1e bc 76 18 1f bd
       0.026802793 -0.0059564924 -0.009645489 -0.038841687
000030 bb 75 d3 bc db 9b 18 3d bb 4e 4b bd d1 67 06 bd
       -0.025812974 0.03725801 -0.04963563 -0.03281385
000040 d7 1f a8 3c 98 54 b6 bc 8d 0e 4c bc 3c 6b c8 bb
       0.020522995 -0.022257134 -0.012454641 -0.006116299
000050 67 8e 18 bd d5 2b da 3c 98 41 00 3d f7 88 53 3c
       -0.03724518 0.026632229 0.031312555 0.012911073
000060 7c a8 0b bd 43 a4 f4 bb 4e fe 3b 3d f1 69 97 bb
       -0.034096226 -0.0074658706 0.04589682 -0.0046207835
000070 b4 c4 6a 3c c5 53 48 bc 7d 8e 7d bc 7f da 5a bb
       0.014329124 -0.012227003 -0.015475866 -0.0033394394
000080 01 11 d6 bc ec f8 fd 3c 6c de 04 3c 89 c7 18 3d
       -0.026131155 0.031002484 0.00810967 0.037299667
000090 c5 7e ec bc a1 56 35 bd b7 ce 3b 3d 91 18 0e bd
       -0.028869042 -0.04427207 0.045851436 -0.034691397
0000a0 1e 46 15 3d 29 eb 31 3d 6d 8b a8 3c 1a 6e 29 3d
       0.036443822 0.043437157 0.020574296 0.041364767
0000b0 fa f6 a8 3c d0 cd ea bc 4d 45 4b 3c fd 9a 3b bd
       0.02062558 -0.028662592 0.012406659 -0.045802105
0000c0 d2 b3 30 3d 93 20 93 3c bd bf a2 3c 9d 41 f2 3c
       0.04314024 0.017959869 0.019866819 0.029572302
0000d0 ad 4b 4b bd 4a a8 ef bc 62 39 1e 3d f3 6d a6 bb
       -0.049632717 -0.029255051 0.038628943 -0.005079025
0000e0 31 42 63 bc e3 06 c2 bc f7 67 00 bd 4f 03 45 3d
       -0.013870762 -0.023684924 -0.03134915 0.04809886
0000f0 bd e5 83 3c 02 52 41 3d ca df 48 3d ca 12 e9 bc
       0.016100759 0.04719735 0.049041547 -0.028451342
000100 1a 8e 42 3b 68 e5 43 bc 5b 7a cc bc 10 2b 4c 3d
       0.002968675 -0.01195655 -0.024960687 0.049845755
000110 37 76 fb 3c 93 44 d2 3c cd 6e 0a ba d3 3b 08 3d
       0.030696018 0.025667464 -0.0005280793 0.033260178
000120 e5 57 38 3d bd c7 8d bc 4d d5 45 3c 3d a3 4f bd
       0.045005698 -0.017307157 0.012074781 -0.050692786
000130 33 ff 2c bd eb d3 d6 bc 22 a0 30 3c 4c 12 c5 3c
       -0.042235564 -0.026224097 0.010780366 0.024056576
000140 88 bf 04 bd 70 76 a1 bc 95 cd 47 3a 9a fa ea 3b
       -0.03240922 -0.019709796 0.00076218817 0.0071709873
000150 50 77 5c bb d1 ed c8 3c 1d be 59 bc 0f 06 c1 3c
       -0.0033640452 0.024527462 -0.013289955 0.02356246
000160 50 7b a6 3c 0b 8e 6d bd 71 04 c4 bc 59 7e 02 3d
       0.020322472 -0.05799679 -0.0239279 0.031858776
000170 93 46 47 3b 03 19 2d 3d bb 00 5f bd 2e 5f a4 bc
       0.0030407056 0.04226018 -0.054444056 -0.020064916
000180 66 47 8d bb b2 f7 91 3b aa ad c3 3b a1 a1 bb bc
       -0.00431149 0.0044545764 0.00597163 -0.02290422
000190 e4 ac 35 3d 39 e0 21 3d 45 aa 62 bd 21 e8 74 bc
       0.044354334 0.039520476 -0.055338163 -0.014947922
0001a0 37 05 1a bd a9 3b 04 3d 03 69 1d 3c 89 10 7f bc
       -0.03760263 0.03228346 0.009607556 -0.015567907
0001b0 11 48 99 bc 17 24 0e bd a8 64 c4 3a d5 7f 55 bb
       -0.018711122 -0.034702387 0.0014983611 -0.0032577415
0001c0 96 12 a7 bb 59 0e 07 bd eb 47 11 bc 4b 3d f1 3c
       -0.005098651 -0.032972667 -0.008867244 0.029448172
0001d0 67 fa 10 bd 3f 84 b1 3c d6 f2 5f bb dd b5 26 3d
       -0.035395052 0.021669505 -0.003417184 0.040700782
0001e0 49 4a 08 3d a9 93 bf 3c 82 da 32 bd e8 c8 10 ba
       0.03327397 0.02338584 -0.043665417 -0.00055231014
0001f0 99 1c 1f 3d b3 62 f4 3c 45 20 10 bd 46 8f 2f bd
       0.038845632 0.02983222 -0.035187025 -0.042861246
000200 23 0d 4f bd 14 6d 16 bd 98 4e 33 3d 14 f8 89 b8
       -0.050549638 -0.03672512 0.043776125 -6.578877e-05
000210 45 0e 3e 3c 95 60 70 bd af d7 3d bd 51 ec 1c bc
       0.011600082 -0.058685858 -0.04634827 -0.009577827
000220 77 21 e2 bc 89 8c f3 bb 01 5a 0b bd e6 c0 0e bd
       -0.027603848 -0.0074325246 -0.03402138 -0.03485193
000230 b7 c9 b2 3c ff ca 58 bd 94 0a 59 bc ae ce 8d ba
       0.0218247 -0.052927967 -0.013247151 -0.0010819042
000240 bf 2e ac 3c 25 5d de 3c fc 7f 19 3d cd 9e 4e bd
       0.021018384 0.027144024 0.03747557 -0.050444413
000250 5b 29 16 bc 93 21 de bb d4 22 13 bc 54 19 66 3b
       -0.009165133 -0.0067789047 -0.008980472 0.0035110312
000260 d3 5d 43 3b c4 60 41 bd e9 37 70 3c 78 76 a7 3c
       0.0029810562 -0.047211424 0.0146617675 0.020442232
000270 37 aa 19 bd c4 e5 35 3d eb c9 98 3c ed 48 97 3c
       -0.037515845 0.044408575 0.01865097 0.01846739
000280 46 26 be bb d1 37 4d bc 15 01 b9 bc b3 0a 52 3d
       -0.0058029024 -0.012525515 -0.022583524 0.051279735
000290 08 68 5b 3c c0 f7 3b bd a0 81 54 bd 12 a7 8e bc
       0.013391502 -0.04589057 -0.051881433 -0.01741365
0002a0 45 96 3e bd 60 2b c7 bb 73 99 38 bc de 03 01 bd
       -0.046530027 -0.0060781687 -0.011267054 -0.03149783
0002b0 22 d2 e0 ba 48 ad 5f bd e5 ed 2e 3d 9e 00 0a bc
       -0.0017152468 -0.054608613 0.042707343 -0.008422999
0002c0 e7 98 69 bb 03 c8 8e 3b a0 87 e6 bc 40 a1 c2 bc
       -0.0035644115 0.0043573393 -0.028140843 -0.02375853
0002d0 09 28 2e bd e9 59 b7 3c 39 0e 3c bd cd 6c 85 bc
       -0.04251865 0.02238174 -0.045912 -0.016287232
0002e0 17 59 6e bd 23 15 43 3d a4 73 c7 3c 50 80 27 bd
       -0.05819043 0.04762758 0.024347134 -0.040893853
0002f0 17 e4 20 3d e2 18 df bc cb 80 70 3c 52 75 93 bc
       0.039280023 -0.027233545 0.014679144 -0.018000279
000300 f7 7a 6c bc 85 54 a0 bc 92 39 36 3c e2 d8 18 bd
       -0.014433614 -0.019571552 0.011122124 -0.03731621
000310 49 03 42 bd f9 fa 5d 3b d6 ff 43 bd be 2b 2d bd
       -0.047366414 0.0033871515 -0.047851406 -0.042278044
000320 69 a4 73 bc 94 dc 24 bd cc cb 99 3c 45 c5 a6 3c
       -0.014870741 -0.040249422 0.018773936 0.020357737
000330 95 14 88 3c b4 9d 0e 3c 83 d5 0c 3d 0c 42 fd bc
       0.016611377 0.008704592 0.03438331 -0.030915283
000340 13 f4 66 3c 8e 35 a5 bc 5b c8 26 3d 06 e7 32 bc
       0.014096278 -0.020167138 0.040718418 -0.010919338
000350 4c 8e a3 3b fa 56 d4 3b b8 7d 4e 3d ca c3 a9 3b
       0.0049913283 0.006480095 0.050412863 0.0051808106
000360 5f 0f 45 3c fb 2b d1 3c f5 c0 23 bd 0e 56 d2 bc
       0.012027591 0.025533667 -0.03997894 -0.0256758
000370 fc 9e 8e bb aa 73 d1 bc 9b 5f 27 ba 37 46 31 3d
       -0.0043524485 -0.025567848 -0.0006384791 0.043279853
000380 72 7c f2 3c b4 44 0b 3d 2d 00 67 bc dd a3 9f bc
       0.029600356 0.034001067 -0.014099163 -0.019487316
000390 f2 b6 a6 bc 13 90 c2 bc aa 11 8d bb db 08 2c bd
       -0.020350907 -0.02375034 -0.0043050842 -0.042000633
0003a0 c7 65 94 3c 80 9a 0a 3c 90 93 18 bc 1a fa 9e 3c
       0.018114937 0.008459687 -0.009312525 0.019406367
0003b0 4f 8b 65 3c 1c ae 2b bd 89 0b 01 bd 95 12 74 bc
       0.014010265 -0.04191409 -0.03150514 -0.014897008
0003c0 bc 93 28 3d 58 1a f2 3c 22 eb 0d 3d 67 0a eb 3b
       0.041156515 0.029553577 0.03464807 0.007172871
0003d0 eb 4c 98 bc 62 1e 0a 3d 2a 17 56 bd 97 5d 10 3d
       -0.018591365 0.03372038 -0.052268185 0.035245504
0003e0 c2 c9 fe 3c 7a fe cc 3c 29 48 20 3d 37 c0 05 bc
       0.031102065 0.025023688 0.039131317 -0.008163503
0003f0 1d a1 ab 3c b2 4b 27 3d c3 f7 09 3d 77 b8 d3 bc
       0.020950848 0.040843673 0.03368355 -0.025844796

ConvNet.fc1.bias f4 [120]
000000 2c 0e 45 3c ef 23 fd 3c 87 81 7a bb 42 54 e6 bc
       0.012027305 0.030900924 -0.0038224177 -0.02811635
000010 cc 70 57 bd b2 71 f6 3c a5 51 c1 3c c0 57 10 3d
       -0.052597806 0.030083511 0.023598501 0.035239935
000020 04 dc f8 bc 19 b9 de bc 5c 01 83 bc 1c 96 26 3c
       -0.03037835 -0.02718787 -0.01599186 0.010167625
000030 4b 9b b5 3c 7c ce ae bc b9 ad 03 bc 99 cf 1c 3d
       0.022168776 -0.021338694 -0.008037024 0.038283918
000040 5f ff 2c 3d 3c 05 52 bd 7c 9c c5 3c 2b 83 c9 bc
       0.04223573 -0.051274523 0.02412247 -0.024598679
000050 10 fa 87 3c bd 20 2c bd 05 ea 0e bd c8 26 1d bd
       0.016598731 -0.04202341 -0.034891147 -0.038367063
000060 ec 90 90 3c c7 02 fd 3c ef 32 e2 3c ba 0e ef bc
       0.01764723 0.030885113 0.027612178 -0.029181827
000070 66 dd a3 bc ab e3 9e bc cc 47 ee bc 63 e5 80 3c
       -0.020003032 -0.01939567 -0.02908697 0.01573438
000080 ca 8a e3 3c 30 f1 c8 ba 6b 65 29 bd f6 a8 10 bb
       0.02777614 -0.0015330669 -0.041356485 -0.0022073365
000090 ce 6a 9d bc b9 6e 9c bc af c6 59 bc 91 7a 64 3d
       -0.019215968 -0.019095765 -0.013291999 0.05578095
0000a0 7b 0b 80 bb ed da a3 bc 7c c8 37 3d 1e 30 38 bd
       -0.0039076186 -0.020001853 0.04486893 -0.044967763
0000b0 76 52 2d 3d 93 20 c9 3c b1 ac 11 3c f9 f7 fd 39
       0.04231497 0.024551665 0.0088912705 0.00048440674
0000c0 72 a0 5f 3c 89 c6 5d 3c a4 fa 96 bc 70 b8 a7 3c
       0.013649093 0.013536104 -0.018430062 0.020473689
0000d0 c3 fd 36 bc 25 4c 35 ba f3 26 3b bd e3 eb 11 bd
       -0.0111689 -0.00069159485 -0.04569144 -0.03562535
0000e0 a6 d3 48 bd 68 17 11 bd 3b 8e 02 bd 82 6c 1e bd
       -0.04902997 -0.035422713 -0.031873923 -0.0386777
0000f0 6c 7f 88 3c 58 41 c6 bb ac 9b c3 bb 46 f7 26 bd
       0.016662322 -0.00605027 -0.0059694853 -0.040763162
000100 fe 3b 20 ba f1 f7 89 bc 43 20 14 3d 47 ac d2 3c
       -0.0006112455 -0.01684186 0.03616358 0.025716914
000110 09 df 64 3c f7 ee e8 bc f0 67 90 3c 4c 3c 29 bd
       0.013969191 -0.02843426 0.017627686 -0.04131727
000120 95 47 84 3c 96 b0 db 3c 64 45 ce 3c 71 22 19 bd
       0.016147414 0.026817601 0.025179572 -0.03738636
000130 f4 49 c8 bc fa 7a 50 bc b0 97 b7 3c 74 3e 97 3c
       -0.024449326 -0.012724632 0.022411197 0.018462397
000140 33 09 dd bc 26 33 36 3a ab 0f d2 bc e7 00 a5 bc
       -0.026981926 0.0006950371 -0.025642237 -0.020142032
000150 c0 c3 a0 ba d7 d0 d3 3c 7f 43 25 bd 3f 0c 7b bc
       -0.0012265369 0.025856419 -0.040347572 -0.015322744
000160 38 0b 5e bc 7d e7 02 bd df c2 2b bc 5a fb 4b bd
       -0.013552479 -0.031959046 -0.010483473 -0.049800254
000170 b9 11 2f bd 3f 7f cf 3c a4 34 e7 3c 82 40 ec 3b
       -0.04274151 0.02532923 0.028223343 0.0072098384
000180 21 43 bc bc 05 7f 92 3b 98 bc 51 3c 55 ac 04 bd
       -0.022981228 0.0044707083 0.012801312 -0.03239091
000190 5a 69 23 bd b2 ad c1 3b a9 0a b0 3c 86 5a df 3a
       -0.039895393 0.0059105987 0.021489458 0.0017040528
0001a0 44 5e 42 3d 0d 9e de 3b f3 f9 13 bd d1 07 19 bd
       0.04745318 0.0067937435 -0.036127042 -0.03736097
0001b0 c2 ec 6d b9 01 cd fa bc d8 51 ee 3c ca e2 04 3d
       -0.0002269028 -0.030615332 0.02909176 0.032442845
0001c0 c2 23 9a 3c f6 cf 40 bc 88 1c dc 3c 33 06 33 bd
       0.018815879 -0.011768332 0.026869074 -0.043707084
0001d0 93 c4 5a bd f7 4d 52 bd 83 58 b3 bc 08 ad 5d bd
       -0.053410124 -0.051343884 -0.021892792 -0.054120094

ConvNet.fc2.weight f4 [84, 120]
000000 89 91 30 bb 70 4d 2f 3c 33 55 0e bd ea 03 8c 3c
       -0.0026942214 0.010699615 -0.03474922 0.01709171
000010 0c b0 ab bd 18 3b 20 3d 37 5c 54 3d 66 6c 43 3d
       -0.08383188 0.039118856 0.051845755 0.0477108
000020 3a 1b 5b bd ca b6 c0 bd 69 28 cc 3c 29 33 1e 3c
       -0.053492762 -0.09409864 0.024921613 0.009655752
000030 f0 51 94 bd 72 f6 a5 bd c9 9c 72 bd 6e 66 d3 3c
       -0.07242191 -0.08103646 -0.059231553 0.025805678
000040 36 cf 57 3c 83 8e 38 bd ab 88 ec bc cb a7 b3 bd
       0.0131719615 -0.045057785 -0.028873762 -0.08772238
000050 db 80 9b 3a 26 b9 f4 3b 91 17 bc 3c 8b 51 81 bd
       0.0011863963 0.0074683605 0.022960456 -0.06314381
000060 88 df b7 bd 71 78 64 ba 6f 94 59 3d 28 bb 01 3d
       -0.08978182 -0.0008715457 0.053120073 0.031672627
000070 8a eb 0b 3d 9a 69 56 3d 1c 31 bc bd 80 03 45 bd
       0.034160174 0.052346803 -0.09189054 -0.04809904
000080 46 fc e8 bb 8c 5a 28 bc e1 9f 1e bd 08 99 c8 bd
       -0.0071101515 -0.010275494 -0.03872669 -0.097948134
000090 97 ea 60 bd 53 5c cf 3c f6 82 89 3d c6 04 5b bd
       -0.054911222 0.025312578 0.06714432 -0.05347135
0000a0 3e d0 87 3b f3 63 62 3d 61 71 51 3c 22 05 33 3d
       0.0041446975 0.0552711 0.012783379 0.043706067
0000b0 33 c4 e7 3c c4 41 87 bd 6a b0 2e bd dd 7b 09 bd
       0.028291797 -0.06604341 -0.04264871 -0.03356539
0000c0 80 9f 6d 3d 29 29 a9 3a b1 3f 72 3d 30 7a ea bc
       0.05801344 0.0012905943 0.059142772 -0.028622717
0000d0 5d 8d a2 3d 25 47 76 3d 90 ec 9c 3d 27 52 5f 3d
       0.07937119 0.060126442 0.07662308 0.054521706
0000e0 04 1d 9f bc 66 f7 42 3b bf 7e 64 bd cf 67 5e 3c
       -0.019423015 0.0029749512 -0.055784937 0.013574555
0000f0 87 01 93 bd 19 9a 4d 3d 18 7e 95 3d 6c 4f f4 3c
       -0.07178026 0.050195787 0.07299441 0.029823028
000100 fa 14 af bb 2e c3 48 bd e4 f9 85 bd 28 8e 6c 3d
       -0.005343077 -0.049014263 -0.065418035 0.05775276
000110 f9 5b 35 bd b8 92 33 39 7e ed 21 3c 8c 10 5a 3d
       -0.044277165 0.00017125427 0.009883283 0.053238437
000120 23 9b 3f bd 89 cd 2d bd 2a 7a ab 3d 8e ad 52 bd
       -0.04677881 -0.04243234 0.0837291 -0.051435046
000130 19 85 22 bc 87 9b 0d 3d 52 5f 63 3d 1c 5d 93 bc
       -0.009919428 0.03457215 0.055510826 -0.017988734
000140 fc 88 0c 3d 29 90 94 3d 93 98 8e bc 59 4f 1d bc
       0.034310326 0.07254059 -0.017406737 -0.0096014375
000150 99 7d ae bd e0 8f 61 3d 63 23 62 bd 8c 4a c8 bd
       -0.085200496 0.05506885 -0.05520953 -0.09779844
000160 5c 6a ac 3c df de b3 bd df 3f 8b bd b7 47 03 bd
       0.02104681 -0.08782744 -0.06799292 -0.032050814
000170 96 de de 3c 36 bd b5 3a 42 69 9a 3d bb ad b8 bd
       0.027205747 0.0013865593 0.075396076 -0.090175115
000180 00 25 8c bd 02 08 96 3d 19 3c 08 3d df ee c5 bd
       -0.06842995 0.07325746 0.03326044 -0.09664702
000190 39 4e 54 bd 35 44 81 bd fc 41 ed bc 06 68 a8 3d
       -0.05183241 -0.063118376 -0.028962128 0.08222966
0001a0 83 12 84 3d 6a 3c 6b 3d f7 26 c0 3c 2f e5 a4 bd
       0.06448843 0.057430662 0.02345608 -0.08051526
0001b0 5e 70 f4 3c 3c 38 22 bd 04 68 4a 3b 1d fb ab 3d
       0.029838737 -0.03960441 0.0030884752 0.083975054
0001c0 f7 38 9d bd 48 ff 4f 3d f5 02 d2 bc cc c0 47 3d
       -0.07676881 0.050780565 -0.025636176 0.04876785
0001d0 73 0e a9 bd 12 88 97 bd dd 67 58 bd 1c 64 20 3c
       -0.08254709 -0.07399 -0.052833427 0.009789493
0001e0 42 fd 71 3d 9d 72 1f 3d 5a 33 74 bd e2 8f 32 bc
       0.059079416 0.038927663 -0.059619285 -0.010898562
0001f0 17 60 a2 3d b7 cd 3f bd 49 e1 bf bd 36 f4 44 3d
       0.07928484 -0.046827044 -0.093691416 0.04808446
000200 d5 18 91 3d 75 30 1b 3d 4c 59 b6 bd db 54 cf bc
       0.070848145 0.03788801 -0.08903751 -0.025309017
000210 66 d9 76 bd 54 dd 61 3d a6 a9 63 bd 80 3c 7b bd
       -0.06026592 0.055142716 -0.05558171 -0.061336994
000220 2d e7 23 bd 5a ab c2 3b fa 64 12 bd 26 0d 9f bb
       -0.04001539 0.005940837 -0.03574083 -0.0048538623
000230 98 a4 54 bd 16 a7 48 3d 27 29 51 3d c9 23 a9 3d
       -0.05191478 0.04898747 0.051064637 0.082587786
000240 d2 f1 c2 bc e9 c8 a7 bd 87 57 e2 3b ea 79 72 3d
       -0.02379695 -0.081926174 0.0069074067 0.059198298
000250 cc 64 ef bb 92 cc 4a 3d 74 8b 19 bd 82 03 73 3c
       -0.007305717 0.0495115 -0.03748651 0.014832379
000260 d2 37 d1 3b af 1d bb 3b b6 b0 12 3c 81 15 a8 3d
       0.006384828 0.0057103257 0.008953264 0.082072265
000270 61 e2 94 bd 4f a8 b0 bc d1 c2 84 3d 1b 46 a5 bd
       -0.07269741 -0.02156463 0.06482471 -0.08070012
000280 60 f3 0a bd 8d 2b 96 3c 8a ad 5d 3d fc b5 9c bc
       -0.033923507 0.018331314 0.054120578 -0.019129746
000290 4a bc f9 3c fc 46 a3 bd ad 54 55 3d 8f 55 88 bc
       0.030485291 -0.079725236 0.052082706 -0.01664236
0002a0 da 19 91 bd a4 0d 05 bd e5 b8 66 3c 9c e6 9e bd
       -0.07085009 -0.03248371 0.014082168 -0.07758829
0002b0 9b 98 ff 3c 16 01 e6 bb c1 91 85 3d f7 20 3a bd
       0.031200698 -0.0070191724 0.06521941 -0.045441594
0002c0 96 db 6c 3d 17 56 27 bd 27 f1 51 3b 25 df 7e 3d
       0.0578266 -0.040853586 0.0032034607 0.062224526
0002d0 bd 6a 6c bd 0f e9 b6 bd fb aa 7c 3d db 21 89 3d
       -0.05771898 -0.08931171 0.061686497 0.066959105
0002e0 97 02 81 bd 5b 0d c5 3c 6c e5 b0 3d c1 4e ad 3d
       -0.06299322 0.02405422 0.08637509 0.08462287
0002f0 eb 9b 8b bd 78 c8 1f 3c f2 d6 21 bd 65 92 11 3d
       -0.06816848 0.009752385 -0.03951163 0.035540003
000300 a3 69 3c 3d ef 0e 8b 3d 0c 6b 21 3d bc 41 99 bb
       0.04599918 0.06789958 0.03940873 -0.0046770256
000310 d1 3e 62 3d 05 ec 1b 3c 48 c0 81 bd 96 e7 6f bc
       0.055235688 0.009516721 -0.06335503 -0.014642617
000320 92 58 e8 bb fc 11 86 3d 14 37 9c bc bd 0c ed 3b
       -0.0070906365 0.06546399 -0.019069232 0.0072341845
000330 c0 9d 63 3d 96 f1 bf bd 10 27 98 bc a0 58 43 3d
       0.055570364 -0.09372251 -0.018573314 0.04769194
000340 1e c8 a9 bd 39 c8 f5 bc 23 82 23 bd ba 19 b5 bb
       -0.082901224 -0.0300027 -0.03991903 -0.0055267485
000350 20 a5 73 bd cc ec b0 bd 08 2e 22 3d 7c bc 7d 3c
       -0.059483647 -0.086389154 0.03959468 0.015486833
000360 03 c1 5c 3d be 64 a5 3c 10 9b 26 3d d8 e8 00 3d
       0.053895008 0.02018964 0.040675223 0.031472057
000370 3f ca 3e 38 d0 5d 60 3d da 41 82 3d f4 ea 83 3d
       4.5487886e-05 0.054776967 0.063602164 0.06441298
000380 5c 29 13 3d f1 68 37 3d 04 bc ab bd 9a 2c 3b bc
       0.035928115 0.044777814 -0.083854705 -0.011424208
000390 fc 04 cf 3c 49 d7 09 3d c8 42 76 bd 74 08 d9 3c
       0.025270931 0.033652578 -0.06012228 0.026493289
0003a0 be 3f b0 3c c9 61 84 bc d4 c0 94 bd 6d 1a f0 3a
       0.02151477 -0.016159909 -0.072633415 0.0018318422
0003b0 54 83 1d 3c 0d 8d 39 bd eb 22 97 bd 13 8e 5d bd
       0.009613831 -0.045300532 -0.07379707 -0.05409057
0003c0 de 02 85 3d 92 04 96 bb f4 12 11 3d eb ce e6 3c
       0.064946875 -0.0045781815 0.035418466 0.028174838
0003d0 8e 1e a8 bd eb 9d 54 3d ad 58 af bd 1a e3 0e 39
       -0.08208953 0.051908415 -0.085618354 0.00013626777
0003e0 0f a5 90 bd a3 34 de 3c 47 e8 ae bd c5 a3 3f 3d
       -0.070627324 0.027124709 -0.08540397 0.046787042
0003f0 0e c2 94 bc 3a dd b1 bd a4 43 08 bd fc a0 fe bc
       -0.018158939 -0.08684774 -0.033267632 -0.031082623

ConvNet.fc2.bias f4 [84]
000000 da 6f 14 3d 6f a8 f6 ba b7 68 36 3d 28 9c a4 bc
       0.036239482 -0.0018818508 0.044533458 -0.020093992
000010 14 86 99 3d 30 89 a6 bd f0 c8 90 3d f6 90 72 3d
       0.074962765 -0.08131635 0.07069576 0.059220277
000020 ab 7c a5 bd a9 27 1f 3d a6 6c b0 bd 39 89 4b 3c
       -0.08080419 0.038856182 -0.08614473 0.012422853
000030 ab f2 b2 bd fc ba 73 bc 93 24 93 bd f5 cb 8e 3d
       -0.087376915 -0.0148761235 -0.0718471 0.069724955
000040 0e 18 b1 3d 95 31 a3 bd d5 d4 5a bd 97 4a ad 3c
       0.08647166 -0.079684414 -0.05342563 0.021153731
000050 e0 db ab bd 4c 14 8d 3d 32 af 84 3d bc 7d 3e bd
       -0.08391547 0.06888637 0.06478728 -0.04650663
000060 71 9a ca 3c 09 1f cc bc a1 79 4b bd fa 88 79 bc
       0.024731847 -0.024917142 -0.04967654 -0.015230412
000070 b9 b2 48 bc b5 66 99 bd d2 a6 7b 3d f5 96 b1 bd
       -0.012249642 -0.07490293 0.06143839 -0.08671371
000080 57 12 71 bd bb b7 83 bb bd 33 35 3d f7 9b 14 bd
       -0.05885538 -0.004019705 0.044238795 -0.036281552
000090 b5 46 53 bd 30 e0 8e 3d a3 e6 a2 bd b8 32 ae bd
       -0.051581103 0.06976354 -0.07954147 -0.085057676
0000a0 15 dc 50 bc e8 c8 80 3d 2e 0e 22 bd 71 04 a2 bc
       -0.012747784 0.0628832 -0.039564304 -0.019777508
0000b0 9c 4c cc 3c 06 62 ab 3d 16 2d 1c 3d 36 13 1d 3d
       0.024938874 0.08368306 0.038128935 0.0383484
0000c0 91 89 36 3c 5a 0d 55 3d 68 00 53 3d 0c 7d 3e 3c
       0.011141197 0.052014686 0.05151406 0.011626493
0000d0 b3 fa a2 bc e5 34 94 bc 1c 9c 84 3d c5 86 01 3d
       -0.019894933 -0.018091628 0.06475088 0.031622667
0000e0 e1 39 af bd e9 6f 8c 3d f3 5a 1f 3d 2a 21 93 bd
       -0.085559614 0.06857283 0.038905095 -0.0718406
0000f0 50 0b 22 3d 2a 17 ab bd ad bd 79 bc 8a 73 23 bd
       0.03956157 -0.083540276 -0.015242976 -0.03990511
000100 b1 19 1f 3d 4e a1 db bc 51 46 ba 3d 0e fd 8c 3d
       0.03884286 -0.026810315 0.09095443 0.06884204
000110 d9 83 ca 3c a0 58 12 3c 9d 61 a5 3d ff 43 7b bd
       0.024721073 0.008932263 0.08075259 -0.061344143
000120 0e 2e 8c bb 86 bd 8d 3d 0d 48 29 bd 5e 75 80 bd
       -0.004277951 0.06920914 -0.04132848 -0.06272386
000130 2a 3e 98 bd f0 6f 10 bd fc a3 a4 bd 44 b6 09 bc
       -0.07433732 -0.035263002 -0.0803909 -0.008405272
000140 da d0 78 3d 46 8f a4 3d ee 6b 5d bd 16 32 67 bd
       0.06074605 0.0803514 -0.054058008 -0.05644425

Output.fc.weight f4 [1, 84]
000000 cc a9 af bd 3a 5c 50 bd 1b 37 aa bd ee 3e 8e bd
       -0.08577308 -0.050869204 -0.08311292 -0.06945597
000010 f7 37 e6 bc f2 e5 79 3d 53 b0 a3 bd bc 4b 5c 3d
       -0.028102858 0.06101031 -0.079926156 0.053783163
000020 07 54 67 bd c6 8b dd 3d d1 e9 a0 3d 13 00 98 3d
       -0.05647662 0.10817675 0.07857097 0.07421889
000030 18 42 1a 3d bc f1 cc bd d8 e0 ec 3c 6e 6c 8d 3c
       0.03766069 -0.10007045 0.028915808 0.017263617
000040 e3 cd ab 3d a3 00 b4 3b 9e 97 60 3c 20 7c 85 3d
       0.08388879 0.00549324 0.013708023 0.065178156
000050 e1 80 1a 3d f8 e7 cf bc d3 92 d3 3d c5 ea f5 bc
       0.037720565 -0.025379166 0.10330739 -0.030019173
000060 3b d3 c8 bd 8b 2e 5b bd 69 4a ca bd b7 f1 41 bd
       -0.09805914 -0.053511184 -0.09877474 -0.047349658
000070 42 b0 37 bd fc b1 8f bd c3 01 b3 3d 6c b6 a4 3d
       -0.044845827 -0.0701637 0.087405704 0.08042607
000080 5b 2d 09 3d 82 71 b9 3d 8b 8d ee bb 3b 3f d9 3b
       0.03349052 0.09054853 -0.007280057 0.006629852
000090 da b4 22 3d 78 39 80 bd e8 c9 b7 bd 3b 30 50 3d
       0.039723255 -0.06260961 -0.089740574 0.050827246
0000a0 c8 5b b3 bd d2 5d a6 bd a8 63 62 bd d4 bc 93 3d
       -0.0875774 -0.081233636 -0.05527082 0.072137505
0000b0 ae 2d c6 3d 5f 58 54 3d 11 4d e4 bc b3 9e cc bc
       0.096766815 0.05184209 -0.02786878 -0.024978017
0000c0 8b 34 28 bd d5 73 4d bd d1 db ad bd a5 8b a0 3d
       -0.041065734 -0.050159294 -0.08489192 0.07839135
0000d0 5d 6c ca bd 50 b7 0b 3d 52 46 a9 3d 28 8f 8c bc
       -0.0988395 0.034110367 0.08265366 -0.017158106
0000e0 30 81 02 3d 79 2c 8c 3d 3d 68 9c bd 5c c4 be bb
       0.031861484 0.0684442 -0.076370694 -0.0058217477
0000f0 7c 79 1d bc c7 d9 c1 3c 99 9d 2a bd c0 2d 82 bc
       -0.009611484 0.023663415 -0.041654203 -0.015890956
000100 11 30 dc 3c e5 cc 4b bd 6d 0d 14 3d 68 01 9a 3d
       0.026878389 -0.04975595 0.036145616 0.075197995
000110 82 4c 31 bd 81 f5 a6 3d 36 6a ae bd c1 2a 5b bd
       -0.043285854 0.08152295 -0.08516352 -0.05350757
000120 25 da cc bd 60 bd bd 3c 54 5e 82 3d 3d 52 aa bd
       -0.10002545 0.02316159 0.06365648 -0.08316467
000130 0e 66 53 3d 30 14 0b 3c 1e e5 62 bd 66 58 d8 bc
       0.051611 0.0084887 -0.055394284 -0.02640934
000140 dc 58 20 3c f3 11 d6 3d 4b 16 8a 3d e8 fd 9a 3d
       0.009786811 0.10452642 0.06742533 0.0756796
