tutorials/W1D2_ComparingTasks/RR/models/ConvNet_classification_100_epoch_7.pth (torch, 251122 bytes, 10 tensors)

ConvNet.conv1.weight f4 [6, 1, 5, 5]
0	0x3e2b3854	0.16720706
1	0xbd528e96	-0.05140551
2	0xbb2eaa2a	-0.0026651719
3	0x3e546147	0.20740233
4	0xbd9d5e23	-0.07683971
5	0x3d740f4f	0.059584912
6	0x3d75057e	0.05981969
7	0x3e539b5a	0.2066473
8	0xbbc35ea8	-0.0059622116
9	0x3e2ebe7c	0.17064852
10	0x3d71366f	0.058889803
11	0x3d1bc6ef	0.038031515
12	0x3dc5eb38	0.09664005
13	0xbe1281bf	-0.14307307
14	0x3e4d2b8f	0.20036148
15	0xbe40f451	-0.188432
16	0x3beb854e	0.007187522
17	0xbd2730f6	-0.040818177
18	0xbd58486a	-0.052803434
19	0x3decbb3f	0.11559152
20	0xbe18d9a9	-0.14926781
21	0xbe0187dc	-0.12649482
22	0x3d8769e9	0.06611998
23	0x3e2d97a6	0.1695238
24	0x3dde42b4	0.10852566
25	0x3e2b5334	0.16730958
26	0x3d639242	0.055559404
27	0xbd3e66a2	-0.046484597
28	0xbd2af68a	-0.041739024
29	0xbe16c752	-0.14724472
30	0x3de69368	0.11258584
31	0x3cb5ad8f	0.022177486
32	0x3df46e80	0.11935139
33	0xbe1238f5	-0.1427954
34	0x3dd120c4	0.10211328
35	0x3d1a55a1	0.03767932
36	0xbd1cc83b	-0.038276892
37	0xbe1eca97	-0.1550697
38	0xbe1bbe59	-0.1520933
39	0x3d94a14a	0.07257326
40	0x3e41a557	0.18910728
41	0xbe2bd1fb	-0.1677932
42	0x3d1d0f9e	0.03834497
43	0x3d9e9fd4	0.077453285
44	0xbcb0d4b4	-0.0215858
45	0x3dc9c560	0.098520994
46	0x3e57b9e2	0.21067002
47	0x3c9aa3a9	0.018876867
48	0xbcbe7974	-0.023251273
49	0xbe2bf581	-0.16792871
50	0xbdcbad36	-0.09945147
51	0xbe1ee056	-0.15515265
52	0x3e32b5db	0.17452185
53	0x3da7b592	0.08188929
54	0xbd5f97f9	-0.05458829
55	0x3b4ab93c	0.0030933162
56	0x3e3f5135	0.18683322
57	0x3e456ec8	0.19280541
58	0x3bc2d0b3	0.005945289
59	0x3cc0c668	0.023532107
60	0x3e5208dc	0.20511192
61	0xbdca98bf	-0.09892415
62	0xbddd3184	-0.1080046
63	0x3dfc75a9	0.123271294
64	0xbd0885e3	-0.03333081
65	0x3e2a0af4	0.16605741
66	0x3a54bb41	0.0008115061
67	0xbe24e248	-0.16101944
68	0x3de2f036	0.11080973
69	0x3e54533e	0.2073488
70	0xbe0d101d	-0.13775678
71	0x3de99b99	0.11406631
72	0xbdc93c94	-0.098260075
73	0xbc24b59a	-0.010053063
74	0x3e56cb85	0.20976074
75	0x3def76ab	0.11692556
76	0xbd6c34d8	-0.057667583
77	0xbdc60b87	-0.096701674
78	0x3e2337b8	0.15939224
79	0xbdc2f4f8	-0.0951938
80	0x3e488922	0.19583562
81	0x3d2d7225	0.042345185
82	0xbe314e4c	-0.17315024
83	0x3e2c9547	0.1685382
84	0xbe13e49e	-0.1444268
85	0x3df993d6	0.121864006
86	0x3e16cec4	0.14727312
87	0x3e22ac2e	0.15885994
88	0x3e06d6bc	0.13167852
89	0xbe00f835	-0.12594683
90	0x3df36310	0.11884129
91	0xbe1ce334	-0.15321046
92	0x3e583462	0.21113732
93	0xbd9f7a7d	-0.07787035
94	0x3e53de3c	0.20690244
95	0x3d9d6ff3	0.07687368
96	0x3c02fe4b	0.0079951985
97	0x3d8eb4c6	0.069680735
98	0x3d8be1c9	0.068301745
99	0x3d9bb06d	0.0760201
100	0xbe003620	-0.12520647
101	0xbe39da4a	-0.18149677
102	0x3d83bb1d	0.064321734
103	0xbdf14f8f	-0.11782753
104	0xbd16bca3	-0.03680099
105	0xbc5a2d9c	-0.013316538
106	0x3df2c7f6	0.11854546
107	0x3e040833	0.12893753
108	0xbe0957e2	-0.13412431
109	0xbe14becc	-0.14525908
110	0xbdb2b3d6	-0.08725707
111	0xbda9a77d	-0.08283899
112	0x3d3f0d00	0.046643257
113	0x3e206d50	0.156667
114	0xbd666d75	-0.05625673
115	0xbddbe18b	-0.10736378
116	0xbd3fd7f5	-0.046836812
117	0xbdd2f347	-0.10300308
118	0xbe394eba	-0.18096438
119	0xbded5351	-0.11588157
120	0xbc8258e8	-0.015911534
121	0xbe3cf2c5	-0.18451984
122	0xbc1d9119	-0.0096171135
123	0x3e3d30a2	0.18475583
124	0xbe473cbe	-0.19456765
125	0xbe522e41	-0.20525457
126	0xbdb20973	-0.086932085
127	0x3d940862	0.072281614
128	0xbda75255	-0.081700005
129	0xbe1febb9	-0.15617265
130	0xbe2832f2	-0.16425684
131	0xbded0bf4	-0.115745455
132	0x3c67fa14	0.014158744
133	0x3d3a21eb	0.045442503
134	0xbe2a8418	-0.16651952
135	0x3e27b8fd	0.16379161
136	0x3a0fd7c8	0.0005487171
137	0x3d82318f	0.06357109
138	0xbd805c16	-0.06267564
139	0xbe31d2e4	-0.17365605
140	0xbdf13f2c	-0.11779627
141	0xbd97063b	-0.07374235
142	0xbda72bc8	-0.081626475
143	0xbe1df2f7	-0.15424715
144	0xbe0cee66	-0.13762817
145	0xbe3b8505	-0.18312462
146	0xbe4215ff	-0.18953703
147	0xbe3bca94	-0.18338996
148	0xbb9998a3	-0.004687385
149	0x3df52c0c	0.11971292

ConvNet.conv1.bias f4 [6]
0	0xbbd51a9c	-0.006503416
1	0xbde62fbe	-0.11239575
2	0x3e0a9b8c	0.13535899
3	0xbddba259	-0.10724325
4	0x3cb5575d	0.022136385
5	0x3e00c6e1	0.12575866

ConvNet.conv2.weight f4 [16, 6, 5, 5]
0	0x3d878d9b	0.06618806
1	0x3cddb867	0.027065469
2	0xbb63a9d0	-0.0034738667
3	0xbd3fd832	-0.04683704
4	0xbd6e5886	-0.05818989
5	0x3da91578	0.08256048
6	0xbd4cd9d6	-0.050012432
7	0xbdaba220	-0.08380532
8	0x3d48e031	0.04904193
9	0x3d3c9b6f	0.04604667
10	0x3d0bbdcf	0.034116562
11	0xbd09e47d	-0.03366517
12	0x3d9f5dd9	0.07781572
13	0xbc991dfc	-0.018691055
14	0xbd28c036	-0.04119893
15	0x3d8f883e	0.07008408
16	0x3dadfb84	0.084952384
17	0x3d5c03f3	0.053714704
18	0x3cc24ec7	0.023719205
19	0x3d9e120a	0.077182844
20	0xbca60b9f	-0.020269213
21	0x3cc8c8f2	0.02450988
22	0x3da86490	0.08222306
23	0xbc7281db	-0.014801468
24	0xbd8281b6	-0.06372397
25	0xbd045098	-0.032303423
26	0x3db3ead0	0.08785021
27	0xbd5dbf4c	-0.054137513
28	0xbd8c5496	-0.06852071
29	0xbca138ea	-0.019680459
30	0x3d8a8b90	0.06764901
31	0x3d9da22d	0.07696948
32	0x3d0d408e	0.034485392
33	0x3caa1385	0.02076126
34	0x3db028ed	0.08601556
35	0x3bd8d37b	0.0066170073
36	0x3d7893f5	0.060687978
37	0xbd5c742f	-0.05382174
38	0x3d973461	0.07383037
39	0x3b461a9e	0.0030228267
40	0xbd170a05	-0.03687479
41	0xbcae5c41	-0.021284224
42	0xbd8a5222	-0.06753947
43	0xbd5ea928	-0.05436054
44	0xbabc8bd8	-0.0014384938
45	0x3db34486	0.08753304
46	0xbd826b85	-0.06368164
47	0xbc9594a8	-0.018259361
48	0xbd20c8e3	-0.03925408
49	0xbd0b698f	-0.034036215
50	0xbd13573a	-0.035971858
51	0x3d7c792a	0.06163899
52	0xbd834b6e	-0.064108714
53	0xbd0aaa4e	-0.03385382
54	0x3d3d6518	0.04623899
55	0x3c7fccf6	0.015612831
56	0x3d9131ff	0.07089614
57	0xbd5db9a6	-0.054132126
58	0xbb746704	-0.0037292847
59	0xbbc5585e	-0.006022497
60	0xbcd17af6	-0.025571328
61	0xbd260972	-0.04053635
62	0xbcf6013f	-0.030029891
63	0x3ce676ad	0.02813276
64	0xbcc86404	-0.024461754
65	0x3d8bebaa	0.06832059
66	0xbd80b6b7	-0.0628485
67	0x3b68b19c	0.0035506254
68	0x3d15353e	0.03642773
69	0x3d928255	0.07153765
70	0xbd80c5e3	-0.06287744
71	0xbb7c77dc	-0.003852359
72	0x3ced8e3f	0.028998492
73	0x3d76dded	0.06027024
74	0x3c88a2c0	0.016679168
75	0xbd7b9515	-0.061421473
76	0xbcc52e71	-0.024069997
77	0xbdac78e3	-0.08421495
78	0x3d300fb2	0.04298372
79	0xbda4dd11	-0.080499776
80	0xbd161619	-0.036642168
81	0x3cf9699a	0.030445863
82	0x3c994861	0.01871127
83	0x3cb0027a	0.021485556
84	0x3b5344dc	0.0032237088
85	0x3d270252	0.040773697
86	0x3cab219c	0.02089005
87	0xbd352b27	-0.044230606
88	0x3dbe80ea	0.09301932
89	0x3d80c3f7	0.06287377
90	0xbba521a1	-0.0050394093
91	0xbd81e401	-0.063423164
92	0xbd8eaf1a	-0.06966992
93	0x3c4739ee	0.012159808
94	0x3d9e7a50	0.07738173
95	0x3cb69265	0.022286603
96	0xbda5912a	-0.080843285
97	0x3c6bd912	0.014395015
98	0xbd871fd7	-0.0659787
99	0xbd8671aa	-0.065646484
100	0xbd05ed96	-0.032697283
101	0xbcfd2ede	-0.030906137
102	0x3dc0fa52	0.09422745
103	0x3c36ce83	0.011157635
104	0x3d5f5135	0.054520804
105	0xbd7ae44f	-0.06125289
106	0xbd501994	-0.050805643
107	0x3d96a4b5	0.07355634
108	0x3d08eea3	0.033430707
109	0x3dbb96de	0.09159635
110	0x3ceb17cf	0.028697876
111	0xbd823657	-0.06358021
112	0xbd68da3e	-0.056848757
113	0xbda3c7e5	-0.07997111
114	0xbda9a849	-0.08284051
115	0xbc0523c6	-0.008126205
116	0xb9493dae	-0.00019191831
117	0xbc1a227c	-0.009407636
118	0x3c9388e0	0.018009603
119	0xbc4bf783	-0.012449148
120	0x3c932c0a	0.017965335
121	0x3d40ed5d	0.047101367
122	0x3ce71fbf	0.02821338
123	0xbd3189af	-0.043344196
124	0x3ba11712	0.0049160803
125	0x3cd64bba	0.026159156
126	0x3cb2a81c	0.021808676
127	0x3a9c4af4	0.0011924193
128	0xbd4ee1c6	-0.050508283
129	0xbcb555fa	-0.022135723
130	0x3d69d4ff	0.057087895
131	0x3d9bbeab	0.076047264
132	0xbd5aa50e	-0.053380065
133	0x3d150fe3	0.036392104
134	0x3d909b7e	0.07060908
135	0xbd89e948	-0.06733948
136	0xbca69843	-0.020336276
137	0xbd92e6e9	-0.07172949
138	0x3d56a0ab	0.05239932
139	0x3cbb2edb	0.02284949
140	0xbcc1c475	-0.023653248
141	0xbd6d4f91	-0.05793721
142	0xbda21767	-0.0791462
143	0x3cb55b6a	0.022138316
144	0xbcf66cba	-0.030081142
145	0xbd91677e	-0.07099818
146	0x3cf4968b	0.02985694
147	0xbca2d51b	-0.019877007
148	0xbd2a2426	-0.04153838
149	0x3db54cfa	0.08852573
150	0x3dc587d5	0.096450485
151	0x3c15904f	0.009128644
152	0x3d8b0471	0.067879565
153	0x3c7028cb	0.014658163
154	0x3da4fd13	0.080560826
155	0x3d88b67c	0.06675431
156	0x3d4d7ef7	0.05016991
157	0xbd0fad8b	-0.035077613
158	0xbd9855cb	-0.07438239
159	0xbc291698	-0.010320328
160	0xba3f2bd4	-0.00072926027
161	0x3d820d31	0.06350172
162	0x3cebee7f	0.028800247
163	0xbd5b99e3	-0.053613555
164	0x3b7fe499	0.0039046167
165	0x3c6cbe7a	0.01444971
166	0xbd5746b8	-0.052557677
167	0x3d8beb77	0.06832021
168	0x3d49683d	0.049171675
169	0xbd7da2aa	-0.061922707
170	0x3dbd3954	0.0923945
171	0xbd48c5b6	-0.049016677
172	0xbd844455	-0.06458346
173	0x3d219b5d	0.039454807
174	0x3d5ef233	0.054430198
175	0xbcbcdf24	-0.02305562
176	0xbcd2c24f	-0.02572742
177	0x3bed3280	0.007238686
178	0xbd63fabe	-0.05565905
179	0xbcafb881	-0.021450283
180	0xbd1b5736	-0.037924968
181	0x3d384464	0.044987097
182	0x3cc76c3c	0.024343602
183	0x3d9bddc3	0.07610657
184	0xbd82b5c6	-0.06382327
185	0xbd51a13e	-0.051179163
186	0xbd4aab4e	-0.049479775
187	0x3d28288c	0.041054294
188	0xbd67c80c	-0.056587264
189	0x3c8bc194	0.017060079
190	0x3d03f9b8	0.032220572
191	0x3d5593c0	0.05214286
192	0x3d2c363b	0.042043906
193	0xbda28022	-0.07934596
194	0x3c8d7032	0.017265413
195	0x3d0fb428	0.03508392
196	0x3d3d9595	0.04628523
197	0x3da67a02	0.0812874
198	0x39dd646e	0.0004222723
199	0xbd72e62c	-0.05930154
200	0x3cf94a4b	0.030430933
201	0x3da84071	0.08215416
202	0x3d51db92	0.05123479
203	0x3b1ae3df	0.0023634357
204	0xbbfbe9a3	-0.007687764
205	0x3d3939b7	0.045221057
206	0xbd35082e	-0.044197254
207	0x3dbfa510	0.09357655
208	0x3d93ef4c	0.07223377
209	0x3d32c289	0.043642554
210	0x3d886869	0.0666054
211	0x3d865d08	0.06560713
212	0xbd114f2d	-0.0354759
213	0xbd347092	-0.044052668
214	0xbb8e1ebb	-0.0043371595
215	0xbb7d09b7	-0.0038610527
216	0x3caa57d8	0.02079384
217	0x3dc4e41f	0.09613823
218	0x3be1fbd5	0.006896476
219	0x3d6e048b	0.0581098
220	0x3db0768e	0.086163625
221	0x3d58a4d3	0.052891564
222	0x3d45f60c	0.04833035
223	0xbd5c52a4	-0.05378975
224	0x3d995648	0.0748716
225	0x3cfe8ddf	0.031073509
226	0xbd63122b	-0.05543725
227	0x3dc9439e	0.0982735
228	0xbd011300	-0.03151226
229	0x3cf17c5b	0.029478243
230	0x3d2746b7	0.040838923
231	0x3d8a4d79	0.06753058
232	0x3d621f2e	0.055205517
233	0x3d03668f	0.03208023
234	0xbd285180	-0.04109335
235	0x3a2613f0	0.00063353684
236	0x3dd0747f	0.1017847
237	0xbd5c30be	-0.05375742
238	0xbaa7ea4a	-0.0012810912
239	0x3d1d43b0	0.03839463
240	0x3c8270a5	0.015922854
241	0xbcd08a6e	-0.025456633
242	0x3daae20c	0.08343896
243	0x3cc7093d	0.024296397
244	0x3d210369	0.039309893
245	0x3dca23f6	0.0987014
246	0x3d32b30d	0.043627787
247	0x3d46070e	0.04834657
248	0xbd107895	-0.035271246
249	0x3d94b180	0.07260418
250	0x3b263558	0.0025361385
251	0x3b30b960	0.002696596
252	0x3d065e40	0.032804728
253	0xbd21ac8d	-0.039471198
254	0x3cb15f33	0.02165184
255	0xbcf8f49e	-0.03039008

ConvNet.conv2.bias f4 [16]
0	0xbc06d00a	-0.008228311
1	0xbc428e40	-0.011874735
2	0xbd8f9490	-0.07010758
3	0x3cc4aefa	0.024009217
4	0x3da19d0b	0.07891282
5	0xbb7884d3	-0.0037920966
6	0xbd3c44a9	-0.045963917
7	0x3d0be8b6	0.034157477
8	0xbd85575b	-0.06510802
9	0x3db59a5c	0.08867332
10	0x3afd5570	0.001932783
11	0x3d6a3ff3	0.057189893
12	0x3d3180b3	0.043335628
13	0x3ca98acf	0.020696072
14	0xbd1e6f39	-0.03868029
15	0x3af452b2	0.0018640368

ConvNet.fc1.weight f4 [120, 400]
0	0x3c5dbcc0	0.013533771
1	0x3a078f31	0.00051711785
2	0x3aa746bd	0.001276217
3	0xbb90e84e	-0.004422224
4	0x3c25296d	0.010080677
5	0x3d185546	0.037190698
6	0xbd26b0b4	-0.04069586
7	0x3d773377	0.060351815
8	0x3c83ac00	0.016073227
9	0x3d2d940d	0.04237752
10	0xbd20f9a0	-0.03930056
11	0xbd404ab6	-0.04694625
12	0xbd4ef1f4	-0.050523713
13	0x3c912a93	0.017720496
14	0xbcb28962	-0.021794025
15	0x3d04d747	0.032431867
16	0x3d555d68	0.052091032
17	0x3c02e80e	0.007989896
18	0x3d3d2b8d	0.04618411
19	0xbcfe8e3f	-0.031073688
20	0x3d532e2f	0.051557716
21	0x3ca0564c	0.0195724
22	0xbc2f7e9a	-0.0107113365
23	0x3ce470a9	0.027885752
24	0xbcc0d310	-0.023538142
25	0xbd0d63b3	-0.03451891
26	0x3c8883fa	0.016664494
27	0xbc89a1da	-0.01680081
28	0xbcb04f07	-0.021522058
29	0x3d19d321	0.037554864
30	0x3cc08572	0.023501132
31	0x3c93efa1	0.0180586
32	0x3c8256f7	0.015910609
33	0x3d47577f	0.048667427
34	0x3ccf04d5	0.025270859
35	0x3d0a13ab	0.033710163
36	0xbd17f007	-0.037094142
37	0xbc5e364b	-0.013562749
38	0x3d17a18d	0.0370193
39	0x3cfc18ed	0.030773604
40	0x3ca11880	0.019665003
41	0xbcb309e9	-0.021855311
42	0x3cf67de6	0.03008933
43	0x3d83ce32	0.06435813
44	0xbd0b95ed	-0.034078527
45	0xbcae6df4	-0.021292664
46	0x3cbf74d3	0.023371136
47	0x3d805007	0.06265264
48	0x3b166f8c	0.002295467
49	0xbd07cb94	-0.03315313
50	0x3d3574fe	0.044301026
51	0x3c876b0d	0.016530538
52	0xbcf9c6ad	-0.030490244
53	0xbbd5acd6	-0.006520848
54	0x3b833b36	0.004004861
55	0x3bf63f4f	0.007514871
56	0x3cdf4bd9	0.027257847
57	0xbc45a1ad	-0.012062472
58	0x3c5ec0eb	0.0135958
59	0xbc908019	-0.017639207
60	0xbc644aa8	-0.013933815
61	0x3d3b139b	0.045672994
62	0x3cd15d78	0.025557265
63	0x3cade5f1	0.021227809
64	0x3c910ab0	0.017705292
65	0x3cbbd50e	0.02292874
66	0xbc95b3b0	-0.018274158
67	0x3d4aaccb	0.049481194
68	0xbd47a94d	-0.048745442
69	0xbb8d9cb4	-0.004321659
70	0xbc8f4a42	-0.017491464
71	0x3ce0a8df	0.027424274
72	0x3cf5054a	0.029909749
73	0x3c9df9ac	0.019284092
74	0xbab4d9fa	-0.0013797872
75	0xbd13c3ff	-0.03607559
76	0x3ccb635b	0.02482765
77	0x3c8a82b2	0.016908024
78	0xbce27535	-0.02764378
79	0xbd778c99	-0.06043682
80	0xbbdf45ef	-0.0068137567
81	0x3d620b46	0.055186532
82	0xbc9ee309	-0.019395368
83	0xbd00113d	-0.03126644
84	0x3a2f9e43	0.0006699303
85	0x3a94a22e	0.0011339837
86	0x3d125db3	0.03573389
87	0x3d08e160	0.03341806
88	0x3cb925ff	0.022601126
89	0xbccf6a8c	-0.02531936
90	0x3cf23107	0.029564394
91	0xbc39453f	-0.011308013
92	0x3d2a9a14	0.041650847
93	0x3d5a5eb5	0.053312976
94	0x3c9a5367	0.018838597
95	0x3d318fb0	0.04334992
96	0x3aefb5e1	0.0018288457
97	0xbc878c9a	-0.016546536
98	0x3d4298ec	0.04750912
99	0xbd3adae6	-0.045618914
100	0x3bb72291	0.0055888374
101	0x3b02b278	0.0019942801
102	0xbc49e4bb	-0.0123226
103	0x3cfa4794	0.03055171
104	0xbcbbad7f	-0.022909878
105	0xba0ce412	-0.00053745613
106	0x3d59c437	0.05316564
107	0xbcbfced0	-0.023414046
108	0xbcb6fd1f	-0.022337494
109	0x3d29c55a	0.041447975
110	0x3c8349e5	0.016026447
111	0xbca1c971	-0.019749375
112	0x3d5f0237	0.05444547
113	0x3ce36118	0.027756259
114	0x3cca3fe7	0.024688674
115	0xbd473d84	-0.04864265
116	0x3cf82af8	0.030293927
117	0x3ba859c1	0.0051376526
118	0x3d185780	0.03719282
119	0xbcc5c768	-0.024142936
120	0xbd385e2c	-0.045011684
121	0xbab99fbe	-0.0014161987
122	0x3bf1136b	0.007357051
123	0x3c7ad1fa	0.015308851
124	0xbc1a6e0e	-0.009425653
125	0xbd0f9332	-0.035052486
126	0x3d381b9c	0.044948205
127	0xbcd9fb67	-0.026609136
128	0x392b3070	0.00016325875
129	0x3d1c9b2a	0.038233913
130	0x3c99a1c6	0.018753897
131	0x3cd77157	0.026299162
132	0x3d72e30a	0.059298553
133	0x3c2f19a4	0.010687266
134	0x3cad53e5	0.021158168
135	0xbcac48a7	-0.021030737
136	0x3cef66bf	0.029223798
137	0x3d484169	0.048890505
138	0x3d556c94	0.0521055
139	0xbbba5a49	-0.0056870324
140	0x3cfcea88	0.030873552
141	0xbd10cffa	-0.035354592
142	0x3d054842	0.032539614
143	0xbd00aef3	-0.031416845
144	0xbca93d5e	-0.020659145
145	0xbc70c94a	-0.014696429
146	0x3ca7ec5b	0.020498445
147	0x3d71d289	0.059038673
148	0xbc2b1da8	-0.010444082
149	0x3cade141	0.021225573
150	0xbc9b824e	-0.018983033
151	0x3ccfa1bf	0.025345681
152	0x3d1ada74	0.03780599
153	0xbc00320b	-0.007824431
154	0x3cf7bc3a	0.03024112
155	0x3d254c30	0.04035586
156	0xbbff6415	-0.007793913
157	0x3ba0531f	0.0048927213
158	0xbd0ed1a8	-0.034867913
159	0x3cc424f6	0.023943406
160	0x3c5bfa4c	0.013426375
161	0x3ccd0655	0.025027433
162	0x3c8a7f39	0.016906368
163	0x3d68bb7b	0.05681942
164	0x3afcdec3	0.0019292462
165	0xbd203b98	-0.039119333
166	0xbd327bf2	-0.043575235
167	0x3d557fc6	0.052123807
168	0xbc861543	-0.01636756
169	0x3d1ff5a8	0.039052635
170	0x3ce0e898	0.02745466
171	0xbd47ce02	-0.04878045
172	0x3d6710e9	0.05641261
173	0x3d1afd9a	0.03783951
174	0x3cdc9e04	0.026930816
175	0x3c4ffe6a	0.012694934
176	0x3d51ccf8	0.051220864
177	0x3b14bd98	0.0022696014
178	0x3d305bd8	0.04305634
179	0x3d0c3c94	0.03423746
180	0x3a61fcd2	0.0008620742
181	0x3d633646	0.05547168
182	0x3c1332d4	0.008984286
183	0xbc829b5f	-0.015943227
184	0x3d35ea3c	0.044412836
185	0xbb8d43b6	-0.0043110503
186	0x3bf8cb7a	0.0075926157
187	0x3c195463	0.009358498
188	0xbd1a5868	-0.037681967
189	0x3d106496	0.035252176
190	0x3d345893	0.044029783
191	0xbcddbe5b	-0.027068308
192	0xbc35fc3f	-0.011107503
193	0x3d169ad3	0.036768746
194	0xbb6be3f5	-0.0035994027
195	0x3d0062a1	0.03134406
196	0x3d41f8d8	0.047356457
197	0xbcd42420	-0.025896132
198	0xbca9d8c6	-0.020733248
199	0x3d32aec7	0.043623712
200	0x3d102fb7	0.035201754
201	0x3cf871a4	0.030327626
202	0x3d3bc754	0.04584439
203	0x3d3844fd	0.044987667
204	0xbbf930a9	-0.0076046777
205	0xbd42d79c	-0.047568902
206	0x3ce55f75	0.027999619
207	0x3d5a9871	0.053368036
208	0x3d42f09f	0.047592755
209	0x3b9fad61	0.0048729633
210	0xbbc3603c	-0.0059623998
211	0xbcc6e745	-0.0242802
212	0x3cae353f	0.021265624
213	0xbc2ab593	-0.010419267
214	0xbc153672	-0.009107219
215	0xbd20d040	-0.039261103
216	0xbc95629e	-0.0182355
217	0xbd17af8c	-0.03703265
218	0x3d596ce7	0.053082373
219	0x3c9ca0bc	0.019119613
220	0xbcc6fa0a	-0.02428915
221	0xbac7156e	-0.0015188882
222	0xbc77ba74	-0.0151201375
223	0xbc7091bb	-0.014683182
224	0xbcddc2ac	-0.027070366
225	0x3cf89b52	0.0303475
226	0x3c641627	0.013921297
227	0xbcc29a95	-0.023755351
228	0x3c1ca9af	0.00956194
229	0x3af25b49	0.001849034
230	0xbca8dc33	-0.020612812
231	0xbd07de10	-0.03317076
232	0x3d388e80	0.045057774
233	0x3c94f3cd	0.01818266
234	0xb971b61c	-0.00023051392
235	0x3cd67d6c	0.026182853
236	0xbcb6df93	-0.022323405
237	0x3ce8d366	0.028421115
238	0xbc2dc988	-0.010607131
239	0xbcbc538f	-0.022989063
240	0x3d330878	0.04370925
241	0x3ca5f912	0.020260368
242	0x3ce533ab	0.027978739
243	0x3bf0d92a	0.0073501067
244	0xbc267237	-0.010159067
245	0x3d428870	0.0474934
246	0xbcfa9c60	-0.030592144
247	0xbc54b85f	-0.012983411
248	0x3c02e295	0.007988592
249	0xbd04c34d	-0.032412816
250	0xbcd9a204	-0.026566513
251	0xbcc549a0	-0.024082959
252	0xbcd88bcd	-0.02643385
253	0xbc2f3193	-0.010692972
254	0x3d08c515	0.033391077
255	0xbc44cdd8	-0.012011968

ConvNet.fc1.bias f4 [120]
0	0xbccceb67	-0.025014592
1	0x3d062a21	0.03275502
2	0x3ba666ec	0.005078187
3	0x3c6c7da9	0.014434257
4	0xbb6d4137	-0.00362022
5	0xb95217de	-0.00020036052
6	0xbb6ea4b8	-0.0036414098
7	0xbc9c6e77	-0.019095642
8	0xbc0ca68b	-0.008584629
9	0x3ce1702e	0.027519312
10	0xb9b6ecd7	-0.00034890205
11	0x3c9abb6d	0.0188882
12	0xbccdda53	-0.02512852
13	0xbab94c67	-0.001413715
14	0xbd577c48	-0.05260876
15	0xbaaef073	-0.0013346806
16	0x3d21bf1f	0.039488908
17	0x3cc21757	0.02369277
18	0x3cf2829b	0.029603293
19	0x3d3a380b	0.045463603
20	0xbc2791f1	-0.010227666
21	0xbd13ed41	-0.036114935
22	0xbd1f398f	-0.03887325
23	0x3c5105b3	0.012757706
24	0x3c294bb1	0.010332988
25	0x3d0c1fb0	0.034209907
26	0x3cde58ce	0.027141955
27	0xbb58283e	-0.003298297
28	0x3c94dffd	0.018173212
29	0xbb0b300f	-0.0021238362
30	0x3d3cfa03	0.046136867
31	0x3d087522	0.03331483
32	0xbd10435f	-0.0352205
33	0x3bdd3ee7	0.0067518833
34	0x3d34dcb1	0.04415578
35	0x3d472976	0.048623525
36	0xbb54b5b1	-0.003245693
37	0x3b3fc6f4	0.0029262872
38	0xbd31f7af	-0.0434491
39	0x3c58dae7	0.013235784
40	0x3d519fc8	0.05117777
41	0xbd294899	-0.041329
42	0x3cf34047	0.029693736
43	0xbc856200	-0.016282082
44	0x3d190aa5	0.037363667
45	0x3c5b6a8e	0.013392104
46	0x3d2fe83d	0.04294609
47	0x3968d2e3	0.00022203806
48	0xbca1b980	-0.019741774
49	0xbd50d6ae	-0.050985985
50	0xbca74940	-0.02042067
51	0xbd25b5ee	-0.040456705
52	0xbc433653	-0.011914807
53	0xbd30f59f	-0.043202993
54	0x3c1fc9dd	0.009752718
55	0x3d0ac648	0.033880502
56	0xbcbc044a	-0.022951264
57	0xbd3cb735	-0.046073157
58	0xbc225a2f	-0.009909197
59	0x3c90342c	0.017603002
60	0xbd4bf4b6	-0.04979392
61	0xbc1d5834	-0.009603549
62	0xbd2a3379	-0.041552994
63	0xbab99a4a	-0.0014160362
64	0x3ad66660	0.0016357414
65	0x3c13c3b7	0.00901883
66	0xbb5bf0e8	-0.003356034
67	0x3b3ddd5d	0.0028971054
68	0xbd1ff44e	-0.039051346
69	0x3d15f447	0.036609914
70	0x3c15ae79	0.009135836
71	0x39bd1f59	0.00036072245
72	0x3cd5ac15	0.026083032
73	0x3d0669ac	0.03281562
74	0x3ab302a2	0.0013657401
75	0x3d722fb3	0.05912752
76	0x3d572d48	0.052533418
77	0xbc0746f0	-0.008256659
78	0xbbf13306	-0.007360819
79	0x3c0ea5e6	0.008706545
80	0xbc974575	-0.018465737
81	0x3d3ce22d	0.046114136
82	0xbb991acc	-0.004672384
83	0x3d57ee91	0.05271775
84	0x3d5651d1	0.05232412
85	0x3d5d43f8	0.0540199
86	0x3d1e9851	0.03871948
87	0xbd2f63cc	-0.042819783
88	0x3d05d9ec	0.03267853
89	0xbd1d7615	-0.03844269
90	0xbd40a1a0	-0.047029138
91	0x3b869b3e	0.004107862
92	0x3d531e83	0.05154277
93	0xbcf8e262	-0.030381385
94	0x3d3f50f8	0.046708077
95	0xbc7097d6	-0.014684638
96	0x3b99a3b3	0.004688704
97	0x3cc7652b	0.024340233
98	0xbbc626e6	-0.0060471175
99	0xbbb46ecf	-0.0055063735
100	0x3d2770f3	0.0408792
101	0xbc934097	-0.017975135
102	0xbc38a1e1	-0.011269064
103	0x3d10c5d6	0.03534492
104	0xbd4b990f	-0.049706515
105	0x3c15daa0	0.009146363
106	0x3c25ef6c	0.010127883
107	0xbc679d29	-0.014136591
108	0xbd35cd8d	-0.04438548
109	0x3cfe7c95	0.031065265
110	0x3c0678fe	0.008207558
111	0xbb848ba0	-0.004044965
112	0x3c6b6c47	0.014369077
113	0x3d18ae1b	0.037275415
114	0xbc8935fc	-0.016749375
115	0xbc174b56	-0.00923427
116	0xbc95732c	-0.018243395
117	0xbcf23a83	-0.029568916
118	0xbb9324f5	-0.0044904896
119	0xbc9e3b43	-0.019315368

ConvNet.fc2.weight f4 [84, 120]
0	0x3dbe8ab5	0.093038
1	0xbc80468a	-0.015658636
2	0x3cd9aaff	0.026570795
3	0xbd935551	-0.07194007
4	0xb994a369	-0.0002835051
5	0x3cb58157	0.0221564
6	0x3ccea3dc	0.025224619
7	0xbc21427f	-0.009842514
8	0x3d18db19	0.037318323
9	0x3d82ad2a	0.06380685
10	0xbd7e2833	-0.062050056
11	0xbd9a010f	-0.07519733
12	0x3d22db9c	0.039760217
13	0x3d630da1	0.05543292
14	0xbda4c4ae	-0.08045326
15	0x3c4b5164	0.012409542
16	0xbd4bd57e	-0.04976415
17	0x3d7e2409	0.062046085
18	0xbd75a982	-0.05997611
19	0x3d9b148a	0.07572277
20	0x3d38a8d4	0.045082882
21	0x3d187681	0.03722239
22	0x3db68676	0.08912365
23	0x3c56a50e	0.013100876
24	0x3d6db9ca	0.05803851
25	0xbd20a438	-0.03921911
26	0xbd6cab4b	-0.057780545
27	0x3daf3b3c	0.0855622
28	0x3d12ebfe	0.03586959
29	0xbd57124c	-0.052507684
30	0x3ce0fbe7	0.027463866
31	0x3cba0cc4	0.022711165
32	0x3d41a777	0.047278848
33	0xbd123fb6	-0.03570529
34	0xbc52ebc7	-0.0128735965
35	0xbd822aa9	-0.06355793
36	0xbda79782	-0.08183195
37	0xbd6e39ca	-0.05816058
38	0x3d138ac7	0.03602102
39	0xbd5be881	-0.05368853
40	0x3d2f3172	0.042771764
41	0xbd218292	-0.039431162
42	0xbd63a7f0	-0.05558008
43	0xbc8b7659	-0.017024206
44	0xbd831c55	-0.06401888
45	0x3dadc4da	0.08484812
46	0xbcb80b72	-0.022466395
47	0x3d36fc42	0.044674166
48	0x3c0ebf00	0.00871253
49	0xbd8a0993	-0.067401074
50	0xbda332f4	-0.07968703
51	0xbd51ec1d	-0.051250566
52	0xbcb19a48	-0.021680012
53	0x3c6f0828	0.014589347
54	0xbd9bc990	-0.07606804
55	0xbdb55847	-0.08854728
56	0xbcb5d2e1	-0.022195281
57	0xbd8e58a0	-0.069504976
58	0xbcb86427	-0.022508694
59	0x3da60145	0.08105711
60	0xbbb5f124	-0.005552428
61	0x3bfb3db2	0.0076672668
62	0x3d8866cd	0.06660233
63	0xba9acb78	-0.0011809906
64	0x3c06f1de	0.008236377
65	0x3c7a40cb	0.015274237
66	0xbc11b43a	-0.008893067
67	0xbc34ccd6	-0.011035165
68	0xbc3be089	-0.011467108
69	0xbd236ba3	-0.039897572
70	0x3db57d4b	0.08861788
71	0xbd87f9b8	-0.06639427
72	0x3ca1c10f	0.019745378
73	0x3d127d32	0.035763927
74	0xbd5286e5	-0.051398177
75	0x3db4fd69	0.08837397
76	0xbd4bbf39	-0.04974291
77	0x3d9026fd	0.070386864
78	0x3d407e7b	0.04699562
79	0x3c2971a3	0.0103420345
80	0x3d944d2f	0.07241284
81	0x3c08d862	0.008352371
82	0xbc768314	-0.0150459
83	0x3d0103a5	0.031497616
84	0xbd64e721	-0.055884484
85	0x3d4e89ac	0.050424263
86	0x3dae64e0	0.08515334
87	0x3ccc8701	0.024966719
88	0xbd9e14d9	-0.0771882
89	0x3d519513	0.05116756
90	0x3d99ebc1	0.075156696
91	0xbbe21d3c	-0.0069004577
92	0xbc931777	-0.017955525
93	0xbd8beaf3	-0.068319224
94	0xbc80bcc7	-0.015715016
95	0xbcce9cd2	-0.025221262
96	0x3d193311	0.037402216
97	0xbda6bd1f	-0.08141541
98	0x3ca1557a	0.019694079
99	0x3d9503c0	0.07276106
100	0x3d250811	0.040290896
101	0xbc5eafd7	-0.013591728
102	0x3d8e1e8c	0.0693942
103	0x3cf0c400	0.029390335
104	0x3c42a0b9	0.01187914
105	0x3da3441f	0.079719774
106	0x3d1471c5	0.03624131
107	0x3d75a27f	0.05996942
108	0xbcf84e71	-0.030310841
109	0x3d3882ce	0.04504662
110	0xbd900b43	-0.07033398
111	0xbbe61b05	-0.007022264
112	0x3d613606	0.05498316
113	0xbb9d78d6	-0.0048056645
114	0x3d15c272	0.03656239
115	0xbd3ea381	-0.04654265
116	0x3be9676e	0.0071229255
117	0x3d73a5a1	0.059484128
118	0xbda309b6	-0.079608366
119	0x3c4deca2	0.012568625
120	0xbb86c835	-0.004113222
121	0x3cb74b48	0.022374764
122	0x3d85958a	0.06522663
123	0xbadf44ff	-0.0017034112
124	0x3c15b55b	0.009137477
125	0x3d5d602b	0.05404679
126	0xbd071dba	-0.032987334
127	0x3d8d9872	0.06913842
128	0xbdadcdef	-0.08486544
129	0x3ac41804	0.001496077
130	0xbc91a1ae	-0.01777729
131	0xbda0cc73	-0.078514956
132	0x3d5ad0b2	0.053421684
133	0xbc65652b	-0.014001171
134	0xbc4f84a1	-0.012665899
135	0xbd96a5c1	-0.07355834
136	0xbda96841	-0.08271838
137	0xbda3bc2f	-0.079948775
138	0x3d619d56	0.055081688
139	0x3d0f133b	0.03493045
140	0xbda938a9	-0.0826276
141	0xbca6c381	-0.020356895
142	0xbb99bf86	-0.004692021
143	0x3d03fbf0	0.03222269
144	0xbd9af7db	-0.07566806
145	0x3d8bbe8b	0.068234526
146	0x3d958d0b	0.073022924
147	0x3d71af9f	0.059005376
148	0xbb9f4cfc	-0.004861472
149	0xbcbdc60c	-0.023165725
150	0xbd05eb6d	-0.032695223
151	0x3c4779ae	0.012175007
152	0xbba53392	-0.005041548
153	0x3d1e9977	0.038720574
154	0xbd98f969	-0.07469446
155	0xbd8eae39	-0.06966824
156	0xbd85e8fe	-0.0653858
157	0x3d48bc6b	0.049007814
158	0xbd3b923e	-0.045793764
159	0x3d56e782	0.052466877
160	0x3ce237f8	0.027614579
161	0xbdb24a2d	-0.08705554
162	0xbd8d2417	-0.06891649
163	0xbd0eba73	-0.03484578
164	0x3d877f43	0.0661607
165	0x3d9dda73	0.077076815
166	0x3c5351f7	0.01289796
167	0x3c116cfd	0.0088760825
168	0x3d5c1fa9	0.05374113
169	0x3d3cedef	0.04612535
170	0xbd75e0d9	-0.060028885
171	0x3be4d332	0.0069831843
172	0xbda8e0cc	-0.082460016
173	0xbd5c6e99	-0.05381641
174	0xbd45dcfe	-0.048306458
175	0xbdcd8ff8	-0.100372255
176	0x3cf434fd	0.029810423
177	0x3d020562	0.031743415
178	0xbc87a94c	-0.01656022
179	0x3d1a2173	0.037629556
180	0x3dbad242	0.09122135
181	0x3c412174	0.011787761
182	0x3d6e2300	0.058138847
183	0xbcc93f84	-0.02456642
184	0x3cd401f4	0.025879838
185	0x3d4f852d	0.050664116
186	0xbd82a954	-0.06379953
187	0x3ba06f86	0.004896107
188	0xbd989d54	-0.07451883
189	0xbda81632	-0.082073584
190	0x3d1d7193	0.03843839
191	0x3d59b977	0.05315539
192	0x3bca42ff	0.0061725373
193	0xbd8ecb56	-0.06972377
194	0xbdc2f309	-0.095190115
195	0x3d8ab04d	0.06771908
196	0x3cfee81e	0.031116541
197	0x3cb0626c	0.021531306
198	0xbda53eeb	-0.08068641
199	0x3bfcb736	0.00771227
200	0xbd1b703d	-0.037948836
201	0x3cc58f1b	0.02411609
202	0x3d063f7a	0.03277538
203	0xbd4f9716	-0.050681196
204	0xbd5bae49	-0.05363301
205	0xbdb1dd89	-0.086848326
206	0xbdc01b1e	-0.09380172
207	0xbd47d339	-0.048785422
208	0xbdbea63f	-0.09309053
209	0xbc638d02	-0.013888599
210	0xbc0cdc74	-0.008597482
211	0x3d03ad0b	0.03214745
212	0x3d0623f1	0.03274912
213	0x3d268ca0	0.040661454
214	0x3d88f637	0.06687587
215	0x3a7575a1	0.00093635364
216	0x3d33a18b	0.04385523
217	0x3d24c827	0.040229943
218	0xbd9d8ef8	-0.07693285
219	0xbcb8eecf	-0.02257481
220	0x3ca9c1bf	0.020722268
221	0xbc1d2ba9	-0.009592929
222	0xbd7375bb	-0.05943845
223	0x3d97f2e2	0.07419373
224	0x3d903822	0.070419565
225	0x3cad62de	0.021165308
226	0xbd2afe4e	-0.04174643
227	0x3c5c0ed4	0.01343127
228	0x3c303188	0.010753997
229	0x3d86e529	0.065866776
230	0x3d7bb5ea	0.061452784
231	0xbdb7de72	-0.08977975
232	0x3cc19a81	0.023633244
233	0x3c13f5d8	0.009030782
234	0xbb1922a0	-0.0023366585
235	0x3db53302	0.088476196
236	0x3d50daf8	0.050990075
237	0x3b87f420	0.004148975
238	0x3bf5b172	0.00749796
239	0xbb6b24e7	-0.003588015
240	0x3caf38e0	0.021389425
241	0x3da18d60	0.07888293
242	0x3c7d9e3f	0.015479623
243	0xbb21c0ee	-0.0024681645
244	0x3d2fbabd	0.042902697
245	0xbbdd34ae	-0.0067506647
246	0x3ca15703	0.01969481
247	0x3d3433b7	0.04399463
248	0xbc58ac03	-0.013224605
249	0x3d7405f5	0.059575994
250	0xbdc098b0	-0.09404123
251	0x3d9eceb9	0.07754273
252	0xbd8c7349	-0.068579264
253	0x3db88994	0.09010616
254	0xbd7718ba	-0.060326315
255	0x3c736a42	0.014856877

ConvNet.fc2.bias f4 [84]
0	0xbdb1677e	-0.08662318
1	0xbcdd5dd4	-0.02702228
2	0xbdafe53a	-0.08588643
3	0x3d350a24	0.044199124
4	0xbd0e81cd	-0.034791756
5	0xbd869e68	-0.06573182
6	0xbca81f10	-0.020522624
7	0xbbbf6fc0	-0.005842179
8	0x3dc17773	0.09446611
9	0xbc65f5b0	-0.014035627
10	0xbdaf2a32	-0.0855297
11	0x3da6cd59	0.08144636
12	0xbcb0fbcb	-0.02160444
13	0x3d028c95	0.03187235
14	0x3d38fda2	0.045163758
15	0x3cf11428	0.029428557
16	0xbdb4d398	-0.08829421
17	0xbd8a7db4	-0.06762257
18	0x3b9d98e5	0.004809486
19	0x3da333e8	0.07968885
20	0xbc45a0c4	-0.012062255
21	0x3d9bc1dc	0.07605335
22	0x3da95fc4	0.08270219
23	0xbd3d4093	-0.04620416
24	0x3dc4806d	0.09594808
25	0x3cff49a0	0.031163037
26	0x3dbd1d7a	0.09234138
27	0xbd46143a	-0.048359133
28	0x3da72a9a	0.081624225
29	0xbd762e94	-0.060103014
30	0xbc1dc694	-0.009629864
31	0x3d1d285c	0.038368568
32	0x3d5e9b67	0.054347422
33	0x3d3d2a18	0.04618272
34	0x3d2f04db	0.04272924
35	0x3da9447a	0.08265014
36	0xbdaec8c8	-0.0853439
37	0x3c30cf7a	0.010791654
38	0x3da7a3b3	0.0818552
39	0x3be1e6c9	0.006893967
40	0x3c0936d1	0.008374886
41	0xbb2470b4	-0.002509159
42	0x3c38c265	0.011276816
43	0x3d1ccf11	0.03828341
44	0xbd3fbef6	-0.046812974
45	0x3d7244f5	0.059147794
46	0x3cd6869c	0.026187234
47	0x3d6da25d	0.05801617
48	0xbd057515	-0.03258236
49	0xbd8ccfa6	-0.06875543
50	0x3d8828c7	0.06648403
51	0x3dc50f03	0.09622004
52	0x3da1f5a7	0.079081826
53	0x3d1f6e5a	0.0389236
54	0xbd2b8739	-0.041877005
55	0xbd5c9e97	-0.05386218
56	0xbd8ca6ab	-0.06867727
57	0x3da8ceaf	0.08242547
58	0x3da58c1d	0.08083365
59	0xbd127ac6	-0.035761617
60	0x3d232501	0.03983021
61	0x3bf8f9d5	0.0075981417
62	0xbb286d67	-0.0025699975
63	0xbc0d70db	-0.008632864
64	0x3d8e841f	0.06958794
65	0x3b934db6	0.004495348
66	0xbd57d633	-0.05269451
67	0x3b1fffd6	0.0024413965
68	0x3cbe9fa5	0.023269484
69	0x3dbf120c	0.09329614
70	0xb8beee94	-9.104345e-05
71	0xbcdf3e21	-0.027251305
72	0xbd28bcb8	-0.0411956
73	0xbdc1fbd7	-0.09471863
74	0x3d09c461	0.033634547
75	0xbd6d705a	-0.057968475
76	0xbbb1e090	-0.0054283813
77	0x3d5de319	0.054171655
78	0x3ce09635	0.027415374
79	0xbda86e9a	-0.082242206
80	0x3d9e40d3	0.07727208
81	0x3dc9135a	0.09818144
82	0xbd12f431	-0.03587741
83	0xbd1c6bcb	-0.038188737

Output.fc.weight f4 [10, 84]
0	0x3d62ef6f	0.055404123
1	0x3bc5b532	0.006033563
2	0xbd4013d3	-0.046893906
3	0xbcf33da4	-0.029692478
4	0x3de5ad07	0.11214643
5	0x3ac1f1e6	0.0014796823
6	0xbd282f36	-0.04106065
7	0x3dd5f7c3	0.104476474
8	0xbd644209	-0.05572704
9	0x3c442eb2	0.011974024
10	0x3bc2e383	0.0059475317
11	0xbd8837cc	-0.066512674
12	0xbd8dc3f4	-0.06922141
13	0x3d4d41d9	0.050111625
14	0x3da388f5	0.07985107
15	0xbd873a3e	-0.06602906
16	0x3d0400ad	0.032227207
17	0xbd88ef24	-0.066862375
18	0x3ddb2079	0.10699553
19	0xbded585d	-0.115891196
20	0x3d4795cd	0.048726846
21	0x3dd2c629	0.10291702
22	0xbc844e2b	-0.016150555
23	0x3c2d4ede	0.010577885
24	0xbda74e54	-0.08169237
25	0xbd3037dd	-0.043022025
26	0x3cf2d0e8	0.02964063
27	0xbdafeb1e	-0.08589767
28	0xbcfd1f4b	-0.03089871
29	0x3a9f67e8	0.0012161704
30	0x3c1b10ed	0.009464485
31	0x3c21feef	0.009887441
32	0xbcaea6fd	-0.02131986
33	0x3d0ea4a4	0.034824982
34	0xbde28274	-0.11060038
35	0x3df737c0	0.1207118
36	0xbdae8529	-0.08521492
37	0xbda7d986	-0.08195786
38	0x3dcd8b3b	0.10036322
39	0x3d957dce	0.07299386
40	0x3c88cfc1	0.016700627
41	0x3dbcb141	0.09213496
42	0xbdd3c68f	-0.103406064
43	0x3cb5e9dd	0.022206241
44	0xbb2bf400	-0.0026237965
45	0xbd9dd4c0	-0.077065945
46	0xbd5c68dc	-0.05381094
47	0xbdf5c372	-0.12000169
48	0xbdcc86bb	-0.09986635
49	0xbcce9006	-0.02521516
50	0xbe052654	-0.13002902
51	0xbce2a5e5	-0.027666995
52	0xbdd82995	-0.10554806
53	0xbdd378a9	-0.103257485
54	0xbdb9c48f	-0.09070694
55	0x3da66bf3	0.081260584
56	0x3d754a21	0.059885148
57	0x3d818573	0.063242815
58	0xbdd288ea	-0.102800205
59	0xbdd2b39e	-0.102881655
60	0xbc38f427	-0.011288679
61	0x3d50f3c1	0.05101371
62	0x3d2ff35d	0.0429567
63	0x3d8e9dce	0.069636926
64	0x3dadd450	0.08487761
65	0xbd8cb9c5	-0.0687137
66	0x3d8517df	0.06498694
67	0xbd97b84d	-0.074081995
68	0x3dfa0406	0.12207799
69	0x3c52fdab	0.012877862
70	0x3dda3000	0.106536865
71	0xbd8f0d15	-0.06984917
72	0xbc96cebd	-0.018409127
73	0xbd4f31a8	-0.050584465
74	0x3dc0ee70	0.09420478
75	0x3d907813	0.07054152
76	0xbe08042f	-0.13282846
77	0x3b15e4b4	0.0022871913
78	0x3b480394	0.003051971
79	0xbb111f1f	-0.0022143794
80	0x3db1264b	0.08649882
81	0xbc80893c	-0.015690438
82	0x3db8451c	0.089975566
83	0x3dc541b9	0.09631676
84	0xbc89c068	-0.01681538
85	0x3da1c3af	0.07898652
86	0xbd1d92f2	-0.038470216
87	0xbda1d4c7	-0.07901912
88	0x3c7e6188	0.015526183
89	0xbc6136ea	-0.013746003
90	0x3d9236fe	0.07139395
91	0x3cc8aa9f	0.024495421
92	0x3d6e269a	0.058142282
93	0x3d86d666	0.06583862
94	0x3cd9b09c	0.026573472
95	0x3dd1d5b1	0.102458365
96	0xbd34a93d	-0.04410671
97	0x3ddad60b	0.10685357
98	0xbd5a08c1	-0.053231005
99	0x3d852c5c	0.065026015
100	0xbd0c30ee	-0.03422635
101	0xbddbb7f3	-0.10728445
102	0x3cfbca1a	0.030736018
103	0x3c48c86d	0.0122548165
104	0xbd7c4b0a	-0.061595
105	0x3d75d7df	0.060020324
106	0xbd7f186d	-0.062279154
107	0xbd0898ab	-0.03334872
108	0x3deb70fa	0.11496158
109	0xbcfd256a	-0.03090163
110	0xbda75881	-0.08171178
111	0xbd46fb24	-0.04857935
112	0xbaf1bd72	-0.00184433
113	0xbdd93ac2	-0.1060691
114	0x3dbb0a98	0.0913288
115	0xbdbb6ba0	-0.09151387
116	0xbd5058f3	-0.05086608
117	0xbd8fd8dc	-0.070237845
118	0x3ce89dec	0.028395616
119	0x3bc77184	0.00608653
120	0xbd264b20	-0.04059899
121	0x3db2ebe8	0.08736402
122	0x3d8b1770	0.0679158
123	0xbdb30322	-0.08740832
124	0x3c332570	0.010934219
125	0xbc02c3b4	-0.00798123
126	0x3d6b1b11	0.05739886
127	0xbd30cd35	-0.04316445
128	0xbc290edc	-0.010318484
129	0xbd958ba8	-0.07302028
130	0x3d9ab8fb	0.075548135
131	0xbde21678	-0.11039442
132	0xbd10f820	-0.03539288
133	0x3d873ac0	0.066030025
134	0xbdd81cae	-0.10552345
135	0x3c878741	0.016543986
136	0xbd701ad2	-0.058619328
137	0xbda7a4bc	-0.081857175
138	0xbdc2da0d	-0.09514246
139	0xbd5c7e9b	-0.053831678
140	0xbd93652a	-0.0719703
141	0xbdca9a3f	-0.09892701
142	0x3d7bbc3d	0.061458815
143	0x3c012d2d	0.007884306
144	0x3c1c89aa	0.009554306
145	0xbd57a34e	-0.052645974
146	0x3ddf2d3f	0.10897302
147	0xbca81907	-0.020519746
148	0xbcfdfec0	-0.031005263
149	0x3d390cfe	0.045178406
150	0xbda2d814	-0.0795137
151	0xbd3b6632	-0.045751758
152	0xbcfc2d1a	-0.030783225
153	0xbdcb81d9	-0.09936876
154	0x3c92a96c	0.017903052
155	0x3c92a175	0.017899254
156	0x3bd5ecd3	0.006528476
157	0x3cb75ad0	0.02238217
158	0x3d9cce35	0.07656518
159	0xbc4e5505	-0.012593512
160	0x3d7ad90c	0.06124215
161	0x3d774101	0.060364727
162	0x3da64a81	0.08119679
163	0xbd0fae1c	-0.035078153
164	0x3b19be95	0.0023459543
165	0xbcfc4e4b	-0.030799052
166	0x3bb71702	0.0055874595
167	0xbc6437ea	-0.013929347
168	0xbc93996d	-0.018017495
169	0xbde4cbf6	-0.11171715
170	0xbda07700	-0.078351974
171	0x3b5ad688	0.003339203
172	0x3d99a2fc	0.0750179
173	0x3dbaff89	0.09130771
174	0xbdd52912	-0.10408224
175	0x3d0f28b0	0.034950912
176	0xbde5d90f	-0.11223041
177	0xbda1d890	-0.07902634
178	0xbd968a66	-0.07350616
179	0xbd85b80c	-0.06529245
180	0x3ca99aec	0.020703755
181	0xbb8d65fd	-0.0043151365
182	0xbd60de96	-0.054899774
183	0xbd401deb	-0.046903532
184	0x3db6c88c	0.0892497
185	0xbd7807dc	-0.06055437
186	0xbdbd75a7	-0.09250956
187	0x3d138aae	0.036020927
188	0xbdc94afb	-0.098287545
189	0x3db8c1a6	0.090213105
190	0x3db36bda	0.087608054
191	0xbd057a15	-0.03258713
192	0x3d0951db	0.03352533
193	0xbde82b46	-0.11336379
194	0xbc8db0a1	-0.017296137
195	0xbd41d236	-0.047319613
196	0x3b8704a6	0.004120427
197	0xbdf0e493	-0.11762347
198	0xbcfd21f4	-0.03089998
199	0xbc7a57bf	-0.015279709
200	0x3c3642b9	0.011124306
201	0x3d9028f1	0.07039059
202	0x3c1b2431	0.009469078
203	0x3c8e4fbc	0.017372005
204	0xbd1b5590	-0.037923396
205	0x3ba4bbfa	0.0050272914
206	0xbdbff3bb	-0.0937266
207	0xbccf95e3	-0.025340026
208	0x3d68d7de	0.056846492
209	0xbdc2f64a	-0.09519632
210	0x3db57639	0.0886044
211	0x3d9205da	0.07130022
212	0xbd94472e	-0.07240139
213	0xbd71c3b2	-0.05902452
214	0xbd9d8c73	-0.07692804
215	0xbbdf292d	-0.0068103285
216	0xbc847269	-0.016167836
217	0x3d0bed52	0.034161873
218	0x3cd052e5	0.025430152
219	0x3d832a0b	0.064045034
220	0xbd09417d	-0.03350972
221	0xbc2a7f0d	-0.010406268
222	0xbd7cf9db	-0.06176172
223	0xbde63ede	-0.1124246
224	0x3dbf3d21	0.09337831
225	0x3d3cbd72	0.046079107
226	0xbd660c60	-0.056164145
227	0x3dcbc2a1	0.09949232
228	0xbdfccc83	-0.12343695
229	0xbc2cb38c	-0.010540854
230	0xbcd37136	-0.02581082
231	0xbdc5261c	-0.096264094
232	0x3d8eca14	0.06972137
233	0xbd1441c4	-0.03619553
234	0x3bd0eb94	0.0063757394
235	0x3d79d01c	0.060989484
236	0x3d042e7f	0.032270905
237	0x3a073090	0.00051570777
238	0xbdd6f1de	-0.10495351
239	0xbdb41e86	-0.087948844
240	0xbd905af6	-0.070485994
241	0x3dc1af6f	0.094572894
242	0xbc7f8ba2	-0.015597256
243	0xbb0f7f2b	-0.0021895866
244	0x3d4a99c0	0.049463034
245	0xbdd93870	-0.10606468
246	0xbdad36e2	-0.08457734
247	0xbd8dfdf6	-0.06933205
248	0x3d24c248	0.040224344
249	0xbc71d7a3	-0.014760884
250	0xbd632d9f	-0.05546343
251	0xbcc1b7c4	-0.023647197
252	0x3dc5562c	0.096355766
253	0xbd35adc2	-0.04435516
254	0x3db2bf31	0.08727873
255	0x3d420e98	0.0473772

Output.fc.bias f4 [10]
0	0xbd955d4d	-0.07293186
1	0x3dd4a556	0.10383098
2	0xbd7583bf	-0.059940096
3	0x3dec66ef	0.115430705
4	0x3da45d6c	0.08025631
5	0x3aa251ba	0.0012383976
6	0x3da76731	0.08173979
7	0xbdcdf40e	-0.10056315
8	0x3c0bce01	0.008533002
9	0xbd52d4c3	-0.051472437
