tutorials/W1D2_ComparingTasks/RR/models/ConvNet_regression_100_epoch_1.pth (torch, 247994 bytes, 9 tensors)

ConvNet.conv1.weight f4 [6, 1, 5, 5]
0	0xbd6206e7	-0.055182364
1	0xbe1e9bfa	-0.15489188
2	0x3e4aa729	0.19790329
3	0xbd9cdc50	-0.07659209
4	0xbe25b54b	-0.16182439
5	0x3db90182	0.09033491
6	0x3e252488	0.16127217
7	0xbc71ee53	-0.014766294
8	0xbe0eb9b9	-0.13938035
9	0x3dd398ef	0.10331904
10	0x3cded4b0	0.027201027
11	0x3aa7191d	0.0012748573
12	0xbe1846a2	-0.14870694
13	0xbe4505d0	-0.19240499
14	0xbe033e28	-0.1281668
15	0xbe1f96ab	-0.15584819
16	0xbe22a6b3	-0.15883903
17	0xbe0df5ff	-0.13863371
18	0xbd98d65c	-0.07462761
19	0xbded0cce	-0.11574708
20	0x3e13f56b	0.14449088
21	0xbca78f79	-0.020454155
22	0xbc3131cc	-0.010815095
23	0x3da28a6e	0.079365596
24	0xbe2d4fec	-0.16925019
25	0xbe3b45d9	-0.18288364
26	0x3e18aa40	0.14908695
27	0x3d859256	0.06522052
28	0xbdbef166	-0.09323387
29	0x3e1addd6	0.15123686
30	0x3ba520f8	0.0050393306
31	0xbc834304	-0.016023166
32	0x3dc35492	0.09537615
33	0x3beafffa	0.007171628
34	0x3df027bf	0.11726331
35	0x3e33be77	0.17553125
36	0xbe19d229	-0.15021576
37	0x3d0183ef	0.031619962
38	0x3e2b952c	0.16756123
39	0xbe15bc24	-0.14622551
40	0x3d617c64	0.05505027
41	0x3ddeba0c	0.108753294
42	0xbd6d40e3	-0.05792321
43	0xbd8a199f	-0.06743168
44	0xbde6bdec	-0.112666935
45	0xbd6bff0a	-0.05761627
46	0xbcf4f6ec	-0.029902898
47	0x3de66295	0.11249272
48	0x3e222eb2	0.15838125
49	0xbd914c60	-0.070946455
50	0x3e3a20e7	0.18176614
51	0x3c221c22	0.009894403
52	0xbd34b74a	-0.04412011
53	0xbdf61b0c	-0.120168775
54	0xbb62bcc7	-0.0034597383
55	0x3cfa7219	0.030571984
56	0xbe23511a	-0.15948907
57	0x3e088fff	0.1333618
58	0xbd787910	-0.06066233
59	0x3e371465	0.17878874
60	0xbd98bf6f	-0.07458388
61	0xbe1c9ffb	-0.15295403
62	0x3c7a7bb0	0.015288278
63	0xbd8e5426	-0.06949644
64	0xbded954f	-0.11600744
65	0xbe3a1ac0	-0.18174267
66	0xbe334791	-0.17507769
67	0xbdf9dd61	-0.12200428
68	0x3c980d42	0.01856101
69	0x3cb8d15f	0.022560773
70	0xbe08247a	-0.13295165
71	0xbe38276d	-0.1798379
72	0x3d9a3e3c	0.075314015
73	0x3df341fe	0.118778214
74	0x3cb17505	0.021662245
75	0xbde6e0ff	-0.11273383
76	0xbd005e98	-0.03134021
77	0x3e407972	0.18796328
78	0x3d434bf1	0.047679845
79	0xbda07faa	-0.0783685
80	0x3d2874c6	0.04112699
81	0x3d9edc9a	0.0775692
82	0xbe450c2f	-0.19242929
83	0x3da2cb71	0.079489596
84	0xbdf39b59	-0.118948646
85	0xbe387b12	-0.18015698
86	0xbd4535ba	-0.04814694
87	0xbcb1fa0c	-0.021725677
88	0x3e34a541	0.17641164
89	0xbdd70357	-0.10498684
90	0x3e180fcc	0.14849776
91	0x3e48507c	0.19561952
92	0x3d870992	0.06593622
93	0x3dc6ae23	0.09701183
94	0xbdeb41cc	-0.11487159
95	0xbe4bb4eb	-0.19893233
96	0xbddea7cd	-0.10871849
97	0xbd9a62a4	-0.075383455
98	0xbd5d668c	-0.054052874
99	0x3e23d593	0.15999441
100	0xbdef6ed0	-0.11691058
101	0x3d90e0e3	0.07074144
102	0xbd57bb47	-0.052668836
103	0xbde6e0e6	-0.11273365
104	0x3d999d2c	0.07500681
105	0x3e1d65ca	0.1537086
106	0xbe0e8cd2	-0.13920906
107	0x3deb5b42	0.114920154
108	0xbdb1c288	-0.08679682
109	0x3e2f7bb4	0.17137033
110	0x3d863ef0	0.06554973
111	0x3e44ca1b	0.19217722
112	0xbd390870	-0.045174062
113	0xbd7c1d32	-0.06155128
114	0x3c9b7320	0.018975794
115	0xbdabeb53	-0.08394494
116	0xbcb27824	-0.021785803
117	0xbe3e886c	-0.18606728
118	0xbd0056db	-0.03133283
119	0x3dae2ac0	0.08504248
120	0x3d682e3f	0.05668473
121	0x3da67ddc	0.081294745
122	0x3d2eb2cf	0.042650994
123	0xbe14d165	-0.14533003
124	0xbe07032d	-0.13184805
125	0xbe1f8015	-0.15576203
126	0xbe45c51a	-0.1931347
127	0x3d74567e	0.059652798
128	0x3c666d68	0.01406417
129	0x3dca5881	0.09880162
130	0xbe08fb41	-0.13377096
131	0xbc1694b8	-0.009190731
132	0x3df4e901	0.119585045
133	0x3d7e2846	0.062050126
134	0xbe0ab805	-0.1354676
135	0x3e4815ea	0.1953961
136	0xbddf1ff0	-0.108947635
137	0xbe102068	-0.14074862
138	0x3de61b50	0.11235678
139	0x3d3e794d	0.0465024
140	0xbe29ce8f	-0.16582702
141	0x3da7fa6e	0.082020625
142	0xbe1a999b	-0.15097658
143	0x3d1f0ac0	0.03882861
144	0x3d4abd6d	0.049497057
145	0x3d88f585	0.06687454
146	0x3ca1627a	0.019700278
147	0xbe0ffd57	-0.14061485
148	0xbb98f1c6	-0.0046674935
149	0x3cf8eb60	0.030385673

ConvNet.conv1.bias f4 [6]
0	0x3e25a897	0.16177593
1	0xbe4095ec	-0.1880719
2	0x3dc833a9	0.097754784
3	0xbccf40f8	-0.025299534
4	0x3b763f4e	0.0037574354
5	0xbdcd01d8	-0.10010117

ConvNet.conv2.weight f4 [16, 6, 5, 5]
0	0xbc932c60	-0.017965496
1	0xbda3e9c4	-0.08003572
2	0xbcd4d20f	-0.02597907
3	0x3d65f698	0.056143373
4	0x3c2c3e3c	0.010512885
5	0xbd098349	-0.03357247
6	0xbd3b366b	-0.045706194
7	0x3cb4ceae	0.022071209
8	0x3cf0c1b7	0.029389245
9	0xbd49acd6	-0.049237095
10	0xbd335375	-0.043780763
11	0xbd2b1652	-0.041769333
12	0x3d6e02c6	0.058108114
13	0x3d8e72de	0.06955503
14	0x3d0213f2	0.031757303
15	0xbcac7dd9	-0.021056103
16	0x3d737fb3	0.059447955
17	0x3d17ea86	0.037088893
18	0xbd97f91f	-0.07420563
19	0xbd6fcbcb	-0.05854396
20	0xbd08abf1	-0.0333671
21	0x3d968c9b	0.07351037
22	0xbbc29634	-0.0059383158
23	0xbd6fb985	-0.058526535
24	0xbca903b3	-0.020631647
25	0x3c456683	0.0120483665
26	0xbd4f0fd0	-0.05055219
27	0xbd9852a9	-0.07437641
28	0xbd5e4199	-0.054261778
29	0xbc9c8b06	-0.01910926
30	0x3d296bbc	0.04136251
31	0xbd75bdab	-0.059995335
32	0x3d4b8ab6	0.049692832
33	0x3ad6c073	0.0016384259
34	0x3caa8c2c	0.020818792
35	0x3d6b4234	0.057436183
36	0x3d95f1ce	0.07321511
37	0xbd548f67	-0.05189457
38	0xbc083c8b	-0.008315216
39	0xbd621726	-0.055197857
40	0x3d424705	0.04743101
41	0x3d1f8700	0.038947105
42	0x3d267a9b	0.04064427
43	0x3cecc5bd	0.028902883
44	0x3d62b07a	0.055344082
45	0x3c9ccdfe	0.019141193
46	0xbc924940	-0.017857194
47	0xbcd4be9f	-0.025969801
48	0xbd90ac7b	-0.07064148
49	0xbd08cd37	-0.033398833
50	0x3a58378b	0.00082480226
51	0xbce8b7a0	-0.028407872
52	0x3cfea481	0.031084301
53	0x3d6dccd8	0.058056682
54	0xbd0b044e	-0.033939652
55	0xbca2b133	-0.019859886
56	0xba4a3bb4	-0.0007714585
57	0xbbc38919	-0.005967271
58	0x3d4bd5f0	0.049764574
59	0xbbe1cd52	-0.006890931
60	0x3c3a0110	0.011352792
61	0x3992aeaa	0.00027977425
62	0xbb200bf9	-0.0024421199
63	0x3c482871	0.012216673
64	0xbd84f622	-0.064922586
65	0xbd6ac980	-0.05732107
66	0xbc8420f4	-0.016128995
67	0xbcc3a7a5	-0.02388365
68	0xbd24dea7	-0.0402514
69	0x3d7263de	0.059177272
70	0x3d0f2c2d	0.03495424
71	0xbd3fe0a6	-0.0468451
72	0x3bd49d9a	0.006488514
73	0x3da06975	0.07832614
74	0xbc67e503	-0.014153722
75	0x3d96474e	0.07337819
76	0xbc45a5fd	-0.0120635005
77	0x3d83fb79	0.06444449
78	0x3c118855	0.008882602
79	0x3cafc76e	0.0214574
80	0x3d353ed6	0.04424938
81	0x3cf6dc30	0.03013429
82	0xbd6adeb8	-0.057341307
83	0x3d8e6102	0.069520965
84	0xbc779c06	-0.0151128825
85	0xbd98408f	-0.074341886
86	0xbd66b2a5	-0.056322712
87	0xbd6d3403	-0.05791093
88	0xbd87924c	-0.06619701
89	0x3cd31233	0.025765514
90	0xbd226598	-0.03964767
91	0x3d22f3f6	0.03978344
92	0xbd3fd814	-0.046836928
93	0x3d010635	0.03150006
94	0x3c72c395	0.014817138
95	0x3cfbb9a8	0.030728176
96	0x3d948da8	0.07253581
97	0x3c1666a9	0.0091797495
98	0x3d03f7e4	0.03221883
99	0xbce0c81a	-0.027439166
100	0xbd468b88	-0.04847291
101	0xbd045389	-0.032306228
102	0xbd9d43fc	-0.076789826
103	0x3d1d01ac	0.038331673
104	0x3c380107	0.011230714
105	0x3d02096a	0.03174726
106	0x3d7591e5	0.05995359
107	0x3d747f76	0.05969187
108	0x3abe0484	0.0014497195
109	0x3d096df9	0.033552144
110	0x3cb5cdf5	0.022192935
111	0x3d9c602a	0.07635529
112	0x3d65327c	0.05595635
113	0x3d0d13ec	0.034442827
114	0xbcc8a214	-0.024491347
115	0xbda88d57	-0.082300834
116	0xbc508097	-0.012725971
117	0xbc9db9a2	-0.019253556
118	0x3cd85762	0.026408855
119	0x3d4b2f31	0.049605552
120	0xbd8ddf23	-0.069273256
121	0x3c6531fe	0.01398897
122	0xbd146136	-0.03622552
123	0x3d0080bb	0.031372767
124	0xbd808fd2	-0.062774315
125	0x3d6a9179	0.05726764
126	0x3d375567	0.04475918
127	0xbce58948	-0.028019562
128	0xbd0ec798	-0.034858316
129	0x3d0427c1	0.032264475
130	0xbd9a2f4a	-0.07528551
131	0x3d267011	0.04063422
132	0x3a842f5e	0.0010084917
133	0xbd81b1e7	-0.0633276
134	0xbd5d9f7e	-0.05410718
135	0x3d72d6a7	0.05928674
136	0x3c9aac79	0.01888107
137	0xbd37ff65	-0.044921298
138	0x3da59444	0.0808492
139	0x3d272103	0.040802967
140	0x3d792008	0.060821563
141	0xbd53ed3f	-0.051739927
142	0x3d13685b	0.035988193
143	0xbd843de2	-0.06457116
144	0xbc795503	-0.015218022
145	0x3d5f5ff4	0.054534867
146	0x3ce4ea3b	0.027943721
147	0x3c6d3c73	0.014479744
148	0x3d9d76bf	0.07688665
149	0xba284cf4	-0.00064201583
150	0x3d147f36	0.03625413
151	0x3d65f2e8	0.056139857
152	0xbd48e77f	-0.049048897
153	0x3d97aa36	0.07405512
154	0xbd38e5d5	-0.04514106
155	0x3d20d33f	0.03926396
156	0x3bc0d2c2	0.0058844993
157	0x3d838a01	0.064228065
158	0xbd0bdeda	-0.034148075
159	0x3d83daac	0.06438193
160	0x3d94b07d	0.07260225
161	0xbd9f5f39	-0.07781834
162	0x3cddaaf5	0.027059058
163	0x3d36eacd	0.044657517
164	0x3d17aa05	0.037027378
165	0xbda1888b	-0.07887372
166	0xbcab4d21	-0.020910801
167	0xbd9b9a29	-0.07597763
168	0x3a81f6c1	0.0009915457
169	0x3cb6138a	0.022226114
170	0x3d3acace	0.045603566
171	0x3cfac155	0.030609766
172	0x3d7444fc	0.0596361
173	0x3d8cefff	0.06881713
174	0xbd833540	-0.06406641
175	0x3d1da092	0.03848321
176	0xbcc68539	-0.024233447
177	0x3d8b84d1	0.06812442
178	0xbd6c6a9e	-0.057718866
179	0xbcd8a599	-0.02644615
180	0xbc9e8734	-0.01935158
181	0x3d27b6c6	0.04094579
182	0xbc97c868	-0.018528178
183	0xbc962970	-0.018330306
184	0xbd406a3b	-0.04697631
185	0xbd1d983b	-0.038475256
186	0x3c7280bb	0.0148012
187	0x3d70bb05	0.058772106
188	0xbcd029c2	-0.025410537
189	0xbc958113	-0.018250024
190	0xbd9cc507	-0.076547675
191	0xbd6c857c	-0.057744488
192	0x3d95f305	0.07321743
193	0xbcbe0067	-0.023193551
194	0x3c0bfafd	0.008543727
195	0xbd9b1e28	-0.07574111
196	0x3d393b0e	0.045222335
197	0x3d20fcbb	0.039303523
198	0x3c9b7c87	0.018980278
199	0x3da1c22b	0.07898363
200	0x3d275869	0.0408558
201	0xbcbc02bf	-0.022950528
202	0xbd8832e6	-0.06650333
203	0x3d9724e1	0.07380081
204	0x3d2bfe37	0.041990485
205	0x3d92cc87	0.07167917
206	0xbd8ed97e	-0.06975077
207	0x3d0d7c3e	0.034542315
208	0x3d0aecef	0.033917364
209	0xbd4b0470	-0.04956478
210	0xbd7a9ecb	-0.061186593
211	0xbd965fb1	-0.073424704
212	0xbd795161	-0.060868625
213	0x3d951285	0.07278923
214	0x3c89f0ef	0.016838519
215	0x3d3b5a4c	0.04574041
216	0x395261b4	0.00020063558
217	0xbd87bbbd	-0.06627605
218	0xbd284761	-0.041083697
219	0x3ab14fde	0.0013527831
220	0xbce97238	-0.028496847
221	0xbc055842	-0.008138718
222	0x3d976dac	0.07393965
223	0xba4a254f	-0.0007711248
224	0x3a528d19	0.00080318894
225	0x3d9d19d2	0.076709405
226	0x3cee4200	0.029084206
227	0xbd496cc5	-0.049175996
228	0x3d3fdce4	0.046841517
229	0xbc87017d	-0.016480202
230	0x3d48ba9a	0.049006082
231	0x3d20452c	0.039128467
232	0xbc9542ca	-0.018220324
233	0x3d2eea32	0.042703815
234	0x3d355998	0.044274896
235	0x3d8d43d5	0.068977036
236	0xbd6c8bec	-0.057750627
237	0x3d668d59	0.056287143
238	0x3d569fe6	0.052398585
239	0x3d8fa736	0.07014315
240	0x3d29d8e2	0.0414666
241	0x3c978075	0.01849387
242	0xbd06b04c	-0.032882974
243	0x3c15ffb3	0.009155202
244	0x3d3f40c4	0.046692625
245	0xbda8592c	-0.08220133
246	0xbc9fb842	-0.01949704
247	0xbb8cac02	-0.004292966
248	0xbd1c2fa1	-0.03813136
249	0xbd719d03	-0.05898763
250	0x3d4714bc	0.04860376
251	0x3d5c68ca	0.053810872
252	0xbda067cf	-0.078323
253	0xbd8177e2	-0.06321694
254	0x3d0cc62b	0.034368675
255	0x3d365cdf	0.044522163

ConvNet.conv2.bias f4 [16]
0	0xbd5f4ffd	-0.054519642
1	0xbd39b6e1	-0.045340423
2	0xbd63fbc7	-0.055660035
3	0x3d10d4cf	0.0353592
4	0xbd4649ea	-0.048410334
5	0x3d997882	0.07493688
6	0x3cbdfbb2	0.023191307
7	0xbc8b218f	-0.016983775
8	0x3d45bcd6	0.04827579
9	0x3d8fb02e	0.070160255
10	0x3d84468b	0.064587675
11	0x3c9b35ce	0.018946555
12	0x3d512d4d	0.051068593
13	0x3d5347f7	0.051582303
14	0x3da0b718	0.07847422
15	0xbc0471e9	-0.008083799

ConvNet.fc1.weight f4 [120, 400]
0	0xbcf1ae0f	-0.029501943
1	0x3c7c8fbe	0.01541513
2	0x3ce35ddd	0.027754718
3	0x3ce3e263	0.02781791
4	0xbd0d1ca9	-0.03445116
5	0x3c35bafd	0.011091945
6	0x3ce7a916	0.028278869
7	0xbc0249e3	-0.007952186
8	0xbd42458a	-0.0474296
9	0x3d380aec	0.04493229
10	0x3d2bd2c4	0.04194905
11	0xbcdb78a7	-0.02679093
12	0xbc445839	-0.011983925
13	0x3c4dc726	0.012559688
14	0xbbbe2173	-0.0058023273
15	0xbd1e6822	-0.038673528
16	0x3a0c3c8a	0.0005349597
17	0x3ceedcdd	0.02915805
18	0x3cfb96bf	0.03071153
19	0x3d1b2224	0.037874356
20	0xbc7cacdc	-0.015422072
21	0xba8fd6b2	-0.0010974018
22	0x3d1396a0	0.03603232
23	0xbbbcddcb	-0.0057637445
24	0xbc5ab906	-0.013349777
25	0x3af2c99a	0.0018523217
26	0xbd0f4b9b	-0.034984212
27	0xbc18c7c9	-0.009324976
28	0xbc54e712	-0.012994545
29	0x3d0a5190	0.03376919
30	0xbc41ac1f	-0.011820822
31	0xbd04525a	-0.0323051
32	0xbd00041b	-0.031253915
33	0xbcaca342	-0.021073941
34	0xbc960f90	-0.018317968
35	0xbbd32fa3	-0.0064448877
36	0x3cc4b881	0.02401376
37	0x3ca1ebd4	0.019765772
38	0x3cd6729e	0.0261777
39	0xbc8010dc	-0.01563304
40	0xbbed8fb0	-0.007249795
41	0x3c960139	0.01831113
42	0x3ca92d42	0.020651463
43	0x3c72eaad	0.014826459
44	0x3b123fd4	0.0022315877
45	0x3c053447	0.00813014
46	0xbc1463ac	-0.009056967
47	0x3d153b86	0.03643372
48	0x3d0a1e81	0.033720497
49	0x3d21a557	0.03946432
50	0xbb7d7514	-0.003867452
51	0xbd4e1f01	-0.050322536
52	0xbcce1238	-0.025155172
53	0x3b8a91fe	0.0042288294
54	0x3cfa0c39	0.030523406
55	0x3d1af3b0	0.037830055
56	0xbc867475	-0.016412953
57	0x3d162350	0.03665477
58	0xbcb1ec3c	-0.02171909
59	0x3d3a249d	0.045445073
60	0xbc251ae2	-0.01007721
61	0x3d00b5ab	0.031423252
62	0x3d18b99a	0.03728638
63	0x3abc356d	0.0014359184
64	0x3d31f2ed	0.043444563
65	0x3d0b7e3d	0.034055937
66	0xbc9b5583	-0.018961674
67	0x3cdd8e64	0.027045436
68	0xbcc1aba2	-0.023641411
69	0xbd1cf75d	-0.03832184
70	0xbd0a7f7d	-0.03381299
71	0x3c823960	0.0158965
72	0x3ced7173	0.02898476
73	0xbc9bfd51	-0.01904169
74	0xbc39ebd5	-0.011347731
75	0xbd17bb70	-0.03704399
76	0xbcfc2c1a	-0.030782748
77	0xbd2e35ae	-0.04253166
78	0x3b8aedc6	0.0042397706
79	0xbd1b7cff	-0.037961002
80	0xbcddad84	-0.027060278
81	0xbd460af2	-0.048350282
82	0x3cc1ba9e	0.023648556
83	0xbc4c9c20	-0.012488395
84	0xbab2c867	-0.0013640047
85	0xbd1ecdc7	-0.038770463
86	0x3c0e1173	0.008671152
87	0x3ca56885	0.02019144
88	0x3d12ac4d	0.03580885
89	0xbcdf240d	-0.02723887
90	0x3ce147aa	0.027499992
91	0xbd07f3dc	-0.033191547
92	0x3c10113d	0.008793172
93	0xbcab44df	-0.020906864
94	0xbc5f5e84	-0.013633374
95	0xbd0a8ec6	-0.033827566
96	0x3d230405	0.039798755
97	0x3d3604b1	0.044438068
98	0xbc8a8cb2	-0.016912792
99	0xbd24e7ba	-0.040260054
100	0xbce30175	-0.027710656
101	0xbbd7f124	-0.0065900255
102	0x3bc1d20f	0.0059149335
103	0xbbce9b7c	-0.0063051563
104	0xbb3ef4f2	-0.0029137698
105	0x3c2c73aa	0.010525623
106	0x3d014426	0.031559132
107	0xbd335281	-0.043779854
108	0xbc9c4474	-0.01907561
109	0xbd1ce162	-0.03830088
110	0x3d40b1d7	0.0470446
111	0x3c9e7220	0.019341528
112	0xbb467b9f	-0.0030286086
113	0xb9a527a8	-0.000315008
114	0x3cd5a20c	0.026078247
115	0xbca4f1d7	-0.02013485
116	0x3b9a001c	0.00469972
117	0x3b34cc06	0.0027587428
118	0xbd3d4867	-0.046211626
119	0x3b9e6765	0.004834103
120	0xbd4fc04f	-0.05072051
121	0x3b58e09c	0.0033092862
122	0xbc13af07	-0.009013898
123	0x3cf49445	0.029855857
124	0x3cde4894	0.027134217
125	0xbcc482f9	-0.023988234
126	0xbce904fd	-0.028444761
127	0xbd20b97f	-0.039239403
128	0xbd13813c	-0.03601192
129	0x3d1d4f20	0.038405538
130	0x3ca6b5a2	0.020350281
131	0xbcaa6293	-0.020798957
132	0xbc662572	-0.014047014
133	0xbc103ae0	-0.008803099
134	0x3bbd3c6a	0.005775024
135	0xbc6c5c8e	-0.014426364
136	0xbd15d459	-0.036579464
137	0xbbb1c2b8	-0.0054248236
138	0xbd321ffc	-0.043487534
139	0x3c8c7f92	0.017150674
140	0x3d07061a	0.032964803
141	0x3d05fe12	0.032713003
142	0x3c608f1d	0.013705996
143	0x3bd9b476	0.006643827
144	0x3906f8e2	0.00012871952
145	0xbd027005	-0.03184511
146	0x3d2494cf	0.040180977
147	0xbcb1480c	-0.0216408
148	0xbc9cecf0	-0.01915595
149	0xbcfd973b	-0.030955901
150	0x3d213c65	0.039364237
151	0x3d1978a8	0.037468582
152	0xbc9449bd	-0.018101567
153	0x3d301346	0.04298713
154	0xbd0ea341	-0.03482366
155	0x3d436d60	0.04771173
156	0xbc57b914	-0.013166685
157	0xbcecd160	-0.028908432
158	0x3ca78fc3	0.020454293
159	0x3cae8987	0.021305813
160	0x3cdb9afa	0.026807297
161	0x3bc8d538	0.0061289333
162	0xbb3bb7aa	-0.0028643408
163	0x3b14fa89	0.0022732338
164	0xbd0dbbbc	-0.034602866
165	0x3b7a5b2c	0.0038201315
166	0x3c8373cf	0.016046433
167	0x3d39b77f	0.04534101
168	0xbbb67de6	-0.0055692075
169	0xbd21ceac	-0.03950374
170	0xbca362df	-0.019944606
171	0x3d15975e	0.036521308
172	0x3cbf93b7	0.023385866
173	0xbd4fa7e6	-0.05069723
174	0xbcdd52d2	-0.02701703
175	0x3a6a6001	0.00089406973
176	0xbd0c696e	-0.034280233
177	0x3ba78b9b	0.005113078
178	0x3cfc0101	0.030762197
179	0x3d4880ed	0.04895108
180	0xbd1a113e	-0.0376141
181	0xbb97d065	-0.004632997
182	0x3cd97e0a	0.026549358
183	0xbd246d4b	-0.040143292
184	0xbcc0f2f9	-0.023553358
185	0xbc991f5f	-0.018691717
186	0xbbd40bdb	-0.00647114
187	0x3c8c4952	0.017124806
188	0x3d310a7e	0.043222897
189	0x3d1758e2	0.03695
190	0xbd2907ec	-0.04126732
191	0x3c598c7d	0.013278124
192	0x3b195684	0.0023397515
193	0xbd464fb0	-0.04841584
194	0x3aa40099	0.0012512385
195	0xbd404f48	-0.04695061
196	0x3d12f9fa	0.035882927
197	0xbcbceb16	-0.023061316
198	0xbce8b61e	-0.028407153
199	0x3aabfa0e	0.0013120787
200	0xbcc374ad	-0.023859346
201	0x3d35daa3	0.04439796
202	0x3c340411	0.010987298
203	0xbc17bae1	-0.009260864
204	0xbcab02e7	-0.020875407
205	0xbc798ae3	-0.015230867
206	0x3d325422	0.043537267
207	0xbaaf0b48	-0.0013354803
208	0x3d41e209	0.047334705
209	0x3c85d480	0.01633668
210	0xbaaa6528	-0.0013000118
211	0x3c7f9984	0.015600566
212	0xbd279413	-0.0409127
213	0x3c53af38	0.012920193
214	0x3cb4ac17	0.022054715
215	0xbd1f9396	-0.03895911
216	0x3d0de708	0.034644157
217	0x3c94f6cc	0.018184088
218	0xbd384cee	-0.04499524
219	0xbd1650ba	-0.03669808
220	0x3d27c5e9	0.040960226
221	0x3d333b8b	0.043757956
222	0x3c74522d	0.01491217
223	0xbc639e6e	-0.013892753
224	0xbd34e739	-0.044165824
225	0xbd448447	-0.047977712
226	0x3b3a1ef8	0.0028399806
227	0x3c8863a9	0.016649084
228	0x3d312d68	0.043256193
229	0xbd3a7ea2	-0.045530923
230	0xbc794606	-0.015214449
231	0xbd28b55a	-0.041188575
232	0xbd23f437	-0.040027823
233	0x3d2c0b3b	0.042002898
234	0xbca868ac	-0.020557724
235	0xbbbbdf3c	-0.0057333987
236	0xbd070391	-0.032962386
237	0xba8dacea	-0.0010808979
238	0xbab10f91	-0.0013508667
239	0x3ca14e08	0.019690529
240	0xbd066711	-0.032813136
241	0xbc068885	-0.00821126
242	0xbd12c78a	-0.035834827
243	0x3c860cf7	0.016363604
244	0xbd399f57	-0.045317974
245	0xbb7cab1a	-0.0038554133
246	0x3d3716ae	0.044699363
247	0x3a1a2b30	0.0005881069
248	0xbd1651d8	-0.036699146
249	0x3d426c39	0.04746649
250	0x3d0703e0	0.03296268
251	0x3cd3241f	0.02577406
252	0xbbf6ae7a	-0.0075281234
253	0x3d41d6b6	0.047323905
254	0x3d19c22f	0.037538704
255	0x3d3ced09	0.04612449

ConvNet.fc1.bias f4 [120]
0	0x3d0db5a6	0.03459706
1	0xbcfdb00f	-0.03096774
2	0x3d2ead83	0.042645942
3	0x3c0411a7	0.008060849
4	0x3d332d67	0.04374447
5	0x3d13b382	0.036059864
6	0xbd1d5308	-0.038409263
7	0xbd0d141b	-0.034443002
8	0x3bda8ae7	0.0066693905
9	0xbc86a1e1	-0.016434612
10	0x3cd79c0e	0.02631953
11	0x3b011a1d	0.0019699403
12	0xbcf8835e	-0.030336078
13	0xbd111399	-0.03541908
14	0xbd34fe38	-0.044187754
15	0x3c0d7cce	0.008635713
16	0xbcec1189	-0.028816955
17	0xbd1c75d0	-0.038198292
18	0x3d15daa8	0.03658548
19	0xbcd2230c	-0.025651477
20	0x3d19ac9b	0.037518125
21	0xbd1020b0	-0.035187423
22	0xbcc3e682	-0.023913626
23	0xbd529c60	-0.051418662
24	0x3d461683	0.048361313
25	0x3d353529	0.04424015
26	0x3b2e9242	0.002663747
27	0xbd34a871	-0.04410595
28	0x3c4b69ec	0.01241539
29	0x3cd9a912	0.026569877
30	0xbce3ea6e	-0.027821746
31	0xbc752225	-0.014961754
32	0x3d480a72	0.048838086
33	0x3c50d883	0.012746933
34	0xbcfb53c0	-0.030679584
35	0xbd4448b6	-0.047920905
36	0xbb2b8cab	-0.0026176374
37	0xbc767ac8	-0.015043922
38	0x3ce6370b	0.028102418
39	0xbd4a4d9c	-0.04939042
40	0x3c6a5e51	0.014304713
41	0xbcc258b5	-0.02372394
42	0x3c81cef8	0.01584576
43	0xbd2f49c5	-0.04279496
44	0x3caf6376	0.021409731
45	0x3d3cea61	0.04612196
46	0xbd069fe1	-0.032867316
47	0x3c8eedd7	0.017447395
48	0xbc1a7e42	-0.009429516
49	0x3c955e29	0.018233376
50	0x3c395843	0.011312547
51	0xbbef386b	-0.0073004267
52	0xbd04f398	-0.03245887
53	0xbcc660ae	-0.024216022
54	0x3d49ebde	0.049297206
55	0xbc349ca6	-0.011023676
56	0x3cc25746	0.023723256
57	0x3c9a9ee7	0.018874599
58	0xbd294187	-0.041322257
59	0xbbe6c067	-0.007041979
60	0x3cbdf139	0.023186313
61	0xbca5cc8a	-0.020239133
62	0x3cfab6d3	0.030604756
63	0x3cb340d7	0.021881504
64	0x3c69bd62	0.014266344
65	0xbd31d4dd	-0.043415893
66	0xbd03a4e6	-0.03213968
67	0x3ce10d23	0.027472084
68	0x3cf5c8cd	0.030002976
69	0xbd4bdbc7	-0.049770143
70	0xbd2bb28f	-0.041918334
71	0xbc88771f	-0.016658364
72	0xbd36f03f	-0.04466271
73	0x3c18ac2c	0.009318393
74	0x3d164779	0.036689255
75	0x3d372276	0.0447106
76	0xbd475391	-0.04866368
77	0x3cc0f8c3	0.023556119
78	0xbd25a7f6	-0.040443383
79	0x3d30aafa	0.043131806
80	0xbc3c4398	-0.011490725
81	0xbd4fd952	-0.050744362
82	0xbc363b6c	-0.011122566
83	0xbc90984c	-0.017650746
84	0x3bb5dfbf	0.0055503543
85	0xbb763390	-0.0037567355
86	0xbb9a3e98	-0.004707169
87	0x3d07f98d	0.033196975
88	0xbd05cfa1	-0.032668713
89	0xbcea486d	-0.028598988
90	0xbd07bf7b	-0.033141594
91	0x3bb9af8b	0.0056666783
92	0x3b904e83	0.0044038906
93	0x3cc6b56a	0.024256427
94	0x3cf00d61	0.029303255
95	0x3d451c5b	0.048122745
96	0xbcb5219a	-0.022110749
97	0xbcca100e	-0.024665859
98	0x3d330750	0.043708146
99	0xbd4b74d7	-0.049671974
100	0xbce4885c	-0.027897052
101	0xbc814123	-0.01577813
102	0xbcfa80a7	-0.030578924
103	0xbd4c2285	-0.049837608
104	0x3cef5d8d	0.029219413
105	0xbaff335d	-0.0019470264
106	0xbb8055f7	-0.003916498
107	0x3cf8021a	0.03027444
108	0x3d147b99	0.036250684
109	0xbca325f0	-0.019915551
110	0x3ce10602	0.027468685
111	0xbc82b6f4	-0.01595638
112	0x3d181bf4	0.037136033
113	0xbd030064	-0.031982794
114	0x3d15a3e0	0.036533237
115	0xbb8b1d69	-0.0042454493
116	0x3ca13da8	0.01968272
117	0xb8687aa0	-5.5427314e-05
118	0xbd1028d5	-0.03519519
119	0xbd1dcdc2	-0.038526304

ConvNet.fc2.weight f4 [84, 120]
0	0xbdab8536	-0.08375017
1	0x3aea2260	0.0017863028
2	0xbd9b6984	-0.07588485
3	0x3d8ff6b6	0.07029478
4	0xbd7c40d5	-0.061585266
5	0xbda20f92	-0.07913126
6	0xbb9f9412	-0.0048699463
7	0x3d09f590	0.033681452
8	0x3db5ab71	0.088705905
9	0x3d518d8e	0.051160388
10	0x3d2728af	0.040810283
11	0x3d22a5aa	0.03970877
12	0x3a5d7434	0.00084477966
13	0x3cf4fe97	0.029906554
14	0xbc151442	-0.009099068
15	0xbd39f7c8	-0.04540232
16	0xbd91cd21	-0.07119203
17	0xbd304c16	-0.04304131
18	0xbd05e63c	-0.03269027
19	0xbceaf787	-0.028682483
20	0x3d5948da	0.053047992
21	0x3d54b2c4	0.051928297
22	0xbc66a0d7	-0.014076433
23	0x3d630f66	0.055434607
24	0x3c0e5a8a	0.008688578
25	0x3d40b3b4	0.04704638
26	0x3d4d3faa	0.050109543
27	0x3d6f65b4	0.0584466
28	0xbd98c0be	-0.07458638
29	0xbd7cd174	-0.061723188
30	0x3d6bbfdc	0.05755602
31	0x3db0766f	0.086163394
32	0xbd88b71b	-0.066755496
33	0xbd535006	-0.05158999
34	0x3d94c62b	0.0726436
35	0xbd0b6eda	-0.034041263
36	0x3d761192	0.06007535
37	0x3db98b4e	0.090597734
38	0x3cfee247	0.031113757
39	0x3d731fb3	0.059356403
40	0xbc238b69	-0.009981968
41	0x3d66914f	0.05629092
42	0xbd9e95f9	-0.07743449
43	0xbda26fc8	-0.07931477
44	0xbce3a438	-0.027788267
45	0xbd15b062	-0.036545165
46	0xbd86f023	-0.06588771
47	0x3dab38b5	0.083604254
48	0x3c48b334	0.012249757
49	0x3ca28a0c	0.019841217
50	0xb92c70fa	-0.00016445285
51	0xbd6a5fb8	-0.05722019
52	0x3cc3ec53	0.0239164
53	0xbcbced22	-0.023062292
54	0x3d81f7a4	0.06346062
55	0xbdb62e2b	-0.088955246
56	0xbd66ce67	-0.056349184
57	0xbc6bbff3	-0.014389026
58	0xbb8104ac	-0.0039373245
59	0x3da1ea7f	0.07906055
60	0x3d6f5505	0.05843069
61	0xbd8bd405	-0.06827549
62	0xbd674c2c	-0.056469128
63	0x3c28a37e	0.010292886
64	0xbbaeba09	-0.0053322357
65	0x3d980a5b	0.0742385
66	0x3da2af58	0.079436004
67	0x3d2de2d9	0.042452667
68	0xbda0a813	-0.078445576
69	0xbdaeb584	-0.08530715
70	0xbd967c63	-0.07347944
71	0x3d550ebc	0.052016005
72	0xbc396b5f	-0.011317103
73	0x3cfd7937	0.030941589
74	0x3d7ff1ed	0.062486578
75	0xbc783c52	-0.0151511
76	0xbd9654d1	-0.07340396
77	0x3dabb2b2	0.08383693
78	0x3db523aa	0.08844693
79	0xbcacb6db	-0.021083286
80	0xbd9b8b61	-0.07594944
81	0x3c439d22	0.011939319
82	0xbc763090	-0.015026227
83	0xbc4e2ba4	-0.012583647
84	0x3d2927d0	0.041297734
85	0x3da8599e	0.08220218
86	0x3d9f86eb	0.077894054
87	0xbaccae6d	-0.0015615948
88	0xbca974a7	-0.020685507
89	0xbd05a566	-0.03262844
90	0xbd964a43	-0.07338383
91	0x3cc1c813	0.023654973
92	0x3da025bf	0.078196995
93	0x3bdcf421	0.0067429696
94	0xbd76fd1a	-0.06029997
95	0xbd6e07bb	-0.05811284
96	0x3c02bc2d	0.007979435
97	0x3cfd6984	0.030934103
98	0xbd88275a	-0.06648131
99	0x3b57d8fd	0.0032935732
100	0xbd8d8400	-0.069099426
101	0xbcd04cab	-0.025427183
102	0xbaf28d7b	-0.0018505299
103	0xbbc24df9	-0.005929705
104	0xbd925291	-0.071446545
105	0x3ce35576	0.027750712
106	0xbc89a618	-0.016802832
107	0xbca156ea	-0.019694764
108	0x3cfc856f	0.030825345
109	0x3db6d5e3	0.089275144
110	0xbd924e2b	-0.071438156
111	0x3d4afdf1	0.049558584
112	0x3d40516c	0.04695265
113	0x3cf3e966	0.029774379
114	0x3d06495c	0.032784805
115	0xbd9c68a7	-0.07637148
116	0xbd8d0625	-0.068859376
117	0xbd6fcfea	-0.05854789
118	0x3bf1021d	0.0073549883
119	0x3d96dc0e	0.07366191
120	0xbdad85f5	-0.08472816
121	0xbd4e3531	-0.050343696
122	0xbd27d04b	-0.040970128
123	0x3c50ece1	0.012751789
124	0x3d9c5ae8	0.076345265
125	0xbd21266e	-0.03934329
126	0xbda33f8c	-0.07971105
127	0x3c0baf93	0.008525747
128	0x3bcba5c9	0.0062148315
129	0x3ce92a7a	0.028462637
130	0x3c8f6c32	0.017507646
131	0x3d741880	0.059593678
132	0x3cff8dbe	0.031195518
133	0x3da927e9	0.082595654
134	0xbd917076	-0.07101528
135	0xbd7e2a1d	-0.06205188
136	0x3c94506a	0.01810475
137	0xbd892022	-0.06695582
138	0xbcde9a90	-0.02717331
139	0xbcefe114	-0.02928213
140	0x3d69999f	0.05703127
141	0xbd5ae8b6	-0.053444587
142	0x3da3c469	0.07996447
143	0x3d1e4fc6	0.038650297
144	0x3a9f4e11	0.0012154003
145	0x3d01be4a	0.031675614
146	0xbbfd48bf	-0.0077296193
147	0x3d466bc8	0.048442632
148	0x3d88314d	0.066500284
149	0xbd4838c0	-0.048882246
150	0xbd910e78	-0.07082838
151	0x3d7294eb	0.05922405
152	0xbdb2a686	-0.08723168
153	0xbd913a3c	-0.070911855
154	0x3d814616	0.06312196
155	0xbc6b1e6b	-0.014350514
156	0x3d701096	0.058609568
157	0xbd6360a3	-0.05551208
158	0xbdb73a39	-0.08946652
159	0x3d6f46e5	0.05841722
160	0x3d07de63	0.03317107
161	0x3d4b8457	0.049686756
162	0x3d172ad8	0.036906093
163	0x3d874566	0.066050336
164	0x3cdb795f	0.026791273
165	0xbb3e9e69	-0.002908612
166	0x3cc15d82	0.023604158
167	0x3d89e533	0.067331694
168	0x3d4632b5	0.0483882
169	0x3d77cd1c	0.060498342
170	0xbb64f3b2	-0.0034935293
171	0x3d8a8c3f	0.06765031
172	0xbcac6036	-0.02104197
173	0xbcac1396	-0.021005433
174	0x3da52df2	0.08065404
175	0x3d9583b0	0.07300508
176	0x3d8d9174	0.069125086
177	0xbd8c84d4	-0.068612725
178	0x3d0df19d	0.03465425
179	0x3ca4a8e3	0.020100063
180	0x3d3651f4	0.04451175
181	0xbcdf3435	-0.027246574
182	0x3c848abf	0.01617944
183	0xbd9409e6	-0.072284505
184	0x3c0436f0	0.008069739
185	0x3d638adf	0.05555236
186	0x3d9ebccc	0.07750854
187	0xbd213223	-0.039354455
188	0x3db4a1d6	0.0881993
189	0xbd34505e	-0.044021957
190	0xbd43b9c3	-0.047784578
191	0x3da4fa20	0.0805552
192	0x3d35aa58	0.044351906
193	0xbd0f7436	-0.035022937
194	0x3d0d5bd3	0.0345114
195	0xbd1e8bd5	-0.038707573
196	0x3cfbe60a	0.03074934
197	0x3d916536	0.070993826
198	0x3ca4041a	0.020021487
199	0x3d1b2397	0.037875738
200	0xbd8e2aab	-0.06941732
201	0x3da02676	0.07819836
202	0x3d981ffc	0.074279755
203	0x3da718f8	0.08159059
204	0xbc55edb9	-0.013057166
205	0x3d82a84e	0.06379758
206	0xbd9e1d39	-0.077204175
207	0x39c7ea88	0.00038130977
208	0xbd86bd3a	-0.06579061
209	0x3db9ad59	0.090662666
210	0x3d545e5a	0.051847793
211	0xbbbef41e	-0.005827441
212	0x3d2ae524	0.04172243
213	0x3dafaecd	0.085782625
214	0xbb29bd10	-0.0025900044
215	0x3d7e18cd	0.06203537
216	0xbd71b07f	-0.05900621
217	0xbcf4193b	-0.029797187
218	0xbdb2dedd	-0.08733914
219	0xbd7c3256	-0.06157144
220	0x3d75f625	0.060049195
221	0xbbf2f7d5	-0.007414798
222	0x3d07f397	0.03319129
223	0x3daeb0f3	0.08529844
224	0x3c9389d3	0.018010056
225	0xbd8b3a83	-0.067982696
226	0x3ce53956	0.027981441
227	0xbd8c1b2f	-0.06841122
228	0x3dbe5d55	0.092951454
229	0x3d9b0427	0.07569151
230	0xbd4b795a	-0.049676277
231	0xbd22182f	-0.039573845
232	0xbccf29af	-0.025288431
233	0xbd838884	-0.06422523
234	0x3a10dffa	0.0005526539
235	0xbd198235	-0.03747769
236	0xbce031b6	-0.027367454
237	0x3d107476	0.035267316
238	0x3cc88f8f	0.024482517
239	0x3c23e81d	0.010004071
240	0x3c79f121	0.0152552435
241	0x3cd81a2b	0.026379665
242	0x3cd418d5	0.025890747
243	0x3d46bac1	0.048517946
244	0xbcf9b4f9	-0.030481802
245	0x3d9f492e	0.0777763
246	0x3d8480f7	0.064699106
247	0x3bece3ef	0.0072293202
248	0x3c902d2d	0.017599666
249	0x3d9bd3f9	0.0760879
250	0x3c186e15	0.009303589
251	0x3d9e0769	0.07716257
252	0x3c641ab6	0.013922384
253	0x3d1a1a61	0.037622813
254	0x3d72fef3	0.05932517
255	0xbc995686	-0.018718015

ConvNet.fc2.bias f4 [84]
0	0xbda37d66	-0.07982902
1	0x3d589d2a	0.05288426
2	0xbda90dd3	-0.0825459
3	0x3db34d5a	0.08754988
4	0x3d91aca2	0.07113005
5	0xbd8e9915	-0.06962792
6	0xbb258570	-0.0025256537
7	0x3d4dfc99	0.050289724
8	0x3db774b4	0.08957806
9	0x3ca95f90	0.02067545
10	0x3c884e20	0.016638815
11	0xbc973bab	-0.01846107
12	0x3ca200e4	0.019775815
13	0x3d713b5e	0.058894508
14	0xbc6c8023	-0.014434847
15	0xbd4b1832	-0.04958362
16	0x3bd805e8	0.006592501
17	0xbd8c150e	-0.06839953
18	0x3d52ba8b	0.051447432
19	0xbd96174c	-0.07328662
20	0x3c5b287e	0.013376353
21	0xbbdd0190	-0.006744571
22	0x3b8f1b5e	0.004367276
23	0xbb748b63	-0.0037314526
24	0xbd988e8f	-0.07449066
25	0x3d7ef14d	0.06224184
26	0x3d337c4e	0.043819718
27	0xbd27cdfb	-0.040967923
28	0x3c1cd69a	0.009572649
29	0xbb81cc9f	-0.0039611603
30	0x3d1773ad	0.03697555
31	0xbaa5e40c	-0.0012656464
32	0x3d29b46e	0.041431837
33	0x3d3a92af	0.045550045
34	0x3da2bf71	0.07946671
35	0xbda7e14b	-0.08197268
36	0xbd84dc68	-0.06487352
37	0x3d8ec192	0.06970514
38	0xbd99df54	-0.075132996
39	0x3d89689c	0.06709406
40	0x3c996016	0.018722575
41	0x3db67dec	0.089107364
42	0x3d9e91ff	0.0774269
43	0xbc00dca7	-0.007865108
44	0xbce80ad1	-0.02832547
45	0x3d9758f0	0.0739001
46	0xbce45107	-0.027870668
47	0xbd75ca0f	-0.06000715
48	0xbcbe7107	-0.023247255
49	0xbc42756c	-0.011868816
50	0xbd6727a9	-0.056434307
51	0x3d8a22cb	0.067449175
52	0xbd002bf8	-0.031291932
53	0xbd20e0ff	-0.039277073
54	0x3d483bb6	0.04888507
55	0xbd2b7cc1	-0.04186702
56	0xbbdc3a8b	-0.006720846
57	0x3d5d721e	0.05406391
58	0x3db54587	0.08851152
59	0xbdb51f4b	-0.08843859
60	0x3db12b9f	0.08650898
61	0x3d7c3e56	0.061582886
62	0x3d90c2ad	0.070683815
63	0xbd8ff8cb	-0.07029875
64	0x3d9964d6	0.07489936
65	0x3d96c1ab	0.07361158
66	0x3c817e80	0.01580739
67	0xbd297753	-0.041373562
68	0x3cec7fac	0.028869472
69	0xbdae562f	-0.08512532
70	0x3cb8ee55	0.022574583
71	0xbd1e6959	-0.038674686
72	0x3d96c8f0	0.073625445
73	0x3d884f3d	0.066557385
74	0x3da27f9f	0.07934498
75	0x3db360f5	0.087587275
76	0xbd7752ac	-0.060381576
77	0x3d7ac0c5	0.061218996
78	0x3cad7956	0.021176022
79	0xbd1b9f9a	-0.037994005
80	0x3b9aa761	0.00471966
81	0xbdb9e1fd	-0.09076307
82	0x3ab334f7	0.0013672401
83	0x3d023447	0.031788137

Output.fc.weight f4 [1, 84]
0	0x3c5d6b92	0.013514416
1	0xbbcb0488	-0.0061956085
2	0x3d60292f	0.054726776
3	0xbdcfadbc	-0.10140559
4	0x3c8a8e3a	0.016913522
5	0x3d828304	0.063726455
6	0xbd47431f	-0.048647996
7	0x3dae77e0	0.08518958
8	0x3cf82071	0.030288907
9	0xbd6bc6a8	-0.0575625
10	0x3d7626ea	0.060095705
11	0xbd78a065	-0.06069984
12	0xbd16f943	-0.03685881
13	0xbd98d7d6	-0.074630424
14	0x3ab2412b	0.0013599744
15	0x3dad287a	0.08454986
16	0x3d4989f6	0.049203835
17	0xbd6a5846	-0.05721309
18	0xbc148cf5	-0.00906681
19	0x391f3b1a	0.00015185439
20	0x3cbb87c9	0.022891896
21	0xbc0f5f45	-0.008750741
22	0xbda48dd6	-0.080348656
23	0x3da572e8	0.08078557
24	0x3ce0401c	0.02737432
25	0x3ddb7a57	0.10716694
26	0xbcf9b3ef	-0.030481307
27	0x3c830836	0.015995126
28	0x3c6d6197	0.014488599
29	0xbcb6c0c7	-0.02230872
30	0xbd8913b0	-0.06693208
31	0x3cec3e37	0.02883826
32	0x3d0ac0e9	0.03387538
33	0x3d9d02af	0.076665275
34	0xbdd3c846	-0.103409335
35	0xbd61e100	-0.055146217
36	0x3dab83f1	0.08374775
37	0x3d0fff13	0.035155367
38	0xbdb65bb4	-0.0890421
39	0xbd3de2bf	-0.04635882
40	0x3d87fada	0.06639643
41	0xbdabace6	-0.08382587
42	0x3d6e5758	0.058188766
43	0x3dcbd222	0.09952189
44	0xbd430202	-0.047609337
45	0xbd504d29	-0.050854836
46	0xbdac23f1	-0.08405293
47	0xbddac2d2	-0.1068169
48	0x3dabfb16	0.083975
49	0x3c34fd44	0.011046711
50	0x3db6c30b	0.0892392
51	0x3dd96f3e	0.10616921
52	0xbcd93105	-0.026512632
53	0xbcdd053c	-0.026980035
54	0xbdd0e132	-0.101992026
55	0x3dc52996	0.096270725
56	0x3db04225	0.08606366
57	0x3dcebd7d	0.10094736
58	0xbd17bece	-0.0370472
59	0xbdc78e4a	-0.09743936
60	0x3d36a565	0.044591326
61	0xbd173024	-0.036911145
62	0xbd9df231	-0.0771221
63	0x3d1c64cb	0.03818206
64	0xbdabc53d	-0.083872296
65	0x3c84c007	0.016204847
66	0x3dc91638	0.09818691
67	0xbc89dc07	-0.01682855
68	0xbc0a94d0	-0.008458331
69	0xbcd81f02	-0.026381973
70	0x3d66f18b	0.056382697
71	0x3cb26ce6	0.021780442
72	0x3da17cf5	0.07885162
73	0xbc8d5b33	-0.017255401
74	0x3d98989f	0.07450985
75	0x3c38e20e	0.011284364
76	0xbdca7a75	-0.09886638
77	0x3d2ea6d5	0.042639572
78	0xbdda6fbb	-0.10665842
79	0x3bf9ced2	0.007623532
80	0x3d932cb7	0.07186263
81	0xbd5af4ef	-0.053456243
82	0x3d5eda4c	0.054407403
83	0xbdb818ae	-0.08989082
