tutorials/W1D2_ComparingTasks/RR/models/ConvNet_classification_100_epoch_6.pth (torch, 251122 bytes, 10 tensors)

ConvNet.conv1.weight f4 [6, 1, 5, 5]
000000 69 2c 27 3e 0c d0 62 bd 89 65 d9 bb aa 3f 50 3e
       0.16325535 -0.05537419 -0.0066344184 0.20336786
000010 f9 a1 a5 bd 43 0f 65 3d d4 50 65 3d f5 8b 4f 3e
       -0.080875345 0.055922758 0.055985287 0.20268233
000020 2a 4a 25 bc 97 7b 2a 3e b7 a3 67 3d 0f 06 0e 3d
       -0.010088483 0.16648708 0.056552615 0.034673747
000030 67 3f be 3d 42 94 16 be 31 07 49 3e 5f e0 3e be
       0.09289437 -0.14704993 0.1963165 -0.18640278
000040 4a 5d 9d 3b f1 9a 34 bd cb f0 66 bd 63 04 e5 3d
       0.0048023807 -0.044093076 -0.05638198 0.11182477
000050 10 d3 14 be 30 51 03 be f3 ac 81 3d 1d 57 2a 3e
       -0.14533639 -0.1282394 0.063318156 0.16634794
000060 76 32 d7 3d 0d d4 26 3e 10 4a 52 3d 45 77 4c bd
       0.105076715 0.16291828 0.051340163 -0.04991843
000070 63 98 22 bd fe f0 12 be af 83 dd 3d 8e b8 91 3c
       -0.03969611 -0.14349744 0.10816132 0.017788198
000080 6c 6f ec 3d 54 e4 0e be d6 83 d8 3d e5 e4 07 3d
       0.115446895 -0.13954288 0.10572021 0.033177275
000090 6a 3b 2f bd 32 d3 22 be 32 af 19 be 5a 7e 9b 3d
       -0.04278127 -0.15900877 -0.15008238 0.07592459
0000a0 f4 1e 3d 3e b2 70 30 be b7 98 0c 3d 4d 62 a2 3d
       0.18468839 -0.1723049 0.034325328 0.07928906
0000b0 33 1c 93 bc 90 2c c1 3d df 5b 53 3e e3 5d 84 3c
       -0.017957782 0.09432328 0.20640515 0.01615805
0000c0 45 d2 b2 bc 92 c1 28 be 76 5a d2 bd da b8 22 be
       -0.02182878 -0.16480091 -0.1027116 -0.15890828
0000d0 89 bc 2e 3e aa d9 9f 3d 50 65 6f bd 54 ee 5a b9
       0.17064108 0.07805188 -0.05844623 -0.00020878884
0000e0 75 68 3b 3e 57 56 41 3e 25 de 00 3b 2c 48 a0 3c
       0.18301566 0.18880592 0.0019663658 0.019565664
0000f0 e6 da 4e 3e 01 44 d2 bd e7 62 e5 bd 8e 48 f4 3d
       0.2020069 -0.10266877 -0.11200505 0.11927901
000100 57 b7 18 bd 2b 59 27 3e f1 65 39 bb f6 ea 28 be
       -0.03728422 0.16342609 -0.0028289522 -0.1649588
000110 bb 03 db 3d ae 81 50 3e c1 68 0e be dd 18 e3 3d
       0.10694071 0.20361969 -0.13907148 0.11088727
000120 5d 7a d0 bd b0 48 5e bc 05 59 53 3e 78 14 e8 3d
       -0.10179589 -0.013567135 0.20639427 0.11332029
000130 d3 cd 7a bd 85 f6 cc bd a2 5f 20 3e ab 10 c5 bd
       -0.061231446 -0.10007957 0.15661481 -0.0962232
000140 a8 b9 44 3e 94 15 1e 3d fc 0c 35 be 52 88 29 3e
       0.19211447 0.038594797 -0.17680734 0.16555908
000150 f5 78 15 be df c2 f1 3d 36 d9 12 3e e8 cf 1e 3e
       -0.14596923 0.11804747 0.14340672 0.15508997
000160 51 6c 03 3e 98 b0 03 be 39 d1 eb 3d 78 bb 20 be
       0.12834288 -0.12860334 0.115145154 -0.15696514
000170 72 6f 54 3e d4 5e a6 bd 72 df 50 3e 2d 51 96 3d
       0.20745638 -0.08123556 0.20397738 0.07339702
000180 4d c9 92 3b ca 8b 87 3d d8 49 85 3d 27 dd 95 3d
       0.0044795633 0.066184595 0.06508225 0.07317572
000190 08 ed f7 bd d8 85 35 be 4c 21 8c 3d 21 c0 e8 bd
       -0.12105757 -0.17726839 0.068422884 -0.11364771
0001a0 3b 38 06 bd a2 50 13 bc 2c 96 fb 3d e1 8e 08 3e
       -0.03276847 -0.008991392 0.122845024 0.13335754
0001b0 95 9c 04 be 39 1a 10 be 0b fd a9 bd b3 14 a1 bd
       -0.12950356 -0.14072503 -0.08300217 -0.07865276
0001c0 eb cc 50 3d ef f7 24 3e 34 71 54 bd 41 3e d3 bd
       0.050976675 0.16110204 -0.05186577 -0.10314608
0001d0 75 fc 2d bd 4f d9 c9 bd 4c b0 34 be 52 4a e4 bd
       -0.04247709 -0.098559014 -0.17645377 -0.11146988
0001e0 15 20 6c bc 1f 9a 39 be 61 e7 c2 bb 6c 1b 41 3e
       -0.014411946 -0.18125199 -0.0059479927 0.18858117
0001f0 e5 86 43 be c1 0f 4e be 0d e4 a9 bd c7 70 9c 3d
       -0.19094427 -0.20123197 -0.0829545 0.07638698
000200 a0 47 9e bd b5 6e 1b be bc ab 23 be dc 77 e4 bd
       -0.07728505 -0.1517895 -0.1598348 -0.11155674
000210 0e b7 96 3c 22 ba 4c 3d 10 b1 25 be 00 2d 2c 3e
       0.018397834 0.049982198 -0.16180825 0.16814041
000220 e1 7a a1 3b 93 3d 8b 3d d7 65 6e bd 29 29 2d be
       0.0049279784 0.06798854 -0.05820259 -0.16910233
000230 14 50 e8 bd 67 ca 8d bd d2 f1 9d bd ca 7a 19 be
       -0.11343399 -0.06923371 -0.07712139 -0.14988247
000240 c4 9f 08 be 05 7d 37 be 7f a9 3d be f7 62 37 be
       -0.13342196 -0.17918785 -0.18521689 -0.17908846
000250 aa 2a 81 ba 26 b7 f8 3d
       -0.0009854634 0.12144308

ConvNet.conv1.bias f4 [6]
000000 20 42 19 bc 3b 4c ee bd 0c ed 07 3e d8 3f e1 bd
       -0.009354144 -0.116356336 0.1327402 -0.10998505
000010 20 1b 91 3c 51 3f f8 3d
       0.01771313 0.12121452

ConvNet.conv2.weight f4 [16, 6, 5, 5]
000000 9d 30 83 3d 9c e2 d2 3c 90 c1 75 ba a0 94 33 bd
       0.064057566 0.025742821 -0.00093748514 -0.04384291
000010 8a d0 6a bd 5d dc a0 3d fd f4 5b bd 0c 23 aa bd
       -0.057327785 0.07854531 -0.053700436 -0.08307466
000020 a3 55 56 3d 87 3b 46 3d 0b 63 f7 3c 7f 0a 1c bd
       0.052327763 0.048396613 0.030198595 -0.038095947
000030 6c 1a 96 3d 79 b2 b9 bc 5d 9f 36 bd 36 b0 88 3d
       0.07329258 -0.02266811 -0.044585574 0.066742346
000040 8b 84 a5 3d 64 f6 49 3d dc 9f 9d 3c 30 21 95 3d
       0.08081921 0.049307242 0.019241266 0.07281721
000050 44 7f b3 bc 9e 02 b7 3c 51 8a a1 3d 17 19 9a bc
       -0.02191127 0.022340115 0.0788771 -0.018810792
000060 07 6e 8a bd e5 ce 0e bd 24 18 ac 3d ca cb 6d bd
       -0.06759267 -0.03486528 0.08403042 -0.058055677
000070 75 a7 92 bd cf 6c 93 bc 82 46 86 3d 02 3e 99 3d
       -0.07160846 -0.01799622 0.06556417 0.0748253
000080 ee d7 f7 3c 17 0f 83 3c ca 7c a8 3d 92 54 e2 3b
       0.03025433 0.015998406 0.082269266 0.006907054
000090 59 c6 7b 3d a9 2a 62 bd 6f 63 8e 3d 85 c3 6c ba
       0.061468456 -0.055216465 0.06952559 -0.000903182
0000a0 84 2a 12 bd 2f 47 9f bc 4b a8 8a bd 93 a4 64 bd
       -0.035685077 -0.019443123 -0.067703806 -0.055821013
0000b0 37 2f 48 bb 05 2a b3 3d 50 b0 7d bd 12 23 78 bc
       -0.003054572 0.08748249 -0.061935723 -0.01514508
0000c0 47 92 15 bd 90 9a 07 bd 39 d9 23 bd a6 5a 74 3d
       -0.036516454 -0.033106387 -0.04000208 0.05965676
0000d0 91 e3 7a bd b8 0d fc bc e0 f5 43 3d 0a bf 3a 3c
       -0.06125218 -0.03076826 0.047841907 0.011398086
0000e0 a9 34 88 3d e4 ab 6f bd 9c b1 d6 bb 12 67 0a bc
       0.06650669 -0.058513537 -0.0065519344 -0.008447425
0000f0 fa d3 f3 bc 4a cf 38 bd cb dd 0d bd d2 17 c4 3c
       -0.029764164 -0.04511956 -0.034635346 0.02393714
000100 af 17 ea bc 4e 29 84 3d 85 c4 88 bd 63 84 00 ba
       -0.028575746 0.06453191 -0.06678108 -0.00049025397
000110 3e f5 03 3d 4c 8d 8b 3d 72 35 80 bd 4f fe 8d bb
       0.032216303 0.068140596 -0.06260194 -0.0043332945
000120 2b ce df 3c f8 2a 73 3d 0c 0e 7a 3c 83 7f 82 bd
       0.027319988 0.05936715 0.015262138 -0.06371977
000130 20 64 d3 bc e8 fa a8 bd 95 c4 3d 3d b6 dd 9d bd
       -0.02580458 -0.082509816 0.046330053 -0.07708304
000140 c4 16 23 bd 9f 0a d4 3c 1f 8d 67 3c 89 98 8c 3c
       -0.039816633 0.02588397 0.014132767 0.017162578
000150 f4 8e c2 39 b0 99 1c 3d f4 63 88 3c 3a fb 47 bd
       0.00037109072 0.038232505 0.016649224 -0.048823573
000160 bb 1b b5 3d e2 3f 6f 3d 06 0e f1 bb 84 48 86 bd
       0.0884318 0.058410533 -0.007356408 -0.065568
000170 e0 ac 94 bd 71 30 04 3c 63 3c 95 3d 3a a5 c5 3c
       -0.07259536 0.00806819 0.072869085 0.024126638
000180 b1 5e 9f bd 5d 69 8b 3c 9a 86 86 bd c1 d5 89 bd
       -0.07781733 0.017018015 -0.06568642 -0.067302234
000190 56 58 16 bd 35 f5 0c bd da bd b8 3d 93 f5 e5 3b
       -0.036705337 -0.034413535 0.09020586 0.0070178
0001a0 22 43 4e 3d fd 0a 80 bd c3 36 4c bd 89 e8 96 3d
       0.05035699 -0.06252096 -0.049856912 0.07368571
0001b0 2b a8 06 3d 3d f5 b5 3d 16 28 f4 3c 91 5b 79 bd
       0.03287522 0.08884666 0.02980427 -0.06087834
0001c0 a3 3a 5a bd fe 7d 9e bd d1 de a6 bd 97 02 23 bc
       -0.053278577 -0.07738875 -0.081479676 -0.009949348
0001d0 32 8b 66 3a 7e b2 e1 bb fc f0 91 3c 78 7d 4d bc
       0.00087945454 -0.006887733 0.017815106 -0.012542121
0001e0 1c 0f 63 3c fb 52 30 3d cf 8a c8 3c af 48 3d bd
       0.013858583 0.043047886 0.024480252 -0.046211895
0001f0 76 01 6e 3b aa c4 b3 3c de 94 95 3c 40 e8 1e bb
       0.0036316789 0.021944363 0.018259462 -0.0024247319
000200 f9 ce 5e bd f8 85 d5 bc 08 56 5c 3d 2e 52 9a 3d
       -0.054396603 -0.026064858 0.053792983 0.07535206
000210 c0 d5 58 bd 0a 29 13 3d 05 cb 8c 3d a0 6c 88 bd
       -0.052938223 0.03592781 0.068746604 -0.066613436
000220 10 fb 8e bc a8 b3 8b bd c2 84 62 3d 35 70 c2 3c
       -0.0174537 -0.06821376 0.05530239 0.023735145
000230 89 71 cc bc c3 17 66 bd 94 8d 9a bd e6 82 c1 3c
       -0.024956482 -0.056175005 -0.07546535 0.023621988
000240 53 f6 ea bc 6f 61 99 bd 41 22 d2 3c 17 6a c5 bc
       -0.02868191 -0.07489287 0.0256511 -0.02409844
000250 3e a7 37 bd 08 db b0 3d 01 08 bf 3d 50 26 ca 3b
       -0.04483723 0.08635527 0.093276985 0.006169118
000260 db 22 88 3d fa 44 76 3c 98 27 a6 3d d1 5e 82 3d
       0.06647273 0.015031094 0.08113021 0.06365741
000270 6a 3f 42 3d 9c 96 16 bd 5a 6f 95 bd 04 bf 12 bc
       0.047423758 -0.036764726 -0.07296629 -0.0089566745
000280 06 6d 65 bb 48 f2 7a 3d c4 88 e4 3c 24 4f 55 bd
       -0.003500761 0.061266214 0.027897246 -0.052077428
000290 db 3c d6 3b 78 1e 4e 3c 7b fe 5c bd fb 5e 89 3d
       0.0065380163 0.0125805065 -0.05395363 0.06707569
0002a0 39 a6 49 3d 6c 84 79 bd c9 bb b7 3d 05 a6 4f bd
       0.049230788 -0.060917303 0.08971364 -0.050695438
0002b0 b2 01 87 bd d4 f8 1a 3d ed 2e 58 3d 55 8c a7 bc
       -0.0659212 0.037834957 0.052779127 -0.020452658
0002c0 2a da e4 bc 08 e7 8d 3b e0 82 6d bd cc 45 ad bc
       -0.02793606 0.0043305196 -0.05798614 -0.021151446
0002d0 9f 9f 11 bd 2c d2 2f 3d 54 22 b2 3c 53 8d 96 3d
       -0.035552617 0.042925045 0.021744885 0.07351174
0002e0 4f 5f 85 bd 52 7c 4f bd 59 11 57 bd 38 f1 1c 3d
       -0.06512319 -0.05065567 -0.05250678 0.03831598
0002f0 a0 ba 72 bd 70 16 7c 3c a6 5f 03 3d 4c 80 46 3d
       -0.05926001 0.015386209 0.03207364 0.048462197
000300 ac f0 20 3d 4b 5a a6 bd b6 48 8b 3c 54 f0 0d 3d
       0.039292023 -0.08122691 0.017002445 0.034653023
000310 a0 ed 2e 3d f8 f8 a1 3d 35 97 b1 3a e6 e2 69 bd
       0.042707086 0.07908815 0.0013549092 -0.057101153
000320 a9 ea e1 3c 5f 05 a2 3d 9c 73 47 3d e2 9f d6 3a
       0.027577715 0.07911181 0.048694238 0.0016374553
000330 45 ee ef bb 1c 1a 2e 3d e3 f7 40 bd e2 1b bb 3d
       -0.007322105 0.04250537 -0.047111403 0.091361776
000340 5c e3 95 3d be 72 3a 3d 34 cb 83 3d 64 fe 80 3d
       0.07318756 0.045519583 0.06435242 0.06298521
000350 64 10 1a bd d2 ba 32 bd ae 4d 19 bb 34 39 d8 bb
       -0.037613288 -0.043635197 -0.0023392248 -0.006598616
000360 62 5d 95 3c 15 2b c1 3d 97 30 d0 3b f7 d9 6f 3d
       0.018233005 0.09432045 0.0063534486 0.058557477
000370 13 fd a9 3d c2 c8 51 3d 68 c9 42 3d fa 6c 5c bd
       0.08300223 0.05121685 0.047555357 -0.053814866
000380 d7 1b 99 3d a6 33 ed 3c e4 6f 6e bd 0d 99 c2 3d
       0.07476013 0.028955292 -0.058212176 0.09501848
000390 4f 99 0b bd 1c 6d ee 3c e8 82 1e 3d 34 5f 84 3d
       -0.034081753 0.029104762 0.03869906 0.06463471
0003a0 77 2c 56 3d db 10 f8 3c 77 58 21 bd 41 45 ce ba
       0.0522885 0.030281475 -0.039391007 -0.0015737192
0003b0 f6 a6 ca 3d 94 87 67 bd 99 78 50 bb fc 97 1d 3d
       0.098951265 -0.05652578 -0.0031810163 0.03847502
0003c0 e8 1f 4e 3c d4 fc e9 bc ab cc a5 3d 77 c2 b6 3c
       0.012580849 -0.02856294 0.08095678 0.022309525
0003d0 db 29 1b 3d a9 40 c3 3d ee 56 27 3d 69 3d 40 3d
       0.037881713 0.09533817 0.040854387 0.046933565
0003e0 fc e8 0f bd 56 d7 94 3d 82 91 ab 3b 6c 3f bc 3b
       -0.0351343 0.072676346 0.0052358517 0.005744865
0003f0 c0 e2 11 3d 36 43 1a bd 17 b3 af 3c 65 58 dd bc
       0.035616636 -0.037661754 0.021447701 -0.027019689

ConvNet.conv2.bias f4 [16]
000000 8d 42 46 bc f1 18 44 bc f3 52 8f bd 94 80 be 3c
       -0.012100828 -0.011968837 -0.06998243 0.02325467
000010 f7 f6 9e 3d 64 0f cf bb 00 2d 3b bd 8a 40 0f 3d
       0.077619486 -0.0063189734 -0.045697212 0.03497366
000020 a4 f7 84 bd a5 e0 b3 3d a2 b8 45 ba 4f 3a 60 3d
       -0.06492546 0.08783082 -0.0007542466 0.054743107
000030 35 4e 30 3d fc 8a 8e 3c 2b 5c 22 bd 06 37 6a ba
       0.043043334 0.017400257 -0.03963868 -0.0008934591

ConvNet.fc1.weight f4 [120, 400]
000000 61 ba 6e 3c 01 d9 88 ba ff 86 16 ba dd a3 87 bb
       0.014570803 -0.0010440649 -0.0005742162 -0.004139407
000010 6f b1 3b 3c e6 f0 15 3d 7e 03 30 bd 4f 10 72 3d
       0.011455878 0.03660669 -0.04297208 0.059097584
000020 cc 5a 87 3c bb 48 27 3d a0 d9 22 bd 9d 04 46 bd
       0.016522788 0.040840846 -0.039758325 -0.048344243
000030 ef cf 52 bd 0a e2 86 3c 34 27 b9 bc b6 21 f8 3c
       -0.051467832 0.016465206 -0.022601701 0.030289512
000040 2d 7e 48 3d e8 40 16 3c a1 2c 37 3d 1d 1f f6 bc
       0.048948456 0.009170748 0.044720296 -0.030044133
000050 25 04 4d 3d 80 f0 91 3c 7a c8 47 bc 8d e8 d4 3c
       0.05005278 0.017814875 -0.012193793 0.025989795
000060 7e 41 c1 bc 5d 9c 07 bd 5f 2b 80 3c cf 40 93 bc
       -0.0235908 -0.033108104 0.015645681 -0.01797524
000070 b4 00 bf bc 65 50 12 3d da b6 c3 3c 8e e1 8f 3c
       -0.023315765 0.0357212 0.023890901 0.017563608
000080 bf 4f 6e 3c db 9c 3f 3d 0b 78 c0 3c 0a c1 0e 3d
       0.01454538 0.04678045 0.023494741 0.034852065
000090 51 af 13 bd af b4 77 bc a6 3a 0d 3d f9 2f ef 3c
       -0.036055867 -0.015118762 0.03447976 0.02919768
0000a0 82 cb 9c 3c 2c 16 ba bc 42 28 e8 3c 01 28 7e 3d
       0.019140009 -0.02271565 0.028339509 0.06204987
0000b0 5e 25 12 bd d2 ea b3 bc 91 39 b6 3c 0a 2c 78 3d
       -0.035680167 -0.021962557 0.022244247 0.060588874
0000c0 c4 d0 af 39 b8 76 0c bd da 3a 38 3d 63 00 86 3c
       0.00033534144 -0.034292907 0.044978 0.016357606
0000d0 f8 0b 01 bd ff c3 f1 bb 0e 45 7d 3b 8e 09 01 3c
       -0.031505555 -0.007378101 0.0038645896 0.007875813
0000e0 c8 95 d8 3c 3d 90 70 bc 84 2b 44 3c 9e b7 93 bc
       0.026438609 -0.014682827 0.011973266 -0.018031891
0000f0 29 b4 65 bc 15 7e 37 3d 26 57 c5 3c 48 83 a1 3c
       -0.014020004 0.044797976 0.024089407 0.01971592
000100 fe 28 85 3c e2 2a b0 3c d0 e4 a1 bc 35 6d 49 3d
       0.016254898 0.021504823 -0.019762427 0.049176414
000110 2c 30 48 bd 33 90 95 bb 2b 5e 98 bc 51 69 d7 3c
       -0.048874065 -0.004564309 -0.01859959 0.026295336
000120 82 24 ee 3c 6a b3 93 3c e7 03 1b bb 85 ef 10 bd
       0.029070143 0.018029887 -0.002365345 -0.035384674
000130 25 71 c6 3c 11 ac 7f 3c 88 3e e8 bc 0a 6e 75 bd
       0.024223873 0.015604989 -0.02835013 -0.059919395
000140 f4 b4 b7 bb d8 bf 5b 3d 8f be b2 bc bc 5d 08 bd
       -0.005606288 0.053649753 -0.021819381 -0.033292517
000150 af 73 0e 3a 03 93 16 3b d4 c0 0c 3d 8c 53 ff 3c
       0.00054341083 0.002297581 0.034363583 0.031167768
000160 d5 cc a9 3c 6f 91 d5 bc 20 a3 e8 3c 32 06 5a bc
       0.020727554 -0.026070325 0.028398097 -0.013307141
000170 60 e4 1f 3d 84 93 55 3d 6f 10 9f 3c 55 09 2c 3d
       0.039036155 0.052142635 0.019417016 0.042001087
000180 00 72 a0 37 e9 d9 97 bc 11 99 3d 3d f6 06 37 bd
       1.9126572e-05 -0.018536525 0.046288554 -0.044684373
000190 7a 7f ed 3b 87 92 fb 3a 24 47 5e bc d7 0e ed 3c
       0.0072478624 0.0019193449 -0.013566766 0.02893774
0001a0 6b 23 c0 bc 16 6e af 3a 16 57 57 3d 34 53 cf bc
       -0.023454389 0.0013384249 0.052573286 -0.025308229
0001b0 07 e4 c7 bc 7a 32 25 3d 44 6a 92 3c 61 52 9e bc
       -0.024400724 0.04033134 0.017872937 -0.01932639
0001c0 17 08 56 3d 61 48 d1 3c 1d fa c0 3c 55 a3 47 bd
       0.05225381 0.025547208 0.023556763 -0.04873975
0001d0 09 a1 ef 3c 5f bd 49 3b 05 99 0f 3d 61 4a cb bc
       0.029251592 0.003078304 0.03505804 -0.02481574
0001e0 81 89 3a bd 1e cb 1c bb 83 40 b6 3b 1b 8e 5f 3c
       -0.04554129 -0.0023924778 0.0055618896 0.01364472
0001f0 94 60 2d bc 0c 34 10 bd 37 65 3c 3d b0 8d e5 bc
       -0.010582108 -0.035205886 0.045994963 -0.028021663
000200 82 0d 21 bb 66 e9 16 3d 0a 15 ad 3c a5 bf ea 3c
       -0.0024574702 0.03684368 0.021128196 0.028655836
000210 1b bf 6d 3d 63 c7 fe 3b f7 be a1 3c 75 36 94 bc
       0.05804358 0.0077752336 0.01974438 -0.018092373
000220 fc 75 01 3d b7 59 3f 3d 9d 7d 4a 3d fc fc f1 bb
       0.03160666 0.046716418 0.0494362 -0.0073848944
000230 4a fa 04 3d 3c d5 0a bd f3 50 f7 3c d5 86 0b bd
       0.032465257 -0.033894762 0.030189967 -0.034064133
000240 3c 90 b5 bc 14 66 68 bc 21 f5 a5 3c 1d 05 6a 3d
       -0.022163503 -0.014184494 0.020258488 0.057133783
000250 1e e3 51 bc f3 09 a1 3c 33 c7 9e bc d5 ea c4 3c
       -0.012810497 0.019658064 -0.019382095 0.024037758
000260 4c 76 19 3d bb 9c 18 bc 07 60 e8 3c 52 64 24 3d
       0.037466332 -0.009314711 0.028366102 0.040134735
000270 7b 61 fb bb af 9a 8b 3b 30 d4 14 bd f6 50 b6 3c
       -0.0076715327 0.004260383 -0.03633517 0.022255402
000280 51 bf 52 3c a9 37 cf 3c a0 1c 80 3c f4 94 5f 3d
       0.012862996 0.025295096 0.01563865 0.054585412
000290 80 eb 23 3a e6 ee 22 bd eb b1 33 bd 24 e6 4f 3d
       0.0006253049 -0.039778613 -0.043870848 0.05075659
0002a0 a2 c7 93 bc 04 12 19 3d 4d ce d4 3c 57 63 4b bd
       -0.018039528 0.037370697 0.025977278 -0.049655285
0002b0 b1 16 62 3d 7c fa 15 3d 24 4e d1 3c d8 53 36 3c
       0.05519742 0.036615834 0.025549956 0.011128388
0002c0 42 d9 4a 3d e6 a6 f4 39 b7 b8 2a 3d 35 1a 0b 3d
       0.0495236 0.00046663656 0.041680064 0.03396054
0002d0 0a 06 54 ba 73 e6 5b 3d e3 37 f0 3b 0f be 8b bc
       -0.0008088058 0.05368657 0.007330881 -0.0170584
0002e0 eb d1 30 3d c5 d7 5a bb 0d 13 dd 3b 72 78 03 3c
       0.043168943 -0.0033392769 0.006746656 0.008024322
0002f0 90 89 1e bd 80 5a 0a 3d 4f 64 36 3d 1b b0 e5 bc
       -0.03870541 0.033777714 0.044529255 -0.028038075
000300 ee 12 3e bc 44 88 0a 3d db d1 a8 bb 95 59 05 3d
       -0.011601193 0.03382136 -0.00515197 0.032556135
000310 b7 d7 3c 3d 0d 14 e2 bc 61 06 bf bc 86 a2 32 3d
       0.04610416 -0.027597452 -0.023318471 0.043612026
000320 e8 7c 11 3d b8 ab e9 3c b5 ad 35 3d 4b 39 32 3d
       0.03551951 0.028524265 0.044355113 0.04351167
000330 a5 3d 12 bc 9c 10 41 bd 1f d8 d7 3c b3 56 58 3d
       -0.00892583 -0.04713498 0.026348172 0.052817058
000340 1d 42 41 3d 04 65 8a 3b 4c dd 99 bb 88 d4 c8 bc
       0.04718219 0.004223468 -0.00469557 -0.024515405
000350 a7 f7 a0 3c c5 de 51 bc a4 f2 2f bc 52 54 22 bd
       0.01964934 -0.01280946 -0.010739002 -0.039631195
000360 97 90 92 bc 73 be 1b bd 61 6d 51 3d ba 03 8f 3c
       -0.017891211 -0.038023423 0.051129702 0.017457832
000370 62 c3 d1 bc e5 c2 24 bb de 8a 84 bc 5c 71 88 bc
       -0.025605861 -0.002514058 -0.016179498 -0.016655616
000380 12 b3 e9 bc bc a4 f9 3c 93 f0 46 3c 50 95 d0 bc
       -0.02852777 0.03047406 0.012142318 -0.025461823
000390 cb a9 14 3c 8f 6f 52 3b 65 82 a1 bc 97 dd 0e bd
       0.009073685 0.003210995 -0.019715497 -0.034879293
0003a0 d6 f7 30 3d 40 c1 88 3c a3 77 9d b9 04 59 e3 3c
       0.043205105 0.016693711 -0.0003003451 0.027752407
0003b0 60 1a c5 bc 50 29 d5 3c bf 1c 48 bc 7b 7a bf bc
       -0.024060428 0.026020676 -0.012213885 -0.023373833
0003c0 8f 7a 32 3d 67 8b 9d 3c ee d1 d2 3c 71 51 b9 3b
       0.043573912 0.019231511 0.025734868 0.0056554605
0003d0 25 fa 28 bc 47 12 3f 3d 25 2b 03 bd 74 c4 6f bc
       -0.010313545 0.04664829 -0.032023568 -0.01463424
0003e0 df eb d0 3b 8c b3 08 bd 9a 85 e9 bc d0 17 bd bc
       0.0063757743 -0.033374354 -0.028506089 -0.023082644
0003f0 5d 03 dc bc 27 64 4c bc c3 bf 02 3d 5f a9 2e bc
       -0.026857072 -0.01247505 0.03192116 -0.010660498

ConvNet.fc1.bias f4 [120]
000000 94 c4 d1 bc d6 4e 01 3d be 17 ab 3b 1b 21 74 3c
       -0.025606431 0.031569324 0.005221336 0.014900471
000010 d4 e0 83 bb 78 f0 a2 ba 6a 01 70 bb 54 24 9a bc
       -0.0040246043 -0.0012431284 -0.0036621937 -0.01881615
000020 ef 9e 18 bc 4b 5d e3 3c 6a c1 70 b9 6d bb 9a 3c
       -0.0093152365 0.027754446 -0.00022960236 0.0188882
000030 bf ce cf bc 67 4c b9 ba 7a 83 56 bd 09 c2 98 ba
       -0.025367139 -0.001413715 -0.05237148 -0.0011654507
000040 ea c5 1e 3d d6 ef bd 3c ba 3e ef 3c fe 85 3d 3d
       0.038762964 0.023185652 0.029204715 0.046270363
000050 40 13 33 bc 22 ef 15 bd 95 48 1e bd 85 ed 3a 3c
       -0.0109298825 -0.036605008 -0.03864344 0.011409168
000060 f2 33 22 3c 0f be 0c 3d d2 58 dc 3c 1f a6 79 bb
       0.00990008 0.03436094 0.026897822 -0.00380934
000070 d5 1c 96 3c da 3d 37 bb 03 fa 3c 3d 22 75 08 3d
       0.018324295 -0.002796045 0.046136867 0.03331483
000080 f9 88 0f bd e7 3e dd 3b 51 2d 36 3d 38 f3 45 3d
       -0.035042737 0.0067518833 0.04447681 0.048327655
000090 5b 69 30 bb 14 42 42 3b 31 59 31 bd d3 2b 4c 3c
       -0.0026918266 0.0029641436 -0.04329795 0.01246162
0000a0 2d 63 51 3d 21 aa 28 bd e1 a9 e9 3c f1 43 89 bc
       0.051119972 -0.041177873 0.028523387 -0.01675603
0000b0 b2 2b 18 3d 2e 0e 60 3c 01 14 2f 3d fe 89 c0 b8
       0.037151046 0.013675256 0.042743687 -9.1809765e-05
0000c0 80 b9 a1 bc 38 cb 4f bd 0a 97 a5 bc a7 07 26 bd
       -0.019741774 -0.050730914 -0.020213623 -0.04053464
0000d0 6a 48 3e bc 12 54 30 bd 52 43 22 3c 6c 18 08 3d
       -0.011613945 -0.043048926 0.009903746 0.033226416
0000e0 97 56 bb bc f2 19 3c bd 57 e9 24 bc 87 99 97 3c
       -0.022868438 -0.04592318 -0.010065398 0.018505825
0000f0 9a fe 4a bd 83 97 11 bc 5b 87 29 bd 42 b0 be ba
       -0.049559213 -0.008886221 -0.04138885 -0.0014548379
000100 24 9f 00 3b 68 b3 ed 3b 2d 09 52 bb a5 0f 4a 3b
       0.0019626105 0.007254053 -0.0032048926 0.0030832079
000110 72 6f 1e bd 9a 5e 13 3d ee d7 12 3c 39 68 00 3a
       -0.0386805 0.03597889 0.008962614 0.0004898343
000120 fa 0b d7 3c 20 6c 05 3d a1 b7 c6 3a e6 c0 74 3d
       0.026250828 0.03257382 0.0015160927 0.059754275
000130 49 a2 50 3d 56 cd 04 bc bd 7b da bb 1b 72 19 3c
       0.050936017 -0.0081055965 -0.006667583 0.009365584
000140 c9 08 96 bc fe 57 3d 3d dc ff 8d bb c7 22 4e 3d
       -0.018314736 0.046226494 -0.0043334793 0.050326135
000150 55 59 4f 3d 9d bf 59 3d be db 1f 3d b3 3e 2e bd
       0.050622303 0.053161252 0.03902792 -0.042540263
000160 e5 b0 04 3d 47 14 1d bd a0 a1 40 bd 2d 8f 8b 3b
       0.032395262 -0.038349416 -0.047029138 0.0042590112
000170 cb 5f 54 3d 3a b5 ff bc 95 65 3a 3d 3f 04 73 bc
       0.051849168 -0.031214345 0.045507032 -0.014832555
000180 b3 a3 99 3b ee de c7 3c a3 65 bf bb 00 48 a9 bb
       0.004688704 0.024398293 -0.0058409735 -0.005166054
000190 85 4d 26 3d 87 ac 9d bc 5c ba 49 bc ed 6c 0c 3d
       0.040601272 -0.019247307 -0.012312498 0.034283567
0001a0 bd d5 4a bd 5b e8 18 3c 11 a6 24 3c e3 98 6c bc
       -0.049520243 0.009332742 0.010049359 -0.014440748
0001b0 0a 6f 39 bd 13 3e fa 3c 38 79 0c 3c f6 d0 52 bb
       -0.04527191 0.030547177 0.008573823 -0.0032168007
0001c0 a9 23 48 3c 1b ae 18 3d 86 bb 91 bc 12 1b 26 bc
       0.012215533 0.037275415 -0.017789613 -0.01013829
0001d0 09 53 93 bc 53 4b f0 bc f2 f5 42 bb 2c 85 9a bc
       -0.01798393 -0.029332792 -0.0029748646 -0.01886233

ConvNet.fc2.weight f4 [84, 120]
000000 7d 0f be 3d 8e d7 78 bc 92 2e e6 3c 6c ac 94 bd
       0.09280298 -0.015188111 0.028098378 -0.07259449
000010 43 e1 d8 b9 1f 1c b0 3c 3d 72 ce 3c 83 b3 22 bc
       -0.00041366564 0.021497784 0.025200957 -0.009930494
000020 38 e6 22 3d 7b 65 79 3d eb fc 80 bd 0f 01 9a bd
       0.039770335 0.060887795 -0.0629824 -0.07519733
000030 be 64 20 3d a1 0d 63 3d ae c4 a4 bd 64 51 4b 3c
       0.039158575 0.05543292 -0.08045326 0.012409542
000040 d3 03 53 bd 3a 9a 7e 3d a5 f8 7d bd 6a a2 97 3d
       -0.05151732 0.0621588 -0.062004704 0.07404025
000050 2b 5c 37 3d d6 45 1e 3d 76 86 b6 3d 0e fa 4c 3c
       0.044765633 0.03864082 0.08912365 0.01251079
000060 cc d6 6f 3d 38 a4 20 bd a0 65 73 bd 08 17 b0 3d
       0.058554456 -0.03921911 -0.05942309 0.08598143
000070 fe eb 12 3d 69 cc 53 bd e7 fb e0 3c c4 0c ba 3c
       0.03586959 -0.051708613 0.027463866 0.022711165
000080 77 a7 41 3d b6 3f 12 bd 82 c5 6e bc bc 39 84 bd
       0.047278848 -0.03570529 -0.014573457 -0.064563245
000090 af a5 a9 bd 8d de 64 bd c7 8a 13 3d e9 8f 4d bd
       -0.08283555 -0.055876303 0.03602102 -0.05018607
0000a0 cd 0f 2a 3d 92 82 21 bd a3 24 65 bd 60 72 68 bc
       0.041518975 -0.039431162 -0.055943143 -0.014187425
0000b0 72 7f 80 bd da c4 ad 3d 22 32 b7 bc 37 e7 33 3d
       -0.06274308 0.08484812 -0.022362772 0.043921676
0000c0 00 bf 0e 3c 93 09 8a bd f4 32 a3 bd 7a 32 52 bd
       0.00871253 -0.067401074 -0.07968703 -0.05131767
0000d0 27 1e b7 bc 28 08 6f 3c 90 c9 9b bd 45 94 b4 bd
       -0.022353245 0.014589347 -0.07606804 -0.08817343
0000e0 3f ab ba bc a0 58 8e bd 45 f9 c9 bc 20 5a a4 3d
       -0.022786735 -0.069504976 -0.024654994 0.080250025
0000f0 24 f1 b5 bb 47 a5 c1 3b cd 66 88 3d 94 b7 27 bb
       -0.005552428 0.005909595 0.06660233 -0.0025591599
000100 de f1 06 3c 9d 61 79 3c 3a b4 11 bc d6 cc 34 bc
       0.008236377 0.015221027 -0.008893067 -0.011035165
000110 43 13 48 bc c5 4f 19 bd f5 fb b0 3d 45 7d 8b bd
       -0.012211624 -0.03742959 0.08641807 -0.06811003
000120 0f c1 a1 3c a2 7c 11 3d e5 86 52 bd 2d f0 b2 3d
       0.019745378 0.03551925 -0.051398177 0.08737216
000130 b5 66 4d bd fd 26 90 3d f0 09 3c 3d 82 7c 3f 3c
       -0.050146777 0.070386864 0.045907915 0.0116874
000140 2f 4d 94 3d 74 30 08 3c e1 da 83 bc 1c 59 0c 3d
       0.07241284 0.008312333 -0.01609558 0.03426467
000150 63 69 5b bd 40 4e 4b 3d e0 64 ae 3d b8 86 c8 3c
       -0.0535673 0.049635172 0.08515334 0.024478301
000160 6e 9c 9f bd 13 95 51 3d c1 eb 99 3d 3c 1d e2 bb
       -0.077935085 0.05116756 0.075156696 -0.0069004577
000170 0c 7a 96 bc 64 8b 8b bd 87 3b 80 bc c1 14 d0 bc
       -0.018368743 -0.06813696 -0.015653385 -0.025400521
000180 11 33 19 3d 73 fe a1 bd 7a 55 a1 3c 83 84 94 3d
       0.037402216 -0.079098605 0.019694079 0.07251837
000190 f0 ce 24 3d 22 3c 3b bc c4 30 90 3d 30 7e fb 3c
       0.040236413 -0.011427911 0.07040551 0.03069982
0001a0 b9 a0 42 3c 1f 44 a3 3d 1c f0 0c 3d ed 18 73 3d
       0.01187914 0.079719774 0.034408674 0.059349943
0001b0 6f 5f fc bc c0 6b 38 3d 06 46 8f bd de e0 ff bb
       -0.030807225 0.045024633 -0.06995778 -0.0078087887
0001c0 37 5b 62 3d d6 78 9d bb c5 1f 19 3d 0c d5 46 bd
       0.05526277 -0.0048056645 0.037383813 -0.04854302
0001d0 8f f7 d6 3b a1 a5 73 3d dc 4e a3 bd 68 fa 3b 3c
       0.006560273 0.059484128 -0.079740256 0.011473276
0001e0 e1 7d 79 bb 9b 3a b9 3c 89 c2 85 3d 63 4d b8 ba
       -0.0038069414 0.022610953 0.06531245 -0.0014061149
0001f0 1e 7d 1b 3c 3f 57 5e 3d dd c8 05 bd 64 33 8e 3d
       0.0094902795 0.054282423 -0.03266226 0.06943396
000200 12 68 ad bd b4 2e f5 3a 1e 22 8f bc 73 cc a0 bd
       -0.084671155 0.0018705935 -0.017472323 -0.078514956
000210 02 fc 5b 3d 2b 65 65 bc 21 a9 50 bc 8d 4c 96 bd
       0.05370713 -0.014001171 -0.012735636 -0.0733882
000220 ce e9 a8 bd 6f ae a3 bd cd d5 62 3d b7 8c 10 3d
       -0.0824772 -0.07992255 0.055379678 0.035290446
000230 28 e7 a8 bd c3 d7 a6 bc 86 bf 99 bb 2f 37 05 3d
       -0.082472146 -0.020366555 -0.004692021 0.03252333
000240 27 81 9a bd bd 07 8c 3d e3 59 96 3d 18 b4 72 3d
       -0.07544165 0.068374135 0.07341363 0.059253782
000250 99 28 a4 bb b6 fb ba bc 6d eb 05 bd ae 79 47 3c
       -0.0050097224 -0.022825103 -0.032695223 0.012175007
000260 ee 59 a0 bb 77 99 1e 3d db 3c 98 bd e2 30 8e bd
       -0.004893533 0.038720574 -0.07433482 -0.069429174
000270 72 60 85 bd 74 dc 48 3d a0 30 3c bd 62 41 58 3d
       -0.06512536 0.049038365 -0.04594481 0.05279673
000280 10 ac e4 3c 4d fb b1 bd c4 88 8c bd ea d0 0e bd
       0.027914077 -0.0869051 -0.068620235 -0.034867205
000290 36 d5 87 3d 65 8b 9d 3d c6 6d 58 3c e6 1a 17 3c
       0.06632464 0.07692603 0.013209766 0.009222722
0002a0 a9 1f 5c 3d ef ed 3c 3d d9 e0 75 bd 63 ee ec 3b
       0.05374113 0.04612535 -0.060028885 0.0072305663
0002b0 95 6c a8 bd 9d a1 5c bd d4 40 45 bd 8c cd cc bd
       -0.082238354 -0.053865064 -0.048157528 -0.100001425
0002c0 42 ca f6 3c f5 a0 02 3d 40 c3 84 bc 40 7e 1b 3d
       0.03012574 0.03189178 -0.016206384 0.0379622
0002d0 96 ee ba 3d c7 f6 41 3c db 77 6d 3d 5a ac c6 bc
       0.09127538 0.011838621 0.05797563 -0.024252106
0002e0 7e dd d6 3c ce 59 50 3d 66 f8 82 bd 86 6f a0 3b
       0.026228663 0.050866894 -0.063950345 0.004896107
0002f0 4a 1e 98 bd ea 36 a8 bd 59 f9 1e 3d 02 0b 5b 3d
       -0.07427652 -0.08213599 0.038812015 0.053477295
000300 91 f1 c4 3b 28 39 8e bd da a5 c2 bd 7c 67 8b 3d
       0.0060102423 -0.069444954 -0.0950429 0.068068475
000310 89 0b fd 3c 89 68 b1 3c 8b a9 a4 bd 20 81 f0 3b
       0.03088929 0.021656292 -0.0804015 0.0073396116
000320 3d 70 1b bd 21 a7 c7 3c 0c 98 07 3d 63 2c 50 bd
       -0.037948836 0.024371685 0.033103988 -0.05082358
000330 6a 57 5c bd 58 54 b1 bd a0 61 bf bd 9f a8 46 bd
       -0.053794302 -0.086586654 -0.09344792 -0.048500653
000340 ca 0e be bd c7 28 67 bc 74 dc 0c bc 2d 4b 04 3d
       -0.092801645 -0.014108843 -0.008597482 0.032298256
000350 a6 74 06 3d 33 d1 27 3d de b6 89 3d 57 bf 96 3a
       0.03282609 0.040970992 0.06724332 0.0011501116
000360 8b a1 33 3d c2 d7 25 3d 18 1c 9d bd 5d 74 b7 bc
       0.04385523 0.040488966 -0.07671374 -0.022394354
000370 6a e8 ab 3c 45 40 20 bc 7d ca 72 bd 20 21 98 3d
       0.020984847 -0.009780948 -0.05927514 0.07428193
000380 22 38 90 3d 17 e5 ae 3c bd d1 29 bd f2 1a 60 3c
       0.070419565 0.021349473 -0.041459788 0.013678299
000390 66 ce 34 3c 14 61 87 3d 34 12 7b 3d 0b 43 b7 bd
       0.011035537 0.06610313 0.061296657 -0.08948334
0003a0 8d 32 c3 3c d8 f5 13 3c 92 80 08 bb 66 94 b5 3d
       0.023827815 0.009030782 -0.0020828587 0.088661954
0003b0 a7 99 51 3d 1c 19 91 3b 72 b1 f5 3b e0 a3 57 bb
       0.051171925 0.004428042 0.00749796 -0.0032904074
0003c0 59 a0 be 3c 58 66 a5 3d 27 00 8e 3c 65 d5 16 ba
       0.02326982 0.08076161 0.017334057 -0.0005753844
0003d0 9b 54 37 3d 6b 67 9e bb 91 aa b0 3c 68 db 3b 3d
       0.04475842 -0.0048341057 0.021565707 0.04586354
0003e0 b4 dd 39 bc 90 97 7b 3d 80 95 bc bd b9 ce 9e 3d
       -0.011344362 0.06142384 -0.09208202 0.07754273
0003f0 8c 83 88 bd 94 89 b8 3d ba 18 77 bd 42 6a 73 3c
       -0.066657156 0.09010616 -0.060326315 0.014856877

ConvNet.fc2.bias f4 [84]
000000 fd 12 b1 bd d3 d4 da bc 8f f1 ab bd 63 cd 34 3d
       -0.086462 -0.02671281 -0.08395683 0.044141185
000010 37 00 10 bd 76 a5 85 bd 96 f8 ad bc c0 6f bf bb
       -0.035156455 -0.065257 -0.0212367 -0.005842179
000020 d7 9f c1 3d 2d 37 5d bc af 78 ad bd fe 63 a4 3d
       0.09454315 -0.013501924 -0.08470284 0.080268845
000030 cb fb b0 bc 5e f0 ee 3c ae db 38 3d c8 d5 ee 3c
       -0.02160444 0.02916735 0.045131378 0.029154673
000040 c5 a9 b4 bd 72 30 8a bd dd f3 91 3b 83 a1 9f 3d
       -0.088214435 -0.067475215 0.0044541196 0.07794478
000050 c5 2c 35 bc 2b 3a 9c 3d d2 40 a8 3d 11 10 3d bd
       -0.011058037 0.07628282 0.082154885 -0.0461579
000060 e4 29 c3 3d 15 4a 01 3d 69 1b bc 3d ec b9 43 bd
       0.095294744 0.03156479 0.091849156 -0.04778473
000070 b0 80 a5 3d 2d fe 76 bd b3 32 23 bc 21 f1 16 3d
       0.08081186 -0.060300995 -0.009960818 0.036851052
000080 bb 0d 5f 3d 5d 68 3c 3d 3b 46 2e 3d 06 c5 a6 3d
       0.054456454 0.045997966 0.042547446 0.08143048
000090 86 9d ad bd 5a 95 1a 3c 8f a1 a6 3d 7c 56 ec 3b
       -0.08477311 0.009435022 0.081362836 0.007212458
0000a0 d1 36 09 3c 69 24 65 bb 84 7b 39 3c dc de 1f 3d
       0.008374886 -0.003496433 0.011320952 0.039030895
0000b0 79 f7 3f bd 48 c8 72 3d 9c 86 d6 3c 8d fb 6d 3d
       -0.046866868 0.059273034 0.026187234 0.058101226
0000c0 98 d6 04 bd 3a f2 89 bd b6 7a 87 3d 14 ed c4 3d
       -0.032431215 -0.06735654 0.06615202 0.096155316
0000d0 e2 57 a3 3d 44 c7 1b 3d d7 3f 29 bd 9c c4 5f bd
       0.07975747 0.03803183 -0.041320648 -0.05463086
0000e0 dd de 88 bd 69 29 a7 3d 69 cc a3 3d c6 7a 12 bd
       -0.06683133 0.08162195 0.079979725 -0.035761617
0000f0 dc 8d 1a 3d d5 f9 f8 3b 8c d7 24 bb ff 0f 06 bc
       0.037732944 0.0075981417 -0.002515289 -0.008182525
000100 9b e4 8e 3d 84 36 56 3b ff 4c 57 bd 50 9b 05 3b
       0.06977197 0.0032686302 -0.052563664 0.0020386763
000110 6b ed be 3c b3 14 bf 3d 98 0d 3e ba 47 b7 dd bc
       0.02330657 0.0933012 -0.00072499504 -0.027064933
000120 c1 ed 28 bd 39 cc c0 bd be 8c 06 3d 76 49 6c bd
       -0.041242365 -0.094139524 0.032849066 -0.057687245
000130 2f f2 e1 bb 39 4c 57 3d 69 8a df 3c f9 42 a7 bd
       -0.0068953256 0.052562926 0.027287679 -0.08167071
000140 df 63 9d 3d 16 16 c5 3d 95 76 11 bd 07 da 23 bd
       0.076850645 0.09623353 -0.03551348 -0.04000285

Output.fc.weight f4 [10, 84]
000000 11 21 5e 3d fd 5a bd 3b c6 81 36 bd 02 86 d3 bc
       0.054230753 0.005778669 -0.044557355 -0.025820736
000010 5c 80 e3 3d bc 26 ff 3a 7b dc 23 bd c3 f7 d5 3d
       0.11108467 0.00194665 -0.04000519 0.104476474
000020 f7 c4 59 bd 8c 0e 5f 3c 90 6a aa 3b d4 44 81 bd
       -0.053166356 0.013614308 0.0052006915 -0.06311956
000030 f4 c3 8d bd 24 2b 52 3d 49 97 a1 3d d4 00 81 bd
       -0.06922141 0.051310673 0.078901835 -0.06298986
000040 b2 74 f9 3c 43 13 88 bd 6f d0 da 3d ac bd e5 bd
       0.030451152 -0.06644299 0.10684287 -0.11217818
000050 81 13 44 3d 8d 7e d2 3d 37 e0 8a bc aa e0 3b 3c
       0.047870163 0.10278044 -0.016952617 0.011467138
000060 dd 2f a2 bd fb 7e 2e bd e5 dc ed 3c f0 38 a9 bd
       -0.079192854 -0.042601567 0.029035995 -0.08262813
000070 19 d3 f6 bc 71 4e 44 3b 93 a9 2b 3c 7f 57 11 3c
       -0.030129956 0.0029953981 0.010477441 0.008870958
000080 ad 7d ad bc 51 05 0b 3d 54 79 db bd b8 77 f1 3d
       -0.021178091 0.033940617 -0.10716501 0.11790413
000090 7f c3 ae bd 40 a2 9f bd ba 25 cd 3d 65 10 94 3d
       -0.08533382 -0.077946186 0.100169614 0.072296895
0000a0 c1 cf 88 3c a9 9a b8 3d 36 6c d3 bd 32 c4 a5 3c
       0.016700627 0.09013874 -0.10323374 0.020235155
0000b0 8a 0d 2b bb 80 11 9e bd dc 68 5c bd 09 6e ee bd
       -0.00261006 -0.077181816 -0.05381094 -0.11642081
0000c0 07 d5 cc bd d0 ab dc bc ee bc 00 be 2b e5 e4 bc
       -0.10001569 -0.026937395 -0.12572071 -0.027941307
0000d0 bf 37 d3 bd 7a 13 cb bd bb 89 b0 bd 44 5e a5 3d
       -0.10313367 -0.09915824 -0.0862002 0.0807462
0000e0 e5 05 73 3d f9 cf 7f 3d b1 31 cb bd 9e b3 d2 bd
       0.059331793 0.062454198 -0.09921587 -0.102881655
0000f0 16 86 14 bc c1 f3 50 3d 52 8f 3d 3d 02 40 8c 3d
       -0.009065172 0.05101371 0.04627926 0.06848146
000100 e0 34 ae 3d 06 6f 84 bd 7b 50 80 3d 26 de 90 bd
       0.08506179 -0.064664885 0.062653504 -0.070736215
000110 26 6d f6 3d 59 ea 49 3c d4 1a d9 3d 8e 6c 8f bd
       0.12032537 0.012323939 0.1060082 -0.07003127
000120 5d b8 85 bc a3 7d 4d bd f9 fa be 3d 5d a5 8c 3d
       -0.016323263 -0.050168645 0.09325213 0.06867478
000130 38 ee 03 be f1 89 d1 3b 3f bb f2 3b cb 4f 67 3a
       -0.12883842 0.0063946177 0.0074075754 0.0008823841
000140 e6 91 b0 3d b3 1f 5c bc b1 3d b5 3d 5f 6f bf 3d
       0.08621578 -0.013435292 0.08849657 0.09347414
000150 c3 7a 4d bc 94 4f a2 3d b8 bd 27 bd 0a 91 a3 bd
       -0.012541476 0.079253346 -0.040952414 -0.079866484
000160 f0 dc 8c 3c 49 a2 59 bc 60 ba 90 3d 9f aa c8 3c
       0.017195195 -0.013283321 0.07066798 0.024495421
000170 c2 a5 69 3d 9f c2 81 3d 4f be df 3c 35 14 cb 3d
       0.057042845 0.06335949 0.027312426 0.099159636
000180 3d a9 34 bd 0d d1 d4 3d 1c e8 4a bd bc 4b 7d 3d
       -0.04410671 0.10391436 -0.049537763 0.061839804
000190 d5 b6 0b bd e8 61 db bd 23 cf 08 3d f6 66 1f 3c
       -0.03410991 -0.107120335 0.033400666 0.009729138
0001a0 c5 0f 75 bd b5 4d 76 3d 39 1b 76 bd 58 77 06 bd
       -0.059829492 0.0601327 -0.060084555 -0.03282866
0001b0 ba 23 e5 3d 4c 32 00 bd 6d 0c a1 bd f5 d2 49 bd
       0.11188455 -0.031297967 -0.07863698 -0.04927345
0001c0 5b ae 8e bb d5 25 d9 bd fd c4 b7 3d c2 b8 b5 bd
       -0.004354281 -0.10602919 0.089731194 -0.088731304
0001d0 ac fa 52 bd 82 de 87 bd b5 74 da 3c ce 0a 1a 3c
       -0.05150859 -0.06634237 0.026666978 0.00940199
0001e0 46 88 21 bd e8 01 ad 3d f1 98 89 3d 76 d8 a9 bd
       -0.0394366 0.08447629 0.067186244 -0.0829324
0001f0 70 25 33 3c 10 4c 6e bb ed d3 6b 3d 19 3e 22 bd
       0.010934219 -0.0036361255 0.057575155 -0.039610002
000200 89 bc 27 bc 13 2b 95 bd fb b8 9a 3d 63 bc dc bd
       -0.010237821 -0.072836064 0.075548135 -0.107781194
000210 47 68 10 bd fa 80 8a 3d 11 02 d9 bd 7b 53 8d 3c
       -0.035255697 0.067628816 -0.10596097 0.01725172
000220 39 88 72 bd fc 71 a9 bd 56 28 c4 bd 1a 24 52 bd
       -0.059211943 -0.08273694 -0.09578006 -0.05130396
000230 92 50 8b bd 84 5c c1 bd b6 83 6d 3d 2d 2d 01 3c
       -0.06802477 -0.09441474 0.057986937 0.007884306
000240 f4 62 16 3c 4e a3 57 bd 80 13 da 3d 6d 42 8f bc
       0.009178866 -0.052645974 0.106482506 -0.017487729
000250 a6 5f fc bc 2a 7d 31 3d 81 c3 9b bd 96 f5 44 bd
       -0.030807327 0.043332256 -0.07605649 -0.04808577
000260 03 e5 dc bc 6e 6e c3 bd 55 68 a2 3c 7f e6 93 3c
       -0.02696467 -0.09542547 0.01982514 0.018054245
000270 d0 a6 84 3b c8 c9 b5 3c 6e 30 9d 3d 5f 3d 09 bc
       0.004048206 0.022190943 0.07675253 -0.008376448
000280 47 8b 6f 3d 87 f7 69 3d 37 f4 9e 3d 71 8f 09 bd
       0.058482435 0.057120826 0.07761424 -0.033584062
000290 4d 44 f8 3a a2 88 e0 bc 7f ee 00 3c c8 13 33 bc
       0.0018941254 -0.027408902 0.007869362 -0.010930009
0002a0 ba 25 8d bc 4d 94 e4 bd ad 8e 9c bd ab 3b d2 3b
       -0.017229903 -0.11161099 -0.07644401 0.0064158044
0002b0 95 22 9b 3d 45 f2 bb 3d 8a d8 d1 bd b0 28 0f 3d
       0.075749554 0.091770686 -0.1024638 0.034950912
0002c0 17 1e e2 bd be c0 9f bd 99 0c 95 bd f6 87 85 bd
       -0.110408954 -0.078004345 -0.072777934 -0.06520073
0002d0 ec 9a a9 3c bb 37 60 bb 53 ee 5a bd 1b fd 38 bd
       0.020703755 -0.0034212905 -0.05344994 -0.045163255
0002e0 3a e5 b3 3d ea 90 78 bd c7 35 b8 bd df 0e 17 3d
       0.08783956 -0.060685076 -0.08994632 0.036879417
0002f0 8b 64 c6 bd 8e cf b8 3d 3c 5e b3 3d be 67 ef bc
       -0.09687146 0.09023963 0.08758208 -0.029224273
000300 89 6c 16 3d 85 3b e6 bd 28 98 7a bc e9 2a 3c bd
       0.0367246 -0.11241821 -0.015295066 -0.04593936
000310 62 be 97 3b 7a a1 e9 bd 8d 6a f1 bc ef be 87 bc
       0.0046308497 -0.11407752 -0.029469753 -0.016570536
000320 8b e6 52 3c 44 73 92 3d 73 30 33 3c 19 f5 9e 3c
       0.012872349 0.071508914 0.010936844 0.019403981
000330 d2 00 1b bd cb 31 01 3c 48 1b bc bd 41 6c ca bc
       -0.03784258 0.007885407 -0.09184891 -0.024709823
000340 de d7 68 3d 92 1f be bd fb 6f b5 3d 9f 4b 93 3d
       0.056846492 -0.09283365 0.08859249 0.07192158
000350 aa 74 90 bd 96 9d 72 bd 73 8c 9d bd 73 81 9b bb
       -0.07053502 -0.059232317 -0.07692804 -0.004745656
000360 d9 58 83 bc 6a 52 12 3d 3e 27 dd 3c eb bd 85 3d
       -0.016033577 0.035723127 0.026996251 0.065303646
000370 4b 62 02 bd fa 03 0c bc 1b fe 76 bd 3a 71 e1 bd
       -0.03183202 -0.00854587 -0.060300928 -0.110079244
000380 25 74 bf 3d 47 99 42 3d bf cf 58 bd a1 c2 cb 3d
       0.09348325 0.047509458 -0.052932497 0.09949232
000390 78 fd f6 bd 8c b3 2c bc 03 9e c6 bc 72 f9 c0 bd
       -0.12060064 -0.010540854 -0.024245268 -0.09422578
0003a0 88 90 8e 3d 60 88 07 bd 74 13 21 3c 3f 0c 75 3d
       0.06961161 -0.03308904 0.009831298 0.059826132
0003b0 88 0e 09 3d 1e 50 dc 3a c5 81 d2 bd 43 d0 b3 bd
       0.033461124 0.0016808545 -0.10278658 -0.08779957
0003c0 06 25 8b bd 99 1f c2 3d 30 3e 5c bc ba de c3 39
       -0.06794171 0.09478683 -0.013442561 0.00037359243
0003d0 97 a3 4f 3d 01 fa d4 bd 5f 5e a7 bd 33 26 8b bd
       0.05069312 -0.10399247 -0.08172297 -0.06794395
0003e0 28 4d 29 3d 17 11 67 bc 6d 3a 60 bd 03 15 b2 bc
       0.041333348 -0.014103196 -0.05474322 -0.021738535
0003f0 7f 15 c4 3d 5d ca 36 bd 6d 89 b7 3d d2 94 3b 3d
       0.095744126 -0.044626582 0.08961759 0.045796223

Output.fc.bias f4 [10]
000000 cc a9 94 bd 7a e9 d2 3d 53 0e 72 bd eb 6a ed 3d
       -0.07258949 0.10298438 -0.059095692 0.115926586
000010 bd 8f a4 3d a4 9f 96 b9 fd 7a a9 3d 36 0d cf bd
       0.080352284 -0.0002872917 0.08275411 -0.10109942
000020 f9 31 10 3c ee c7 4d bd
       0.008800977 -0.050239496
