tutorials/W1D2_ComparingTasks/RR/models/ConvNet_autoencoder_1000_epoch_6.pth (torch, 506482 bytes, 19 tensors)

encoder.conv1.weight f4 [6, 1, 5, 5]
00000000: 5bb2 1e3e 961b 1ebe 2ffa 26be 9095 463e
00000010: f2db 9b3c c935 03bd b1b7 2fbb 2df0 aebd
00000020: 8001 033e 5880 80bd 483b 1c3d 11dd 63bd
00000030: 02b6 9f3d cf27 6abc a4c3 8c3d 9640 1f3e
00000040: 98bb 32be 5736 1bbd 642f 1dbd b8e8 9bbc
00000050: 867b 40be b642 5a3d 16d2 debd ea82 28be
00000060: 21e2 30be 7d66 613e 8b86 bb3d 2df4 393d
00000070: d069 abbc 137b 3fbe 31c4 cbbd 8128 8f3c
00000080: 128e 97bd d6c7 ffbd e530 81bd 19c0 05be
00000090: be43 483e 8a2b 413e 17fa 18be a89d a73d
000000a0: 4083 113e 3574 11be dbc4 433e 9ccc 863d
000000b0: 0eb6 243d 1ae4 663e 7111 20bd 99ae 1fbd
000000c0: ca08 ffbd 4586 77bc 4845 543b 09a4 eebd
000000d0: 4f9f 573e 334e 153e e2c0 0dbe 630d debd
000000e0: 22f6 68bd f47a 89bd bc67 003e f158 383d
000000f0: ef1d 6b3e a333 3f3e 4407 cdbd 2bdd 3a3e
00000100: de3f 283e 977b 2bbd d7af 25bd 722d 3b3d
00000110: 2be4 08be 6252 02be a3a2 d6bd 0549 e7bc
00000120: 9074 83bd 0ae6 26be c90b 32be 523b f03d
00000130: edd1 be3c d664 e13c a4a1 c13d 8af4 9cbd
00000140: b4a7 1ebd 44e6 4c3e 785a 863d 4eb5 383d
00000150: 331b 363e c03a 48bc 2ada 6bbd 15e4 05be
00000160: bd5f 0fbe cd29 29be 28aa 0f3c 808d a1bd
00000170: 2e15 4f3e 4477 de3c 5bc1 7bbd 370f 5b3e
00000180: 1b37 4ebd 5d31 8ebd 8246 553e 5a46 813c
00000190: cd73 e0bc 48a8 323e 04b5 253c dfa2 873d
000001a0: 150b 613e a059 9f3d 32e4 853c 19fa cfbd
000001b0: 00e2 0a3d e261 10be d0b8 26be 06b9 683e
000001c0: 84ea 303e e9b3 debd 6c61 5c3e bbb9 ce3d
000001d0: 0d2c 00bd b42f aabd e272 7bbd 3e00 003e
000001e0: 2f1b 203e d9b8 75bd 6619 1339 e20d 543e
000001f0: fa71 2e3d aae5 d7bd 1d3e 15be e6ba bb3d
00000200: 1124 0ebe fed4 40ba 66ba 48be 4031 28be
00000210: e52f 5f3d 3f6d aabd 0c52 da3c 823a ee3d
00000220: 275a 173e b844 acba c6dc 58be 2359 8b3d
00000230: e98d dbbd 7b2a e1bd 2990 57be 7e38 1e3e
00000240: 96cc c43c 9f14 a5bd 15c2 1bbd 91bd c6bc
00000250: 4fd8 1bbe 8b08 26be
0.15497725 -0.1544021 -0.16306375 0.19392991 0.019025777 -0.032033715 -0.002681237 -0.08541904
0.12793541 -0.0627448 0.038142473 -0.055630747 0.07798387 -0.014291718 0.06873253 0.15551981
-0.17454374 -0.03789362 -0.038375273 -0.019031867 -0.1879712 0.053286277 -0.108799145 -0.1645619
-0.17273761 0.22011752 0.091565214 0.04539888 -0.020924479 -0.18699293 -0.0994953 0.017475368
-0.07400145 -0.124892876 -0.06308154 -0.1306156 0.19557092 0.18864265 -0.14939152 0.081843674
0.14210224 -0.14204486 0.19118063 0.06581995 0.040212683 0.22547951 -0.039079133 -0.03898487
-0.12452848 -0.015107696 0.0032389928 -0.11652381 0.21056865 0.14580612 -0.1384311 -0.10842397
-0.056875356 -0.067129046 0.12539572 0.045006696 0.22960638 0.18672042 -0.100111514 0.18248431
0.16430613 -0.04186591 -0.040450897 0.045697637 -0.13368289 -0.12726739 -0.10480239 -0.02823306
-0.06418717 -0.1629869 -0.17387308 0.117300645 0.02329346 0.027513903 0.09454659 -0.076638296
-0.038734153 0.20009714 0.06560224 0.04509478 0.17783813 -0.012221038 -0.057581104 -0.13075288
-0.14001365 -0.16519852 0.008768596 -0.07888317 0.20222923 0.02715648 -0.061463695 0.21392523
-0.05034552 -0.06943009 0.20827678 0.015780617 -0.027398968 0.17447007 0.010113958 0.06622862
0.21976884 0.077807665 0.016344164 -0.10155124 0.033906937 -0.1409984 -0.16281438 0.22726831
0.1727696 -0.10874159 0.21521538 0.10094019 -0.03129201 -0.0830988 -0.061388858 0.12500092
0.1563537 -0.059990738 0.00014028474 0.20708421 0.042589165 -0.10541852 -0.14574476 0.091665074
-0.13880946 -0.0007355957 -0.19602355 -0.16425037 0.054489035 -0.08321618 0.026650451 0.11632253
0.14780484 -0.0013143038 -0.21177968 0.06804111 -0.107204266 -0.10994431 -0.21051086 0.15451238
0.024023335 -0.08060574 -0.038026888 -0.024260314 -0.15219234 -0.16214196

encoder.conv1.bias f4 [6]
00000000: 3f2c c4bd 3f7d 113e 5b23 ffbd fdd1 c4bc
00000010: 90c1 0bbe 7fd0 c1bb
-0.09578752 0.14207934 -0.124579154 -0.024025911 -0.13648057 -0.0059147472

encoder.conv2.weight f4 [16, 6, 5, 5]
00000000: 783e 79bd d740 f6bb 0fd5 853d e32a 94bc
00000010: 486f 54bd 0067 1d3d a920 45bd c5ab b63b
00000020: 42e8 0bbc d0f8 4abd 050b 69bd 0f24 9fbd
00000030: 81c5 173d b945 19bd f913 4b3c 02cc 9abd
00000040: 1526 e4bc d33f f13c 402f a23d 2f25 9fbd
00000050: e06d 363d ca9f 883d 96a4 c8bb 1d7f 833d
00000060: d00f 103d 952a 4fbd b150 84bd 9bc9 31bd
00000070: 4f03 06bd 57af 5c3d db96 283d f7f6 75bd
00000080: a44c fd3b e0cf 833c eeae 063d 84f6 8e3c
00000090: 0d8a bc3c 77cd 53bd 1156 3dbd 050d 993d
000000a0: a5cb 0d3d 2ff7 99bb 7d86 963c 0579 873d
000000b0: 9c4d 72bd 1449 d8bc b32e ee3c e30e 9f3d
000000c0: 7fe6 cd3b 0494 78bd a3c5 b53d 099d 883c
000000d0: 6061 db3c b18a 83bd aaa0 1bbd 7672 d0bc
000000e0: 28e7 0c3d e530 70bd 50e8 8a3d 95f9 8cbc
000000f0: bd40 883c 77a8 623d 9a1b a23d 2418 80bd
00000100: 2be1 18bc 757a 89bc 1aad 8dbd e194 e43c
00000110: ffde 2bbd 7d6a 013d 12c7 97bc 25d0 953d
00000120: 9248 93bc 8f6c 0d3d 9284 a43d 038b 17bd
00000130: 60af 9d3d 753b 09bc 9336 a9bb 4b3c 56bc
00000140: 7822 81bd 1a43 cbba 87e3 433d 5ded 9b3a
00000150: 42dd 5d3d c282 04bd 8f77 163d fa34 4bbd
00000160: 1d54 163d effc a93d e96a 7d3d 7296 933d
00000170: e6c0 5f3d d4e9 933d 5788 343d 41f2 ddbb
00000180: 6ae6 4bbc 80ec 69bd 9687 a2bb b09a 1c3d
00000190: 447f 3c3c b457 a53d 3a11 f4bc 8ea7 ef3d
000001a0: a0b1 df3d a4b1 d7bc 800a b4bc 796e e53d
000001b0: 1c1b 7f3d 3402 d03d ae97 933d 60bc cc3d
000001c0: db60 a7bc ef4e 1abd 8b42 22ba c75c d4bc
000001d0: 7433 e7bc a67c e4bc 5ee8 1ebb 3640 933d
000001e0: 8acc 6c3b e213 d03d 263a 7c3d 6bfc 063d
000001f0: 6f0b d7bc 5958 07bc 184d 68bd b71a 31bd
00000200: c8e7 8dbd c67e da3c 753e aabd e381 043d
00000210: da6f 08bd a933 57bd e927 db3c 830c 693d
00000220: 14de 8cbd d87b 8fbd f85c 033d 0586 743d
00000230: 313b 58bc a1cf c0bd beac a5bc 2d87 80bd
00000240: f685 9a3a 0470 4abc c483 443c 4ab3 afbd
00000250: 6c3d 96bc 4612 4a3c 9114 5abd a4f5 8bbd
00000260: 56d3 86bb f4fb 83bc e384 38bd f9bb 943d
00000270: 0c1b 9cbc 00e7 2c3d eaa9 333c 06f0 2e3d
00000280: ce88 e43c 9b80 943c ca11 8fbc 10dd a43d
00000290: ad80 2dbc 51e5 913c 8385 6b3d ce97 923d
000002a0: f4dd 8a3d 6172 5c3d f61b 64bd 917d 7a3d
000002b0: 4548 c23b da38 b93b e6af 84bd 2563 673d
000002c0: 0d90 853d 4269 983d c730 e5bb 8c69 37bc
000002d0: e76f 583d 30c6 bc3c 581e 53bc bd52 823d
000002e0: d51e 3e3d 54c9 95bd 5740 bc3c b145 8c3d
000002f0: 9fa4 7abc e671 4e3d aa8f 43bd d7a3 3bbd
00000300: 0137 40bd cf6b c03d 655b 203d a209 b1bd
00000310: 7208 083d effb aa3d e2c4 36bd 86ad a1bc
00000320: 3948 b9bc db93 86bd a25c 913d f6ff 1e3d
00000330: ec56 463d a7f2 983d 5bff 333b c69a 24bd
00000340: 3883 2fba 8573 823d dff8 a23d 8f49 9bbc
00000350: e6df 1d3d d49c c7bb ff38 9b3d b4dc bc3d
00000360: 800d a23d 0cec 67bc 10c4 f9bb e60c 433d
00000370: 3f69 e73c 73bc 86bd f35c 6a3d 018d 653d
00000380: 28e3 953c ed76 bb3d 3119 113d f2d2 a6ba
00000390: 2466 573c c646 50bd f8d4 52bd d3f4 ff3b
000003a0: 67ee c1bc 339a 43bd 15bd ba3c c779 55bd
000003b0: de0f 39bc b747 483d d7ee 613d 390f 643d
000003c0: f979 61bd 8c7e 52bd 07b1 26bc 2654 3d3c
000003d0: 23c4 363d b292 74bd d9e9 58bd 4b43 453c
000003e0: 21f3 5b3d 0295 8cbd cbe5 273d be2a 5fbd
000003f0: ac41 77bb 03ca 363d b76a 0c3b 2883 30bd
-0.06085059 -0.0075150537 0.06534778 -0.018086856 -0.05186394 0.038428307 -0.04812685 0.0055746757
-0.008539261 -0.049553692 -0.056895275 -0.077705495 0.03705359 -0.03742001 0.012394899 -0.07558443
-0.02785019 0.02944938 0.079191685 -0.07770764 0.04453838 0.06671102 -0.006123136 0.06420729
0.03517133 -0.05057772 -0.06460703 -0.043405157 -0.032718 0.053878155 0.041159492 -0.060049977
0.0077300835 0.016090333 0.03288167 0.017451532 0.023015046 -0.05170962 -0.046224657 0.074731864
0.03461804 -0.004698656 0.018374676 0.066148795 -0.059156045 -0.026402034 0.029075002 0.07766511
0.006283581 -0.060688034 0.08875587 0.016676443 0.02677983 -0.06422938 -0.037995018 -0.025445204
0.034400135 -0.05864038 0.06782591 -0.017208854 0.016632432 0.05533644 0.07915421 -0.062546045
-0.009331028 -0.016782025 -0.06917782 0.027903022 -0.041960713 0.031595696 -0.018527541 0.07315091
-0.01797894 0.034527358 0.08033098 -0.036997806 0.07699466 -0.008375992 -0.0051639765 -0.013075898
-0.063054025 -0.0015507669 0.04782441 0.0011896301 0.054166086 -0.032351263 0.036735114 -0.04961107
0.03670131 0.083001964 0.061869536 0.072064295 0.05462732 0.072223336 0.044075336 -0.0067732637
-0.012445072 -0.05711031 -0.0049600108 0.03823346 0.011504952 0.08073369 -0.02979337 0.117018804
0.10922551 -0.026329823 -0.021977663 0.112027116 0.062281713 0.1015667 0.07206665 0.09996867
-0.020431926 -0.037672933 -0.0006189725 -0.025923146 -0.028222777 -0.027891468 -0.0024247388 0.07189982
0.0036132657 0.10160042 0.061578892 0.03295557 -0.02625057 -0.00826081 -0.056714147 -0.043238368
-0.069289744 0.026671778 -0.08312694 0.032350432 -0.033309795 -0.0525395 0.02675243 0.056896698
-0.068782955 -0.07006043 0.032071084 0.059698123 -0.013197706 -0.09414602 -0.020223971 -0.06275783
0.0011789191 -0.012355808 0.011994306 -0.085791185 -0.018339835 0.012333458 -0.05324227 -0.068339616
-0.0041145487 -0.016111352 -0.045048606 0.072624154 -0.019055866 0.042212486 0.010965804 0.042709373
0.027897265 0.01812773 -0.017464537 0.08049977 -0.010589761 0.017809542 0.057500374 0.07157861
0.067806154 0.053820018 -0.055690728 0.061154906 0.0059290254 0.005652529 -0.064788625 0.056491036
0.06521616 0.07441951 -0.00699434 -0.011194598 0.052841093 0.023043722 -0.0128856525 0.06363437
0.046416122 -0.07313791 0.022979898 0.0684923 -0.015298038 0.05040159 -0.04774443 -0.045810547
-0.046927456 0.09395563 0.03914966 -0.086444154 0.03321118 0.08348834 -0.044621356 -0.019736063
-0.022617446 -0.0657117 0.070977464 0.038818322 0.04842274 0.07468157 0.0027465436 -0.040186666
-0.00066952733 0.0636969 0.07957625 -0.018955974 0.038543604 -0.0060916934 0.075792305 0.09221783
0.07912731 -0.014155399 -0.0076222494 0.047619723 0.028248427 -0.065789126 0.05721755 0.056042675
0.018296793 0.09153543 0.035424415 -0.0012727662 0.013146911 -0.050848745 -0.051472634 0.0078111677
-0.02367325 -0.047754478 0.02279524 -0.05211809 -0.011295287 0.048896518 0.055159416 0.05567858
-0.055047963 -0.051390216 -0.010174043 0.011555707 0.044620644 -0.059710212 -0.05295739 0.01203997
0.053698663 -0.068643585 0.040990632 -0.05448412 -0.0037728352 0.044626247 0.0021425912 -0.04309383

encoder.conv2.bias f4 [16]
00000000: 771d 843d 7caf 0abd 8897 46bd 8954 8d3d
00000010: 2175 97bd 9dd4 e83c 1005 9d3d 79f6 4b3d
00000020: c979 d43c b59c 45bc e1aa bfbc f3f9 093d
00000030: 2f7f 97bc 8a6b 30bd 2448 85bc 90ad b5ba
0.064509325 -0.03385876 -0.048484355 0.069008894 -0.073953874 0.028421694 0.07666981 0.0497956
0.025936978 -0.012061288 -0.023396911 0.033685636 -0.018493263 -0.043071307 -0.01626975 -0.001386093

encoder.fc1.weight f4 [120, 400]
00000000: 2828 50ba a149 c2bc 55fc 623b aaad 43bd
00000010: f845 c63c a958 29bd cd76 4ebb 6fd9 babc
00000020: a908 98bb 7b7d fd3c f36d 92bc 0fb7 8e3c
00000030: 6712 2bbd c78f d13c 721e 5abd ea35 40bd
00000040: 5bee f8bc 2c5f 1abd 0fb3 ff3b 53a1 f33a
00000050: 804a 4fbd 2412 18bd da8b d83c efc1 aebb
00000060: f14e 833c a68b 0f3c 2881 d43c dac8 d0bc
00000070: 15a7 b23c d2ee 1e3d 9f78 6a3c 6db6 bb3c
00000080: d670 1cbc 9db0 393d dcf1 783c c569 9e3c
00000090: adab 283d f210 c53c 4bd5 ac3c 9880 4f3a
000000a0: 10ec 1ebd 8af3 9a3b c89c 293d d1f9 273d
000000b0: d3a3 27ba 3f61 663b d5be 523c baa4 0abd
000000c0: 3de7 d538 ca3a 773c 0987 1f3d 14c4 0b3c
000000d0: d061 c1bc b4f4 cabc cf1b 38bd 0c87 98bc
000000e0: 8a44 34bd 92ac 213d 7293 d4bb f24e 923b
000000f0: b46b babb 2e92 3c3d 29d7 2dbd 2756 b03c
00000100: 3243 263d 08b6 dbbc 85a6 d23c 0c5f 29bd
00000110: dddf f03c 611c 093d 5382 36bd 778a 36bd
00000120: 775a e33c c886 3abd f054 a1bc 7702 0d3d
00000130: 0c56 183d e978 3ebd d0be 9e3b e243 b23b
00000140: 75de 41bd 1c9e 9cbc 6f7a d1bc fdd9 113c
00000150: 1515 57bd bedd 413d a82f 17bd 0646 1b3d
00000160: e922 1fbd 108f 2b3d 76a3 abbc f067 23bd
00000170: b39d 2c3c 498d 42bd 37d4 2a3d 07ec ae3b
00000180: 384d 003d c2a1 5739 6cac 50bd 009e ebba
00000190: 03f9 c53c 8db0 af3c b8b9 573c 1db9 9c3c
000001a0: f2c3 4a3d 1a3e 42bb 27fc 3a3d 5170 aabc
000001b0: 428d 3e3d f76f 14bd 6820 123d 1d8d ac3c
000001c0: a2a8 c8bc 4d3d a73b e707 7bbb d315 dabc
000001d0: b35a b3bb f3e5 ce3c 9e56 153c bd37 0b3d
000001e0: 73b6 fc3c d352 49bd e779 293b 8061 bfbb
000001f0: cac1 99bc 817d 433d 0d24 8b3b 8ddc 1bbc
00000200: 07ec 06bd 8a68 b03c 2df1 fcbc 2c20 043d
00000210: 2d0e 3f3c 9857 31bd 2dc1 8d3c 6377 abbc
00000220: 99ce c3bc 6b87 60bc 1c58 3abd 53b2 bfbc
00000230: 4c06 bfba acce 1e3d fcdf 163c f8c4 8fbc
00000240: 5a55 493d 809f 1a3d ce00 47bc 69a8 ce3c
00000250: a70a 313d eb39 91bc ff6b f03c 70fa cf3b
00000260: ee7a 1fbc 6a36 293c f0be 293c 133a 353b
00000270: 21fb b33c 076c e53c 54c1 af3c cfcf 2abc
00000280: e6ca 0c3d c67e 843c f04a 71bc 440b e4bc
00000290: e234 39bc b7a2 1dbd 6501 343c b9c5 e13c
000002a0: 7d2e 23bd 677e 3f3d fde8 973c 5493 49bd
000002b0: 4668 4c3b 4545 153d a88c 34bd 3fae 103d
000002c0: 028a 38bd 84a0 58bd 73a3 333d 61cd 083d
000002d0: 8ba0 ac3c 753c 063b 2b5f 763c 1def a7bc
000002e0: 7ae0 59bd e9a1 49bd 06fe 08bd dfac 0d3d
000002f0: b4ec 3abd 0d9f 58bd d43c d4bc aad6 5cbd
00000300: 79ad e5bc 885e 1f3c a030 0ebd 6d46 32bd
00000310: 3818 2a3c a90a 083c b32f 03bd 9948 eebc
00000320: d3a1 1fbd add9 083c e06f 7ebb aa27 30bc
00000330: 2f71 02bd 3c07 773c ded4 21bd 18e0 f33c
00000340: 212b 073d 31ca b73c 78ec 443b 18ee 153d
00000350: b66a d23b 82c2 b7bc 763c 00bc 986d 3dbd
00000360: b81d 2cbd b29f 02bc 2958 9abb f58b 43bd
00000370: 6978 cdbc 667d 803b ec21 aa3c d7e7 f7ba
00000380: 5d59 a9bc edc4 cdbc a118 033d 04a1 6b3b
00000390: 68d9 bcb9 ab22 6bbc 7cd5 75ba 7bb1 64bd
000003a0: 022c 39bd 463a 62bd 8c14 ba3c 80e0 0ebd
000003b0: 6ad8 fa3c 6163 2a3c fc6f 7ebc dbc7 52bd
000003c0: 0f6d c13b 0013 dd3c 8345 d03c 684f 68bc
000003d0: d2b1 11bd 6753 3ebd 7ef5 a0bc 78c9 2b3d
000003e0: ef05 1a3d c344 21bd a848 e13c 4362 0d3b
000003f0: 912b 3bbc 172e 55bd 4533 b9bc 5e1a 1c3d
-0.0007940554 -0.02371675 0.0034635265 -0.04777304 0.024203286 -0.04134432 -0.0031503916 -0.022808759
-0.0046397042 0.030943623 -0.017874693 0.017421274 -0.041765597 0.025581254 -0.05325169 -0.046926416
-0.030387094 -0.03768842 0.007803328 0.0018587507 -0.050608158 -0.037126675 0.026433874 -0.0053331773
0.016028853 0.008761322 0.025940493 -0.025486398 0.021808187 0.038801976 0.014310985 0.022914136
-0.009548387 0.045334447 0.0151943825 0.019337544 0.041179348 0.024055932 0.0210978 0.00079155853
-0.038799345 0.004728739 0.041409284 0.041009728 -0.0006394956 0.0035153178 0.012862881 -0.0338485
0.00010199703 0.0150897 0.03894714 0.008530635 -0.023606211 -0.024774887 -0.044948395 -0.018619083
-0.044010676 0.039471216 -0.0064873034 0.0044649774 -0.0056891087 0.046037845 -0.04244152 0.021525456
0.040591426 -0.026820198 0.025714168 -0.04135041 0.029403621 0.03347433 -0.04455788 -0.044565644
0.027753098 -0.045538694 -0.019693822 0.03442618 0.037191436 -0.046502028 0.004844524 0.005440221
-0.047331292 -0.019118361 -0.025571076 0.00890207 -0.05251034 0.04733061 -0.036910683 0.037908576
-0.038851652 0.041884482 -0.020951968 -0.039894044 0.010535645 -0.04749802 0.04170629 0.0053381952
0.03132364 0.00020564257 -0.050945684 -0.0017976165 0.02416659 0.02144649 0.013166837 0.019131238
0.049503274 -0.0029639066 0.045650627 -0.02080551 0.046521433 -0.03623959 0.035675436 0.021063382
-0.024494473 0.005103743 -0.003830427 -0.026621735 -0.0054734587 0.025256133 0.009114889 0.033988703
0.030848717 -0.049151253 0.0025860013 -0.0058404803 -0.018769164 0.04772711 0.004246241 -0.009513033
-0.032939937 0.021534223 -0.03087672 0.032257244 0.011661095 -0.043296427 0.017304027 -0.020930951
-0.023902224 -0.013704161 -0.045494184 -0.023400461 -0.001457402 0.038771316 0.0092086755 -0.017549977
0.049153663 0.037749767 -0.012146188 0.025226789 0.04322305 -0.017727813 0.029348372 0.006346993
-0.009733899 0.010327915 0.010360464 0.0027653023 0.021970334 0.028005613 0.02145449 -0.010425522
0.034373187 0.016173732 -0.014727339 -0.027837403 -0.011304112 -0.038485255 0.010986661 0.027560102
-0.039839257 0.046751406 0.018543715 -0.04921277 0.0031190081 0.036443014 -0.044079453 0.035322424
-0.04505349 -0.052887455 0.04385705 0.03339899 0.021072647 0.0020482813 0.015037338 -0.02049976
-0.053192593 -0.049226675 -0.03344538 0.03458869 -0.045635894 -0.052886058 -0.025907911 -0.053915657
-0.02803682 0.009727128 -0.03471434 -0.043524195 0.010381751 0.008303323 -0.03202791 -0.029087352
-0.038972687 0.008352679 -0.0038824007 -0.010751644 -0.03184622 0.015077408 -0.039509647 0.029769942
0.033000115 0.02243528 0.0030048173 0.036604017 0.0064214123 -0.022431616 -0.007826915 -0.046247095
-0.04202053 -0.007972645 -0.0047102165 -0.047740895 -0.02508183 0.0039211987 0.020768128 -0.0018913698
-0.020672495 -0.025118316 0.03200591 0.0035954127 -0.00036020135 -0.014351527 -0.000937782 -0.05583332
-0.045207985 -0.055231355 0.022714876 -0.03488207 0.030620772 0.01039967 -0.015529629 -0.05146013
0.0059028934 0.026986599 0.02542377 -0.014179088 -0.035569973 -0.046466257 -0.01964831 0.041940182
0.037603315 -0.039372217 0.027500466 0.002157346 -0.011423961 -0.052045908 -0.022607455 0.038111083

encoder.fc1.bias f4 [120]
00000000: 4e2d fc3c b473 37bc 36a7 bfbc 90a3 53bd
00000010: 051d 2c3d 6593 273d 84bb 9d3c feb1 62bd
00000020: 1cf4 8b3c d782 303d 55c6 253d 5fe7 8e3c
00000030: 1b10 8a3c 258f 27bd aa2e 0f3c 7d07 17bd
00000040: 8d1d 813d 0574 b3bb 41fb c8bc 7e4d f33c
00000050: b9b7 1e3d ef35 883d f365 f83c 10ce 15bd
00000060: 5ba3 2abd 6505 3ebd fba6 20bd 4e8a 163d
00000070: 246f 213d aa16 36bd 6bb8 dcbc 953d 4ebd
00000080: 134c 1f3d 4d94 f3bc 205a 82bc 3e09 de3c
00000090: 87b6 08bd cc5c 823c 33c3 70bc e83b 3fbc
000000a0: 5ebf 153d ccdc 113d a2b6 273d b6e6 56bc
000000b0: 4d22 0d3c 875d a0bc 0643 203d c769 233c
000000c0: eb34 babc 347f ca3c ae7d 90bb 6ba9 3abd
000000d0: 6474 28bc 49e0 2ebd d621 40bd a07a f43c
000000e0: 2100 023d 3bc0 9c3b ee31 dd3b e324 3cba
000000f0: 652c fc3b d723 de3c 3bab f33c 58c5 d3bc
00000100: 542c 323d 2693 5d3d ce9e 86bc 32b8 83bc
00000110: 5fc0 8d3b ac83 333c fddb 5abd a065 d43c
00000120: 7b65 d0bb fc05 1dbd fcfc a3bb bc63 4cba
00000130: 417f 18bd a52e 2bbd 5bd5 13bd 8c79 f73c
00000140: d392 1a3c 70ba 0a3d 38ba 8dba 16e6 0e3c
00000150: 7c4e 8e3c f56a 283c eb7d 87bd 0771 db3c
00000160: 10b5 473d 68f1 7abc 1577 16bd 616a d03b
00000170: 65dc 3ebd 32b8 f33c 6d0f f5bc 4540 b9bc
00000180: 07bf b4bc b0f9 18bb b9ba dabb 38c5 683b
00000190: 704b c6bc 12eb 3e3c 1f98 edbc acec ddba
000001a0: 6b5a 063d 1d59 be3c 5df5 803c 403c fabb
000001b0: 443b a5bc b765 4c3c 8bf1 e63c 1a6e 30bd
000001c0: 8bd2 87bc 10dd 02bd 1779 17ba 7856 5c3d
000001d0: 67f9 503c a9e8 7a3c 3c08 e3bc af43 093d
0.030783322 -0.011197019 -0.023395162 -0.051669657 0.042019863 0.04091205 0.019254453 -0.055345528
0.017084174 0.04309353 0.040472347 0.01744431 0.016853383 -0.040907998 0.008739153 -0.036872376
0.063044645 -0.005476477 -0.02453387 0.029700037 0.03874943 0.06650912 0.03032205 -0.03657347
-0.041659694 -0.046391863 -0.039221745 0.03675299 0.039412633 -0.044455208 -0.026943406 -0.050351698
0.03889091 -0.029733801 -0.015912116 0.027104016 -0.033377197 0.01591339 -0.014694977 -0.011671998
0.036559455 0.03561096 0.040945657 -0.013116529 0.008614135 -0.019575847 0.03912642 0.00997395
-0.022730311 0.024718858 -0.0044095134 -0.045571726 -0.010281656 -0.042694364 -0.04690727 0.029843628
0.031738404 0.004783658 0.006750337 -0.00071771274 0.007695722 0.0271167 0.029744735 -0.025850937
0.043499306 0.05409541 -0.016433146 -0.016079042 0.004325911 0.010956686 -0.053432453 0.025927365
-0.0063597537 -0.038335785 -0.0050045233 -0.0007796844 -0.037230734 -0.04179253 -0.036092144 0.030209325
0.00943442 0.033869207 -0.0010812944 0.008721849 0.017371409 0.010279407 -0.06615814 0.026787294
0.04875666 -0.015316345 -0.03673466 0.0063603376 -0.046596903 0.029750917 -0.029914582 -0.022613654
-0.022063745 -0.0023342185 -0.006675091 0.0035517942 -0.024205893 0.011652725 -0.029003201 -0.0016931496
0.032801073 0.023235852 0.015741998 -0.007636577 -0.020169862 0.012475423 0.028191349 -0.04307375
-0.016579887 -0.031949103 -0.00057782367 0.0537934 0.012754775 0.01531426 -0.027713887 0.033511814

encoder.fc2.weight f4 [84, 120]
00000000: 59ad 4abd 3aec 0abb df7e 89bd 9838 fc3c
00000010: 50cc d73c 4305 013d a5ce 0bbd 6a5a 83bd
00000020: 142d 86bd c48c a73d 7513 83bd 77ca acbd
00000030: 17a8 0cbd c430 1abd ddf2 6a3d 0ffb 7dbd
00000040: 5173 9abd c8a7 a4bd 3f44 a1bd cea7 4f3d
00000050: d36b 133c 11de ba3d eefd 87bc 1fab 1c3d
00000060: 2434 233c 9b16 263c b496 67bd 0e0d a03d
00000070: 3db6 83bd 3e5d aebd 6862 54bd 3b92 863d
00000080: c55b 99bd 2c35 4f3d b40f 2a3d 883b 3f3c
00000090: 71f3 1a3c 5153 d23c 2307 123d efb9 99bc
000000a0: 3bc2 ac3c ada0 963d 6a18 91bb 81e7 f53c
000000b0: 2491 0bbd 15c5 3cbd a444 57bd f9e2 b8bc
000000c0: bb26 91bc 4ecc 19bd 77ef fd3c edab a8bd
000000d0: 4d80 81bd e17b 383d 910f 983d 90cb b0bd
000000e0: a0ef 23bd bff6 17bd 2cd7 80bd b3f8 8dbd
000000f0: fec5 af3d f7a7 563d 0435 663d e644 5b3d
00000100: d5c7 903d ce5c 1cbd 0788 b3bd 4c11 4c3c
00000110: f2f7 acbd 712c 59bd 5273 8fbd c66e 9a3d
00000120: 15b5 be3d 59ff 283d 439d 813c f423 36bd
00000130: 17a9 b53c a2df 98bc 2711 003d 8b86 0b3d
00000140: 3d76 6dbd cadc 83bd 573a 4bbd 59c5 453d
00000150: 8bba 833d a532 b63d 4389 bf3c 095f 863d
00000160: 78c7 8f3d 2629 b4bc 4328 4abd fd2b 2e3d
00000170: c607 a13d e7ee a73c 40d8 11bd 4726 503c
00000180: 44fa 1d3d cb50 583d de94 7ebc d902 0fbd
00000190: ef1e ab3d 1493 b63d ec12 5e3d f90a b93d
000001a0: 1a09 e03c 0833 723d 6a90 9b3d 98be 09bc
000001b0: 7b8f 7bbd 798c ba3d 7edd 983d a445 8b3d
000001c0: 31d3 ba3d 4f56 a6bd aa39 1d3c 41a1 85bc
000001d0: dbec 14bd 89c4 883d 50fb 02bd f35d 3c3d
000001e0: 48eb 40bc cfdd b1bc 31e3 223d 5e6a 8c3d
000001f0: d5ca 59bd 5eb8 e93c 2d77 52bd 4163 bd3d
00000200: bff0 8a3c a7cc 82bd 999f 3dbc 0e8e 6abd
00000210: f10e 30bb e671 94bd 184e d0bd 6171 393d
00000220: 0a4b aaba 9df0 9f3c a530 603d 596a 923d
00000230: ecc5 023d eee9 2fbb b71e 853d 2423 ef3c
00000240: 68fa 7abd c216 11bd f550 cbbd 95f2 a2bd
00000250: 5a3b 853c 81be 403a 2d8b 63bd 39ff 903d
00000260: b83c 893d 24ac 16bd 15e9 4fbd d5ce 223d
00000270: cc60 8fbc f924 c6bc 3bbf 4fbb bba1 9ebd
00000280: efdd 503d 22b8 e53c 2af3 b9bd f03b 19bc
00000290: d925 85bd b259 743d 5a71 bebd 1768 89bd
000002a0: bcc3 ffbb e6d9 e63c 26f7 5e3d c441 95bd
000002b0: 40cb b23c 8604 9c3d b38f d8bc df74 bebd
000002c0: af55 b0bd 0b28 7a3d 1aed b1bd 9fc7 a03d
000002d0: c73b ed3b 8bc7 51bd 9ced 693c beaa 793c
000002e0: f6fe 893d 579f 46bd e61b 6c3d 8125 c4bd
000002f0: a6d3 c83c ff38 88bd 1c4c 3b3d 047b 433d
00000300: c0ef 823b 4e91 b93d 835e cfbc 4b49 a7bd
00000310: 885f 36bd 483c 0a3d 1636 0e3d 47f6 8c3d
00000320: fac2 9c3c bcae 5b3d 7130 4f3d eea2 ea3c
00000330: 1172 93bc 1da6 a23d 4dc8 9f3a f96b acbd
00000340: 76b0 bf3c 80bf 9a3c 7443 403c 7135 47bc
00000350: 0695 863d 0921 623d 5d2a 9f3d 2ac2 4cbd
00000360: 252a 07bd b133 01bd f901 12bd 76f7 93bd
00000370: efdb 86bd c641 60bd 47ed 5abd 17a5 943d
00000380: df49 573d 668d 103d 1b12 803c bf97 523d
00000390: 7349 96bd 9ba4 b2bc ab73 f439 1b37 713c
000003a0: 1026 51bd f40c 26bd 4252 df3c f002 503b
000003b0: 562f 513d 7a1f d3bd f04c 573c 02d9 a1bc
000003c0: 4a3f 843c 1b4c 983d 18d1 203d 79a7 b2bc
000003d0: b4ff 993d adeb d9bb e585 4cbd 746e 16bb
000003e0: f325 93bd da4b 93bd 3a50 853a 62ce 1bbd
000003f0: f07d 0c3d 1799 69bb 2e36 54bc a843 5bbd
-0.049481723 -0.002119793 -0.06713652 0.030788705 0.026342541 0.03149916 -0.03413262 -0.064137295
-0.06551567 0.08181146 -0.064001955 -0.084370546 -0.03433999 -0.037644163 0.05736052 -0.062007006
-0.07541526 -0.08039814 -0.07874345 0.05069714 0.008997875 0.09124387 -0.016600575 0.03824913
0.009961162 0.0101372255 -0.056540206 0.0781499 -0.064312436 -0.08513878 -0.05185166 0.0657086
-0.07488207 0.050587818 0.041518882 0.011671908 0.009457455 0.025674494 0.035651337 -0.018765418
0.02108871 0.07354865 -0.004427959 0.030017616 -0.034073964 -0.04608639 -0.052555695 -0.022569166
-0.017718663 -0.037548356 0.030997975 -0.08235917 -0.063232996 0.045040015 0.07424844 -0.086325765
-0.040023446 -0.03710055 -0.06291041 -0.06932201 0.08582686 0.052406278 0.056202903 0.053532504
0.07069365 -0.038174443 -0.087661795 0.012455296 -0.08445729 -0.0530209 -0.070044175 0.075406596
0.093118824 0.041259144 0.015822059 -0.04446788 0.022175355 -0.018661324 0.031266358 0.034063857
-0.05797409 -0.064385965 -0.049616184 0.04828391 0.064320646 0.088963784 0.023380881 0.06561095
0.070204675 -0.021992277 -0.049354803 0.04252242 0.07862811 0.02049966 -0.035606623 0.0127044385
0.03856875 0.052811425 -0.015538422 -0.034914825 0.083555095 0.08914772 0.054217264 0.09035296
0.02734809 0.0591307 0.07595904 -0.0084072575 -0.06141613 0.09108824 0.07464121 0.06800392
0.09122313 -0.08121931 0.009596268 -0.016312243 -0.036358695 0.06678111 -0.03197795 0.045988034
-0.011774845 -0.021712212 0.039767448 0.068562254 -0.05317195 0.028530296 -0.051383186 0.09247447
0.0169605 -0.063866906 -0.011573696 -0.05726438 -0.0026864375 -0.07248287 -0.10171145 0.045274142
-0.0012992334 0.019523913 0.05473389 0.071491905 0.031927034 -0.0026842314 0.06499999 0.029191561
-0.061273962 -0.035422094 -0.09927551 -0.07956425 0.016263653 0.0007352606 -0.05555265 0.0707993
0.06701034 -0.03678526 -0.050759394 0.03974803 -0.017502211 -0.024187552 -0.0031699676 -0.077456914
0.050992902 0.028041903 -0.09079583 -0.009352669 -0.065013595 0.059655853 -0.09298964 -0.06709307
-0.007805316 0.028180074 0.054434918 -0.072879344 0.021825433 0.0761805 -0.026435709 -0.09299635
-0.08610093 0.061073344 -0.08687802 0.07850575 0.007239792 -0.05121569 0.014277842 0.015238462
0.06738083 -0.048491802 0.057643794 -0.09577466 0.024514984 -0.06651496 0.04572688 0.04772474
0.0039958656 0.09060918 -0.025313621 -0.081682764 -0.0445247 0.033748895 0.03471955 0.06882911
0.01913594 0.053633437 0.050583307 0.028642144 -0.017998727 0.0794184 0.0012190432 -0.08419032
0.023399573 0.018890142 0.011734832 -0.0121587375 0.06571393 0.055207286 0.07771752 -0.049989857
-0.032999177 -0.031543437 -0.035646413 -0.07224934 -0.06584918 -0.054750226 -0.05344894 0.07258051
0.052560683 0.035291098 0.015633633 0.051414248 -0.07338228 -0.021807006 0.00046625486 0.014722611
-0.05106169 -0.040539697 0.027260903 0.0031740032 0.051070534 -0.10308738 0.013140902 -0.019756798
0.01614346 0.07436391 0.039261907 -0.021808373 0.075194746 -0.006650409 -0.04993238 -0.0022954019
-0.071849726 -0.07192202 0.0010171004 -0.03803862 0.03429979 -0.0035644227 -0.012952371 -0.05353132

encoder.fc2.bias f4 [84]
00000000: f056 86bc 473a d4bc 643a 0f3c 56c8 75bd
00000010: 0856 aabd 92f2 2fbd f9cb 38bc db60 543c
00000020: 51f9 bd3c e3f6 7ebd 4016 543d 6cd5 ccbc
00000030: bfa8 cdbd 4fca 363d 9239 543c c63b 223c
00000040: 9c79 713d b040 703d 553e babb 23ad 393d
00000050: 029c a63d 4e06 afbd 6014 cf3c 0423 c33c
00000060: 3af6 00bd d432 9d3d 8b62 8abc 8ba4 25bd
00000070: 71b5 a2b8 f848 8c3d 77b1 773d 1d75 e93c
00000080: daea 9fbd 275e c33c 6107 a33d 0fcd ae3d
00000090: c389 a1bc 254d 0b3d a26d 6bbd da69 8bbc
000000a0: 1032 183b c8e4 a6bd 3a27 183d 7153 813d
000000b0: 65b6 3fbc 8f89 4a3d fe48 f53b 5834 afbd
000000c0: 5075 ab3d 208c 2bbd 8a4d 8b3d 7c22 3b3c
000000d0: 2a61 64bd 1da0 9dbc 516e b1bd 16fa f53c
000000e0: 41a6 88bb 17ee 4b3d 0585 91bd a8d0 8a3d
000000f0: 735d 4c3d 84c9 96bd 691a c53d 39c7 17bd
00000100: cff0 6dbd 0c25 1ebd 9435 abbd 0ca4 a0bd
00000110: dce8 13bc 844d 0b3d 0092 f0bc a714 593d
00000120: 930e 3fbc 5b96 cd3c 354e 343d 5ee0 593c
00000130: 7bcf 2dbd aa3e 17bd 1876 7fbd 68ab 05bd
00000140: 32f3 943d f707 6b3d bc00 8e3d aa91 da3c
-0.016398877 -0.025906695 0.008741949 -0.06000551 -0.083171904 -0.042955942 -0.0112791 0.012962545
0.023190172 -0.06224717 0.05177903 -0.025004111 -0.100419514 0.04462653 0.012953179 0.009901946
0.058953866 0.05865544 -0.0056837 0.04533113 0.08135225 -0.085461244 0.02527827 0.023820408
-0.03148482 0.0767571 -0.016892692 -0.040440124 -7.758558e-05 0.06849855 0.060471978 0.028498227
-0.07808466 0.023848606 0.07960392 0.085352056 -0.01971901 0.034009118 -0.0574776 -0.017018247
0.00232232 -0.08149105 0.037146784 0.06314743 -0.011701201 0.049447592 0.007485508 -0.08554906
0.08371985 -0.04188168 0.06801899 0.011421796 -0.055756725 -0.019241387 -0.08663619 0.030026477
-0.0041702096 0.049787607 -0.071054496 0.06778079 0.049893808 -0.07362655 0.09624178 -0.037055228
-0.05809098 -0.03860955 -0.083598286 -0.078437895 -0.009027686 0.03400947 -0.029366493 0.05299821
-0.01166119 0.02509611 0.044019897 0.013298122 -0.042434197 -0.036924995 -0.062368482 -0.03263417
0.07272948 0.057380643 0.06933734 0.026680786

bottleneck.fc.weight f4 [16, 84]
00000000: 51f4 cebd 4f84 05bd c4e0 0bbd 3035 d63d
00000010: 0a8e 09bc 973d 493d ac21 e3bc c113 29bc
00000020: 593a 693c 2156 84bd e6db 85bd eddd 28bd
00000030: afae 7cbd a303 89bc 746b 31bd d016 23bc
00000040: 815a a1b9 8ff8 d03b 4b10 f53c 5624 84bb
00000050: 3ca4 bebd b4e8 e9bd 8616 213d 9093 9f3d
00000060: c462 94bd 0afd 583d 3cca 463d d90a 583d
00000070: 78fb 14bd f671 e0bc 9e28 cfbd 0575 e7bd
00000080: fe1c b5bd 2b87 d3bd f19f a2bd 9d9b ac3c
00000090: 8f0f f73c 2eec c6bd 61c2 ce3d 6cf1 503d
000000a0: a3e1 0cbc 0df7 60bd d252 ecbd b8d7 83bc
000000b0: 6286 97bd c128 4e3d a80d c4bd 2dfb cfbd
000000c0: 99a2 a23d 592d b93d 3d7e 1ebd 88eb b83d
000000d0: 2b21 183d 068c 5f3d bcc4 153d 6bb5 6f39
000000e0: 771a c1bd f7e4 c23d ea5d 3c3d 663e 85bd
000000f0: 5ee7 8b3d 0bd5 39bd 9892 ebbd 0afd d7bc
00000100: d090 bebd 92ab bdbd 5487 87bd 4cd1 2fbd
00000110: 168f 783d bc17 893d a4b7 1ebd 7803 633c
00000120: f644 ddbb 8ef0 c0bb cc26 f3bc 79db 803d
00000130: 77f3 8b3d 790c 693d 13cb bb3d f795 463c
00000140: 6a2e 18bb 8729 ffbb e398 b73c ffcc b03d
00000150: 0cda bc3d 4d7c b5bd cec4 e3bc 6d6a adbd
00000160: 591f ae3d 47b5 a5bd aa28 85bd 95b0 b43d
00000170: d354 853d fdde afbd 7571 c3bd 74b7 d3bd
00000180: da8f 693d f143 90bd 8e61 c5bc c950 24bd
00000190: 5044 88bd fed7 33bc e023 d8bd c1df 633c
000001a0: 645b c5bc f312 c5bd 464c a6bd e2aa 28bd
000001b0: 4604 88bd 22db 1c3d 79ec 0ebd 9e7e 0c3c
000001c0: 19ae 183d bb6d 423d 4379 6fbb a854 5e3d
000001d0: da49 c53d 3027 993d daee 2abc e694 60bd
000001e0: c442 97bc f8d2 8e3d a207 753d d87e d43d
000001f0: d9f2 aabd 5f9d 71bd 3ae9 2cbd da17 22bd
00000200: 401a ba3d 1953 4dbd 2417 2f3d 3e88 b13d
00000210: 3509 443d 69af 0fbc 2001 9abd af3e a5bd
00000220: 68ad ba3d dfa6 3bbd eda5 cfbd 0e31 a73d
00000230: e428 bbbd b399 c23c c5ef fcbc 606e 453c
00000240: 3a0c aebd 9f43 ccbd 5b6b d13d fd0f ccbd
00000250: 8b02 53bd f140 b6bd 5bee 90bd ba18 a5bd
00000260: 1adb b13d e32d cf3d e2cc 61bc ef55 bcbd
00000270: de53 cebd 350a 0abd a9e1 ecbb 825c 2b3d
00000280: 3ca6 9bbd a03c d1bd fe6b 863d 9c78 983d
00000290: b80c 41bd 7f23 c3bd e578 663d b1c1 fe3b
000002a0: a5eb d0bd 1b41 093d a6be 12ba 911e 9cbd
000002b0: 6259 6ebd 981f 9bbc ee7a b43d f42d d3bd
000002c0: 0ca0 8d3c 2486 24bd c063 cebd f92f 783d
000002d0: b44c 043e c465 2a3e ed24 6c3b ffbc 883d
000002e0: ce37 873d 68d4 4bbd c5aa 83bd db3b 393c
000002f0: 2502 e5bd 9bda a2bc 0add 49bd f6ac 883d
00000300: 0fb3 253d 9565 7c3d 5295 27bc 17b3 db3d
00000310: 6d63 783d e236 2dba 8836 81bd 7b7f a6bd
00000320: 9a99 ca3c 58d0 3e3d 1ad3 c73c 6934 413d
00000330: 20b2 d33d 0705 053d 2c2a 91bd d3f8 753c
00000340: 5d12 81bc a490 883c 41ad 213d bea5 16bd
00000350: 65bb 7d3d 4779 bc3d 9432 a43d e0bc 92bd
00000360: 9679 d83d 4da8 063d 9071 393d c568 bb3d
00000370: bb37 c03c 34ef 1abd 0a5e c53d 54a6 01bd
00000380: c063 a63c b36e c63d 91c5 d43d 48ba ccbb
00000390: c68b 58bd e0c7 a73d 8fa9 c9bd d675 e53d
000003a0: ec65 f43c a24c b93d 1aa1 c53d 0881 083c
000003b0: b8a7 803a 3b6a 87bc af80 973d 08a7 403d
000003c0: 94c0 50bd c911 a03b df3c 84bd c56e 1e3d
000003d0: 1807 9ebd 2dfc c1bd b9cf 8c3c a33f bc3d
000003e0: 5d1c a03d a760 ee3b 84fc c3bc 6558 dd3d
000003f0: 38a8 b6bd 1b36 6abc 05fe bc3d 7ead dbbd
-0.101051934 -0.032596882 -0.0341499 0.104593635 -0.008395681 0.049131002 -0.027726017 -0.010319651
0.014235103 -0.0646174 -0.06536083 -0.04122727 -0.06169003 -0.016725367 -0.043315366 -0.009954169
-0.00030775744 0.0063772867 0.029914996 -0.004032652 -0.09308669 -0.11421338 0.03932812 0.07791817
-0.072454005 0.05297569 0.04853271 0.05274472 -0.03637263 -0.02739809 -0.10115169 -0.113016166
-0.088434204 -0.103285156 -0.07940663 0.021070296 0.030158786 -0.097130165 0.100956686 0.051011488
-0.008598718 -0.054923106 -0.11539234 -0.016094074 -0.07398678 0.050331835 -0.09572917 -0.1015533
0.07941169 0.090418525 -0.03869461 0.09029299 0.037141006 0.054576896 0.036564574 0.000228604
-0.09428876 0.09516328 0.045988 -0.06506042 0.06831239 -0.04536919 -0.1150257 -0.026365776
-0.093049645 -0.0926124 -0.06617609 -0.04292421 0.060683332 0.0669398 -0.038749352 0.0138558075
-0.0067526055 -0.0058880514 -0.029681586 0.06291861 0.068335466 0.05689666 0.09169593 0.012120715
-0.0023221024 -0.007786933 0.02241177 0.0863285 0.09221277 -0.08861599 -0.027803805 -0.08467565
0.08502073 -0.080912165 -0.06501897 0.08822743 0.065103196 -0.085874535 -0.095431246 -0.10337725
0.057021953 -0.07044209 -0.02409437 -0.040116105 -0.066536546 -0.0109767895 -0.105537176 0.013908328
-0.02409143 -0.09622755 -0.08120017 -0.04117859 -0.0664144 0.03829492 -0.034893487 0.00857511
0.037275407 0.04746793 -0.0036540783 0.054279953 0.09633227 0.074781775 -0.010432923 -0.0548295
-0.018464454 0.06973833 0.059821732 0.10375756 -0.08347101 -0.05898797 -0.04221461 -0.039573528
0.09087038 -0.050128076 0.042746678 0.08668564 0.047860343 -0.008769848 -0.07519746 -0.080685966
0.09115106 -0.045813438 -0.1013907 0.08163653 -0.09138659 0.02375493 -0.03087605 0.012050241
-0.08498426 -0.09973835 0.102255546 -0.09963987 -0.051516097 -0.08899105 -0.07076713 -0.08061357
0.086843684 0.10116174 -0.013781758 -0.09196078 -0.1007459 -0.03370114 -0.007229049 0.04183627
-0.07600066 -0.102166414 0.065635666 0.074448794 -0.04713127 -0.09528255 0.056267638 0.0077745547
-0.102011956 0.033509355 -0.0005597867 -0.076230176 -0.05819071 -0.018935964 0.088125095 -0.10311499
0.01728823 -0.04016699 -0.100776196 0.060592625 0.12919885 0.16640383 0.0036032752 0.06676673
0.06602441 -0.049763113 -0.06429056 0.011305775 -0.1118205 -0.01987963 -0.049283065 0.06673615
0.040453967 0.061620314 -0.010228472 0.10727518 0.060641695 -0.00066076044 -0.06309229 -0.08129784
0.024731446 0.04658541 0.024392653 0.047169123 0.10336709 0.032475498 -0.07088122 0.015012938
-0.015755827 0.016670533 0.03947187 -0.036779158 0.06194629 0.09202819 0.080174595 -0.07164931
0.10570066 0.032875348 0.045274317 0.091508426 0.023464074 -0.037825778 0.09637077 -0.031652763
0.020311236 0.09689083 0.10389245 -0.0062477924 -0.052867673 0.0819242 -0.09846794 0.11204116
0.029833756 0.0904782 0.09649868 0.008331545 0.0009815609 -0.016530147 0.07397591 0.047034293
-0.050964907 0.0048849327 -0.06456923 0.038679857 -0.07716197 -0.09471927 0.017188894 0.09191825
0.0781791 0.0072747055 -0.02392412 0.108078755 -0.08918804 -0.014295126 0.09228138 -0.107264504

bottleneck.fc.bias f4 [16]
00000000: 52d8 0d3d 6896 fdbb 6923 e0bd 7d0a 8c3d
00000010: 2481 11bb d7db 1e3b c3fc 363a 419c a839
00000020: 6013 9cbc dc20 663a 8e80 c23b 8a09 b73d
00000030: 3688 4bbd 6bb7 7f3d ee5c 943d 8859 72bb
0.034630127 -0.007738877 -0.10944254 0.06837938 -0.0022202218 0.0024239921 0.00069804135 0.00032159875
-0.019052207 0.00087787 0.005935735 0.08937366 -0.049690448 0.06243078 0.072442874 -0.0036979634

decoder.fc3.weight f4 [84, 16]
00000000: b829 913d 80a1 90bd f874 7ebe 801c 783c
00000010: 9ceb bbbd 085f 4fbd 2e5d 5a3e 02e7 2cbe
00000020: 00d6 a33a 6220 403e 200e d6bd d863 2abe
00000030: 5e14 223e 98de acbd 8e12 53be 007e 18bd
00000040: 4c5c c9bd 00bc bdbc 537c 0f3e 55f8 973e
00000050: 74e0 d03d 03fa 34be 8082 12be 15cb c8bd
00000060: 8e4c 543e 1488 b03d 6d5d 643e 92bd ee3d
00000070: 48e0 c2bd 8ed2 0a3e e6dc 14be f097 a63d
00000080: 9ad5 8f3d 68f6 1abd 1d2c 3ebe 1aaa 20be
00000090: 2094 4cbc 3927 293e 4fef 013c 612f 1b3d
000000a0: d832 ac3c bd13 88bd cafc 3dbe e53f 113e
000000b0: 5b03 36be 5ca8 413e f5c4 3a3e 4803 24bd
000000c0: 6b36 c23b c4d2 ecbd f6f9 85bb 5c12 293d
000000d0: 5a65 363e 814e 6b3d a244 e33c 4f88 61be
000000e0: 1918 5abe 973e e7bd 6c7e 14be ce9d 5c3e
000000f0: 03bd b33d 3c22 5ebd 784a bebd b63b 5c3e
00000100: 7846 7a3d bccc 2b3e 63d8 613e 9008 83be
00000110: 762b 6cbe 4aff 723e 8043 aebc 95d2 373e
00000120: e3b0 30be 80e4 443b a8f2 35bd 01de cfbb
00000130: acc8 87bd a552 1cbe aa38 113e c213 4bbe
00000140: 5ad7 363e 4064 323c 4e14 1bbe 0b5e 4fbe
00000150: c0df 5e3d 9752 f7bd 109c d73c fe1e 153e
00000160: b389 083e 4890 a5bd e423 843d fe08 ba3d
00000170: 0416 01be 41ee d83d fc79 2abe 6089 cb3d
00000180: 64fb ac3d 2e44 65be a48b 12be 3a26 6e3e
00000190: 406d 1dbe ca3c 53be 2260 873d 6744 a53d
000001a0: 1854 363d 0cde 02be cdbf 3b3d 8ef8 853d
000001b0: a2e6 4abe 19a4 52bc 0759 273d fc1b fe3d
000001c0: 3459 11be c0d2 6d3d 053e 4bbc 555a 813e
000001d0: 8061 a63b c268 04be 82f9 03be 4ff9 febb
000001e0: 40a9 d7bb 1fef 28bd 6868 eebd bd18 013d
000001f0: a06d 493c e9ee ab3d 5038 173d ecee 28be
00000200: 9d9f 223e c48e 623e 65bb 22be ca36 b53d
00000210: 98e4 84bd 08e3 67be a576 f13d 7f8a f93d
00000220: 0bbd 853d a571 eabc 53b2 453a 4ec4 11bc
00000230: e3a8 26be 28a2 143e be9c b23d 3006 b43d
00000240: 9881 68be dc17 84bd 56ce 533d 7965 1d3b
00000250: d209 6dbe c8ed 993c 44b8 d83d ba91 733e
00000260: f22f 653e e0bb bb3c b8b1 713e 07cd e33c
00000270: 08b9 16bd 20f4 423e 14b4 383e a812 15bd
00000280: 1c95 933d 3468 5b3e f6cf 64be 0397 67be
00000290: e257 42be 5591 fa3d 7987 7c3d 41bb 39bd
000002a0: 9dee 663d 42df a83d b3b4 9bbd d657 3e3e
000002b0: 03a0 e7bd a631 59be 139a 18bd 8ab8 4cbe
000002c0: 8ecd 553e d047 1dbe b14d 3f3e aa51 323e
000002d0: 44c6 ae3d 95ed e33d d84d 8dbd d7ca 713c
000002e0: 165a 69be cc5f 80be 52bb 3e3e 8842 363e
000002f0: 70f5 1f3c 0d3f 823d 6e4c 3dbe 4059 3bbe
00000300: 7b62 5bbe 76ae 473e a400 903e a93d 12be
00000310: 883c b1bd ec63 083e 5054 d63d dd30 8c3d
00000320: 140d 3d3e 79a9 6cbe 95e3 123e bcc9 0abe
00000330: e78e e7bd 8551 893c 05a9 123e bc2b 793e
00000340: e655 693e 341e dbbd 08d3 893e d44a a5be
00000350: 5629 2abe 8d30 113e 786e 793e 17a0 2b3d
00000360: 246c 053e 52e3 703e fa37 48be 71d6 033e
00000370: 00a6 a5bd 7e73 473e dca5 d83d 780f e33d
00000380: 9592 dfbc 3030 5abe 5022 ad3c 27e7 efbd
00000390: e052 92bc 007f 2cbe f6d6 2abe ce5e ff3d
000003a0: 512e ff3d 69d2 c8bc 21ab 323e d7d3 563e
000003b0: 49cc f3bd 76d7 0d3d 3485 6f3e 2415 18be
000003c0: 836e e13d 7a9e 2cbe e0a1 723d 11ed 13bd
000003d0: 70b7 4b3d b582 773e b887 4a3e 1edd 083e
000003e0: 3f59 b4bd ee8e 5bbe 1560 73bd 4b84 a03d
000003f0: 9069 283e 2fb3 25be 19c3 09bd d0df c1bd
0.07088035 -0.07062054 -0.24849308 0.015143514 -0.09175798 -0.05062774 0.21324608 -0.16884997
0.001249969 0.18762353 -0.10451913 -0.1663965 0.15828082 -0.08440894 -0.20612547 -0.037229538
-0.09832057 -0.023160934 0.1401227 0.2968165 0.10199061 -0.17673497 -0.14307594 -0.0980436
0.20732328 0.08619705 0.22301264 0.116572514 -0.095154345 0.13556883 -0.14537391 0.081344485
0.07023163 -0.037832648 -0.18571515 -0.15689889 -0.012486488 0.16518869 0.007930591 0.03788698
0.021020338 -0.0664439 -0.18553463 0.1418453 -0.17774718 0.1891188 0.18239196 -0.04004219
0.0059268973 -0.11563638 -0.0040886356 0.041277274 0.178121 0.057447914 0.027742688 -0.22024654
-0.21298255 -0.11291235 -0.14501351 0.21544573 0.087762855 -0.054231867 -0.092915475 0.21507153
0.06110236 0.16777319 0.22055201 -0.2559247 -0.23063454 0.23730198 -0.02127242 0.17951424
-0.17254977 0.0030043423 -0.04442087 -0.0063436036 -0.06630072 -0.15265901 0.14181772 -0.19831756
0.17855588 0.010888159 -0.15144464 -0.20250718 0.054412603 -0.120763 0.026319534 0.14562604
0.13333778 -0.0808416 0.06452158 0.090837464 -0.12606055 0.10592318 -0.16648096 0.099383116
0.084463865 -0.2238929 -0.14311081 0.2325677 -0.15373707 -0.20628658 0.06610133 0.08069687
0.04451379 -0.12780017 0.045837212 0.06541549 -0.19814542 -0.012856507 0.040856387 0.12407681
-0.14194185 0.058062315 -0.012404923 0.2526423 0.005077541 -0.12930587 -0.12888148 -0.0077811847
-0.0065814555 -0.04124367 -0.11641008 0.031517733 0.012294203 0.08395178 0.03691894 -0.16497391
0.158812 0.22124773 -0.15891798 0.08848341 -0.06488913 -0.226452 0.11790208 0.12184619
0.06530198 -0.028618643 0.0007541526 -0.0088969 -0.16275363 0.14514983 0.087213024 0.08790243
-0.22705686 -0.06449863 0.05171045 0.0024016781 -0.23148277 0.01879014 0.10582021 0.23786059
0.22381571 0.022916734 0.2360295 0.027807726 -0.036797553 0.19038439 0.18037444 -0.036394745
0.07206175 0.21426469 -0.22344956 -0.226162 -0.18978837 0.12234751 0.061652634 -0.045344595
0.056379903 0.08245708 -0.07602825 0.18588194 -0.11309817 -0.21210346 -0.03725631 -0.19992271
0.20879194 -0.15359426 0.1868198 0.17413965 0.0853391 0.111292996 -0.06899613 0.014757833
-0.22788271 -0.25073087 0.18626145 0.17798817 0.009763107 0.06359682 -0.18486187 -0.18295765
-0.21424286 0.19500145 0.2812549 -0.14281334 -0.086541235 0.13319367 0.104653 0.068452574
0.1846202 -0.23111524 0.14344628 -0.13553518 -0.11306553 0.016762504 0.14322288 0.2433309
0.22786674 -0.1069912 0.26918817 -0.32283652 -0.16617331 0.14178677 0.24358547 0.04190072
0.13029534 0.23524216 -0.19552603 0.12874772 -0.080883026 0.1947765 0.1057851 0.11086935
-0.027291575 -0.21307445 0.021134526 -0.11714011 -0.017861784 -0.16845322 -0.16683564 0.124692544
0.12460006 -0.024514394 0.17448093 0.20979248 -0.11904199 0.034629308 0.23390657 -0.14851815
0.110074066 -0.16857329 0.059236407 -0.036114756 0.049735487 0.24170955 0.19778335 0.133656
-0.08806085 -0.21441242 -0.059417803 0.07837733 0.16446519 -0.16181634 -0.033633325 -0.09466517

decoder.fc3.bias f4 [84]
00000000: d4c3 ecbd 7885 84be 5e33 003d d0c5 403e
00000010: 99b3 8cbe 5181 2ebe b239 d03c 0584 313d
00000020: cbde 383e dd3a 31be 6975 e63d d2a7 a3bc
00000030: bda4 6f3e 579c 78be c6db 1a3e c295 6b3e
00000040: bd61 e53b 2d4a 833e bc18 6bbe 63ee 5b3e
00000050: 6cb4 933b 7ee8 803c 03ec b0bd e64c 02be
00000060: 47a9 a7bd a635 e33d a242 193d f246 60be
00000070: 311f 193e 2ed4 173d b9ac c2bd 4c1c 503e
00000080: 5b0f c43d cbb0 ea3c 1a41 f03d 640d d3bd
00000090: 4b3b 623e fbd7 e13d cc8e 3a3d 5d25 163e
000000a0: 5d7e 893e f27d 873e 9d55 133e 234e 78bb
000000b0: 2d5d 87be 0643 50bd 16f7 1a3e 93ac 393e
000000c0: 4207 143e fe8e 76bd aa82 8f3d 8b06 1f3e
000000d0: e0e2 16be 5a37 0fbe 4e63 f2bd 3ef1 a3bd
000000e0: fa86 e6bd 39da 003e a3f0 65be c519 033e
000000f0: 94d1 d0bd 3c71 6b3e caf1 143d f688 0cbc
00000100: 0353 0dbe 894f 50be 6ced 4ebe e235 4a3c
00000110: 94d1 53be 5a1d 563b b5ea 5d3e a5f5 3fbe
00000120: 9a14 873d 0cd8 733e 96fa 543d b86a 9e3d
00000130: 8443 213e 9d40 9b3d 8331 3cbe d87c 16be
00000140: ffc0 8a3d 200c 343c fff5 c33d 4ee8 12bd
-0.11560789 -0.2588308 0.031298988 0.1882546 -0.27480772 -0.17041518 0.025418136 0.043338794
0.18053739 -0.17307611 0.11252863 -0.019977484 0.23402686 -0.24278389 0.151229 0.23006347
0.0070001767 0.2564253 -0.22958654 0.21477656 0.004507592 0.01573586 -0.08638766 -0.12724647
-0.08186584 0.11094217 0.03741706 -0.21902063 0.14953305 0.037067585 -0.095056005 0.20323294
0.09573241 0.028648755 0.11731167 -0.103052884 0.22092931 0.11027523 0.045546338 0.1466269
0.2685422 0.26463276 0.14388128 -0.003788837 -0.26438275 -0.05084517 0.15133318 0.18132238
0.14455894 -0.06019496 0.07007344 0.1552984 -0.14734983 -0.13985959 -0.11835347 -0.08004998
-0.112562135 0.12583245 -0.22455077 0.12802799 -0.10196224 0.22992414 0.0363634 -0.008577576
-0.13801198 -0.2034284 -0.20207757 0.012341948 -0.20685416 0.0032671303 0.21671565 -0.1874605
0.06595726 0.23812884 0.05199679 0.07735199 0.15748411 0.075806834 -0.18378262 -0.14696062
0.06775092 0.010989219 0.095684044 -0.035866074

decoder.fc2.weight f4 [120, 84]
00000000: 54ae 9f3d 70a9 e53c 65db 863d 3168 f63c
00000010: 928d 89bd 52e0 7f3c a26c 5ebc 95c2 90bc
00000020: 2ed6 b33d e24b babd 20aa babd 36f9 aa3d
00000030: 582e 51bd 45e1 55bc 5a0c 84bb bdc6 843c
00000040: 92bc b6bd 7a67 a13c 37d7 fdbc c792 dabd
00000050: 1e6d 5cbd ff0a fb3c e23c 10bd 9a7b c83d
00000060: 98dc 0b3d 4d2f 503d 3125 90bc 1ebf 70bc
00000070: 5b07 ba3c b5b0 b5bc fb4d 643d c94a 4b3c
00000080: 1024 d0bd 2fbb 35bb f8c3 abbd a3f4 1d3d
00000090: 2d4c a6bd a3de 833c 6c75 c6bd 495d b83c
000000a0: aebb b33a 427d 25bc ee49 e0ba 3b6f 8d3c
000000b0: 63fd 1a3d d0f7 6bbd e97e 2d3d 9f1a 103d
000000c0: d740 893d 6d4c c63d 7f54 8c3d ff75 53bd
000000d0: c2fe dbbd c0b3 b93c 7eca 10bd a665 853d
000000e0: 82db bdbc dc7c 7dbd ebcd 2dbc 7327 76bd
000000f0: 6781 873d 1a78 44bd 3be2 edbc 39e6 933b
00000100: d1d4 9fbd 9dba ab3b 987b 4d3d 4bae b93c
00000110: 5c1b 55bd 4906 703d 4d67 803d 49cd 9e3d
00000120: 77c0 d9bd 65c1 8ebd 976b 53bd 10a2 ab3c
00000130: 3cce 20bd 8dc2 c5bb 5044 9abd 4f06 cd3d
00000140: b8bb 1e3c 87be bdbd 72d9 f73c 2224 8a3d
00000150: 56d9 c23b 38f7 d4bd 5647 de3d 65cc cfbd
00000160: 25b2 afbc c755 313d aace 6abd 4133 443d
00000170: 869e da3d 86a0 2bbd 3816 543d 572b 303d
00000180: 56ae 8fbd 0f89 063c 3578 dbbd 83ae af3d
00000190: 4347 b0bd cebb c8bd 8a47 e53c 1a3e 793d
000001a0: 5779 a9bd b2a9 4c3d cad3 46bd 3efe 653c
000001b0: 223f 3d3d 7cd8 ca3c 687c 4a3d 61ec 6dbc
000001c0: 387b cbbd e6fb d9bd 094f b73d 557d 3ebd
000001d0: 4684 07bd eea0 ca3d e494 a0bc c4ad b23d
000001e0: b521 523c 3356 ea3c 7795 63bc 0cb8 42bd
000001f0: 7dd9 843d 169c 2abd ce82 433b 009d 173d
00000200: 13d0 3e3c 3061 90bd 5ff0 87bc 7f48 a0bd
00000210: 52d9 c93d 0341 333d 2b74 a23d 6274 933d
00000220: bc48 073d 53e0 b13d f9f6 2fbd c725 1dbb
00000230: 7ac0 18bd 4af2 98bc d330 df3d 17df 713d
00000240: 9828 5c3d 7e7e d13d a049 e6bd 572f 4abd
00000250: bf53 01bd 9bf8 a83d 456d cebd 9f8f aebc
00000260: 3711 5d3d 2b0d c3bc 41b2 b93c 10cd b1bd
00000270: 93d8 e1bd 1d3f df3d 80e2 71bd 93d8 d9bc
00000280: 7b6c 333d 3ffb 933b f4c6 99bd 2b1f d9bd
00000290: 4733 343d fbf6 803d 614f a7bc b65c 1d3d
000002a0: f4b1 4abd aca6 ee3b 67fb 94bd 5dd8 3fbd
000002b0: b7f5 243d 8193 fabd 4132 9f3d 591d b73d
000002c0: 5bbe af3c 64ff 41bc c857 ee3d 0a31 01bc
000002d0: 252b ab3c e043 c4bd c606 703d 6e64 6b3d
000002e0: f919 00bd 72f6 87bd 3ff1 483b 382e c93d
000002f0: 9c63 96bd f4d9 4fbd 5ada 8dbb a872 1e3d
00000300: 674c 59bc 1e24 7abd 115d 8cbc c53e 6e3d
00000310: 0134 953d 656b 583b 0dec 533c 26e2 98bc
00000320: d1fd 703d 7fab 8bbd c380 80bd 8488 a83c
00000330: 4b6d fd3d 07a8 d43d ab17 38bd 26f4 9c3d
00000340: 0b2e ed3d 2d84 e73d 4cb0 6ebd c153 14bd
00000350: 94f7 2abd 5bcf ba3c ceee 09bd b671 7f3d
00000360: 227f 5e3d 88e7 003d befa ffbc 082b 523e
00000370: 4049 2bbd c8a5 6b3d f784 b73d 3895 04bd
00000380: 9a92 75bd f147 2cbc ad38 cbbd 1a10 e43c
00000390: aabe 8dbc c053 3abd 6b7e 933d 8506 8c3d
000003a0: 2b6b dc3d 561b 523d 280d 96bd 1a87 c6bc
000003b0: ee06 d6ba 5bd7 89bc 1e09 a9bd d6b2 f33c
000003c0: ef4c b0bd fdb2 c23c 2b28 e13d de60 9a3c
000003d0: 2275 903d 61fd acbd d393 edbc 7d90 44bc
000003e0: 82a4 7b3b e66a b5bd 7c06 963a 1cba 0dbc
000003f0: d0d2 823d d4b3 bcbd 7513 94bd 150e 583d
0.07796922 0.028034896 0.06584815 0.03007898 -0.067164555 0.015617447 -0.013575705 -0.017670909
0.08781086 -0.09096505 -0.0911448 0.083483145 -0.051069587 -0.013054197 -0.0040297927 0.016208047
-0.08922686 0.019702662 -0.030986411 -0.10672527 -0.053815 0.030644892 -0.035214312 0.097892
0.03414592 0.05082636 -0.01759586 -0.014694003 0.022708585 -0.022178987 0.05573843 0.012407967
-0.101631284 -0.0027729978 -0.083869874 0.038563382 -0.08119998 0.016097372 -0.09690365 0.02250542
0.0013712549 -0.010100665 -0.0017111877 0.017264953 0.037839305 -0.05760938 0.04235736 0.035181638
0.0670182 0.09682546 0.06852054 -0.0516262 -0.107419506 0.02266872 -0.03534936 0.065135285
-0.023175959 -0.061886653 -0.010608177 -0.060096215 0.066164784 -0.0479661 -0.02903854 0.0045135287
-0.078042634 0.005240752 0.050166696 0.022666117 -0.052028045 0.058599744 0.06269703 0.07753999
-0.10632413 -0.06970481 -0.051616278 0.0209513 -0.03925918 -0.006035155 -0.07532561 0.10010969
0.00968831 -0.09264856 0.030255053 0.06745173 0.0059463186 -0.10398716 0.1085345 -0.10146407
-0.02144725 0.043294694 -0.057325996 0.047900442 0.10674767 -0.041901134 0.051779002 0.043010082
-0.07015674 0.008211388 -0.10716287 0.08578207 -0.08607342 -0.09801446 0.027988214 0.06085024
-0.08275097 0.04996652 -0.04854182 0.014037667 0.046202786 0.02476143 0.04943505 -0.014521689
-0.099356115 -0.10643749 0.08950622 -0.046506245 -0.03308513 0.09893976 -0.019602247 0.087245494
0.012825419 0.028605556 -0.013890616 -0.047538802 0.06486795 -0.04165276 0.0029832604 0.03701496
0.011646288 -0.07049787 -0.01659411 -0.078263275 0.09855904 0.043763172 0.079323135 0.07199933
0.03302835 0.086853646 -0.04296014 -0.0023978816 -0.037292935 -0.01867022 0.10897984 0.059050646
0.05374965 0.102292046 -0.112445116 -0.049361553 -0.031574007 0.08250543 -0.10079435 -0.021308718
0.053971495 -0.02380999 0.022668006 -0.08681691 -0.110276364 0.1090071 -0.059053898 -0.026592528
0.043804627 0.004516035 -0.075086504 -0.10601648 0.043994214 0.06297108 -0.020423593 0.038418494
-0.049486116 0.0072830524 -0.07274514 -0.0468372 0.040273394 -0.122351654 0.07773257 0.089411445
0.021453073 -0.011840675 0.11637837 -0.007885227 0.020894596 -0.09583259 0.05860021 0.057468824
-0.03127477 -0.066388026 0.0030661372 0.09823269 -0.07343218 -0.050744966 -0.004329008 0.038683563
-0.013262845 -0.0610696 -0.017134221 0.05816533 0.072853096 0.0033022997 0.012934697 -0.018662523
0.05883581 -0.0681982 -0.06274559 0.020572908 0.123743616 0.10383611 -0.044944447 0.07663755
0.115810476 0.113045074 -0.0582736 -0.036212686 -0.041740015 0.022803953 -0.033675008 0.062364303
0.054320462 0.031470805 -0.031247493 0.20524228 -0.041817904 0.05753115 0.08960908 -0.03236887
-0.059954263 -0.010515199 -0.099229194 0.02783971 -0.01730283 -0.045490026 0.07201847 0.06837181
0.10762628 0.0512956 -0.07326728 -0.024234343 -0.001632897 -0.016826322 -0.08253692 0.029748362
-0.08608424 0.023766989 0.109939896 0.018845018 0.07053591 -0.08446766 -0.029001152 -0.011997339
0.0038397615 -0.0885828 0.0011446024 -0.008650329 0.063878655 -0.09213987 -0.07230274 0.052747805
