tutorials/W1D2_ComparingTasks/RR/models/ConvNet_inpainting_10_epoch_8.pth (torch, 506410 bytes, 19 tensors)

encoder.conv1.weight f4 [6, 1, 5, 5]
0	0x3e23b457	0.15986763
1	0x3e2efc18	0.17088354
2	0xbd244171	-0.040101472
3	0x3e412dcc	0.18865126
4	0xbd2221c1	-0.03958297
5	0x3d435104	0.047684684
6	0xbdb85860	-0.09001231
7	0x3dffcea3	0.12490585
8	0x3e3c0a58	0.18363321
9	0xbe116703	-0.14199452
10	0x3e396a37	0.18106924
11	0x3d372474	0.0447125
12	0x3e1ec71d	0.15505643
13	0x3cffc676	0.031222563
14	0x3dcacf03	0.099027656
15	0xbcabcff2	-0.02097318
16	0x3e252890	0.16128755
17	0x3d164d79	0.036694977
18	0xbdb85338	-0.09000248
19	0x3d5432ba	0.05180619
20	0xbdadaf10	-0.08480656
21	0xbc8619c4	-0.016369708
22	0xbd97e266	-0.07416229
23	0x3e0bde26	0.13658962
24	0xbe22c65b	-0.15895979
25	0xbdb77751	-0.08958305
26	0xbd59f075	-0.053207833
27	0xbdebc622	-0.115124
28	0x3cd2d44b	0.025735995
29	0xbe42a102	-0.19006732
30	0x3e3cca4e	0.18436548
31	0xbe278a41	-0.16361333
32	0x3e25c503	0.16188435
33	0x3d277f7c	0.040893063
34	0xbd6b91d1	-0.05751211
35	0x3e01330e	0.12617132
36	0x3d1d0d0d	0.038342524
37	0x3e2d5dc6	0.16930303
38	0x3cef9e7e	0.02925038
39	0xbd6f966c	-0.058493063
40	0x3d6d9ef2	0.05801291
41	0xbd3ff672	-0.046865888
42	0x3dbc2c45	0.09188131
43	0x3e3ecb19	0.18632163
44	0x3df6e9e5	0.120563306
45	0xbdaaef71	-0.08346451
46	0x3dfbaaef	0.12288462
47	0x3d30a833	0.043129157
48	0x3ddf85de	0.10914205
49	0xbdea1596	-0.114298984
50	0xbe50c0e0	-0.20386076
51	0xbda51a61	-0.08061672
52	0xbe1e887b	-0.1548175
53	0x3e27c8f5	0.16385253
54	0x3d83b3f9	0.064308114
55	0x3da22f2f	0.07919156
56	0x3d7ff720	0.062491536
57	0xbb17602c	-0.0023098094
58	0x3e22c2cd	0.15894623
59	0xbe0a3c01	-0.13499452
60	0x3c23f82e	0.010007901
61	0xbe0c6a4b	-0.13712423
62	0x3d80934b	0.06278094
63	0xbd866c35	-0.065636076
64	0x3d8a0b13	0.067403935
65	0xbd31021a	-0.043214895
66	0x3e29c691	0.16579653
67	0xbdf0b5a7	-0.117533974
68	0xbdefc3a2	-0.11707236
69	0xbdf7aa78	-0.12093061
70	0x3e379a2d	0.17929907
71	0x3d8a111d	0.06741545
72	0x3e4a0661	0.19728996
73	0xbe230714	-0.15920669
74	0xbe49f78b	-0.19723336
75	0xbe1d8f16	-0.15386614
76	0xbe05b258	-0.13056314
77	0x3dac5b71	0.084158786
78	0x3d960674	0.073254496
79	0x3e2b826b	0.1674897
80	0xbddc28af	-0.10749947
81	0xbe0b7f3d	-0.13622756
82	0x3ddfa202	0.109195724
83	0xbda2c515	-0.07947747
84	0x3dfa4e03	0.12221911
85	0xbd2eb904	-0.042656913
86	0x3df17c6e	0.11791311
87	0xbe1bfe6b	-0.15233772
88	0xbdcba8ea	-0.09944327
89	0x3d78b9c5	0.06072404
90	0x3d47333f	0.048632856
91	0xbd332d99	-0.043744657
92	0x3dfd2cce	0.123620614
93	0x3e0d69bd	0.13809867
94	0xbe14561b	-0.14485972
95	0xbdce3caa	-0.100701645
96	0x3e42c854	0.19021732
97	0xbd8353c0	-0.064124584
98	0xbd8d318c	-0.06894216
99	0xbe47d5b6	-0.19515118
100	0xbdf91cd5	-0.121637024
101	0x3d325871	0.043541376
102	0xbd0768ed	-0.03305905
103	0xbe1c0b56	-0.152387
104	0x39841a2a	0.00025196496
105	0xbe12ef74	-0.14349157
106	0xbe344e44	-0.17607981
107	0xbdef800d	-0.116943456
108	0xbe3a828f	-0.18213867
109	0xbe09c278	-0.1345309
110	0x3e466be1	0.1937709
111	0x3d0238e8	0.03179255
112	0x3d60034e	0.05469065
113	0xbe465728	-0.19369185
114	0xbe0deae1	-0.1385913
115	0xbd9233a3	-0.07138755
116	0x3cd6e8a5	0.02623398
117	0xbe3b1865	-0.18271025
118	0xbdbf1368	-0.09329873
119	0xbe01f763	-0.12692027
120	0xbb7e0434	-0.003875983
121	0xbda15e11	-0.0787927
122	0xbca3dbad	-0.02000221
123	0xbe11d470	-0.14241195
124	0xbe136710	-0.14394784
125	0xbdf1fba4	-0.11815575
126	0xbd95d35b	-0.073157035
127	0xbe23c6c1	-0.15993787
128	0x3e302099	0.17199935
129	0xbd160577	-0.036626305
130	0x3e2f3d95	0.17113335
131	0x3d86c6b2	0.06580867
132	0xbe2891da	-0.16461888
133	0x3e124f57	0.14288078
134	0xbd589a29	-0.052881394
135	0xbda17abc	-0.07884738
136	0xbe27abb6	-0.16374096
137	0xbe48ab9e	-0.19596717
138	0x3d77a5fd	0.060461033
139	0xbd277901	-0.040886883
140	0x3d964c4a	0.0733877
141	0xbe2e8792	-0.17043903
142	0x3e19282c	0.1495673
143	0xbe13bdaa	-0.1442782
144	0xbd03ab8f	-0.032146033
145	0x3d343624	0.043996945
146	0x3dd71646	0.10502295
147	0x3e28516c	0.1643731
148	0x3e3e775c	0.1860022
149	0xbe1ebc7c	-0.15501589

encoder.conv1.bias f4 [6]
0	0x3d6cc06a	0.057800688
1	0xbda06250	-0.078312516
2	0xbc713e39	-0.014724308
3	0xbe15d21e	-0.14630935
4	0x3e418b88	0.18900883
5	0xbe170402	-0.14747623

encoder.conv2.weight f4 [16, 6, 5, 5]
0	0x3d48d6d3	0.049032997
1	0x3d0bd28d	0.034136344
2	0x3cdfcd2d	0.027319515
3	0xbd486ef6	-0.048933946
4	0x3d8ff395	0.070288815
5	0x3cb82f92	0.02248362
6	0x3c7244bb	0.014786894
7	0xbd8c0044	-0.06835988
8	0x3ceb3fb5	0.028716901
9	0xbc878df4	-0.01654718
10	0xbd068fa8	-0.032851845
11	0x3d998474	0.074959666
12	0x3cb03ea9	0.021514254
13	0xbd30d94c	-0.04317598
14	0xbd3ccf30	-0.046096027
15	0x3ade0767	0.0016939462
16	0x3d4e7a09	0.05040935
17	0xbc8e4df5	-0.017371157
18	0xbd34e540	-0.044163942
19	0xbd0d171d	-0.03444587
20	0xbd605713	-0.05477054
21	0x3d0d6699	0.034521673
22	0x3d8aa520	0.06769776
23	0xbd9667b5	-0.07343999
24	0x3c629691	0.013829843
25	0x3d3f0be6	0.046642207
26	0x3c9af31d	0.018914754
27	0xbcf21054	-0.029548801
28	0x3d1a7895	0.037712652
29	0x3d1c9c47	0.038234975
30	0x3cf59aad	0.029980982
31	0xbc35f2a9	-0.011105218
32	0xbc8dd770	-0.017314643
33	0x3c552ae0	0.0130107105
34	0xbc8b85de	-0.017031606
35	0xbcc05f44	-0.023482926
36	0x3d62fd56	0.05541738
37	0x3d971596	0.07377164
38	0xbc062be7	-0.008189178
39	0xbcc1588a	-0.023601789
40	0x3be2f7e7	0.006926525
41	0xbb8e0977	-0.0043346244
42	0x3cbd2a46	0.023091447
43	0x3cbef364	0.023309417
44	0xbd9df687	-0.07713037
45	0xbcc0af36	-0.023521047
46	0x3d918fb1	0.07107485
47	0x3d0dd17c	0.034623608
48	0xbb9517b7	-0.004549946
49	0xbd5b87af	-0.053596195
50	0xbd5c471d	-0.053778756
51	0xbd8a0cac	-0.06740698
52	0xbcb28598	-0.021792218
53	0x3d05a350	0.03262645
54	0x3d53c566	0.051701926
55	0x3d29faca	0.041498937
56	0xbd9630a8	-0.07333499
57	0xbd35aec5	-0.044356126
58	0xbbf0d521	-0.0073496257
59	0x3da9825f	0.082768194
60	0x3c9cde2c	0.019148909
61	0xbc9c2b1b	-0.019063523
62	0x3d1e16cd	0.038595963
63	0xbcd5b55f	-0.026087461
64	0xbd517abb	-0.051142436
65	0x3d78045b	0.06055103
66	0xbd039d0b	-0.03213219
67	0xbc1bd31e	-0.0095107835
68	0xbda1a55c	-0.07892868
69	0x3d71328c	0.058886096
70	0x3d764269	0.060121927
71	0x3d1397e2	0.03603352
72	0xbd511a27	-0.05105033
73	0xbd9ba93e	-0.0760064
74	0xbd7c1e23	-0.061552178
75	0x3d796e11	0.060895983
76	0x3d1587f7	0.03650662
77	0x3d887d0b	0.06664475
78	0x3d336f3b	0.04380725
79	0x3cb00c76	0.021490317
80	0x3b9d2f4e	0.004796899
81	0xbd8956d5	-0.06706015
82	0xbd91bdeb	-0.07116302
83	0xbda1105e	-0.0786445
84	0x3d0000bb	0.031250697
85	0xbd0d714f	-0.034531888
86	0xbc807bea	-0.015684087
87	0xbd22f61c	-0.03978549
88	0xbc681b0e	-0.014166607
89	0xbd72fb7a	-0.059321858
90	0xbd5ca474	-0.053867772
91	0x3d01c7dc	0.03168474
92	0xbc9814d4	-0.01856462
93	0x3d42c4f4	0.04755111
94	0xbce91334	-0.02845154
95	0xbd7ccee8	-0.06172076
96	0xbc21aaf1	-0.009867416
97	0xbd17f59e	-0.037099473
98	0xbcd061e7	-0.025437308
99	0xbd9dd5ad	-0.07706771
100	0x3d3a1742	0.045432337
101	0xbd6cbf0c	-0.057799384
102	0x3d32ed65	0.04368343
103	0x3d315bc4	0.043300405
104	0x3d84b4b9	0.064797826
105	0xbd81f400	-0.063453674
106	0x3d6b5bd6	0.05746063
107	0xbd184b2e	-0.037181072
108	0x3d1689ed	0.03675263
109	0x3daa8db9	0.08327813
110	0xbc5c6689	-0.013452181
111	0xb9f7cac4	-0.00047262583
112	0xbc8fad34	-0.017538644
113	0xbd83ca2b	-0.06435045
114	0x3d2d9db9	0.042386744
115	0xbdaac24b	-0.0833784
116	0x3d52ac6e	0.051433973
117	0x3d7fecc1	0.062481645
118	0x3da25cd7	0.07927864
119	0xbc825700	-0.015910625
120	0xbd8e86c5	-0.06959299
121	0x3c97393c	0.018459909
122	0x3d43b803	0.04778291
123	0xbda24bd1	-0.07924617
124	0xbc777df6	-0.015105715
125	0xbd5542b3	-0.052065562
126	0xbc2ea81d	-0.0106601985
127	0xbd0bd524	-0.034138814
128	0xbcec1149	-0.028816836
129	0xbcdfefaf	-0.02733597
130	0xbd9bf9ae	-0.07615982
131	0x3d862914	0.06550804
132	0x3d952896	0.07283132
133	0xbc4f4c9b	-0.0126525415
134	0xbc5be532	-0.013421344
135	0xbd057239	-0.032579634
136	0xbd8bdc87	-0.06829172
137	0xbda729af	-0.081622474
138	0x3d0158b9	0.031578753
139	0xbd4b8695	-0.049688894
140	0xbd55036b	-0.052005213
141	0x398c363e	0.00026743294
142	0xbcdaeb2e	-0.02672347
143	0xbcdb45b0	-0.026766628
144	0x3bdd4a8d	0.006753272
145	0xbc4e8569	-0.01260505
146	0xbcb15314	-0.02164606
147	0xbd0552ff	-0.032549854
148	0xbd8a744e	-0.067604646
149	0x3d8903c9	0.06690175
150	0xbce056b2	-0.02738509
151	0x3cd3cf81	0.025855782
152	0xbcd4c921	-0.025974812
153	0x3b50c3d9	0.0031855016
154	0x3d91e9e9	0.07124693
155	0x3d314788	0.04328111
156	0xbd87def1	-0.066343196
157	0x3d074782	0.03302718
158	0x3d9cb58a	0.07651813
159	0x3ca4aa17	0.020100636
160	0x3d7553ba	0.0598943
161	0x3da88664	0.08228758
162	0xbc8b1e5e	-0.016982254
163	0x3c3a4348	0.01136858
164	0xbd6bbaeb	-0.057551306
165	0xbc40f60e	-0.011777414
166	0x3d7d86f4	0.06189628
167	0x3d10f42c	0.03538911
168	0xbd6daef9	-0.058028195
169	0xbd8a96fb	-0.067670785
170	0xbd4fe5bf	-0.050756212
171	0xbd9fc09c	-0.07800409
172	0xbd883672	-0.066510096
173	0xbcdaf5aa	-0.02672847
174	0x3d53df35	0.05172654
175	0x3c9ca6ca	0.0191225
176	0xbd759181	-0.059953216
177	0xbd7c222e	-0.061556034
178	0x3d2aded3	0.041716408
179	0xbd6ddfbd	-0.0580747
180	0xbbc548f2	-0.0060206586
181	0x3d203d7a	0.03912113
182	0xbd21dbc0	-0.03951621
183	0xbc384f6b	-0.0112494035
184	0xbb921cc1	-0.004458994
185	0xbc735bf7	-0.014853469
186	0xbd395576	-0.045247518
187	0xbda1c9bc	-0.07899806
188	0xbd91981a	-0.07109089
189	0xbd38a73a	-0.045081355
190	0x3dab4b8e	0.0836402
191	0xbd188dd4	-0.037244633
192	0xbd78909b	-0.06068478
193	0x3c672815	0.014108677
194	0x3c9ec5b3	0.01938138
195	0x3d4a2a91	0.049357
196	0x3d8504b0	0.06495035
197	0x3d3d04b4	0.046147063
198	0xbdb33eb5	-0.08752195
199	0x3ac6c482	0.0015164765
200	0x3d5ff54e	0.0546773
201	0xbb2b18cc	-0.002610731
202	0xbd468b69	-0.048472796
203	0x3d9f09c4	0.077655345
204	0xbd05e196	-0.03268584
205	0xbd28ff2d	-0.04125898
206	0xbd8dce8a	-0.0692416
207	0x3ba77ecd	0.0051115514
208	0x3cfc5ccc	0.030805968
209	0x3c854e39	0.016272651
210	0x3cae414a	0.021271367
211	0xbd6bef46	-0.057601236
212	0xbd97b858	-0.07408208
213	0xbaa40602	-0.0012513997
214	0x3d984804	0.07435611
215	0x3d52c41d	0.05145656
216	0xbd2f66b2	-0.042822547
217	0xbbefa8fd	-0.007313846
218	0xbd698683	-0.057013046
219	0xbd197110	-0.03746134
220	0x3ca4e265	0.020127485
221	0x3d489893	0.04897363
222	0x3d9230e9	0.07138235
223	0xbd8f58f3	-0.069993876
224	0x3d73faf2	0.059565492
225	0xbd5a4ddc	-0.05329691
226	0x3cef77a7	0.02923186
227	0x3d870059	0.06591863
228	0xbbb354e1	-0.005472765
229	0x3d89f8f6	0.06736939
230	0xbd8b418c	-0.067996114
231	0xbce9e9ad	-0.028553808
232	0x3d38d40e	0.045124106
233	0xbcba9618	-0.022776648
234	0xbcb25eb9	-0.021773683
235	0xbd0ea2be	-0.03482317
236	0x3d6b1870	0.057396352
237	0x3d25f69f	0.0405184
238	0x3cc97ccb	0.024595639
239	0xbd2a9a8e	-0.0416513
240	0xbd8af457	-0.067848854
241	0x3b92bf0b	0.0044783405
242	0x3cb121d4	0.021622576
243	0xbd0889b7	-0.03333446
244	0xbc8fa9c7	-0.01753701
245	0x3d6470a2	0.055771478
246	0xb9838eda	-0.000250927
247	0xbb202c23	-0.002444037
248	0xbc9f773a	-0.019466031
249	0xbd8cfeb4	-0.06884518
250	0xbd95deba	-0.07317872
251	0xbd08ae9a	-0.033369638
252	0xbd136e7d	-0.03599404
253	0x3cff4f65	0.031165788
254	0xbc92b66d	-0.017909253
255	0xbcdec2a9	-0.02719243

encoder.conv2.bias f4 [16]
0	0xbb246d8b	-0.0025089707
1	0x3d18d7d1	0.037315194
2	0x3d166cd4	0.03672488
3	0x3ba25e90	0.0049551204
4	0xbd0dd495	-0.034626562
5	0x3d558512	0.05212886
6	0x3d779c0a	0.060451545
7	0x3ca0863a	0.019595254
8	0xbd105d91	-0.035245482
9	0x3cc06471	0.023485394
10	0x3bceec53	0.006314793
11	0x3da88e3c	0.08230254
12	0x3c4baa8f	0.012430801
13	0x3c25e9c7	0.010126538
14	0x3a4e0642	0.0007859209
15	0x3d33ba52	0.04387886

encoder.fc1.weight f4 [120, 400]
0	0x3b1e67c6	0.002417074
1	0x3d2c29d5	0.04203208
2	0x3ce6b969	0.028164582
3	0xbd1e2649	-0.03861073
4	0x3a2e44f6	0.0006647849
5	0xbd31796e	-0.043328695
6	0xbd2686a2	-0.04065574
7	0x3c4d717a	0.012539262
8	0x3c398c64	0.011324976
9	0x3a894de8	0.0010475488
10	0x3d5b356e	0.05351775
11	0xbca648f0	-0.020298451
12	0xbc83b668	-0.016078189
13	0xbba9ee3f	-0.005185872
14	0x3b3b8e12	0.0028618616
15	0x3af66b8a	0.001880036
16	0x3d4eea7c	0.05051659
17	0xbc9158fb	-0.017742625
18	0xbcc33564	-0.02382917
19	0x3bd17b09	0.0063928408
20	0x3d2ef37a	0.042712666
21	0x3c340637	0.01098781
22	0x3d043881	0.03228045
23	0x3c7538df	0.014967172
24	0x3d39db31	0.045375053
25	0x3cf603f3	0.03003118
26	0x3d06f1e5	0.032945532
27	0xbbfa3f36	-0.00763693
28	0xbd253ed6	-0.04034313
29	0xbc933557	-0.01796977
30	0x3c6ff638	0.0146461055
31	0x3d22307f	0.03959703
32	0xbc662ac4	-0.014048282
33	0x3d300ec7	0.042982843
34	0x3bc4572d	0.0059918375
35	0x3b96fe6a	0.0046079652
36	0x3bae0fda	0.0053119482
37	0xbc3b11f7	-0.011417857
38	0x3d569999	0.052392576
39	0x3b108d2c	0.0022056801
40	0x3d0172bb	0.031603556
41	0xbd3145d7	-0.043279495
42	0xbcae9728	-0.021312311
43	0x3c44a1b5	0.012001445
44	0x3d2cdd2d	0.042203117
45	0x3cc67463	0.02422542
46	0x3c3ebe4f	0.011642053
47	0xbd326121	-0.04354966
48	0xbb167582	-0.0022958224
49	0xbd0efa5d	-0.034906734
50	0xbd361656	-0.044454895
51	0x3bf5a032	0.0074959034
52	0xbcec9de0	-0.028883874
53	0x3d4c15ac	0.049825355
54	0xbca949c3	-0.020665055
55	0x3cbf17cc	0.023326777
56	0x3d14067e	0.036139004
57	0xbd035a4f	-0.032068547
58	0x3d063795	0.03276785
59	0xb9e5d0ee	-0.00043833948
60	0x3cd429b4	0.025898792
61	0x3d44c65c	0.048040733
62	0xbca6a5e3	-0.020342773
63	0xbc812d76	-0.015768748
64	0x3d279846	0.040916704
65	0x3bdc4c3b	0.0067229546
66	0xbabf5bb1	-0.001459947
67	0x3d1e04ef	0.038578924
68	0xbcc7577a	-0.024333704
69	0xbbeeee27	-0.0072915736
70	0x3cec4b20	0.028844416
71	0x3c77db95	0.015128036
72	0xbd0131f8	-0.031541795
73	0x3c4b4f88	0.012409098
74	0xbd312f27	-0.04325786
75	0xbcd35817	-0.02579884
76	0x3d19f8d2	0.03759081
77	0xbc38157d	-0.011235592
78	0xbca43e01	-0.020049097
79	0x3c13d273	0.009022343
80	0x3c3a8386	0.011383897
81	0xbce21aa0	-0.027600586
82	0xbd0ed29f	-0.034868833
83	0xbd519837	-0.051170554
84	0x3c7f29e2	0.0155739505
85	0xbcdf37e6	-0.027248334
86	0x3c0a686b	0.008447747
87	0xbbd572b9	-0.00651392
88	0xbcda1a00	-0.026623726
89	0xbc26a2b1	-0.010170625
90	0xbd158411	-0.0365029
91	0xbcc44bcf	-0.02396193
92	0xba974d5a	-0.0011543438
93	0xbd140d27	-0.036145356
94	0xbd27ec45	-0.04099681
95	0x3d2204b1	0.039555255
96	0x3c30262c	0.010751288
97	0xbc7a2c6b	-0.015269379
98	0x3b929b77	0.0044740993
99	0x3d16d413	0.036823343
100	0xbd2678ed	-0.040642668
101	0xbcbfa0e6	-0.023392152
102	0xbd16ec50	-0.03684646
103	0xbb2bbb67	-0.002620423
104	0xbb089d5c	-0.0020845747
105	0xbd0bd345	-0.03413703
106	0x3d21dc0b	0.03951649
107	0xbd023119	-0.031785104
108	0x3d5bbcd1	0.053646866
109	0xbd0dc705	-0.034613628
110	0xbbac6244	-0.0052607376
111	0x3c0f4bce	0.008746101
112	0xbc82a5b8	-0.015948161
113	0x3d4695c4	0.04848267
114	0xbd04b584	-0.03239967
115	0x3b1a813e	0.002357557
116	0xbcf5d941	-0.030010821
117	0x3caa658f	0.02080038
118	0x3d3d5ed6	0.04623302
119	0x3d56d1cd	0.052446175
120	0x3c300640	0.010743678
121	0xbc9b6fac	-0.018974148
122	0x3d4c51a1	0.049882535
123	0x3bfdb6d1	0.0077427407
124	0x3d23cf34	0.039992526
125	0xbcc7fddd	-0.024413044
126	0xbca6e4f1	-0.02037284
127	0xbd398dbc	-0.045301184
128	0x3d3abe7b	0.045591813
129	0x3c4c503d	0.012470302
130	0xbd1315cf	-0.03590947
131	0x3afdc7cb	0.0019361911
132	0xbcb22451	-0.021745833
133	0xba969936	-0.0011489752
134	0x3c41dfc1	0.011833132
135	0xbccb41fd	-0.02481174
136	0x3c355670	0.011067972
137	0xbcf210ed	-0.029549086
138	0x3bcfd4f6	0.0063425256
139	0xbd458e8d	-0.04823165
140	0x3bee504b	0.0072727553
141	0x3d54bfdf	0.051940795
142	0x3d406b75	0.04697748
143	0x3c7ffb6b	0.015623908
144	0x3d25cc9c	0.040478334
145	0x3d471e50	0.048612893
146	0x3c881db2	0.016615722
147	0x3c889c71	0.01667616
148	0x3c24561f	0.0100302985
149	0x3d24f598	0.04027328
150	0x3d35dcf4	0.04440017
151	0xbcb638d6	-0.022243898
152	0x3b12de00	0.0022410154
153	0xbcbddc93	-0.023176467
154	0x3cb8c25d	0.022553617
155	0xbd2cd006	-0.042190574
156	0x3cc87009	0.024467485
157	0xbbe67b7c	-0.0070337635
158	0x3cca9461	0.024728956
159	0x3cb0e51a	0.02159362
160	0xbcb41ef8	-0.021987423
161	0x3ce3e8bd	0.02782094
162	0x3cd1b806	0.025600445
163	0xbd256867	-0.04038277
164	0x3d5f6ab9	0.054545138
165	0x3d451bae	0.0481221
166	0x3d11f189	0.035630737
167	0x3a806aa2	0.0009797404
168	0x3cb749e1	0.022374095
169	0xbccba752	-0.024860058
170	0xbc7ca6e3	-0.015420648
171	0x3cbc56f4	0.022990681
172	0x3cc353a8	0.023843601
173	0x3caed2bb	0.021340718
174	0xbd3cce1b	-0.046094995
175	0x3d29a237	0.041414466
176	0xbcad6028	-0.021164015
177	0x3d362c0c	0.0444756
178	0x3d37f8d0	0.04491502
179	0x3c9a19d8	0.018811151
180	0x3d4cd899	0.05001125
181	0x3cf70201	0.030152323
182	0x3d0c0a97	0.034189787
183	0xbc43f74a	-0.011960814
184	0x3d55cfc2	0.052200086
185	0x3ca008ca	0.019535441
186	0x3d12fa48	0.035883218
187	0xbbc2a3be	-0.0059399297
188	0x3d250f9b	0.040298086
189	0x3d4f603a	0.05062888
190	0xbd0f73c2	-0.035022505
191	0x3d3bedd1	0.045881096
192	0xbce7fdce	-0.028319266
193	0xbcf6c750	-0.030124336
194	0xbd13ec28	-0.036113888
195	0x3ca2e232	0.019883249
196	0xbd04c103	-0.032410633
197	0xbc8e9c4a	-0.017408509
198	0xbcbe7c35	-0.023252586
199	0x3c4be397	0.012444398
200	0xbd467296	-0.04844912
201	0xbc8c0b5d	-0.017095262
202	0x3bcda372	0.0062755877
203	0x3c2a6d52	0.010402041
204	0xbcb58e21	-0.022162499
205	0x3cad7afa	0.021176804
206	0xbce158e0	-0.0275082
207	0xbd28e20e	-0.041231208
208	0xbb2349e0	-0.002491586
209	0xbcd448f5	-0.025913695
210	0x3d142bfa	0.03617475
211	0xbd08bb61	-0.033381823
212	0xbb58f5a0	-0.0033105388
213	0x3ccbb2de	0.024865564
214	0xbd28ecc3	-0.04124142
215	0x3d16c7f9	0.036811803
216	0xbc946f73	-0.01811955
217	0xbc15713e	-0.009121237
218	0xbcda7758	-0.026668236
219	0xbc65eba3	-0.014033231
220	0xbcac8943	-0.021061545
221	0xbd330457	-0.04370531
222	0x3c8327df	0.016010223
223	0xba8bec2b	-0.0010675242
224	0x3d49da6b	0.049280565
225	0x3d14e875	0.0363545
226	0x3d392852	0.045204468
227	0x3c9eb031	0.019371124
228	0x3ceca5d9	0.028887676
229	0x3d51be15	0.051206667
230	0x3d44af16	0.048018537
231	0xbd021ec6	-0.03176763
232	0xbbb8ddf7	-0.0056416946
233	0xbd312147	-0.043244626
234	0x3bd99cbf	0.006641
235	0xbc321276	-0.010868659
236	0x3d4b850d	0.049687434
237	0x3c56b1e2	0.013103934
238	0x3b958d95	0.004563997
239	0xbd00638f	-0.031344946
240	0xbd174b5c	-0.036937103
241	0x3c4a0682	0.012330653
242	0xbca5208e	-0.020157125
243	0xbc989a07	-0.018628133
244	0x3d215100	0.03938389
245	0xbcd8e53e	-0.026476499
246	0xbcbeca50	-0.02328983
247	0x3d2e5371	0.042560045
248	0x3cc3dc8e	0.02390888
249	0xbcdcea21	-0.02696711
250	0x3c65ff3a	0.014037902
251	0x3cfdbcf3	0.030973887
252	0xbd1ef87c	-0.038811192
253	0x3c55108a	0.0130044315
254	0x3c8b4d04	0.017004497
255	0xbad1d078	-0.0016007563

encoder.fc1.bias f4 [120]
0	0xbcc018bb	-0.023449292
1	0x3cb16530	0.021654695
2	0xbc5aab4d	-0.013346505
3	0x3cee46be	0.029086467
4	0x3cbe0023	0.023193425
5	0x3cf207d4	0.029544748
6	0xbaf0a44a	-0.0018359509
7	0xbc9c3b49	-0.019071238
8	0x3b92f984	0.004485311
9	0xbc676ed7	-0.014125547
10	0x3c5c4a5a	0.013445461
11	0xbb21721a	-0.002463466
12	0xbb99349a	-0.00467546
13	0x3d432dd8	0.047651142
14	0xbd27497b	-0.04084156
15	0x3d3ae92d	0.04563253
16	0x3cb2b92f	0.021816818
17	0xbce89012	-0.02838901
18	0x3d101587	0.03517678
19	0xbc7a5ec5	-0.015281384
20	0xbd1492a4	-0.03627266
21	0xbc4dc4a0	-0.012559086
22	0x3c0aa555	0.00846227
23	0xbd1156c4	-0.035483137
24	0x3b949674	0.004534537
25	0x3caf91d2	0.021431837
26	0xbd1ee078	-0.03878829
27	0x3cb154d2	0.02164689
28	0x3c909566	0.017649364
29	0x3d5a8a15	0.05335434
30	0x3d4fb999	0.05071411
31	0xbc1e089a	-0.009645605
32	0xbca4d907	-0.020123018
33	0xbd38c3d3	-0.045108628
34	0xbcc986d6	-0.024600428
35	0x3bda996c	0.0066711213
36	0x3cbc9971	0.023022385
37	0x3d0e9660	0.034811378
38	0x3c9117da	0.017711569
39	0xbba3ba4d	-0.004996574
40	0x3c80511e	0.01566368
41	0x3d06e338	0.032931536
42	0x3d1b7f3a	0.03796313
43	0x3d04be1d	0.03240787
44	0xbce308f3	-0.027714228
45	0xbcb4810a	-0.022034187
46	0xbc472b2b	-0.012156288
47	0xbbce9f63	-0.0063056215
48	0xbd2e3d21	-0.042538766
49	0x3d319abe	0.043360464
50	0x3d208d4c	0.03919725
51	0x3d2533a1	0.04033244
52	0x3c8b109e	0.016975697
53	0x3d683c75	0.05669828
54	0x3af4a5d8	0.0018665148
55	0xbc140838	-0.009035163
56	0x3abb1325	0.0014272673
57	0x3c731202	0.014835836
58	0x3c3621fa	0.011116499
59	0x3a9b3b39	0.0011843211
60	0x3be5a627	0.0070083323
61	0xbcee014a	-0.029053349
62	0xba4b5000	-0.00077557564
63	0x3cd63632	0.02614889
64	0x3b4c0c01	0.0031135085
65	0xbd40ab45	-0.047038335
66	0xbbd9f58a	-0.006651585
67	0xbc2a8419	-0.010407471
68	0x3d0ef290	0.034899294
69	0x3d064a0d	0.032785464
70	0xbcc6f422	-0.024286333
71	0x3ca71d52	0.020399723
72	0x3bff3807	0.0077886614
73	0xbd1e41dc	-0.038637027
74	0xbc91ac43	-0.017782336
75	0x3c43ea88	0.011957772
76	0x3d01f907	0.03173163
77	0xbca90c82	-0.020635847
78	0x3c232eee	0.009959919
79	0x3c83ead7	0.016103191
80	0xbd2c6b87	-0.042094734
81	0xbc352a23	-0.011057409
82	0x3c8f2519	0.017473744
83	0x3ca5029a	0.020142842
84	0x3c7e3db1	0.015517638
85	0xbcbcc506	-0.023043167
86	0xbc5850db	-0.013202871
87	0x3cdb2f88	0.026756063
88	0x3c92ccee	0.017919984
89	0xbc3cb495	-0.0115176635
90	0x3d5d3d9a	0.054013826
91	0x3bc2e348	0.005947504
92	0xbd28bc75	-0.04119535
93	0x3bb91289	0.0056479615
94	0xbc41db84	-0.011832122
95	0xbc393e3c	-0.011306342
96	0xbab13a4f	-0.0013521406
97	0xbc61aa8c	-0.013773572
98	0xbcdc4e80	-0.0268929
99	0x3ce311c5	0.027718434
100	0x3d1e786b	0.03868906
101	0xbd0d23eb	-0.034458082
102	0x3bafa8b6	0.005360688
103	0x3ca4412e	0.020050611
104	0x3b574cfe	0.0032852287
105	0xbb972d6c	-0.004613569
106	0xbc821c17	-0.015882535
107	0xbbd1f004	-0.006406786
108	0xbd291e84	-0.041288868
109	0x3d3705e9	0.04468337
110	0x3d398e65	0.045301814
111	0x3ce26700	0.027637005
112	0xbca0bb7a	-0.019620646
113	0xbc391512	-0.011296527
114	0x3c8a3d05	0.0168748
115	0x3d08b0b3	0.03337164
116	0xbb12fe1b	-0.002242929
117	0xbbedfb95	-0.007262657
118	0xbd46fe7b	-0.048582535
119	0xbd2a12fc	-0.04152201

encoder.fc2.weight f4 [84, 120]
0	0x3bcf00fa	0.006317255
1	0xbb84d65c	-0.004053874
2	0xbc07cb5b	-0.00828823
3	0x3da42027	0.08013945
4	0x3cf47edb	0.029845646
5	0xbd8c09eb	-0.06837829
6	0xbd83ec5e	-0.06441568
7	0x3cb14cac	0.021643005
8	0x3d64a872	0.055824704
9	0xbdac80df	-0.08423018
10	0x3d091d7f	0.033475395
11	0xbd26e00b	-0.040741008
12	0x3d0d93ab	0.034564655
13	0xbd42c2ac	-0.047548935
14	0x3d9d35e0	0.076762915
15	0x3daee749	0.08540208
16	0xbd824dd2	-0.06362499
17	0xbda559d6	-0.080737755
18	0x3cd7e3fd	0.02635383
19	0x3d952ba6	0.07283716
20	0x3d24090e	0.040047698
21	0xbd364b00	-0.04450512
22	0x3d9eab12	0.07747473
23	0xbdb9094e	-0.09034978
24	0x3d9bf079	0.07614226
25	0xbd06b621	-0.032888535
26	0xbbced670	-0.006312184
27	0xb92a45f4	-0.00016238523
28	0xbccebcfe	-0.025236603
29	0xbcab0807	-0.020877851
30	0x3cb83657	0.022486849
31	0x3c904f9d	0.017616088
32	0x3c2d4fa0	0.010578066
33	0x3db78694	0.089612156
34	0xbc131dd0	-0.008979276
35	0xbd677fc3	-0.056518327
36	0xbda3caa2	-0.079976335
37	0x3d8dba5e	0.06920312
38	0xbd874729	-0.066053696
39	0x3d3ca697	0.04605731
40	0xbd59f231	-0.053209487
41	0xbd79a2dd	-0.060946334
42	0x3c6befb1	0.014400409
43	0x3d8e0fb0	0.06936586
44	0xbda85aa3	-0.082204126
45	0x3d75b3ac	0.0599858
46	0xbdba09ba	-0.090838864
47	0xbc96a29d	-0.018388087
48	0xbcd400b0	-0.025879234
49	0xbd84a1b0	-0.06476152
50	0xbd90de7d	-0.07073686
51	0xbd1be1b5	-0.038057048
52	0xbd95a79b	-0.07307359
53	0x3a7427e8	0.0009313808
54	0xbd79ef51	-0.061019246
55	0xbd2dfc49	-0.042476926
56	0xbd3a8272	-0.04553456
57	0x3cdbeaf1	0.026845427
58	0xbcd69d4c	-0.026198052
59	0x3d592041	0.053009275
60	0x3d63e254	0.055635765
61	0xbd897ea6	-0.067136094
62	0xbc7de58d	-0.015496624
63	0xbdba5db8	-0.09099907
64	0x3d32fb11	0.043696467
65	0xbca2f3b1	-0.019891592
66	0x3cc0a6ac	0.023516975
67	0x3cf6611b	0.0300756
68	0x3da5bfaf	0.08093201
69	0xbc152352	-0.009102659
70	0xbcdd383b	-0.027004352
71	0x3db06c7e	0.08614443
72	0xbbeb6e7a	-0.0071848007
73	0x3c88fd54	0.016722359
74	0x3c13cc72	0.0090209115
75	0xbd451fbb	-0.048125964
76	0x3d57948f	0.05263191
77	0xbd9a9680	-0.07548237
78	0x3d3af8cd	0.04564743
79	0x3d3615b3	0.044454288
80	0x3d74290c	0.059609458
81	0xbd841c94	-0.06450763
82	0x3d8344b6	0.0640959
83	0x3dacb978	0.08433813
84	0xbac70c74	-0.0015186206
85	0xbdb0f8f2	-0.086412326
86	0xbb8d72f1	-0.0043166806
87	0xba00ef39	-0.00049184595
88	0xbda38d0c	-0.07985887
89	0xbbb950a0	-0.005655363
90	0xbcf70e3b	-0.030158153
91	0xbda97c97	-0.08275717
92	0x3d72e2a9	0.05929819
93	0x3cc4d7bb	0.02402865
94	0xbd1f503b	-0.038894873
95	0x3da9ac38	0.08284801
96	0x3b97fd1d	0.0046383278
97	0x3ba53780	0.0050420165
98	0x3c3824ee	0.0112392735
99	0xbd9a75f3	-0.07542028
100	0xbd1dd0e5	-0.038529295
101	0x3c499b36	0.012305072
102	0xbd0a40dc	-0.03375326
103	0x3d428dd4	0.04749854
104	0x3b1ee1b2	0.0024243412
105	0x3c9e446e	0.01931974
106	0x3db4f958	0.08836621
107	0xbd20662d	-0.039159942
108	0xbc497891	-0.012296812
109	0xbd5b4700	-0.053534508
110	0xbda39a11	-0.0798837
111	0x3caaac4f	0.020834116
112	0x3d850c09	0.06496436
113	0x3cfd1de2	0.030898038
114	0xbd92f11a	-0.07174893
115	0x3d721010	0.05909735
116	0xbdaab811	-0.08335889
117	0xbd82e297	-0.06390875
118	0x3daa2322	0.08307482
119	0xbd2b9dd1	-0.041898552
120	0xbd3db415	-0.046314318
121	0xbd003023	-0.031295907
122	0xbd336c81	-0.04380465
123	0x3cedc55c	0.029024772
124	0xbd4515da	-0.048116542
125	0xbdba238c	-0.09088811
126	0xbcce7525	-0.025202343
127	0x3c51a924	0.012796674
128	0x3b654ccd	0.0034988404
129	0x3bfb43ad	0.0076679797
130	0xbdbbe0c4	-0.0917373
131	0xbcd2a22b	-0.025712093
132	0xbd5f0391	-0.05444676
133	0xbcb3f644	-0.021968015
134	0xbd529b89	-0.05141786
135	0x394b91dc	0.00019413925
136	0xbc54e2d5	-0.012993534
137	0xbda4baab	-0.080434166
138	0x3d1d92e9	0.038470183
139	0x3d01abbc	0.03165792
140	0x3cc9bb3f	0.024625419
141	0x3d0d1fa2	0.034453996
142	0xb9066dc4	-0.00012820127
143	0x3cb2b8c1	0.021816613
144	0xbdb6795d	-0.08909867
145	0x3d6416e8	0.055685908
146	0x3d9bc39e	0.076056704
147	0xbd0a57bd	-0.03377508
148	0x3da2b3da	0.0794446
149	0xbcd5d5be	-0.026102897
150	0x3d119048	0.035537988
151	0xbd04eb68	-0.032451063
152	0xbd513115	-0.0510722
153	0xbd2ddd87	-0.042447593
154	0x3d836111	0.06414998
155	0xbce93942	-0.028469685
156	0xbd90bc9b	-0.07067224
157	0x3c04b369	0.008099415
158	0xbd759a0b	-0.05996136
159	0xbd6b2388	-0.057406932
160	0xbd543ac6	-0.051813863
161	0xbd4bfc16	-0.049800955
162	0xbd6fb404	-0.058521286
163	0x3d0d4889	0.034493003
164	0xbd04b478	-0.03239867
165	0x3cb50b3b	0.022100082
166	0x3d95e1f9	0.073184915
167	0x3cd687f3	0.026187873
168	0x3dc0e897	0.09419363
169	0x3da196ec	0.07890114
170	0x3c7014ee	0.0146534275
171	0x3d3a5084	0.045486942
172	0x3db68490	0.08912003
173	0xbd80abfc	-0.062828034
174	0xbd5ceaeb	-0.053934973
175	0x3d8455be	0.064616665
176	0x3d4a6887	0.04941609
177	0x3cf1e01a	0.029525805
178	0x3c72005a	0.014770592
179	0xbd48806a	-0.04895059
180	0x3d1c6487	0.038181808
181	0xbb86277d	-0.004094063
182	0x3b73c37e	0.003719538
183	0x3dad04b5	0.084481634
184	0x3d564c15	0.05231865
185	0x3a4df3c6	0.00078564545
186	0xbc883746	-0.016627919
187	0xbd57e890	-0.052712023
188	0x3d1eb1d4	0.03874381
189	0x3db299dd	0.08720753
190	0xbd2c5cad	-0.04208057
191	0xbd818f31	-0.0632614
192	0x3d6364ee	0.055516176
193	0xbda11200	-0.07864761
194	0x3daaac96	0.083336994
195	0x3c889e4d	0.016677046
196	0x3dae2f5f	0.08505129
197	0x3c5216c8	0.012822814
198	0x3cc01681	0.02344823
199	0xbdaf2fed	-0.08554063
200	0xbc0b9d6d	-0.00852142
201	0x3d94883c	0.07252547
202	0xbd0d19ab	-0.034448307
203	0x3d937f8d	0.07202063
204	0xbc012a49	-0.007883617
205	0xbd37543e	-0.044758074
206	0xbd2a7ce8	-0.041623026
207	0xbd8a4cca	-0.067529276
208	0x3cc80fec	0.024421655
209	0xbd4da3df	-0.050205108
210	0x3d255bad	0.040370632
211	0xbccce0fa	-0.025009621
212	0x3d44c570	0.048039854
213	0x3d8a2e45	0.067471065
214	0xbd88a916	-0.066728756
215	0xbd5cc7e8	-0.053901583
216	0x3d81f80f	0.063461415
217	0xbca9f120	-0.02074486
218	0xbd9d8d6f	-0.07692992
219	0xbd49c915	-0.049264032
220	0xbdaa2199	-0.083071895
221	0xbd641012	-0.05567939
222	0x3a06c64c	0.0005141243
223	0x3d8e455a	0.069468215
224	0x3c909181	0.017647507
225	0x3bea66bb	0.0071533597
226	0xbb3c8dc5	-0.0028771025
227	0xbd5c4977	-0.053781
228	0x3d41cbe0	0.04731357
229	0x3d7d536d	0.06184714
230	0x3d05f512	0.03270442
231	0x3d9b6278	0.07587141
232	0x3db688bd	0.089127995
233	0x3c49fb3e	0.012327967
234	0xbd3ecab2	-0.046580024
235	0x3d909c1e	0.07061027
236	0x3c616bc9	0.013758608
237	0xbc7130ba	-0.01472109
238	0xbc621588	-0.013799079
239	0x3c0d057f	0.008607267
240	0xbd2f14e8	-0.042744547
241	0x3d4ef677	0.050528016
242	0xbd8e0a49	-0.069355555
243	0x3baee395	0.0053371885
244	0xbdb81be4	-0.08989695
245	0x3d13d447	0.036091115
246	0xbd3a2e28	-0.045454174
247	0xbc12d440	-0.008961737
248	0x3d8f58e4	0.069993764
249	0x3c628d43	0.013827625
250	0x3b26bdcc	0.0025442718
251	0x3d155209	0.036455188
252	0x3c1e3d18	0.009658121
253	0x3d6a75a3	0.057241093
254	0x3c3ccd5a	0.011523569
255	0x3d6394b8	0.05556175

encoder.fc2.bias f4 [84]
0	0xbdb8f2e3	-0.09030702
1	0x3d8a073f	0.06739663
2	0x3d8e191f	0.06938385
3	0x3d265e1e	0.0406171
4	0x3c2ad8c9	0.010427662
5	0x3b2d7e3e	0.0026472951
6	0x3c3ddbb1	0.011588023
7	0x3d79a172	0.060944982
8	0x3d895b7e	0.06706904
9	0xbd433d50	-0.047665894
10	0x3ce15504	0.027506359
11	0xbc0ecf98	-0.008716486
12	0x3d675be7	0.05648413
13	0xbd2707ec	-0.04077904
14	0x3d6ad965	0.05733623
15	0x3cccbc0d	0.024992013
16	0x3c373dac	0.011184137
17	0x3add0e39	0.0016865201
18	0x3d64857a	0.055791356
19	0x3da6be7f	0.08141803
20	0x3dc189dc	0.09450123
21	0xbc63a9ca	-0.013895461
22	0x3dbefe2e	0.09325825
23	0x3da74206	0.0816689
24	0x3d96154d	0.073282816
25	0x3d1c49d6	0.038156353
26	0xbdbf2fa1	-0.09335256
27	0xbd981607	-0.074260764
28	0xbda71aa2	-0.08159377
29	0xbd73eae3	-0.059550177
30	0xbdac86ac	-0.08424124
31	0x3ced9982	0.029003862
32	0x3dc22b2b	0.0948089
33	0xbd474e42	-0.048658617
34	0x3d244501	0.04010487
35	0x3cc325dd	0.023821766
36	0x3ceef914	0.029171504
37	0x3c6f8cdd	0.014620987
38	0x3cf8ede0	0.030386865
39	0x3cb1b897	0.021694465
40	0x3cf0aa2b	0.029378017
41	0x3d1cf5bc	0.038320288
42	0xbdbdef25	-0.09274129
43	0xbdb037b2	-0.08604373
44	0x3cc71a1b	0.02430444
45	0xbdb5a10d	-0.088686086
46	0x3cb07b5a	0.021543194
47	0x3d110d37	0.035412993
48	0xbd98f905	-0.07469372
49	0x3d6cca05	0.05780985
50	0xbd836d34	-0.06417313
51	0xbd88da00	-0.06682205
52	0x3d142b4d	0.036174107
53	0x3d93b141	0.07211543
54	0xb8cbef04	-9.7243144e-05
55	0xbcded6bc	-0.027202003
56	0x3c00af9a	0.007854367
57	0xbd3705b9	-0.044683192
58	0xbd97bbd4	-0.07408872
59	0xbd3fcd17	-0.04682645
60	0xbc9e9174	-0.019356467
61	0xbd24f4cb	-0.040272515
62	0x3da6694c	0.081255525
63	0x3d74e9df	0.05979335
64	0x3c031c9d	0.008002427
65	0x3d884fb0	0.06655824
66	0xbd37fdc4	-0.044919744
67	0x3d6d254c	0.057896897
68	0xbd7ec98b	-0.062203925
69	0xbdb98436	-0.0905842
70	0x3cfd4800	0.030918121
71	0x3cf6d523	0.030130928
72	0xbbc3a88a	-0.005971019
73	0x3d3ae47c	0.045628056
74	0x3c20a8f9	0.009805911
75	0x3cf7b604	0.030238159
76	0x39fb81e2	0.0004797122
77	0xbda57d23	-0.080805086
78	0xbdb9c6a7	-0.09071093
79	0xbcc63fbf	-0.024200318
80	0x3bd344df	0.006447419
81	0xbd83f07c	-0.06442353
82	0x3cdade84	0.026717432
83	0xbd26134e	-0.040545754

bottleneck.fc.weight f4 [16, 84]
0	0xbcadef2c	-0.02123221
1	0x3d3b5ee7	0.045744803
2	0xbc0dc0a3	-0.008651885
3	0xbdad6a34	-0.08467522
4	0x3c929c01	0.017896654
5	0xbdd2d52b	-0.10294565
6	0x3dc99483	0.098427795
7	0xbd7fc60f	-0.062444743
8	0x3d7c6b23	0.06162561
9	0xbc502307	-0.012703664
10	0xbc96d6c3	-0.018412953
11	0x3db11532	0.08646621
12	0xbd8b2efd	-0.06796072
13	0xbda72738	-0.08161777
14	0xbdcad19f	-0.09903263
15	0xbd8dba01	-0.06920243
16	0x3dc797cb	0.09745749
17	0xbd1b9e27	-0.037992623
18	0x3d6ebd69	0.058286104
19	0xbba64d2d	-0.005075118
20	0xbd299b62	-0.04140795
21	0xbd6de5d5	-0.058080513
22	0x3de337c3	0.1109462
23	0xbdb21b8a	-0.08696659
24	0x3d1cb19d	0.038255323
25	0xbabf2320	-0.0014582612
26	0xbcb09010	-0.02155307
27	0x3dd9f255	0.10641924
28	0x3d1d0cfa	0.038342454
29	0xbdd14b5a	-0.1021945
30	0x3b2cad38	0.0026348364
31	0xbb2ba132	-0.002618861
32	0x3db53997	0.08848875
33	0xbd9a9479	-0.0754785
34	0x3d4571b9	0.048204158
35	0x3cc67b77	0.024228795
36	0x3d852c16	0.06502549
37	0xbceeb588	-0.029139295
38	0x3da45301	0.08023644
39	0xbd0b1395	-0.03395422
40	0xbcc5c7af	-0.024143068
41	0x3db95e74	0.09051219
42	0xbd45bdb1	-0.048276607
43	0x3d1db2e3	0.038500678
44	0xbd38aa6b	-0.0450844
45	0x3d482597	0.048863973
46	0x3ddf6b16	0.10909097
47	0xbdb64b72	-0.08901109
48	0x3da7e46c	0.08197865
49	0xbce8206a	-0.028335769
50	0xbd6365a6	-0.05551686
51	0xbd1f31b3	-0.038865756
52	0x3b6a002e	0.0035705674
53	0x3c546058	0.012962423
54	0x3d83dc97	0.064385585
55	0x3d702c85	0.058636207
56	0xbd6c0b91	-0.057628218
57	0x3d8b51d7	0.06802719
58	0xbdd92f6c	-0.10604748
59	0x3cfc363c	0.03078758
60	0x3d841b41	0.06450511
61	0xbcf82e6a	-0.03029557
62	0xbd731d42	-0.059354074
63	0xbba2c637	-0.0049674767
64	0x3d74c190	0.059754908
65	0xbd66d89e	-0.056358926
66	0x3d314b3e	0.043284647
67	0x3cccc166	0.024994563
68	0xbd5c771e	-0.053824537
69	0x3cbb8d87	0.022894634
70	0x3caaada4	0.020834751
71	0x3dac00be	0.08398579
72	0x3c8fbdc7	0.017546548
73	0x3ce8716b	0.028374394
74	0xbd50073a	-0.05078814
75	0xbdbf66f8	-0.093458116
76	0x3d954e19	0.072902866
77	0x3c618cc5	0.013766472
78	0x3ce04e05	0.027380953
79	0xbd7c612a	-0.0616161
80	0xbc1ea72f	-0.009683414
81	0xbafa89c2	-0.0019114541
82	0xbdc11a95	-0.09428898
83	0x3c35e85c	0.011102762
84	0x3ccbd223	0.024880474
85	0xbd8cc35b	-0.068731986
86	0x3dc2a84b	0.095047556
87	0x3dde5eb1	0.10857905
88	0x3d9cf95b	0.07664748
89	0xbd972794	-0.07380596
90	0x3d88100c	0.06643686
91	0x3cf3f1d1	0.029778393
92	0xbda2f7c7	-0.07957416
93	0xbda317c1	-0.07963515
94	0x3c8e2520	0.017351687
95	0x3dcd6995	0.10029904
96	0x3dc523e3	0.096259855
97	0x3dc1015e	0.09424089
98	0xbca3e428	-0.020006254
99	0xbd5cc478	-0.053898305
100	0x3d8935b2	0.06699695
101	0x3c927010	0.017875701
102	0x3d91727e	0.07101916
103	0x3c298e98	0.010348938
104	0x3d55405d	0.052063335
105	0x3dad56ce	0.08463822
106	0xbd0a6072	-0.033783384
107	0xbd771cba	-0.06033013
108	0x3cf26eff	0.029593943
109	0x3bca137f	0.006166875
110	0xbd35b7a8	-0.0443646
111	0x3dd3011a	0.103029445
112	0x3dce04a5	0.100594796
113	0x3dbd100c	0.09231576
114	0xbbe3a386	-0.0069469837
115	0xbd906bc4	-0.07051805
116	0x3cdaeba1	0.026723685
117	0x3d4424ee	0.04788678
118	0xbd6a56c0	-0.057211637
119	0xbd88945a	-0.06668921
120	0xbd774e9f	-0.060377713
121	0xbceca476	-0.028887015
122	0xbd0bf054	-0.03416474
123	0xbd707e38	-0.05871412
124	0x3cdc33ee	0.02688023
125	0x3d60a18f	0.054841574
126	0xbc27f174	-0.010250438
127	0x3b3cc60c	0.0028804569
128	0x3d10413f	0.035218474
129	0xbdcdd298	-0.10049933
130	0x3d04e30d	0.032443095
131	0x3d3a1031	0.045425598
132	0x3d89a41d	0.06720755
133	0x3dd1c177	0.102419786
134	0xbd3a6550	-0.045506775
135	0xbd958b7d	-0.07301996
136	0x3d40f942	0.04711271
137	0xbdd8b30d	-0.10581026
138	0xbd7b4679	-0.061346505
139	0x3cd65e3f	0.026167987
140	0x3c2c7600	0.01052618
141	0x3b546e85	0.0032414508
142	0xbd58b759	-0.05290923
143	0x3d37acc3	0.044842493
144	0xbdd3e46a	-0.10346301
145	0x3da82d7f	0.08211803
146	0x3cce153e	0.025156613
147	0xbdde0c87	-0.10842233
148	0xbd97d372	-0.07413377
149	0xbdc1e8fb	-0.094682656
150	0xbdb7bdf8	-0.089717805
151	0xbd73e6d6	-0.059546314
152	0x3b336b98	0.0027377363
153	0x3c9c0cc5	0.019049058
154	0xbd8f9103	-0.07010081
155	0x3d67d98f	0.056603964
156	0x3beb4b61	0.0071806167
157	0x3ce215f7	0.027598364
158	0x3db1bb1d	0.08678267
159	0x3d344a88	0.04401639
160	0x3d81d08e	0.06338607
161	0xbbdf1edc	-0.0068090986
162	0x3d9623d4	0.073310524
163	0x3d902323	0.07037952
164	0x3cc07a3b	0.023495784
165	0x3db198df	0.08671736
166	0xbdb5fbd1	-0.08885921
167	0x3d94c21e	0.072635874
168	0xbd64ecfe	-0.055890076
169	0xbdc3e936	-0.09565966
170	0x3dc08844	0.094009906
171	0xbd25d67f	-0.040487763
172	0xbd0b0b36	-0.03394624
173	0x3d620a14	0.055185392
174	0x3d8ba162	0.06817891
175	0x3db1ff48	0.08691269
176	0x3dcdd733	0.100508116
177	0xbd0eb2f5	-0.034838635
178	0xbd3ce4b1	-0.046116535
179	0xbc00fe10	-0.007873073
180	0x3d25cfd7	0.040481415
181	0x3ca09d5a	0.019606281
182	0x3a023ed2	0.00049684674
183	0x3d96e685	0.07368187
184	0x3d1238e9	0.035698805
185	0x3c4ea6c3	0.012613001
186	0xbc64c7d7	-0.013963661
187	0x3d56c5ab	0.052434605
188	0x3dcc7e96	0.09985082
189	0x3dd0b6b1	0.101910956
190	0x3d0d5a3e	0.03450989
191	0x3cd3581b	0.025798848
192	0x3d1d20b0	0.03836125
193	0xbdbc1420	-0.09183526
194	0x3cae495e	0.021275219
195	0xbd6be54d	-0.057591725
196	0xbd030b47	-0.031993177
197	0x3cff000e	0.031127956
198	0xbd189c57	-0.037258472
199	0xbdb8fc49	-0.090324946
200	0x3c5adff2	0.013359057
201	0xbbafdfcf	-0.0053672562
202	0x3dbf257e	0.09333323
203	0x3d53b247	0.05168369
204	0xbc2d2a02	-0.0105690975
205	0x3d5221da	0.051301815
206	0xbd617d2a	-0.055051006
207	0x3dbeb1a6	0.093112275
208	0x3dae2801	0.08503724
209	0x3d826be1	0.063682325
210	0xbd4677e1	-0.04845417
211	0x3bbd8d2e	0.005784652
212	0xbc242597	-0.010018728
213	0xbd9cff6f	-0.076659076
214	0xbd632e70	-0.055464208
215	0xbd8aefde	-0.06784032
216	0xbdbcafe0	-0.09213233
217	0x3d98a857	0.07453983
218	0x3d7f0b7d	0.062266815
219	0xbc1735d6	-0.009229144
220	0xbc88e351	-0.016709955
221	0xbdbd5baf	-0.09246003
222	0xbd270473	-0.040775727
223	0x3d9b8160	0.07593036
224	0xbc8b24f2	-0.01698539
225	0xbdadd560	-0.08487964
226	0xb9b2fc85	-0.00034138947
227	0x3b0e4f7a	0.0021714852
228	0x3cdb20b4	0.026748993
229	0x3da4247b	0.080147706
230	0xbd3c6a32	-0.045999713
231	0xbd4933f0	-0.049121797
232	0xbd885bf2	-0.06658162
233	0x3dab13c5	0.0835338
234	0x3d90da2f	0.07072865
235	0xbcb72ab7	-0.022359235
236	0x3d2756f7	0.04085442
237	0x3d8ce605	0.0687981
238	0xbceebc1f	-0.029142438
239	0xbc534bfd	-0.012896535
240	0x3ca2d0e8	0.019875005
241	0xbdddb53e	-0.10825585
242	0xbcf4e8ea	-0.029896218
243	0x3cb16fd9	0.021659778
244	0xbcd6b514	-0.026209392
245	0xbcf93803	-0.030422216
246	0xbdad58ef	-0.08464228
247	0xbce2aac0	-0.02766931
248	0xbdaa4fbe	-0.08315991
249	0xbdb734dc	-0.08945629
250	0x3dba594d	0.09099064
251	0x3c998da4	0.018744297
252	0x3d8a9f5d	0.067686774
253	0xbcbc3e69	-0.022978978
254	0xbd8eaa57	-0.069660835
255	0x3dbeb939	0.09312672

bottleneck.fc.bias f4 [16]
0	0xbd4ea873	-0.050453614
1	0xbd0ef964	-0.034905806
2	0xbccd1c6b	-0.025037965
3	0xbb99d697	-0.0046947706
4	0xbd958c2b	-0.073021255
5	0xbb30f4df	-0.0027001423
6	0x3c5a96d6	0.013341626
7	0xbd09c66b	-0.03363649
8	0xbd734a32	-0.05939693
9	0x3da5bb86	0.08092408
10	0x3d26fb06	0.04076674
11	0x3cd05f3f	0.025436042
12	0x3c2c1960	0.010504097
13	0x3d558613	0.052129816
14	0xbd876922	-0.06611849
15	0x3d492e30	0.049116313

decoder.fc3.weight f4 [84, 16]
0	0x3db867c4	0.09004167
1	0x3dea9684	0.1145449
2	0x3dee323e	0.11630677
3	0xbe302e5c	-0.17205185
4	0x3dd98c5c	0.106224746
5	0xbe535644	-0.20638376
6	0x3d1046ac	0.035223648
7	0xbdffb6ec	-0.124860615
8	0x3c814130	0.015778154
9	0xbe491da0	-0.19640207
10	0x3de981e0	0.11401725
11	0x3e01d579	0.1267909
12	0xbceafdf0	-0.02868554
13	0xbda18914	-0.07887474
14	0xbe363f74	-0.17797643
15	0xbe0731b4	-0.13202554
16	0x3cd8a553	0.02644602
17	0xbd991fcd	-0.07476769
18	0xbe3c4a75	-0.18387778
19	0xbe776ef2	-0.24163416
20	0xbda0b7a8	-0.0784753
21	0xbc18623c	-0.009300765
22	0xbdd266a6	-0.10273485
23	0xbd89a63b	-0.06721159
24	0x3e50cd5f	0.20390843
25	0xbe08505a	-0.13311902
26	0x3e319531	0.17342068
27	0x3cc648a9	0.024204569
28	0xbda84f30	-0.08218229
29	0xbde93f1d	-0.11388991
30	0xbdc86744	-0.09785321
31	0xbcef0fb2	-0.029182289
32	0xbe17fde5	-0.14842947
33	0x3e37fe57	0.17968117
34	0x3cf35f09	0.029708402
35	0xbe0bde83	-0.136591
36	0xbe789006	-0.2427369
37	0xbde76a81	-0.11299611
38	0x3e1ab9a0	0.15109873
39	0xbda1c7c9	-0.07899434
40	0x3db8782c	0.09007296
41	0xbdb92215	-0.09039704
42	0x3e185d5c	0.14879364
43	0x3d913d0f	0.07091724
44	0xba876100	-0.0010328591
45	0x3be1881b	0.00688268
46	0x3e597d28	0.2123915
47	0xbe463df6	-0.19359574
48	0x3dad572e	0.08463894
49	0x3e254a00	0.1614151
50	0xbd9ba020	-0.07598901
51	0x3e178f41	0.14800741
52	0x3d254c40	0.04035592
53	0xbd8b3d43	-0.06798794
54	0x3e070a54	0.13187534
55	0x3cfef4e8	0.03112264
56	0x3d4b5e8a	0.049650706
57	0xbdc8b0b2	-0.09799327
58	0xbe177cef	-0.14793752
59	0xbe232663	-0.15932612
60	0x3d8dd3c0	0.06925154
61	0xbd54e1ae	-0.051973037
62	0xbdb816d4	-0.08988729
63	0xbdf252a2	-0.11832167
64	0xbdea94dc	-0.11454174
65	0xbe06952c	-0.13142842
66	0x3dd74e04	0.10512927
67	0x3e16e0bc	0.14734167
68	0xbe695bca	-0.22788921
69	0xbb49b880	-0.0030780137
70	0x3d8fe0e8	0.07025319
71	0x3e4ebd00	0.20189285
72	0x3e3736aa	0.17891946
73	0xbda23810	-0.07920849
74	0x3aaa0000	0.0012969971
75	0xbd42a710	-0.047522604
76	0xbe48b7d6	-0.19601378
77	0x3df64b84	0.12026122
78	0x3d81d32c	0.06339106
79	0xbdf51518	-0.11966914
80	0x3dbb240f	0.09137737
81	0xbd9ce146	-0.07660155
82	0xbd270c3b	-0.04078315
83	0xbdd8fffe	-0.10595702
84	0x3d43af88	0.04777482
85	0xbcfa5478	-0.030557856
86	0x3d94837b	0.072516404
87	0xbcda2392	-0.02662829
88	0x3c228d4c	0.009921383
89	0x3c6e559b	0.014546777
90	0x3d2eda0b	0.04268841
91	0x3d7dd106	0.06196692
92	0xbe2680fe	-0.16260144
93	0xbe214444	-0.15748698
94	0x3db6d178	0.08926672
95	0x3e6e7083	0.23285107
96	0xbe1316a0	-0.143641
97	0x3e5253b0	0.20539737
98	0xbe520436	-0.20509419
99	0xbdeaf044	-0.11471608
100	0xba92ee00	-0.0011209846
101	0xbe47faca	-0.19529262
102	0xbd6e01d8	-0.058107227
103	0xbe51f4b4	-0.20503503
104	0x3dc0f848	0.09422356
105	0xbe406104	-0.18787009
106	0x3ca67730	0.020320505
107	0x3d5b49f8	0.05353734
108	0xbd925f1c	-0.07147047
109	0x3e7f2220	0.24915361
110	0x3e7d298a	0.24722877
111	0x3e57b89c	0.21066517
112	0x3e7b17aa	0.24520746
113	0x3c140500	0.009034395
114	0x3d519708	0.051169425
115	0xbce28fc0	-0.027656436
116	0x3da1d3d0	0.07901728
117	0x3e53b82c	0.20675725
118	0xbe6c5a78	-0.23081386
119	0xbc14e2a0	-0.009087235
120	0x3e78c0fa	0.24292365
121	0xbd75e7b8	-0.060035437
122	0xbdbd72f4	-0.09250441
123	0x3e57f116	0.2108806
124	0x3b31b700	0.0027117133
125	0xbe68dcee	-0.22740528
126	0x3d2199d8	0.039453357
127	0xbde59e08	-0.11211783
128	0xbe0401c6	-0.12891302
129	0xbdfc8e3c	-0.123318166
130	0xbcf48690	-0.02984932
131	0xbd76e5e0	-0.06027782
132	0x3e2d4418	0.16920507
133	0x3e2b49c6	0.16727361
134	0xbd0f0fc0	-0.03492713
135	0xbdd1bdbc	-0.10241267
136	0x3e27b944	0.16379267
137	0x3dce8b78	0.10085195
138	0x3d916b5c	0.07100555
139	0xbe08002c	-0.13281316
140	0x3c937830	0.018001646
141	0xbc8bf580	-0.017084837
142	0x3e4d6c32	0.20060804
143	0x3d7523e0	0.059848666
144	0x3c542560	0.012948364
145	0xbe7da60e	-0.24770376
146	0xbdc3b15c	-0.09555313
147	0x3dc40824	0.09571865
148	0xbde21e60	-0.1104095
149	0xbe183b2e	-0.14866325
150	0xbe719870	-0.23593307
151	0xbe50a400	-0.20375061
152	0x3d6335a8	0.055471092
153	0x3da1de3c	0.07903716
154	0xbde7381c	-0.11289999
155	0xbe453da6	-0.19261798
156	0x3e534518	0.20631826
157	0x3e3919ca	0.18076244
158	0x3e4aa07e	0.19787785
159	0xbe032b66	-0.12809524
160	0xbcdb7190	-0.02678755
161	0x3aa65600	0.0012690425
162	0xbe420694	-0.18947822
163	0xbd547610	-0.051870406
164	0xbe1af2de	-0.15131709
165	0x3e586678	0.21132839
166	0xbd13fd28	-0.0361301
167	0xbe7fe30c	-0.24988955
168	0xbdcf03b4	-0.10108128
169	0x3e0f0780	0.13967705
170	0xbdb6bf04	-0.08923152
171	0x3e330696	0.17482981
172	0xbdf0fc98	-0.117669284
173	0xbdbf7504	-0.09348491
174	0xbe061b2c	-0.13096303
175	0xbd0d43a0	-0.03448832
176	0x3e12f15b	0.14349882
177	0x3df40a94	0.1191608
178	0x3e3bb7ea	0.18331876
179	0x3de5411e	0.11194061
180	0xbdefb02c	-0.11703524
181	0xbe74cc39	-0.2390603
182	0xbe6593fc	-0.22419733
183	0xbd685d99	-0.056729887
184	0xbcc8257d	-0.024431938
185	0xbdd4e761	-0.103956945
186	0xbe241290	-0.16022706
187	0xbe403f9e	-0.18774268
188	0x3dfd628c	0.12372312
189	0xbd651a34	-0.055933192
190	0xbe01b17c	-0.12665361
191	0x3bf15928	0.0073653646
192	0xbe5e457b	-0.21706192
193	0x3e26d3f2	0.16291788
194	0x3e353d1a	0.1769909
195	0x3c35f22a	0.0111051
196	0x3e629b34	0.22129518
197	0xbe544b90	-0.2073195
198	0xb93769a8	-0.000174916
199	0x3e6ba75c	0.23013061
200	0xbe4e740a	-0.20161453
201	0xbdff830d	-0.12476168
202	0xbe3549d5	-0.17703946
203	0xbdff23c1	-0.124579914
204	0x3e73e640	0.23818302
205	0xbd39f572	-0.04540009
206	0xbc2250c0	-0.009906948
207	0xbdd12259	-0.102116294
208	0xbe0b3cdf	-0.13597439
209	0x3d83bf23	0.06432941
210	0xbe34254c	-0.17592353
211	0x3c783330	0.015148923
212	0x3e16058c	0.14650553
213	0xbdceb07c	-0.100922555
214	0x3c809c42	0.01569951
215	0x3e106632	0.14101484
216	0x3e55fd08	0.20897305
217	0xbd498cc3	-0.049206506
218	0x3e30e126	0.17273387
219	0x3e39aacd	0.18131562
220	0xbe6e6b10	-0.23283029
221	0xbe536b10	-0.2064631
222	0x3de82fac	0.11337218
223	0x3e107af1	0.14109398
224	0x3e28942c	0.16462773
225	0x3ddb0e2a	0.10696061
226	0xbdd5bdf9	-0.10436625
227	0xbda72a96	-0.081624195
228	0x3d20b158	0.03923163
229	0x3e3c90e3	0.18414645
230	0xbca43db4	-0.020048954
231	0xbe5658aa	-0.2093226
232	0xbe0f409e	-0.13989493
233	0xbe2711ee	-0.16315433
234	0xbdc49973	-0.095995806
235	0x3e52b27b	0.20575897
236	0x3d4cfe50	0.05004722
237	0x3dcde487	0.10053354
238	0xbe0efa94	-0.13962775
239	0x3e641911	0.22275187
240	0x3e3fc8a9	0.1872889
241	0x3e7c0dbc	0.24614614
242	0x3d10e6c6	0.035376333
243	0x3cb33f47	0.021880759
244	0x3e04c0b6	0.12964138
245	0xbda2f90f	-0.079576604
246	0xbe06869b	-0.13137285
247	0x3dcf3406	0.101173446
248	0xbe4c9a5e	-0.19980761
249	0x3e1b5b2e	0.15171501
250	0x3c241185	0.010013943
251	0x3cfdf612	0.031001125
252	0x3cae3dc0	0.02126968
253	0x3dc9715d	0.098360755
254	0xbcab76a0	-0.020930588
255	0x3a952500	0.0011378825

decoder.fc3.bias f4 [84]
0	0xbbfb6de7	-0.0076730135
1	0x3e6b9be2	0.23008683
2	0x3e415a8e	0.188822
3	0x3e087de1	0.13329269
4	0xbd15ba48	-0.036554605
5	0x3e19b318	0.15009725
6	0xbdcaf420	-0.099098444
7	0xbe556654	-0.20839816
8	0xbe1ecec6	-0.15508565
9	0xbe5648cc	-0.20926207
10	0xbe1b4a9c	-0.1516518
11	0x3d9a6a98	0.075398624
12	0x3e285cf6	0.16441712
13	0xbc8e86b0	-0.017398208
14	0x3e1e9619	0.15486945
15	0x3c8f304c	0.017479084
16	0xbe417823	-0.18893485
17	0x3e293410	0.16523767
18	0xbe2f377a	-0.17111006
19	0xbc077680	-0.008267999
20	0x3e289b26	0.16465434
21	0x3e1fa42b	0.15589969
22	0xbdb07210	-0.08615506
23	0xbd9cda5a	-0.07658835
24	0xbd931cc8	-0.07183224
25	0x3e0f110c	0.13971347
26	0xbd5e3d90	-0.05425793
27	0xbe1a0720	-0.1504178
28	0xbbf879e5	-0.0075828903
29	0x3e574066	0.2102066
30	0x3df17a1b	0.11790868
31	0xbbc7ac29	-0.006093521
32	0xbc33d781	-0.010976673
33	0x3e185ffd	0.14880367
34	0xbe587218	-0.21137273
35	0xbe5b23c4	-0.21400362
36	0x3c201e58	0.0097728595
37	0xbd3536f8	-0.044241875
38	0xbd9576ad	-0.07298026
39	0xbdd5c160	-0.10437274
40	0x3dae7fc9	0.08520467
41	0x3e44b1c7	0.19208442
42	0xbdb9a00f	-0.09063732
43	0xbd2a1de8	-0.041532427
44	0xbdddcca8	-0.10830051
45	0xbe69ab0e	-0.22819158
46	0xbcc2f25f	-0.023797212
47	0xbd302e98	-0.043013185
48	0x3da87e4c	0.08227214
49	0xbe357bcc	-0.17723006
50	0x3dfd36c5	0.12363962
51	0xbe677218	-0.22602117
52	0xbd3f3198	-0.046678156
53	0xbe25a474	-0.16176015
54	0x3cdecb69	0.027196603
55	0xbc582312	-0.013191955
56	0xbdb703bc	-0.08936259
57	0x3e5aea43	0.21378426
58	0xbe678210	-0.22608209
59	0xbdc68ffc	-0.096954316
60	0x3e1b3d47	0.15160094
61	0xbdb70058	-0.089356124
62	0x3e370ff2	0.17877176
63	0xbe6c8448	-0.23097336
64	0xbe374a20	-0.1789937
65	0x3e12b3b3	0.14326362
66	0xbdc5b09c	-0.09652826
67	0xbe1dd9b6	-0.15415081
68	0xbe48ee00	-0.1962204
69	0xbe2cac78	-0.16862667
70	0x3e4d83c5	0.20069797
71	0xbd610840	-0.05493951
72	0xbe1dab9c	-0.15397495
73	0x3e7b24de	0.24525782
74	0xbd625d70	-0.05526489
75	0x3dd5f15a	0.10446425
76	0x3e3ab326	0.18232402
77	0xbe57fdc9	-0.21092905
78	0x3e700a1f	0.23441361
79	0xbda62934	-0.081133276
80	0xbe4e6232	-0.20154646
81	0x3e728145	0.23682125
82	0x3e1def18	0.15423238
83	0x3e7ad139	0.24493875
