tutorials/W1D2_ComparingTasks/RR/models/ConvNet_autoencoder_10_epoch_3.pth (torch, 506434 bytes, 19 tensors)

encoder.conv1.weight f4 [6, 1, 5, 5]
00000000: e21b 1f3e 26c3 2c3e c714 35bd 71d7 3e3e
00000010: 3588 28bd a567 273d 7ff4 c1bd f362 f13d
00000020: 7c33 343e 17c4 16be 81b1 323e 6eb2 1b3d
00000030: c084 163e 8b43 d13c 8eeb c13d 68fc cebc
00000040: 1be0 203e 1fca f23c c203 c3bd 1862 483d
00000050: 52b9 b6bd 27b1 a8bc cd90 a0bd b5be 053e
00000060: 0d08 24be fc15 c2bd fc9f 71bd 6d43 f1bd
00000070: db2b b03c 4cb8 47be c9c1 363e 14c2 2fbe
00000080: 8879 1e3e 6e6a 143d 82f5 7dbd 7e14 fa3d
00000090: 8850 fa3c b820 283e cfe8 c93c b5e1 7ebd
000000a0: 762c 573d 8ea5 5ebd e133 b23d bfce 393e
000000b0: eaae ed3d 95cd b4bd bbff ec3d 7141 1e3d
000000c0: 79f2 d53d a734 f9bd b666 4dbe 010f a3bd
000000d0: 67f4 1ebe 9cd8 263e 59fc 6c3d adba a43d
000000e0: bbe3 7a3d 9cce 9abb 6e6f 1f3e 936f 11be
000000f0: e7dd 273c e1d4 0dbe e146 763d b3b3 8ebd
00000100: a8ce 7f3d f662 33bd 54d2 273e d0f0 f6bd
00000110: 27f2 f8bd 8ef1 f9bd 8f23 363e d882 843d
00000120: 883a 433e 7e59 2bbe 1873 4bbe 34d4 1dbe
00000130: fdfc 0abe 8416 a03d 25b8 8d3d 6c1f 2d3e
00000140: ee59 d6bd 7d38 0ebe e571 d43d 9b3a abbd
00000150: 120a fe3d 91cf 37bd 0f96 e53d c113 21be
00000160: 1b03 cebd 084e 823d c02d 383d 789e 4fbd
00000170: 06ba f33d 7b23 0b3e 26e0 11be 6b5f d5bd
00000180: 8c67 3e3e 441c 8bbd c6ad 94bd 043d 47be
00000190: 6c12 f0bd 4b66 413d 8cf5 efbc 5088 17be
000001a0: 0cc2 b03b 5188 0ebe 8d83 30be a361 e7bd
000001b0: 4542 36be f85e 05be d962 4a3e eb17 103d
000001c0: 3ab7 703d f2ff 41be 677e 09be 9757 8cbd
000001d0: bffb ea3c bd24 37be f073 b6bd ad1e fbbd
000001e0: 7237 b9ba f22a 9ebd dd6c 89bc 96c7 0dbe
000001f0: 0c77 0fbe 8661 e9bd da7a 86bd fdb1 22be
00000200: a1d9 283e 1442 25bd f42c 333e d481 853d
00000210: 5a96 2abe 60b0 0f3e 9899 5dbd 3a46 97bd
00000220: 3171 27be 8232 49be 46f6 733d d8df 29bd
00000230: c2ab a13d 6d93 26be 9652 1a3e 74ec 13be
00000240: 6de4 03bd e457 343d d2d6 d73d 35bc 273e
00000250: 3a0f 3d3e 30df 1fbe
0.1553798 0.16871318 -0.044209268 0.18636872 -0.041145522 0.040870328 -0.09470462 0.11786451
0.17597765 -0.1472324 0.17450525 0.03801196 0.14699078 0.025544902 0.094687566 -0.025266841
0.1571049 0.029637394 -0.09522201 0.048921674 -0.08922066 -0.020592285 -0.078401186 0.1306103
-0.16018696 -0.094768494 -0.058990464 -0.117804386 0.021505287 -0.19503897 0.1784736 -0.17163879
0.15476048 0.03623431 -0.062001713 0.1221094 0.030555978 0.16418731 0.024647145 -0.06222697
0.052532636 -0.054357104 0.08701301 0.18145274 0.11605628 -0.08828274 0.11572214 0.03863663
0.104466386 -0.12168246 -0.20058712 -0.07961846 -0.1552292 0.16293567 0.057857845 0.08043418
0.061252337 -0.004724337 0.15569851 -0.14202718 0.010245777 -0.13850738 0.06012619 -0.06967869
0.062452942 -0.04379555 0.16388828 -0.1205765 -0.12155562 -0.12204276 0.17787002 0.06470269
0.19065297 -0.16733357 -0.19868124 -0.1541298 -0.1357307 0.078167945 0.069198884 0.16906518
-0.104663715 -0.13888736 0.10373286 -0.083607875 0.124042645 -0.044875685 0.11210262 -0.15730192
-0.10059186 0.063625395 0.044965506 -0.050688237 0.119007155 0.13587753 -0.14245662 -0.1041859
0.18594187 -0.067925006 -0.07259707 -0.1945687 -0.11722264 0.047216695 -0.02929189 -0.14798093
0.005394226 -0.13919188 -0.17237683 -0.112979196 -0.17798717 -0.13024509 0.1976427 0.03517906
0.05876849 -0.18945292 -0.13427125 -0.06852644 0.028684495 -0.17885108 -0.08908832 -0.1226171
-0.0014130904 -0.07723035 -0.016775543 -0.13845667 -0.14010257 -0.11395554 -0.06566401 -0.1588821
0.16489269 -0.04034622 0.17497617 0.065189034 -0.16658917 0.14032125 -0.054101557 -0.073864415
-0.16351773 -0.19648173 0.059561037 -0.04147324 0.07894088 -0.16267176 0.15070567 -0.14445668
-0.032200266 0.04402913 0.105390206 0.16380389 0.1846284 -0.15612483

encoder.conv1.bias f4 [6]
00000000: 4f47 5a3d 3db1 afbd 6726 9dbc 7534 17be
00000010: 758d 3d3e 513c 15be
0.05329066 -0.085787274 -0.01918335 -0.14766105 0.18510993 -0.1457379

encoder.conv2.weight f4 [16, 6, 5, 5]
00000000: 643a 3e3d b963 013d ec38 ce3c 5d2b 3fbd
00000010: 61ec 933d d36b a83c 5867 573c a128 8ebd
00000020: f054 143d 6a7a 6dbc 2096 0dbd 3374 953d
00000030: 37d3 a83c 0447 30bd 8b8d 21bd 40fd 80ba
00000040: e866 463d b7a1 95bc 541d 36bd b31e f8bc
00000050: ea08 6ebd f3f6 023d f9fe 863d 473f 9abd
00000060: 55e8 843c ad4b 373d 7913 8f3c 6442 dabc
00000070: b47f 353d 6246 263d 8cda 083d efcc 3dbc
00000080: 0073 9dbc a5eb 323c b0be 4bbc 67ec cabc
00000090: 8f75 4f3d d25c 943d bcc1 eebb 2c8a a9bc
000000a0: 4868 643b 342b c5bb 3134 903c 85a2 a73c
000000b0: c808 9dbd 55cf dfbc ee77 923d 02fa f43c
000000c0: 1d30 e2bb 3c21 55bd 909f 57bd 44ec 8fbd
000000d0: b620 c3bc bcdf f53c bbe9 5e3d 9bdc 173d
000000e0: 5007 97bd cb26 48bd c323 2bbc 1be8 a53d
000000f0: bf99 713c 24ec b4bc 2f33 153d e96c eabc
00000100: 21cd 5abd d7ea 7f3d 8b7d 0cbd 8a23 5ebc
00000110: d5db a6bd 30bb 613d 9267 7a3d 37f9 043d
00000120: 2750 5ebd d58a a1bd 08c8 83bd b5b0 6f3d
00000130: c169 173d 3594 893d 0a41 393d f187 ab3c
00000140: e4ad d2ba 09df 83bd e646 8fbd 57e1 a0bd
00000150: 6b32 013d 17a7 18bd e6d9 63bc 2b4f 36bd
00000160: 88b5 89bc 41d6 70bd c7df 60bd f33b f43c
00000170: 2436 b4bc 4572 463d d7fa e1bc 149e 7bbd
00000180: 322d 45bc 826c 18bd 4cfb d7bc b881 a4bd
00000190: 1030 373d ed7f 6cbd b810 293d 37d0 223d
000001a0: dafc 7a3d ece5 82bd fbf7 6a3d 52c9 20bd
000001b0: 48ff f93c d0d3 a23d d485 58bc bd74 10bb
000001c0: edbf a2bc e6fa 8bbd 6f43 233d 5204 aabd
000001d0: 1d56 4b3d 7ac1 763d 79b5 9d3d aa8a 88bc
000001e0: dc2f 8dbd 00d5 973c 20f1 393d ab3e a5bd
000001f0: 77ca 80bc 46eb 48bd 95bf 92bb 7b88 19bd
00000200: ca4f ffbc 73f7 c1bc 3f33 a1bd 7f72 853d
00000210: 8e36 913d ddef 62bc 8939 42bc d2c1 fabc
00000220: 27a9 98bd 02bc a6bd 6f61 e63c f420 40bd
00000230: 23d7 4cbd 40f6 6dbb 3deb f0bc 80c5 ebbc
00000240: 7c4f 9739 1cc7 6ebc 389f cfbc e1d5 23bd
00000250: bd2f 8abd 48de 873d f970 f5bc 600f c63c
00000260: 17c1 fbbc 564e 773b 929e 963d 9e8a 253d
00000270: 6820 8bbd 4a2f f43c 4f2d 993d 96fc 9c3c
00000280: e3c8 693d 2273 a63d f0fa 78bc f82f 683c
00000290: bc64 6bbd 3131 6abc d53d 7b3d f742 203d
000002a0: ad0f 5ebd 94bd 85bd 1290 58bd 5b38 a0bd
000002b0: e36f 86bd d381 bbbc 59fc 603d 489f 863c
000002c0: 20da 73bd 8ec3 82bd 41c9 1b3d b607 73bd
000002d0: cf53 04bc 4307 163d 536c 25bd eb1d 3fbc
000002e0: 2b98 dbbb 2970 8fbc b7ee 34bd a1ed 9abd
000002f0: df6c 88bd b593 32bd 526f a73d c11b 19bd
00000300: c9a5 60bd 64bf 9d3c 4354 b93c 9aef 423d
00000310: 879f 843d 7d6e 443d 5493 abbd 71f0 fa3b
00000320: d1e4 543d f45b a2bb facb 48bd a21a 9d3d
00000330: 4e13 f3bc be6a 34bd fa37 92bd b6d0 943a
00000340: 4752 083d 46bf 903c 5941 9b3c ee33 72bd
00000350: e4b6 99bd b098 5f3a 8d83 993d 2c92 4b3d
00000360: bbfd 36bd 1ca9 07bc 0cab 6ebd 0131 1abd
00000370: f418 8b3c ecb9 403d 378d 8f3d 92c9 93bd
00000380: 3f16 6b3d 3715 63bd 0deb ea3c 069a 873d
00000390: e49d dbba 3298 923d bf39 8abd 4600 08bd
000003a0: 1687 373d 5b0a a9bc fbb6 9fbc 50e9 04bd
000003b0: e3c6 6c3d 9fea 203d 7f5a c33c bf8a 41bd
000003c0: 2f20 87bd 9ede d53b a973 c93c a92c 13bd
000003d0: c5eb a5bc 483a 633d e93b 723b 005a 4c3b
000003e0: b998 a2bc d8c1 91bd 810e 9bbd e0d1 16bd
000003f0: 6f7e 1fbd b85d e63c 4e43 abbc ecf6 f8bc
0.046442404 0.031589244 0.025173627 -0.046672214 0.0722282 0.020559227 0.013147198 -0.06941343
0.036213815 -0.014494518 -0.034567 0.07297554 0.020608528 -0.043036476 -0.039441627 -0.0009841099
0.048437983 -0.018265588 -0.044461563 -0.030288076 -0.05811397 0.03197379 0.06591601 -0.075316004
0.016224066 0.044749904 0.01746534 -0.026642986 0.04431124 0.040594466 0.033411548 -0.0115845045
-0.019219875 0.01092044 -0.0124356 -0.024770929 0.050649222 0.072442666 -0.0072862785 -0.020695768
0.0034852196 -0.006017113 0.017603012 0.020463238 -0.076676905 -0.027320543 0.07151781 0.02990437
-0.006902708 -0.052033648 -0.052642405 -0.07027486 -0.023819309 0.030013911 0.05442212 0.03707562
-0.073744416 -0.04886512 -0.010445538 0.08100911 0.014746129 -0.022085257 0.036425766 -0.028616386
-0.053418282 0.06247982 -0.034299415 -0.013558278 -0.081473984 0.055110157 0.06113393 0.032464232
-0.054275658 -0.07887808 -0.06434637 0.05851813 0.03696609 0.067177214 0.04522804 0.020938845
-0.0016073552 -0.06439025 -0.06995945 -0.0785548 0.031542223 -0.037268724 -0.0139069315 -0.044509094
-0.016810194 -0.05879808 -0.05490091 0.029813742 -0.021998473 0.04844882 -0.02758543 -0.061430052
-0.012034701 -0.037212856 -0.026364945 -0.080325544 0.04472357 -0.057739187 0.04127571 0.03974935
0.061276294 -0.0639151 0.0573654 -0.039254494 0.030517235 0.07950556 -0.013215501 -0.0022042238
-0.019866908 -0.068349645 0.03985923 -0.08301605 0.04964267 0.060243107 0.07700629 -0.016667683
-0.06893894 0.018534184 0.04539597 -0.080685936 -0.015721543 -0.0490525 -0.0044784048 -0.037483674
-0.031165976 -0.023677563 -0.078711025 0.06515979 0.070904836 -0.013851133 -0.011854538 -0.030609999
-0.07454138 -0.081413284 0.028122632 -0.046906427 -0.050009858 -0.0036310107 -0.029409045 -0.028780699
0.00028860185 -0.014573839 -0.025344476 -0.039998893 -0.067473866 0.06634194 -0.029961096 0.024177253
-0.03073172 0.00377359 0.07354464 0.0404154 -0.067932904 0.029807705 0.07479345 0.019163411
0.057076346 0.081274286 -0.015196547 0.014171593 -0.057469115 -0.014293955 0.061338264 0.039126363
-0.05421417 -0.065303 -0.05287177 -0.07823249 -0.065643094 -0.022889053 0.054928157 0.016433373
-0.059534192 -0.06384955 0.038033728 -0.059333526 -0.008076622 0.03662802 -0.04038651 -0.011664848
-0.0067014894 -0.017509537 -0.04417297 -0.07564855 -0.066613905 -0.043597896 0.081755295 -0.037379984
-0.054845605 0.019256301 0.022623187 0.047591783 0.0647574 0.047956932 -0.0837771 0.0076580574
0.05197603 -0.0049548093 -0.049022652 0.076710954 -0.029672291 -0.04404711 -0.07139583 0.0011353705
0.03328159 0.017669331 0.018952059 -0.059131555 -0.07505587 0.0008529527 0.074957944 0.049699947
-0.04467557 -0.008280065 -0.05826859 -0.03764439 0.016979672 0.04705231 0.070093565 -0.07216181
0.057394262 -0.055440154 0.028676534 0.066211745 -0.0016755429 0.07157935 -0.067492954 -0.033203386
0.044806562 -0.02063482 -0.019496432 -0.032449067 0.05780686 0.039286252 0.023846863 -0.04725146
-0.065979354 0.006526782 0.024591284 -0.035931263 -0.020254025 0.055475503 0.0036961979 0.0031181574
-0.019848214 -0.07117051 -0.07571126 -0.036821246 -0.038938936 0.02812086 -0.020906117 -0.030391179

encoder.conv2.bias f4 [16]
00000000: b304 5dbb 27cf 0e3d 286e 083d 1cc5 8439
00000010: cd99 25bd d5b4 5e3d d78e 673d a326 793c
00000020: 4f09 21bd 6368 a23c 1e72 4d3b 89a6 9e3d
00000030: 5f08 403c fdfb cb3b c883 533b 27b6 343d
-0.0033724725 0.034865525 0.03330818 0.0002532386 -0.04042988 0.054371674 0.056532707 0.015206966
-0.039315518 0.019825166 0.0031348537 0.07746608 0.011720746 0.0062251077 0.0032274593 0.044119027

encoder.fc1.weight f4 [120, 400]
00000000: b945 853a 662e 2b3d 2e25 df3c 6717 23bd
00000010: bc0d dfba c871 28bd fa5e 1cbd 2ec5 003c
00000020: 7278 173c 4658 b1bb c15f 4a3d b3ce cabc
00000030: 8323 9dbc 1021 23bc bf76 c5ba 52c3 bfbb
00000040: 9c0b 333d d825 9dbc e740 c8bc 3779 233b
00000050: 4bc8 163d 2eb2 303c 5d29 ef3c 3e00 3a3c
00000060: 26f5 263d f303 f63c 6b12 103d 1aad dcbb
00000070: 4c13 2ebd 0abe cabc 0f2d 763c 4321 183d
00000080: 35a8 a7bc e0dd 303d 32a9 a93b 0efb 8f3a
00000090: 337e 2a3a 1ed2 1bbc 1cd3 473d c3e6 e239
000000a0: 2187 ec3c 26ed 34bd 43ac c2bc f9ef fb3b
000000b0: 96b0 1e3d baea ba3c 9703 3c3c 7e2e 42bd
000000c0: 3c91 8dba 92ac 0fbd 5f9a 37bd 1410 9e3b
000000d0: 4e63 09bd 8438 353d 3878 cdbc d181 943c
000000e0: e31f eb3c 2019 27bd 2ed5 c43c 3bbf 95bb
000000f0: a8cd c43c 82d0 3d3d 9d98 bfbc 38e4 bcbc
00000100: 377e 1b3d f055 ee3b c388 32bb bacc 143d
00000110: 997b d6bc a5fc 92bb 37df 033d 6bbb 8f3c
00000120: 0d4a 0cbd bc3a 343c 51c7 24bd 0480 eebc
00000130: 9878 0b3d 4fa1 49bc 5b73 dbbc 6ba5 b23b
00000140: 5eea 253c 9e81 04bd c9f8 10bd 838f 4ebd
00000150: 0bea 753c cc62 0bbd 512b 1a3b fd2c 55bc
00000160: 971f f9bc 9ac7 5ebc be6f 25bd eafe e8bc
00000170: 00da 72bb 9dfd 2ebd ea5a 30bd c956 143d
00000180: ddbd e73b 081a a5bc ea69 2fbb 25a0 103d
00000190: 4e79 32bd 1a2a e3bc 9b8e 1cbd c73e b1bb
000001a0: e997 75bb bed9 23bd 1f77 0f3d 0346 15bd
000001b0: 742f 483d 3292 15bd f3b6 0cbc 10a7 f23b
000001c0: 5250 a6bc ea5f 393d 1305 13bd 2d8c 8dbb
000001d0: 5c1d 0dbd 65c7 833c 928a 2f3d e2c1 463d
000001e0: 0077 903b fe90 d7bc 3323 3f3d b6d5 b13b
000001f0: e807 143d 2594 d1bc b717 bebc b169 32bd
00000200: ca97 343d 193a 233c cf15 13bd d7e3 323b
00000210: 33b0 afbc 2e3a e839 3403 6e3c fd41 cbbc
00000220: c30c 1b3c 2b82 00bd 9eca fa3b 199a 3fbd
00000230: 6d8a 023c e7ec 4e3d 5e82 3d3d cdd8 843c
00000240: 98d6 1c3d 501e 473d 850c 7f3c 8d14 963c
00000250: ac2e 063c 1184 2d3d 1c0f 283d 7334 d0bc
00000260: 9dec 7abb 17e2 ddbc fe7f 843c e1a3 3cbd
00000270: d8cd a53c 4f7e 39bc 195a 8d3c 83ea 653c
00000280: 8c8a dabc 8bac c43c e1c7 9e3c 2488 35bd
00000290: a10b 453d 3c86 293d fe5a f93c 102d 2dbb
000002a0: 76a3 843c 0310 edbc f892 9abc 93d0 b03c
000002b0: 9280 a73c beac 923c 670f 4bbd 3159 213d
000002c0: c3ca bbbc f6bb 293d 6cff 223d bdc7 8c3c
000002d0: ebb2 433d f191 da3c 5516 e13c 3175 98bc
000002e0: d1b5 463d 6ede 4c3c af23 e43c 4b1c 57bc
000002f0: 4398 0c3d 260c 3f3d d36e 24bd 95c2 203d
00000300: e3e4 0ebd d606 14bd 7fc6 31bd 7c0b 883c
00000310: 6776 0fbd 2457 a8bc a227 ddbc dc65 3a3c
00000320: 2331 51bd 8cf3 c0bc c0d9 9a3a 3e5f db3b
00000330: 7195 c9bc 6537 833c 7272 02bd e071 28bd
00000340: c0fd 04bc 16c9 d4bc 7b5b 083d b0fb 13bd
00000350: d387 ccbb d3b2 af3c 3cfa 34bd d325 183d
00000360: f5a3 a8bc e21a 46bc 61a9 02bd 33e9 8bbc
00000370: 04fb aabc a277 3dbd 1b90 753c 396a 0bbb
00000380: 7be4 433d bb5b 023d bccc 293d a76a 523c
00000390: 9dd6 c73c 18cf 383d 1683 253d 9b5e 24bd
000003a0: 24bb 55bc 7810 4dbd bc02 2e39 9a08 81bc
000003b0: 31ae 2b3d f30f ca3b 166d b8ba 8f8c 1bbd
000003c0: 8254 27bd 16e0 d03b 6b08 d9bc f3db cbbc
000003d0: e51e 083d 2446 e4bc d5e2 c5bc 5395 173d
000003e0: e4ae 913c bfb0 f8bc dd53 563c 310c c73c
000003f0: 3083 32bd 5dc8 f53b 5e17 443c bc9e 81bb
0.0010167874 0.041792296 0.027239408 -0.03981724 -0.0017017643 -0.041124135 -0.038176514 0.007859511
0.009245025 -0.0054121343 0.049407724 -0.024756765 -0.019181972 -0.009956613 -0.0015065296 -0.0058521414
0.043712243 -0.019183084 -0.02444501 0.0024944076 0.036812108 0.010784669 0.029194528 0.011352597
0.040761136 0.03003118 0.035173815 -0.0067345025 -0.04249887 -0.02474882 0.015025391 0.037141096
-0.02046595 0.043180346 0.0051776404 0.0010984854 0.00065037905 -0.009510545 0.048785314 0.0004327801
0.028873028 -0.044171475 -0.023763781 0.007688519 0.038742624 0.022817004 0.011475465 -0.04740762
-0.001080073 -0.035076685 -0.044824954 0.004823694 -0.03354197 0.04424335 -0.025081739 0.018128308
0.028701728 -0.040795445 0.024027433 -0.0045699156 0.024023846 0.046341427 -0.023388201 -0.023058042
0.037962165 0.007273428 -0.002724216 0.036328055 -0.026181983 -0.004485684 0.032195296 0.017545423
-0.034250308 0.0110003315 -0.040229145 -0.029113777 0.034050554 -0.012306525 -0.026788404 0.0054518483
0.010126678 -0.032350175 -0.03539351 -0.050429832 0.0150094135 -0.034029767 0.0023524354 -0.013011214
-0.030410571 -0.013597393 -0.04038977 -0.028441865 -0.0037056208 -0.042722333 -0.043055452 0.036215577
0.007072194 -0.020154014 -0.002676601 0.035308976 -0.043572716 -0.027730037 -0.038221937 -0.005409095
-0.0037474579 -0.040002577 0.035025712 -0.03644372 0.04887338 -0.036516376 -0.00858854 0.0074051693
-0.020301972 0.045257486 -0.03589351 -0.004319689 -0.034451827 0.01608629 0.04285676 0.048524745
0.004408717 -0.026314255 0.046664428 0.0054270877 0.036140352 -0.025583336 -0.023204667 -0.043557826
0.04409007 0.009962582 -0.03590947 0.0027296448 -0.021446323 0.00044293836 0.014527131 -0.02481174
0.009463492 -0.031374138 0.0076535484 -0.04677782 0.007967574 0.050518896 0.046266906 0.01621666
0.03829059 0.048612893 0.01556695 0.018320346 0.008189838 0.042362276 0.041030034 -0.025415635
-0.0038288005 -0.027085347 0.016174313 -0.046054725 0.020239756 -0.011321618 0.017254876 0.014032963
-0.026677392 0.024008056 0.019382419 -0.044319287 0.048106793 0.04138778 0.030438896 -0.0026424564
0.016191225 -0.028938299 -0.018868908 0.021583831 0.02044705 0.017904636 -0.049575236 0.0393917
-0.022923833 0.04143902 0.03979437 0.017185086 0.04777805 0.026680918 0.027476469 -0.018610569
0.048513237 0.012504203 0.027849047 -0.013129304 0.034324896 0.046642445 -0.040144753 0.039248068
-0.034886252 -0.03613933 -0.04340219 0.016607039 -0.035025027 -0.020549364 -0.026996437 0.011376824
-0.05107225 -0.023553632 0.0011814162 0.0066947034 -0.024607392 0.016017625 -0.031847425 -0.041124225
-0.008117139 -0.025974791 0.033290368 -0.0361287 -0.0062417774 0.021447575 -0.044183955 0.037145447
-0.020585993 -0.01209137 -0.031899814 -0.017078971 -0.020871647 -0.04625667 0.014987971 -0.002127303
0.047825318 0.031825762 0.041455016 0.012842811 0.024394328 0.045119375 0.040408216 -0.040129285
-0.013045106 -0.050064534 0.00016594952 -0.015751172 0.04191417 0.006166452 -0.0014070596 -0.037975844
-0.040852077 0.0063743694 -0.026493272 -0.024885153 0.03323259 -0.027865477 -0.024156014 0.03700764
0.01778359 -0.030357717 0.013081518 0.024297806 -0.04358214 0.007500692 0.011968462 -0.00395569

encoder.fc1.bias f4 [120]
00000000: ab98 f6bc 48d0 a33c 4dab 5abc ac9c ca3c
00000010: 2300 be3c 4dac 063d a05f 8ebb d573 a6bc
00000020: 8dfd d63b 4b78 87bc 61c9 823c 1a72 21bb
00000030: c40d 90bb 8a99 413d cbf9 1fbd a823 2e3d
00000040: 838f 923c 1727 f1bc 996e 253d 9eaa 69bc
00000050: 30b6 19bd a0c4 4dbc c858 a83b 034e 25bd
00000060: 276b 913b f838 be3c a4d5 37bd 5291 c03c
00000070: 32a8 8c3c 3996 4d3d a6e8 4f3d b0af 06bc
00000080: afa3 9abc c142 43bd 8814 c9bc 1174 043c
00000090: cd80 e03c 9997 143d d00f a13c 4dba a3bb
000000a0: 807d 513c 685e f53c 3a7f 1b3d 0396 063d
000000b0: f308 e3bc 2755 bdbc 4198 29bc fe62 9cbb
000000c0: 9c2c 39bd 6e29 2a3d b9e6 0f3d 72c3 243d
000000d0: ae99 983c 9605 553d 5420 3038 f7f8 30bc
000000e0: 7a33 423b 5b26 6c3c 3a94 4e3c 7a44 18ba
000000f0: aa2d 233b 7fc5 febc 0050 4bba ecee e53c
00000100: 4766 2d3b 45ab 40bd f452 a1bb 26a8 90bc
00000110: f710 0d3d 0d4a 063d 7753 e7bc 9c69 a43c
00000120: 5d34 1a3c d6af 10bd 43ac 91bc 9fc8 fc3b
00000130: 769c de3c 1c1d a3bc e17a 3c3c d7ea 833c
00000140: bde3 25bd bf1f 17bc f20b 803c e0ed b13c
00000150: 36b1 333c 3c83 9ebc 50de 73bc a14a bf3c
00000160: 577b 9d3c b038 ccbb 074d 483d fa0e 143c
00000170: 75bc 28bd f6d3 8c39 075a 08bc ae30 f3bb
00000180: 32b1 d4b9 ac83 49bc d71a c5bc 121a f03c
00000190: 7e50 0e3d d469 06bd 1aec dc3b 9320 963c
000001a0: 4c2c 33bb 4208 23bb 5969 19bc b329 84bb
000001b0: d327 1ebd c56c 413d d6c3 3f3d 0067 e23c
000001c0: 7abb a0bc 73d0 77bc f528 6b3c 8a07 ec3c
000001d0: 13bd bdbb 2b2b dcbb d945 40bd aad9 23bd
-0.030102095 0.019996777 -0.013346505 0.02473291 0.023193425 0.032879163 -0.0043448955 -0.020318905
0.0065609873 -0.016536852 0.015965166 -0.002463466 -0.0043961722 0.047265567 -0.03905658 0.042514473
0.017890697 -0.029437585 0.040388677 -0.01426187 -0.037527263 -0.012559086 0.0051375367 -0.0403576
0.0044378224 0.023220524 -0.044881478 0.023506794 0.017170046 0.05019209 0.05075898 -0.008220598
-0.018876879 -0.047671083 -0.024545923 0.008084313 0.027405167 0.036277387 0.01966086 -0.004996574
0.012786269 0.029952243 0.03796313 0.032857906 -0.027714228 -0.023111893 -0.010351242 -0.004772543
-0.04520856 0.041543417 0.035132144 0.040225454 0.018627968 0.05200728 4.1991778e-05 -0.010801545
0.0029632733 0.0144134415 0.012608582 -0.00058085436 0.0024899044 -0.031100033 -0.00077557564 0.028068028
0.0026458667 -0.047038335 -0.004923219 -0.017658304 0.034440007 0.032785464 -0.028238041 0.02006989
0.009411898 -0.03532394 -0.017782336 0.0077143456 0.027174216 -0.019911341 0.011503906 0.016103191
-0.04050039 -0.009223877 0.015630696 0.021719873 0.010967543 -0.019349687 -0.014884546 0.023351016
0.019223852 -0.0062323436 0.048901584 0.009036774 -0.04119535 0.00026860804 -0.008322245 -0.0074215746
-0.00040567812 -0.012299459 -0.02406065 0.029309306 0.034744732 -0.03281577 0.0067420127 0.01832608
-0.0027339635 -0.0024876748 -0.009363496 -0.0040332912 -0.038612198 0.04722287 0.046817623 0.027637005
-0.019620646 -0.015125382 0.014353027 0.028812189 -0.0057903617 -0.006719013 -0.046941612 -0.040002503

encoder.fc2.weight f4 [84, 120]
00000000: fa00 cf3b 5cd6 84bb 5bcb 07bc 2720 a43d
00000010: db7e f43c eb09 8cbd 5eec 83bd ac4c b13c
00000020: 72a8 643d df80 acbd 7f1d 093d 0be0 26bd
00000030: ab93 0d3d acc2 42bd e035 9d3d 49e7 ae3d
00000040: d24d 82bd d659 a5bd fde3 d73c a62b 953d
00000050: 0e09 243d 004b 36bd 12ab 9e3d 4e09 b9bd
00000060: 79f0 9b3d 21b6 06bd 70d6 cebb f445 2ab9
00000070: febc cebc 0708 abbc 5736 b83c 9d4f 903c
00000080: a04f 2d3c 9486 b73d d01d 13bc c37f 67bd
00000090: a2ca a3bd 5eba 8d3d 2947 87bd 97a6 3c3d
000000a0: 31f2 59bd dda2 79bd b1ef 6b3c b00f 8e3d
000000b0: a35a a8bd acb3 753d ba09 babd 9da2 96bc
000000c0: b000 d4bc b0a1 84bd 7dde 90bd b5e1 1bbd
000000d0: 9ba7 95bd e827 743a 51ef 79bd 49fc 2dbd
000000e0: 7282 3abd f1ea db3c 4c9d d6bc 4120 593d
000000f0: 54e2 633d a67e 89bd 8de5 7dbc b85d babd
00000100: 11fb 323d b1f3 a2bc aca6 c03c 1b61 f63c
00000110: afbf a53d 5223 15bc 3b38 ddbc 7e6c b03d
00000120: 7a6e ebbb 54fd 883c 72cc 133c bb1f 45bd
00000130: 8f94 573d 8096 9abd cdf8 3a3d b315 363d
00000140: 0c29 743d 941c 84bd b644 833d 78b9 ac3d
00000150: 740c c7ba f2f8 b0bd f172 8dbb 39ef 00ba
00000160: 0c8d a3bd a050 b9bb 3b0e f7bc 977c a9bd
00000170: a9e2 723d bbd7 c43c 3b50 1fbd 38ac a93d
00000180: 1dfd 973b 8037 a53b ee24 383c f375 9abd
00000190: e5d0 1dbd 369b 493c dc40 0abd d48d 423d
000001a0: b2e1 1e3b 6e44 9e3c 58f9 b43d 2d66 20bd
000001b0: 9178 49bc 0047 5bbd 119a a3bd 4fac aa3c
000001c0: 090c 853d e21d fd3c 1af1 92bd 1010 723d
000001d0: 11b8 aabd 97e2 82bd 2223 aa3d d19d 2bbd
000001e0: e754 49bd 2fdf 0fbd 816c 33bd f6fc d33c
000001f0: da15 45bd a6e6 b8bd dcc6 e0bc c854 273c
00000200: 3679 c03b 16a3 543b a8bb bcbd 2ba2 d2bc
00000210: 87a4 58bd 7ff6 b3bc cb75 51bd 11d4 27bb
00000220: ba22 83bc efcb abbd 83a2 1f3d 1ba0 eb3c
00000230: 9f65 d73c a21f 0d3d 42f7 6fbb b916 943c
00000240: c099 b6bd 5e89 793d 1dd8 983d c896 0bbd
00000250: 9b24 9c3d 9ba0 e3bc 9f3b 0e3d d6f8 03bd
00000260: 1531 51bd 315f 36bd e1bf 7c3d 27f2 e6bc
00000270: 4ada 92bd ef01 113c 7126 60bd 8823 6bbd
00000280: 9f8d 50bd fbd6 5ebd 04b4 6fbd 8b33 0d3d
00000290: 78b4 04bd eee6 b33c 5de0 9a3d 6aa3 c43c
000002a0: ef9a b83d 0a31 9a3d a0bf 293c 4717 2f3d
000002b0: 3857 b33d d0b3 87bd ed9a 6abd b3a0 843d
000002c0: c6ac 433d a4b3 e03c 5a00 723c 4e04 59bd
000002d0: 65e8 0d3d 9f3b f3bb 7ec3 733b 9bee a73d
000002e0: 626d 4b3d c6f3 4d3a edfc a1bc 8b43 64bd
000002f0: 956f 1d3d dd99 b23d 9b33 3dbd 5a41 84bd
00000300: 6adf 693d 5d24 a1bd 96ac aa3d 2a85 523c
00000310: 92da a73d d89e 1f3c 6091 cc3c ed2f afbd
00000320: 0d25 39bc 10ed 903d 7e7a 1abd f8fc 953d
00000330: cd58 39bc 0046 3dbd 203b 39bd 6cae 91bd
00000340: 438b ce3c dcd2 48bd 4b69 173d fae0 ccbc
00000350: 70c5 443d 2a1f 823d 614f 89bd 97e2 5cbd
00000360: f217 7c3d 7265 ccbc bfa3 9bbd 5b6e 50bd
00000370: 47ed b1bd bdee 61bd 6dab b736 3065 853d
00000380: cc0f 7e3c 48af 0a3c ba65 0cbb f527 61bd
00000390: 17a9 3a3d cf11 7a3d 19a1 053d 7862 9b3d
000003a0: bd88 b63d 8f6e 293c 78b4 4cbd f6c9 873d
000003b0: 9483 203c 996b 98bc d894 44bc 95e3 253c
000003c0: 2636 28bd f7ed 643d 490a 8ebd cc3e 133c
000003d0: e41b b8bd 8ccf 143d 34c3 2abd 28f4 babb
000003e0: 3675 903d ecf8 8c3c 92f0 a13b 0952 153d
000003f0: 169c d43b 418e 713d 3d17 243c 9aaf 733d
0.006317255 -0.004053874 -0.00828823 0.08013945 0.029845646 -0.06837829 -0.06441568 0.021643005
0.055824704 -0.08423018 0.033475395 -0.040741008 0.034564655 -0.047548935 0.076762915 0.08540208
-0.06362499 -0.080737755 0.02635383 0.07283716 0.040047698 -0.04450512 0.07747473 -0.09034978
0.07614226 -0.032888535 -0.006312184 -0.00016238523 -0.025236603 -0.020877851 0.022486849 0.017616088
0.010578066 0.089612156 -0.008979276 -0.056518327 -0.079976335 0.06920312 -0.066053696 0.04605731
-0.053209487 -0.060946334 0.014400409 0.06936586 -0.082204126 0.0599858 -0.090838864 -0.018388087
-0.025879234 -0.06476152 -0.07073686 -0.038057048 -0.07307359 0.0009313808 -0.061019246 -0.042476926
-0.04553456 0.026845427 -0.026198052 0.053009275 0.055635765 -0.067136094 -0.015496624 -0.09099907
0.043696467 -0.019891592 0.023516975 0.0300756 0.08093201 -0.009102659 -0.027004352 0.08614443
-0.0071848007 0.016722359 0.0090209115 -0.048125964 0.05263191 -0.07548237 0.04564743 0.044454288
0.059609458 -0.06450763 0.0640959 0.08433813 -0.0015186206 -0.086412326 -0.0043166806 -0.00049184595
-0.07985887 -0.005655363 -0.030158153 -0.08275717 0.05929819 0.02402865 -0.038894873 0.08284801
0.0046383278 0.0050420165 0.0112392735 -0.07542028 -0.038529295 0.012305072 -0.03375326 0.04749854
0.0024243412 0.01931974 0.08836621 -0.039159942 -0.012296812 -0.053534508 -0.0798837 0.020834116
0.06496436 0.030898038 -0.07174893 0.05909735 -0.08335889 -0.06390875 0.08307482 -0.041898552
-0.049153235 -0.035124954 -0.04380465 0.025877457 -0.048116542 -0.09028368 -0.027438574 0.0102130845
0.0058738245 0.003244584 -0.0921548 -0.025712093 -0.05289128 -0.021968124 -0.051137727 -0.002560858
-0.01600777 -0.083885066 0.038973343 0.028762868 0.026293574 0.034453996 -0.0036615883 0.018077241
-0.08916044 0.06092202 0.07463095 -0.034079343 0.076241694 -0.027786544 0.034724828 -0.03221973
-0.0510722 -0.044524375 0.061706427 -0.02819164 -0.071705416 0.008850559 -0.05472416 -0.057406932
-0.05091631 -0.05440424 -0.058521286 0.034472983 -0.03239867 0.021960702 0.07562325 0.024003703
0.09013926 0.07528885 0.010360628 0.04274681 0.0875687 -0.066260934 -0.057276655 0.064759634
0.04777219 0.02742941 0.014770592 -0.05298262 0.034645457 -0.007422879 0.003719538 0.08199807
0.049664862 0.00078564545 -0.019773925 -0.055728476 0.03843649 0.08720753 -0.046191793 -0.06457777
0.05709783 -0.07868264 0.083336994 0.012849132 0.08195986 0.009742461 0.024971664 -0.08554063
-0.0113003375 0.07076466 -0.037714474 0.073236406 -0.011312676 -0.046209335 -0.0452224 -0.071133465
0.02521289 -0.049029216 0.03696565 -0.025009621 0.048039854 0.063536 -0.067045934 -0.05392703
0.061546274 -0.024950717 -0.075995915 -0.050886493 -0.08687835 -0.05515932 5.4737816e-06 0.065134406
0.015506696 0.008464642 -0.0021422938 -0.054969747 0.045571413 0.06105214 0.032624338 0.07587141
0.089127995 0.010341301 -0.049976796 0.06630318 0.009796996 -0.018605994 -0.011998378 0.010125061
-0.041067265 0.055891003 -0.069355555 0.00898714 -0.08989695 0.036330745 -0.041690066 -0.005705375
0.07053606 0.017208539 0.0049420083 0.036455188 0.0064883335 0.058973555 0.010015306 0.05949364

encoder.fc2.bias f4 [84]
00000000: e3f2 b8bd ee6e 843d c934 973d 7e79 1d3d
00000010: c9d8 2a3c 4279 9e3b 23a7 2c3c 4a4f 803d
00000020: f787 853d 503d 43bd 49ba f83c b37b 4ebc
00000030: 2106 723d ec07 27bd 65d9 6a3d 0dbc cc3c
00000040: 0641 533c 4be0 973b 3b8a 573d 3813 a63d
00000050: 8381 b13d c6ed 84bc ab4b b53d 481a a73d
00000060: 3843 993d 25d5 223d a469 c0bd c45c 9ebd
00000070: ddf0 a6bd e10d 64bd 7f07 a9bd f1fd e73c
00000080: 6f1a bb3d 3a28 3bbd 7060 233d dd25 c33c
00000090: 03b3 df3c 8571 403c 6faa 023d a5ff 8a3c
000000a0: ecd1 003d b623 233d 98cb b8bd ae25 b0bd
000000b0: c0e3 da3c 0da1 b5bd 5a7b b03c 370d 113d
000000c0: 05f9 98bd b9c4 743d 346d 83bd 3a54 82bd
000000d0: b436 1b3d 1ef5 8b3d ebd4 07bb aee9 e9bc
000000e0: 2f64 cb3b 887f 2ebd d4bb 97bd 04c1 33bd
000000f0: 7491 9ebc cbf4 24bd a20e a93d 531d 6c3d
00000100: 2de3 be3b 21fb 8a3d 4344 43bd 837c 5c3d
00000110: 9fa5 78bd 3684 b9bd e286 eb3c 7db6 d83c
00000120: 213b 7fbb 5243 2d3d 535f 123c b7d5 053d
00000130: e281 fb39 b4dc a4bd a7c6 b9bd 79d1 b6bc
00000140: f216 e63b 28d4 8abd d557 eb3c 6061 1bbd
-0.09030702 0.06466471 0.07383115 0.038445942 0.010427662 0.0048362324 0.010537895 0.06265123
0.06520074 -0.047665894 0.030362265 -0.012602734 0.059087876 -0.04077904 0.05733623 0.024992013
0.012893921 0.004634892 0.05262206 0.081091344 0.086672805 -0.01622666 0.08852323 0.081593096
0.07483524 0.03975405 -0.09395149 -0.077325374 -0.0815141 -0.0556773 -0.08253383 0.02831933
0.09135901 -0.04569266 0.03988689 0.023821766 0.02730704 0.011745815 0.03190082 0.016967604
0.031450197 0.03982898 -0.090232074 -0.08600937 0.026719928 -0.088686086 0.021543194 0.035412993
-0.07469372 0.05975792 -0.06417313 -0.06363721 0.037893966 0.06833862 -0.0020726274 -0.02855381
0.006207011 -0.042602092 -0.07408872 -0.043885246 -0.019356467 -0.040272515 0.08254744 0.057645153
0.0058254213 0.0678618 -0.04767252 0.05382968 -0.060704824 -0.0905842 0.02875084 0.026454205
-0.0038945156 0.04230053 0.00893386 0.032674517 0.0004797122 -0.08049908 -0.09071093 -0.022316681
0.0070217783 -0.06778747 0.028728405 -0.03793466

bottleneck.fc.weight f4 [16, 84]
00000000: 2cef adbc ee9f 283d fdda 6ebc 691c aabd
00000010: 019c 923c 9729 dbbd e140 be3d 563c 8abd
00000020: fefb 643d 0723 50bc 494a c6bc 813a a83d
00000030: b117 97bd 3827 a7bd 9fd1 cabd 01ba 8dbd
00000040: f464 bf3d b1ce 26bd 5a98 563d 403f 04bc
00000050: 6108 3fbd 9648 7cbd 817d d73d f379 bcbd
00000060: cedf 0d3d 89d2 a3bb 53a5 d4bc 1c9d ce3d
00000070: 856a 143d 0cb9 dbbd cd7b 063b 5d7f e8bb
00000080: 6eb6 a93d 4980 a4bd c45f 2e3d 777b c63c
00000090: cb12 793d 3082 0ebd ab43 9d3d 84a4 1fbd
000000a0: f3a2 edbc 745e b93d 52f0 52bd 59bb 053d
000000b0: e74a 43bd 9725 483d 166b df3d 724b b6bd
000000c0: 6ce4 a73d 6a20 e8bc a665 63bd 7a2c 2cbd
000000d0: 2426 81b9 951c f53b d254 703d 88e2 5f3d
000000e0: c075 81bd d9d2 853d 6c2f d9bd da81 d53c
000000f0: 411b 843d 6a2e f8bc 8cb4 82bd 782c 2ebc
00000100: c91b 5d3d 9304 72bd 6267 203d 2fc2 9c3c
00000110: 92f9 69bd 878d bb3c 6d54 793c 3230 a03d
00000120: de8f 473c eb3f ba3c e349 52bd 42be c6bd
00000130: 194e 953d cac8 483c 054e e03c 1bbd 87bd
00000140: 7fb1 7cbc 2c09 d7bb ada9 c5bd 42af 3f3c
00000150: 23d2 cb3c 339f 89bd cfd0 c53d b15e de3d
00000160: 5bf9 9c3d cdf1 97bd 922a 8b3d d1f1 f33c
00000170: 60d3 9fbd c117 a3bd 9bb1 993c 038e d03d
00000180: 7846 c83d 5e01 c13d 28e4 a3bc 78c4 5cbd
00000190: b235 893d 1070 923c d98d 943d 988e 293c
000001a0: 5d40 553d 23df b03d 6c14 04bd 3bbe 74bd
000001b0: ff6e f23c 7f13 ca3b 9d69 2fbd ee29 d63d
000001c0: 9446 d23d d9f8 bb3d 86a3 e3bb c46b 90bd
000001d0: b296 e73c 5461 4c3d cc3f 64bd 5a94 88bd
000001e0: 4b0e 71bd 90fc dfbc 54f0 0bbd 920a 6abd
000001f0: ee33 dc3c 8fa1 603d 74f1 27bc 528e 903b
00000200: 3f41 103d 98d2 cdbd 0de3 043d 3110 3a3d
00000210: 1da4 893d 77c1 d13d 5065 3abd 0c15 95bd
00000220: 42f9 403d 508a d5bd 6927 75bd b88c e43c
00000230: 7780 453c 856e 543b 59b7 58bd f3f2 3d3d
00000240: 6ae4 d3bd 7f2d a83d eaa1 da3c 2ae4 dabd
00000250: bbb1 94bd 8357 bebd a97e b3bd e3f4 6cbd
00000260: 986b 333b c50c 9c3c 1a69 8cbd f022 6e3d
00000270: d200 0e3c 40b1 ee3c 1dbb b13d 7888 323d
00000280: 8ed0 813d dc1e dfbb d423 963d b648 933d
00000290: 9c14 cd3c 32bf b43d d1fb b5bd 1ec2 943d
000002a0: feec 64bd f1b1 c0bd 76cd c33d b009 1bbd
000002b0: 360b 0bbd 7593 683d 84e3 8e3d 8742 b53d
000002c0: 2f1b d13d f5b2 0ebd 8f6e 36bd 0d3f cfbb
000002d0: 2c54 2c3d 5a9d a03c d23e 023a 85e6 963d
000002e0: 61b3 183d df24 6a3c b3a9 4abc f110 5c3d
000002f0: 22b0 cf3d b1b6 d03d 04e5 133d 956a e03c
00000300: 6f9c 233d 20e0 b8bd 2e0f bb3c c360 65bd
00000310: 470b 03bd 0c03 063d 579c 18bd 2fc8 b5bd
00000320: 2006 753c 6b47 cbbb b968 c23d 47b2 533d
00000330: 4b15 13bc 9cab 583d 4515 5bbd 35de c13d
00000340: 7e5a b03d d98b 853d dafe 3fbd 718c f13b
00000350: d225 0abc 6fff 9cbd 702e 63bd deef 8abd
00000360: e0af bcbd 82da 9b3d 7d0b 7f3d d635 17bc
00000370: 47fd 77bc e217 babd 6280 20bd f35e 9e3d
00000380: a459 7cbc 2496 aabd 85fc b2b9 7a4f 0e3b
00000390: b420 db3c 7b24 a43d a398 36bd 26ab 42bd
000003a0: c217 85bd 6e53 ae3d 2fda 903d 3923 aabc
000003b0: a6d4 2d3d 05e6 8c3d 19ae e1bc 4524 39bc
000003c0: 94c1 af3c 4472 dabd 5d8b e8bc 4b7d be3c
000003d0: 14b5 d6bc 0338 f9bc ef58 adbd 4bfa d9bc
000003e0: ca0b a7bd 48fe b3bd 4d59 ba3d 0ee7 a53c
000003f0: 5d9f 8a3d ff03 d4bc e5ef 97bd 96f5 b13d
-0.02123221 0.041168146 -0.014578578 -0.083062 0.017896654 -0.10701292 0.092897184 -0.067497894
0.05590438 -0.012703664 -0.024205344 0.08214284 -0.07377566 -0.08161777 -0.09903263 -0.06920243
0.09345427 -0.04072446 0.052391388 -0.008071721 -0.04663885 -0.06159266 0.10521985 -0.092029475
0.034637265 -0.004999463 -0.025957739 0.1008856 0.036234397 -0.10728654 0.0020520568 -0.007095261
0.08286749 -0.08032281 0.042571798 0.024228795 0.060808938 -0.034792125 0.07678922 -0.038975254
-0.029008364 0.09051219 -0.05149872 0.03264937 -0.047678854 0.048863973 0.10909097 -0.08901109
0.08197865 -0.028335769 -0.05551686 -0.042034604 -0.00024633214 0.007480214 0.05867464 0.054659396
-0.06321287 0.065343566 -0.10604748 0.026062895 0.06450511 -0.03029557 -0.06382093 -0.010630719
0.053981576 -0.059086394 0.039161094 0.019135563 -0.057122774 0.022894634 0.015217883 0.078216925
0.012180297 0.022735557 -0.051339995 -0.097042575 0.072902866 0.012254903 0.027380953 -0.06627866
-0.015423178 -0.0065623727 -0.09651504 0.0116995 0.024880474 -0.06719818 0.09658968 0.10857905
0.07664748 -0.07419167 0.06795229 0.029778393 -0.078039885 -0.07963515 0.018761447 0.101833366
0.09779066 0.09424089 -0.020006254 -0.053898305 0.06699695 0.017875701 0.07253618 0.010348938
0.052063335 0.0863631 -0.03224604 -0.05975173 0.029593943 0.006166875 -0.04282533 0.10457216
0.10267368 0.09178323 -0.0069469837 -0.07051805 0.0282701 0.049897507 -0.055724904 -0.06668921
-0.05885152 -0.02734211 -0.03416474 -0.057138987 0.02688023 0.054841574 -0.010250438 0.004411497
0.035218474 -0.10049933 0.032443095 0.045425598 0.06720755 0.102419786 -0.045506775 -0.07279405
0.04711271 -0.10426772 -0.059852038 0.027899131 0.012054554 0.0032414508 -0.05290923 0.046374273
-0.10346301 0.08211803 0.026688535 -0.1068805 -0.07260462 -0.09294035 -0.08764393 -0.05785073
0.0027377363 0.019049058 -0.06855984 0.058138788 0.008667188 0.029137254 0.08678267 0.043587178
0.06338607 -0.0068090986 0.073310524 0.07191603 0.025034241 0.0882553 -0.08885921 0.072635874
-0.055890076 -0.0940894 0.09560673 -0.037851036 -0.03394624 0.05678125 0.06976989 0.0885058
0.10210263 -0.034838635 -0.04453903 -0.006324655 0.04207246 0.019606281 0.00049684674 0.07368187
0.037280444 0.014291017 -0.012369561 0.053727094 0.101410165 0.101910956 0.03610708 0.027394572
0.03994411 -0.090271235 0.022834387 -0.056000482 -0.031993177 0.03271775 -0.037258472 -0.088760726
0.014955074 -0.006203582 0.094926305 0.05168369 -0.008977245 0.052898034 -0.05348708 0.09466211
0.0861101 0.065208144 -0.046873905 0.0073714782 -0.008431869 -0.076659076 -0.055464208 -0.06784032
-0.09213233 0.076100364 0.062266815 -0.009229144 -0.01513607 -0.090865865 -0.039184935 0.07732954
-0.015402231 -0.08329418 -0.00034138947 0.0021714852 0.026748993 0.080147706 -0.04457916 -0.0475265
-0.06498672 0.08512007 0.07072865 -0.020768749 0.042439125 0.0687981 -0.027548837 -0.011300151
0.02145461 -0.10666326 -0.028386766 0.023253104 -0.026209392 -0.030422216 -0.08464228 -0.026608607
-0.081565455 -0.08788735 0.09099064 0.020251777 0.067686774 -0.025880812 -0.07418803 0.0868942

bottleneck.fc.bias f4 [16]
00000000: da5f 67bd f2a2 08bd da02 c0bc a576 12bc
00000010: 2b8c 95bd a825 ebba 77cb 743c df7a 02bd
00000020: 0478 6cbd 1ea4 a73d 0bdd 343d 6913 ac3c
00000030: 6019 2c3c bd12 5c3d 2269 87bd 99aa 433d
-0.056487896 -0.03335852 -0.02343886 -0.00893942 -0.073021255 -0.00179403 0.014941088 -0.03185546
-0.057731643 0.081856 0.044156116 0.02100535 0.010504097 0.053728808 -0.06611849 0.047770116

decoder.fc3.weight f4 [84, 16]
00000000: c467 b83d 8496 ea3d d515 f13d 2e51 32be
00000010: 5c8c d93d 4456 53be 7dc4 153d ecb6 ffbd
00000020: 3041 813c db1e 48be e081 e93d 1459 033e
00000030: f0fd eabc 57a2 9fbd 743f 36be 60ca 05be
00000040: ed83 ef3c 229d 97bd c6c7 3abe dfd0 73be
00000050: a8b7 a0bd 245c 06bc a2ad cfbd 3cab 87bd
00000060: 781e 503e c37c 07be b2cf 333e 459b e53c
00000070: 304f a8bd b60f e6bd 4467 c8bd fae3 cfbc
00000080: a6f0 1abe 0169 383e ed9c ff3c a7ae 0dbe
00000090: 0690 78be 2a44 e2bd 0e38 1c3e c882 a3bd
000000a0: 2c78 b83d df02 b8bd bb59 133e 6cef 8d3d
000000b0: 0061 87ba bad1 093c 287d 593e f1f1 47be
000000c0: ce8a a33d cbf3 233e 2dd8 9ebd c7e1 123e
000000d0: 404c 253d ef63 8dbd 018c 053e a093 f63c
000000e0: b88c 453d ab87 cbbd e31c 1abe 75ed 27be
000000f0: c0d3 8d3d 0c5c 5bbd d416 b8bd 7517 fcbd
00000100: dc94 eabd 2c95 06be 044e d73d bce0 163e
00000110: ca5b 69be 80b8 49bb e8e0 8f3d 00bd 4e3e
00000120: aa36 373e 1038 a2bd 0000 aa3a 10a7 42bd
00000130: d6b7 48be 844b f63d 2cd3 813d 1815 f5bd
00000140: 5451 b13d 9443 a0bd 4289 2dbd 1d1b e2bd
00000150: 88af 433d d78d 07bd 4f52 913d a04a e6bc
00000160: 0010 073c bf14 4c3c 3dd2 243d 5ba1 6a3d
00000170: fe80 26be f7e4 22be 78d1 b63d 1392 693e
00000180: a016 13be b053 523e 3604 52be 44f0 eabd
00000190: 00ee 92ba cafa 47be d801 6ebd b4f4 51be
000001a0: 48f8 c03d 0461 40be 3077 a63c f849 5b3d
000001b0: 1c5f 92bd 2022 7f3e 8a29 7d3e 9cb8 573e
000001c0: aa17 7b3e 0005 143c 0897 513d c08f e2bc
000001d0: d0d3 a13d 2cb8 533e 785a 6cbe a0e2 14bc
000001e0: fac0 783e b8e7 75bd f472 bdbd 16f1 573e
000001f0: 00b7 313b eedc 68be d899 213d 089e e5bd
00000200: c601 04be 3c8e fcbd 9086 f4bc e0e5 76bd
00000210: 1844 2d3e c649 2b3e c00f 0fbd bcbd d1bd
00000220: 44b9 273e 788b ce3d 5c6b 913d 2c00 08be
00000230: 3078 933c 80f5 8bbc 326c 4d3e e023 753d
00000240: 6025 543c 0ea6 7dbe 5cb1 c3bd 2408 c43d
00000250: 601e e2bd 2e3b 18be 7098 71be 00a4 50be
00000260: a835 633d 3cde a13d 1c38 e7bd a63d 45be
00000270: 1845 533e ca19 393e 7ea0 4a3e 662b 03be
00000280: 9071 dbbc 0056 a63a 9406 42be 1076 54bd
00000290: def2 1abe 7866 583e 28fd 13bd 0ce3 7fbe
000002a0: b403 cfbd 8007 0f3e 04bf b6bd 9606 333e
000002b0: 98fc f0bd 0475 bfbd 2c1b 06be a043 0dbd
000002c0: cb79 0e3e 1522 f13d da21 3a3e d255 dc3d
000002d0: 2cb0 efbd 07dc 76be a3fb 66be 4884 6ebd
000002e0: b0ba d4bc 8140 d8bd 5c87 26be 03cf 44be
000002f0: 8c62 fd3d 768c 6bbd 7cb1 01be 9625 363b
00000300: b56e 61be d792 283e 23d0 363e ac60 ff3b
00000310: 349b 623e 9abe 52be fa3a 833a f2d8 6a3e
00000320: 0a74 4ebe c3c1 fbbd 7710 34be cee0 02be
00000330: 40e6 733e a6f3 33bd c050 22bc f9ad d8bd
00000340: 9b0e 08be 7488 863d 05f7 32be c6c9 983c
00000350: 8c05 163e bdc2 cfbd 91f9 833c b2ce 103e
00000360: 9e8d 543e 2b51 48bd fb6b 333e f558 3d3e
00000370: 106b 6ebe ecf0 51be ac2f e83d 8d2f 143e
00000380: a6ec 253e ab52 de3d 52ef d8bd f44c aabd
00000390: 58b1 203d 9213 3d3e 5841 c8bc 4011 56be
000003a0: c69f 0fbe 5979 28be 0424 cfbd 418c 513e
000003b0: 50fe 4c3d 7eba ca3d 94fa 0ebe 9748 613e
000003c0: 0ee4 433e d83b 7e3e c3a5 0a3d f1e2 dc3c
000003d0: b6c0 043e 2388 a1bd c32a 08be f42a d23d
000003e0: c4e7 4abe 8633 1d3e fae8 323c 0a08 0e3d
000003f0: c03d ae3c 4556 c63d a076 abbc bac1 bb3b
0.09004167 0.1145449 0.11771742 -0.1741378 0.106224746 -0.20638376 0.03656434 -0.124860615
0.015778154 -0.1954302 0.11401725 0.1282695 -0.02868554 -0.07794636 -0.17797643 -0.13065481
0.029237712 -0.074030176 -0.1824027 -0.23810147 -0.0784753 -0.008200679 -0.1014054 -0.06624457
0.20324123 -0.13231187 0.17559698 0.02802814 -0.08218229 -0.112334654 -0.09785321 -0.025377262
-0.15130863 0.18008806 0.031202758 -0.13836156 -0.2427369 -0.110481575 0.15255758 -0.07983929
0.09007296 -0.089849226 0.14389698 0.06930432 -0.0010328591 0.008411819 0.2123915 -0.19525887
0.07985459 0.16010968 -0.07756076 0.1434394 0.04035592 -0.069038264 0.13041689 0.03009969
0.048229903 -0.09937986 -0.15050082 -0.16399176 0.06925154 -0.05355458 -0.08988729 -0.123091616
-0.11454174 -0.13142842 0.10512927 0.14734167 -0.22788921 -0.0030780137 0.07025319 0.20189285
0.17891946 -0.07920849 0.0012969971 -0.047522604 -0.19601378 0.12026122 0.06339106 -0.11966914
0.0865809 -0.078253895 -0.042367227 -0.11040328 0.04777482 -0.033094253 0.07095777 -0.028111756
0.008243561 0.012456118 0.04023956 0.057282787 -0.16260144 -0.15907656 0.08926672 0.22809629
-0.143641 0.20539737 -0.20509419 -0.11471608 -0.0011209846 -0.19529262 -0.058107227 -0.20503503
0.09422356 -0.18787009 0.020320505 0.05353734 -0.07147047 0.24915361 0.24722877 0.21066517
0.24520746 0.009034395 0.051169425 -0.027656436 0.07901728 0.20675725 -0.23081386 -0.009087235
0.24292365 -0.060035437 -0.09250441 0.2108806 0.0027117133 -0.22740528 0.039453357 -0.11211783
-0.12891302 -0.123318166 -0.02984932 -0.06027782 0.16920507 0.16727361 -0.03492713 -0.10241267
0.16379267 0.10085195 0.07100555 -0.13281316 0.018001646 -0.017084837 0.20060804 0.059848666
0.012948364 -0.24770376 -0.09555313 0.09571865 -0.1104095 -0.14866325 -0.23593307 -0.20375061
0.055471092 0.07903716 -0.11289999 -0.19261798 0.20631826 0.18076244 0.19787785 -0.12809524
-0.02678755 0.0012690425 -0.18947822 -0.051870406 -0.15131709 0.21132839 -0.0361301 -0.24988955
-0.10108128 0.13967705 -0.08923152 0.17482981 -0.117669284 -0.09348491 -0.13096303 -0.03448832
0.13913648 0.11774079 0.18176976 0.107585564 -0.11703524 -0.24107371 -0.2255693 -0.058231622
-0.025967926 -0.10559178 -0.16262573 -0.19219594 0.12372312 -0.057507 -0.12665361 0.00277934
-0.22014888 0.16462265 0.17852835 0.0077935066 0.22129518 -0.20580521 0.0010012083 0.2293432
-0.20161453 -0.122928165 -0.17584406 -0.12781069 0.23818302 -0.043933533 -0.009906948 -0.10580058
-0.13286822 0.06568995 -0.17477043 0.0186509 0.14650553 -0.10144565 0.016110213 0.14141348
0.20757148 -0.048905533 0.1752166 0.18490966 -0.23283029 -0.2050206 0.11337218 0.14471264
0.16203555 0.108556114 -0.10592522 -0.08315459 0.03923163 0.18464497 -0.02444522 -0.20905018
-0.14025792 -0.1645254 -0.10114291 0.20463659 0.05004722 0.09898852 -0.13962775 0.22000347
0.19129965 0.24827516 0.03384949 0.026963683 0.12964138 -0.07887294 -0.13297562 0.10262099
-0.19814974 0.15351686 0.010919804 0.034675635 0.02126968 0.09684423 -0.020930588 0.005729881

decoder.fc3.bias f4 [84]
00000000: dd63 c7bb d713 703e 54ac 403e 035b 033e
00000010: 48ba 15bd 0db9 143e 20f4 cabd 5466 55be
00000020: c6ce 1ebe cc48 56be 9c4a 1bbe c028 903d
00000030: d353 253e 0273 5abc 4a66 1b3e 01fa ae3c
00000040: 38f8 40be c725 243e 7a37 2fbe 8076 07bc
00000050: 88e7 243e e2f6 213e 1072 b0bd e016 9dbd
00000060: c81c 93bd 7202 0d3e 903d 5ebd 2007 1abe
00000070: 0041 86bb 4069 573e 20ce fa3d 1d6d 11bc
00000080: 90e2 8cbc 9ff5 1a3e 1872 58be c423 5bbe
00000090: 1c34 3a3c f836 35bd 751d 9cbd 60c1 d5bd
000000a0: 9514 af3d 0d96 403e 4810 b5bd e81d 2abd
000000b0: a8cc ddbd 0eab 69be d5bb dabc 982e 30bd
000000c0: b320 a63d cc7b 35be 1061 033e 1872 67be
000000d0: 9831 3fbd 74a4 25be c767 c23c c933 a9bc
000000e0: bc03 b7bd 781a 5a3e 1082 67be fc8f c6bd
000000f0: 6a83 163e 5800 b7bd 3bc3 343e 4884 6cbe
00000100: 8ec8 36be 36a5 0d3e 9cb0 c5bd b6d9 1dbe
00000110: 00ee 48be 78ac 2cbe 5561 4a3e 4008 61bd
00000120: e62c 1ebe e52a 773e 809c 73bd 2dd7 cb3d
00000130: d17e 373e 5c42 56be 2474 703e 3429 a6bd
00000140: 3262 4ebe 5721 6e3e 9b94 1a3e e0c6 763e
-0.0060849027 0.23445068 0.18815738 0.12827687 -0.036554605 0.14523716 -0.099098444 -0.20839816
-0.15508565 -0.20926207 -0.1516518 0.070390224 0.16145258 -0.013333084 0.15175739 0.021359446
-0.18844688 0.16030036 -0.17111006 -0.008267999 0.16103947 0.15816835 -0.08615506 -0.07670379
-0.07183224 0.13770464 -0.05425793 -0.1504178 -0.004097104 0.21036243 0.122463465 -0.008876112
-0.017197877 0.1513276 -0.21137273 -0.21400362 0.011364963 -0.044241875 -0.07622806 -0.10437274
0.085488476 0.1880724 -0.08840996 -0.041532427 -0.10830051 -0.22819158 -0.026700893 -0.043013185
0.08111706 -0.17723006 0.12829995 -0.22602117 -0.046678156 -0.16176015 0.023731126 -0.020654576
-0.08936259 0.2129916 -0.22608209 -0.096954316 0.14698568 -0.089356124 0.176526 -0.23097336
-0.17849943 0.13832554 -0.09652826 -0.15415081 -0.1962204 -0.16862667 0.19763692 -0.05493951
-0.15446815 0.24137457 -0.059475422 0.09953151 0.1791947 -0.20923752 0.23481804 -0.081133276
-0.20154646 0.23254906 0.15095751 0.24099302

decoder.fc2.weight f4 [120, 84]
00000000: 1b36 d7bd 0ed2 c7bd 07e6 7bbd ffdd 0b3c
00000010: a7bb debd 1df2 ccbd a440 30bd 05c4 a63d
00000020: 1f31 163a f6ac 9ebd 329f a6bd 936a 8cbd
00000030: 1089 a2bd c9a1 40bd dc70 663d e70d d3bb
00000040: e682 d3bd 44b5 c2bd b959 cabd 83bf da3d
00000050: 11c3 bb3d e95e cf3d 164a 733d 31e6 95bd
00000060: 62be 3fbd 845b f2bc 46d1 173d e381 42bc
00000070: 4af1 a7bc edb7 b33d 21f1 d03c 1144 6d3b
00000080: b05a c2bc aaef a63d 3842 5d3c d93f 9f3d
00000090: febc 88bd f709 71bc c862 c03d 5cf0 9b3d
000000a0: 67c9 d53d a48e 08bd c0f3 5e3d a8cd 703d
000000b0: d7e8 623d 3cbe 473d d4af 9fbc 79b4 b23d
000000c0: 3c53 0b3c 904b c7bc 6824 c53c bcb9 fb3c
000000d0: 55cb b23d f6a2 57bd 21dc 5d3c ae74 a23a
000000e0: ac6f c03c f110 133d fb7c 98bd 89d9 afbd
000000f0: 9c40 1cbc 5c44 20bd f15f 423d 63e4 dcbc
00000100: cd0b 9cbd 8974 edbc 3cab c3bc 600b 073d
00000110: 8601 db3d e9d5 a23d c95c ecbc 2e0b 3d3d
00000120: 90d7 b83d 8e47 12bd 002d cbbd cd7c 49bd
00000130: da88 cd3d 8067 56bd a55a 803c 8a78 6b3d
00000140: d61b 94bd 8cd9 95bc 8ea3 983b 2406 a93d
00000150: 8c94 64bd 5a3d bc3d fb7c d23c 5e58 66bc
00000160: b2f3 853d ccda b73d 6817 d0bc b6b6 4e3b
00000170: 09d3 653c dbed dcbd 5f77 bebc e971 d73d
00000180: d8d3 60bd 2d8d 2d3d a492 9bbd 52c0 ce3d
00000190: 0673 b4bd 8f30 0abd f50a 8cbd 714a d2bd
000001a0: e01b adbd d971 303d 5ea1 45bd 4197 73bc
000001b0: 9e96 543d c1af e9bc c886 1bbc 4775 b73d
000001c0: 1010 fe3c 9a1e b3bd 062a a7bd ecf7 513d
000001d0: 41f0 afbd 738a 6a3d 20fb c53c bad4 b9bc
000001e0: 57fd 983c ff77 b4bd 886c a53d 2bcf 3cbd
000001f0: a75d 8f3d 661a 9d3d 5664 04bd a771 c6bd
00000200: 7846 2abd 14dc 313d cdeb 98bd 5344 ca3d
00000210: a076 97bd 3082 8ebc 246c b0bd 5e8c 953b
00000220: 622a 69bd 9a7e fabb 1848 993d 94fc d83d
00000230: d0cf 4c3c db26 cd3c c474 e53a a14a d63d
00000240: c05a 143d 74b9 39bd b895 693d a588 b3bc
00000250: 6fa4 ca3d 60f0 71bd 5a4f 48bd 3ed1 563d
00000260: 5725 93bd 7262 ccbd eba1 943c 17dc a9bc
00000270: 4469 d93d 98d7 853b 20e8 a7ba 7fc1 013d
00000280: 6ec3 d33d 7445 9bbc cbc3 33bd 0bbc f6bc
00000290: 1679 f3bc bbfc b93d e752 7a3c b547 45bd
000002a0: 02a2 98bd 4f26 f93c e3f1 b9bd 20e6 9f3d
000002b0: f94e 8c3d d4b9 88bd f909 20ba 0717 543d
000002c0: 9b2d 63bd 6ce4 a0bd df12 9ebb 5ba2 bb3d
000002d0: 2179 95bd 5666 05bc bd9b 963d 5769 9c3d
000002e0: bc89 0cbd 8590 ab3d f812 33bd 83ee 40bc
000002f0: 91ba 0e3c b515 5b3b 65e7 eb3c ec63 a03d
00000300: a4a9 f3bc 4d46 00bc 0de3 adbd 492d 8e3d
00000310: 7c77 93bd ea14 6ebd 4803 603d 15ee 42bd
00000320: ddc3 073d e252 873c 3cdb 12bd 9d0e 013d
00000330: 42eb 90bd 547a 97bc 1283 d73d 8d3f d33d
00000340: 5403 b93d a2eb c9bd 9f74 7ebd 823b 73bd
00000350: a360 903d 9382 f5bb d24c d7bb 8936 b4bd
00000360: 7623 103d ca6c e9bc 0482 3cbd e23a 2cbd
00000370: 4ee4 a7bd 883b 9f3d 28b0 c0ba cafe a83b
00000380: 33c0 d8bd f472 b2bd 170a b13d e841 31bd
00000390: 2db3 4b3d 146f bc3d 6776 ffbc de16 913a
000003a0: 3f36 b93c fc18 2a3d f42e 3dbc e6f2 dc3d
000003b0: 9014 b03d 308b 92bd f9c1 b63c 1087 563c
000003c0: 2cde 943c f5cd 74bd 31bb ccbd 7d9b 2b3d
000003d0: 8997 82bd 0916 643d b4fe 293d 74cf a53d
000003e0: 0e01 31bd 75b0 94bc d0cf 18bc ab3f fc3c
000003f0: 2070 2fbd c2d2 45bd a5c8 d6bd e331 cdbd
-0.10508367 -0.097568616 -0.061498668 0.008536815 -0.108756356 -0.10007117 -0.043030396 0.081428565
0.00057293655 -0.077478334 -0.08135833 -0.06856265 -0.07936299 -0.04702929 0.056259975 -0.0064408663
-0.10327701 -0.0950723 -0.098803945 0.10681059 0.09168065 0.101255246 0.059396826 -0.07319296
-0.046812423 -0.029584654 0.037064813 -0.011871788 -0.020500798 0.087753154 0.025505604 0.00362039
-0.023724884 0.08151181 0.013504557 0.0777585 -0.066766724 -0.014711848 0.09393841 0.07614204
0.10438805 -0.033339158 0.054431677 0.05878988 0.055397835 0.048765406 -0.019493021 0.08725829
0.008503731 -0.024328023 0.024065211 0.030728213 0.08730189 -0.052645646 0.013541252 0.0012394392
0.02349075 0.03590483 -0.07445713 -0.085864134 -0.009536888 -0.039127693 0.047454778 -0.026964372
-0.07619438 -0.028986232 -0.023885362 0.032969832 0.1069365 0.079509564 -0.028852837 0.04615324
0.0902549 -0.03571277 -0.099206924 -0.049191285 0.10035868 -0.0523448 0.015668223 0.057488002
-0.07231872 -0.018292211 0.004658169 0.08253124 -0.055805728 0.091913894 0.025694361 -0.014059154
0.06540622 0.08977279 -0.025401786 0.003154201 0.0140273655 -0.10787555 -0.02325028 0.105197735
-0.05488953 0.042370964 -0.07596329 0.10095276 -0.088110015 -0.033737715 -0.068380274 -0.10268105
-0.08452582 0.043077324 -0.048249595 -0.014867605 0.051901452 -0.028526189 -0.009492584 0.08957916
0.031013519 -0.08746071 -0.08162312 0.051261827 -0.08590747 0.05726094 0.024167597 -0.022684444
0.01867549 -0.0881195 0.08077341 -0.04609601 0.07000285 0.07671051 -0.03232225 -0.09689646
-0.04157111 0.043422773 -0.074668504 0.09876313 -0.07395673 -0.017396063 -0.08614376 0.004563852
-0.056925185 -0.0076444866 0.07484454 0.105950505 0.012500718 0.025042942 0.0017506112 0.10463453
0.03621936 -0.045342878 0.05702755 -0.021915743 0.098946445 -0.05906713 -0.0489038 0.052445643
-0.071848564 -0.099797145 0.018143615 -0.02073483 0.10615781 0.0040845387 -0.0012810268 0.031678673
0.1034001 -0.018954016 -0.043887895 -0.030118963 -0.029720824 0.09081408 0.0152785545 -0.04816409
-0.074527755 0.030413775 -0.09079339 0.07807565 0.06851 -0.06676069 -0.00061050017 0.051779773
-0.055463415 -0.07856068 -0.004824027 0.09161826 -0.07298494 -0.008142075 0.073539235 0.076372795
-0.03431104 0.08377174 -0.043719262 -0.011775616 0.008711473 0.0033429686 0.028796861 0.078315586
-0.029743977 -0.007829261 -0.08490572 0.06942231 -0.07200524 -0.058125414 0.05469063 -0.047590334
0.033145774 0.016519014 -0.03585361 0.031508077 -0.07076122 -0.018490948 0.105230466 0.10314856
0.09033838 -0.098593965 -0.062122937 -0.059382923 0.07049682 -0.0074923723 -0.006570437 -0.08799464
0.03519007 -0.028494257 -0.04602243 -0.042048343 -0.081978425 0.077750266 -0.0014700936 0.0051573263
-0.10583534 -0.08713332 0.086445026 -0.043275744 0.049731422 0.09200874 -0.031184388 0.0011069437
0.022608874 0.041527733 -0.011546839 0.10788517 0.08597672 -0.07155454 0.02230929 0.013093725
0.018172346 -0.05976673 -0.099966414 0.041896332 -0.06376559 0.055685077 0.04150267 0.08096209
-0.043213896 -0.018150548 -0.00932689 0.030792078 -0.04283154 -0.048296697 -0.10487489 -0.10019281
