tutorials/W1D2_ComparingTasks/RR/models/ConvNet_autoencoder_10000_epoch_2.pth (torch, 506506 bytes, 19 tensors)

encoder.conv1.weight f4 [6, 1, 5, 5]
0.09630922 0.15548304 0.11253766 0.053582054 0.09533239 0.07673166 -0.10306174 0.018356185
0.22101946 -0.020394718 0.002837272 -0.037780058 0.13480839 0.10946161 0.00084700854 0.11184735
0.0926415 -0.06846639 0.0900731 -0.046451245 -0.1744263 0.051378567 0.23737049 0.0057951882
-0.012949909 -0.08298512 0.14648241 0.020120194 -0.09097758 0.015402723 -0.18621898 -0.052777022
0.08064255 0.0005360624 0.004568805 -0.10494648 0.13779445 -0.015433482 0.22822127 0.00031981256
-0.090845264 0.118577614 0.18450275 0.17769775 0.22395453 0.15972653 -0.15853319 -0.08807492
-0.08997594 0.22552909 -0.115374126 -0.08373801 -0.06616224 -0.05088235 -0.13050464 -0.05313386
-0.04041113 0.010997904 -0.022141064 -0.06358817 -0.05230709 0.06374261 -0.084563464 -0.08041509
0.14974035 -0.18119204 -0.15758142 -0.05088492 -0.117356285 -0.11967676 0.17925127 0.20465635
0.027494093 0.1712448 0.18708621 0.12971185 0.08648253 -0.018208291 0.019460658 0.019802598
-0.07834307 -0.07606825 -0.15255015 0.10435378 0.09066914 0.14595272 0.2244286 0.11740466
0.021479344 0.096395776 -0.06778646 0.21417862 0.013079924 0.2112689 0.093466744 0.16423956
-0.13124327 0.08962352 0.09029905 0.068689734 0.21109118 0.12852535 0.15542728 0.04057283
-0.15942888 -0.10690496 -0.022762738 0.23897879 -0.03043449 -0.17245364 -0.0026244 0.17999472
0.09595966 0.22360504 -0.08979759 0.23710653 0.24175102 -0.121917054 -0.09117744 -0.17094599
0.028038384 0.078757 0.016078388 0.030529186 -0.03486071 0.10196891 0.051622003 -0.14315811
-0.052603267 0.090054154 -0.112687 0.0262207 -0.12675515 0.0061761215 0.21414028 0.09830352
0.1251807 0.09290312 0.06641216 0.21137881 0.1794641 0.14676514 0.062056027 0.104370564
0.15157768 -0.056301378 -0.13957135 0.10184687 -0.01160046 -0.05413994
00000000: c53d c53d f236 1f3e 257a e63d db78 5b3d
00000010: a13d c33d 7d25 9d3d 0912 d3bd b65f 963c
00000020: ed52 623e d312 a7bc 86f1 393b 43bf 1abd
00000030: 360b 0a3e 692d e03d c809 5e3a 3910 e53d
00000040: d4ba bd3d 1b38 8cbd 3f78 b83d a943 3ebd
00000050: cf9c 32be 5572 523d 4011 733e 90e5 bd3b
00000060: db2b 54bc 1af4 a9bd 7cff 153e 1bd3 a43c
00000070: 7452 babd b45b 7c3c 30b0 3ebe b82c 58bd
00000080: ec27 a53d 8a86 0c3a eab5 953b 2eee d6bd
00000090: fd19 0d3e b7dc 7cbc d6b2 693e 84ac a739
000000a0: 150d babd d2d8 f23d 4aee 3c3e 66f6 353e
000000b0: 5654 653e 5a8f 233e 8656 22be a060 b4bd
000000c0: 4e45 b8bd 19f1 663e 4549 ecbd d57e abbd
000000d0: 1280 87bd 036a 50bd 02a3 05be e4a2 59bd
000000e0: 2486 25bd 8e30 343c 2d61 b5bc 843a 82bd
000000f0: f63f 56bd 7c8b 823d 9c2f adbd abb0 a4bd
00000100: 8955 193e 688a 39be 065d 21be b56c 50bd
00000110: 7e58 f0bd 1719 f5bd a58d 373e 6f91 513e
00000120: 4b3b e13c cc5a 2f3e 8793 3f3e 2fd3 043e
00000130: c11d b13d 8e29 95bc f56b 9f3c 0f39 a23c
00000140: 5572 a0bd acc9 9bbd 1b36 1cbe 6fb7 d53d
00000150: beb0 b93d a174 153e 9cd0 653e db71 f03d
00000160: 73f5 af3c 266b c53d a1d3 8abd a451 5b3e
00000170: 2d4d 563c e056 583e 7e6b bf3d 6a2e 283e
00000180: a364 06be 898c b73d b5ee b83d 34ad 8c3d
00000190: 4928 583e 269c 033e 5428 1f3e b22f 263d
000001a0: 5341 23be fdf0 dabd ec78 babc dbb6 743e
000001b0: c051 f9bc b097 30be 20fe 2bbb 8950 383e
000001c0: 8086 c43d b8f8 643e cde7 b7bd 0ecc 723e
000001d0: 948d 773e a6af f9bd 3dbb babd 770c 2fbe
000001e0: c1b0 e53c 5a4b a13d d3b6 833c 5818 fa3c
000001f0: 1bca 0ebd 13d5 d03d 9871 533d 0a98 12be
00000200: 8676 57bd 506e b83d 71c8 e6bd cbcc d63c
00000210: 1acc 01be 1061 ca3b 9747 5b3e 5b53 c93d
00000220: 5f2f 003e fe43 be3d 1903 883d b073 583e
00000230: 70c5 373e 9a49 163e 762e 7e3d 3cc0 d53d
00000240: 2e37 1b3e 469c 66bd cbeb 0ebe 1795 d03d
00000250: db0f 3ebc d7c1 5dbd

encoder.conv1.bias f4 [6]
0.15243271 -0.08634123 0.20220731 0.080758736 0.10227731 0.14365408
00000000: 5217 1c3e acd3 b0bd 6f0f 4f3e d664 a53d
00000010: c476 d13d 0e1a 133e

encoder.conv2.weight f4 [16, 6, 5, 5]
0.022339394 0.08648128 -0.03256845 -0.036873933 -0.042012747 0.027196892 0.07058422 0.07960919
0.06829462 0.059590906 0.060397636 -0.0059041167 0.073452115 -0.09203662 0.018944222 0.055426106
-0.052016437 0.07651897 -0.024550924 -0.03484416 0.065677635 0.07447237 0.036172174 0.07866686
0.00061569375 0.0953525 0.007041887 0.0038533711 0.023621712 -0.031550035 -0.0709028 0.015353193
-0.10695304 -0.09163258 0.032207813 -0.0048311297 0.042407546 0.047616635 0.00066054857 0.026894407
0.067658246 0.07648388 -0.029617466 -0.04942475 -0.052943986 0.111035384 0.056840528 -0.05302249
-0.02959434 -0.041390896 0.05231898 0.024513619 0.03670669 -0.08649642 -0.017552685 0.016558278
-0.047471985 -0.027289068 -0.078947924 0.038881496 -0.028137848 0.024017677 -0.017014215 -0.025801938
0.08031699 -0.015510632 -0.0008945179 -0.094893254 -0.054344196 -0.06791411 -0.04224868 -0.016085738
-0.034073703 -0.033277813 0.05558161 0.021860586 0.06855259 0.033844937 0.042648066 0.04091852
-0.019987222 -0.05845844 -0.047103465 -0.010977089 -0.06950352 0.056847796 0.07427292 0.049834013
-0.060390953 0.027348429 -0.053671088 0.039932165 0.08427916 -0.038760636 0.0114678815 0.03435562
0.092122406 0.059187036 -0.03726809 0.049061656 0.046860036 0.004425427 0.005238319 -0.0016879858
-0.08257973 -0.0013315905 0.083940856 -0.028022086 -0.034942847 -0.10729513 -0.06599049 -0.046069514
0.0733303 0.016019143 -0.015213757 0.05030287 -0.06373226 0.041487213 0.048914846 0.056179844
-0.0010502252 -0.012399361 -0.012280434 0.030958613 0.06836609 0.042291265 0.06008081 0.0450534
-0.019666107 0.011364116 0.010755391 -0.002821751 0.04347842 -0.04497768 0.052761763 -0.07630364
-0.010070197 0.053247157 -0.004175299 0.025277596 0.043285154 0.048023798 0.08100993 0.088987425
0.08722757 0.102972925 0.094934806 0.06928647 -0.06637531 0.0313233 -0.07427344 -0.07371301
-0.04005643 -0.051471505 -0.0065735835 -0.04552484 0.08584269 -0.07852248 0.015414022 0.07671889
0.016330604 -0.006978889 0.0828535 -0.0024154529 0.01834448 -0.006980722 0.0055544237 0.03547401
0.010691323 0.015226257 0.048302177 0.05088573 0.026633766 -0.0270023 -0.013623804 -0.034371685
0.0086241625 0.0055346936 0.07287335 0.056906376 0.020937668 -0.058790915 -0.016994659 -0.051881664
0.10740278 0.06140855 -0.026573874 0.044041213 0.06983515 0.061438657 -0.0042168824 -0.057811752
0.06666169 -0.0488386 -0.03866676 -0.02705552 0.026282048 0.028349796 0.060783412 0.012744524
0.005190945 0.014822154 -0.030442456 0.09163052 -0.028301531 0.07192713 0.02226688 0.0153143015
-0.034545667 -0.052300297 -0.094849795 -0.057819318 -0.051687453 -0.099307284 -0.027341304 -0.021515863
0.057440165 0.029351542 -0.11190658 -0.074141815 -0.070122994 0.019214857 0.0035409601 -0.04200738
-0.05219706 0.062793426 -0.011658932 0.00644791 -0.035543647 0.03986292 0.101987146 0.019879617
0.058294952 0.030085022 0.089881435 0.061090756 -0.05188526 -0.042828448 0.0337454 0.044968255
-0.04971082 0.034836747 -0.056053855 0.011052394 -0.07170843 -0.0560859 -0.07914662 -0.046754964
-0.0234584 0.06176847 0.020166142 0.06524932 -0.01148371 0.030229975 0.017454553 -0.018596016
00000000: 1b01 b73c 191d b13d 7f66 05bd 1f09 17bd
00000010: 8f15 2cbd 04cc de3c 768e 903d 250a a33d
00000020: 0dde 8b3d 9815 743d 8363 773d 5277 c1bb
00000030: 106e 963d b27d bcbd ea30 9b3c 7c06 633d
00000040: 300f 55bd fab5 9c3d 051f c9bc c0b8 0ebd
00000050: ff81 863d f884 983d 4629 143d 171c a13d
00000060: 8266 213a 2c48 c33d a1bf e63b d788 7c3b
00000070: 5282 c13c 9c3a 01bd 7d35 91bd f58b 7b3c
00000080: 320a dbbd dda9 bbbd 57ec 033d 744e 9ebb
00000090: 89b3 2d3d a909 433d aa28 2d3a a951 dc3c
000000a0: 6890 8a3d 95a3 9c3d 54a0 f2bc 9b71 4abd
000000b0: cbdb 58bd 8566 e33d 9dd1 683d 1c2e 59bd
000000c0: d46f f2bc 8089 29bd 6d4c 563d c9d0 c83c
000000d0: c159 163d 0925 b1bd a6ca 8fbc 3aa5 873c
000000e0: fc71 42bd 538d dfbc 73af a1bd 3442 1f3d
000000f0: 5881 e6bc b8c0 c43c 6561 8bbc 965e d3bc
00000100: 3c7d a43d 4e20 7ebc 157e 6aba 6557 c2bd
00000110: 0598 5ebd 8e16 8bbd f40c 2dbd 3dc6 83bc
00000120: de90 0bbd 514e 08bd 8ba9 633d f914 b33c
00000130: 4d65 8c3d fda0 0a3d bdaf 2e3d 2e9a 273d
00000140: 3ebc a3bc 1e72 6fbd 90ef 40bd 40d9 33bc
00000150: dd57 8ebd 3cd9 683d 671c 983d c01e 4c3d
00000160: 815c 77bd d009 e03c 37d6 5bbd e98f 233d
00000170: 8d9a ac3d 79c3 1ebd c8e3 3b3c 7bb8 0c3d
00000180: acaa bc3d 1b6e 723d 6da6 18bd e0f4 483d
00000190: 4ff0 3f3d 2c03 913b 34a6 ab3b 683f ddba
000001a0: 901f a9bd c388 aeba 2fe9 ab3d 938e e5bc
000001b0: 3b20 0fbd 8dbd dbbd 0626 87bd 63b3 3cbd
000001c0: 322e 963d 943a 833c 1f43 79bc 620a 4e3d
000001d0: 0f86 82bd 7fee 293d ef5a 483d d61c 663d
000001e0: b6a7 89ba b026 4bbc e033 49bc eb9c fd3c
000001f0: 8503 8c3d 9b39 2d3d 4c17 763d ea89 383d
00000200: d11a a1bc 8f30 3a3c 6137 303c 20ed 38bb
00000210: 6d16 323d 843a 38bd b81c 583d 1545 9cbd
00000220: 78fd 24bc b119 5a3d f2d0 88bb f612 cf3c
00000230: c64b 313d 9ab4 443d 89e8 a53d 0a3f b63d
00000240: 5ea4 b23d 78e3 d23d 2e6d c23d 11e6 8d3d
00000250: c7ef 87bd dc4c 003d ac1c 98bd d9f6 96bd
00000260: 3612 24bd c9d3 52bd 3767 d7bb 4178 3abd
00000270: 4bce af3d 65d0 a0bd 188b 7c3c cb1e 9d3d
00000280: c2c7 853c 2aaf e4bb 19af a93d 934c 1ebb
00000290: 2a47 963c 8abe e4bb e201 b63b 324d 113d
000002a0: a92a 2f3c 8d77 793c 81d8 453d 8e6d 503d
000002b0: 0e2f da3c ed33 ddbc 6036 5fbc 53c9 0cbd
000002c0: 5c4c 0d3c 605c b53b 9f3e 953d a916 693d
000002d0: 7985 ab3c bece 70bd 6238 8bbc de81 54bd
000002e0: fdf5 db3d 8887 7b3d 74b1 d9bc 8f64 343d
000002f0: bb05 8f3d 1aa7 7b3d c62d 8abb 04cc 6cbd
00000300: ed85 883d fc0a 48bd 0961 1ebd 8aa3 ddbc
00000310: 734d d73c d53d e83c 07f8 783d 68ce 503c
00000320: ce18 aa3b 9fd8 723c 7562 f9bc c8a8 bb3d
00000330: 9dd8 e7bc 884e 933d 0869 b63c d6e8 7a3c
00000340: c27f 0dbd d638 56bd 9c40 c2bd f3d3 6cbd
00000350: 39b6 53bd 9e61 cbbd dffa dfbc 0942 b0bc
00000360: 6146 6b3d a572 f03c 472f e5bd aad7 97bd
00000370: a59c 8fbd 7a68 9d3c 740f 683b ee0f 2cbd
00000380: 96cc 55bd d799 803d 1b05 3fbc fd48 d33b
00000390: 3796 11bd 4d47 233d a3de d03d 94da a23c
000003a0: b0c6 6e3d dd74 f63c c213 b83d 4d3a 7a3d
000003b0: a385 54bd e26c 2fbd 9e38 0a3d a230 383d
000003c0: 939d 4bbd fab0 0e3d ba98 65bd 1a15 353c
000003d0: dfdb 92bd 54ba 65bd a017 a2bd 2282 3fbd
000003e0: d52b c0bc ef00 7d3d 7733 a53c 6fa1 853d
000003f0: 2c26 3cbc daa4 f73c dafc 8e3c ac56 98bc

encoder.conv2.bias f4 [16]
-0.08771135 0.060560472 0.06611885 0.030833213 -0.016060142 -0.08130537 0.06460856 0.050821204
0.054679237 -0.031064857 -0.03620053 -0.03495613 -0.023370778 -0.027623562 -0.046722442 -0.06441346
00000000: 02a2 b3bd 420e 783d 5269 873d ef95 fc3c
00000010: 8f90 83bc 6e83 a6bd 7e51 843d e529 503d
00000020: 56f7 5f3d ba7b febc 0247 14bd 292e 0fbd
00000030: 1374 bfbc cf4a e2bc 0860 3fbd 34eb 83bd

encoder.fc1.weight f4 [120, 400]
0.029406507 0.008007499 0.016313609 -0.035526473 -0.0040307287 -0.045879997 -0.00065019797 -0.032959778
-0.039463244 0.034510832 -0.045988485 -0.03260788 0.017921345 -0.027236346 -0.032022156 -0.03374277
0.016456274 -0.031182658 -0.027140783 0.02866884 0.014654586 0.034720916 0.009242697 -0.036469862
-0.02811051 -0.012418967 -0.017156418 0.035422552 -0.013007739 0.005582535 -0.048335057 0.022082156
0.012159658 0.028034698 -0.052903876 0.03574227 -0.0037730916 -0.014608459 -0.020342542 -0.017032925
-0.037542176 -0.031744376 0.008488101 -0.007877414 -0.026971886 0.020067569 -0.05039703 -0.05449652
-0.0078677945 -0.038029402 0.038981445 -0.038405467 0.025744619 -0.02889044 -0.011756136 -0.021246722
0.03590961 0.011307782 -0.04100309 -0.050398555 -0.010050141 0.033420164 0.00302227 -0.020391911
0.010766483 0.0111545315 -0.037976317 0.024095269 0.012115669 -0.054063767 -0.02955839 0.030494593
-0.031623185 -0.049096238 0.03217696 -0.014314562 -0.00017121137 -0.008847025 0.031077372 -0.01695429
-0.028665677 0.005311639 -0.02432129 0.026087081 0.028575487 -3.219556e-05 -0.04164922 -0.053047653
0.015613118 -0.032164887 0.0024119008 -0.020690419 -0.0046600956 -0.0291928 -0.022453826 -0.017995927
0.022632312 0.006196774 -0.031714775 -0.016088681 0.019565575 0.009009014 0.01462604 -0.016198218
-0.047772903 -0.013113723 0.021357428 -0.042968985 0.043204375 -0.04193462 0.031376924 -0.021941585
0.03334794 0.024467018 -0.050139483 -0.016510088 -0.05247383 -0.04156598 -0.012664675 0.021991873
-0.015496843 -0.024461448 0.032024935 0.014955943 -0.0062027103 -0.022643851 0.00957413 0.0021314328
0.03178952 -0.041316036 -0.049670413 -0.054121386 -0.013985449 0.033548534 -0.0054011364 -0.053844362
-0.012252918 -0.044635877 0.020675419 -0.044328842 0.025310004 -0.060287945 -0.022606855 -0.026063623
-0.038799766 -0.044323556 -0.050895583 -0.052076098 0.003561354 -0.040267445 -0.035080284 -0.021891927
-0.014729217 0.021877533 -0.04353244 -0.035942476 -0.009929686 0.008506623 -0.04854039 -0.032122213
-0.014863441 -0.016238503 -0.007363475 0.015001919 -0.021094548 -0.054665405 0.0015513599 0.012305631
-0.013498221 -0.033315845 -0.04462203 -0.013901619 0.032372676 -0.039146777 -0.05288159 -0.013015948
-0.0015752763 -0.04682994 -0.04452649 -0.006090595 -0.055778358 0.03233403 -0.0005164307 0.009988565
-0.032089178 -0.010947715 -0.05756798 -0.00860519 0.040895235 -0.04514283 -0.00087079644 -0.04390928
-0.028222414 -0.05277017 -0.049123373 0.034535192 -0.044458795 -0.054496396 0.03305777 -0.013006871
0.010825751 -0.013944084 -0.042278577 -0.023830459 0.011992447 0.029587813 -0.04138485 0.007973988
-0.039052706 0.03641931 0.039303824 -0.03671296 0.013294871 -0.04447316 -0.041695014 -0.023823299
0.028089052 -0.011659228 -0.008380936 -0.00994185 -0.04314019 -0.020126594 0.008551533 -0.0007589358
0.011764448 -0.006966482 -0.019719703 0.020779906 0.02956437 -0.005547678 -0.030567637 0.008952927
0.0195544 0.038698733 -0.027345354 0.034782745 0.0012026512 -0.02532552 0.014121989 -0.0058351997
-0.017123569 -0.028559951 0.02518936 0.028903965 -0.010271421 -0.010057705 -0.022192731 -0.051042262
-0.009786127 -0.044977617 0.036431596 0.038108077 -0.03621979 0.022237709 -0.043693412 -0.039673556
00000000: eae5 f03c e331 033c 1ea4 853c 3584 11bd
00000010: 3414 84bb aaec 3bbd 0c72 2aba d500 07bd
00000020: 36a4 21bd 3b5b 0d3d 6c5e 3cbd d78f 05bd
00000030: c9cf 923c c21e dfbc aa29 03bd dc35 0abd
00000040: 4fcf 863c c672 ffbc 5956 debc eada ea3c
00000050: ca19 703c 8537 0e3d ae6e 173c 6c61 15bd
00000060: 0348 e6bc ec78 4bbc 9e8b 8cbc 3d17 113d
00000070: 691e 55bc b3ed b63b fbfa 45bd a3e5 b43c
00000080: 4d39 473c 06a9 e53c bcb1 58bd 7d66 123d
00000090: f945 77bb 5158 6fbc 67a5 a6bc a288 8bbc
000000a0: d3c5 19bd 6406 02bd ad11 0b3c 4510 01bc
000000b0: 25f4 dcbc be64 a43c 1e6d 4ebd be37 5fbd
000000c0: ece7 00bc b8c4 1bbd 02ab 1f3d 0d4f 1dbd
000000d0: 61e6 d23c a5ab ecbc cf9c 40bc 9b0d aebc
000000e0: f515 133d 4644 393c dbf2 27bd b76e 4ebd
000000f0: 59a9 24bc 95e3 083d 4711 463b f00c a7bc
00000100: e765 303c 7fc1 363c 0e8d 1bbd 7163 c53c
00000110: cd80 463c f871 5dbd 7024 f2bc cccf f93c
00000120: 5087 01bd 2319 49bd fdcb 033d a087 6abc
00000130: 3487 33b9 1df3 10bc f995 fe3c b9e3 8abc
00000140: 48d4 eabc 420d ae3b 713d c7bc 93b4 d53c
00000150: 2417 ea3c b809 07b8 5f98 2abd 7f48 59bd
00000160: 2ace 7f3c 54bf 03bd fb10 1e3b f47e a9bc
00000170: b7b3 98bb bd25 efbc 16f1 b7bc 326c 93bc
00000180: 6667 b93c 4f0e cb3b 5ae7 01bd 69cc 83bc
00000190: fc47 a03c 8b9a 133c 0fa2 6f3c 20b2 84bc
000001a0: 85ad 43bd f1da 56bc c6f5 ae3c 3f00 30bd
000001b0: 12f7 303d a3c3 2bbd 1785 003d d7be b3bc
000001c0: d997 083d 0e6f c83c 0f5f 4dbd 2a40 87bc
000001d0: ccee 56bd 1741 2abd 7f7f 4fbc 4d28 b43c
000001e0: 78e6 7dbc 6063 c8bc 942c 033d c609 753c
000001f0: 1b40 cbbb 997f b9bc d0dc 1c3c 82af 0b3b
00000200: ba35 023d 013b 29bd 3473 4bbd 63ae 5dbd
00000210: 3a23 65bc 306a 093d 04fc b0bb e88b 5cbd
00000220: 77c0 48bc 1cd4 36bd 7f5f a93c 2992 35bd
00000230: ed56 cf3c 7ef0 76bd 0332 b9bc 6183 d5bc
00000240: 81ec 1ebd 9e8c 35bd e377 50bd bf4d 55bd
00000250: 9b65 693b 7aef 24bd 58b0 0fbd b356 b3bc
00000260: d052 71bc 8338 b33c 124f 32bd 6b38 13bd
00000270: 1fb0 22bc 5d5f 0b3c 4ad2 46bd 9592 03bd
00000280: ca85 73bc 9c06 85bc 4e49 f1bb 9cca 753c
00000290: 79ce acbc d5e8 5fbd 0057 cb3a 8f9d 493c
000002a0: a427 5dbc 3276 08bd 97c5 36bd 9ec3 63bc
000002b0: 3699 043d 5f58 20bd 5e9a 58bd d840 55bc
000002c0: 8079 ceba c0d0 3fbd 6961 36bd 9d93 c7bb
000002d0: d977 64bd b070 043d 1461 07ba 14a7 233c
000002e0: f16f 03bd 0b5e 33bc 67cc 6bbd c8fc 0cbc
000002f0: c381 273d b0e7 38bd 2946 64ba 38da 33bd
00000300: b132 e7bc 8925 58bd 9735 49bd c674 0d3d
00000310: 6d1a 36bd 9d37 5fbd 9667 073d c51a 55bc
00000320: 7e5e 313c ba75 64bc 4d2c 2dbd 1838 c3bc
00000330: f87b 443c 2462 f23c 2983 29bd 54a5 023c
00000340: bbf5 1fbd 6a2c 153d 0cfd 203d 5460 16bd
00000350: bbd2 593c 7d29 36bd 64c8 2abd 1429 c3bc
00000360: 031b e63c 5906 3fbc 3250 09bc 24e3 22bc
00000370: c5b3 30bd 87e0 a4bc bb1b 0c3c 52f3 46ba
00000380: acbf 403c 1647 e4bb 378b a1bc 9f3a aa3c
00000390: fa30 f23c 4cc9 b5bb fb68 fabc 4caf 123c
000003a0: 8d30 a03c 9082 1e3d 5d03 e0bc 5a78 0e3d
000003b0: 47a2 9d3a 7777 cfbc ea5f 673c 3435 bfbb
000003c0: ba46 8cbc 8ff6 e9bc eb59 ce3c 02c8 ec3c
000003d0: 7649 28bc 13c9 24bc 88cd b5bc b111 51bd
000003e0: fe55 20bc 733a 38bd 4c39 153d 3717 1c3d
000003f0: 345b 14bd db2b b63c ddf7 32bd bd80 22bd

encoder.fc1.bias f4 [120]
0.02159618 -0.035215873 -0.052173235 -0.03290118 -0.03591738 -0.030896872 0.0029999514 -0.0003641688
0.022105295 0.02150157 -0.014983807 -0.017154943 -0.03497142 0.03582112 0.012131199 -0.047596745
0.00457996 0.003415854 0.04407306 -0.036046047 0.032520436 -0.011836854 -0.024461664 0.025301035
-0.04203163 0.02762574 -0.050545342 -0.043353762 0.0119323805 0.0067954874 0.026946384 -0.017436162
-0.04798415 -0.013463686 -0.02044592 0.033517744 0.003117061 -0.035274096 -0.02336894 0.014458464
-0.050423026 0.0008280844 0.0016571308 -0.06465725 -0.03186437 -0.023082817 0.027214264 0.008176806
-0.013596125 -0.018967861 -0.015462064 -0.046007007 -0.029223925 -0.08926894 0.005323355 0.011313558
0.030049281 0.019047579 -0.016544813 0.033253647 -0.041512147 -0.070075795 0.010506244 0.023562439
0.040905815 -0.027452769 -0.005516276 0.012913765 -0.017954292 0.006554768 -0.062253658 0.06433978
-0.04088184 0.03360809 0.02311897 -0.004949083 -0.02203179 0.016592942 -0.04729682 -0.048840806
-0.007549474 -0.028302055 0.00800914 -0.04131497 0.031452537 -0.06549698 -0.03704384 0.03193557
0.019315135 0.018609233 0.024320073 -0.007368271 -0.026305813 -0.060168304 -0.031067608 0.013098014
0.0146276485 -0.062625796 -0.06121473 -0.019134972 -0.007350711 -0.019571695 -0.039678052 -0.03073027
-0.039058477 -0.051656347 0.034539357 0.009941236 0.031178908 -0.014922717 0.030140253 0.020674825
-0.011046903 0.071036614 -0.017626414 0.030253576 -0.012418789 0.042835247 0.0056046676 -0.010163212
00000000: 79ea b03c 853e 10bd 9ab3 55bd 63c3 06bd
00000010: 1a1e 13bd 701b fdbc d59a 443b e9ed beb9
00000020: 2a16 b53c 0f24 b03c a47e 75bc 8688 8cbc
00000030: 313e 0fbd 2bb9 123d f0c1 463c cef4 42bd
00000040: 7d13 963b 85dc 5f3b f485 343d 05a5 13bd
00000050: 2634 053d 5def 41bc d463 c8bc 1e44 cf3c
00000060: 5c29 2cbd 604f e23c a208 4fbd b793 31bd
00000070: 0880 433c aeac de3b aabe dc3c 48d6 8ebc
00000080: 078b 44bd cb96 5cbc 347e a7bc e749 093d
00000090: 9b47 4c3b 927b 10bd 3870 bfbc 32e3 6c3c
000000a0: 6088 4ebd ce13 593a 1534 d93a 056b 84bd
000000b0: 3784 02bd 2d18 bdbc 73f0 de3c 03f8 053c
000000c0: 48c2 5ebc 7d62 9bbc 9954 7dbc d871 3cbd
000000d0: 0367 efbc a2d2 b6bd 8a6f ae3b 805c 393c
000000e0: e929 f63c ab09 9c3c fd88 87bc fa34 083d
000000f0: a408 2abd e683 8fbd 6222 2c3c 0406 c13c
00000100: db8c 273d a1e4 e0bc e1c1 b4bb 4294 533c
00000110: e114 93bc 61c9 d63b b1fd 7ebd 93c4 833d
00000120: b773 27bd a3a8 093d ff63 bd3c eb2b a2bb
00000130: 037c b4bc eced 873c 4fba 41bd 4c0d 48bd
00000140: 9461 f7bb b6d9 e7bc c538 033c e339 29bd
00000150: 60d4 003d 4823 86bd 48bb 17bd dfce 023d
00000160: c63a 9e3c 6472 983c e43a c73c 8971 f1bb
00000170: 4a7f d7bc 0a73 76bd 7f81 febc 0d99 563c
00000180: cea8 6f3c f441 80bd 4cbc 7abd f2c0 9cbc
00000190: 3cde f0bb d254 a0bc 7485 22bd 0cbe fbbc
000001a0: c8fb 1fbd 9b95 53bd 2479 0d3d 91e0 223c
000001b0: e96a ff3c 697e 74bc b1e8 f63c 405e a93c
000001c0: 12fe 34bc a57b 913d 4565 90bc 59d6 f73c
000001d0: 2d78 4bbc 0374 2f3d 5ca7 b73b 9a83 26bc

encoder.fc2.weight f4 [84, 120]
0.025437105 0.03673971 0.07411121 0.012247128 0.07072388 0.04497423 0.037619065 -0.08727072
0.027535204 -0.012330366 0.04821796 0.08799684 -0.08026293 0.07390819 0.020588826 -0.06376196
-0.041994266 0.057810158 0.09219175 0.06433255 0.041591387 0.0672442 -0.027256565 0.04624935
-0.05489176 -0.062690295 -0.04079138 0.07154147 0.05498007 0.04292057 -0.034390025 -0.031912368
-0.076658025 0.089871325 0.07902672 0.06415109 -0.03684914 -0.06607671 -0.06598454 -0.04780715
0.04963708 0.015489663 -0.03171198 -0.07439092 -0.0793932 -0.0083187455 -0.03151902 0.085534625
0.043270584 0.03690487 -0.031030772 -0.07797668 0.02854771 0.075398125 -0.028404288 -0.008622762
0.035441108 0.03140896 -0.06506496 0.050033815 -0.025060514 -0.015897136 -0.033653863 0.0019106809
0.11192763 0.028520929 0.0038524999 0.056700345 -0.05365156 0.0012204604 0.02992664 -0.05121214
0.021683345 -0.015641175 -0.046655953 -0.008742507 -0.034062177 -0.016336175 0.02441744 -0.012721936
-0.07083897 0.03258691 0.09296578 -0.011091041 0.08388962 0.014473265 0.099628374 0.098404385
0.020728087 -0.045759838 0.039113395 0.07475279 0.16133997 0.052733395 0.057439256 0.0034511595
-0.000703024 0.07358802 -0.051274598 -0.055368304 0.036048353 0.08256498 0.09915968 -0.017847506
-0.057767633 -0.07717762 0.027797835 -0.007820149 -0.06905663 0.09591271 -0.016266756 -0.025073992
0.050760545 0.06861188 -0.07275636 0.02189818 0.019962592 0.051608402 0.011558774 0.014160861
0.05804931 -0.08862912 -0.013478756 -0.032867488 0.0381111 0.04423109 -0.070759915 -0.07871969
0.086069554 -0.04290992 0.06052443 0.023975935 0.04545158 0.0011651343 -0.024260916 0.030266404
-0.053772163 -0.06085853 0.0363911 -0.018828318 -0.0483795 0.03142464 -0.04150958 -0.035478745
0.08329059 -0.05626042 0.058118418 0.023355331 -0.048133776 0.022955945 0.06640721 0.007865363
-0.026867473 -0.015263966 -0.10100832 -0.09466295 -0.044930134 -0.08019823 -0.076107584 0.07022964
-0.09284613 0.0669581 -0.05406762 -0.08663225 0.059854932 0.043390915 0.015824506 0.05990592
0.07714893 0.06157579 -0.021904713 0.027809188 0.058086097 -0.022117054 0.016223429 -0.046728387
0.018892653 -0.048621923 0.044662487 0.050705206 0.070104055 -0.04470042 -0.051182114 0.0006777567
0.022917062 0.07194006 0.063689135 -0.030865781 -0.003530018 -0.027448246 -0.0022830144 0.008816479
-0.025337046 0.018363556 0.074205555 0.01560561 0.055395458 0.019813245 0.03875841 0.03644663
-0.038031835 -0.06899986 -0.106909506 0.07233046 -0.08646672 0.03021472 0.059051786 -0.05985121
0.05693586 0.013269285 -0.10066087 0.025140433 -0.017156405 -0.0036344167 0.0738217 -0.05406885
0.04471384 -0.050057646 0.010055422 0.032056425 -0.062668994 -0.00988803 -0.0804628 -0.06465187
0.05453666 -0.060727414 -0.048994828 -0.0855588 -0.003159635 -0.03400019 -0.05265095 -0.017075391
-0.06948986 -0.03239863 -0.042014685 0.055143468 0.04341443 0.063449964 -0.030394955 -0.06741058
0.019689508 -0.083494045 -0.07454867 0.051867943 0.06578997 0.082954474 -0.017324561 -0.004222212
-0.0078467475 -0.001032945 0.08075023 -0.070607975 -0.0025127486 -0.060336575 0.07191529 -0.051530547
00000000: 7a61 d03c 617c 163d 9ec7 973d 2ea8 483c
00000010: aed7 903d e636 383d 7316 1a3d feba b2bd
00000020: 8291 e13c 4e05 4abc 3280 453d b037 b43d
00000030: e460 a4bd 2d5d 973d e6a9 a83c a195 82bd
00000040: 2e02 2cbd 58ca 6c3d 07cf bc3d c9c0 833d
00000050: bb5b 2a3d 54b7 893d 2949 dfbc f56f 3d3d
00000060: 2fd6 60bd c563 80bd dd14 27bd 5684 923d
00000070: c832 613d 7bcd 2f3d 8edc 0cbd 8bb6 02bd
00000080: e2fe 9cbd 750e b83d c3d8 a13d a661 833d
00000090: 20ef 16bd 3a53 87bd e722 87bd 6ed1 43bd
000000a0: 4050 4b3d 5bc8 7d3c 6ce4 01bd 445a 98bd
000000b0: e798 a2bd 594b 08bc 171a 01bd c72c af3d
000000c0: 7f3c 313d 9029 173d 3f34 febc 3db2 9fbd
000000d0: e3dc e93c 556a 9a3d 1cb0 e8bc 7c46 0dbc
000000e0: b22a 113d afa6 003d c740 85bd 42f0 4c3d
000000f0: b54b cdbc b63a 82bc a2d8 09bd d06f fa3a
00000100: 503a e53d b9a4 e93c 397a 7c3b 9f3e 683d
00000110: bdc1 5bbd dbf7 9f3a b728 f53c d2c3 51bd
00000120: 45a1 b13c ec21 80bc 501a 3fbd bb3c 0fbc
00000130: c884 0bbd 71d3 85bc 1507 c83c ab6f 50bc
00000140: 0614 91bd da79 053d d864 be3d 33b7 35bc
00000150: 52ce ab3d 4621 6d3c f609 cc3d 3d88 c93d
00000160: f3cd a93c ab6e 3bbd 5e35 203d fe17 993d
00000170: 4e36 253e f9fe 573d 6d45 6b3d d92c 623b
00000180: 244b 38ba 51b5 963d 5005 52bd e0c9 62bd
00000190: 70a7 133d d417 a93d 3b14 cb3d ef34 92bc
000001a0: c19d 6cbd 4d0f 9ebd 49b8 e33c 1520 00bc
000001b0: 906d 8dbd e26d c43d dc41 85bc f967 cdbc
000001c0: 4aea 4f3d 6384 8c3d 4901 95bd d063 b33c
000001d0: 9788 a33c 5563 533d 0361 3d3c f502 683c
000001e0: 1dc5 6d3d 2f83 b5bd 00d6 5cbc 0fa0 06bd
000001f0: 631a 1c3d a92b 353d 93ea 90bd ca37 a1bd
00000200: 3c45 b03d 50c2 2fbd 77e8 773d 2e69 c43c
00000210: 702b 3a3d 6bb7 983a d4be c6bc 40f1 f73c
00000220: 3340 5cbd cb46 79bd d60e 153d d83d 9abc
00000230: 9529 46bd 20b7 003d f305 2abd 2952 11bd
00000240: 4294 aa3d 5371 66bd 940d 6e3d ae53 bf3c
00000250: ec27 45bd 1b0e bc3c 8100 883d b9dd 003c
00000260: 2d19 dcbc b715 7abc 73dd cebd a6de c1bd
00000270: a908 38bd f83e a4bd 4bde 9bbd 8fd4 8f3d
00000280: 1d26 bebd 5421 893d 0276 5dbd 406c b1bd
00000290: 722a 753d acba 313d 65a2 813c e95f 753d
000002a0: 4200 9e3d e536 7c3d 8371 b3bc 18d0 e33c
000002b0: b0eb 6d3d d32e b5bc ffe6 843c 4466 3fbd
000002c0: c4c4 9a3c c827 47bd 03f0 363d 43b0 4f3d
000002d0: b792 8f3d ca17 37bd 56a4 51bd 7bab 313a
000002e0: 90bc bb3c 4f55 933d 736f 823d 3cda fcbc
000002f0: e057 67bb 25db e0bc a09e 15bb fe72 103c
00000300: a38f cfbc 2b6f 963c 15f9 973d acae 7f3c
00000310: 59e6 623d 634f a23c 23c1 1e3d 1049 153d
00000320: 45c7 1bbd cc4f 8dbd 5ff3 dabd fe21 943d
00000330: 7715 b1bd dc84 f73c 49e0 713d 8b26 75bd
00000340: 9435 693d 6a67 593c 4927 cebd 4ff3 cd3c
00000350: 978b 8cbc 652f 6ebb d52f 973d 4c77 5dbd
00000360: dc25 373d 3f09 4dbd 7fbf 243c 994d 033d
00000370: 9a58 80bd 6701 22bc aec9 a4bd 3368 84bd
00000380: d561 5f3d 4fbd 78bd cdae 48bd 7439 afbd
00000390: e111 4fbb c943 0bbd 86a8 57bd b1e1 8bbc
000003a0: b350 8ebd 6db4 04bd 9717 2cbd 1ede 613d
000003b0: 54d3 313d 0ef2 813d d7fe f8bc 8f0e 8abd
000003c0: e44b a13c edfe aabd f9ac 98bd 7b73 543d
000003d0: e4bc 863d 09e4 a93d 3dec 8dbc 7b5a 8abb
000003e0: a58f 00bc e263 87ba 6060 a53d ea9a 90bd
000003f0: edac 24bb 7c23 77bd 5348 933d b211 53bd

encoder.fc2.bias f4 [84]
0.028709855 -0.095516466 -0.09552945 0.0047833193 -0.07396038 -0.10633542 0.0115933055 -0.08807047
0.07062378 -0.06304394 -0.0656931 -0.04378567 0.026621237 0.0065076505 0.0511468 -0.018190742
-0.051221173 -0.0993669 -0.080178596 0.005457516 -0.03744994 -0.019419512 -0.037641052 0.037803166
0.012917777 -0.0037202057 0.047541533 -0.006660868 -0.037761822 0.0009060016 -0.05378626 0.12718879
-0.09119346 0.0158706 -0.045011047 0.085138805 -0.038273916 0.06799168 -0.053613167 -0.013302749
-0.08024223 0.06279301 -0.05559554 0.07506198 -0.01249406 0.014841971 0.064927146 -0.030192185
-0.0497289 -0.0668011 -0.04764324 -0.09939738 -0.046094652 -0.026324578 0.007143902 0.076292366
-0.026531864 -0.12482579 0.07538481 0.038270492 0.023639154 -0.024967918 0.016047202 -0.07866263
0.018114362 -0.06627207 0.00876161 0.10200173 0.021744145 0.0012487348 0.018078355 0.033101704
-0.034526695 -0.041969713 -0.05158623 -0.010788846 0.058260266 -0.0039174575 -0.052791763 0.058983378
-0.07754782 -0.010556518 0.0109078195 -0.053606745
00000000: ee30 eb3c 239e c3bd f2a4 c3bd 64bd 9c3b
00000010: 8a78 97bd 62c6 d9bd d9f1 3d3c 4a5e b4bd
00000020: 33a3 903d 2e1d 81bd 1b8a 86bd 9a58 33bd
00000030: c814 da3c 213e d53b 4f7f 513d c004 95bc
00000040: 4bcd 51bd e080 cbbd ad34 a4bd f6d4 b23b
00000050: 1c65 19bd ab15 9fbc 812d 1abd 7ed7 1a3d
00000060: 15a5 533c b2ce 73bb e9ba 423d 6943 dabb
00000070: 24ac 1abd bd80 6d3a fb4e 5cbd c73d 023e
00000080: a3c3 babd 0f03 823c 815d 38bd 415d ae3d
00000090: 1cc5 1cbd 393f 8b3d 7b99 5bbd c6f3 59bc
000000a0: 0a56 a4bd 9f99 803d 26b8 63bd 18ba 993d
000000b0: e3b3 4cbc bd2b 733c 86f8 843d 9a55 f7bc
000000c0: 88b0 4bbd 04cf 88bd 8f25 43bd db90 cbbd
000000d0: bfcd 3cbd a4a6 d7bc 6517 ea3b 2c3f 9c3d
000000e0: 5a59 d9bc aaa4 ffbd 5a63 9a3d 85c1 1c3d
000000f0: e6a6 c13c 8589 ccbc 6c75 833c df19 a1bd
00000100: 9264 943c a7b9 87bd db8c 0f3c 48e6 d03d
00000110: c720 b23c 96ac a33a 0f19 943c a795 073d
00000120: dd6b 0dbd 6fe8 2bbd 154c 53bd b3c3 30bc
00000130: 51a2 6e3d 045e 80bb 2d3c 58bd 8e98 713d
00000140: 64d1 9ebd 3ff5 2cbc b6b6 323c bf92 5bbd

bottleneck.fc.weight f4 [16, 84]
0.04452842 0.013523068 -0.05840956 -0.042128365 -0.07015556 -0.02846311 -0.03850565 -0.028032022
0.113468476 0.08749378 0.028993366 -0.04829224 -0.07347544 0.09301288 -0.0811754 -0.11987112
0.011856439 -0.073225975 0.0064575467 -0.00086618145 -0.018014703 0.062463745 0.032192197 0.07274294
0.03352604 -0.04158938 0.09284207 0.058308974 0.04976527 0.0873854 -0.114557415 -0.08444394
-0.085980035 0.12029185 -0.0033985598 -0.066793926 0.08219957 -0.028099412 -0.00850488 0.04092395
0.047247406 0.10457988 0.02777593 -0.042787623 -0.045381125 -0.054321095 0.057849184 0.05334825
0.11215445 -0.10370963 0.07958887 -0.07860166 0.05588257 -0.014201002 0.056493327 0.026845902
-0.028064376 -0.006127973 0.012065503 0.034489736 0.10786295 0.11409322 -0.10450487 -0.058708765
0.058391687 0.021773744 0.0027779858 -0.112103455 0.09655806 0.01811872 0.07824484 -0.07109914
0.00856358 -0.10217496 -0.070475034 -0.15801786 -0.084341176 0.12478872 0.013251918 0.05372108
0.12667595 0.07081928 0.054112386 0.02392806 -0.077509046 0.021823537 0.10112515 0.058076806
-0.09794417 0.027882196 -0.08168042 -0.078447156 0.06602672 -0.11140596 0.07526594 -0.043285605
0.02556229 -0.1201876 0.038383987 -0.11256648 0.04408486 0.09711168 -0.022910971 -0.05342084
0.083141536 -0.035289425 -0.08211205 -0.12248202 0.07242004 -0.02908068 -0.0513467 -0.06684885
-0.07466118 -0.12685926 -0.005108434 -0.08731567 -0.009042419 0.05039553 0.043066595 -0.02410197
-0.13289465 -0.022227086 0.0661569 -0.025223056 -0.0631544 -0.14113496 -0.104458734 0.0448382
-0.0070364727 -0.0054003545 -0.1386106 -0.045175485 0.06618116 -0.07821824 0.060849674 -0.0038817911
-0.10910188 0.05281825 0.012118267 -0.105063595 0.08080704 0.048489552 0.015425201 -0.06785866
-0.09948263 -0.05586059 0.08754448 -0.102024674 0.06273423 0.0884062 -0.06338855 0.014655967
-0.057799354 -0.08329008 0.06341875 0.100461796 0.012826454 0.09046132 -0.02573908 0.04359574
-0.07281595 0.06997422 -0.021454569 -0.064308934 0.05689698 0.027619746 -0.016191479 -0.10074581
0.12409023 -0.045335542 0.10472997 0.034490507 -0.10021681 -0.08868132 -0.057372566 0.10061532
-0.08865873 -0.097071804 0.08947294 0.07487907 0.13384192 -0.012438957 0.08208982 0.0662256
-0.08484566 0.030137986 -0.01707092 -0.022029817 -0.021911634 -0.0745372 -0.035998642 0.11049921
-0.10412461 0.023642419 -0.015944285 -0.079109624 -0.0018249394 0.04924523 0.00087719975 0.102340765
-0.0465167 -0.035607513 0.004923308 0.002595944 0.11375538 -0.01150693 -0.14546676 -0.05655454
0.11443894 0.09708007 0.021131339 -0.06699759 -0.018660901 0.008751808 0.029494526 -0.033317596
0.034408752 -0.029985242 0.066819936 0.004359441 0.085116915 -0.068577014 -0.021669494 0.0982101
0.14902517 0.10794241 0.078147374 -0.002367683 -0.05488437 -0.12005107 0.080534294 -0.0791261
-0.121333554 -0.09639932 0.025552148 0.11765252 0.04058186 0.042521376 0.023142112 -0.09270994
0.00868352 0.04502707 0.021739056 -0.053246174 0.107529625 -0.01340309 0.04960238 0.022902627
-0.082198314 0.063215844 0.047810525 0.12670135 -0.02892584 0.034431603 0.04921608 -0.015516527
00000000: 6f63 363d dc8f 5d3c dd3e 6fbd cb8e 2cbd
00000010: b8ad 8fbd 782b e9bc 1ab8 1dbd 69a3 e5bc
00000020: 2962 e83d f02f b33d 7f83 ed3c 15ce 45bd
00000030: 4b7a 96bd 897d be3d 4a3f a6bd fd7e f5bd
00000040: 8241 423c 80f7 95bd d499 d33b 7410 63ba
00000050: 9293 93bc fcd9 7f3d f7db 033d 40fa 943d
00000060: 9a52 093d a059 2abd fc23 be3d 64d5 6e3d
00000070: abd6 4b3d 1ef7 b23d 149d eabd f2f0 acbd
00000080: 4d16 b0bd 935b f63d 5fba 5ebb 41cb 88bd
00000090: 4058 a83d bd30 e6bc 0d58 0bbc df9f 273d
000000a0: 7f86 413d fa2d d63d 598a e33c 1342 2fbd
000000b0: 8fe1 39bd cc7f 5ebd 44f3 6c3d b283 5a3d
000000c0: 3bb1 e53d b765 d4bd 7dff a23d e8f9 a0bd
000000d0: 1fe5 643d 52ab 68bc 8c65 673d f0eb db3c
000000e0: 43e7 e5bc 2acd c8bb 63ae 453c 1c45 0d3d
000000f0: 40e7 dc3d b5a9 e93d a606 d6bd 9a78 70bd
00000100: 1f2c 6f3d da5e b23c de0e 363b 7f96 e5bd
00000110: 3bc0 c53d b66d 943c d53e a03d 6d9c 91bd
00000120: 424e 0c3c 1b41 d1bd 3755 90bd 6fcf 21be
00000130: 11bb acbd 3a91 ff3d 931e 593c a30a 5c3d
00000140: 57b7 013e b309 913d f3a4 5d3d c704 c43c
00000150: 10bd 9ebd 46c7 b23c b41a cf3d f2e1 6d3d
00000160: f496 c8bd 3469 e43c 1048 a7bd e7a8 a0bd
00000170: 0439 873d cf28 e4bd 0725 9a3d 3f4c 31bd
00000180: 0268 d13c eb24 f6bd 8738 1d3d 4189 e6bd
00000190: 5392 343d 7de2 c63d caaf bbbc d0cf 5abd
000001a0: 1c46 aa3d a58b 10bd 5d2a a8bd dad7 fabd
000001b0: f550 943d 9b3a eebc eb50 52bd 0de8 88bd
000001c0: f6e7 98bd 65e7 01be a664 a7bb 8fd2 b2bd
000001d0: a726 14bc 8b6b 4e3d 9966 303d 7f71 c5bc
000001e0: 8915 08be 9415 b6bc 457d 873d 95a0 cebc
000001f0: 1857 81bd af85 10be 76ee d5bd 43a8 373d
00000200: 3692 e6bb 75f5 b0bb f0ef 0dbe ee09 39bd
00000210: fd89 873d e230 a0bd 823d 793d a665 7ebb
00000220: ce70 dfbd f357 583d b28b 463c 952b d7bd
00000230: 297e a53d fb9c 463d fbb9 7c3c 7bf9 8abd
00000240: 8dbd cbbd 13ce 64bd 854a b33d 50f2 d0bd
00000250: ce7a 803d 4f0e b53d dbd1 81bd 951f 703c
00000260: 04bf 6cbd fd93 aabd b1e1 813d eabe cd3d
00000270: 0c26 523c c943 b93d c3da d2bc 7291 323d
00000280: 8720 95bd a54e 8f3d 7ec1 afbc 67b4 83bd
00000290: cf0c 693d ce42 e23c fea3 84bc d253 cebd
000002a0: 0523 fe3d c3b1 39bd ab7c d63d eb45 0d3d
000002b0: 793e cdbd 8d9e b5bd 7fff 6abd 680f ce3d
000002c0: b592 b5bd 95cd c6bd 973d b73d 335a 993d
000002d0: db0d 093e c4cc 4bbc b51e a83d 4aa1 873d
000002e0: 90c3 adbd f0e3 f63c 50d8 8bbc e077 b4bc
000002f0: 0780 b3bc f6a6 98bd 5073 13bd 694d e23d
00000300: 493f d5bd bfad c13c 979d 82bc 3a04 a2bd
00000310: ce32 efba 5eb5 493d e1f3 653a 0998 d13d
00000320: 4c88 3ebd 2fd9 11bd b353 a13b b720 2a3b
00000330: 95f8 e83d 9087 3cbc 3df5 14be bca5 67bd
00000340: f75e ea3d ead1 c63d a11b ad3c 0836 89bd
00000350: bfde 98bc be63 0f3c 819e f13c 0878 08bd
00000360: 31f0 0c3d 9ca3 f5bc e4d8 883d a4d9 8e3b
00000370: c751 ae3d 1b72 8cbd 3984 b1bc 6022 c93d
00000380: 0e9a 183e e910 dd3d bb0b a03d 212b 1bbb
00000390: 6fce 60bd 56dd f5bd 2aef a43d dd0c a2bd
000003a0: ba7d f8bd 026d c5bd bd52 d13c cef3 f03d
000003b0: 2a39 263d e52a 2e3d 8794 bd3c b6de bdbd
000003c0: 5345 0e3c 4e6e 383d 1b16 b23c a918 5abd
000003d0: 7e38 dc3d a298 5bbc dd2b 4b3d 4a9e bb3c
000003e0: 9757 a8bd 4f77 813d f8d4 433d 00be 013e
000003f0: e2f5 ecbc 2708 0d3d cd96 493d 0839 7ebc

bottleneck.fc.bias f4 [16]
0.06992782 0.019264387 -0.1062674 -0.033724338 -0.07573324 -0.05635864 0.066518314 0.072481684
-0.09819821 -0.07358421 0.09893669 -0.03830511 0.09791344 0.118055776 -0.07595894 0.02800697
00000000: 5136 8f3d 59d0 9d3c b9a2 d9bd 8822 0abd
00000010: 071a 9bbd 51d8 66bd c13a 883d 4771 943d
00000020: 251c c9bd 51b3 96bd 529f ca3d d2e5 1cbd
00000030: d786 c83d 3ac7 f13d 5c90 9bbd e06e e53c

decoder.fc3.weight f4 [84, 16]
-0.015210675 -0.10456837 -0.14113387 -0.002867189 0.007337749 -0.08023541 0.082263924 -0.06850431
-0.12360385 -0.078460574 0.15291682 -0.24718016 0.121692024 -0.16568667 0.16033402 -0.19477347
-0.039889857 -0.21529049 0.10032702 -0.24949916 0.02499266 0.09761368 -0.061492935 0.20841481
-0.04844693 -0.23976937 -0.1400565 0.176981 0.018247189 0.2985113 -0.18696237 0.1485132
-0.0631407 0.1414359 -0.21299376 0.0713443 -0.15224612 0.09249099 0.25660828 0.1726943
0.03037388 -0.058058485 -0.21815808 -0.17945063 0.072878145 -0.1956893 -0.0074767596 -0.15069726
0.25998962 0.18471308 0.25206196 -0.040206145 -0.014246426 -0.24309401 0.06295714 -0.21941672
-0.13980918 -0.20965862 0.14375265 0.1683352 0.074750535 0.24893269 0.24145243 0.11007285
0.038983494 -0.2225 -0.07087167 -0.036410414 0.039185382 0.1965137 -0.13169931 0.12029717
-0.04612275 -0.21576418 -0.2382895 -0.018446565 0.18418112 0.040291212 0.2638693 -0.18988371
0.08188853 -0.05024544 0.23575936 0.014237249 0.109972015 0.17101562 0.2848169 -0.06288302
0.15102498 0.045934513 0.24783587 0.10421733 0.07431416 0.11231923 -0.10837558 0.02449125
-0.03263155 -0.101625144 -0.06292498 0.12108803 -0.110495985 -0.10912981 0.21913469 -0.33336174
-0.15958819 0.17454812 0.17021993 -0.06326171 -0.10490392 0.22546636 -0.21898285 0.034556657
-0.2131145 0.21930033 0.1370494 -0.10018439 -0.06677556 -0.06035591 0.22119579 -0.07556254
-0.2283339 -0.20812777 0.25608203 0.077373534 0.2147727 0.1558552 0.0072105527 0.117441505
-0.12811239 -0.03560961 0.040701393 -0.12438646 -0.19162594 0.262943 -0.12487832 0.09492853
-0.09972501 -0.10307954 -0.2303086 -0.121578544 0.13116664 0.08169917 0.15346144 0.21020442
0.10201025 -0.04269741 0.11174788 0.11028537 0.046380475 0.2388593 -0.032344688 -0.037078872
0.14291248 -0.2314511 -0.034912225 0.24940404 0.10923419 -0.0059361565 0.2607895 0.06166172
0.070420794 -0.116899125 -0.22849624 0.009542942 -0.026274474 0.12941027 0.05689579 0.012405172
0.15632656 -0.009658922 0.07991428 -0.04481867 0.05886844 -0.13312401 0.20466499 0.14928368
0.24069925 0.17061569 0.13619022 0.23315115 0.033122756 0.1463952 -0.109308526 -0.1072785
0.19514894 0.14192846 0.13477843 -0.106421724 -0.13466746 -0.2946427 -0.051745083 -0.07878569
-0.13291833 0.08620898 0.11633049 -0.23761155 0.22535515 0.019229393 -0.1528545 0.028633196
0.114177436 0.21290137 0.15221615 0.14448474 -0.21383323 -0.337819 -0.13785687 0.0383071
0.21128643 0.2306314 0.2157177 0.045895383 -0.22388013 0.13769872 -0.1766953 0.21867542
0.1141172 -0.23938763 0.13748574 0.120883666 0.16225763 -0.018687865 -0.18774778 -0.13552755
-0.13924666 -0.07545766 0.092248924 -0.18930173 0.026735812 -0.051249996 -0.09435422 -0.1631131
-0.061506838 0.27987784 0.15352392 -0.19221476 0.1861455 0.20434785 0.13091677 0.073316514
0.11173623 0.106625296 0.17915243 -0.22085789 -0.2271335 -0.19920187 0.106134914 0.0752267
-0.22090222 0.022362554 -0.13115469 0.23497233 -0.06744047 -0.10477419 -0.109446585 -0.23293892
00000000: 3236 79bc f127 d6bd 6685 10be 73e7 3bbb
00000010: 8071 f03b 7652 a4bd fd79 a83d fd4b 8cbd
00000020: 0424 fdbd f0af a0bd 3a96 1c3e cc1c 7dbe
00000030: ab39 f93d c4a9 29be 9a2e 243e b272 47be
00000040: 8c63 23bd 1c75 5cbe 4178 cd3d b57c 7fbe
00000050: 68bd cc3c aee9 c73d 04e0 7bbd b16a 553e
00000060: 4a70 46bd 1a86 75be f96a 0fbe 823a 353e
00000070: 217b 953c 79d6 983e 1073 3fbe d813 183e
00000080: e94f 81bd 93d4 103e 091b 5abe f61c 923d
00000090: 68e6 1bbe eb6b bd3d 2962 833e c6d6 303e
000000a0: a5d2 f83c bcce 6dbd d564 5fbe e8c1 37be
000000b0: 2341 953d c762 48be 9bff f4bb 6250 1abe
000000c0: 5c1d 853e 6d25 3d3e 440e 813e 33af 24bd
000000d0: d769 69bc a3ed 78be acef 803d c7ae 60be
000000e0: 232a 0fbe c0b0 56be e533 133e 1060 2c3e
000000f0: cf16 993d 36e8 7e3e 4e3f 773e e06d e13d
00000100: 28ad 1f3d 0ad7 63be 2b25 91bd 1623 15bd
00000110: da80 203d e33a 493e 2fdc 06be 5d5e f63d
00000120: 35eb 3cbd 49f1 5cbe 2a02 74be 401d 97bc
00000130: fa99 3c3e 6608 253d e019 873e e070 42be
00000140: 2cb5 a73d 2ace 4dbd e76a 713e 5a43 693c
00000150: 0239 e13d b81e 2f3e 85d3 913e d0c8 80bd
00000160: 4ba6 1a3e d425 3c3d b0c8 7d3e e56f d53d
00000170: 0632 983d a007 e63d 04f4 ddbd e0a1 c83c
00000180: a9a8 05bd d820 d0bd d0de 80bd 00fd f73d
00000190: b84b e2bd 737f dfbd d864 603e 64ae aabe
000001a0: 166b 23be bebc 323e 224e 2e3e 5b8f 81bd
000001b0: ded7 d6bd a7e0 663e 0a3d 60be 488b 0d3d
000001c0: b03a 5abe 4490 603e ae56 0c3e 792d cdbd
000001d0: a0c1 88bd c237 77bd 2681 623e 88c0 9abd
000001e0: 5dd0 69be 721f 55be 2f1d 833e 0476 9e3d
000001f0: 60ed 5b3e 8198 1f3e 8046 ec3b 2c85 f03d
00000200: e52f 03be 62db 11bd 81b6 263d 54be febd
00000210: 9739 44be 77a0 863e 34c0 ffbd e469 c23d
00000220: a03c ccbd 5e1b d3bd 05d6 6bbe 2cfe f8bd
00000230: 8c50 063e e551 a73d ff24 1d3e d43f 573e
00000240: c0ea d03d 7be3 2ebd 13dc e43d 4cdd e13d
00000250: 74f9 3d3d 8897 743e dd7b 04bd 04e0 17bd
00000260: a657 123e 8401 6dbe 1f00 0fbd c663 7f3e
00000270: 2db6 df3d 1784 c2bb 3486 853e 0091 7c3d
00000280: c738 903d cf68 efbd ebfa 69be 005a 1c3c
00000290: 913d d7bc 2084 043e 8f0b 693d 103f 4b3c
000002a0: 1214 203e 7540 1ebc 19aa a33d c893 37bd
000002b0: 0920 713d a951 08be b393 513e d2dd 183e
000002c0: dd79 763e e1b5 2e3e 7375 0b3e 2dbf 6e3e
000002d0: baab 073d a0e8 153e 26dd dfbd d5b4 dbbd
000002e0: 20d5 473e b255 113e 5b03 0a3e a2f3 d9bd
000002f0: 44e6 09be 68db 96be a7f2 53bd 645a a1bd
00000300: be1b 08be 558e b03d ae3e ee3d 7150 73be
00000310: 80c3 663e f686 9d3c e485 1cbe 2a90 ea3c
00000320: dcd5 e93d d102 5a3e 8dde 1b3e cff3 133e
00000330: 19f7 5abe 9df6 acbe 5a2a 0dbe e8e7 1c3d
00000340: 785b 583e a32a 6c3e 1ae5 5c3e ccfc 3b3d
00000350: d540 65be e500 0d3e 9def 34be 73ec 5f3e
00000360: 47b6 e93d 0822 75be 10c9 0c3e db91 f73d
00000370: dd26 263e 4b17 99bc f440 40be bcc7 0abe
00000380: ad96 0ebe 8c89 9abd 01ed bc3d 50d8 41be
00000390: 1005 db3c 84eb 51bd c93c c1bd 1f07 27be
000003a0: 98ee 7bbd 264c 8f3e 6035 1d3e f2d3 44be
000003b0: ed9c 3e3e 9040 513e 0c0f 063e f826 963d
000003c0: f7d5 e43d 5d5e da3d bc73 373e 9228 62be
000003d0: af95 68be 93fb 4bbe 435d d93d 7510 9a3d
000003e0: 3134 62be ad31 b73c 6a4d 06be 969c 703e
000003f0: 3b1e 8abd da93 d6bd 8825 e0bd 8a87 6ebe

decoder.fc3.bias f4 [84]
0.20563339 -0.2538221 0.14418815 0.059798095 0.11095344 -0.33162412 0.0076181768 0.030566469
0.13428633 0.018565888 -0.041726276 -0.03626111 0.17935182 -0.086816065 -0.16283023 -0.1614887
-0.24157535 0.31976694 0.083645634 -0.08399326 0.104120895 -0.17507036 0.1326352 -0.076462865
-0.21312743 -0.06371205 -0.039479747 0.15319104 0.1178846 -0.1353695 0.14519346 -0.1453216
0.21454202 -0.12650591 -0.1582523 0.15279414 -0.04637332 -0.046206605 -0.15888432 0.16498685
0.095878236 0.0636292 -0.29972914 -0.06060167 -0.040471226 0.18266897 0.034359664 -0.07145353
0.20514868 -0.2022294 -0.24963841 0.027294956 0.1600117 -0.15216339 -0.25445166 0.10885932
-0.14767215 -0.12682153 0.24268073 0.18743303 0.121988975 -0.12544337 0.17972921 -0.23838218
0.18517505 0.24587522 -0.1179837 0.29033223 0.24487668 -0.08438749 -0.13665617 0.14134724
-0.016793923 0.02209236 0.16017428 -0.060176726 0.16828111 0.15387593 -0.15727288 0.20689242
0.26700363 0.07796652 -0.13576575 -0.009382818
00000000: 8f91 523e f8f4 81be 0fa6 133e d9ee 743d
00000010: 8f3b e33d a3ca a9be e6a1 f93b 8866 fa3c
00000020: 5b82 093e 7d17 983c 2ce9 2abd 8886 14bd
00000030: 01a8 373e 9fcc b1bd f8bc 26be 4b5d 25be
00000040: 875f 77be 7eb8 a33e 674e ab3d a904 acbd
00000050: 563d d53d a545 33be 86d1 073e 9098 9cbd
00000060: 143e 5abe 777b 82bd 84b5 21bd 1dde 1c3e
00000070: 7b6d f13d 4d9e 0abe 98ad 143e 2fcf 14be
00000080: e7b0 5b3e c48a 01be e40c 22be 1176 1c3e
00000090: f3f1 3dbd 2343 3dbd 92b2 22be 50f2 283e
000000a0: cf5b c43d 0750 823d 1976 99be 7539 78bd
000000b0: 28c5 25bd 930d 3b3e b8bc 0c3d 3a56 92bd
000000c0: 7f12 523e 3915 4fbe 36a1 7fbe ac99 df3c
000000d0: 1bda 233e b8d0 1bbe 7d47 82be a3f1 de3d
000000e0: 5e37 17be 81dd 01be 4c81 783e 72ee 3f3e
000000f0: 5bd5 f93d 3a74 00be ef0a 383e 751a 74be
00000100: 879e 3d3e b7c6 7b3e 70a1 f1bd 6da6 943e
00000110: f4c0 7a3e 59d3 acbd 98ef 0bbe 55bd 103e
00000120: 6993 89bc 09fb b43c ba04 243e df7b 76bd
00000130: e251 2c3e a791 1d3e 240c 21be 9bdb 533e
00000140: b3b4 883e e9ac 9f3d 2d06 0bbe 64ba 19bc

decoder.fc2.weight f4 [120, 84]
0.11154956 -0.091279246 0.1227419 -0.07761083 -0.023622429 0.093315884 -0.039344255 0.10449048
-0.11543561 -0.13587947 0.026516374 -0.036448512 -0.08867649 -0.072425656 -0.07733983 -0.08622884
0.020652113 -0.05922447 0.02679232 -0.08200784 -0.021284303 -0.06377627 0.0069047185 0.029085299
0.027123211 -0.0052014776 0.039162826 -0.013188196 0.041326106 -0.010997952 0.15826075 0.014051519
0.008917688 -0.08889389 -0.0076884497 0.08365985 -0.1884118 0.06335893 -0.15475057 0.109381184
0.06390489 -0.08005485 0.09467705 0.09078215 -0.048473146 0.06846434 0.03758526 -0.027654402
-0.021232355 0.019096551 -0.10286782 -0.1295611 0.107527144 0.091336764 -0.1060605 0.077633955
-0.03149062 -0.07010451 0.05050219 0.04268554 0.086325124 0.019213436 0.06858102 0.11180201
0.05073336 -0.08125133 -0.09325578 -0.14435785 0.06035986 0.032624733 0.024068048 -0.08506292
-0.045872718 -0.0026834963 0.0092933215 0.043369465 -0.04606053 -0.055255212 -0.011372079 -0.017728958
-0.0088279145 0.106713325 -0.04542383 -0.076272406 0.08765004 -0.031457353 0.01438844 0.16339974
-0.040851317 0.022146393 -0.09918387 0.00028848415 -0.03213394 -0.0010637321 0.016489096 0.049256142
-0.09832949 -0.07034324 -0.082870774 -0.050959274 0.011549066 0.05174597 -0.02814868 -0.086930744
-0.101027034 0.024924288 0.09430156 -0.014618785 -0.012830168 0.028308194 -0.018782884 0.09162365
0.0749011 -0.16342439 0.16322674 -0.060039796 -0.017389871 -0.11913622 0.003429307 0.039732307
0.027012587 -0.0045157014 -0.120952494 0.07973793 -3.0338328e-05 0.054832537 -0.10072755 -0.09444435
0.012218002 0.030872883 0.01480677 0.020090552 -0.0057979245 0.12086938 -0.010229848 0.10627418
-0.076022 -0.024316486 0.108464405 0.090219826 0.09052585 -0.087369256 -0.11387986 0.03579366
0.06466523 0.041456454 0.036533203 -0.03927863 0.07495311 -0.018123934 -0.096726045 -0.025454715
0.0067890785 -0.002200627 0.08727425 -0.006297923 -0.07161892 0.07642709 -0.057430018 -0.1030949
0.18969372 0.2070328 -0.0004791835 0.028702697 -0.08443656 -0.008240701 -0.096568346 0.05679319
-0.09199012 -0.08898638 -0.046430815 0.02858948 -0.040188305 0.037102938 -0.18332116 -0.07587193
0.06286559 -0.04455076 0.07599444 0.075630344 0.023134181 -0.09025056 0.21477112 0.05907914
0.069965824 0.13553013 -0.09309202 0.005511063 0.019154167 0.04606554 -0.017511938 0.012978146
-0.06323296 0.015485766 0.07960831 -0.057520214 -0.13259707 -0.13058405 0.078016445 0.12776358
-0.044368245 -0.05774221 -0.07075009 -0.0049148793 0.042188503 0.04556463 -0.017017618 0.07221184
0.010312592 0.006808878 -0.023665221 0.113642894 -0.10029993 -0.122194 0.062173467 -0.025965674
-0.026759319 -0.07709422 0.10861945 -0.12379572 -0.0027621114 -0.05392558 -0.11405613 0.085441455
0.012338845 -0.029596452 0.108054765 -0.100020036 0.066292025 -0.024310308 0.018627614 0.11072155
0.07968375 0.036440782 0.08459683 -0.1472332 -0.089968815 0.046744216 0.053013675 0.013052271
-0.05925522 -0.12171823 0.02732506 0.025595821 -0.14768764 -0.16416523 -0.07998814 -0.023983736
-0.20755842 0.13650948 0.05593464 -0.118493654 -0.10683342 -0.0949911 -0.03505836 -0.10097093
00000000: 1974 e43d 9df0 babd 1b60 fb3d 6df2 9ebd
00000010: d383 c1bc 661c bf3d 7127 21bd 1bff d53d
00000020: 8169 ecbd fd23 0bbe de38 d93c 094b 15bd
00000030: 059c b5bd e753 94bd 5864 9ebd bf98 b0bd
00000040: 9f2e a93c 5c95 72bd 917b db3c baf3 a7bd
00000050: 6b5c aebc 229d 82bd fa40 e23b 4b44 ee3c
00000060: 7f31 de3c 2871 aabb 3369 203d 4e13 58bc
00000070: 9045 293d c130 34bc 1b0f 223e 5838 663c
00000080: 7f1b 123c 000e b6bd 64ef fbbb db55 ab3d
00000090: 06ef 40be 54c2 813d ef76 1ebe 3e03 e03d
000000a0: 91e0 823d ccf3 a3bd 0be6 c13d feeb b93d
000000b0: c78b 46bd 0837 8c3d 00f3 193d 7c8b e2bc
000000c0: 7aef adbc 5f70 9c3c 5dac d2bd aaab 04be
000000d0: 3137 dc3d c50e bb3d 3f36 d9bd 8dfe 9e3d
000000e0: 4ffc 00bd f492 8fbd 62db 4e3d 08d7 2e3d
000000f0: 3acb b03d 7f65 9d3c 3574 8c3d 74f8 e43d
00000100: c9cd 4f3d 1967 a6bd e3fc bebd 8bd2 13be
00000110: e73b 773d 83a1 053d 5b2a c53c 7835 aebd
00000120: 08e5 3bbd 99dd 2fbb 0443 183c 2ea4 313d
00000130: f7a9 3cbd 4a53 62bd f551 3abc 523c 91bc
00000140: f5a2 10bc 848c da3d 570e 3abd b534 9cbd
00000150: dd81 b33d 6dd9 00bd 7ebd 6b3c 4352 273e
00000160: b653 27bd 5a6c b53c ea20 cbbd b03f 9739
00000170: e19e 03bd ed6c 8bba 2414 873c cfc0 493d
00000180: f960 c9bd 1e10 90bd 27b8 a9bd acba 50bd
00000190: 4b38 3d3c 95f3 533d 1098 e6bc bf08 b2bd
000001a0: 43e7 cebd 052e cc3c 2d21 c13d a183 6fbc
000001b0: a035 52bc 96e6 e73c 90de 99bc 2ea5 bb3d
000001c0: bf65 993d b958 27be e924 273e 4aec 75bd
000001d0: 3475 8ebc b1fd f3bd 39be 603b 58be 223d
000001e0: 8049 dd3c 73f8 93bb f1b5 f7bd a44d a33d
000001f0: 107f feb7 1598 603d 3f4a cebd 0a6c c1bd
00000200: 042e 483c 21e9 fc3c 1898 723c f194 a43c
00000210: 84fc bdbb 5e8a f73d 189b 27bc 47a6 d93d
00000220: 6cb1 9bbd 5e33 c7bc 9622 de3d 2cc5 b83d
00000230: 9e65 b93d a7ee b2bd d839 e9bd 5f9c 123d
00000240: 346f 843d 3ece 293d d7a3 153d a1e2 20bd
00000250: 0481 993d a578 94bc 4e18 c6bd 6886 d0bc
00000260: eb76 de3b 6538 10bb d8bc b23d cf5e cebb
00000270: f1ac 92bd ce85 9c3d bd3b 6bbd 6b23 d3bd
00000280: 123f 423e 6800 543e ec3a fbb9 eb21 eb3c
00000290: 13ed acbd 0104 07bc a0c5 c5bd fa9f 683d
000002a0: 5165 bcbd 7e3e b6bd 3d2e 3ebd 7c34 ea3c
000002b0: 7e9c 24bd 40f9 173d 8bb8 3bbe be62 9bbd
000002c0: adbf 803d dc7a 36bd f9a2 9b3d 15e4 9a3d
000002d0: e583 bd3c 49d5 b8bd f6ec 5b3e f8fc 713d
000002e0: 3e4a 8f3d 69c8 0a3e 07a7 bebd 2696 b43b
000002f0: 33e9 9c3c 38af 3c3d 3275 8fbc 4aa2 543c
00000300: 4880 81bd 03b8 7d3c ae09 a33d 519a 6bbd
00000310: 87c7 07be d3b7 05be 16c7 9f3d 75d4 023e
00000320: 7abb 35bd 1883 6cbd 6ce5 90bd ff0c a1bb
00000330: dacd 2c3d faa1 3a3d 8868 8bbc cde3 933d
00000340: 25f6 283c 021d df3b 91dd c1bc 9bbd e83d
00000350: 0d6a cdbd d940 fabd 9ba9 7e3d f7b5 d4bc
00000360: 5c36 dbbc 93e3 9dbd e073 de3d 9c88 fdbd
00000370: 8a04 35bb 12e1 5cbd 4396 e9bd eefb ae3d
00000380: de28 4a3c 4274 f2bc d14b dd3d 4ed7 ccbd
00000390: 1dc4 873d 6926 c7bc f098 983c fbc1 e23d
000003a0: 3c31 a33d ee42 153d 1a41 ad3d 4dc4 16be
000003b0: 9241 b8bd dd76 3f3d de24 593d 31d9 553c
000003c0: 9ab5 72bd 6847 f9bd ced8 df3c 54ae d13c
000003d0: 6e3b 17be ee1a 28be d2d0 a3bd 8a79 c4bc
000003e0: 328a 54be 24c9 0b3e b91b 653d cdac f2bd
000003f0: 7bcb dabd b28a c2bd 5b99 0fbd d9c9 cebd
