tutorials/W1D2_ComparingTasks/RR/models/ConvNet_inpainting_1000_epoch_10.pth (torch, 506482 bytes, 19 tensors)

encoder.conv1.weight f4 [6, 1, 5, 5]
00000000: cff5 213e 8f8e 11be f8ce 1cbe 57e5 3d3e
00000010: 5d2f 8b3c 5d56 d8bc 74ba 583c c710 a5bd
00000020: 0ebf f13d b367 7dbd ca23 083d c8b9 5cbd
00000030: 4904 893d 16a8 66bd 47aa 493d 72d3 0e3e
00000040: 9725 4abe 3ab8 78bd d79a 85bd 8738 07bd
00000050: c740 63be f9e9 083d 7b8d fdbd 695e 36be
00000060: a258 35be cc97 643e 116e bd3d 2bdb 223d
00000070: a9a9 16bd 01fd 4abe 4af8 c9bd 44ae 6c3c
00000080: 33ae a4bd 6145 0bbe 38d7 9ebd 9032 febd
00000090: 71eb 4a3e d62d 433e ba5a 23be c6cd 813d
000000a0: 143a 163e 9dd6 0fbe f1ac 463e 345b 633d
000000b0: 85a6 ca3c 6a19 6b3e 5429 0abd 6e4c febc
000000c0: dd53 07be 1432 cdbc 3099 633b 6f2c eebd
000000d0: 4fb3 593e 51f8 193e 7181 0bbe 82c0 e8bd
000000e0: c31a 83bd 4489 8ebd 6813 053e 1e78 4a3d
000000f0: aff4 633e 28fb 373e 4858 d0bd 7e78 463e
00000100: 805e 353e 4e43 6cbd 01e8 8abd 5883 863c
00000110: 8447 0abe 54f5 00be fab2 02be 403a 77bd
00000120: 6658 95bd f220 25be 5edd 33be 2d8d ee3d
00000130: 3d45 9d3c 0c98 a73c 2577 b63d 569a c0bd
00000140: 8aad 23bd b21c 4b3e a7dd 8b3d d11b 463d
00000150: d21f 3d3e 771e 92bc 5baf 86bd d71a 08be
00000160: aeff 0cbe b3e1 32be d87e f93b 8714 a6bd
00000170: 3697 573e 246d 0c3d 1705 8cbd 3246 593e
00000180: d7e9 69bd 8ed8 97bd 3e5f 4f3e 0862 9fba
00000190: 75c9 1bbd 2730 2f3e 74bd 8b3b 6044 823d
000001a0: 097c 603e 2b88 803d 09be 093c e331 e6bd
000001b0: f7c7 cf3c 88d9 15be 336a 32be a395 693e
000001c0: 5e82 333e 1ba2 d8bd 9eb3 5e3e edbc b23d
000001d0: 9f27 1fbd 14b8 b3bd a073 91bd 764a ee3d
000001e0: 6eb4 173e c574 7dbd 83a0 7cb9 8c50 4f3e
000001f0: 289a 0c3d ec5a c2bd 0c9e 21be ede3 ba3d
00000200: 9ce5 0bbe 0cb0 e4bc 55a1 56be 1632 27be
00000210: f0bc 873d 2080 b3bd 7331 88bc da49 d43d
00000220: d496 163e 12a3 8fbc 017a 6dbe ff88 863c
00000230: 965c f9bd d5e9 22be 0ed5 77be 0aab ec3d
00000240: 42dd fbbc 22a5 08be 9de1 89bd de22 32bd
00000250: 699c 2abe bd3a 14be
0.15816425 -0.14214538 -0.15313327 0.18544517 0.016990358 -0.026408369 0.013228048 -0.08059841
0.11804019 -0.061866473 0.033237256 -0.053888112 0.066902705 -0.056312643 0.049234655 0.13947847
-0.19740902 -0.060722567 -0.06523674 -0.033012893 -0.2219268 0.03342626 -0.12380501 -0.17809452
-0.17709592 0.22323531 0.09249509 0.039759796 -0.036782894 -0.19823076 -0.098618105 0.014445845
-0.08041038 -0.13600685 -0.077558935 -0.12411988 0.19816376 0.19060454 -0.15952578 0.06338076
0.14670593 -0.14046712 0.1940191 0.0555069 0.024737606 0.22958913 -0.03373082 -0.031042304
-0.13215585 -0.025048293 0.0034728758 -0.11629569 0.21259807 0.15036131 -0.13623597 -0.11364843
-0.06401589 -0.06959775 0.12995684 0.04943096 0.22261308 0.17966902 -0.10173088 0.19381902
0.1771183 -0.057681374 -0.067825325 0.016420051 -0.13503844 -0.12593585 -0.12763587 -0.060358286
-0.07292251 -0.16125849 -0.17564914 0.11648021 0.019198054 0.020458244 0.08909444 -0.09404437
-0.03996042 0.19835165 0.06829386 0.04836637 0.1846917 -0.017836792 -0.06576415 -0.13291489
-0.13769409 -0.1746891 0.007613998 -0.08109384 0.21053776 0.034283772 -0.06836908 0.21218184
-0.057107773 -0.074143514 0.20251176 -0.0012159953 -0.03803392 0.17108212 0.004264528 0.06360698
0.21922316 0.06275972 0.008407124 -0.11239984 0.025363905 -0.14633763 -0.17423324 0.22810988
0.175302 -0.10577794 0.21748206 0.08727441 -0.038856145 -0.087753445 -0.07102132 0.11635296
0.14814922 -0.06187894 -0.00024092388 0.2024557 0.034326702 -0.09489998 -0.15782946 0.09125505
-0.13661808 -0.027915977 -0.20959981 -0.163277 0.06627834 -0.08764672 -0.016625142 0.103656486
0.14705974 -0.017533813 -0.23191072 0.016422747 -0.121758625 -0.15909512 -0.24202368 0.115560606
-0.030745152 -0.13344243 -0.067324854 -0.043490283 -0.16661228 -0.14475532

encoder.conv1.bias f4 [6]
00000000: 96ee ccbd b146 143e 4e5f f6bd 4b4f 9dbc
00000010: 030d 09be 7272 9abc
-0.10006444 0.14480092 -0.12029897 -0.019202849 -0.1338387 -0.0188534

encoder.conv2.weight f4 [16, 6, 5, 5]
00000000: aa85 59bd 27c9 91bc a4a4 5d3d 905f f2bc
00000010: 4f67 62bd c5fe 3b3d 16ad 67bd 4c05 623b
00000020: 69dc 8ebb 93e5 2dbd 5de2 65bd 3a05 aabd
00000030: 6913 203d 4dc2 d5bc fccf c73c 74e1 94bd
00000040: d003 e8bc 973e 0f3d 9643 ba3d 68d2 87bd
00000050: 240b 553d b687 943d 4297 cebb 623f 8b3d
00000060: 37af 263d 8dd7 61bd 2488 84bd 2484 1abd
00000070: 116d a7bc e259 883d 35f3 1d3d a38d 81bd
00000080: 6243 293c 9cf4 d23c b490 2b3d 8fc2 6d3c
00000090: a2b1 ae3c c3a8 4bbd 8b09 20bd c9a6 a13d
000000a0: e5d0 243d f03c b0b8 0b94 bd3c 8a93 8e3d
000000b0: 9dc0 7abd dd1c 7ebc ca80 153d ba0f af3d
000000c0: 2293 3f3c bde7 76bd 8569 bc3d b6b6 503c
000000d0: 1c97 023d 2478 56bd 6084 0dbd 261c 09bd
000000e0: 0ed6 013d 2ce3 44bd fd72 ad3d 13de 00bc
000000f0: b0fc 183c d5fb 493d 930c 9d3d 118a 73bd
00000100: c43b b9bb aad3 cdbc 6f67 9dbd bed0 b63c
00000110: 5e38 45bd edb0 bb3c 2971 6abc c352 9a3d
00000120: 083b edbc 878d a53c a56a 863d 2f7a 0fbd
00000130: 9e83 a33d 4beb 96b8 cb1e bb3b 7e29 feba
00000140: 7d35 93bd 1eee 95bb acaf 553d a2ef db3b
00000150: a2ff 773d 0c19 16bd c70a 173d cb2f 48bd
00000160: 9057 2d3d 1422 ae3d dabc 803d f8db 993d
00000170: 73dc 5e3d a5ec 923d 36ed 2c3d b964 6139
00000180: 81ec 1fbc 6b2c 6bbd fffe 28bc 60a2 f93c
00000190: ec59 a53b 496c a53d 658f c0bc 6d59 fa3d
000001a0: d17a e03d 3d0f 18bd c4f5 b8bc 52c7 e63d
000001b0: 199f 803d d4a4 ca3d 4972 843d 1a67 c83d
000001c0: ed88 b0bc 047d 2dbd 1f0a cabb 2cf6 f0bc
000001d0: f9ac 02bd 0b6f 17bd 64eb 6dbc 4c75 773d
000001e0: 3b8b 843b f14a cc3d 4438 5a3d 78d7 b33c
000001f0: ea63 23bd 26c0 663c 45e4 3ebd 32bd 36bd
00000200: c726 9abd 863b 0b3d 4bfd 75bd 45f8 203d
00000210: 7735 1abd 6930 62bd d243 263d 30c0 9b3d
00000220: 16a5 7dbd a362 90bd 8eb1 233d b919 9e3d
00000230: 2f4a da3b 69c4 b5bd 44bf 79bc 6fa5 55bd
00000240: 24f0 a33c b56a 803b 2885 ad3c fd9b a6bd
00000250: 170a dfbb 8d48 e43c 6f0d 4dbd ec5f 83bd
00000260: 988e c3bc 447f 39bd 3cbb 80bd b096 c03d
00000270: 9c94 14bc ddae cf3c 6a95 47bc 3db1 f93c
00000280: 0854 843d e9f9 283d 78f7 90bc 855e 8a3d
00000290: b7f3 8bbc 9529 493d 2b85 933d d09e 903d
000002a0: ec92 543d e893 3e3d ad23 0abd 7f52 813d
000002b0: b1eb 59bb e3bd cfbb 2e75 8abd 5f65 9d3d
000002c0: 40d3 913d 0432 863d fd09 3ebc e0bc 7cba
000002d0: 2c2f 8d3d fa98 d73c 0d01 a8bc b2b8 7d3d
000002e0: d547 703d b776 87bd c8fe 923c 413e 7f3d
000002f0: 0ffa 18bc 04a2 8b3d ef85 40bd 010c 67bd
00000300: 7537 4dbd d1e9 d43d daa6 7c3d 53b0 b2bd
00000310: 7db5 e13c 1639 ab3d adbf 08bd a40e 283c
00000320: 9d0b 73bc e2ea 9ebd a98a 6d3d 01d3 af3c
00000330: 7169 1f3d 5480 b13d 6db9 3a3c 6707 05bd
00000340: a056 6dba a6d8 813d d494 bc3d 7305 dcbb
00000350: 0504 0e3d 0e73 8bbc d433 913d 128a bb3d
00000360: a4c0 953d 8b2c cdbc e559 dcbc ca8e a73c
00000370: 8278 953c 8c31 a0bd f700 263d 0488 173d
00000380: 11c2 87bc ee3f d43d d4ad fe3c c365 5dbc
00000390: eb92 273c abb4 2abd 6673 1bbd a133 433b
000003a0: 12bd 0ebd 3da1 4cbd 464f ed3c 7ba6 36bd
000003b0: 2e6f 98bc 760d 373d ad29 7f3d d395 893d
000003c0: 3aac 68bd 75a4 88bd 078d 6bbc 2c9f 9e3c
000003d0: 5f67 733d 07e4 80bd ecd2 83bd 78a2 4b3c
000003e0: e9b9 8f3d 3aed 3ebd dc7b 1f3d 2b1e 8bbd
000003f0: 9394 36bc 2458 473d 48f9 443c b93c 45bd
-0.053105988 -0.017796112 0.05411209 -0.029586583 -0.055274304 0.045897264 -0.056561552 0.003448802
-0.004359771 -0.042455267 -0.05612408 -0.08301778 0.03908101 -0.026093626 0.024391167 -0.07269564
-0.02832213 0.0349718 0.09094922 -0.06631929 0.052012578 0.07252447 -0.0063046524 0.06799199
0.04069444 -0.055137206 -0.06471279 -0.037723675 -0.02043775 0.06657769 0.03856202 -0.06325843
0.010331007 0.025751404 0.041886047 0.014511718 0.021324936 -0.04972149 -0.0390716 0.0789314
0.04023828 -8.4036845e-05 0.023141881 0.069617346 -0.061218847 -0.015509811 0.036499776 0.085479215
0.011692794 -0.060279597 0.09199814 0.012738874 0.03188239 -0.05236067 -0.03455007 -0.03347411
0.03169828 -0.04806821 0.08469198 -0.007865447 0.009337589 0.04931243 0.07668414 -0.059457842
-0.0056528766 -0.025125343 -0.07685744 0.022316333 -0.04814946 0.022911513 -0.014309206 0.07535317
-0.028958812 0.020209087 0.065633096 -0.035028633 0.07984088 -7.196384e-05 0.005710458 -0.0019391028
-0.071879365 -0.004575505 0.052169487 0.006711916 0.060546525 -0.03664498 0.036875512 -0.048873704
0.042319834 0.08502594 0.062860206 0.07512659 0.054409456 0.071740426 0.04221841 0.00021495194
-0.009760977 -0.057415407 -0.010314702 0.030472934 0.00504612 0.080772944 -0.023505876 0.12224088
0.10960925 -0.037123907 -0.022578128 0.11268486 0.062803455 0.0989472 0.06467111 0.0978529
-0.021549666 -0.042355552 -0.0061657573 -0.029414259 -0.03190324 -0.036971133 -0.0145214535 0.060414597
0.004044918 0.099752314 0.053276315 0.02195333 -0.039890207 0.014083898 -0.046604414 -0.044614024
-0.075269274 0.033992313 -0.060056012 0.03929927 -0.037648644 -0.05522195 0.040592022 0.07605016
-0.061925016 -0.070500635 0.03996425 0.0771975 0.0066616754 -0.08875353 -0.015243355 -0.052159723
0.020011969 0.0039189705 0.021181658 -0.08135221 -0.0068066227 0.027866626 -0.05006164 -0.0641478
-0.023871705 -0.045287386 -0.06285712 0.09403741 -0.009068634 0.025351936 -0.012181619 0.030480022
0.0646134 0.041253958 -0.017696127 0.067563094 -0.017083986 0.04911192 0.07203134 0.07061541
0.051897928 0.046527773 -0.03372543 0.06314563 -0.0033252055 -0.006339775 -0.067606315 0.076853506
0.07120371 0.065525085 -0.011599061 -0.00096411817 0.06893763 0.026318062 -0.020508314 0.061943717
0.058662254 -0.0661444 0.017943755 0.06231523 -0.009336962 0.068180114 -0.04700273 -0.056407932
-0.050101716 0.103961594 0.06168256 -0.087250374 0.02755236 0.08360498 -0.03338592 0.010257397
-0.014834312 -0.07759644 0.057993565 0.02146292 0.038918916 0.08667055 0.011396748 -0.032477763
-0.00090537407 0.063401505 0.09208074 -0.006714517 0.034671802 -0.017022636 0.070899636 0.09157194
0.07312134 -0.025045654 -0.026898334 0.02045383 0.01824594 -0.0782195 0.040528264 0.03699495
-0.01657203 0.10363756 0.031088747 -0.013513031 0.010227899 -0.041676205 -0.03795185 0.0029785412
-0.03484828 -0.049958456 0.028968465 -0.044592362 -0.018607702 0.04469057 0.062295604 0.0671803
-0.056804873 -0.06671993 -0.014376885 0.019363008 0.059424754 -0.06293493 -0.064367145 0.012428872
0.070178814 -0.046612956 0.03893648 -0.067928635 -0.011143821 0.04866804 0.012022324 -0.048153613

encoder.conv2.bias f4 [16]
00000000: 6fe5 8f3d 9635 03bd 8674 35bd 563c 9c3d
00000010: 3ccf 91bd 65b3 0c3d 189a aa3d fbd8 673d
00000020: d604 113d 4da4 19bb 6ca0 a2bc e4f1 103d
00000030: 51b3 54bc 0239 19bd 37bc 6ebc 9d7f bcba
0.07026183 -0.032033525 -0.04430058 0.07628696 -0.07119605 0.03435077 0.08330172 0.056603413
0.035405003 -0.0023443878 -0.019851886 0.035386935 -0.0129822055 -0.037407883 -0.014571241 -0.0014381293

encoder.fc1.weight f4 [120, 400]
00000000: f3ad 73bc 45ee 0dbd 1e94 b2bb 447f 61bd
00000010: fd0e d33c f067 6cbd 048d 49bc 0c8b 00bd
00000020: 7628 2bbc fcc6 003d 7228 fdbc 1185 043c
00000030: d938 45bd c192 963c ad28 61bd c405 6ebd
00000040: 2cfa 2abd 4f48 48bd 3c83 20bb 33bb 08ba
00000050: 7e22 5cbd 0c5d 52bd c88e 7c3c 493a 5bbc
00000060: 59dd 783c 7edc 0ebb 69ce 8e3c 8407 0dbd
00000070: 719b 053d 36d0 fa3c af4b 5f38 3f76 793c
00000080: 5bcd 7ebc e404 443d 0fb3 7b3b 50ea 383c
00000090: 7e19 063d 8ad1 963c 3ee1 033d 1f87 b6bb
000000a0: 94f9 3bbd 8191 fe3a 96c6 023d aa50 1e3d
000000b0: dcf8 14bb 2f95 18bb 3a39 653b 1e3b 29bd
000000c0: a311 27bc 8e0d 2f3c 5eb9 1d3d 3ace 9dbb
000000d0: 365d 1cbd 1a50 01bd 17e9 2dbd 0b21 67bc
000000e0: 9ba8 76bd 30c6 be3c 814d 4fbc 60e8 173b
000000f0: 52cd 83bb 4a3d e13c a40b 59bd f77e a43c
00000100: 8c95 263d 858d ecbc 0316 343c bee6 4ebd
00000110: a60b bb3c 5d70 083d 9adc 4ebd 2b65 6cbd
00000120: 8b00 5e3c 2701 74bd 275a 9fbc bf6b 0d3d
00000130: 08c0 c03c ff22 6dbd 5401 233a 086d 0f3b
00000140: 0c67 6dbd d100 febc 887a 0fbd 0418 efb7
00000150: a9e6 67bd d580 493d b5ad 45bd 575f dc3c
00000160: 2aab 4fbd 27cc 293d fc12 bcbc 8710 58bd
00000170: 378e 87ba e272 6fbd e923 273d cb16 7e3b
00000180: 7895 8d3c d2f3 50bc b3cd 79bd a612 0cbc
00000190: 19c2 2f3c a6c9 933c 3e78 983b 302c 143c
000001a0: f2c3 4a3d 1a3e 42bb fc78 143d 2bbf e0bc
000001b0: d8e2 1d3d f76f 14bd 6820 123d 7844 d03b
000001c0: 6fc3 0cbd 46f5 3ab9 e707 7bbb d315 dabc
000001d0: d405 81bc 3fcc a13c 5e0d 1bbb bd37 0b3d
000001e0: 73b6 fc3c c7d0 6fbd a22c b5bb 13f5 9fbc
000001f0: cac1 99bc 3058 163d 78df 0bbc 1418 63bc
00000200: a795 07bd dc62 a13c 3280 14bd ee62 7a3c
00000210: 5554 973b 8807 70bd f842 933c 0eb3 aabc
00000220: 90da 13bd f5e4 e0bc a62c 4cbd 53b2 bfbc
00000230: ec85 403a a705 c63c c932 11bb fbf0 33bc
00000240: de1b 5e3d da13 193d 999a f2bc 7ec1 2a3c
00000250: 3066 313d 3928 9dbc 7c08 8b3c 0f70 eabb
00000260: ed4d b5bc be50 903b 56e1 293c 0a13 e93b
00000270: f5c8 413c 8331 c63c da24 9c3c bd93 81bc
00000280: 14dc 083d 0e1a f13b 9c6c cebc 61d7 e6bc
00000290: 3f96 49bc 2ff4 1bbd df72 20bb 4dc4 eb3c
000002a0: 8fd7 52bd 622e 3c3d db77 d73c d481 7abd
000002b0: 8a00 18bc 3ae5 013d b114 2ebd ff64 143d
000002c0: fd42 70bd 8014 82bd 35df 083d 2d76 f83c
000002d0: 22ac b43c f051 18bc 62d7 8c3b d5b7 fdbc
000002e0: ec6e 81bd 0e9b 34bd cf6b 37bd 044c c43c
000002f0: cda5 67bd 1261 88bd c668 d9bc e09b 88bd
00000300: d655 28bd 2e40 34bb b887 4bbd c9e0 3dbd
00000310: 183b adbb 7f0b b0bb 0de4 3abd da84 37bd
00000320: 3b93 6bbd b582 17bb 84ea 3abc 5e5a 86bb
00000330: a6b6 09bd ff44 743b 6f0e 48bd 2a48 a73c
00000340: 4955 2d3d 28e1 b73c 514f 2f3b a735 d63c
00000350: f58e c8ba 1b61 76bc fdb0 f4bb bd2d 3bbd
00000360: 8d53 69bd 9b29 68bc fe3f e5bb f8b1 42bd
00000370: 0358 e8bc f3ba 16bc 3bd6 213c 88ed ffba
00000380: 3ab8 72bc 8e8d 01bd 4a8e 9b3c 4619 cebb
00000390: 540a 313c 535e 1fbc 9da8 38bb 981c 90bd
000003a0: 3ee9 5dbd 6dbe 7cbd 0f87 ab3c 5702 12bd
000003b0: 618e 773c ce65 7fba 839a e4bc 5b3c 53bd
000003c0: 46d2 af3b 5079 4f3c 82c8 5c3c e751 f3bc
000003d0: 9a7b 12bd b480 29bd 6a99 09bd 844a d93c
000003e0: af8a e63c 8b2a 1dbd a28d 693c cffc 2ebc
000003f0: be15 aebc ec3a 6bbd f8df d6bc 6d2d 173d
-0.014873016 -0.03465106 -0.005449786 -0.05505301 0.025763983 -0.05771631 -0.012301687 -0.031382605
-0.010446658 0.031439766 -0.030903075 0.008088366 -0.048149917 0.018380525 -0.054970432 -0.058110967
-0.04174249 -0.048897084 -0.0024492284 -0.0005215883 -0.05374383 -0.051358268 0.015414901 -0.0133805955
0.015189492 -0.0021798904 0.017432408 -0.034430996 0.032618944 0.03061686 5.323783e-05 0.015225946
-0.01555189 0.047856227 0.0038406288 0.011286333 0.032739155 0.018410463 0.03219723 -0.005570307
-0.045892313 0.0019422026 0.031927668 0.038651146 -0.002273134 -0.002328228 0.0034976737 -0.041316144
-0.010197076 0.010684384 0.038506858 -0.004815844 -0.03817483 -0.03157053 -0.04245862 -0.014106999
-0.06021939 0.023287863 -0.012652756 0.0023179278 -0.004022279 0.027495045 -0.052989617 0.020080073
0.040669963 -0.028876076 0.010991576 -0.05051302 0.022832703 0.033310283 -0.05050335 -0.05771367
0.013549934 -0.05957141 -0.019452168 0.034526583 0.023529068 -0.057894703 0.00062181544 0.0021885056
-0.0579596 -0.031006249 -0.035028964 -2.8502203e-05 -0.05661646 0.04919513 -0.048261363 0.02690093
-0.050700344 0.04145446 -0.022958271 -0.052750137 -0.0010342066 -0.05845917 0.04080573 0.003877091
0.017283186 -0.012753444 -0.060987186 -0.008549368 0.010727429 0.01804049 0.004653006 0.009043738
0.049503274 -0.0029639066 0.036248192 -0.027434906 0.038546413 -0.03623959 0.035675436 0.0063558184
-0.034366067 -0.00017829714 -0.003830427 -0.026621735 -0.01574985 0.019750712 -0.002365909 0.033988703
0.030848717 -0.058548715 -0.0055290023 -0.01952604 -0.018769164 0.036705196 -0.008537166 -0.013860721
-0.033101704 0.01970046 -0.03625507 0.015282376 0.0046182075 -0.058600932 0.01797627 -0.020837333
-0.03609711 -0.027452925 -0.049847268 -0.023400461 0.00073441747 0.024172617 -0.0022155514 -0.010982747
0.054225795 0.037372448 -0.029614734 0.010422109 0.043310344 -0.019184219 0.01697182 -0.0071544717
-0.022131884 0.0044041565 0.010368666 0.0071128653 0.011827697 0.02419353 0.019060541 -0.015817517
0.033413008 0.0073578423 -0.025198273 -0.028178873 -0.012303888 -0.03807467 -0.002448253 0.028780127
-0.051475104 0.04594267 0.026302269 -0.06115897 -0.009277472 0.031712748 -0.0425002 0.03622913
-0.058657635 -0.06351566 0.03341599 0.030329788 0.022054736 -0.009296879 0.0042981366 -0.030971447
-0.06319985 -0.044093184 -0.04478055 0.023962028 -0.056554604 -0.0665914 -0.026539218 -0.06670356
-0.041097485 -0.0027504074 -0.04968998 -0.04635695 -0.0052865855 -0.005372464 -0.045627642 -0.04480443
-0.057513457 -0.002311868 -0.011408452 -0.004100128 -0.033621453 0.003727257 -0.04884189 0.020420153
0.042317662 0.02244623 0.0026750157 0.02614863 -0.0015301394 -0.0150378 -0.0074673877 -0.045697916
-0.056964446 -0.014170076 -0.006996154 -0.047533005 -0.02836228 -0.009199846 0.009877737 -0.0019525746
-0.014814431 -0.031629138 0.018988747 -0.006289634 0.010805685 -0.0097270785 -0.0028176673 -0.07036704
-0.054177515 -0.06170504 0.020938424 -0.035646763 0.015109629 -0.0009742648 -0.027905708 -0.05157123
0.0053656427 0.0126632005 0.013475539 -0.02970214 -0.035762407 -0.041382506 -0.033593573 0.02652479
0.028142301 -0.03837065 0.014254959 -0.010680391 -0.021250602 -0.05742924 -0.026229843 0.036908556

encoder.fc1.bias f4 [120]
00000000: d674 af3c b466 1c3c 5db1 bdbc 153d 53bd
00000010: 63ef 1c3d 0473 403d d256 bb3c a528 63bd
00000020: 4436 863c 19c9 3f3d 20df 2a3d 3126 bc3c
00000030: 0045 913c 99ee 2cbd 5dac 173c a6e9 1bbd
00000040: 47f7 623c fcd4 87bb aa37 c7bc 6487 dc3c
00000050: 0401 0e3d 984a f43b 5b7d 043d 4c87 c8bc
00000060: ff16 3cbd 133c 3ebd ea04 53bd edfe 0f3d
00000070: 30f7 233d e658 32bd a115 93bc 95d9 1dbd
00000080: 2bae 2e3d b5eb 0cbd a5a2 86bc a8d7 eb3c
00000090: 338c d9bc 20df 5c3c dee7 74bc 2d1a 92bc
000000a0: db3d 323d 90f9 163d 7e2d 273d 86bc 0ebc
000000b0: 8633 3d3c cf52 41bc e3dc 1a3d 4c77 0b3c
000000c0: 9078 c2bc 23ee d33c 9b05 563c 6ba9 3abd
000000d0: 3f10 4bbb 7f81 29bd 4dda 14bd 07bd f53c
000000e0: f442 903d 9d97 9c3b a386 b73b 1600 34ba
000000f0: c9a8 ed3b 916f d53c 774b f73c 30dd 5bbc
00000100: 9f45 313d 4724 513d 0a68 88bc 7e57 4abb
00000110: 1023 bf3b ec97 b83c b399 33bd e6ae 0a3d
00000120: e6ca 183c c9d8 1fbd 3b90 66bb 4c5e d63b
00000130: 2cd9 1bbd b76a 19bd bddf 0cbd 0089 0d3d
00000140: d288 2a3b f9cb 0e3d 08cc a33a f149 8e3c
00000150: 2bba 8a3c b37f 243c 78e9 55bd bd03 d93c
00000160: bbe7 593d 83c4 57bc df94 0fbd e8c6 9fbc
00000170: 3378 3bbd 79fa 193d ae92 01bd 2859 a6bc
00000180: 2642 d83a 9663 1ebb 5583 5b3b 5261 583b
00000190: 78cb abbc df83 aa3c 3018 8abc 3b6e 80ba
000001a0: 27b1 103d 4fa6 cd3c 959c d63c e911 18bc
000001b0: de24 a6bc 453c 523c 566b c53c 1a6e 30bd
000001c0: b29d 85bc 0ca5 10bd 6274 333c ec9e 5a3d
000001d0: 115f 903c be83 5d3c cd41 e5bc bf92 ff3c
0.021418016 0.009545971 -0.023155862 -0.051571924 0.038314234 0.046984687 0.022868548 -0.055458684
0.016383298 0.04682264 0.041716695 0.02296743 0.017733097 -0.042219732 0.009257403 -0.03806462
0.013852901 -0.0041452628 -0.024318535 0.026920028 0.034668937 0.0074551813 0.03234611 -0.024478577
-0.04592037 -0.04644401 -0.05151836 0.035155226 0.04003066 -0.04354181 -0.01795465 -0.03853758
0.04264657 -0.034404475 -0.016434977 0.028789356 -0.02655611 0.0134809315 -0.01494786 -0.017834747
0.04351602 0.036859095 0.04081487 -0.00871194 0.011547929 -0.011799528 0.03780831 0.008512329
-0.02373913 0.025870388 0.01306286 -0.045571726 -0.0030985025 -0.041383263 -0.036341 0.029997362
0.0704402 0.004778816 0.0056007667 -0.0006866468 0.007252787 0.026054176 0.030187352 -0.013419434
0.043279286 0.051059987 -0.016651172 -0.0030874903 0.005833037 0.02253338 -0.04384775 0.033858202
0.0093257185 -0.0390251 -0.0035181183 0.006542003 -0.038048908 -0.037455287 -0.03439306 0.03455448
0.0026021493 0.034862492 0.0012496719 0.017369242 0.016934475 0.0100402115 -0.052224606 0.02649104
0.05319951 -0.013169411 -0.035054084 -0.019504026 -0.045768928 0.037592385 -0.031634025 -0.020306185
0.0016499206 -0.0024168245 0.0033495028 0.0033016992 -0.020971045 0.020814834 -0.016857237 -0.0009798476
0.035325196 0.025103716 0.026197711 -0.009281614 -0.020281252 0.012831752 0.024099033 -0.04307375
-0.016310547 -0.03531365 0.010953041 0.053374216 0.017623456 0.013520179 -0.027985478 0.031197904

encoder.fc2.weight f4 [84, 120]
00000000: 530b 58bd 48ad 923c df7e 89bd 9838 fc3c
00000010: acdb ec3c 4b7c 143d 2eca 00bd 6a5a 83bd
00000020: 142d 86bd 72a3 b63d 7513 83bd e65f b9bd
00000030: 138a aebc 2ba1 2fbd 0c5e 5d3d 0ffb 7dbd
00000040: e7ed a1bd c8a7 a4bd 3f44 a1bd cea7 4f3d
00000050: 96c5 473b c5af aa3d eefd 87bc 70cb 623d
00000060: 2434 233c 9b16 263c 7cbf 5fbd 0e0d a03d
00000070: 0e29 89bd 3e5d aebd 62e1 94bd 94c8 763d
00000080: faa9 a1bd 2c35 4f3d b40f 2a3d 883b 3f3c
00000090: edaa 4c3c 5153 d23c 2307 123d 1bb9 8f3c
000000a0: 1c03 993c ada0 963d e645 3abc 0fe6 053d
000000b0: 2491 0bbd 820c 48bd b17b 90bd 31cb e1bc
000000c0: bb26 91bc 4ecc 19bd a1b4 573d edab a8bd
000000d0: c431 80bd e17b 383d cf65 9c3d 90cb b0bd
000000e0: a343 833c bff6 17bd 2cd7 80bd b3f8 8dbd
000000f0: fec5 af3d f7a7 563d aabf 7e3d 4afd d53c
00000100: d5c7 903d ed5a 2cbd 0788 b3bd a603 3f3c
00000110: f2f7 acbd 65b1 7fbd 0418 90bd b3a5 953d
00000120: b480 be3d 59ff 283d 439d 813c 57d6 34bd
00000130: 17a9 b53c ff4e 9cbc 2711 003d 68fa f03c
00000140: 5fc3 53bd 8444 85bd 06e4 5ebd 7477 4c3d
00000150: 8bba 833d a532 b63d e29c c43b 095f 863d
00000160: 272d 8f3d b0f6 d6bc 4328 4abd c9aa b83c
00000170: c607 a13d 7b7d ab3c 15c4 13bd 714f 683c
00000180: 8177 3c3d cb50 583d 8423 47bc d902 0fbd
00000190: dd31 b93d 45e1 b03d 60a4 4e3d f90a b93d
000001a0: 1a09 e03c 11d0 243d c20d 963d f431 15bc
000001b0: 92af 8abd 798c ba3d 7edd 983d a445 8b3d
000001c0: 31d3 ba3d 9d6c acbd fbd6 df3c 20a1 ddbc
000001d0: dff1 2dbd b66d 8a3d 50fb 02bd f35d 3c3d
000001e0: a13f 44bc f255 c7bc 9cee 0f3d 5c42 8f3d
000001f0: 789d 67bd 2159 cc3c 4d60 5fbd b2de b83d
00000200: 22d4 713c ffbd 80bd 040d 67bc 2da9 73bd
00000210: ab35 babb eef6 99bd e092 d0bd a7ea 433d
00000220: 448e 963a 0b6a 393c bbd3 573d 52e7 933d
00000230: f2d6 f43c eee9 2fbb 25cb 8b3d 3fa0 d73c
00000240: 6e1f 80bd 0787 1cbd 3d75 d0bd 8f48 a7bd
00000250: acf8 2c3c 2ba2 403a 63bb 74bd bc8c 713d
00000260: 55df 753d 462b 21bd 8c78 3cbd d20f 223d
00000270: 9019 9bbc 5221 afbc 7196 8a3b 8ae4 a6bd
00000280: 5381 463d f315 eb3c d5ea bfbd 3376 37bc
00000290: 65b6 99bd ee7d 673d ba77 c6bd dc93 8cbd
000002a0: b1e6 a1bb b135 da3c d708 533d c441 95bd
000002b0: 7d85 a23c 1b4c 953d bedf 1cbd f0de bebd
000002c0: 13e4 b1bd 139c 7f3d 061a b7bd 8f48 9f3d
000002d0: f233 963a 1b8e 46bd 92b0 453c b6c5 1b3c
000002e0: c862 863d 2d56 4fbd 39d5 853d 56ef cbbd
000002f0: ffb5 da3c 32b7 91bd 502a 2f3d 7a64 2d3d
00000300: 0c26 7e3a ebbb b43d 74a3 d4bc 726d adbd
00000310: 2077 36bd 4a58 023d eb30 053d ed22 863d
00000320: 324f 913c 7b4a 523d 1620 4b3d bc21 c23c
00000330: 153c 9fbc 899f a23d 0e00 f13b 43a2 aebd
00000340: 97fa a63c 5ece 4e3c ca38 9d3c 7135 47bc
00000350: 90db 863d 706a 573d 5d2a 9f3d a149 5bbd
00000360: 6175 1fbd 3f33 b0bc 5eb8 14bd 128e 94bd
00000370: 1cff 8bbd 1168 85bd 2f51 6ebd 6dea 973d
00000380: 758f 543d e5eb 373d eecc 153c c1c9 493d
00000390: 5d40 90bd 3058 c9bc a11d 4dbc 1b37 713c
000003a0: dcb7 51bd 8c3d 4cbd 483e d83c b3e5 4d3a
000003b0: 2a23 143d 0fa8 cebd 9cef 1a3c 8f04 adbc
000003c0: 0cf4 813c 89c2 9b3d 18cb 223d c114 b1bc
000003d0: fa26 9c3d 4e07 bcbb 1a65 48bd 08ab 1ebb
000003e0: 8d8b 92bd 69f5 83bd 4b77 983b 604e 1cbd
000003f0: e46f 103d 8cb1 43b9 d341 f7bb 467f 61bd
-0.052745175 0.017904893 -0.06713652 0.030788705 0.028913341 0.036251348 -0.031442814 -0.064137295
-0.06551567 0.089178935 -0.064001955 -0.09051494 -0.021306073 -0.04287831 0.05404477 -0.062007006
-0.079067044 -0.08039814 -0.07874345 0.05069714 0.003048276 0.08334307 -0.016600575 0.055369794
0.009961162 0.0101372255 -0.054625973 0.0781499 -0.06697284 -0.08513878 -0.07269551 0.06024988
-0.078937486 0.050587818 0.041518882 0.011671908 0.012491924 0.025674494 0.035651337 0.01754432
0.01867824 0.07354865 -0.011369204 0.032690104 -0.034073964 -0.048840053 -0.07054842 -0.02756271
-0.017718663 -0.037548356 0.052662496 -0.08235917 -0.06259492 0.045040015 0.07636606 -0.086325765
0.016023463 -0.03710055 -0.06291041 -0.06932201 0.08582686 0.052406278 0.062194504 0.026121754
0.07069365 -0.0420789 -0.087661795 0.011658585 -0.08445729 -0.062425036 -0.070358306 0.07306995
0.09301892 0.041259144 0.015822059 -0.044149723 0.022175355 -0.019080637 0.031266358 0.029416278
-0.051699992 -0.06507209 -0.05441668 0.049918607 0.064320646 0.088963784 0.006000147 0.06561095
0.06991034 -0.026240677 -0.049354803 0.022542374 0.07862811 0.020933857 -0.03607567 0.014179097
0.046012405 0.052811425 -0.012154464 -0.034914825 0.09042714 0.08636717 0.05044973 0.09035296
0.02734809 0.04023749 0.07326843 -0.009106148 -0.06771769 0.09108824 0.07464121 0.06800392
0.09122313 -0.08419154 0.02732419 -0.02705437 -0.042466994 0.06759207 -0.03197795 0.045988034
-0.011978061 -0.024332974 0.035139665 0.06995079 -0.05654666 0.024944844 -0.0545352 0.09026851
0.014760049 -0.06286239 -0.014102224 -0.05948751 -0.0056826673 -0.07517801 -0.10184264 0.047831204
0.001148649 0.0113167865 0.052692156 0.07221855 0.02988765 -0.0026842314 0.06825856 0.026321528
-0.06255995 -0.03821471 -0.101786114 -0.08168136 0.010557335 0.00073483837 -0.05974902 0.058972105
0.06002744 -0.03934791 -0.0460134 0.03956587 -0.018933088 -0.021378193 0.00422936 -0.08149059
0.048463177 0.02869699 -0.093709625 -0.0111976145 -0.07505492 0.05651658 -0.09690805 -0.068641394
-0.0049408306 0.02663693 0.051522102 -0.072879344 0.019839043 0.072899066 -0.038299315 -0.09319866
-0.0868608 0.062404703 -0.089405105 0.07777511 0.0011459573 -0.048475366 0.012066023 0.009507587
0.0656181 -0.050619293 0.065348096 -0.09957759 0.02669811 -0.0711502 0.04276496 0.04233215
0.00096950005 0.08824905 -0.025956847 -0.08468141 -0.0445472 0.03182248 0.032517355 0.0654963
0.017737959 0.05134056 0.049591146 0.023697726 -0.019437829 0.07940585 0.007354743 -0.08527043
0.020383162 0.012622444 0.019192118 -0.0121587375 0.06584847 0.05259174 0.07771752 -0.053537015
-0.0389303 -0.021508811 -0.03630864 -0.0725366 -0.068357676 -0.0651399 -0.05818289 0.0741776
0.051894624 0.0449027 0.009143097 0.049264673 -0.07043526 -0.024578184 -0.012519271 0.014722611
-0.051200733 -0.049863383 0.026396886 0.0007854357 0.036166348 -0.100906484 0.009456541 -0.021120338
0.01586344 0.07605464 0.039744467 -0.021616342 0.07624622 -0.0057381755 -0.048924543 -0.002421083
-0.071555234 -0.06443293 0.0046528927 -0.03816068 0.035262957 -0.0001866279 -0.0075456887 -0.055053018

encoder.fc2.bias f4 [84]
00000000: 6fd1 1d3c 7c20 eebc c1b1 163c 56c8 75bd
00000010: eb5b b0bd 92f2 2fbd f44e f9b9 be57 c93c
00000020: 13aa da3c e3f6 7ebd d524 403d ebbe c6bc
00000030: b690 acbd f324 613d 0619 9e3b b7b1 de3c
00000040: fa26 803d 6818 123d 656d 09bc 5574 3c3d
00000050: a25d a53d fda2 a7bd 2421 e13c 163b c03c
00000060: 848c 1dbd ffab a63d cdc0 85bc e42e 2dbd
00000070: 8ea8 903b cec2 503d 820d 793d 337a 2d3d
00000080: 06d5 8abd 5197 eb3c f0bf ae3d 9844 cb3d
00000090: aaa0 5bbc 0a7d 0a3d 6a2a 91bd a6df a0bc
000000a0: 1032 183b de74 c5bd ff42 f23c d009 813d
000000b0: 0e41 86bc b995 a03d f968 273c 3656 91bd
000000c0: bfba aa3d 6faf 77bd 6461 dc3d 8666 a73c
000000d0: 2870 93bd d604 fabc 746b b2bd ed50 2a3d
000000e0: 10fd afbb 7507 4e3d f008 48bd 2991 a23d
000000f0: c857 4d3d baed 7fbd 45ae b93d 6b08 11bd
00000100: 24e8 52bd 4d04 10bd e7b5 aebd 0ca4 a0bd
00000110: 8ab1 003c 3d5b 0a3d 123d 17bd a346 5a3d
00000120: cd2a b0bc ee20 c43c 2670 013d 5ee0 593c
00000130: 1246 3ebd ed3c 08bd 920d 7bbd 96ff f8bc
00000140: 2653 903d e37b 553d fa35 993d c683 e03c
0.009632452 -0.029068224 0.009197653 -0.06000551 -0.08611282 -0.042955942 -0.00047551806 0.024577972
0.026692426 -0.06224717 0.046910126 -0.024260959 -0.08426039 0.05496688 0.0048247604 0.02718435
0.06257434 0.035667807 -0.008387898 0.04600938 0.080745 -0.081853844 0.027481623 0.023465674
-0.038464084 0.081382744 -0.016327286 -0.042281047 0.0044146245 0.05096703 0.060803898 0.042352866
-0.06778912 0.028758677 0.08532703 0.099251926 -0.0134050045 0.033810653 -0.07088168 -0.019637894
0.00232232 -0.09641431 0.029572962 0.063007 -0.016388442 0.07841057 0.0102178985 -0.070965216
0.083364 -0.06047004 0.10760763 0.02043463 -0.071991265 -0.030519884 -0.08711901 0.041581083
-0.0053707436 0.05030008 -0.04883665 0.07937843 0.050132543 -0.062482573 0.090664424 -0.03540842
-0.051490918 -0.03516035 -0.08530789 -0.078437895 0.007854829 0.033778418 -0.036923476 0.05329002
-0.021504784 0.023941483 0.031601094 0.013298122 -0.046453543 -0.03326123 -0.06129224 -0.03039531
0.07047109 0.0521201 0.07480998 0.027406584

bottleneck.fc.weight f4 [16, 84]
00000000: 51f4 cebd aefa 02bd 89b8 0bbd 3035 d63d
00000010: 0a8e 09bc 973d 493d a2f7 eabc 08bb 27bc
00000020: c4b9 6c3c 2156 84bd b5fa 84bd 21e2 23bd
00000030: afae 7cbd 341d 89bc 3aef 2fbd fdfb 18bc
00000040: 9d9a 8439 14b2 e53b b9b8 f93c 586d 75bb
00000050: e0e9 bdbd be42 eabd 10db 223d 9728 a03d
00000060: 120c 94bd ec2a 5a3d 8085 473d d90a 583d
00000070: 7aa2 12bd c2d0 debc d4a0 cfbd 08f2 e5bd
00000080: 2be4 b1bd 1b52 d2bd d5e5 a0bd cc80 b03c
00000090: e5f6 023d a6cc c5bd 61c2 ce3d a9f2 503d
000000a0: a3e1 0cbc 62d2 67bd f42c ebbd 804d 7cbc
000000b0: 20c9 97bd 10c1 4e3d 36e7 c2bd 2dfb cfbd
000000c0: 8b44 a33d 592d b93d 981d 1cbd 7895 ba3d
000000d0: 2704 183d 5e02 5f3d bcc4 153d 072d 6f3a
000000e0: 622b c0bd 88c7 c33d 1261 383d e398 84bd
000000f0: dc53 8c3d a236 54bd b1c6 eabd 3ac1 d3bc
00000100: ad55 bbbd f5e4 babd 5487 87bd 4cd1 2fbd
00000110: 4562 7b3d c17d 883d a4b7 1ebd 9344 653c
00000120: bc64 d2bb b9ca cabb 4c86 f0bc 79db 803d
00000130: d496 8c3d 9dee 683d 13cb bb3d eb39 4c3c
00000140: f429 f8ba db95 f9bb a5f3 b73c 7a99 ae3d
00000150: 0cda bc3d 4d7c b5bd cec4 e3bc 6d6a adbd
00000160: 2174 8e3d 47b5 a5bd aa28 85bd 88fe 943d
00000170: 5d3a 4b3d fdde afbd 7571 c3bd 74b7 d3bd
00000180: 4c28 2a3d f143 90bd 8e61 c5bc a09f 61bd
00000190: b5f6 a7bd a1cd d8bc 7fc9 f7bd c1df 633c
000001a0: 645b c5bc 31cc e4bd 464c a6bd e2aa 28bd
000001b0: 4604 88bd 4ecc bb3c d751 4ebd 9e7e 0c3c
000001c0: 079d b23c bb6d 423d 4379 6fbb c4e6 1e3d
000001d0: c894 a53d 44de 723d daee 2abc 53f3 8fbd
000001e0: b50f 0bbd f8d2 8e3d a207 753d d87e d43d
000001f0: d9f2 aabd 5f9d 71bd 3ae9 2cbd da17 22bd
00000200: fb62 9a3d 1953 4dbd 2417 2f3d 3e88 b13d
00000210: 3509 443d 69af 0fbc 2001 9abd f2f4 c4bd
00000220: 68ad ba3d dfa6 3bbd eda5 cfbd 417e 873d
00000230: 8ddf dabd b399 c23c 17d8 3dbd 1a4c 61bb
00000240: 3a0c aebd 63fa ebbd 6ab2 b13d fd0f ccbd
00000250: 9b39 89bd f140 b6bd 5bee 90bd ba18 a5bd
00000260: 1adb b13d e32d cf3d e2cc 61bc ef55 bcbd
00000270: cd06 eebd 350a 0abd 0a0f babc 825c 2b3d
00000280: 3ca6 9bbd 27f3 f0bd fe6b 863d 287e 713d
00000290: 853e 80bd 7f23 c3bd e578 663d b1c1 fe3b
000002a0: 6233 b9bd 73f5 263d a6be 12ba 911e 9cbd
000002b0: 9748 22bd 981f 9bbc 9f19 853d 775e d8bd
000002c0: 4f8b a63c 2486 24bd c063 cebd 358f e33d
000002d0: 6312 e03d 7769 f83d 93c5 713c 8595 023e
000002e0: a3fb 873d 2719 44bd c8ba 74bd bda2 9b3c
000002f0: 5f42 debd ea89 8abc 59f4 58bd 6762 a83d
00000300: a3f2 883d 3cb5 803d 3506 4ebc 8fdb b83d
00000310: e70b 993d bd71 b0bb 8836 81bd 9cd5 b6bd
00000320: 3600 ae3c 9b74 053d 062f 0d3d d012 6f3d
00000330: 4245 ee3d 4e2c 063d fab3 6ebd 4217 823c
00000340: 5d12 81bc 7dc3 3a3d ae0b f13c 15cd 0cbd
00000350: c587 733d 8346 bd3d 5c01 a53d 5863 b3bd
00000360: 9679 d83d 9e89 45bd 7635 983d 94d6 c73d
00000370: 1554 b03c 16d3 7bbd 880f c53d 2efc 0cbd
00000380: 6d3a db3c f24c ac3d 074f ff3d f0cb 193d
00000390: c68b 58bd 64fa c23d b47d b6bd 58be de3d
000003a0: b1ec f73c 4097 b13d bbb4 bd3d 0881 083c
000003b0: d0ef 3abb 3b6a 87bc cc42 8e3d 08a7 403d
000003c0: c2e8 43bd e65f 693c 61a1 62bd c56e 1e3d
000003d0: 5d44 84bd 684e c4bd 55ec 7f3b e1f4 c63d
000003e0: 53c6 a23d a5bb 91bb de77 79bc 6558 dd3d
000003f0: c5f5 f3bd 5d2e 5ebc c94b bf3d 7ead dbbd
-0.101051934 -0.031977348 -0.034111533 0.104593635 -0.008395681 0.049131002 -0.028682534 -0.010237463
0.014448587 -0.0646174 -0.06493131 -0.040010575 -0.06169003 -0.016737558 -0.042952754 -0.009337422
0.00025292198 0.007009754 0.03048359 -0.0037449207 -0.09273124 -0.11438511 0.039759696 0.07820242
-0.07228865 0.05326359 0.0487113 0.05274472 -0.03579948 -0.027199153 -0.101380974 -0.112278044
-0.08686098 -0.102695666 -0.07856337 0.02154579 0.03197374 -0.09658174 0.100956686 0.05101267
-0.008598718 -0.05659712 -0.114831835 -0.015399337 -0.074114084 0.050477087 -0.09516756 -0.1015533
0.07972058 0.090418525 -0.03811416 0.0911054 0.037113335 0.054445617 0.036564574 0.0009123836
-0.093832746 0.09559542 0.04501445 -0.06474473 0.068519324 -0.051809914 -0.11463679 -0.025848974
-0.09147201 -0.09125701 -0.06617609 -0.04292421 0.061373014 0.06664611 -0.038749352 0.0139934
-0.0064207 -0.006188717 -0.029360913 0.06291861 0.06864706 0.056868184 0.09169593 0.012464981
-0.0018933401 -0.007616741 0.022455046 0.08525367 0.09221277 -0.08861599 -0.027803805 -0.08467565
0.069557436 -0.080912165 -0.06501897 0.072751105 0.049616206 -0.085874535 -0.095431246 -0.10337725
0.041542336 -0.07044209 -0.02409437 -0.05508387 -0.082013525 -0.026465239 -0.12098979 0.013908328
-0.02409143 -0.11171759 -0.08120017 -0.04117859 -0.0664144 0.022924569 -0.050371017 0.00857511
0.021803392 0.04746793 -0.0036540783 0.038794294 0.080850184 0.059294 -0.010432923 -0.07028832
-0.033950526 0.06973833 0.059821732 0.10375756 -0.08347101 -0.05898797 -0.04221461 -0.039573528
0.0753841 -0.050128076 0.042746678 0.08668564 0.047860343 -0.008769848 -0.07519746 -0.09617032
0.09115106 -0.045813438 -0.1013907 0.06615878 -0.1068717 0.02375493 -0.046348657 -0.0034377635
-0.08498426 -0.11522367 0.08676608 -0.09963987 -0.067004405 -0.08899105 -0.07076713 -0.08061357
0.086843684 0.10116174 -0.013781758 -0.09196078 -0.11622391 -0.03370114 -0.02271225 0.04183627
-0.07600066 -0.11765128 0.065635666 0.058958203 -0.06261925 -0.09528255 0.056267638 0.0077745547
-0.090430036 0.040761422 -0.0005597867 -0.076230176 -0.03962001 -0.018935964 0.064990275 -0.10564893
0.0203301 -0.04016699 -0.100776196 0.11111299 0.10941007 0.12129491 0.014756578 0.1275235
0.06639793 -0.04787555 -0.05974844 0.018998498 -0.10852503 -0.016911466 -0.052967403 0.08221894
0.06686904 0.06284568 -0.012574722 0.090262525 0.07472973 -0.0053846524 -0.06309229 -0.089274615
0.021240335 0.032581907 0.034468673 0.05836755 0.11634304 0.032757096 -0.058277108 0.01588023
-0.015755827 0.04559659 0.029424515 -0.03437527 0.05945565 0.09241965 0.080569 -0.08759183
0.10570066 -0.048226945 0.07432072 0.097577244 0.021524468 -0.061480604 0.09622103 -0.034420185
0.026761258 0.08413114 0.12466245 0.037548006 -0.052867673 0.095204145 -0.08910695 0.10876149
0.03026423 0.08671427 0.09262987 0.008331545 -0.0028524287 -0.016530147 0.06946334 0.047034293
-0.047829397 0.014244055 -0.055329684 0.038679857 -0.06458352 -0.09585267 0.0039050777 0.09714676
0.079479836 -0.004447418 -0.0152263325 0.108078755 -0.11912111 -0.013560859 0.09340627 -0.107264504

bottleneck.fc.bias f4 [16]
00000000: 7cb6 0f3d 7b28 bebc d342 cbbd 0833 753d
00000010: 2481 11bb c030 a73c 220d 4539 8b93 91ba
00000020: 60ef 09bc 1685 abbb 5730 d33b 1c50 b83d
00000030: 3588 4bbd b670 923d 305c 943d 733c e73c
0.03508614 -0.023212662 -0.09924855 0.05986312 -0.0022202218 0.020408988 0.00018792276 -0.0011106593
-0.008418888 -0.005234371 0.0064449715 0.08999655 -0.049690444 0.07150404 0.07244146 0.028227067

decoder.fc3.weight f4 [84, 16]
00000000: b829 913d 80a1 90bd f874 7ebe 801c 783c
00000010: 9ceb bbbd 085f 4fbd 2e5d 5a3e 02e7 2cbe
00000020: 00d6 a33a 6220 403e 200e d6bd d863 2abe
00000030: 5e14 223e 98de acbd 8e12 53be 007e 18bd
00000040: 4c5c c9bd 0025 09bd 64f1 5f3d 4023 6e3e
00000050: 74e0 d03d 6f2f 51be 8082 12be 769c f1bd
00000060: e945 4c3e 1488 b03d 9673 5d3e 96b3 5d3d
00000070: 48e0 c2bd c9d5 303e e6dc 14be 2a3b 3d3d
00000080: a68f 8f3d edd3 44bd bf29 48be 18b2 26be
00000090: 2094 4cbc 7eda 123e 50be fc3b bb90 133d
000000a0: 0c94 193d 0384 7abd 0c8b 3ebe 6a84 0c3e
000000b0: 1803 36be c93b 453e 22c1 3a3e eba1 46bb
000000c0: cf11 b83b 18f3 cfbd eeaf a73c 2f1c 453c
000000d0: 5a65 363e f734 8f3d 1a3a de3c 2f53 57be
000000e0: 6690 41be 63bc dbbd 76cd 15be 8379 6a3e
000000f0: 2cc8 b33d e473 72bd f259 bebd 3387 823e
00000100: 7846 7a3d bccc 2b3e 006c 853e 463f 07be
00000110: 762b 6cbe 9373 903e 8043 aebc abb7 283e
00000120: 3d56 48be 80e4 443b a8f2 35bd 6909 363d
00000130: acc8 87bd 0d7c 34be aa38 113e 972c cabd
00000140: 5ad7 363e 4064 323c d581 4bbe a19b 73be
00000150: c0df 5e3d 0127 eabd 109c d73c 6b6b f63d
00000160: af09 183e 4890 a5bd e423 843d 6603 913d
00000170: 0416 01be 216e 213e fc79 2abe 2286 1b3e
00000180: 35e2 ac3d bba4 57be 521f 19be d3f0 7b3e
00000190: 406d 1dbe 05e2 69be e424 873d 009d d23d
000001a0: 6fe1 1d3d 970b 04be d03a 393d 8200 7a3d
000001b0: 66e6 4abe 7876 f6bc f354 273d 30bd 8b3d
000001c0: 2484 11be 0208 943d ad90 06bd b444 603e
000001d0: 8061 a63b 4bcd 1fbe 9bdd 03be a310 12bd
000001e0: 2c6a 733b e204 0dbd e500 f0bd 1589 9e3b
000001f0: a06d 493c 3574 bf3d 5038 173d 7292 1cbe
00000200: 15b4 223e c216 573e 583a 1fbe 0ee4 053e
00000210: 98e4 84bd 5168 94be 1a38 f23d 58df 033e
00000220: 641c a53d 2d06 d5bc cbf5 3b3b 4b47 b1bb
00000230: 21a9 26be aa34 223e 9f9a b23d 7304 2f3d
00000240: 9881 68be e564 9bbd b3e5 f83c a062 1f3d
00000250: d209 6dbe 8737 18bd 44b8 d83d d208 743e
00000260: f5cd 783e e0bb bb3c 9496 763e daa9 a13c
00000270: 08b9 16bd b0f9 503e 14b4 383e cd95 d9bc
00000280: 6197 933d 3468 5b3e 4ee8 52be a889 44be
00000290: e257 42be 9cb1 fa3d 9f87 7c3d 07a7 67bd
000002a0: 80b0 fd3c 5fbd a53d 6e44 9abd 9e58 463e
000002b0: a59a e7bd 1591 87be 1bc0 18bd 3792 3fbe
000002c0: 55ea 553e 4f46 0ebe 0e2a 463e 64f0 303e
000002d0: 44c6 ae3d 029e ec3d bed4 8abd cc07 993b
000002e0: 7523 68be 8548 7abe 308d 413e b12a 323e
000002f0: 41d7 1f3c a843 323d 0c47 3dbe 99a5 41be
00000300: 4bcf 5bbe 76ae 473e 3f05 7f3e bb07 49be
00000310: 883c b1bd d53e 1b3e 42af d33d eca3 b73c
00000320: f4d6 413e 7a6b 66be aa15 103e dd02 34be
00000330: 758c e7bd fdcc 58bc 5996 123e fd1a 753e
00000340: e655 693e 341e dbbd 3d0f 323e b97b 94be
00000350: 5629 2abe cb4b 0e3e 786e 793e 6dfe 213c
00000360: b165 013e 52e3 703e fa37 48be a3a0 dc3d
00000370: 00a6 a5bd cd7b 793e dca5 d83d 9df0 463e
00000380: 2c26 dfbc b8cb 5cbe 348d 413c 71ee 93bd
00000390: e052 92bc a57b 48be a0eb 2abe 7311 063e
000003a0: fee7 053e 206e dabc fcc8 333e 9b42 5d3e
000003b0: cccd f3bd 45ef 3e3d dc8b 6f3e bbd1 d8bd
000003c0: 4723 e13d 8bd1 1dbe e0af 963d d016 883c
000003d0: 70b7 4b3d 071c 803e d24e 4a3e 5c69 053e
000003e0: 724f 96bd 9252 57be fbc2 6dbd 7b70 b33d
000003f0: ce95 283e 4ea7 37be bf65 0abd 4a83 abbd
0.07088035 -0.07062054 -0.24849308 0.015143514 -0.09175798 -0.05062774 0.21324608 -0.16884997
0.001249969 0.18762353 -0.10451913 -0.1663965 0.15828082 -0.08440894 -0.20612547 -0.037229538
-0.09832057 -0.03348255 0.054673567 0.23255634 0.10199061 -0.2042825 -0.14307594 -0.11797421
0.19948544 0.08619705 0.21626124 0.054126345 -0.095154345 0.17269053 -0.14537391 0.046199
0.07009821 -0.04805367 -0.19547175 -0.16278875 -0.012486488 0.1434116 0.0077131167 0.036026698
0.037494704 -0.061161052 -0.1860773 0.13722387 -0.17774618 0.19261087 0.18237737 -0.0030308913
0.0056173573 -0.10153788 0.020469632 0.012030645 0.178121 0.06992524 0.027127314 -0.21027826
-0.1890274 -0.10729291 -0.14629158 0.22897916 0.08778414 -0.059192553 -0.092944995 0.25493774
0.06110236 0.16777319 0.2605896 -0.1320773 -0.23063454 0.28213176 -0.02127242 0.16476314
-0.19564147 0.0030043423 -0.04442087 0.044442568 -0.06630072 -0.17625447 0.14181772 -0.09871786
0.17855588 0.010888159 -0.19873746 -0.23789836 0.054412603 -0.11433221 0.026319534 0.12032207
0.14847444 -0.0808416 0.06452158 0.07080726 -0.12606055 0.15764667 -0.16648096 0.15187886
0.08441583 -0.21058933 -0.14953354 0.24603586 -0.15373707 -0.22840126 0.06598833 0.102838516
0.03854507 -0.12895046 0.045222104 0.06103564 -0.19814453 -0.030085787 0.0408525 0.06823194
-0.14210564 0.0722809 -0.032852817 0.21901208 0.005077541 -0.15605657 -0.12877505 -0.035660397
0.003714214 -0.034428485 -0.117189206 0.004838119 0.012294203 0.093483366 0.03691894 -0.1529024
0.15889008 0.21004775 -0.155496 0.13075277 -0.06488913 -0.28985837 0.11827107 0.12878168
0.08062056 -0.026003921 0.002868044 -0.00541011 -0.16275455 0.15840402 0.08720898 0.042728852
-0.22705686 -0.075876035 0.030382967 0.038912416 -0.23148277 -0.03716233 0.10582021 0.2383149
0.24297316 0.022916734 0.24080878 0.019734312 -0.036797553 0.20407748 0.18037444 -0.026560688
0.072066076 0.21426469 -0.2059643 -0.19193137 -0.18978837 0.122409075 0.061652776 -0.056555774
0.03096795 0.0809276 -0.07532583 0.19369742 -0.11308793 -0.26477876 -0.03729258 -0.1870812
0.20890172 -0.13894008 0.1935198 0.17279202 0.0853391 0.11553575 -0.067788586 0.004670119
-0.22669776 -0.24441727 0.18901515 0.17399098 0.00975591 0.043521553 -0.18484133 -0.18910827
-0.21465795 0.19500145 0.24904345 -0.19631855 -0.086541235 0.15160687 0.10336162 0.022417031
0.18929654 -0.22501937 0.14070764 -0.17579217 -0.11306087 -0.013232467 0.14315166 0.23936076
0.22786674 -0.1069912 0.17388625 -0.29000643 -0.16617331 0.138961 0.24358547 0.00988732
0.12636448 0.23524216 -0.19552603 0.107728265 -0.080883026 0.24363633 0.1057851 0.19427724
-0.027239881 -0.21562088 0.011813451 -0.072232135 -0.017861784 -0.19578417 -0.16691446 0.13092594
0.13076779 -0.02666384 0.17557138 0.21607439 -0.11904487 0.046614904 0.23393196 -0.10586878
0.10993057 -0.15411966 0.07357764 0.01661244 0.049735487 0.25021383 0.1975663 0.13028473
-0.07339372 -0.21027592 -0.058047276 0.08761688 0.16463396 -0.17934915 -0.03378844 -0.08374651

decoder.fc3.bias f4 [84]
00000000: d4c3 ecbd fc61 9bbe 828d ea3c 59d3 4e3e
00000010: 84cd 37be 90a0 3dbe 5ffd 2b3d 3d7c c43c
00000020: 8627 413e a731 2abe 9e6b 053e dd99 2dbc
00000030: 6f8a 623e 5897 9abe 4086 1a3e a0d6 7d3e
00000040: 108a 953c 37c3 883e 2ae2 5bbe 5ad9 6d3e
00000050: e4c8 353a 542e c33d 99c1 9dbd e64c 02be
00000060: f1b2 b1bd 6f39 443d e002 a63d 8a44 38be
00000070: 8b84 213e 0c6f 043d 92c0 d2bd a81c 683e
00000080: 5f94 d33d c1cd e73c 592f ef3d 640d d3bd
00000090: 9a73 523e 9f0c e03d c99e 4b3d ad8d 563e
000000a0: 1d4e 883e d710 813e e6af 263e b728 683b
000000b0: e977 72be bf94 4cbd ab08 443e e938 2e3e
000000c0: 28f6 123e 5baa 9ebc c90f 913d 67f3 fe3d
000000d0: cd08 31be 4e78 03be b303 e7bd 687f 89bd
000000e0: e203 e2bd 99a2 f93d 1513 51be bae3 fc3d
000000f0: 94d1 d0bd b248 6f3e 6862 bf3c 81a3 5b3b
00000100: a715 27be c826 75be e6ed 63be 294d 9e3b
00000110: dc09 08be 5b84 853b f51c 7b3e 1752 11be
00000120: ecf7 8f3d afa6 753e db57 4b3d 0d2b a03d
00000130: 62a0 293e 781c 913d a38d 6dbe 481f 62be
00000140: 4c5d 843d f1cc 103d 4089 c53d 15bf 29bd
-0.11560789 -0.30348194 0.02863193 0.2019781 -0.17949492 -0.18518281 0.04198968 0.023985023
0.18862733 -0.16620503 0.13029334 -0.010595766 0.2212312 -0.3019359 0.15090275 0.24788904
0.01825431 0.26711437 -0.21472993 0.23227444 0.0006934537 0.09530321 -0.077029414 -0.12724647
-0.086767085 0.047906335 0.08106017 -0.17994896 0.15773217 0.032332465 -0.10290636 0.22667181
0.10331034 0.028296353 0.11678953 -0.103052884 0.20551911 0.10939907 0.049711976 0.20952483
0.26622096 0.2520816 0.16278037 0.0035424659 -0.23678555 -0.049946543 0.19143932 0.17013897
0.14351714 -0.019368341 0.07083089 0.12448769 -0.17288513 -0.12838861 -0.112800024 -0.06713754
-0.11035897 0.12189216 -0.20417435 0.12348123 -0.10196224 0.23367575 0.023362353 0.0033514204
-0.16316853 -0.23940575 -0.2225872 0.0048309756 -0.13285011 0.004074616 0.24522765 -0.14191471
0.07029709 0.23989366 0.049644332 0.07820711 0.16565087 0.07085508 -0.23198561 -0.22082245
0.064631075 0.035351697 0.09645319 -0.041441996

decoder.fc2.weight f4 [120, 84]
00000000: 54ae 9f3d f240 313c 655d 5e3d 276e 3abc
00000010: 72e5 9dbd 573c 153c 9b4e fcbc 4d69 06bd
00000020: c9ba 9f3d 2a3f d5bd 6aaa e5bd 6fef 683d
00000030: 7c88 0fbd a0f5 ecbc 94b7 b1bc 96ac 1ebc
00000040: 30a8 e3bd 7adc a5b7 f286 a8bd 072d 1fbe
00000050: 21ab 91bd ff0a fb3c 3b15 ccbc 9a7b c83d
00000060: 8528 4e3c 4d2f 503d 3125 90bc 352f 9fbc
00000070: 4761 783b 9adc 37bd 5401 4f3d 5a48 8b3a
00000080: 0537 04be 7bfd 90bc f8c3 abbd a3f4 1d3d
00000090: 228b c3bd a3de 833c 3f60 f7bd 495d b83c
000000a0: 93a0 9abc d151 da3c cb50 2cbd 0697 483c
000000b0: f630 8e3c 734e 9bbd e97e 2d3d d522 9e3c
000000c0: ce1d 8a3d 3cba a73d 98fb 573d 207d c0bd
000000d0: 89f7 b4bd 7a1b 8c3b 836a 57bd a665 853d
000000e0: 2f1c 42bd 0c27 abbd 3ba2 34bd 7327 76bd
000000f0: 6781 873d 1a78 44bd 3be2 edbc d626 88bc
00000100: d1d4 9fbd 9dba ab3b b0fb 0d3d b13d 433b
00000110: 5c1b 55bd 4906 703d 12cb aa3d 49cd 9e3d
00000120: 77c0 d9bd da12 adbd f76f 8dbd 10a2 ab3c
00000130: d075 15bd 8dc2 c5bb 5044 9abd 9c27 b13d
00000140: fc54 87bb 924f a4bd 72d9 f73c 4ad7 433d
00000150: 56d9 c23b e537 f1bd 1b98 cb3d 3a76 cebd
00000160: 25b2 afbc f153 ad3c 66b0 6fbd 6b3f 413d
00000170: 47f3 d53d 44e3 83bd 5d35 563d 2aff 283d
00000180: ab31 91bd 9a7e 60bc 2b33 e0bd ce72 af3d
00000190: c1f3 b6bd 0a3f c9bd 8a47 e53c 4199 7b3d
000001a0: a083 b7bd 60f4 3d3d cad3 46bd 3efe 653c
000001b0: b833 2c3d 709c 9d3c 9d9a 4f3d c069 14bd
000001c0: 1771 d0bd 770b dcbd c9f3 a43d a8e4 44bd
000001d0: 4c46 0bbd 773f c23d 0a8a b8bc c4ad b23d
000001e0: f5ed 443c db66 f53c 5984 83bc 3125 45bd
000001f0: e34a 843d b5e8 2cbd 17b7 783b 72a1 6d3c
00000200: 13d0 3e3c edef 9bbd 6a9c 80bc 26e9 a5bd
00000210: 5767 bb3d f5b1 203d 6a04 993d 3d48 963d
00000220: bc48 073d 879f a23d bbb4 4ebd c725 1dbb
00000230: 1612 33bd 014e a1bc d330 df3d e9bc 7c3d
00000240: 9828 5c3d 0be7 d33d a1bf c9bd 3dc7 5dbd
00000250: bf53 01bd 9bf8 a83d c18a f5bd 1efd cbbc
00000260: 3711 5d3d c098 c5bc 8541 b33c 10cd b1bd
00000270: 3855 e3bd ad08 da3d 004a 7ebd 4c29 cfbc
00000280: 4a4a 2a3d 9509 c33b f4c6 99bd c87e f3bd
00000290: 6c41 253d a6a8 433d 438f 7cbc fae7 073d
000002a0: f4b1 4abd 18da c23c 9d8c afbd 97e1 27bd
000002b0: 94af b53a 4935 27be e2e4 c93d 7f2d f13d
000002c0: 1cdd 193d 5df6 1e3c 27be f33d 1612 b53c
000002d0: 6179 a03c 1f30 d4bd f7d5 923d fcbb aa3d
000002e0: c778 663c a546 a8bd 512a 8d3a ef31 e23d
000002f0: d73e 82bd f5c4 5c3d bb8a a4bb a872 1e3d
00000300: 19fc 513c 3e7f 3cbb 6510 fd3d 59a7 dc3d
00000310: f0dd bb3d 910f 983c 0ccd f63b 915e 073d
00000320: 6f72 873d 2847 ccbd c199 82bd 8488 a83c
00000330: 95cd 0b3e ffb5 d33d 6523 10bd 3f1d c83d
00000340: 25fc 133e 169e ac3d b757 0dbd 1560 97bd
00000350: c319 0fbb 949b 523d 9801 b03c 2e2c 943d
00000360: 9037 a83d 7a3f a93d 1430 4e3b db65 3e3e
00000370: 63a4 6abd 64c2 a53d a191 e43d db48 2abd
00000380: a932 20bd cfe1 0abc 0939 1abe 1de1 d13c
00000390: aabe 8dbc bb61 36bd 7868 db3d 1e94 be3d
000003a0: deb4 e63d 32be b83d aedc 84bd a67d 103b
000003b0: 6d30 95bc 820b 74bc f352 00be abff f93d
000003c0: 069e b5bd 2da0 df3c fe25 ed3d 1c73 9a3c
000003d0: 5826 2f3d c9fb adbd a48e bdbc 8117 633d
000003e0: 1449 c33c c939 48be c165 523a e429 1d3c
000003f0: d0d2 823d d4b3 bcbd 7513 94bd 150e 583d
0.07796922 0.010818707 0.054288287 -0.011378801 -0.07709779 0.009108624 -0.0307992 -0.032815266
0.07799298 -0.10412438 -0.112141445 0.056868967 -0.03504227 -0.028925717 -0.021693982 -0.009684702
-0.111160636 -1.97722e-05 -0.08228864 -0.1554452 -0.071127184 0.030644892 -0.024912467 0.097892
0.012582903 0.05082636 -0.01759586 -0.01943169 0.0037899779 -0.044888116 0.050538376 0.0010626421
-0.12911613 -0.017698994 -0.083869874 0.038563382 -0.09548022 0.016097372 -0.12078904 0.02250542
-0.018875396 0.026650341 -0.042069238 0.012243038 0.01735733 -0.075833224 0.04235736 0.019303719
0.06743966 0.08189818 0.052730173 -0.09398866 -0.08836276 0.0042757364 -0.052591812 0.065135285
-0.04739016 -0.08357057 -0.044100028 -0.060096215 0.066164784 -0.0479661 -0.02903854 -0.01662008
-0.078042634 0.005240752 0.034663856 0.002979141 -0.052028045 0.058599744 0.08339514 0.07753999
-0.10632413 -0.08450861 -0.06906121 0.0209513 -0.036489308 -0.006035155 -0.07532561 0.08650133
-0.004130004 -0.08022989 0.030255053 0.047812738 0.0059463186 -0.11778239 0.09941121 -0.10081144
-0.02144725 0.02115819 -0.058517836 0.04717962 0.10446792 -0.06439832 0.052296985 0.04125897
-0.070895515 -0.013702059 -0.109472595 0.08566819 -0.08933211 -0.09826477 0.027988214 0.06142545
-0.08960652 0.046375632 -0.04854182 0.014037667 0.04204151 0.019239634 0.05068456 -0.036233664
-0.1017782 -0.10744374 0.08054311 -0.048069626 -0.034002587 0.09484761 -0.02252676 0.087245494
0.012019624 0.029956272 -0.01605432 -0.04813117 0.06459596 -0.042214114 0.0037950927 0.014503824
0.011646288 -0.076141216 -0.015699584 -0.0810111 0.0915057 0.039232213 0.07471545 0.07337997
0.03302835 0.07940584 -0.050465327 -0.0023978816 -0.04371842 -0.019690515 0.10897984 0.061703596
0.05374965 0.10346802 -0.098510034 -0.054145087 -0.031574007 0.08250543 -0.11989356 -0.02490097
0.053971495 -0.024120688 0.021881828 -0.08681691 -0.111002386 0.10646186 -0.06208229 -0.025288247
0.041574754 0.00595207 -0.075086504 -0.11889416 0.040345594 0.047768258 -0.015415016 0.033180214
-0.049486116 0.023785636 -0.08571742 -0.040986624 0.001386153 -0.1632892 0.09858109 0.11776256
0.037564382 0.009702292 0.11901503 0.02210335 0.019589128 -0.10360741 0.07169717 0.083366364
0.0140668815 -0.082165994 0.0010770058 0.1104468 -0.06359642 0.05389877 -0.005021421 0.038683563
0.012816452 -0.0028762366 0.12356643 0.107741065 0.091731906 0.01856211 0.0075317677 0.03304917
0.06613623 -0.099745095 -0.063769825 0.020572908 0.13652642 0.103374474 -0.035190005 0.09771203
0.14451654 0.0842859 -0.03450748 -0.07391373 -0.0021835424 0.051417902 0.021485135 0.07234989
0.08213723 0.0826406 0.0031461762 0.18593542 -0.057285678 0.08093718 0.11160589 -0.041573387
-0.039110813 -0.0084766885 -0.1506082 0.025620038 -0.01730283 -0.044526797 0.10713285 0.09305595
0.112649664 0.09020652 -0.06487404 0.0022047549 -0.018211568 -0.014895322 -0.12531643 0.12206968
-0.08868031 0.027298057 0.11579512 0.018853717 0.042761177 -0.0849529 -0.023139305 0.055442337
0.023838557 -0.19553293 0.0008026027 0.009592507 0.063878655 -0.09213987 -0.07230274 0.052747805
