tutorials/W1D2_ComparingTasks/RR/models/ConvNet_regression_1000_epoch_1.pth (torch, 248008 bytes, 9 tensors)

ConvNet.conv1.weight f4 [6, 1, 5, 5]
0.123833045 0.115188554 0.014997381 0.14748275 -0.06370979 0.03116101 0.18018554 0.16344056
-0.13880976 -0.037096307 0.10748187 -0.06935091 0.004550783 -0.10575689 -0.114412 0.042318854
-0.087288745 -0.058614884 0.019099757 0.1408562 -0.08761311 0.069353305 0.11560728 -0.15559423
0.16354735 -0.17443588 0.027141714 -0.12058026 0.16844471 0.13520242 -0.040417533 -0.080899924
-0.19367035 0.068562426 0.023087563 -0.20414074 0.07662328 0.14505765 -0.08563344 -0.06610015
0.051485036 0.11237434 -0.055357818 -0.14250927 0.13004188 -0.011992922 0.07549246 0.017297845
0.06477337 -0.15674353 -0.18104257 -0.09226343 0.01610092 0.0242233 0.023858925 0.15176313
-0.10550166 -0.035791468 0.101990454 -0.03521938 0.074531235 -0.018209577 0.08607295 0.05851487
0.06366384 0.04652024 -0.050865132 -0.07114435 -0.20155859 0.14173529 -0.046946276 -0.031415906
-0.17781213 -0.05754829 0.14527257 0.09401575 -0.12475881 0.120261416 0.18891478 -0.08713739
-0.16677669 0.114962265 0.032462906 0.058543194 -0.044191208 0.07127113 0.13556874 -0.17931814
-0.19882017 0.05981898 -0.18828034 -0.017598271 0.16372383 -0.15795314 -0.038738225 -0.059582192
0.18790732 0.13785249 -0.06354201 -0.12998764 0.07435237 0.016263619 -0.08235167 0.12620965
0.12572584 -0.045129593 0.075487606 0.14160939 0.09888065 -0.076278985 -0.11299547 0.09271413
-0.056392126 0.08078205 -0.120529845 -0.19468017 -0.14900021 -0.20592226 -0.117054544 0.035310715
0.0836766 0.18139705 -0.16209622 0.058373235 0.06314613 -0.18278825 -0.039231937 -0.041617166
-0.105231725 0.15307719 -0.15860821 -0.058951724 -0.14092134 0.022521349 -0.19608258 -0.13943984
0.06372555 0.19262888 0.14270872 0.080026194 -0.059741315 -0.13119934 -0.19270405 -0.16002311
0.0026415037 -0.006467683 0.018389976 0.1647846 -0.12552185 -0.17921346
00000000: 2e9c fd3d fae7 eb3d 93b7 753c b805 173e
00000010: 477a 82bd 6045 ff3c 8f82 383e f65c 273e
00000020: 2524 0ebe 4cf2 17bd 741f dc3d da07 8ebd
00000030: bc1e 953b 1197 d8bd d750 eabd 8956 2d3d
00000040: 71c4 b2bd 2916 70bd 1877 9c3c 9c3c 103e
00000050: 816e b3bd 1b09 8e3d 82c3 ec3d 1854 1fbe
00000060: f578 273e 529f 32be 4d58 de3c c9f2 f6bd
00000070: c57c 2c3e 8172 0a3e db8c 25bd dcae a5bd
00000080: 8551 46be 756a 8c3d 2122 bd3c 450a 51be
00000090: abec 9c3d fe89 143e 9660 afbd 845f 87bd
000000a0: f9e1 523d 8524 e63d e1be 62bd f3ed 11be
000000b0: b329 053e f67d 44bc ca9b 9a3d 36b4 8d3c
000000c0: e7a7 843d 6081 20be 3963 39be 9cf4 bcbd
000000d0: 14e6 833c f16f c63c cb73 c33c cb67 1b3e
000000e0: 4111 d8bd 139a 12bd 5fe0 d03d 3242 10bd
000000f0: d5a3 983d 402c 95bc 0447 b03d 4aad 6f3d
00000100: 3062 823d 028c 3e3d f557 50bd 21b4 91bd
00000110: 6065 4ebe 0e23 113e bd4a 40bd f7ad 00bd
00000120: 6214 36be c1b7 6bbd 55c2 143e 548b c03d
00000130: 8c81 ffbd 9e4b f63d e072 413e 1775 b2bd
00000140: 82c7 2abe 5671 eb3d d3f7 043d fdca 6f3d
00000150: d701 35bd 99f6 913d 88d2 0a3e 2d9f 37be
00000160: 8497 4bbe bf04 753d 90cc 40be 402a 90bc
00000170: 38a7 273e 78be 21be f9ab 1ebd 750c 74bd
00000180: c76a 403e 3429 0d3e 5022 82bd 7b1b 05be
00000190: 0e46 983d 483b 853c fea7 a8bd 1a3d 013e
000001a0: 46be 003e cfd9 38bd 3f99 9a3d 0d02 113e
000001b0: f081 ca3d 2838 9cbd 2b6a e7bd e8e0 bd3d
000001c0: 6efb 66bd 0f71 a53d 5ad8 f6bd 3d5a 47be
000001d0: 8393 18be 49dd 52be 4bba efbd f8a1 103d
000001e0: a35e ab3d 26c0 393e 8dfc 25be c618 6f3d
000001f0: c252 813d d82c 3bbe abb1 20bd c376 2abd
00000200: bb83 d7bd 44c0 1c3e 316a 22be 5d77 71bd
00000210: af4d 10be b17e b83c dfc9 48be 51c9 0ebe
00000220: 8b82 823d 8140 453e 3c22 123e c6e4 a33d
00000230: 4fb3 74bd 1f59 06be 3654 45be 19dd 23be
00000240: 141d 2d3b dbee d3bb 93a6 963c 4bbd 283e
00000250: cd88 00be bc83 37be

ConvNet.conv1.bias f4 [6]
-0.0003670387 -0.17843215 -0.05264448 0.030827364 0.046203926 0.06584794
00000000: 1a6f c0b9 ebb6 36be bda1 57bd ab89 fc3c
00000010: 5440 3d3d 49db 863d

ConvNet.conv2.weight f4 [16, 6, 5, 5]
0.07483538 0.0046964926 -0.05433026 -0.07182945 -0.024299735 0.07705961 0.030781785 -0.078358315
-0.0808427 -0.02995415 0.021999843 0.05871071 -0.05395131 -0.08115966 -0.008828715 0.03696582
0.013791144 -0.0584794 0.03894413 0.03840517 0.025953162 0.042272106 -0.076448575 -0.0042976514
0.044215906 -0.07520784 0.043936893 -0.072972715 0.0124990735 -0.07441088 0.069608726 0.013993786
-0.082462326 -0.06584933 0.071139805 0.00063079194 -0.011287413 -0.05625267 -0.061881635 -0.011757362
-0.054600615 0.07509253 -0.014689889 -0.06312124 0.019980414 0.052685443 0.030253982 0.046275172
-0.036252797 0.015530682 -0.036829267 -0.050411772 0.023148876 0.0049566035 0.00023146013 0.027862964
0.06909976 0.047969975 -0.015099216 0.0169126 0.06879868 -0.05561331 -0.026437279 -0.0030558305
-0.04039875 0.014490157 0.029059187 0.07074206 -0.050279155 0.036667667 0.0065250895 -0.041605204
-0.0038149345 0.04024027 0.07181031 -0.05175795 -0.046218228 0.0067632413 -0.0024755206 -0.072717726
-0.04721936 0.002275415 0.058294836 0.07043598 -0.034448467 0.07152947 -0.014701018 0.05061218
-0.026270717 0.025540438 -0.01595006 0.0126132965 0.017219963 -0.054931775 -0.061747044 0.06461175
0.0682811 0.025235074 0.042828877 0.040640526 -0.033322036 0.06268328 -0.048789546 0.07788
0.06707533 -0.043295536 0.051987886 0.044536855 0.01865397 0.07106286 0.074429855 -0.01010082
0.05921943 0.046711553 -0.053953245 0.024033437 -0.00838326 0.028952297 -0.038198046 0.0646921
-0.07804015 0.0052045095 0.042383403 -0.04772564 -0.07364931 -0.067632295 -0.025594348 0.017878931
0.03438702 -0.056166254 0.006491115 -0.007733663 0.021159457 -0.050908882 -0.00056925876 -0.029381262
0.07369023 -0.0045132157 0.011689114 0.076928586 0.040168203 0.08042222 -0.004032991 0.062601306
0.031687137 -0.010882789 0.07018761 0.0137014855 0.03428361 -0.0427506 0.030294528 0.03142418
-0.049014073 -0.033911385 0.009312779 -0.05988787 -0.058124732 -0.004641557 -0.021087427 0.04215407
0.04325547 0.0008881913 0.03868891 -0.045179907 -0.08522548 -0.07694007 -0.011003306 -0.06797273
-0.03767652 -0.0027404563 -0.044669103 0.034796827 -0.02836846 0.08274666 -0.023250489 0.04898684
0.003888458 -0.08936975 -0.047869246 -0.05434565 -0.062245227 0.04358996 -0.07960623 0.028094858
-0.05861766 0.001380987 0.01457999 -0.07144004 -0.01145644 0.019266795 -0.04833768 -0.00748768
-0.06316429 -0.03904394 0.038647756 0.010695941 -0.048524495 0.08334715 -0.042317353 0.002344061
-0.012926836 -0.05476877 0.023727953 -0.070686065 0.06698175 0.058356866 0.06070138 -0.041996133
-0.012933775 0.010413036 -0.07805613 -0.03797962 0.03322479 -0.037214115 0.0013628651 0.049977157
-0.0018016611 -0.008906104 -0.002203798 -0.041873436 0.081848204 0.043014493 -0.05998758 -0.018901825
-0.073145 0.046206556 0.04898066 -0.0285601 -0.021293812 -0.07948727 -0.046978302 -0.04552413
0.0712062 -0.042230234 0.0024367804 -0.07474566 0.037346445 -0.0068739615 0.029998098 0.02328636
-0.051374067 0.051330477 -0.056545187 -0.011043341 0.064030856 -0.056399353 -0.031422798 0.08005307
-0.009309826 -0.018045662 -0.026904259 -0.0008787741 0.011461657 -0.037939765 0.046464376 -0.024922112
00000000: 4b43 993d 09e5 993b 6889 5ebd 521b 93bd
00000010: 3d10 c7bc 6ed1 9d3d 152a fc3c 537a a0bd
00000020: dc90 a5bd 6862 f5bc 0439 b43c a47a 703d
00000030: 0dfc 5cbd 0937 a6bd 51a6 10bc 7969 173d
00000040: 40f4 613c 1888 6fbd e183 1f3d bd4e 1d3d
00000050: ba9b d43c 8425 2d3d 1291 9cbd 50d3 8cbb
00000060: bd1b 353d 9106 9abd 2cf7 333d b872 95bd
00000070: eac8 4c3c bb64 98bd 058f 8e3d 3146 653c
00000080: 02e2 a8bd 03dc 86bd bfb1 913d bb5b 253a
00000090: d7ee 38bc 3369 66bd 9977 7dbd f3a1 40bc
000000a0: e5a4 5fbd 1dca 993d dcad 70bc b545 81bd
000000b0: f7ad a33c b1cc 573d 33d7 f73c 098b 3d3d
000000c0: d07d 14bd 6774 7e3c 49da 16bd 937c 4ebd
000000d0: b6a2 bd3c 016b a23b 1bb4 7239 df40 e43c
000000e0: 2d84 8d3d 2a7c 443d b462 77bc 4b8c 8a3c
000000f0: 53e6 8c3d c8ca 63bd fe92 d8bc 5444 48bb
00000100: 2979 25bd 2068 6d3c 880d ee3c 37e1 903d
00000110: 84f1 4dbd d630 163d 6bd0 d53b 386a 2abd
00000120: fb03 7abb fbd2 243d 4911 933d 2500 54bd
00000130: 534f 3dbd 2e9e dd3b 583c 22bb 08ed 94bd
00000140: 1669 41bd 211f 153b 91c6 6e3d bd40 903d
00000150: d619 0dbd 0b7e 923d 8adc 70bc b84e 4f3d
00000160: b035 d7bc 2e3a d13c b3a9 82bc 00a8 4e3c
00000170: e110 8d3c 2400 61bd 78ea 7cbd 2a53 843d
00000180: f6d6 8b3d c9b9 ce3c 556d 2f3d ae76 263d
00000190: b07c 08bd 1760 803d 8cd7 47bd 8d7f 9f3d
000001a0: ca5e 893d a956 31bd 40f1 543d 476c 363d
000001b0: 36d0 983c 6889 913d ae6e 983d e97d 25bc
000001c0: 1390 723d 9d54 3f3d 14fe 5cbd c5e1 c43c
000001d0: f159 09bc 5e2d ed3c 8e75 1cbd 4b7d 843d
000001e0: 84d3 9fbd 978a aa3b 389a 2d3d f67b 43bd
000001f0: 73d5 96bd cd82 8abd 3dab d1bc d676 923c
00000200: 67d9 0c3d 960e 66bd 6bb3 d43b ab6a fdbb
00000210: 9956 ad3c d585 50bd 4f3a 15ba f9b0 f0bc
00000220: e7ea 963d 99e3 93bb b383 3f3c bc8c 9d3d
00000230: 6a87 243d 68b4 a43d 2e27 84bb 1d35 803d
00000240: 5fca 013d ba4d 32bc 86be 8f3d 327c 603c
00000250: f86c 0c3d 411b 2fbd 3b2c f83c a4b6 003d
00000260: fbc2 48bd aae6 0abd a094 183c fc4c 75bd
00000270: 3314 6ebd 3418 98bb 8abf acbc bfa9 2c3d
00000280: a62c 313d 82d5 683a 4378 1e3d 910e 39bd
00000290: b28a aebd c192 9dbd 3647 34bc 4935 8bbd
000002a0: b252 1abd 3a99 33bb f3f6 36bd 1e87 0e3d
000002b0: f964 e8bc 1577 a93d cf77 bebc 6da6 483d
000002c0: 80d5 7e3b 7d07 b7bd 8b12 44bd 8b99 5ebd
000002d0: daf4 7ebd 638b 323d 9708 a3bd 3027 e63c
000002e0: 1219 70bd 3c02 b53a e9e0 6e3c 284f 92bd
000002f0: cbb3 3bbc 66d5 9d3c bbfd 45bd 365b f5bb
00000300: 475c 81bd 8aec 1fbd 1c4d 1e3d 073e 2f3c
00000310: 9fc1 46bd e9b1 aa3d f654 2dbd d19e 193b
00000320: 14cb 53bc 3855 60bd 2061 c23c dbc3 90bd
00000330: ba2d 893d 9c07 6f3d 03a2 783d 2304 2cbd
00000340: 2fe8 53bc 709b 2a3c e4db 9fbd 8590 1bbd
00000350: b816 083d d46d 18bd 2aa2 b23a d9b4 4c3d
00000360: b725 ecba e8ea 11bc 986d 10bb 7b83 2bbd
00000370: 08a0 a73d f72f 303d 89b5 75bd 00d8 9abc
00000380: 0ccd 95bd 1643 3d3d f29f 483d dff6 e9bc
00000390: 5c70 aebc 39ca a2bd 526c 40bd 8377 3abd
000003a0: 8ed4 913d 9cf9 2cbd 64b2 1f3b 4114 99bd
000003b0: 96f8 183d f83e e1bb 92be f53c 09c3 be3c
000003c0: 9d6d 52bd e83f 523d ed9b 67bd 21ef 34bc
000003d0: 9c22 833d 0203 67bd 31b5 00bd ddf2 a33d
000003e0: 3e88 18bc 7fd4 93bc 5266 dcbc 885d 66ba
000003f0: acc9 3b3c ba66 1bbd 6e51 3e3d 7529 ccbc

ConvNet.conv2.bias f4 [16]
0.016730966 -0.0180238 0.036968477 -0.08045647 -0.0005348072 -0.008301832 0.06822471 -0.032309495
-0.023571745 0.02703073 -0.06956812 -0.057747647 -0.060394153 -0.055504315 0.062500186 0.0694261
00000000: 610f 893c a6a6 93bc 426c 173d 5dc6 a4bd
00000010: 4e32 0cba 6804 08bc 66b9 8b3d f656 04bd
00000020: 8819 c1bc 8d6f dd3c bb79 8ebd cc88 6cbd
00000030: dc5f 77bd 7e58 63bd 1900 803d 452f 8e3d

ConvNet.fc1.weight f4 [120, 400]
-0.032133497 -0.04690921 -0.051514026 -0.048239913 -0.051348705 0.042471904 0.042556785 -0.0076272986
0.031447608 -0.0049372497 -0.0042284178 -0.035792854 -0.026665382 0.04091027 -0.04329159 -0.027954375
0.023082638 -0.021049455 -0.008581195 -0.0045205555 -0.030908542 0.029235536 0.034713246 0.014864593
-0.028402189 -0.0053938557 0.04388956 -0.0036035178 0.015262128 -0.0072840923 -0.016152661 -0.007871151
-0.026785856 0.030370226 0.014036119 0.03838297 -0.028782154 -0.043186784 0.045164324 -0.028628046
0.041882385 0.039535422 0.020574296 0.045948572 0.02062558 -0.028662592 0.012406659 -0.045029745
0.044848993 0.018418407 0.019866819 0.029572302 -0.049632717 -0.029255051 0.038628943 -0.005079025
-0.010126585 -0.023684924 -0.03134915 0.04809886 0.016100759 0.04719735 0.049041547 -0.028451342
0.002968675 -0.0062708617 -0.028622942 0.049845755 0.030696018 0.025667464 -0.0005280793 0.02970789
0.049322434 -0.017307157 0.012074781 -0.045170914 -0.041614763 -0.025473667 0.019902933 0.026898397
-0.035614982 -0.013674447 0.004312762 0.00473549 0.0030553043 0.02846886 -0.013235668 0.020935934
0.02161864 -0.05111915 -0.019978432 0.0342913 0.0053380034 0.04353873 -0.047792368 -0.020718945
0.0012897721 0.0060645696 0.0070563867 -0.019422553 0.044848792 0.0424479 -0.049578805 -0.010984901
-0.035460725 0.03208104 0.010857919 -0.011343556 -0.012688725 -0.031079454 0.0024708253 0.0006952271
-0.0007451643 -0.028414944 -0.0026081726 0.032291166 -0.032168057 0.02468658 2.9467032e-05 0.04694966
0.036638908 0.025575954 -0.040424585 0.004659063 0.03796422 0.02983222 -0.027912056 -0.042800114
-0.04440676 -0.03413995 0.043776125 0.0011700549 0.017783182 -0.049067993 -0.04634827 -0.0037676096
-0.02027992 -0.002166185 -0.03318825 -0.03376276 0.0218247 -0.05191582 -0.007906836 2.992594e-06
0.022059007 0.03127737 0.03885148 -0.047197983 -0.0033295741 -0.008663459 -0.0054714736 0.005816499
0.0054945615 -0.04465864 0.013199385 0.026781268 -0.032785 0.046797812 0.02301629 0.02338163
-0.004532082 -0.0068048555 -0.02103093 0.050000306 0.016107535 -0.044135403 -0.050635345 -0.011690772
-0.04382959 -0.004122072 -0.009141836 -0.029782645 -0.00071250985 -0.051725462 0.04517763 -0.0035532233
-0.0035644115 0.0054396503 -0.023447437 -0.01580927 -0.04147956 0.028708223 -0.041711386 -0.009908981
-0.049317278 0.049374916 0.024628986 -0.04188188 0.046123028 -0.026329437 0.021067724 -0.016994864
-0.01424513 -0.018012682 0.013067308 -0.03731621 -0.042479064 0.0046048216 -0.04629439 -0.03900721
-0.012273931 -0.038185053 0.024355501 0.021967653 0.014983414 0.017229812 0.037741385 -0.029826654
0.013423236 -0.017904006 0.042615477 -0.009298521 0.008391325 0.0019450111 0.051082652 0.00781171
0.014218093 0.027174458 -0.041404855 -0.022725629 -0.0040537883 -0.020083046 0.006733208 0.041554753
0.030653793 0.03990642 -0.011327505 -0.013313127 -0.014401436 -0.021994123 -0.003233288 -0.042537205
0.023719132 0.008459687 -0.002947265 0.019406367 0.018064886 -0.040855348 -0.025766445 -0.013034533
0.04223108 0.031432148 0.034457237 0.007172871 -0.021606684 0.03372038 -0.049833063 0.03710765
0.040292896 0.024476927 0.039515514 -0.0042243283 0.02535526 0.04503464 0.038121805 -0.020836646
00000000: 6a9e 03bd df23 40bd 5f00 53bd 3797 45bd
00000010: 0553 52bd 05f7 2d3d 0650 2e3d 6bee f9bb
00000020: 35cf 003d a7c8 a1bb 8a8e 8abb 879b 12bd
00000030: 5c71 dabc 8791 273d 8652 31bd 9300 e5bc
00000040: cd17 bd3c e86f acbc 2498 0cbc 2b21 94bb
00000050: e933 fdbc 5d7f ef3c 7a2f 0e3d 9f8a 733c
00000060: b5ab e8bc f1be b0bb 8ac5 333d ff28 6cbb
00000070: 010e 7a3c 65af eebb 9652 84bc 00f6 00bc
00000080: 036e dbbc fbca f83c c0f7 653c 7637 1d3d
00000090: 8dc8 ebbc a0e4 30bd 3afe 383d 5d85 eabc
000000a0: dd8c 2b3d e5ef 213d 6d8b a83c 9234 3c3d
000000b0: faf6 a83c d0cd eabc 4d45 4b3c 1c71 38bd
000000c0: 94b3 373d 33e2 963c bdbf a23c 9d41 f23c
000000d0: ad4b 4bbd 4aa8 efbc 6239 1e3d f36d a6bb
000000e0: fae9 25bc e306 c2bc f767 00bd 4f03 453d
000000f0: bde5 833c 0252 413d cadf 483d ca12 e9bc
00000100: 1a8e 423b cd7b cdbb a97a eabc 102b 4c3d
00000110: 3776 fb3c 9344 d23c cd6e 0aba f65d f33c
00000120: 5206 4a3d bdc7 8dbc 4dd5 453c 2305 39bd
00000130: 3e74 2abd 27ae d0bc 7a0b a33c 075a dc3c
00000140: 04e1 11bd ca0a 60bc 1252 8d3b 2b2c 9b3b
00000150: 803b 483b 8737 e93c 6ada 58bc d681 ab3c
00000160: 9319 b13c 5062 51bd cfa9 a3bc 0975 0c3d
00000170: 6bea ae3b ab55 323d eec1 43bd c7ba a9bc
00000180: 920d a93a 4cb9 c63b 4339 e73b 0c1c 9fbc
00000190: 5eb3 373d d9dd 2d3d 2513 4bbd 04fa 33bc
000001a0: 443f 11bd 6967 033d 6ae5 313c 53da 39bc
000001b0: 5fe4 4fbc 579a febc 92ed 213b e73f 363a
000001c0: 2157 43ba 75c6 e8bc e0ed 2abb be43 043d
000001d0: a7c2 03bd 833b ca3c f82f f737 494e 403d
000001e0: ae12 163d aa84 d13c 4094 25bd 0eab 983b
000001f0: 5f80 1b3d b362 f43c d3a7 e4bc 2c4f 2fbd
00000200: dde3 35bd 55d6 0bbd 984e 333d 875c 993a
00000210: 09ae 913c 85fb 48bd afd7 3dbd 00ea 76bb
00000220: 1322 a6bc 8ef6 0dbb 67f0 07bd d24a 0abd
00000230: b7c9 b23c afa5 54bd ad8b 01bc 60d4 4836
00000240: 17b5 b43c b31c 003d bb22 1f3d ac52 41bd
00000250: fc34 5abb 2ef1 0dbc 0c4a b3bb 5498 be3b
00000260: b90b b43b faeb 36bd 3c42 583c 6464 db3c
00000270: 9049 06bd 10af 3f3d a98c bc3c d58a bf3c
00000280: dc81 94bb 44fb debb 0f49 acbc 1fcd 4c3d
00000290: f3f3 833c 53c7 34bd 0267 4fbd a78a 3fbc
000002a0: a886 33bd 7212 87bb a4c7 15bc bcfa f3bc
000002b0: bac7 3aba 14de 53bd 2e0c 393d 32dd 68bb
000002c0: e798 69bb 183f b23b d714 c0bc 7182 81bc
000002d0: 79e6 29bd 822d eb3c 8fd9 2abd 4759 22bc
000002e0: ea00 4abd 5a3d 4a3d bac2 c93c 568c 2bbd
000002f0: 80eb 3c3d d5b0 d7bc 3896 ac3c d038 8bbc
00000300: 6864 69bc 558f 93bc 4318 563c e2d8 18bd
00000310: 87fe 2dbd 0be4 963b 309f 3dbd 06c6 1fbd
00000320: 9918 49bc ee67 1cbd 3085 c73c 82f5 b33c
00000330: fe7c 753c 8925 8d3c b696 1a3d 0757 f4bc
00000340: 22ed 5b3c 6cab 92bc 918d 2e3d d358 18bc
00000350: c57b 093c beef fe3a 0b3c 513d 5ff9 ff3b
00000360: 01f3 683c f89c de3c 2398 29bd 192b babc
00000370: a4d5 84bb 3385 a4bc 3ea2 dc3b 5135 2a3d
00000380: aa1d fb3c ea74 233d 0097 39bc 4d1f 5abc
00000390: 00f4 6bbc 052d b4bc 92e5 53bb 7e3b 2ebd
000003a0: a04e c23c 809a 0a3c e726 41bb 1afa 9e3c
000003b0: d0fc 933c f057 27bd 2714 d3bc cb8e 55bc
000003c0: 7ffa 2c3d ffbe 003d 0823 0d3d 670a eb3b
000003d0: 8000 b1bc 621e 0a3d c11d 4cbd 31fe 173d
000003e0: 2a0a 253d d683 c83c 05db 213d 3c6c 8abb
000003f0: d6b5 cf3c 3e76 383d 9c25 1c3d 9db1 aabc

ConvNet.fc1.bias f4 [120]
0.015947541 0.027882406 -0.0034881604 -0.027654853 -0.05110366 0.031304933 0.023825198 0.035506688
-0.03018843 -0.026858313 -0.01703911 0.010423154 0.021681644 -0.02100823 -0.0074800793 0.038510635
0.042500578 -0.049994823 0.022876773 -0.024343917 0.016856162 -0.041783758 -0.034891147 -0.038131792
0.017781066 0.029535193 0.02788935 -0.030508356 -0.019737113 -0.019047357 -0.030225236 0.01599233
0.028053937 -0.0009914646 -0.041723505 -0.0035101108 -0.018956592 -0.012929998 -0.013043557 0.054692764
-0.003101199 -0.019619416 0.043120783 -0.04426943 0.041691195 0.023848318 0.00917687 0.00042235942
0.013872431 0.013813652 -0.020211812 0.019021316 -0.010948706 -0.00044580406 -0.04544719 -0.036680415
-0.04880335 -0.035422713 -0.032722745 -0.038405918 0.016889052 -0.0059826258 -0.008111432 -0.04050565
-0.000983337 -0.016606012 0.03674552 0.026074607 0.014198918 -0.026225554 0.018464059 -0.041452613
0.016392756 0.027133929 0.025451891 -0.037137836 -0.02421967 -0.012305803 0.021672297 0.018508138
-0.026981926 0.00080759864 -0.02330098 -0.019054892 -0.0018313903 0.026097542 -0.03964334 -0.013186373
-0.012699291 -0.03311454 -0.011431449 -0.04956184 -0.042514782 0.025499243 0.028456617 0.007474721
-0.022696903 0.0047078882 0.013065098 -0.032158732 -0.038606986 0.009865745 0.021743769 0.0021022889
0.046209276 0.007078615 -0.037169557 -0.037121315 9.793703e-06 -0.030388681 0.028785419 0.033862527
0.020085402 -0.011124231 0.02751549 -0.043448072 -0.053195067 -0.051016614 -0.020780444 -0.053891253
00000000: 6ba4 823c a569 e43c 9f99 64bb 6e8c e2bc
00000010: 1252 51bd 9a39 003d 102d c33c 766f 113d
00000020: ba4d f7bc f705 dcbc 9b95 8bbc e0c5 2a3c
00000030: b49d b13c 7419 acbc 741b f5bb 54bd 1d3d
00000040: 1615 2e3d 5fc7 4cbd 1268 bb3c e56c c7bc
00000050: ef15 8a3c 7225 2bbd 05ea 0ebd 1530 1cbd
00000060: 99a9 913c caf3 f13c 3578 e43c a9ec f9bc
00000070: baaf a1bc 3409 9cbc ea9a f7bc 5902 833c
00000080: 5fd1 e53c 08f4 81ba 44e6 2abd e309 66bb
00000090: db4a 9bbc 58d8 53bc a5b4 55bc 8505 603d
000000a0: 7c3d 4bbb e6b8 a0bc 6b9f 303d dd53 35bd
000000b0: 63c4 2a3d 8c5d c33c 955a 163c 1f70 dd39
000000c0: 3149 633c a852 623c 3e93 a5bc 97d2 9b3c
000000d0: 3462 33bc cfba e9b9 d526 3abd 343e 16bd
000000e0: 06e6 47bd 6817 11bd 4908 06bd 864f 1dbd
000000f0: e95a 8a3c e709 c4bb d0e5 04bc 41e9 25bd
00000100: 51e3 80ba 5509 88bc 7882 163d 6a9a d53c
00000110: 94a2 683c f9d6 d6bc f041 973c 37ca 29bd
00000120: 1a4a 863c f947 de3c 7c80 d03c d81d 18bd
00000130: 5468 c6bc 479e 49bc 1a8a b13c 619e 973c
00000140: 3309 ddbc 07b5 533a b2e1 bebc 0119 9cbc
00000150: 430b f0ba 83ca d53c 0e61 22bd a80b 58bc
00000160: b010 50bc 1da3 07bd f94a 3bbc 5b01 4bbd
00000170: fb23 2ebd cae3 d03c da1d e93c 81ee f43b
00000180: dbee b9bc a144 9a3b fe0e 563c e0b8 03bd
00000190: 5c22 1ebd efa3 213c fd1f b23c 8ec6 093b
000001a0: f045 3d3d baf3 e73b 1b3f 18bd 850c 18bd
000001b0: a24f 2437 aff1 f8bc 66cf eb3c 6fb3 0a3d
000001c0: 248a a43c 6842 36bc 2a68 e13c 9bf6 31bd
000001d0: 12e3 59bd ccf6 50bd c03b aabc 13bd 5cbd

ConvNet.fc2.weight f4 [84, 120]
-0.0026942214 0.011000257 -0.03449643 0.017318256 -0.08383188 0.039368372 0.05207204 0.04804154
-0.053241566 -0.09387085 0.025240775 0.00990412 -0.07212281 -0.08080981 -0.05894265 0.0260322
0.013408108 -0.044831116 -0.028606467 -0.087491915 0.0015005898 0.0076950616 0.022960456 -0.06291713
-0.08950698 -0.0006003485 0.05335126 0.031950165 0.034407552 0.05265734 -0.09161475 -0.04786918
-0.006860361 -0.009937354 -0.038429867 -0.09768253 -0.05466992 0.025560481 0.06745087 -0.053199425
0.0041446975 0.0552711 0.013063104 0.043706067 0.028533498 -0.06576309 -0.042410128 -0.033287838
0.05826083 0.0015173148 0.059142772 -0.028372511 0.07961732 0.060353156 0.07686112 0.054813996
-0.01919713 0.0029749512 -0.055521805 0.013819791 -0.07155365 0.050470848 0.07326201 0.030137256
-0.0050365524 -0.048776194 -0.065418035 0.057992376 -0.04403336 0.00017125427 0.010170471 0.053476933
-0.046542764 -0.04220273 0.08397426 -0.051204268 -0.009692717 0.03480995 0.055847354 -0.017736927
0.034310326 0.07282577 -0.017159116 -0.0096014375 -0.084919386 0.055305008 -0.05520953 -0.09754125
0.02104681 -0.08755758 -0.067713335 -0.031813245 0.027431313 0.0017101207 0.07563284 -0.08993967
-0.06819123 0.07349025 0.033502042 -0.096420296 -0.05183241 -0.06280615 -0.02873543 0.082528606
0.0647563 0.05767092 0.02374875 -0.08026888 0.030073633 -0.03937841 0.003378022 0.08423917
-0.07647691 0.050780565 -0.02537147 0.04900402 -0.08231185 -0.07374605 -0.052553996 0.010016217
0.059079416 0.039231468 -0.05936689 -0.010672136 0.07928484 -0.046578933 -0.09346542 0.048422728
0.071099184 0.03812089 -0.08871472 -0.025051476 -0.059962228 0.05537975 -0.055267822 -0.06111043
-0.03978069 0.0061673922 -0.0354745 -0.00462236 -0.05155097 0.04921417 0.051064637 0.08282112
-0.023522917 -0.08165232 0.0071428143 0.059476197 -0.0070550065 0.049840838 -0.03721222 0.015066525
0.0066354997 0.006049894 0.009251326 0.08233837 -0.072454356 -0.02130292 0.0651137 -0.08043435
-0.033923507 0.018331314 0.054415792 -0.019129746 0.030739853 -0.07946142 0.052319914 -0.016367374
-0.07060886 -0.032257006 0.014082168 -0.07733906 0.031445336 -0.006792472 0.0654498 -0.04514548
0.05805196 -0.040853586 0.0034682325 0.062473718 -0.05749266 -0.089039125 0.061950613 0.06729537
-0.06268982 0.024295092 0.08637509 0.08486765 -0.067924894 0.009752385 -0.03922734 0.035774883
0.046245333 0.068126775 0.039652184 -0.004445512 0.05546405 0.009749297 -0.06300651 -0.01439384
-0.0070906365 0.06574882 -0.0188228 0.0072341845 0.055847798 -0.09349128 -0.018573314 0.047959402
-0.082901224 -0.029736832 -0.03964055 -0.005293822 -0.0592571 -0.08609809 0.039831314 0.015714593
0.05413542 0.020428175 0.040918555 0.031698775 4.5487886e-05 0.05509552 0.06382882 0.06474057
0.036196534 0.045037933 -0.08355503 -0.011176492 0.02550278 0.03387811 -0.05981706 0.026753474
0.021804051 -0.016159909 -0.07236349 0.00207535 0.009858223 -0.045051195 -0.07351638 -0.05386175
0.064946875 -0.0045781815 0.035418466 0.028174838 -0.08208953 0.051908415 -0.085618354 0.00013626777
-0.070627324 0.027124709 -0.08540397 0.046787042 -0.018158939 -0.08684774 -0.033267632 -0.031082623
00000000: 8991 30bb 6c3a 343c 214c 0dbd 04df 8d3c
00000010: 0cb0 abbd bb40 213d 7e49 553d 35c7 443d
00000020: d413 5abd 5c3f c0bd bec5 ce3c e444 223c
00000030: 20b5 93bd 9d7f a5bd d96d 71bd 7b41 d53c
00000040: aead 5b3c d5a0 37bd 1c58 eabc f62e b3bd
00000050: 70af c43a db26 fc3b 9117 bc3c b2da 80bd
00000060: 6f4f b7bd b560 1dba da86 5a3d 2dde 023d
00000070: efee 0c3d 39af 573d 84a0 bbbd 7912 44bd
00000080: e1cc e0bb 49d0 22bc a368 1dbd c70d c8bd
00000090: 91ed 5fbd 3764 d13c af23 8a3d a4e7 59bd
000000a0: 3ed0 873b f363 623d a106 563c 2205 333d
000000b0: 15bf e93c cdae 86bd 3eb6 2dbd d458 08bd
000000c0: e8a2 6e3d a3e0 c63a b13f 723d 786d e8bc
000000d0: 680e a33d df34 773d 5d69 9d3d a484 603d
000000e0: 4d43 9dbc 66f7 423b d56a 63bd 686c 623c
000000f0: b88a 92bd 85ba 4e3d 650a 963d 68e2 f63c
00000100: aa09 a5bb 8cc9 47bd e4f9 85bd 6a89 6d3d
00000110: 535c 34bd b892 3339 0ca2 263c a10a 5b3d
00000120: a0a3 3ebd c5dc 2cbd b2fa ab3d 91bb 51bd
00000130: 34ce 1ebc e194 0e3d 32c0 643d 084d 91bc
00000140: fc88 0c3d ad25 953d 4691 8cbc 594f 1dbc
00000150: 37ea adbd 8187 623d 6323 62bd b5c3 c7bd
00000160: 5c6a ac3c 6351 b3bd 4aad 8abd 9b4e 02bd
00000170: a2b7 e03c 2126 e03a 64e5 9a3d 4a32 b8bd
00000180: d8a7 8bbd 0e82 963d 7039 093d 0178 c5bd
00000190: 394e 54bd 83a0 80bd 9166 ebbc c204 a93d
000001a0: f39e 843d 5838 6c3d bd8c c23c 0364 a4bd
000001b0: fb5c f63c 414b 21bd ce61 5d3b 9685 ac3d
000001c0: ed9f 9cbd 48ff 4f3d d4d7 cfbc 70b8 483d
000001d0: 1d93 a8bd 2b08 97bd dc42 57bd 0f1b 243c
000001e0: 42fd 713d 2db1 203d b22a 73bd 2fda 2ebc
000001f0: 1760 a23d 8dc9 3ebd cc6a bfbd e956 463d
00000200: 739c 913d a624 1c3d 10b0 b5bd c138 cdbc
00000210: f49a 75bd e0d5 623d 8360 62bd ee4e 7abd
00000220: 14f1 22bd d617 ca3b b64d 11bd 2b77 97bb
00000230: 1c27 53bd cc94 493d 2729 513d 1f9e a93d
00000240: 22b3 c0bc 5539 a7bd 450e ea3b 509d 733d
00000250: af2d e7bb e825 4c3d d76b 18bd 96d9 763c
00000260: 9b6e d93b 303e c63b e092 173c 05a1 a83d
00000270: f362 94bd 7683 aebc 555a 853d c4ba a4bd
00000280: 60f3 0abd 8d2b 963c 18e3 5e3d fcb5 9cbc
00000290: 25d2 fb3c abbc a2bd 684d 563d df14 86bc
000002a0: 619b 90bd ec1f 04bd e5b8 663c f163 9ebd
000002b0: d3cc 003d 6393 debb 8b0a 863d 78ea 38bd
000002c0: e4c7 6d3d 1756 27bd 494b 633b 71e4 7f3d
000002d0: 6c7d 6bbd 255a b6bd edbf 7d3d 28d2 893d
000002e0: 8563 80bd 8006 c73c 6ce5 b03d 17cf ad3d
000002f0: 351c 8bbd 78c8 1f3c d9ac 20bd af88 123d
00000300: bf6b 3d3d 0d86 8b3d 546a 223d a8ab 91bb
00000310: 462e 633d 84bb 1f3c 8f09 81bd 24d4 6bbc
00000320: 9258 e8bb 51a7 863d 4632 9abc bd0c ed3b
00000330: a9c0 643d 5b78 bfbd 1027 98bc 1471 443d
00000340: 1ec8 a9bd a89a f3bc 215e 22bd cc77 adbb
00000350: 93b7 72bd 3254 b0bd 2926 233d e4bb 803c
00000360: 1abd 5d3d fd58 a73c 379a 273d 93d6 013d
00000370: 3fca 3e38 d7ab 613d afb8 823d b496 843d
00000380: d142 143d b279 383d e61e abbd 9b1d 37bc
00000390: 35eb d03c c6c3 0a3d bc02 75bd 1a2a db3c
000003a0: 699e b23c c961 84bc 4f33 94bd 9802 083b
000003b0: 6284 213c 9a87 38bd c18f 96bd 239e 5cbd
000003c0: de02 853d 9204 96bb f412 113d ebce e63c
000003d0: 8e1e a8bd eb9d 543d ad58 afbd 1ae3 0e39
000003e0: 0fa5 90bd a334 de3c 47e8 aebd c5a3 3f3d
000003f0: 0ec2 94bc 3add b1bd a443 08bd fca0 febc

ConvNet.fc2.bias f4 [84]
0.036505215 -0.0016162932 0.044533458 -0.01985554 0.076266505 -0.08131635 0.071003 0.056871776
-0.08088863 0.037414413 -0.085692674 0.011434194 -0.08703271 -0.014641401 -0.0718471 0.067084454
0.08493183 -0.079684414 -0.05313001 0.018240139 -0.08391547 0.07020563 0.06331289 -0.044193197
0.0250071 -0.024917142 -0.049425878 -0.014945858 -0.011613392 -0.07490293 0.059984148 -0.08671371
-0.05885538 -0.0054590963 0.044572055 -0.036281552 -0.053199016 0.071158074 -0.07954147 -0.08476744
-0.012348861 0.0633512 -0.039127026 -0.021553231 0.024918744 0.082171865 0.038490783 0.039662704
0.01148897 0.052450806 0.051762458 0.010339889 -0.019668208 -0.019741552 0.063268974 0.032244537
-0.085559614 0.06512961 0.03913207 -0.07158915 0.04078802 -0.083540276 -0.014984561 -0.03961202
0.03571554 -0.026571725 0.08944011 0.067102715 0.025001891 0.007467598 0.08075259 -0.061090156
-0.0039436277 0.0677437 -0.040919986 -0.062077183 -0.07390027 -0.0366883 -0.0803909 -0.008135633
0.05932711 0.07890597 -0.056003742 -0.0560647
00000000: 7e86 153d cdd9 d3ba b768 363d 16a8 a2bc
00000010: 9d31 9c3d 3089 a6bd 056a 913d 61f2 683d
00000020: f0a8 a5bd db3f 193d a47f afbd 7c56 3b3c
00000030: 353e b2bd 7de2 6fbc 9324 93bd 9363 893d
00000040: bdf0 ad3d 9531 a3bd da9e 59bd 586c 953c
00000050: e0db abbd f8c7 8f3d 30aa 813d ed03 35bd
00000060: b1db cc3c 091f ccbc ca72 4abd 79df 74bc
00000070: 1946 3ebc b566 99bd f0b1 753d f596 b1bd
00000080: 5712 71bd 38e2 b2bb 3091 363d f79b 14bd
00000090: 36e7 59bd 53bb 913d a3e6 a2bd 8d9a adbd
000000a0: e152 4abc 46be 813d a943 20bd 6790 b0bc
000000b0: 6522 cc3c b949 a83d 83a8 1d3d 5c75 223d
000000c0: 3c3c 3c3c a8d6 563d df04 543d a368 293c
000000d0: 391f a1bc 09b9 a1bc 2a93 813d d912 043d
000000e0: e139 afbd ac62 853d f348 203d 559d 92bd
000000f0: 5711 273d 2a17 abbd ce81 75bc 3740 22bd
00000100: 754a 123d f2ac d9bc 602c b73d 266d 893d
00000110: c4d0 cc3c c1b2 f43b 9d61 a53d ac39 7abd
00000120: 8c39 81bb 36bd 8a3d b79b 27bd a544 7ebd
00000130: 0659 97bd 7946 16bd fca3 a4bd 514b 05bc
00000140: fc00 733d 7499 a13d 2e64 65bd 19a4 65bd

Output.fc.weight f4 [1, 84]
-0.08601444 -0.05110745 -0.08311292 -0.06969142 -0.029117424 0.06101031 -0.08019744 0.0533718
-0.05660688 0.10857731 0.07893868 0.07570613 0.038073674 -0.100304484 0.028915808 0.015576055
0.08275833 0.00549324 0.014112678 0.06509548 0.037720565 -0.026595006 0.1029555 -0.030349819
-0.09829742 -0.053511184 -0.09901274 -0.04759634 -0.04490766 -0.0701637 0.08736182 0.08042607
0.03349052 0.09187187 -0.007543459 0.006629852 0.041231845 -0.06372518 -0.089740574 0.051331207
-0.0878956 -0.08166724 -0.055678565 0.07369817 0.096818276 0.051227856 -0.028216945 -0.02629188
-0.041351337 -0.050455377 -0.08512701 0.079117656 -0.09906617 0.03511744 0.08240381 -0.017724039
0.031861484 0.06511472 -0.076619126 -0.006073236 -0.010433939 0.023663415 -0.04188838 -0.016147207
0.02316234 -0.049988944 0.036046505 0.07286944 -0.043512754 0.0820509 -0.08516352 -0.05373954
-0.10029547 0.022899874 0.0640463 -0.08379424 0.05821187 0.009606532 -0.055394284 -0.026666882
0.0093037365 0.10433553 0.06843841 0.07612379
00000000: 5728 b0bd 0c56 51bd 1b37 aabd 60ba 8ebd
00000010: aa87 eebc f2e5 793d 8e3e a4bd 639c 5a3d
00000020: 9edc 67bd c85d de3d 9aaa a13d d10b 9b3d
00000030: 24f3 1b3d 706c cdbd d8e0 ec3c b632 7f3c
00000040: 337d a93d a300 b43b dd38 673c c750 853d
00000050: e180 1a3d c5dd d9bc 55da d23d 2fa0 f8bc
00000060: 2850 c9bd 8b2e 5bbd 31c7 cabd 61f4 42bd
00000070: 18f1 37bd fcb1 8fbd c1ea b23d 6cb6 a43d
00000080: 5b2d 093d 5227 bc3d 1f2f f7bb 3b3f d93b
00000090: b9e2 283d 5982 82bd e8c9 b7bd ac40 523d
000000a0: 9c02 b4bd 2741 a7bd 350f 64bd 11ef 963d
000000b0: a948 c63d 4dd4 513d 3927 e7bc 1262 d7bc
000000c0: 0560 29bd 4caa 4ebd 1257 aebd 7008 a23d
000000d0: 34e3 cabd 4ed7 0f3d 54c3 a83d 0132 91bc
000000e0: 3081 023d de5a 853d 7dea 9cbd ff01 c7bb
000000f0: 1df3 2abc c7d9 c13c 2693 2bbd 2647 84bc
00000100: f3be bd3c 35c1 4cbd 80a5 133d 933c 953d
00000110: 6e3a 32bd 4d0a a83d 366a aebd fe1d 5cbd
00000120: b667 cdbd 8498 bb3c b52a 833d 519c abbd
00000130: 926f 6e3d b764 1d3c 1ee5 62bd 8174 dabc
00000140: b36e 183c dead d53d 7029 8c3d cae6 9b3d
