tutorials/W1D2_ComparingTasks/RR/models/ConvNet_classification_10000_epoch_5.pth (torch, 251150 bytes, 10 tensors)

ConvNet.conv1.weight f4 [6, 1, 5, 5]
000000 f3 5c 25 be c8 9a 4d bc 97 ac a8 3d da 73 28 3d
       -0.16148739 -0.01254911 0.08236044 0.04112611
000010 e6 f8 7e 3e aa 48 2a bc 8b 8a 6d 3d d4 9d 94 3e
       0.24899635 -0.010393301 0.057993453 0.29026663
000020 a0 70 b2 bc e9 6e 92 3d a9 80 62 3e c7 a2 41 3e
       -0.02178222 0.07150061 0.22119392 0.18909751
000030 54 98 8a 3e 7b 8e 4f 3e 93 95 20 bd 27 da dc bd
       0.27069342 0.20269196 -0.039205145 -0.10783797
000040 00 6b d3 3d 46 e8 89 3e 72 1a ab 3e d7 c6 80 3e
       0.10323143 0.26935023 0.33418614 0.25151703
000050 e8 15 18 be fa d8 f8 3d 54 eb 7a 3d 46 a6 91 3e
       -0.14852107 0.1215076 0.061259583 0.2844717
000060 c3 6f 07 3e f5 2d e7 3d 3e 8b 9f 39 42 f4 7c be
       0.13226227 0.112880625 0.00030430587 -0.24702552
000070 3c 10 9f be 5e ec df 3d 33 3e 4f 3e c2 6d e9 bc
       -0.31067073 0.10933755 0.20238571 -0.02849472
000080 da 8f 6d be 2d c6 86 be 62 e9 19 be 96 96 b9 3e
       -0.23199406 -0.2632307 -0.15030435 0.362477
000090 75 d2 ac 3d c9 af 3e be 37 0e 7d be 41 cf d7 bd
       0.08438579 -0.18621744 -0.24712454 -0.105375774
0000a0 2e 4a 28 3e 22 e4 90 bd 88 6d 9d be ca d6 21 be
       0.16434547 -0.07074763 -0.30747628 -0.15804592
0000b0 f1 6f 6a be 8d 32 d5 3e 87 53 76 bd 86 5b b3 be
       -0.22894265 0.4164013 -0.06013825 -0.35030764
0000c0 d1 4f b8 be 76 f4 97 bd c3 67 44 3e 5e 08 1c 3e
       -0.35998395 -0.07419674 0.19180207 0.15237567
0000d0 d2 be 67 3e f2 08 0b 3e 1e f1 84 bc 94 3d 00 be
       0.22631386 0.13577631 -0.016228255 -0.1252349
0000e0 51 2e 87 3e e6 c0 2f 3d fe aa 66 3d 99 68 49 be
       0.26402524 0.04290857 0.056315415 -0.19668807
0000f0 cc 7b 5f 3e 95 e5 14 3d a2 8d 08 3e c2 35 92 3e
       0.21824569 0.03635176 0.13335279 0.2855664
000100 1f a9 e0 b9 a9 5b f0 3c 6a 19 25 3e d4 94 14 3e
       -0.00042850614 0.029340582 0.16122976 0.14509898
000110 af f8 aa 3d 48 2a 99 3e 1b 04 36 3e 38 32 28 be
       0.08348214 0.2991507 0.17775004 -0.16425407
000120 5a 57 75 bb 4c f4 25 3e 47 47 81 3e 6c 65 82 bd
       -0.0037436099 0.16206473 0.25249693 -0.06367001
000130 3b 2f 8b 3e fc 7f 1a be 0a 45 43 3c 5a 61 98 bd
       0.2718447 -0.15087885 0.011918316 -0.07440443
000140 88 50 88 3e 61 91 f0 3d fb 9a 6a 3e 9b 08 5d be
       0.2662394 0.11746479 0.22910683 -0.21585314
000150 58 bf d6 be 22 f3 eb 3d eb 9d 67 3e 8f fa a0 3e
       -0.4194286 0.11520983 0.22618835 0.3144116
000160 98 8d 60 be 07 fb a0 be 67 a5 6e 3d dd 94 39 bd
       -0.21929014 -0.3144152 0.05826321 -0.045307983
000170 f6 e0 53 3e 15 5c 27 3e 85 2a 85 bd 4b 9a d2 bc
       0.20691285 0.1634372 -0.065022506 -0.025708338
000180 6b 93 24 3e b6 5e 92 3e cc ae 34 3e 18 fb 2a 3e
       0.1607186 0.28587884 0.17644805 0.16697347
000190 c6 7d 27 be 21 d7 b3 be 7a 21 7c be 75 c8 d2 be
       -0.16356573 -0.35125068 -0.24622145 -0.41168562
0001a0 90 4c 15 be d9 4a c1 3d 7f 78 37 be 9b 72 88 bd
       -0.14579988 0.09438104 -0.1791706 -0.06662484
0001b0 18 b6 93 bd 48 e5 18 be 75 da 6b 3e ce a6 b0 3d
       -0.07212466 -0.14931214 0.23032553 0.086255655
0001c0 26 39 e0 bc 32 8a 06 3e 89 f0 a7 3e d3 f2 c6 3e
       -0.027371 0.13138655 0.328007 0.38857135
0001d0 55 4b 8f 3e bc a3 b4 3e df a3 94 3e f0 bf 38 3e
       0.2798716 0.3528117 0.29031274 0.18041968
0001e0 a4 f5 2a 3c a6 ed 80 3d 78 9c 8a 3e 1b 87 bf bc
       0.010434542 0.06295328 0.270725 -0.023379853
0001f0 7f 36 85 bc 7a 69 ad be cc 99 84 be bb cf 2d be
       -0.016261337 -0.33869535 -0.25898588 -0.16973774
000200 06 e1 2a be 4c 00 45 3d 6e 60 cf bd 35 eb a8 be
       -0.16687402 0.048095986 -0.101258144 -0.3299195
000210 60 2f 53 be 0b ef 67 be b0 a2 44 3e 35 b0 46 be
       -0.20623541 -0.22649781 0.19202685 -0.19403155
000220 4c e4 30 be a5 a8 ad 3d 4b 7b 4e bd 54 f2 6b 3e
       -0.17274588 0.08479432 -0.05041055 0.2304166
000230 db 85 63 3e 5d 5a 91 3e 07 3e 8c 3e 48 e0 b6 3e
       0.2221903 0.28389254 0.27391073 0.35717988
000240 69 6b fe 3d d6 6b 47 3d e0 77 7e 3e 0f 60 77 3e
       0.124228306 0.048686825 0.24850416 0.24157737
000250 7e 8b 7c 3c da ea 1b 3d
       0.015414117 0.03806577

ConvNet.conv1.bias f4 [6]
000000 98 52 6d 3d 5a 86 16 3e 06 97 09 3e 04 d1 1f 3e
       0.057940096 0.14699689 0.13436517 0.15607077
000010 70 94 99 3e 5c 23 4c 3e
       0.2999606 0.19935364

ConvNet.conv2.weight f4 [16, 6, 5, 5]
000000 51 6c 4a be d6 30 53 be d2 02 12 be 13 f6 96 bd
       -0.19767882 -0.20624098 -0.14258888 -0.07371154
000010 d7 f5 69 bd 2b 78 1c 3d 76 ef 8e bd 10 bc 50 be
       -0.057119217 0.03820054 -0.06979267 -0.2038424
000020 03 02 0a be 7b 31 9d bd 46 08 57 3d 51 a1 a0 3d
       -0.1347733 -0.07675453 0.052498125 0.07843269
000030 68 fd 9f 3d 2f 3c 87 3d c4 33 bb bc ab 91 96 3d
       0.07812005 0.06603276 -0.022851832 0.07352003
000040 63 24 b1 3d 86 e5 de 3d 89 ee 4e 3c 66 aa f6 3d
       0.08649518 0.10883622 0.012630113 0.1204422
000050 f3 c5 bc bb 88 a2 4d bd 90 a3 23 bc 4f 52 13 bd
       -0.005760902 -0.05020383 -0.009987727 -0.035967167
000060 c2 b5 7e 3d 70 f5 5b 3c 03 3e 90 3d 0d d0 90 3d
       0.062185057 0.013425216 0.07043078 0.070709325
000070 26 c2 5d bd 4a e4 d0 3b d9 1c ed 3d 03 f8 33 3d
       -0.054140233 0.0063748704 0.11577768 0.043937694
000080 1d d0 94 3d 92 6a 36 3a c5 f9 a5 3d 7b 29 12 bd
       0.07266257 0.0006958629 0.081042804 -0.03568409
000090 86 1e 95 3c 3b dd 01 bc d1 c1 80 bc 99 6d a3 3c
       0.018203031 -0.007926281 -0.015717419 0.019949721
0000a0 45 29 e1 bd e3 0f be 3c 6a ee 21 bd a2 d0 22 bd
       -0.109942 0.023200935 -0.03953401 -0.03974975
0000b0 a0 7c 80 bb 7b ba 14 bb 5c bc b2 bd 7c e2 f5 bc
       -0.0039211065 -0.0022694159 -0.08727333 -0.030015223
0000c0 e9 5c 0d be 16 e1 1e bb 6c 2f 33 be a1 49 26 be
       -0.13804974 -0.0024243048 -0.17498559 -0.16239025
0000d0 46 33 a1 bd 1e 35 c0 bd 28 a8 69 bd 6a c2 36 3d
       -0.07871108 -0.09385131 -0.057045132 0.044619
0000e0 f1 97 55 be fe 02 1a be 97 f8 32 be 05 5c 52 bd
       -0.20858742 -0.15040204 -0.17477642 -0.051357288
0000f0 ba 5c 8a 3d e7 2e e0 bb c2 e8 81 bd 6d 6e e6 bc
       0.067559674 -0.0068415287 -0.06343223 -0.028128827
000100 a3 a7 dd bd 29 44 f4 3d aa ad 5a 3d 35 e0 87 3d
       -0.1082299 0.11927063 0.053388275 0.06634561
000110 25 07 75 bc d6 b5 0d bd 4c 37 cc 3c 9a 9e 55 3d
       -0.014955317 -0.03459724 0.024928711 0.052153207
000120 62 2a 44 3c 11 ae 01 3e ab 6f 30 3d 77 fc bc bd
       0.0119729955 0.12664057 0.043075245 -0.09227841
000130 69 5a 64 be 3d f2 40 be d0 a7 0b be bc bc 70 bd
       -0.22300114 -0.18842407 -0.13638234 -0.05877374
000140 34 01 7a 3d de 60 9c bd 1e 39 df bd 31 3b aa bd
       0.061036304 -0.076356634 -0.10899566 -0.08312071
000150 e2 2a dd bc 53 52 0b 3e 53 ce 7e 3d 92 03 b8 3d
       -0.026997987 0.13605623 0.062208485 0.08985056
000160 b2 5e b7 3d 8b 2b be 3d 4c 4f d4 3d 8f 0d 5f 3d
       0.089536086 0.09285649 0.10366687 0.05445629
000170 d0 7a d4 3d 2e 0c 1c 3e af 2a d0 3d 5a 21 8d bc
       0.10374987 0.15239021 0.10164391 -0.017227817
000180 01 84 0e bd bb fe 59 3d 30 ce dc bc cf 4d f2 bc
       -0.034793857 0.053221446 -0.026953787 -0.029578118
000190 03 c0 31 be c2 a2 93 be af c9 67 be 7d 8f 89 bd
       -0.17358403 -0.28835112 -0.2263553 -0.06716821
0001a0 3b 34 58 bb 7b 5b 30 3e 4e de 03 bc 0d 0d 59 bd
       -0.0032990116 0.17222397 -0.008048607 -0.05299096
0001b0 30 4e 5f be b0 b0 77 be d4 f6 e6 3d 67 1a 46 3e
       -0.2180717 -0.24188495 0.112775475 0.19346009
0001c0 26 ec 5e 3d 1b 91 31 3e be b9 7e 3d 27 09 9c 3d
       0.054424427 0.1734051 0.062188856 0.07618933
0001d0 c7 c5 bc 3d be aa 1f 3d 09 fa 0f 3e 06 5f 2a 3e
       0.092174105 0.03898119 0.14060225 0.16637811
0001e0 af 4e de bc 83 11 9b 3b ed d6 90 bb 19 fc ec 3c
       -0.027137129 0.004732312 -0.0044201524 0.028928803
0001f0 96 36 c6 3c a0 6a 9a bd e1 02 d9 bd 03 b3 b7 bd
       0.02419595 -0.07539868 -0.10596252 -0.08969691
000200 af b6 99 bc d7 0b fb 3c 11 4c 83 bd 8e 8d f4 3c
       -0.018763868 0.030645294 -0.06410993 0.029852655
000210 95 f9 88 bc 6f ac fd bd e9 99 25 be 3b cc 64 bd
       -0.016720572 -0.12386405 -0.16171993 -0.05585883
000220 9a 4d 91 3d 19 97 9e 3d 79 4d d8 3d 8f b8 b7 3d
       0.070948794 0.07743663 0.10561652 0.08970749
000230 52 75 b1 3b 63 81 81 bc 21 9e fa bd ed f8 44 bc
       0.005415597 -0.015808767 -0.12237192 -0.012022239
000240 49 7c 8d 3d 11 33 b9 bc 81 b4 04 bd f9 d1 ce bd
       0.06908471 -0.022607358 -0.032398704 -0.10098643
000250 d0 81 5b be aa 5c 04 be e4 2e 80 3d 0d cf 36 3d
       -0.21436238 -0.12925974 0.06258944 0.044631053
000260 03 1f 44 3d 87 fa 9d 3d ff e4 08 bd 2b 1c 9b bc
       0.047881138 0.077138 -0.033421513 -0.01893433
000270 7b 25 0c 3e c5 cc 27 3c 08 d9 90 bc 33 a3 c2 bd
       0.13686173 0.010241692 -0.017681614 -0.09503784
000280 a4 c5 8d 3d 1a c7 03 3e 16 54 37 3d 9e 2c 11 3e
       0.069224626 0.1286892 0.044757925 0.14177176
000290 82 1c 7c bc 4d 14 81 bb e4 21 84 3d 09 8d 01 bd
       -0.015387656 -0.0039391876 0.064517766 -0.031628642
0002a0 84 22 0e 3d ae 93 34 3d 33 b1 8a bd 19 73 9b 3b
       0.034700885 0.04408615 -0.06772079 0.0047439453
0002b0 62 a0 1c be 81 72 44 be 9c 1d 9f bd a2 b1 1c 3a
       -0.15295556 -0.19184305 -0.077693194 0.0005977397
0002c0 07 8e 4c 3d 1d e5 e7 3d ca f8 46 bd 22 0a 1e 3d
       0.049940135 0.11322997 -0.048577107 0.038583882
0002d0 50 f2 04 3d c5 be 9e bb a2 3a bb bc 8a f8 52 bd
       0.03245765 -0.004844519 -0.022855107 -0.051506557
0002e0 0f d8 42 bd a7 62 ca bd 7a d8 cc bd 70 bc 65 be
       -0.04756933 -0.09882098 -0.10002227 -0.22435164
0002f0 ed e7 66 be ca db 71 be a8 78 72 3d 99 9b 0b be
       -0.2254941 -0.23618999 0.059197098 -0.13633575
000300 46 85 33 be 6e 3f a6 be 8c ae 82 be a2 89 92 3d
       -0.17531309 -0.32470268 -0.25523794 0.071551576
000310 26 de 90 3d 31 47 11 bd 4f 00 d9 bd 54 29 b0 bd
       0.070736215 -0.035468284 -0.10595762 -0.08601633
000320 91 14 b6 bd b4 ec be 3c 94 3e d3 bc 31 d2 a1 bc
       -0.088906415 0.023306228 -0.025786676 -0.019753547
000330 32 61 40 3d c3 c5 d0 bb a7 9d 31 3d d6 ed e7 3d
       0.046967693 -0.0063712313 0.04336324 0.113246605
000340 4d 11 37 bc 2a 4d 6b bd 22 4b 9e 3d 85 86 32 3e
       -0.011173558 -0.057446636 0.07729174 0.17434128
000350 3b 72 14 3e fd 00 ff 3d b0 d8 df 3d d0 5a bb 3d
       0.144967 0.124513604 0.10930002 0.091481805
000360 3a 5e ad 3d 16 97 65 3d ab 38 3b bd 8a 01 ab 3d
       0.08465238 0.05605229 -0.04570834 0.08349903
000370 6d af 65 bd 25 55 bf 3c 27 cd f4 3c e4 17 0b be
       -0.056075502 0.02335603 0.02988298 -0.13583332
000380 67 26 1d be 5c e1 e4 bd 16 73 89 bc c0 54 b0 3c
       -0.1534668 -0.111757964 -0.01677851 0.021524787
000390 1e 76 94 3c ac 6a f4 3d ba ab 26 3d d3 c7 f0 3d
       0.018122729 0.119344085 0.040691115 0.117568634
0003a0 1f b2 4b 3e 3d 2b ae 3d f8 25 9e 3c e1 a8 02 bd
       0.19892167 0.08504341 0.019305214 -0.031899337
0003b0 e2 08 a6 3d 0c 58 be 3d 80 a7 47 3d 57 40 4e 3d
       0.08107163 0.09294137 0.048743725 0.050354328
0003c0 64 a2 18 bd 32 d5 16 3b fa 46 5e bd 2c e7 f3 bd
       -0.037264243 0.0023015258 -0.054266907 -0.11909327
0003d0 88 25 ca bd 1f 9e 40 bc ac 17 fd bc 47 58 90 bd
       -0.0987044 -0.011756449 -0.030895077 -0.070480876
0003e0 e7 32 8c bd 1c 9e 29 be 3c b0 ec bd f8 72 7a 3d
       -0.06845646 -0.1656422 -0.115570515 0.0611448
0003f0 8b 67 cb bd a1 66 24 be 39 89 9f bd 6c ee c3 bd
       -0.09931859 -0.16054775 -0.07789845 -0.0956696

ConvNet.conv2.bias f4 [16]
000000 da 3d c1 bb 31 50 c7 3d 26 0b ab 3c ba 7b 79 3d
       -0.005897266 0.09732092 0.02087934 0.06090901
000010 31 5d 05 bd 5f 99 77 bd 96 a4 62 3a 70 4b 56 3d
       -0.032559577 -0.060449 0.0008645741 0.052318037
000020 56 aa 57 bd a3 91 02 3d ff eb bf 3c 03 31 9f bc
       -0.05265268 0.03187717 0.023427961 -0.01943255
000030 6a 06 21 bd 44 01 41 3c 1f 21 3c bd 04 78 c5 bd
       -0.039312758 0.011780087 -0.045930024 -0.09642032

ConvNet.fc1.weight f4 [120, 400]
000000 0a 19 b6 3c 92 8d 02 3d c1 80 1b 3d 0c aa 2d bd
       0.022228736 0.031873293 0.037964586 -0.042398497
000010 f3 74 0f 3d 93 b7 0d 3d fd ee 4c bd 05 45 ca bc
       0.03502364 0.0345989 -0.050032604 -0.024691114
000020 48 90 2a bd e5 5d 7a 3c e7 d2 39 bc 2d ba 02 3c
       -0.041641504 0.015281175 -0.011341787 0.007978958
000030 79 a9 ee bc 5e 32 22 3d 02 e3 5e bd 09 3a a9 bb
       -0.029133545 0.039598815 -0.05441571 -0.005164389
000040 71 d6 db bc a7 2f 78 bc ad 7a 8f 3a 2e 0e 4c bb
       -0.026835652 -0.01514808 0.0010946594 -0.0031136381
000050 79 eb df bc e8 92 02 bd 43 a3 31 bd fe 86 25 bc
       -0.027333962 -0.031878382 -0.04336859 -0.010102985
000060 bd e8 87 3b 87 6a ac bb 15 5b cc bc 1c ec 95 bc
       0.0041476176 -0.0052617225 -0.024945775 -0.018301062
000070 0a 40 57 bd 9b 56 14 3d b6 47 e2 bc 5b 0b 08 bd
       -0.052551307 0.036215406 -0.027622085 -0.033213954
000080 9f 27 aa 3c 7d 25 9a 3b 58 e5 72 bc f1 8b 94 bc
       0.020770846 0.004704176 -0.014825188 -0.018133136
000090 fe bf 71 bc d5 7b b3 b9 cf 46 69 bd d3 b7 45 bb
       -0.014755247 -0.00034233803 -0.056952294 -0.0030169382
0000a0 0d 14 bf 3b 4d e8 fc bc 75 04 5d bd 62 da 68 bd
       0.0058312477 -0.030872488 -0.05395933 -0.05684889
0000b0 6d 0a 3e bd 85 9d 3b bd a3 54 61 bc 97 ce 3b bb
       -0.04639666 -0.04580452 -0.013753089 -0.0028657073
0000c0 5e e6 08 bb 8b af 01 bd 9d f1 99 bc 96 cf a3 bb
       -0.0020889263 -0.03166155 -0.018791968 -0.0049991114
0000d0 3a 27 91 3c 7e 7b 07 3d 37 ad ce bb 8b 83 17 3d
       0.0177189 0.033076756 -0.00630727 0.036990684
0000e0 94 9d 4e bd 83 75 15 3d 12 1d 8d 3c cc b0 51 ba
       -0.050443247 0.03648902 0.017225776 -0.0007999062
0000f0 05 74 d3 3c d9 d2 aa bb c1 84 c2 3c af 98 03 bd
       0.025812158 -0.0052131233 0.023744943 -0.032128032
000100 b5 97 c7 3c b2 bd de 3c 85 d1 f3 3c a8 d2 ab bc
       0.024364332 0.027190063 0.029762993 -0.020974472
000110 8e ff 58 3c 92 93 82 bc 94 a9 e5 3b 8c a9 64 bd
       0.013244523 -0.015939508 0.0070087407 -0.055825755
000120 f1 26 02 3d 58 b4 1d 3c 5c 13 58 bb ef 88 d9 bc
       0.03177542 0.009625517 -0.0032970523 -0.026554553
000130 47 8d 33 bd 19 6f 88 bc 8b d5 3c 3c 4b ec 41 bc
       -0.043835904 -0.016654538 0.011525522 -0.011836122
000140 f7 0b bb 3c bf 83 47 bd f1 64 9a 3b c8 dc 2b bc
       0.022832854 -0.048709627 0.00471174 -0.01048965
000150 bd 68 2a 3d ee 51 2b 3d 31 4c 49 bd 5a 14 33 bd
       0.041603792 0.04182618 -0.049144927 -0.04372058
000160 94 63 17 3a 33 c6 fc bb aa 4d c3 3c 0b 1f 25 bd
       0.0005775031 -0.007714057 0.023840744 -0.040312808
000170 4c 90 0d bd c1 07 21 3d ad 3f 2b bc 02 5d 96 bc
       -0.03456144 0.039314035 -0.010452193 -0.018354896
000180 85 12 f4 3b bb cb 5f bd 78 1f 08 3d 10 1a 43 bc
       0.0074484968 -0.054637652 0.033233136 -0.011908069
000190 02 74 36 bd 75 10 3a 3b 66 8a 13 bd 6d c6 ea 3c
       -0.044544227 0.0028391157 -0.03602066 0.02865907
0001a0 fb 19 9d 3c 80 93 53 bd e5 b4 28 bd 27 8d 18 3d
       0.019177428 -0.05165434 -0.04118814 0.03724399
0001b0 a2 b1 c1 3c 7b c7 2f 3c ff 8f f2 3c b3 dd 26 bd
       0.023644272 0.010728712 0.029609678 -0.040738773
0001c0 e7 39 79 3b e9 8a c0 bc 6f 6a dd 3b 15 b4 95 3c
       0.0038028897 -0.023503738 0.0067570726 0.018274346
0001d0 35 2f 5a 3c f8 8f 5e 3c 0a 11 42 bc d1 09 86 ba
       0.013316919 0.0135841295 -0.011844883 -0.0010226314
0001e0 e7 ba eb 3c ec 66 d7 bc c8 72 70 3c 4d c2 20 3d
       0.028775645 -0.026294194 0.0146758035 0.0392478
0001f0 6f 6c 02 bd e2 1a 4d bd 04 35 69 bd 6c 0d 26 bd
       -0.03184169 -0.050074466 -0.056935325 -0.040540144
000200 08 0f 48 bc 39 0d 94 bc cd d8 49 bd e7 12 e0 3b
       -0.012210615 -0.018072711 -0.049279023 0.006838191
000210 22 45 40 bd 21 6a 9a 3c a3 9d 27 bd b7 1d 19 bc
       -0.04694093 0.018849434 -0.04092182 -0.0093454635
000220 67 58 b4 bc 38 d6 df 3c 7c 10 6e bd 60 e5 cf 3c
       -0.02201481 0.027323827 -0.05812119 0.02537793
000230 b8 0b f7 3c d1 37 bc 3c 42 66 20 3d e4 f8 75 3b
       0.030156955 0.022975834 0.03916002 0.0037532384
000240 99 81 63 3c d9 6f 43 bc 7e 47 01 3d 22 9f df bc
       0.013885879 -0.011928522 0.03156232 -0.02729756
000250 3d 6c 54 bd 7f 7a 12 bd a8 b0 22 3b 92 ae ba bc
       -0.051861037 -0.035761353 0.0024824534 -0.02278832
000260 5d b1 0f bd f2 81 4b bd ef 60 30 3c 13 21 30 bd
       -0.035081256 -0.049684472 0.010765298 -0.043000292
000270 4f 08 88 3b 45 43 50 bd 3e e6 24 3d 01 1a 86 bb
       0.004151381 -0.050845403 0.04025864 -0.0040924554
000280 d6 08 5e bd 66 7b 0a 3d 4f d4 03 bc 3b 72 4c bb
       -0.054207645 0.03380909 -0.008046224 -0.0031196016
000290 e2 52 19 bd b2 3e 5c 3c ac a5 e8 ba f1 8d a6 3c
       -0.03743256 0.013442682 -0.0017749569 0.020331355
0002a0 8a bf 03 3c 40 82 0d bd 99 5f 07 3c 55 32 9f 3c
       0.008041272 -0.034548044 0.008262538 0.01943318
0002b0 4f 56 61 3c b6 f6 8f bc ab b7 2a bd 2f 02 57 bd
       0.013753488 -0.017573696 -0.041679066 -0.052492317
0002c0 72 84 e6 3a 14 92 92 bb b6 4f c4 3c 1a 83 cd 3c
       0.0017587079 -0.0044729803 0.02396379 0.025086928
0002d0 08 7a 4d bd cc 6f ca bc 49 09 f0 bc 55 8b 6c bc
       -0.050165206 -0.024711512 -0.029301303 -0.014437516
0002e0 92 81 ae bc 93 9f de 3c 9b b5 ec bb d2 5e 16 bd
       -0.021302018 0.0271757 -0.0072237975 -0.03671152
0002f0 1e 0c cc 3c 1a 56 0e 3c 1a 5d 2a 3d aa 38 96 3c
       0.024908122 0.00868752 0.041592695 0.018337566
000300 6b 4b 9b 3c 4e b7 c1 bc af 52 b8 bc 83 91 d8 bc
       0.01895686 -0.023646977 -0.022500364 -0.026436573
000310 b5 65 0b bd ff 3a aa 3c 4b 69 d7 bc 99 21 1d bc
       -0.034032542 0.020780085 -0.026295325 -0.00959053
000320 af a8 4f ba e4 46 25 3d fb ac 1c 3d 55 58 2c 3d
       -0.0007921559 0.04035081 0.038250905 0.042076427
000330 c0 f0 e9 bb b6 55 9c 3c 6c c4 38 3d 54 16 ed bc
       -0.0071392953 0.019083839 0.045109197 -0.028941311
000340 b0 78 be 3c 43 3d 91 bc 55 fc 50 3d c8 39 b8 3b
       0.023250908 -0.017729407 0.051021893 0.0056221224
000350 9d a6 b1 3c 03 bc 11 bd 06 c3 57 bd af 52 8e bc
       0.021685893 -0.035579693 -0.052676223 -0.017373411
000360 af 64 b1 3c 33 aa 88 3a 2a 43 9d bc 65 96 c7 3c
       0.021654455 0.00104267 -0.019197065 0.024363706
000370 54 31 36 bc ed 73 4d 3c d0 e4 44 bb 0d e9 2a bb
       -0.011120159 0.012539846 -0.003004361 -0.002607885
000380 0e ec 25 bd af 36 0b bd 75 81 11 3b 97 28 a6 3c
       -0.040508322 -0.033987697 0.0022202407 0.020283027
000390 ef 70 19 bd df 4a 94 bc ea c1 08 3c c7 c9 49 bd
       -0.037461217 -0.018102108 0.008347014 -0.049264695
0003a0 f6 7c 96 3b ca d3 48 bd 24 a6 50 bd 65 ac 3b bd
       0.004592533 -0.049030103 -0.050939694 -0.045818705
0003b0 08 53 4a bd 8b 61 77 bc 9e 5e 2f bd 59 2a c6 3b
       -0.04939559 -0.01509894 -0.042814843 0.0060475287
0003c0 45 cb e1 3a 3e b8 01 3c 37 c2 c8 3c 29 5f d8 bc
       0.0017226717 0.007917462 0.024506671 -0.026412563
0003d0 fe 09 20 bd 55 46 b0 bc 96 63 46 bb b8 11 b8 3c
       -0.03907203 -0.021517912 -0.003027176 0.022469386
0003e0 ab 8c 34 3d 43 a0 29 bd fc 30 d6 3c 49 9c e5 3c
       0.044079464 -0.041412603 0.026146404 0.028028624
0003f0 7e bb 6b bb 68 bf ea ba 3f 29 9e bc 4f ad bd bc
       -0.0035969908 -0.0017909827 -0.019306777 -0.023153929

ConvNet.fc1.bias f4 [120]
000000 e2 c4 36 bd ac 7e 00 bd bf 6e ac bc 41 86 d2 bc
       -0.044621356 -0.031370804 -0.021048902 -0.025698783
000010 9c 60 98 3b 6b 18 db 3c b2 ff 93 3c 76 92 b1 3c
       0.0046501886 0.026745042 0.018066261 0.021676283
000020 f0 20 e7 bc bf 6a 01 3d a0 fb 9b 3c 77 88 35 3d
       -0.028213948 0.03159594 0.019040883 0.044319596
000030 fa 7d a5 3c 22 56 ad bd 0e a7 7b 3b dd c5 fc bc
       0.020201672 -0.08463694 0.0038399133 -0.030856067
000040 8b ff 75 3b c0 ef 63 bd 7f 4e c3 3c 66 99 c2 bc
       0.0037536349 -0.055648565 0.02384114 -0.023754787
000050 53 1a 47 3d e3 6f 90 bd 35 46 e3 3b b0 4e 56 bc
       0.04860909 -0.07052591 0.0069358596 -0.013080284
000060 2e a4 7a 3d a4 dc cc bc dd c3 5f 3d 5b fd f5 bc
       0.06119173 -0.025007553 0.05463015 -0.030028036
000070 91 21 97 bb 3e da a6 bc e0 d7 0e ba 7f e6 5c 3d
       -0.0046121557 -0.020367738 -0.0005449038 0.053930756
000080 f9 53 b8 bb c9 8c 21 3d ef 4e 3e bd 88 07 41 bc
       -0.0056252447 0.039440904 -0.046461996 -0.011781581
000090 62 d6 ae bc 3e 26 24 3d 44 74 6f ba 92 92 02 bd
       -0.02134246 0.040075533 -0.00091344514 -0.03187806
0000a0 18 63 3c 3c cd 7b ae 3b dd 21 d9 bc b4 43 22 bb
       0.011498235 0.005324817 -0.026505405 -0.0024759592
0000b0 fb 75 27 bc b6 5d 8e 3d 0d c0 04 3c 9a ab 40 3d
       -0.010221 0.06951468 0.008102429 0.047038652
0000c0 21 0e 22 bc 7c c7 ac 3c 02 4c ba 3c 94 2b 01 bd
       -0.009891064 0.021091215 0.022741321 -0.0315357
0000d0 1c 8d c9 bc 79 af 24 3d a6 3d 49 bd d4 29 50 bd
       -0.024603419 0.040206406 -0.04913106 -0.05082114
0000e0 8b 0c 19 bd 70 47 37 3d 3b fb 46 3d 5b bf f3 bc
       -0.037365478 0.044745862 0.048579436 -0.029754331
0000f0 e5 42 39 bd 6d c4 21 bd 43 7d 06 3d 5b 2d 0b bd
       -0.04522981 -0.039493967 0.032834303 -0.0339788
000100 59 86 5e bd e7 0a b7 3a af de 1e 3c 18 62 52 3c
       -0.054327343 0.0013965041 0.009696647 0.01284077
000110 fd 48 b5 3b a2 b1 a5 3a 66 24 9b 3d 1e 1d bd 3c
       0.0055323825 0.001264144 0.07575302 0.023085173
000120 f3 50 90 bc 93 8f 77 ba 66 d5 39 bd 42 f0 04 bd
       -0.017616725 -0.00094436965 -0.04536953 -0.03245569
000130 40 6d 39 3d 6d 83 2d 3d dc d4 53 bb 3f e4 89 bc
       0.045270205 0.042361666 -0.003232292 -0.016832469
000140 ad a5 e0 3c 13 98 a2 bb fe 53 72 bd 9c 4b 4b 3d
       0.02742275 -0.0049619763 -0.059162132 0.049632654
000150 09 a3 9e 3d 6b 5d 42 bc 31 f3 60 3d 11 20 86 bc
       0.0774594 -0.011863093 0.054919425 -0.016372712
000160 d2 1c 1c 3d 7a e1 8f bb 25 ee 85 bc 6b 29 fd 3c
       0.038113423 -0.0043908926 -0.016348908 0.030903539
000170 c6 ef 74 bd 9f 1e cd 3c 2d d5 fc 3c 6e 7c 3b bd
       -0.05979898 0.025039015 0.030863369 -0.045772962
000180 dd 60 13 bc f0 96 35 bc 40 c2 e9 bc 68 ae a7 bd
       -0.008995262 -0.01108335 -0.028535008 -0.08187562
000190 fe 5e 98 3c a3 23 66 bd f6 b5 b9 3b 7c 1c 47 bd
       0.018599983 -0.05618633 0.0056674434 -0.04861115
0001a0 99 a7 63 bd 19 a1 5b bd 1b b7 fe bb 84 d3 6b 3b
       -0.055579755 -0.05362043 -0.0077732927 0.0035984227
0001b0 e4 75 0a bd ab 79 0c bd 57 fe 39 bd 22 30 3d bd
       -0.033803836 -0.03429572 -0.045408573 -0.04618848
0001c0 0f 4d 63 bd 0d da 27 3d fa a4 8f 3c 71 c1 46 bc
       -0.05549341 0.040979434 0.017534722 -0.012131081
0001d0 46 53 23 3d 5f 21 06 bc c8 5f c1 bc bd 9b 17 bd
       0.039874338 -0.008186667 -0.023605242 -0.037013758

ConvNet.fc2.weight f4 [84, 120]
000000 65 d6 38 3d b4 88 f5 3c f9 a5 8d bd cd c1 7d 3d
       0.045126338 0.029972412 -0.069164224 0.0619524
000010 c0 7d 31 3c dc 83 35 3d 80 56 84 3d c3 d4 5b 3d
       0.010833204 0.044315204 0.06461811 0.053669702
000020 17 bd d7 bd 22 eb a7 3c a9 94 07 bc 3c 53 ba 3d
       -0.10534113 0.020497862 -0.008275189 0.09097907
000030 03 a5 45 bd 28 66 88 bc 7b 11 3e bd 7e f7 c9 bd
       -0.04825307 -0.016650274 -0.04640339 -0.098616585
000040 30 23 90 bc 3e 44 cb 3b b9 26 64 3c f4 39 8e 3c
       -0.017594904 0.0062032035 0.013925248 0.017361619
000050 67 5c a4 3c a8 b7 8e bc 22 e0 98 3d f7 f7 84 bd
       0.020063592 -0.017421558 0.07464625 -0.06492608
000060 57 c6 ac 3d 61 df 0b bd 79 c8 c9 3d e5 28 95 bd
       0.08436268 -0.034148578 0.0985269 -0.07283191
000070 d9 e2 21 3e 1f d3 85 3d 5c 0a 28 3c 16 ea 20 bc
       0.15809192 0.06534409 0.010256376 -0.009821435
000080 22 42 3f 3d fe 5c 74 bd 89 a2 a5 bc 02 44 fe 3d
       0.04669393 -0.059658997 -0.020219104 0.12415315
000090 85 08 3c bd 64 3d bf 3d b1 30 8f 3d b6 5b 9c 3d
       -0.045906562 0.09337881 0.06991709 0.0763468
0000a0 e6 62 c8 3d 94 21 72 bc 65 0c 16 bd 19 7f 91 3d
       0.097844884 -0.014778513 -0.036632914 0.0710432
0000b0 a2 24 f7 3c 92 df cd 3d d8 b6 86 bd ee df a4 3d
       0.030168835 0.10052408 -0.065778434 0.08050524
0000c0 42 d4 27 3d e5 d9 40 3a df b5 b9 3d 00 c1 a6 3d
       0.04097391 0.00073566876 0.09067892 0.081422806
0000d0 d7 fc f0 bc 20 1b 8b bd e0 de c0 bd 08 03 94 3c
       -0.029417438 -0.06792283 -0.0941751 0.018067852
0000e0 af 79 9d 3d a4 42 84 3d c3 6f 91 3d 6a 1c 40 bd
       0.07689225 0.06458023 0.07101395 -0.046902098
0000f0 a4 9d 8b 3d e4 6a 33 3d 1b 64 a4 bd 50 b7 90 3d
       0.06817177 0.04380311 -0.08026906 0.07066214
000100 8a 4b 8e bd 3d 2f 9e 3d 67 c5 cf bd bd e3 d4 3a
       -0.06948002 0.07723854 -0.101450734 0.0016242188
000110 41 e3 6a bd c0 cc c6 3c 2b 81 dc 3d 6e 15 aa bc
       -0.057345632 0.024267554 0.10766824 -0.020762172
000120 1f 84 58 bd e0 9c 34 bd 55 f0 aa 3d ff 43 19 ba
       -0.052860375 -0.04409492 0.08346621 -0.0005846619
000130 bc b5 09 bd fb 16 13 bc b8 de fd bb aa 56 d3 3c
       -0.03362058 -0.008977647 -0.0077474974 0.02579816
000140 11 ed e0 bc d9 ae 22 bd 6d 39 5a 3d 4a 79 cb bd
       -0.027456792 -0.03971753 0.05327742 -0.099352434
000150 48 4a 55 bc 35 70 71 3c 55 56 bf 3c e0 fc ee bc
       -0.013018198 0.014736225 0.023356596 -0.029173315
000160 6c 72 76 3d 49 76 7c bc 78 ad 89 3d 4e d7 cc 3d
       0.060167715 -0.015409061 0.0672254 0.100020036
000170 81 f2 06 bd 16 e7 34 bc 80 46 a6 3c d8 66 a1 bd
       -0.032946113 -0.011041423 0.020297289 -0.07880944
000180 3a b4 d8 3d 02 b6 9f 3d 8c 7d 9d bd a9 3b 53 bd
       0.105812505 0.07798387 -0.07689962 -0.05157057
000190 bb db 9f 3d 2d ab 9a 3c 93 70 d7 3c 27 56 a3 bd
       0.07805582 0.018880451 0.026298797 -0.07975417
0001a0 4b 06 ed bc 7f 05 59 bc 41 dc 19 3d 73 e7 91 bd
       -0.028933665 -0.013245939 0.037563566 -0.071242236
0001b0 5d 74 99 bd b7 df 39 3d ac 5e 05 bc c7 8b 1f 3d
       -0.07492898 0.045379367 -0.008140247 0.03895166
0001c0 63 8e 84 3d ba 6b 3b 3d 5e 4f 06 3d 4d 9b 94 3d
       0.064724706 0.045757033 0.032790534 0.07256184
0001d0 75 06 d5 bc b9 f7 1a 3d 29 62 91 3d 17 5a 5c 3d
       -0.026004056 0.037833903 0.07098801 0.053796854
0001e0 7a b0 ea 3c e0 a9 a6 3d cb e8 c6 3d 56 4a 22 3d
       0.028648604 0.0813787 0.097123705 0.039621674
0001f0 30 70 42 3c e3 c7 10 bd c9 e4 56 3d 2a 26 1b 3e
       0.011867568 -0.035346877 0.05246428 0.15151277
000200 30 44 72 3d 91 6e b0 bd 83 66 75 bc 2e 30 c7 3d
       0.05914706 -0.08614839 -0.014978054 0.097259864
000210 6b 2f 87 bd 77 1c 8a bd c3 79 2c 3d 60 5b 94 bb
       -0.06600841 -0.067437105 0.04210831 -0.0045274943
000220 02 45 8b 3d a5 ba 92 3d 01 ab 2d bd ec 37 44 bd
       0.068002716 0.07164506 -0.04239941 -0.047904894
000230 5b 4a 90 bd 1b 35 a9 3d 26 f0 eb 3d fe 85 9f 3d
       -0.07045432 0.08262082 0.11520414 0.07789229
000240 20 26 69 3c 4d 07 dd 3c 98 16 95 3b 9e c7 87 bd
       0.014230281 0.02698102 0.0045498125 -0.06629871
000250 a3 4b b7 bd 9f 41 86 bc 3f e0 f3 bd fa 99 bc 3d
       -0.089499734 -0.016388712 -0.11908006 0.09209056
000260 1d 39 56 bc 78 33 8a 3d 12 f4 16 3d 10 ed 89 3d
       -0.01307514 0.06748098 0.036853857 0.06734669
000270 50 00 09 bd 7f 04 12 3d bb ad f9 bd b7 60 b2 3c
       -0.033447564 0.03564882 -0.121913396 0.021774633
000280 e6 3b ba 3c 1b 82 a7 bc e3 6b d7 bc 5a 9c ba bd
       0.02273364 -0.020447781 -0.026296562 -0.09111853
000290 ff 77 32 3d ab e5 93 bd fd 89 c2 bd 9d 72 e0 3d
       0.04357147 -0.0722154 -0.094989754 0.10959361
0002a0 fa 44 79 bc f0 8f 93 3d 1b c1 c5 bb c8 28 cd bc
       -0.015214199 0.07205188 -0.006034983 -0.02504386
0002b0 a7 74 01 3e b8 40 33 3d 24 16 72 bc a9 b0 46 bd
       0.12642156 0.043762892 -0.014775787 -0.04850832
0002c0 48 36 59 bc 11 0a c7 3c d1 81 8d bd d9 d5 b0 3b
       -0.013257571 0.024296792 -0.06909526 0.0053965864
0002d0 9a c9 da 3b df 4b 22 3d fd 80 1f 3b 9a 24 2c 3d
       0.006676865 0.039623138 0.0024338358 0.042027093
0002e0 7f ea c5 bd e8 8f 9f 3d a1 f9 fb 3d dc 56 81 3d
       -0.09663867 0.0779112 0.12303472 0.06315395
0002f0 e4 2e b3 bd ca dc 94 3d 0e b6 54 3d cf 75 42 bd
       -0.08749178 0.07268675 0.051931433 -0.047475632
000300 1a 5d 42 bd 98 b6 4c bd 2c c4 6b bd f8 e3 a7 bd
       -0.04745207 -0.049978822 -0.05756013 -0.081977785
000310 6d 79 ec 3b b0 b7 41 3c be 51 7c 3d 0b cb 5c bd
       0.0072166235 0.01182358 0.061601393 -0.053904574
000320 89 cc cd 3d 1d 08 61 3c d1 d4 ca bd 4a 62 9e 3d
       0.100487776 0.0137348445 -0.09903873 0.07733591
000330 3f a4 0a 3e 2d e3 30 3c 0d da 02 3c a4 2a 34 3d
       0.13539217 0.01079635 0.007986558 0.043985978
000340 8a 74 50 bd fb 96 9d 3d 56 60 c0 bc 65 55 55 3d
       -0.05089239 0.07694813 -0.023483437 0.05208339
000350 e3 96 19 bd 33 f4 0c 3e 03 ff 95 3d e7 a4 89 3c
       -0.037497412 0.1376503 0.0732403 0.016802264
000360 3f eb 64 bd 80 0e 0e 3d 62 c8 f6 bc 06 7e 16 3d
       -0.05588841 0.034681797 -0.030124847 0.03674128
000370 ad 82 97 bd 29 f9 be bd 89 a0 79 bd 48 d5 77 3d
       -0.07397971 -0.09324867 -0.060944114 0.060506135
000380 c2 43 6e bd a7 34 98 bd d2 45 53 3d 52 08 ab bb
       -0.058170088 -0.07431918 0.051580258 -0.0052194977
000390 09 ab b4 bc 90 91 83 3d a8 be 9b 3d 7b 5d f1 3c
       -0.022054212 0.06424248 0.07604724 0.02946352
0003a0 83 e2 9c bd 59 13 f1 3d 67 20 52 3d 7b f2 6b bd
       -0.07660391 0.117712684 0.051300433 -0.057604294
0003b0 9b 6b 93 bc 59 7e 91 bd 08 6d 0d bc 1f bb 7e 3c
       -0.017995646 -0.07104177 -0.008631952 0.015547543
0003c0 a9 ad 29 bc ce d2 86 bd a5 0b 30 bd e0 a1 f7 bc
       -0.010356345 -0.065831766 -0.042979855 -0.030228555
0003d0 bf 8d a2 bd 3d d4 b4 3c dd 44 04 bd 36 9e ce 3d
       -0.07937192 0.02207386 -0.032292236 0.1008877
0003e0 7b 15 f5 3c dc 4d a7 3d f6 46 ae bc cf 08 54 3d
       0.02991747 0.08169147 -0.021274071 0.051766213
0003f0 0c e5 af 3c c9 a7 cd 3d 16 41 85 bd d7 c0 45 bd
       0.021471523 0.10041768 -0.06506555 -0.04827961

ConvNet.fc2.bias f4 [84]
000000 79 7e ca 3d 08 cd c3 bc ac 55 f4 bc 4c b6 a5 3a
       0.09887404 -0.023901477 -0.029826008 0.001264283
000010 df 4e 97 3d dd e9 83 bc 54 5b 4a bd 3d c7 5f bc
       0.0738809 -0.016102726 -0.049403504 -0.013658342
000020 f6 68 c4 bc cc c5 52 3d 1f 48 9c bd c3 b4 49 bd
       -0.02397583 0.051458165 -0.076309435 -0.049244653
000030 92 8f b6 3d 3d c3 ed bc 15 53 40 3d f1 40 5c bb
       0.089141026 -0.02902376 0.046954233 -0.0033608044
000040 c9 c8 48 3d e4 87 ec 3d 70 3c a9 3d b9 8e 4f bd
       0.04901961 0.115493566 0.08263481 -0.05067322
000050 5b 2f e0 3d c5 8a 7e 3c c3 92 38 bd 4e f9 42 bd
       0.10946532 0.015536015 -0.045061838 -0.047601037
000060 8a ef 25 bc fd a4 bf 3d 8e ce 54 3d ed 2a d1 bd
       -0.010127911 0.09357641 0.0519548 -0.102132656
000070 67 8b 25 3d fc 8e 3d bd 65 f9 9d bd 32 71 a3 bc
       0.040416148 -0.04627894 -0.07713584 -0.019951437
000080 92 1b 22 3d 7b 01 d4 3d 61 05 30 bd 9c e3 9d 3d
       0.039577074 0.10351845 -0.04297388 0.07709429
000090 3e 5c 3b 3c 7f c2 56 bc f3 bb 96 3d f4 19 7a bd
       0.0114355665 -0.013107895 0.07360067 -0.061059907
0000a0 43 a8 a7 3d d8 69 23 3c 6b 00 8c 3d 52 4f 54 3d
       0.0818639 0.009973966 0.06836017 0.05183346
0000b0 b6 56 ee 3c 58 6e ac bd 22 9c 85 3d 20 29 f5 3c
       0.029094081 -0.08419484 0.065239206 0.029926836
0000c0 ba ee a5 3d 14 3d e6 39 47 7b aa 3d a4 de 8a 3d
       0.08102174 0.00043914525 0.083242945 0.067807466
0000d0 df 4d 66 3a 7d be 3d 3d 6f 1e b6 bd b6 22 84 bd
       0.00087854074 0.046324242 -0.088925235 -0.06451933
0000e0 ff 49 b4 3d ca 93 19 bd 67 0c b9 3c 0b fc 27 bd
       0.08803176 -0.03749446 0.022588922 -0.04101185
0000f0 d0 55 31 3d a0 b7 7f bd 6f 08 c1 3d e5 9f f8 3c
       0.043294728 -0.062430978 0.09425437 0.030349681
000100 38 90 2f bd 4f ff 4f bd 60 dc 94 bd ac 14 45 bd
       -0.042862147 -0.05078059 -0.07268596 -0.048115417
000110 97 84 0d 3d a0 89 9b 3d 59 af 0c 3d 54 b7 59 bd
       0.034550276 0.07594609 0.034346912 -0.05315335
000120 13 0f a8 3d 0e 64 8d bd 7b 32 de 3d 56 11 91 bd
       0.08206 -0.069038495 0.10849472 -0.07083385
000130 19 7f 39 3d 22 af 1a 3d 08 a0 27 bd 9e c9 b6 bd
       0.045287225 0.037764676 -0.040924102 -0.08925174
000140 ac 9d 9e 39 a1 2b 48 bd 54 bc 7e 3d c1 e5 ad bd
       0.00030253583 -0.048869733 0.062191322 -0.08491088

Output.fc.weight f4 [10, 84]
000000 64 8f 31 3d de f8 c8 3d 81 80 8a 3d 60 19 7d bc
       0.04334964 0.09813093 0.067627914 -0.015447944
000010 14 9d 67 bc d3 0d 2e be 83 59 7f bd cd f9 f8 bd
       -0.014136571 -0.16997461 -0.062341224 -0.12157021
000020 ba 98 29 bc 38 05 14 3c cc 75 6c 3d f0 5e a0 bd
       -0.010351354 0.009034447 0.057729527 -0.07830608
000030 62 b8 28 be 56 b9 f5 bc 3f 81 6f bc f3 d8 32 39
       -0.16476586 -0.029995602 -0.014618217 0.00017056223
000040 85 54 0b 3e 46 d9 1a bd 7c 65 59 3d 11 94 f8 bd
       0.1360646 -0.037804864 0.0530753 -0.121376164
000050 b3 1d 55 be cf bf 13 3e e7 b5 c9 bd 90 79 fd 3d
       -0.2081211 0.14428638 -0.09849148 0.12376702
000060 1c 18 e3 3d 6c 09 91 bc 59 ee 8e 3d ee 4f f4 bc
       0.11088583 -0.017704688 0.06979055 -0.02982327
000070 0d 70 01 be b3 3d f5 3b e4 34 95 bc f6 58 41 bc
       -0.126404 0.0074841618 -0.018213697 -0.011800995
000080 0d 36 52 bd b6 a1 6e 3d 68 35 e6 3d 57 6a aa bd
       -0.051321078 0.05825969 0.11240655 -0.08321064
000090 3b af 03 3e 76 6f 17 bd bb 00 66 bd a1 55 41 bd
       0.12859814 -0.03697153 -0.05615304 -0.047200803
0000a0 b0 3c 29 be 4c 89 04 3d e1 eb df bd 50 b6 5a bd
       -0.16527057 0.0323575 -0.10933662 -0.053396523
0000b0 3b bf fa bd ad 51 f0 3c f8 84 0a bd c1 b9 0a bd
       -0.122435056 0.029335821 -0.033818215 -0.033868555
0000c0 13 72 0a be 8a 2c f3 bc e4 90 95 bd 87 b5 16 3d
       -0.13520078 -0.029684324 -0.07303026 0.03679421
0000d0 d1 9d f4 bc 4d 37 4c 3d 7d f1 f5 bc b3 5e b2 3d
       -0.029860409 0.049857426 -0.030022377 0.08709469
0000e0 e6 86 5e bd 39 be 41 bd 60 22 79 3d 80 3e 91 3d
       -0.054327868 -0.04730055 0.0608238 0.07091999
0000f0 3e 83 c8 bc d9 95 c5 bc a3 7f 22 bd f7 7c b3 3d
       -0.024476644 -0.024119304 -0.039672505 0.087640695
000100 08 b3 92 3c c5 b9 b0 3d fa 23 07 be 8b b6 ec bc
       0.017907634 0.08629183 -0.13197318 -0.028895637
000110 b2 98 42 be 08 3a 77 3d 7b ac 94 3d 4e 64 b6 3c
       -0.19003561 0.060358077 0.072594605 0.022264626
000120 51 ba 64 3d 5c 05 27 bd cb 88 34 be b1 de dd 3d
       0.055841748 -0.040776595 -0.17630307 0.10833491
000130 55 32 02 3e b3 65 e1 3b 4f df eb bd 1f df a0 bd
       0.12714513 0.0068785786 -0.11517202 -0.07855057
000140 a4 87 b1 bc 50 f3 b3 3d d4 02 a7 bd 17 16 9f bd
       -0.021671124 0.087866426 -0.08154836 -0.07767885
000150 66 7c eb 3d 94 65 1a be 84 89 e1 bc 4a c2 b1 3d
       0.114983365 -0.15077811 -0.027531393 0.08679636
000160 95 6f 42 be e0 45 4e 3d b1 cc f2 3d 3a ce 73 3d
       -0.18987878 0.050359607 0.11855448 0.059522845
000170 6f 4b e1 bd c4 a7 4a 3d 28 c3 ae bd 14 61 01 bd
       -0.11000716 0.0494764 -0.08533317 -0.03158672
000180 59 d6 eb bc 4a 27 b6 bd d3 a5 1a be cd e1 13 bd
       -0.028788732 -0.088942125 -0.1510232 -0.036104012
000190 31 94 f2 bc 38 1d a0 3d 7e d8 bd 3d 95 5c c7 bc
       -0.029611679 0.07818073 0.09269808 -0.024336139
0001a0 63 45 03 3e 25 9c c5 3c ed 5c e3 bd be 23 e3 3d
       0.12819438 0.024122307 -0.111017086 0.11090802
0001b0 9c bb b8 bd 7d 4c 97 3d 7f 0c a9 3d a4 d2 b9 bc
       -0.09020159 0.07387636 0.082543366 -0.02268345
0001c0 be 11 60 3d 63 1a d4 3d a5 3c ea bd 9e 03 b5 3d
       0.05470442 0.10356595 -0.11437348 0.088385805
0001d0 ca 34 f1 bd 6e 41 10 be 26 18 da 3d cb ba 9f 3d
       -0.11777647 -0.1408746 0.10649137 0.077993
0001e0 be 13 c0 ba 30 71 19 3c a8 97 47 bd c0 6f 13 bd
       -0.0014654321 0.009365365 -0.048728615 -0.035995245
0001f0 e3 56 ac bd fb 53 ed bd 1e f9 d2 3d 6d 42 05 3e
       -0.0841501 -0.11588284 0.103014216 0.1301362
000200 96 7a ac 3d a0 2f 35 bd 4c 8b ca 3d 58 a7 1e be
       0.08421819 -0.044234872 0.0988985 -0.15493524
000210 02 40 5b bd 81 d6 6b 3b 62 59 1f bc 98 a7 bc bd
       -0.05352784 0.0035986009 -0.0097259 -0.092116535
000220 9f 57 28 bc 31 3e 8e 3a 72 69 92 3d ef 47 6f bd
       -0.010274797 0.0010852275 0.07149018 -0.05841821
000230 00 92 8d 3d 1b ae 99 bc ac df 45 be e6 54 d0 bd
       0.06912613 -0.018759778 -0.19323605 -0.10172443
000240 e4 3c d5 3d ce ec 8e bc 8f ad 03 3e c1 6f 38 3c
       0.104120046 -0.017446902 0.12859176 0.011257113
000250 17 44 52 3c 24 04 09 be 9d 9c 13 be 75 36 87 bd
       0.012833617 -0.13380486 -0.14415212 -0.06602184
000260 47 e5 49 3d ea 95 1e 3d d0 ee c6 bd 2a c2 1f 3d
       0.04929092 0.038717188 -0.097135186 0.03900353
000270 be 40 ec 3d 1d 46 d3 bd 05 72 61 bd 3a 8a 39 bd
       0.11535786 -0.103161074 -0.055040378 -0.04529784
000280 a7 0f 9f 3d 9f 29 2a 3d fa 9f 8e bd 09 6f 7a 3c
       0.07766657 0.0415436 -0.06964107 0.015285262
000290 6f 79 6c 3d a1 49 ee bd 9d a1 2a bd 24 a7 b0 bd
       0.057732996 -0.11635137 -0.041658033 -0.086256295
0002a0 03 82 90 3d 4e 42 53 bd f7 8a 8f 3d 73 a3 8b 3d
       0.07056048 -0.051576905 0.07008927 0.06818285
0002b0 e6 1b 8a bd 47 7b 9a 3d 91 bf c6 bd df a4 50 bc
       -0.067436025 0.075430445 -0.09704507 -0.012734621
0002c0 7a a8 11 3e 48 f7 35 bd aa e6 a5 3c cc 1e 0e be
       0.14224425 -0.04442528 0.02025159 -0.13878936
0002d0 42 f1 f8 bd 8e b4 2f bd 54 a8 d9 bd c0 96 54 3d
       -0.12155391 -0.0428968 -0.10627809 0.05190158
0002e0 2d 41 c4 bd 4c 28 88 3d 60 a4 b6 3d d6 c8 55 3c
       -0.09582744 0.06648311 0.08918071 0.013048371
0002f0 3a d6 b2 bd d3 15 02 be 21 5b 2e be ce 98 08 bd
       -0.08732267 -0.12703638 -0.1702695 -0.03334885
000300 1d 14 8d bd 06 93 f4 bd 73 12 bc 3d d7 a5 b3 3d
       -0.06888602 -0.11942105 0.091832064 0.08771866
000310 bf 1f f1 3d fd 9d 95 3d b7 77 2a 3d 4d 3b 08 3e
       0.11773633 0.073055245 0.041618075 0.13303871
000320 7b 6a 91 bd 27 1e d4 bd 35 07 17 bd 43 24 93 3d
       -0.07100388 -0.103573136 -0.036872108 0.07184651
000330 c9 62 de 3d 52 bb d4 bd 79 2f b7 bd 83 6d 90 bc
       0.108586855 -0.10387291 -0.089446016 -0.017630344
000340 dd a8 f3 3d 78 87 aa bd 76 8f 74 3d e5 af c6 bd
       0.118974425 -0.0832662 0.059707128 -0.09701518
000350 71 58 22 be 19 d0 01 3d 8a af b1 3d 3e 47 1e be
       -0.1585405 0.031692598 0.086760595 -0.15456864
000360 09 7d ab 3b 9f b8 57 be ae b3 da 3d 7c 2d 78 bd
       0.005233411 -0.21066521 0.106788024 -0.060590252
000370 3c 45 13 3d c5 39 a3 bd 38 f7 65 bd 38 50 be 3c
       0.0359547 -0.07970003 -0.05614397 0.02323161
000380 b1 8c 9a 3d 8b 2d ad 3d d7 0e 90 bc 4f 7c ec bc
       0.07546366 0.08455952 -0.017585201 -0.028867869
000390 78 2b d5 bd 16 96 04 3e 28 05 a6 3c a1 47 30 3d
       -0.10408682 0.12947878 0.02026613 0.04303706
0003a0 31 54 a8 bd ba 6e ad bd 1c d9 8a ba b4 22 51 3c
       -0.08219183 -0.08468385 -0.0010593268 0.0127646215
0003b0 08 e4 e0 bd c0 39 03 be a0 c5 0a 3e 57 c7 c8 bd
       -0.109809935 -0.12814999 0.1355195 -0.09803646
0003c0 a7 d5 25 bd d4 09 4d 3d 94 e5 ff bd 35 a7 96 3c
       -0.040486958 0.0500582 -0.124949604 0.018390277
0003d0 7a 7a 57 bd 80 2e 32 bd 8f 7c 15 be 81 da 04 bd
       -0.052607037 -0.043501377 -0.14598297 -0.032434944
0003e0 79 14 bb 3d e7 af 5c 3c df 80 1f 3b 80 1c 91 3c
       0.09134764 0.013469673 0.0024338288 0.017713785
0003f0 ee 30 a5 39 62 da e3 bd 5e c5 d1 3c da 8e 8a bd
       0.00031507708 -0.111256376 0.025606807 -0.06765528

Output.fc.bias f4 [10]
000000 83 30 da bd 2c e9 4c bd ea b1 c3 3c 86 3f c4 bd
       -0.10653784 -0.050027058 0.023888547 -0.09582429
000010 4e 63 30 3d ca 29 8c bd d4 35 67 bb cf 34 51 bb
       0.043063454 -0.06843908 -0.0035279887 -0.0031922346
000020 c0 bc 84 bd 0c d1 c5 3c
       -0.06481314 0.024147533
