tutorials/W1D2_ComparingTasks/RR/models/ConvNet_autoencoder_100_epoch_8.pth (torch, 506458 bytes, 19 tensors)

encoder.conv1.weight f4 [6, 1, 5, 5]
-0.14261621 -0.1474569 0.010061156 0.16500708 -0.16725215 0.10769508 0.104876034 -0.016801173
-0.0880847 0.024663543 0.0782437 -0.013228604 0.17397217 -0.1560255 0.18238762 0.18471068
-0.14017591 0.10468585 0.1814142 -0.05514792 -0.11286557 0.15425107 0.13161102 0.031461917
0.011023712 -0.16727684 -0.050043777 0.144883 -0.062323693 0.18780814 0.18930721 -0.17937791
-0.1620729 0.17873926 0.14127922 -0.17031841 -0.0019813858 0.19015867 0.17335187 0.11450195
-0.09558121 -0.12542021 0.07424045 -0.18292971 0.054120902 -0.2031116 -0.10466226 -0.10508812
-0.026693217 0.013802998 0.14670931 -0.16309045 0.06708717 -0.0841778 0.025043936 -0.18435362
-0.0019120714 0.20093557 0.14673956 0.009960022 -0.113897614 -0.15606606 0.055363648 -0.17381687
0.15970139 -0.14641584 0.08200746 -0.09083304 -0.05016853 -0.15028416 -0.20997721 -0.041693684
0.19253474 0.20992763 0.12997952 0.17576186 0.074420944 0.15036935 0.19624937 0.122996025
0.03668902 -0.02110183 -0.02352297 0.10291989 -0.04363074 -0.13090685 -0.18013243 -0.013115358
0.06624466 -0.18021204 -0.11172507 0.19330451 0.09377465 -0.12694265 0.12906717 -0.066127256
-0.12724245 0.17999454 -0.04682381 0.10790519 0.14551674 0.13325983 -0.15166728 -0.018888982
0.12318069 -0.16178575 -0.116054155 -0.15107253 0.17497177 -0.13173555 -0.023726966 -0.020291084
-0.11285685 0.002048421 0.1526413 0.04226323 -0.20203991 0.13025884 0.025490303 -0.1824734
-0.07159417 -0.12965469 -0.037252232 -0.075042404 -0.1610124 0.03254659 -0.08122886 0.029456927
-0.13317147 0.06186833 -0.08027491 -0.015183126 0.18114819 -0.10195847 0.06902609 0.08771933
0.031025067 -0.14132355 -0.186261 0.17237984 0.124699764 -0.16002668 0.13333592 -0.10526744
0.121837005 0.13232753 -0.15926036 0.062019974 0.1093708 0.07671948
00000000: fc09 12be f1fe 16be 8cd7 243c 9ef7 283e
00000010: 2644 2bbe 3d8f dc3d 3fc9 d63d 9da2 89bc
00000020: c065 b4bd 330b ca3c 3c3e a03d c9bc 58bc
00000030: c325 323e 26c5 1fbe d2c3 3a3e cc24 3d3e
00000040: 468a 0fbe 8965 d63d a5c4 393e c9e2 61bd
00000050: 1026 e7bd fef3 1d3e 0ac5 063e 36de 003d
00000060: cd9c 343c 9f4a 2bbe b4fa 4cbd 365c 143e
00000070: 2147 7fbd c750 403e c0d9 413e d8ae 37be
00000080: 70f6 25be 6d07 373e 80ab 103e f367 2ebe
00000090: 23da 01bb f4b8 423e 2783 313e 0080 ea3d
000000a0: 15c0 c3bd 286e 00be 610b 983d ed51 3bbe
000000b0: e1ad 5d3d 7dfc 4fbe 2b59 d6bd 7138 d7bd
000000c0: bcab dabc f825 623c f73a 163e 2f01 27be
000000d0: 0065 893d 6965 acbd f128 cd3c 32c7 3cbe
000000e0: 789e faba 0ec2 4d3e e542 163e 5c2f 233c
000000f0: 2743 e9bd c8cf 1fbe fec4 623d 0dfd 31be
00000100: c388 233e 09ee 15be 87f3 a73d ac06 babd
00000110: 847d 4dbd 17e4 19be 4404 57be ffc6 2abd
00000120: d427 453e 45f7 563e 5a19 053e ebfa 333e
00000130: 026a 983d 6cfa 193e 98f5 483e 57e5 fb3d
00000140: 3a47 163d bfdd acbc 3eb3 c0bc aac7 d23d
00000150: 26b6 32bd 720c 06be a374 38be cce1 56bc
00000160: 48ab 873d 8189 38be 1dd0 e4bd 9ef1 453e
00000170: ec0c c03d 41fd 01be 2f2a 043e ba6d 87bd
00000180: d84b 02be 7d50 383e 53ca 3fbd 65fd dc3d
00000190: 5702 153e 4475 083e ab4e 1bbe 11bd 9abc
000001a0: 2846 fc3d 2aab 25be cdad edbd c2b2 1abe
000001b0: cd2b 333e afe5 06be 0e5f c2bc 7d39 a6bc
000001c0: 7e21 e7bd cd3e 063b 004e 1c3e 351c 2d3d
000001d0: 8de3 4ebe 9362 053e 0ad1 d03c 4fda 3abe
000001e0: f79f 92bd 33c4 04be cc95 18bd d5af 99bd
000001f0: 6fe0 24be 934f 053d 515b a6bd a74f f13c
00000200: 1a5e 08be a569 7d3d 2c67 a4bd a5c2 78bc
00000210: e97e 393e 9acf d0bd 8d5d 8d3d 31a6 b33d
00000220: 4828 fe3c 1fb7 10be 34bb 3ebe 5784 303e
00000230: 9762 ff3d 09de 23be 3689 083e 7596 d7bd
00000240: ae85 f93d de80 073e 2615 23be a808 7e3d
00000250: ccfd df3d 1a1f 9d3d

encoder.conv1.bias f4 [6]
-0.17143333 0.07570077 0.10621675 0.04407929 0.09696414 0.021763626
00000000: 388c 2fbe 0109 9b3d 2b88 d93d 7c8c 343d
00000010: 2395 c63d a249 b23c

encoder.conv2.weight f4 [16, 6, 5, 5]
-0.03704188 0.023001213 0.043287057 0.06979785 0.0033685372 -0.0328096 0.058310322 -0.047302444
0.040545564 -0.007391603 0.022605363 0.01972577 0.018328097 0.083038576 0.011568 0.09548576
0.025977623 -0.059345465 0.09140911 -0.047766063 0.01080415 0.0491746 0.007748094 -0.022057371
0.061665695 -0.056401704 0.05885564 0.09557455 -0.060418557 -0.05065049 0.09310195 0.007997732
0.06061213 -0.058326267 0.03584067 0.06033238 -0.00398808 0.02376532 0.060197372 -0.03446622
-0.025186418 0.006294454 -0.057709124 -0.032127276 -0.053263724 0.0395692 0.0786213 -0.06247199
0.016677003 0.05407965 -0.05448767 -0.018447632 0.07582853 -0.02993381 0.073825344 -0.03576387
-0.046406616 0.08979635 0.048259616 0.07598619 0.035540093 -0.005497501 0.093994565 -0.066472776
-0.014056872 0.022405526 -0.0013307437 0.038657762 -0.06762876 -0.049150825 -0.045392096 0.063189715
0.08414485 -0.061449416 0.030507667 0.061814416 0.017132577 0.009351045 -0.0064020166 -0.005246607
-0.037203696 0.002094933 0.049090967 -0.012653446 0.04382014 -0.05122243 0.022023026 0.06215124
0.026271122 -0.01435638 -0.028335575 0.06394924 -0.027459156 0.07241179 -0.048734974 0.06379148
-0.039362464 0.04968514 -0.060220353 -0.039465792 -0.064220175 0.051288515 -0.03717258 0.07078661
0.09188507 -0.039124586 0.0317647 -0.050330404 0.050760426 0.08206487 0.012485226 -0.0009950203
-0.014167251 -0.018679587 -0.030863777 0.05794168 0.06349745 0.03758468 0.068917796 -0.044846177
0.080471694 0.04185107 0.04455655 -0.040619995 0.024841165 0.00067414297 0.085766874 0.088757835
0.069034845 -0.046747766 0.05891906 0.009539936 0.013181268 -0.0013844778 0.09077169 0.0075900387
0.08448363 -0.012543427 0.07876223 0.072124265 -0.012303553 0.0017525207 -0.032224394 -0.03129115
0.08260109 -0.011214109 -0.02999369 0.0779169 0.026582198 0.0038724474 0.04460122 0.060819548
0.037554104 -0.057251442 -0.03772613 0.011995415 0.040326655 0.07201635 0.021321343 0.079169504
0.063434355 0.054941013 -0.048458572 -0.0013147955 -0.00949219 0.029870303 -0.055329677 0.002577105
-0.01802252 0.052549247 -0.026460947 0.0057795662 0.024379155 0.022605233 -0.039809193 -0.025052646
-0.019597566 -0.011714168 -0.0002102291 -0.021007884 -0.03319987 0.05862591 -0.004862334 0.063635424
0.029697232 -0.06929187 -0.06862579 -0.006290708 0.06450905 0.009265599 -0.04240525 0.08205913
-0.057284955 0.011188289 0.009764163 -0.046926487 -0.030077768 0.050098293 0.07546344 -0.058201768
0.071751304 -0.056100886 -0.062459674 0.0637378 -0.042673104 0.073300414 0.024119828 -0.06560084
0.07896388 -0.05352404 0.07599496 0.0014714897 0.010448602 0.09050385 -0.059978023 0.0010655418
0.06095999 -0.00018314982 0.010737218 0.0151093025 -0.03369181 0.06488202 0.08215742 0.0170167
0.0042534675 -0.06451414 0.0422257 0.05935326 0.012953165 -0.01887303 -0.030188242 -0.050573185
0.021557985 -0.060740512 -0.037842344 -0.05483695 -0.0059800185 -0.059429158 0.05145315 0.02251379
0.0062908716 0.0606253 -0.031534605 0.018259877 0.029001396 -0.056543678 0.015503504 -0.00020544817
-0.0348984 0.07510523 0.051328532 -0.008958439 0.060353506 0.020208757 0.051473487 0.06277921
00000000: 3ab9 17bd 0a6d bc3c c54d 313d 2df2 8e3d
00000010: adc2 5c3b 5c63 06bd ced6 6e3d 35c0 41bd
00000020: 1b13 263d 4335 f2bb e22e b93c f097 a13c
00000030: ce24 963c 2110 aa3d b587 3d3c 0a8e c33d
00000040: 06cf d43c 3b14 73bd b334 bb3d 59a6 43bd
00000050: e403 313c 4e6b 493d b9e3 fd3b a9b1 b4bc
00000060: 2b95 7c3d 7905 67bd 9d12 713d 97bc c33d
00000070: 7379 77bd e376 4fbd 3cac be3d eb08 033c
00000080: 6d44 783d 86e7 6ebd abcd 123d 161f 773d
00000090: 71ae 82bb 7daf c23c 8591 763d 732c 0dbd
000000a0: bf53 cebc b541 ce3b 6760 6cbd e497 03bd
000000b0: 102b 5abd 5013 223d 3404 a13d a1e2 7fbd
000000c0: 369e 883c a082 5d3d 772e 5fbd 7d1f 97bc
000000d0: fd4b 9b3d c037 f5bc be31 973d 237d 12bd
000000e0: dd14 3ebd 26e7 b73d e0ab 453d a69e 9b3d
000000f0: 7d92 113d 6224 b4bb 3980 c03d e122 88bd
00000100: cb4e 66bc cb8b b73c 596c aeba 9a57 1e3d
00000110: f380 8abd 6052 49bd 10ed 39bd 9c69 813d
00000120: 2354 ac3d 62b2 7bbd 37eb f93c 1d31 7d3d
00000130: 9e59 8c3c 2035 193c 02c8 d1bb bbeb abbb
00000140: e762 18bd 254b 093b 9c13 493d 6650 4fbc
00000150: bf7c 333d 9cce 51bd a269 b43c 4c92 7e3d
00000160: 8936 d73c 0637 6bbc 0220 e8bc d2f7 823d
00000170: 06f2 e0bc a24c 943d 539e 47bd 1ca5 823d
00000180: 893a 21bd a582 4b3d 9ea9 76bd e2a6 21bd
00000190: de85 83bd e813 523d 4642 18bd 92f8 903d
000001a0: 3d2e bc3d 1a41 20bd b41b 023d 4127 4ebd
000001b0: 2aea 4f3d a011 a83d d58e 4c3c 576b 82ba
000001c0: c21d 68bc ef05 99bc 08d6 fcbc 4154 6d3d
000001d0: f30a 823d 65f2 193d c624 8d3d a0b0 37bd
000001e0: 58ce a43d 076c 2b3d ee80 363d 2761 26bd
000001f0: b37f cb3c f8b8 303a 8ba6 af3d abc6 b53d
00000200: 2462 8d3d 967a 3fbd 1d55 713d 644d 1c3c
00000210: 3ff6 573c 5e77 b5ba 82e6 b93d dcb5 f83b
00000220: c105 ad3d f282 4dbc 184e a13d e3b5 933d
00000230: d794 49bc d6b4 e53a bafd 03bd 262b 00bd
00000240: c32a a93d 62bb 37bc 54b5 f5bc e592 9f3d
00000250: e9c2 d93c e3c8 7d3b c5af 363d eb1d 793d
00000260: 55d2 193d 7d80 6abd b786 1abd 6b88 443c
00000270: 902d 253d 4f7d 933d 19aa ae3c 9f23 a23d
00000280: dfe9 813d d409 613d 7f7c 46bd 3755 acba
00000290: 2185 1bbc 91b2 f43c 5fa1 62bd a6e4 283b
000002a0: f7a3 93bc e13d 573d a1c4 d8bc 8462 bd3b
000002b0: cbb6 c73c 9c2e b93c f70e 23bd 353b cdbc
000002c0: 138b a0bc c8ec 3fbc f270 5cb9 ba18 acbc
000002d0: 96fc 07bd b921 703d 3754 9fbb 4a53 823d
000002e0: 9c47 f33c e5e8 8dbd ae8b 8cbd 4922 cebb
000002f0: 521d 843d bdce 173c 21b1 2dbd 9e0e a83d
00000300: a1a3 6abd 164f 373c def9 1f3c fd35 40bd
00000310: a765 f6bc de33 4d3d 938c 9a3d fa64 6ebd
00000320: 59f2 923d 0bca 65bd b7d5 7fbd f788 823d
00000330: fec9 2ebd 871e 963d f296 c53c bc59 86bd
00000340: d1b7 a13d 063c 5bbd 3fa3 9b3d 00df c03a
00000350: 9d30 2b3c 155a b93d 84ab 75bd a6a9 8b3a
00000360: 2fb1 793d e80b 40b9 28eb 2f3c 028d 773c
00000370: 6c00 0abd dde0 843d 2642 a83d 9b66 8b3c
00000380: ac60 8b3b fd1f 84bd dbf4 2c3d 671c 733d
00000390: 8339 543c 9d9b 9abc 554d f7bc d425 4fbd
000003a0: 5f9a b03c 0bcb 78bd 9300 1bbd b69c 60bd
000003b0: 08f4 c3bb fd6b 73bd 8ac0 523d d76e b83c
000003c0: a823 ce3b 3c52 783d 6e2a 01bd bd95 953c
000003d0: 5694 ed3c 589a 67bd 6902 7e3c 936d 57b9
000003e0: a0f1 0ebd c5d0 993d de3d 523d 6bc6 12bc
000003f0: 3d35 773d d68c a53c ddd5 523d 6392 803d

encoder.conv2.bias f4 [16]
-0.022122938 -0.044191062 0.06626586 0.057649404 0.039995644 -0.072594374 -0.0036717681 0.008150871
0.0702732 -0.056297235 -0.018045468 0.027558045 0.039900772 -0.032195427 0.032296583 -0.008854827
00000000: 2a3b b5bc b001 35bd 65b6 873d c821 6c3d
00000010: 79d2 233d 5cac 94bd 0ca2 70bb 3b8b 053c
00000020: 65eb 8f3d ee97 66bd 17d4 93bc 69c1 e13c
00000030: fe6e 233d 5adf 03bd 6c49 043d d613 11bc

encoder.fc1.weight f4 [120, 400]
0.004141497 -0.024840232 -0.0010933817 -0.0042956434 -0.010211486 0.04820093 0.05055628 0.043540232
0.054014146 -0.041038778 0.026582345 0.015820676 0.02844062 0.05069858 -0.029878583 0.054827556
-0.014429437 -0.017079212 0.035965364 0.027122386 -0.010825343 -0.026427977 0.044681728 0.040216412
0.0076083755 0.04580136 0.0038011058 0.035344765 -0.02950804 -0.018330421 0.021493074 0.0074369623
-0.0011500863 0.008737984 0.0087929955 -0.024829425 0.031542454 -0.0376423 -0.008916681 -0.035211775
0.0006332436 0.035678755 0.0050292877 0.055497345 -0.047021367 0.04795737 -0.012828191 0.027024288
0.021076849 0.014956888 0.016407384 -0.01421351 -0.010204373 -0.012863561 -0.0112279905 0.045651406
0.02476679 -0.04078156 -0.020373933 -0.018847032 0.0019630634 0.016991576 -0.01760894 0.028410567
0.046299938 0.051512 -0.028781291 0.035087757 -0.01982124 -0.031898573 0.04019055 -0.04589511
-0.020098077 0.025325032 0.04461005 -0.010371116 0.036680818 -0.030596968 -0.014189624 0.050402988
-0.000537949 0.05273473 -0.008257906 -0.00042637228 -0.030220622 0.042630572 0.00013460955 -0.0014475677
0.048345257 0.029861584 0.04030901 0.012015671 -0.0040857717 0.03965088 0.01120515 -0.0074333483
0.019980976 -0.0041134697 -0.044753898 0.025260475 -0.012512526 0.013902517 -0.04002331 0.042945802
-0.014287853 0.051332098 0.037964053 0.007548596 -0.004531302 -0.00010124243 -0.03361546 0.058344737
0.030902445 0.029372865 -0.027918689 0.023465844 0.0046645226 0.035928287 -0.027666794 0.014539735
0.036462717 0.010386425 0.030588359 0.041031558 -0.00813824 0.008412258 0.034902688 -0.038074665
0.037107144 -0.044479914 -0.025874114 -0.016859636 0.020932024 0.050058823 -0.034351904 -0.008250684
0.042496793 -0.006177906 0.021511123 -0.020852016 0.030604182 -0.028090326 -0.0008277977 -0.0012699106
0.0030386415 0.028571466 0.04966577 -0.036696568 0.054810945 -0.011826431 0.043198034 0.033859316
0.009518494 0.03217551 2.936642e-05 0.04119974 0.030515803 -0.017701032 -0.023985649 -0.018338252
-0.002561082 -0.038122408 -0.010739759 0.010343029 0.011864304 0.05744709 0.007296274 -0.010536155
-0.015699962 0.031946294 0.043898296 0.015950428 0.045981027 0.004576563 0.0060279598 -0.017861644
-0.028777787 -0.013903124 0.007268179 -0.038660966 -0.030215245 0.006459221 -0.0009465548 0.03315628
0.027550664 0.0150994165 0.039981194 0.043830995 0.0071487078 -0.006020117 -0.015454999 0.04572243
0.008018407 -0.008325287 0.0031799686 0.05066606 0.056178913 0.053992286 0.0015282277 0.048177116
0.0010864685 0.047500513 0.02267885 -0.030564735 -0.0003208718 0.032021105 -0.029065913 0.019485692
-0.010652342 0.021419434 -0.03501221 0.0076919803 0.038939804 0.032070864 -0.05087452 0.0018955802
0.015910253 -0.046926152 0.01305672 -0.032662477 -0.0013600396 0.01661043 -0.038642723 -0.03902856
-0.03059478 -0.009839536 0.029734071 0.029432273 -0.0028456463 -0.037854128 0.012654492 0.03912456
0.0071919602 0.038425125 0.05028465 -0.008525425 -0.022039147 -0.028314384 -0.027512025 0.005304784
0.037394457 0.012156258 -0.00825823 -0.005134958 -0.007989479 0.016421909 0.042793833 -0.033775967
0.016949771 0.018153897 -0.047209598 -0.031917565 -0.015203011 0.024638329 -0.015604244 0.014267677
00000000: 65b5 873b be7d cbbc cd4f 8fba 78c2 8cbb
00000010: 144e 27bc 576e 453d 1a14 4f3d 3e57 323d
00000020: f03d 5d3d 4718 28bd 38c3 d93c 5d9a 813c
00000030: 4efc e83c 50a9 4f3d eec3 f4bc dc92 603d
00000040: 7269 6cbc b4e9 8bbc 6b50 133d c42f de3c
00000050: c85c 31bc 7c7f d8bc 3004 373d f7b9 243d
00000060: ae4f f93b 359a 3b3d f91b 793b acc5 103d
00000070: d8ba f1bc ae29 96bc 3e12 b03c c3b1 f33b
00000080: 7ebe 96ba c329 0f3c 7f10 103c 1467 cbbc
00000090: a932 013d d02e 1abd 4517 12bc 393a 10bd
000000a0: 4200 263a e323 123d b9cc a43b 2f51 633d
000000b0: 7a99 40bd f26e 443d 552d 52bc 0a62 dd3c
000000c0: 5ba9 ac3c bc0d 753c c768 863c c8df 68bc
000000d0: 3e30 27bc afc1 52bc 9bf5 37bc f8fc 3a3d
000000e0: b9e3 ca3c 910a 27bd 3ce7 a6bc 1765 9abc
000000f0: bda6 003b eb31 8b3c a040 90bc 47bd e83c
00000100: 01a5 3d3d 3ffe 523d bec6 ebbc 2eb8 0f3d
00000110: 2760 a2bc 14a8 02bd d99e 243d 83fc 3bbd
00000120: b9a4 a4bc 7176 cf3c 07b9 363d 9deb 29bc
00000130: a03e 163d 7ea6 fabc 997b 68bc 5d73 4e3d
00000140: 2505 0dba 5f00 583d 2b4c 07bc b88a dfb9
00000150: 3d91 f7bc 659d 2e3d fa25 0d39 50bc bdba
00000160: ad05 463d 48a0 f43c 0f1b 253d 60dd 443c
00000170: f0e1 85bb f668 223d ce95 373c 7293 f3bb
00000180: 25af a33c 49ca 86bb dd4f 37bd 0eef ce3c
00000190: 5601 4dbc 62c7 633c 7bef 23bd f0e7 2f3d
000001a0: 9917 6abc 9b41 523d 3280 1b3d 365a f73b
000001b0: 517b 94bb 1e52 d4b8 5db0 09bd e4fa 6e3d
000001c0: 2027 fd3c 5d9f f03c bcb5 e4bc 713b c03c
000001d0: dad8 983b 8a29 133d 79a5 e2bc 1238 6e3c
000001e0: ee59 153d d32b 2a3c 7094 fa3c b510 283d
000001f0: 4156 05bc 91d3 093c 1ff6 0e3d 2ef4 1bbd
00000200: a9fd 173d 9230 36bd f3f5 d3bc 381d 8abc
00000210: a379 ab3c 7b0a 4d3d 95b4 0cbd e02d 07bc
00000220: 1e11 2e3d 0870 cabb 1838 b03c d9d1 aabc
00000230: 9fb5 fa3c af1d e6bc 9000 59ba 2173 a6ba
00000240: f223 473b b50e ea3c 566e 4b3d 244f 16bd
00000250: 7181 603d a6c3 41bc 6cf0 303d 11b0 0a3d
00000260: 75f3 1b3c 78ca 033d e857 f637 0fc1 283d
00000270: 47fc f93c c101 91bc 8d7d c4bc 1a3a 96bc
00000280: d3d7 27bb 3e26 1cbd d0f5 2fbc cf75 293c
00000290: 7f62 423c a44d 6b3d 9515 ef3b d69f 2cbc
000002a0: 359d 80bc 1eda 023d b3ce 333d 79aa 823c
000002b0: 9a56 3c3d fef6 953b 3186 c53b 9552 92bc
000002c0: 65bf ebbc eec9 63bc e829 ee3b f65a 1ebd
000002d0: f685 f7bc dfa7 d33b 3822 78ba e1ce 073d
000002e0: eeb1 e13c 8b63 773c 52c3 233d 2188 333d
000002f0: b53f ea3b 6744 c5bb f736 7dbc 7147 3b3d
00000300: a35f 033c c966 08bc 0567 503b 3787 4f3d
00000310: dc1b 663d 0427 5d3d d04e c83a 5e55 453d
00000320: d567 8e3a e68f 423d ffc8 b93c e562 fabc
00000330: af3a a8b9 9028 033d a31b eebc 75a0 9f3c
00000340: 2987 2ebc cf77 af3c f768 0fbd 020d fc3b
00000350: 587f 1f3d bd5c 033d cd61 50bd 1e75 f83a
00000360: 3856 823c a335 40bd daeb 553c 17c9 05bd
00000370: 5b43 b2ba 9912 883c d547 1ebd 69dc 1fbd
00000380: e7a1 fabc 0136 21bc de94 f33c f31b f13c
00000390: 067e 3abb ee0c 1bbd c954 4f3c 1341 203d
000003a0: 89aa eb3b aa63 1d3d 47f7 4d3d 39ae 0bbc
000003b0: 718b b4bc 91f3 e7bc e660 e1bc c1d3 ad3b
000003c0: ee2a 193d 0b2b 473c 874d 07bc 2643 a8bb
000003d0: 4ee6 02bc 3d87 863c 9648 2f3d ab58 0abd
000003e0: 3fda 8a3c 7bb7 943c da5e 41bd febb 02bd
000003f0: 0d16 79bc 52d6 c93c f1a8 7fbc fac2 693c

encoder.fc1.bias f4 [120]
0.014314755 0.029828077 -0.021432599 0.02065617 0.053880494 -0.05510254 0.021199062 -0.0059699183
0.06192802 0.03832531 -0.04486111 -0.00745635 -0.026355175 0.014841843 0.025039263 -0.014211357
0.03360769 -0.0542491 0.03974012 0.0656142 0.021126209 0.039173543 0.04360659 -0.046038255
-0.009362268 -0.0023054937 -0.040564157 0.0026802241 0.014050294 -0.04668159 0.026223583 0.014608277
0.014824748 0.029278118 -0.026363702 0.0021258832 0.010019151 -0.027028015 0.057225905 -0.041401558
0.053862832 0.04841972 -0.024692748 -0.014673883 0.028048258 -0.047974713 -0.005815495 0.01973335
-0.010044408 0.038121473 0.022010604 0.009461147 -0.018754259 -0.02546893 -0.0158217 -0.0048175994
-0.017692713 0.051119197 0.0051768273 -0.0045689144 0.036124654 0.037604135 0.010272736 0.016936522
0.053057168 -0.05602582 -0.031744406 -0.035148945 0.040121414 -0.028391344 0.0040467563 -0.050175358
0.020000363 0.005731072 -0.004415369 -0.035272293 -0.0020377047 -0.019776715 0.061817925 0.039310563
0.04895145 0.0031931233 -0.05519038 0.013090649 0.010433288 -0.030033244 -0.009748257 -0.038939923
-0.022314982 0.042125385 -0.04915114 -0.021433752 -0.018873036 -0.028208185 0.0077324067 -0.02291314
0.0066641136 0.030218858 -0.00072400854 -0.016642721 0.0035569593 0.01232264 0.036379095 0.026137296
-0.002235287 0.009155198 -0.007586571 0.017985048 -0.04682589 0.022940844 -0.026146369 0.021762164
0.028184785 0.019898184 0.020056492 -0.0010465177 -0.0084446585 0.06650894 0.0023135485 -0.044081833
00000000: 6f88 6a3c 035a f43c 6b93 afbc 2137 a93c
00000010: cbb1 5c3d 33b3 61bd a8a9 ad3c 4e9f c3bb
00000020: 3ca8 7d3d 00fb 1c3d 49c0 37bd 6654 f4bb
00000030: cfe6 d7bc 342b 733c 241f cd3c c0d6 68bc
00000040: 38a8 093d 4e34 5ebd 89c6 223d bd60 863d
00000050: df10 ad3c 7074 203d d39c 323d 9c92 3cbd
00000060: 3364 19bc c417 17bb 9a26 26bd b3a6 2f3b
00000070: 3433 663c 3235 3fbd d7d2 d63c 8e57 6f3c
00000080: 80e3 723c aad8 ef3c b1f8 d7bc 6752 0b3b
00000090: 5d27 243c db69 ddbc b665 6a3d ae94 29bd
000000a0: 469f 5c3d c253 463d 7248 cabc ba6a 70bc
000000b0: 76c5 e53c 2281 44bd e88f bebb d6a7 a13c
000000c0: 4d91 24bc 4325 1c3d 954f b43c ed02 1b3c
000000d0: 88a2 99bc 38a4 d0bc 839c 81bc f4dc 9dbb
000000e0: 4ff0 90bc 5d62 513d 60a2 a93b d5b6 95bb
000000f0: 72f7 133d cb06 1a3d fa4e 283c 76be 8a3c
00000100: 7952 593d 557b 65bd 6c06 02bd 57f8 0fbd
00000110: 5a56 243d f794 e8bc a79a 843b ad84 4dbd
00000120: cdd7 a33c b7cb bb3b cdae 90bb ae79 10bd
00000130: 038b 05bb c702 a2bc cb34 7d3d 1d04 213d
00000140: 5181 483d b843 513b 4f0f 62bd 297a 563c
00000150: 62f0 2a3c 4708 f6bc 27b7 1fbc 787f 1fbd
00000160: e9cd b6bc ab8b 2c3d b552 49bd d695 afbc
00000170: a09b 9abc da14 e7bc 2160 fd3b 56b4 bbbc
00000180: a35e da3b 8a8d f73c 64cb 3dba 5156 88bc
00000190: e01b 693b e6e4 493c 3f02 153d e21d d63c
000001a0: e57d 12bb afff 153c c598 f8bb 6155 933c
000001b0: 81cc 3fbd 70ee bb3c e930 d6bc 9146 b23c
000001c0: c7e3 e63c 8401 a33c 834d a43c 4f2b 89ba
000001d0: 775b 0abc d735 883d e79e 173b 278f 34bd

encoder.fc2.weight f4 [84, 120]
-0.06626985 -0.080647856 0.057467546 0.043922633 0.07665057 0.009933022 0.06851312 0.037796985
-0.022431796 0.07713782 -0.05222076 0.0031136703 0.011964366 0.010207658 0.09080995 -0.039855458
-0.011092222 0.022694137 0.056562304 -0.05858556 0.035159327 0.034830645 0.06914842 -0.01780149
-0.009999439 -0.026022168 -0.003977894 -0.06948227 0.07547747 0.029859012 0.056238536 -0.003267378
0.0265427 -0.07127289 -0.04177647 -0.053790588 0.08777045 -0.0256453 0.0711777 0.08800801
0.027671013 -0.049385466 0.08638161 0.008422267 -0.04731194 0.06934027 0.021377496 0.04052369
0.04542577 0.08613396 0.021669103 -0.01826331 0.08385042 0.088012666 -0.067059964 0.021674564
0.058805034 0.08937843 -0.035216775 0.054893818 0.030335633 0.03844997 -0.0785724 -0.0832092
0.062140565 0.08409852 0.03369278 0.072640814 0.03760214 0.008902524 0.036123354 0.07798237
-0.058117 0.06689296 0.03331613 0.046500128 0.049741164 0.06867762 0.09008354 0.022293037
-0.06263748 -0.032473646 0.01634085 0.019257005 0.09032241 0.02546302 -0.057945557 0.05158146
-0.007230255 0.06814934 0.08817182 -0.06733893 0.0807465 -0.07549921 -0.037030548 0.034945212
0.036385722 0.08226924 0.059312347 -0.076361634 -0.047848202 0.04397825 0.09567679 -0.060121562
0.066083156 -0.016444752 -0.028965987 0.0436652 -0.014372381 0.00037789912 -0.005698929 0.08618449
-0.089267515 0.023242362 0.0010070569 0.08927831 -0.08555792 -0.023714352 0.07832964 0.034576304
-0.014724862 -0.026602225 -0.089037515 0.08030401 -0.0875313 0.06170892 0.07666638 0.008845644
0.017839259 -0.08334733 -0.06606063 -0.03193342 0.054905556 -0.00811962 0.088746615 0.06056102
-0.083557434 0.008378781 -0.07120529 0.016646644 -0.06855699 -0.050725475 0.050476678 -0.030819511
-0.011914822 0.051033765 -0.02989158 0.079336524 0.0041671484 0.05596379 -0.007294023 -0.09466137
0.02447579 0.07940589 -0.012926896 0.062075544 -0.04164948 -0.0026185678 -0.015830498 0.06236126
-0.06201572 -0.034450166 0.08533253 0.083294064 0.076344095 -0.028718984 0.004000942 -0.020397164
0.031747237 -0.061721403 -0.024406236 0.066926554 -0.0441193 0.004455282 0.0051590027 -0.03334971
0.009728476 0.05800905 0.071935534 0.0019982103 -0.084216 -0.057925776 -0.03891037 0.072976984
0.05774033 -0.070010826 0.0320595 0.07479008 -0.033556074 -0.0038814007 -0.07539786 0.035711218
0.039941583 0.048922244 0.05817142 -0.040309425 -0.037221085 -0.043155737 -0.06595255 -0.023889063
-0.064060576 0.05017018 0.018122667 0.046926957 0.06186991 0.022473417 -0.02416038 0.057676103
0.015747014 0.05019887 0.000646483 0.081156164 -0.007139095 -0.07234659 0.016992653 0.07766682
-0.046446767 -0.07501865 -0.05762279 0.061029945 0.075389445 0.020997263 -0.078108445 -0.0223194
0.0020856482 -0.065706 0.055353086 -0.024961803 0.028958306 -0.00524706 0.03382375 -0.07421095
0.05514641 -0.047746938 -0.057098515 -0.063146226 0.015272112 0.07312373 0.053072456 0.08995571
0.06858966 0.07833037 -0.0039431704 0.05933835 -0.040210094 0.021801937 -0.073243 0.085905954
0.03845116 -0.05852785 0.023392968 0.051812652 -0.06456261 -0.028509086 -0.051567767 -0.07658402
00000000: 7db8 87bd b42a a5bd 1763 6b3d 38e8 333d
00000010: f9fa 9c3d 1dbe 223c 9b50 8c3d 03d1 1a3d
00000020: e3c2 b7bc 6ffa 9d3d 70e5 55bd b80e 4c3b
00000030: 3006 443c 053e 273c 91fa b93d 7a3f 23bd
00000040: 27bc 35bc 0ee9 b93c e0ad 673d 6af7 6fbd
00000050: 3a03 103d 94aa 0e3d b09d 8d3d 6ed4 91bc
00000060: b0d4 23bc 712c d5bc fe58 82bb b84c 8ebd
00000070: ef93 9a3d e39a f43c 615a 663d 8221 56bb
00000080: 1470 d93c 85f7 91bd ce1d 2bbd 8553 5cbd
00000090: fec0 b33d 1816 d2bc 9dc5 913d 8b3d b43d
000000a0: 52ae e23c 6a48 4abd d7e8 b03d 8cfd 093c
000000b0: 2aca 41bd 4502 8e3d dc1f af3c 2bfc 253d
000000c0: 5f10 3a3d 0067 b03d 6783 b13c f09c 95bc
000000d0: c5b9 ab3d fc3f b43d bc56 89bd db8e b13c
000000e0: 8cdd 703d 0a0c b73d 773f 10bd 57d8 603d
000000f0: 6f82 f83c b77d 1d3d 91ea a0bd 9669 aabd
00000100: 1b87 7e3d d83b ac3d 7101 0a3d b5c4 943d
00000110: b404 1a3d e4db 113c 15f6 133d 39b5 9f3d
00000120: 170c 6ebd 2dff 883d 7f76 083d eb76 3e3d
00000130: 64bd 4b3d daa6 8c3d b87d b83d e39f b63c
00000140: 1448 80bd 1603 05bd 3fdd 853c dec0 9d3c
00000150: f5fa b83d d397 d03c 5258 6dbd 1547 533d
00000160: c6eb ecbb e291 8b3d 6d93 b43d fee8 89bd
00000170: 6c5e a53d 549f 9abd 58ad 17bd b622 0f3d
00000180: 3209 153d c67c a83d 81f1 723d 7d63 9cbd
00000190: 7afc 43bd 8a22 343d 31f2 c33d 0742 76bd
000001a0: 9b56 873d 25b7 86bc 144a edbc 48da 323d
000001b0: 237a 6bbc c320 c639 15be babb 7e81 b03d
000001c0: e3d1 b6bd c466 be3c 39ff 833a 8cd7 b63d
000001d0: fe38 afbd 9a44 c2bc 4a6b a03d e29f 0d3d
000001e0: 8c40 71bc e9ec d9bc 4d59 b6bd 6e76 a43d
000001f0: 9c43 b3bd 7ec2 7c3d 4303 9d3d 52ed 103c
00000200: a323 923c 01b2 aabd cc4a 87bd 9ecc 02bd
00000210: a6e4 603d 2808 05bc c9c0 b53d d50e 783d
00000220: 2920 abbd 2847 093c 14d4 91bd 8b5e 883c
00000230: 9b67 8cbd 84c5 4fbd a2c0 4e3d 3379 fcbc
00000240: 6336 43bc c808 513d 30df f4bc 307b a23d
00000250: 938c 883b 493a 653d b302 efbb d2dd c1bd
00000260: 7481 c83c 8e9f a23d 55cb 53bc ed42 7e3d
00000270: a598 2abd 479c 2bbb f6ae 81bc 856e 7f3d
00000280: 3204 7ebd 9e1b 0dbd d2c2 ae3d 1496 aa3d
00000290: 4b5a 9c3d 1344 ebbc 561a 833b f417 a7bc
000002a0: 6409 023d 95cf 7cbd 96ef c7bc ca10 893d
000002b0: 70b6 34bd 9dfd 913b da0c a93b b599 08bd
000002c0: 3064 1f3c e69a 6d3d f052 933d 68f4 023b
000002d0: 7079 acbd 9443 6dbd 7b60 1fbd f574 953d
000002e0: 2081 6c3d d661 8fbd d350 033d 8b2b 993d
000002f0: 1872 09bd 195f 7ebb 316a 9abd ed45 123d
00000300: c999 233d b162 483d 2845 6e3d 7f1b 25bd
00000310: 2375 18bd 12c4 30bd 2112 87bd ffb2 c3bc
00000320: 3132 83bd 3f7f 4d3d fd75 943c 7b36 403d
00000330: 4e6b 7d3d 2c1a b83c fdeb c5bc c73d 6c3d
00000340: e2ff 803c 559d 4d3d bd78 293a 3435 a63d
00000350: 12ef e9bb 732a 94bd 2d34 8b3c c80f 9f3d
00000360: f73e 3ebd 61a3 99bd e005 6cbd 89fa 793d
00000370: c865 9a3d 7402 ac3c 52f7 9fbd 2dd7 b6bc
00000380: 5faf 083b de90 86bd ebb9 623d b27c ccbc
00000390: f839 ed3c 88ef abbb c68a 0a3d e9fb 97bd
000003a0: 34e1 613d 4b92 43bd 22e0 69bd cf52 81bd
000003b0: e137 7a3c e5c1 953d 8162 593d b33a b83d
000003c0: bc78 8c3d ac6b a03d b635 81bb c50c 733d
000003d0: 57b3 24bd fa99 b23c 6d00 96bd 76ef af3d
000003e0: f77e 1d3d e6ba 6fbd 9ca2 bf3c 8139 543d
000003f0: 6739 84bd e38b e9bc b938 53bd 15d8 9cbd

encoder.fc2.bias f4 [84]
-0.02488208 -0.068918176 -0.07151313 0.024975011 0.0008954475 -0.03181594 -0.034193505 -0.032148346
-0.008758897 -0.06852432 0.08201958 0.073892325 -0.01116451 -0.0744606 -0.02670879 0.03527841
-0.024890231 0.06127027 -0.058446992 0.028024692 0.028920576 -0.028572261 0.014193685 -0.015538889
0.06418591 0.07018989 0.01910734 0.10706646 -0.042811703 -0.05234957 0.074186936 -0.037023786
0.012643086 0.06457749 0.035458423 -0.055962276 -0.09208971 0.07110819 0.06922392 0.015023895
0.003093198 -0.065368876 -0.07514531 -0.013999009 -0.037926063 -0.05561338 0.05388779 0.0680015
0.018805405 -0.07908834 -0.05224608 -0.026533488 -0.05503732 0.060574282 0.07375399 0.051776342
-0.07283562 -0.05328341 0.06070702 -0.06786876 -0.06176737 -0.021079699 0.013210709 0.04285783
-0.049658917 0.086216845 0.039570123 0.062429324 0.0065785167 0.06534746 0.03884151 -0.06400528
0.09672289 -0.08374392 -0.039075978 0.1065702 0.00594023 0.065306626 0.030934008 0.020902561
0.015804218 0.028607322 0.026149286 -0.038829632
00000000: 81d5 cbbc f924 8dbd 7a75 92bd 6598 cc3c
00000010: 77bc 6a3a 6e51 02bd 7d0e 0cbd fcad 03bd
00000020: 7a81 0fbc 7b56 8cbd e2f9 a73d dc54 973d
00000030: 59eb 36bc cd7e 98bd 64cc dabc 1880 103d
00000040: 99e6 cbbc 89f6 7a3d 1d66 6fbd 0a94 e53c
00000050: d8ea ec3c 6010 eabc a18c 683c d396 7ebc
00000060: e773 833d b8bf 8f3d ff86 9c3c a945 db3d
00000070: 535b 2fbd 816c 56bd 52ef 973d 41a6 17bd
00000080: f224 4f3c 3441 843d da3c 113d b338 65bd
00000090: 8899 bcbd 2ca1 913d 45c5 8d3d c826 763c
000000a0: 40b7 4a3b 1ee0 85bd c9e5 99bd 195c 65bc
000000b0: 5c58 1bbd dbca 63bd 71b9 5c3d 5f44 8b3d
000000c0: cb0d 9a3c 11f9 a1bd fcff 55bd c25c d9bc
000000d0: d06e 61bd bd1c 783d 550c 973d 6e13 543d
000000e0: d72a 95bd b43f 5abd eda7 783d c7fe 8abd
000000f0: c8ff 7cbd 55af acbc bb71 583c b18b 2f3d
00000100: 2667 4bbd 7592 b03d 4814 223d e4b5 7f3d
00000110: 9990 d73b e4d4 853d 4618 1f3d 3315 83bd
00000120: a716 c63d ef81 abbd 220e 20bd 7a41 da3d
00000130: 43a6 c23b 7bbf 853d 5169 fd3c d93b ab3c
00000140: d977 813c e759 ea3c 0737 d63c d20b 1fbd

bottleneck.fc.weight f4 [16, 84]
-0.008526495 -0.08572463 0.018539049 0.07739144 0.07486567 -0.01180518 -0.03948361 0.013028808
0.102948084 0.045665443 0.098698154 0.11891282 0.081000954 0.06970329 -0.045208205 0.033780064
0.043740585 0.051985566 0.058279645 0.04893901 0.1104973 0.068422124 0.054765556 -0.094407625
0.0034575125 0.027288359 0.020815168 0.010225372 0.0826604 -0.05563794 -0.08389038 0.008701564
-0.08105838 -0.09021312 0.024931882 0.0024473856 -0.09496144 0.078116104 -0.027923387 0.10368797
0.053847454 -0.09105278 0.015077644 -0.042989854 -0.049767528 0.02573635 -0.022936076 -0.08193542
-0.017684262 -0.03575454 -0.045561157 0.03283134 -0.067157865 0.0499722 -0.011000205 -0.018941065
-0.02382633 -0.079934135 0.118260324 0.04500771 -0.022378134 0.05985897 -0.041807607 0.094799176
0.051498577 0.039470818 0.077508196 0.028912418 0.0138484575 -0.011863216 0.07365947 0.10290359
0.0809183 -0.090491995 0.025250167 -0.04793541 -0.07155023 -0.06931759 0.07525175 0.08241998
-9.547273e-05 -0.058792718 -0.062431715 -0.04775655 -0.09681519 -0.010339027 -0.1014877 -0.09852134
-0.036382765 -0.07343257 0.051445056 -0.07618223 -0.02361477 -0.033376385 -0.10269667 -0.034613565
0.054929864 0.047609143 -0.08933154 -0.079823 0.075001486 0.047657486 -0.045250256 -0.07948223
0.056484528 0.06304797 -0.07628463 -0.07109893 -0.08073135 0.10708808 0.013136699 -0.10133141
0.080251984 -0.03563114 -0.018483756 0.0055799563 0.09381979 0.024362803 -0.051152244 0.041001674
-0.10666703 0.07534558 -0.10399796 0.029035198 -0.03126931 0.079996474 0.08861899 -0.04569817
-0.055510186 -0.016263546 -0.09854321 -0.0010451354 -0.10762469 0.015095445 -0.006707932 -0.08230505
-0.0712899 -0.042341907 0.08898549 -0.09651621 -0.026264176 -0.04866987 -0.040725827 -0.10894168
0.09689446 0.09231135 -0.03128523 -0.09237133 -0.08790564 0.0067603104 -0.055344857 -0.008980428
-0.06520315 0.026614917 0.012508224 0.0638656 -6.0793784e-05 -0.043427832 -0.059462655 -0.10263973
-0.10347878 0.097202584 0.04034128 0.06571572 0.051395603 0.09750073 0.07890068 0.040082004
-0.01277143 -0.06654821 0.01261034 -0.111126155 -0.010358108 -0.046175517 -0.10520776 0.09863061
-0.09628821 0.07512265 -0.026980564 -0.0695506 0.05433826 -0.0378992 -0.093295425 -0.09656888
-0.097322404 -0.06691604 -0.10482899 -0.06522671 -0.0339323 0.00992146 0.08857276 -0.05969228
0.05305845 -0.08818122 0.001772929 -0.07265305 -0.10260204 0.004629094 -0.112890355 0.015083934
0.08930778 -0.09247891 0.06533722 -0.09988772 -0.036969393 -0.05493032 -0.053892322 -0.04212058
0.03399429 -0.05087986 0.09708537 0.027707733 -0.10655979 -0.026019447 0.085113406 -0.00944269
-0.105930954 -0.055550747 0.07785512 0.0750204 -0.055929407 0.059495687 -0.035063043 0.030347569
0.0855978 0.07299552 -0.06938672 0.019173287 -0.029862495 0.037528373 0.0511514 0.031486616
0.100538425 -0.06911013 0.10036598 -0.081088744 -0.09802255 -0.10087861 -0.093188964 0.09579902
-0.086816415 -0.062920004 0.04077443 -0.045788333 -0.007867827 0.03464732 0.040124826 -0.069142036
0.027287675 -0.048981376 -0.08592406 0.101886846 -0.021919636 -0.02022711 -0.04227622 -0.026078561
00000000: b6b2 0bbc 6590 afbd 34df 973c 677f 9e3d
00000010: 2c53 993d 846a 41bc 91b9 21bd c876 553c
00000020: 72d6 d23d b00b 3b3d 4222 ca3d 9188 f33d
00000030: d4e3 a53d 99c0 8e3d 3d2c 39bd f75c 0a3d
00000040: 5429 333d d1ee 543d a3b6 6e3d 4574 483d
00000050: 694c e23d e620 8c3d d951 603d c958 c1bd
00000060: 6f97 623b d68b df3c 9284 aa3c 5288 273c
00000070: db49 a93d 9ce4 63bd b8ce abbd 0191 0e3c
00000080: f001 a6bd a8c1 b8bd f23d cc3c 5164 203b
00000090: 257b c2bd 56fb 9f3d 96bf e4bc 5c5a d43d
000000a0: 268f 5c3d e179 babd 3908 773c 2116 30bd
000000b0: 09d9 4bbd 0ad5 d23c 70e4 bbbc c2cd a7bd
000000c0: 96de 90bc 5a73 12bd 569e 3abd 287a 063d
000000d0: 108a 89bd a6af 4c3d 343a 34bc 4b2a 9bbc
000000e0: 702f c3bc 82b4 a3bd 7832 f23d 015a 383d
000000f0: 5952 b7bc ae2e 753d 743e 2bbd 1226 c23d
00000100: 2cf0 523d 27ac 213d 9ebc 9e3d bcd9 ec3c
00000110: a4e4 623c ef5d 42bc c7da 963d 1ebf d23d
00000120: 7eb8 a53d de53 b9bd 70d9 ce3c ec57 44bd
00000130: ed88 92bd 61f6 8dbd 971d 9a3d cecb a83d
00000140: 8838 c8b8 a2d0 70bd 66b8 7fbd 5f9c 43bd
00000150: 0b47 c6bd 0665 29bc c9d8 cfbd 8ec5 c9bd
00000160: 1806 15bd d163 96bd 0db8 523d 6e05 9cbd
00000170: c373 c1bc adb5 08bd a252 d2bd f4c6 0dbd
00000180: 23fe 603d ce01 433d 74f3 b6bd 3e7a a3bd
00000190: 619a 993d 7f34 433d 5558 39bd 94c7 a2bd
000001a0: 525c 673d 4b1f 813d 1e3b 9cbd 519c 91bd
000001b0: 7a56 a5bd ff50 db3d 4f3b 573c d886 cfbd
000001c0: 275b a43d f5f1 11bd 3f6b 97bc 11d8 b63b
000001d0: 9724 c03d 8094 c73c 0485 51bd 5ff1 273d
000001e0: 3e74 dabd c94e 9a3d e2fc d4bd 39db ed3c
000001f0: 3f14 00bd 31d5 a33d df7d b53d 012e 3bbd
00000200: a65e 63bd 213b 85bc 06d1 c9bd edfc 88ba
00000210: 556a dcbd e352 773c 36ce dbbb 8d8f a8bd
00000220: 7000 92bd b56e 2dbd 063e b63d 4aaa c5bd
00000230: f827 d7bc 0f5a 47bd 20d0 26bd d11c dfbd
00000240: 9a70 c63d bc0d bd3d f124 00bd 2e2d bdbd
00000250: df07 b4bd 9885 dd3b 4ab1 62bd a522 13bc
00000260: 3b89 85bd 8707 da3c 4bef 4c3c f8cb 823d
00000270: d4fc 7eb8 62e1 31bd 1d8f 73bd c734 d2bd
00000280: afec d3bd 2612 c73d e63c 253d f795 863d
00000290: 3284 523d 76ae c73d ae96 a13d 072d 243d
000002a0: 433f 51bc 6e4a 88bd 999b 4e3c 1c96 e3bd
000002b0: 0eb5 29bc 8a22 3dbd 2b77 d7bd d8fe c93d
000002c0: c132 c5bd e7d9 993d 5806 ddbc 8c70 8ebd
000002d0: cc91 5e3d 313c 1bbd ac11 bfbd e8c5 c5bd
000002e0: f850 c7bd 470b 89bd 95b0 d6bd 9595 85bd
000002f0: 98fc 0abd 9f8d 223c a365 b53d e47f 74bd
00000300: d153 593d 5b98 b4bd a061 e83a 1fcb 94bd
00000310: 0521 d2bd a8af 973b 0f33 e7bd 9b22 773c
00000320: ffe6 b63d 9565 bdbd 85cf 853d ef91 ccbd
00000330: 386d 17bd 9dfe 60bd 32be 5cbd a186 2cbd
00000340: 993d 0b3d 6667 50bd b2d4 c63d 54fb e23c
00000350: 053c dabd bc26 d5bc f04f ae3d 83b5 1abc
00000360: 54f2 d8bd 2e89 63bd 8172 9f3d 4ca4 993d
00000370: 3c16 65bd c0b1 733d 449e 0fbd 779b f83c
00000380: e64d af3d ad7e 953d a01a 8ebd 4c11 9d3c
00000390: 31a2 f4bc 5ab7 193d 2184 513d 1cf8 003d
000003a0: 17e7 cd3d 9d89 8dbd ae8c cd3d db11 a6bd
000003b0: 0cc0 c8bd 7299 cebd dbd9 bebd 4732 c43d
000003c0: cecc b1bd 34dc 80bd 1703 273d 8c8c 3bbd
000003d0: 0fe8 00bc 59ea 0d3d ee59 243d 579a 8dbd
000003e0: 678a df3c b2a0 48bd f4f8 afbd 0daa d03d
000003f0: cf90 b3bc 53b3 a5bc d429 2dbd b5a2 d5bc

bottleneck.fc.bias f4 [16]
0.09756339 0.0053043813 0.10042403 0.017042097 -0.011734658 0.09411724 0.035564862 0.07070069
-0.09735755 0.019038003 -0.09113117 -0.012738499 0.0056499713 -0.104281366 -0.08677637 0.05715213
00000000: 51cf c73d 60d0 ad3b 1dab cd3d de9b 8b3c
00000010: b942 40bc 8ac0 c03d 76ac 113d 86cb 903d
00000020: 6563 c7bd 96f5 9b3c fba2 babd 23b5 50bc
00000030: 6523 b93b 7891 d5bd cfb7 b1bd 5a18 6a3d

decoder.fc3.weight f4 [84, 16]
-0.217854 0.029274732 0.18954462 -0.011566758 -0.088124305 -0.06470749 0.0949665 -0.07161647
-0.105362505 0.0851616 0.20433533 0.081237376 -0.06272519 0.20273677 -0.24147612 0.025536478
0.049170367 -0.17028183 0.1483173 0.17192616 -0.15245354 -0.17817104 -0.009130296 0.09628354
0.07980431 -0.119429484 0.118411034 -0.18633527 -0.13886267 0.073005974 -0.08623134 0.24816988
0.11928278 0.103467286 -0.051480774 -0.15562545 0.107019216 -0.24461894 0.107432894 0.14478388
0.24061383 -0.0005823362 -0.1698043 0.22744317 0.053276416 -0.0317007 0.06419984 0.05854683
-0.22045931 0.08484289 0.24040276 -0.0019468162 0.012241941 -0.10978516 -0.089754924 -0.14780505
0.06748071 -0.010007074 0.101151004 0.13561873 -0.22164698 -0.18314502 -0.08298081 0.21532531
0.236145 0.115949124 0.2447567 -0.11615926 0.11626763 0.10144183 -0.046295643 -0.1704728
0.019922834 0.18643287 -0.14773235 0.24106413 0.14538506 0.23745674 0.11269581 -0.11119024
0.03906937 -0.20511648 -0.050863117 0.112517186 -0.020279381 -0.1507125 -0.12032187 -0.06831003
0.074655026 -0.19871998 0.21852063 0.20681728 -0.043996952 -0.20658597 0.035333246 -0.14548807
-0.21952912 -0.07768634 -0.14238277 -0.20886263 0.16178581 0.20845723 0.024179429 0.055597752
0.12830114 -0.1166203 0.0859977 -0.027029216 -0.14252165 -0.047379166 -0.03719881 0.04353416
0.051440243 0.23203143 0.03841053 -0.07916883 -0.18851444 0.14834578 -0.18774158 0.18645298
-0.027335465 0.039709818 -0.08118123 -0.213977 0.020075299 0.23465827 0.103886575 0.19809118
0.20058674 -0.002861619 0.16173199 -0.17874438 0.08146488 -0.2356151 -0.21380904 0.20188895
0.2204038 0.14655505 -0.13909172 0.13615921 -0.17786753 0.19168934 0.14192294 0.05345646
0.11439003 -0.036687165 -0.089877754 -0.16141602 0.060489215 -0.12971923 0.14825031 -0.1787309
0.21177208 -0.22946829 0.0927336 -0.1235441 0.13277858 -0.004945606 -0.11988309 0.029932281
0.15087166 -0.12003484 -0.09101772 -0.018913597 -0.07762393 0.11023328 -0.19634649 0.1674532
0.12875605 -0.22749233 0.16275516 0.09399596 0.21294379 0.15160069 -0.0098674 -0.0050691366
0.08249351 0.22745797 0.14536679 0.18594584 -0.04632611 -0.23953345 -0.13516882 0.107170105
-0.037965115 0.1700244 0.031891722 -0.07601361 0.1260432 0.063069314 -0.14640571 0.031162592
-0.07366115 -0.10762292 -0.20037171 -0.19134891 -0.07398322 0.12069115 -0.18227732 -0.2217398
-0.18261966 0.09592277 -0.21884587 0.059066266 -0.060987264 -0.20187959 0.056435555 0.24449018
0.075493604 0.056272686 0.194148 0.08658435 -0.17535996 -0.12125523 -0.17462447 0.018455198
-0.17232388 -0.13253827 -0.16316772 -0.14011765 -0.15056667 -0.24393165 -0.064388454 0.09998739
-0.066248424 -0.17229229 0.22924599 0.0668433 0.030279888 -0.056701872 -0.17801413 -0.22432208
-0.04706171 0.10958691 0.0029043106 0.08342092 0.16260256 0.16967353 -0.02983859 -0.12300638
-0.23563181 0.21122575 0.12915975 -0.027293129 -0.13250816 0.05485119 0.1786318 0.23769611
0.1970515 0.096031465 0.015825033 -0.09891923 0.11209024 -0.24121621 -0.1564562 0.16301845
00000000: 1e15 5fbe 90d1 ef3c fc17 423e 8082 3dbc
00000010: 847a b4bd 5c85 84bd cc7d c23d a8ab 92bd
00000020: 4cc8 d7bd 3469 ae3d 483d 513e c85f a63d
00000030: 1076 80bd 3a9a 4f3e 8445 77be e031 d13c
00000040: de66 493d 5c5e 2ebe 7ee0 173e 690d 303e
00000050: c81c 1cbe 7872 36be 3d97 15bc 4e30 c53d
00000060: 7170 a33d 7297 f4bd 7c81 f23d acce 3ebe
00000070: 0432 0ebe 2884 953d 0f9a b0bd 3f20 7e3e
00000080: 884a f43d a8e6 d33d 81dd 52bd 475c 1fbe
00000090: e42c db3d 637d 7abe c705 dc3d 3a42 143e
000000a0: 7963 763e eca7 18ba 2ee1 2dbe dde6 683e
000000b0: 5f38 5a3d 98d8 01bd 357b 833d cdce 6f3d
000000c0: 16c0 61be 1cc2 ad3d 242c 763e 502c ffba
000000d0: 6c92 483c 0bd7 e0bd 6ed1 b7bd 355a 17be
000000e0: 5433 8a3d b6f4 23bc 4228 cf3d a3df 0a3e
000000f0: 6df7 62be 5e8a 3bbe d8f1 a9bd 3d7e 5c3e
00000100: ffcf 713e bc76 ed3d 80a1 7a3e e8e4 edbd
00000110: b91d ee3d bcc0 cf3d 80a0 3dbd 6c90 2ebe
00000120: 3635 a33c 42e8 3e3e 2647 17be 84d9 763e
00000130: d2df 143e dc27 733e 10cd e63d b5b7 e3bd
00000140: 3407 203d 0e0a 52be d855 50bd 696f e63d
00000150: f220 a6bc 6154 1abe 506b f6bd 21e6 8bbd
00000160: bce4 983d 407d 4bbe dfc3 5f3e e9c7 533e
00000170: 2636 34bd 468b 53be 98b9 103d d3fa 14be
00000180: 3ecc 60be 041a 9fbd cacc 11be 16e0 55be
00000190: 2eab 253e d075 553e f013 c63c 78ba 633d
000001a0: 6061 033e a0d6 eebd 901f b03d 606c ddbc
000001b0: 32f1 11be a810 42bd c85d 18bd e050 323d
000001c0: 01b3 523d a699 6d3e 5c54 1d3d 4423 a2bd
000001d0: ee09 41be f5e7 173e 543f 40be 88ed 3e3e
000001e0: a0ee dfbc c3a6 223d 5842 a6bd c91c 5bbe
000001f0: f474 a43c 424a 703e 7cc2 d43d 6ad8 4a3e
00000200: 9c66 4d3e 008a 3bbb 129d 253e c408 37be
00000210: 0fd7 a63d 1645 71be c2f0 5abe fabb 4e3e
00000220: 89b1 613e 8712 163e 0f6e 0ebe 526d 0b3e
00000230: e822 36be 364a 443e 3f54 113e 29f5 5a3d
00000240: 5245 ea3d 4845 16bd d411 b8bd 3e4a 25be
00000250: 8ac3 773d 1ed5 04be eece 173e 3c05 37be
00000260: c8da 583e bcf9 6abe 1deb bd3d b004 fdbd
00000270: 1cf7 073e c00e a2bb 4485 f5bd 8b34 f53c
00000280: 1a7e 1a3e d4d4 f5bd 8067 babd b0f0 9abc
00000290: 4cf9 9ebd fcc1 e13d 0e0f 49be da78 2b3e
000002a0: a0d8 033e c0f3 68be 4aa9 263e f480 c03d
000002b0: f00d 5a3e 363d 1b3e e0aa 21bc 001b a6bb
000002c0: 5bf2 a83d beea 683e 08db 143e 9668 3e3e
000002d0: 72c0 3dbd 4248 75be b269 0abe 007c db3d
000002e0: 4f81 1bbd e01a 2e3e e5a0 023d 06ad 9bbd
000002f0: 7811 013e 7c2a 813d 61eb 15be b148 ff3c
00000300: a8db 96bd 6869 dcbd 3e2e 4dbe f8f0 43be
00000310: 8484 97bd ec2c f73d e8a6 3abe c20f 63be
00000320: a600 3bbe 2873 c43d 2219 60be 78ef 713d
00000330: c8cd 79bd 86b9 4ebe f828 673d a25b 7a3e
00000340: 649c 9a3d 307e 663d bcce 463e 2353 b13d
00000350: 9091 33be a954 f8bd c2d0 32be 5b2f 973c
00000360: ac75 30be 1db8 07be 7015 27be 007b 0fbe
00000370: 262e 1abe 38c9 79be 18de 83bd 30c6 cc3d
00000380: 41ad 87bd 646d 30be 76bf 6a3e 24e5 883d
00000390: 870d f83c 3940 68bd 5649 36be b0b4 65be
000003a0: c8c3 40bd 1a6f e03d 3f56 3e3b 96d8 aa3d
000003b0: 4981 263e e6be 2d3e 0f70 f4bc c5ea fbbd
000003c0: 7749 71be 904b 583e 7442 043e d795 dfbc
000003d0: 38b0 07be a4ab 603d 41eb 363e 9c66 733e
000003e0: dec7 493e 25ac c43d 80a3 813c 2a96 cabd
000003f0: 918f e53d 6201 77be 0e36 20be 4fee 263e

decoder.fc3.bias f4 [84]
-0.2119348 0.24457324 0.19379142 0.1819441 -0.25559974 0.18290196 -0.024510711 -0.011051343
-0.05853595 -0.25169197 -0.23145482 0.21477374 -0.24102539 0.010528311 0.16501321 -0.004805995
-0.028025478 0.20430197 -0.23539367 -0.17418417 -0.21040225 -0.14800832 0.06564776 -0.10562655
0.11632224 -0.0370256 0.19250205 0.037085265 0.010226573 0.1782679 0.15632589 0.07105496
0.13120726 -0.1298413 0.1841242 0.061926205 -0.096484594 -0.24263579 0.024472713 0.08241233
0.24587877 0.21342511 0.054433193 0.16136809 0.058538202 -0.057867646 -0.22347316 -0.13143384
-0.10630688 -0.06556091 0.15682724 -0.23713073 -0.09333864 -0.13620412 -0.12215528 -0.20366088
0.27344528 -0.13232383 -0.06917927 -0.18299946 -0.23507082 -0.18243623 -0.13680944 0.1455414
-0.21207228 0.11417437 -0.2397685 -0.16353554 -0.061314136 0.25032473 0.19717555 0.039275434
-0.0073841554 -0.17925958 -0.06199169 0.2358703 0.23340617 -0.1908496 -0.027459502 -0.11979996
0.23595752 0.12983881 0.18697436 0.15911338
00000000: 7005 59be 6871 7a3e 4271 463e 8e4f 3a3e
00000010: f8dd 82be a74a 3b3e b0ca c8bc b110 35bc
00000020: 64c3 6fbd c5dd 80be 7e02 6dbe a6ed 5b3e
00000030: 5ccf 76be f07e 2c3c 39f9 283e 9c7b 9dbb
00000040: b095 e5bc 8934 513e 0a0b 71be 565d 32be
00000050: b073 57be 7e8f 17be 5572 863d bc52 d8bd
00000060: 5b3a ee3d 28a8 17bd 421f 453e b8e6 173d
00000070: 5b8d 273c dc8b 363e e513 203e 4385 913d
00000080: 325b 063e 1ef5 04be 0e8b 3c3e 55a6 7d3d
00000090: b799 c5bd 8475 78be 007b c83c ccc7 a83d
000000a0: a5c7 7b3e 1d8c 5a3e 57f5 5e3d ad3d 253e
000000b0: c1c5 6f3d a006 6dbd 26d6 64be 9896 06be
000000c0: 6cb7 d9bd cc44 86bd 5297 203e 66d2 72be
000000d0: 5428 bfbd 1879 0bbe 8c2c fabd 7a8c 50be
000000e0: 0501 8c3e e67f 07be dcad 8dbd 3664 3bbe
000000f0: 68b6 70be 90d0 3abe c617 0cbe ce08 153e
00000100: 7a29 59be 41d4 e93d e085 75be dc75 27be
00000110: 8824 7bbd 902a 803e 63e8 493e 47df 203d
00000120: c9f6 f1bb d38f 37be 00eb 7dbd fc87 713e
00000130: 0702 6f3e 146e 43be c0f2 e0bc ae59 f5bd
00000140: d99e 713e 77f4 043e 3576 3f3e 9eee 223e

decoder.fc2.weight f4 [120, 84]
-0.021021929 -0.05505041 -0.0062444215 0.10165813 -0.10593085 0.10432999 -0.009154811 0.10364939
0.022020591 -0.0008706102 0.044186987 0.05800735 0.043086663 -0.011416328 -0.09220084 -0.0038681834
0.08630181 -0.091455325 -0.005363419 -0.089976765 -0.0026755377 0.04172173 0.00045953025 -0.022533696
-0.01569571 -0.09776367 0.04500185 0.0051749116 -0.10573243 -0.082984075 -0.027319677 0.08195587
0.018099274 0.08237602 -0.08930735 -0.02824476 -0.08445227 -0.048283517 0.06674373 -0.05073175
-0.08932251 0.05188669 0.044602633 -0.050837275 -0.006968211 -0.03044386 -0.07923137 -0.07243863
0.053851496 -0.10376024 -0.08019288 0.092613995 -0.06590444 -0.10272676 0.07044829 0.019498195
0.048694793 0.04638925 0.02419447 -0.080604725 0.059032805 -0.093191184 0.021296334 -0.07927157
0.090338044 -0.022023087 0.03004273 -0.0639766 -0.106537715 -0.0862695 -0.06246945 -0.100509554
-0.058501296 -0.034502786 0.09981269 0.106234655 -0.09935696 0.015453639 0.05939083 -0.10832424
-0.0729094 -0.0653318 0.03948654 -0.024337556 -0.020498106 0.040200938 -0.016282558 -0.073423736
-0.102033 0.045739993 0.06549948 -0.08942195 -0.037627216 -0.019524612 0.08042132 0.033304546
0.06020135 0.006294598 -0.05613086 0.06444744 0.10383914 0.015083179 0.037898432 0.05382354
-0.10157214 -0.024316661 -0.010229821 -0.07446153 -0.066574745 -0.10699805 -0.0076669487 0.02512755
0.023269309 -0.058657736 0.015714033 -0.05371558 0.09861209 -0.09773045 -0.015342705 0.026175871
-0.03833143 -0.064046435 -0.034473103 -0.031331588 -0.093029 0.08274817 0.052797217 0.011519078
-0.0065072146 -0.03649145 0.08822779 -0.02186239 0.088401444 -0.04780994 -0.05355934 0.104883984
-0.092504166 -0.04698168 0.08235375 0.065857574 0.0893688 -0.008517828 0.02339173 0.08533943
-0.10710729 -0.03300651 -0.10803707 -0.04620774 -0.09890188 0.012429056 0.098463595 0.07189098
0.08899049 0.017029107 -0.069398135 0.080353335 0.009081666 -0.048745845 -0.03229417 0.043000992
-0.025598109 0.06921933 0.05214287 0.023266837 -0.07162205 -0.088415876 -0.049484275 0.085033335
-0.0841298 -0.019886136 -0.000906561 -0.09571132 -0.032772675 0.056692325 0.09833556 -0.025383785
0.086563066 -0.0620883 -0.016179757 0.06310064 -0.01935611 0.005509173 -0.10783622 -0.096243665
-0.056176044 -0.05682368 0.07468258 0.057281844 -0.04486372 0.0033049628 -0.09822571 0.0017525232
0.09804359 -0.1057808 0.009264886 0.02236955 0.07238946 0.04011006 -0.013664684 -0.045990914
-0.0226775 -0.023584384 -0.051890798 -0.0059532383 0.07534513 -0.04865152 0.09366444 0.10456152
-0.06974976 0.045846667 -0.09223039 0.048428025 -0.0927016 0.055928435 -0.0767252 0.07191205
0.01354108 -0.08694831 -0.069942765 0.065271035 0.097750135 -0.057310343 0.021724321 -0.054302208
0.10884361 -0.05233477 -0.012247255 -0.09793161 -0.024648666 0.083752565 0.058785845 0.10376054
0.0749426 -0.09538941 -0.049343534 0.016793067 -0.07403875 -0.10104717 -0.064018495 -0.044089995
-0.03217786 -0.026573595 -0.003894171 -0.023097904 0.09769016 0.037934866 -0.106177315 0.09090287
-0.073272154 -0.051095758 0.06917972 0.048484538 0.028257234 0.0028303447 -0.08691313 -0.1028818
00000000: 2e36 acbc 8a7c 61bd 019e ccbb 2332 d03d
00000010: 46f2 d8bd f6aa d53d 0ffe 15bc 2246 d43d
00000020: 8764 b43c a939 64ba 6afd 343d 1d99 6d3d
00000030: a47b 303d 8d0b 3bbc cbd3 bcbd 5981 7dbb
00000040: 01bf b03d ee4c bbbd 9fbf afbb bd45 b8bd
00000050: 1358 2fbb 68e4 2a3d 1bed f039 9698 b8bc
00000060: 4a94 80bc 5238 c8bd dc53 383d 4e92 a93b
00000070: 3f8a d8bd 8ef3 a9bd 84cd dfbc 7bd8 a73d
00000080: ee44 943c c2b4 a83d c6e6 b6bd 8e61 e7bc
00000090: 50f5 acbd f0c4 45bd f0b0 883d 18cc 4fbd
000000a0: b8ee b6bd 2387 543d 40b1 363d bf3a 50bd
000000b0: 9755 e4bb 6765 f9bc 0e44 a2bd b45a 94bd
000000c0: 6393 5c3d 4080 d4bd 2a3c a4bd 68ac bd3d
000000d0: e8f8 86bd 6862 d2bd 3147 903d aeba 9f3c
000000e0: 3174 473d a702 3e3d 7b33 c63c 1714 a5bd
000000f0: 62cc 713d 05db bebd a675 ae3c 2259 a2bd
00000100: 2703 b93d c369 b4bc 2c1c f63c 2a06 83bd
00000110: 7230 dabd 10ae b0bd f7df 7fbd f4d7 cdbd
00000120: 0e9f 6fbd cb52 0dbd 986a cc3d 8e91 d93d
00000130: a97b cbbd 4331 7d3c cd43 733d 19d9 ddbd
00000140: 8651 95bd aecc 85bd a3bc 213d 8e5f c7bc
00000150: a5eb a7bc bda9 243d 0063 85bc 2f5f 96bd
00000160: adf6 d0bd dc59 3b3d 9724 863d db22 b7bd
00000170: ff1e 1abd 14f2 9fbc efb3 a43d 596a 083d
00000180: b195 763d ea42 ce3b 79e9 65bd 05fd 833d
00000190: 9da9 d43d 701f 773c 633b 1b3d 1376 5c3d
000001a0: 0e05 d0bd bc33 c7bc fb9a 27bc 497f 98bd
000001b0: 5758 88bd cb21 dbbd 073b fbbb 4bd8 cd3c
000001c0: 479f be3c 1843 70bd b7ba 803c de04 5cbd
000001d0: 23f5 c93d e726 c8bd f85f 7bbc c86e d63c
000001e0: 6b01 1dbd c72a 83bd ab33 0dbd 8d55 00bd
000001f0: fd85 bebd df77 a93d e541 583d 84ba 3c3c
00000200: 793a d5bb 0f78 15bd c6b0 b43d c118 b3bc
00000210: d10b b53d 5bd4 43bd 0a61 5bbd 6acd d63d
00000220: d372 bdbd dd6f 40bd 15a9 a83d 56e0 863d
00000230: fd06 b73d 5c8e 0bbc 03a0 bf3c 70c6 ae3d
00000240: 115b dbbd d631 07bd 8a42 ddbd 5444 3dbd
00000250: 128d cabd 3da3 4b3c 48a7 c93d 943b 933d
00000260: a540 b63d a080 8b3c 9c20 8ebd 4a90 a43d
00000270: 45cb 143c b9a9 47bd e446 04bd cf21 303d
00000280: 20b3 d1bc ddc2 8d3d c393 553d 189a be3c
00000290: 95ae 92bd 6213 b5bd 06b0 4abd f525 ae3d
000002a0: 3f4c acbd 40e8 a2bc 47a6 6dba 4c04 c4bd
000002b0: a43c 06bd 3636 683d 2764 c93d a8f1 cfbc
000002c0: fa47 b13d 4d50 7ebd 698b 84bc e93a 813d
000002d0: b490 9ebc 4b86 b43b 3cd9 dcbd 661b c5bd
000002e0: da18 66bd f2bf 68bd 2ef3 983d 5ea0 6a3d
000002f0: 05c3 37bd 1398 583b 902a c9bd ecb4 e53a
00000300: 14cb c83d 9ba3 d8bd c0cb 173c 5940 b73c
00000310: ed40 943d 724a 243d d7e1 5fbc f860 3cbd
00000320: 2ac6 b9bc 0a34 c1bc 728b 54bd 6213 c3bb
00000330: 8c4e 9a3d d146 47bd 24d3 bf3d 5a24 d63d
00000340: f6d8 8ebd b7c9 3b3d 49e3 bcbd 775c 463d
00000350: 56da bdbd 3715 653d 1a22 9dbd a046 933d
00000360: 68db 5d3c f511 b2bd 273e 8fbd d2ac 853d
00000370: 3931 c83d 40be 6abd 34f7 b13c fe6b 5ebd
00000380: 66e9 de3d fc5c 56bd b6a8 48bc 5e90 c8bd
00000390: 00ec c9bc 7786 ab3d 6dc9 703d 6880 d43d
000003a0: 827b 993d 865b c3bd 721c 4abd 9d91 893c
000003b0: a1a1 97bd d2f1 cebd 211c 83bd b697 34bd
000003c0: efcc 03bd deb0 d9bc 5935 7fbb d137 bdbc
000003d0: c711 c83d 9761 1b3d 7e73 d9bd 492b ba3d
000003e0: b60f 96bd c949 51bd 19ae 8d3d b997 463d
000003f0: b77b e73c 4e7d 393b 83ff b1bd b1b3 d2bd
