tutorials/W1D2_ComparingTasks/RR/models/ConvNet_autoencoder_10000_epoch_8.pth (torch, 506506 bytes, 19 tensors)

encoder.conv1.weight f4 [6, 1, 5, 5]
0	0x3d99c8a6	0.07508974
1	0x3e1cbe95	0.15307076
2	0x3df09249	0.11746652
3	0x3d42eca3	0.047588956
4	0x3da342a7	0.07971697
5	0x3cdbcaae	0.026830044
6	0xbdf70fa9	-0.12063534
7	0x3d22f59b	0.03978501
8	0x3e7d899e	0.24759528
9	0xba46dc46	-0.0007585924
10	0xbd8acce5	-0.06777362
11	0xbd89a17a	-0.06720252
12	0x3e127283	0.14301495
13	0x3df8a959	0.121416755
14	0x3c24e813	0.010065096
15	0x3d5ad63b	0.053426962
16	0x3d938356	0.07202785
17	0xbd9ad4a4	-0.07560089
18	0x3d8c8b0d	0.06862459
19	0xbd82f2c4	-0.0639396
20	0xbe57b4a9	-0.2106501
21	0x3d369522	0.044575818
22	0x3e672925	0.22574289
23	0xbd161929	-0.03664509
24	0xbd567f94	-0.05236776
25	0xbe201b2c	-0.15635365
26	0x3dc4006d	0.09570394
27	0x3cc3ebc9	0.023916142
28	0xbd851d17	-0.06499689
29	0x3d149ffe	0.036285393
30	0xbe772280	-0.24134254
31	0xbdbaa505	-0.09113506
32	0x3da217f2	0.079147235
33	0x3cbace8f	0.022803573
34	0x3c6e1b3f	0.014532863
35	0xbe47ca2b	-0.19510715
36	0x3d873199	0.06601257
37	0xbcee862b	-0.02911671
38	0x3e8551df	0.26039025
39	0x3d074ea4	0.033033982
40	0xbe2ad02b	-0.16680972
41	0x3d9af00e	0.07565318
42	0x3e4efc3f	0.20213412
43	0x3e7406a5	0.2383066
44	0x3e9329ca	0.2874282
45	0x3dde9c38	0.1086964
46	0xbe318725	-0.1733671
47	0xbda59386	-0.080847785
48	0xbd738bb5	-0.059459407
49	0x3e88c1b3	0.2671028
50	0xbe2892a0	-0.16462183
51	0xbe0da98d	-0.1383421
52	0xbe111f35	-0.14172061
53	0xbe3a70d0	-0.18207097
54	0xbe8cf1d0	-0.27528238
55	0xbe12a87f	-0.14322089
56	0xbe022615	-0.1270984
57	0xbd39154e	-0.045186333
58	0xbdc66f36	-0.096891806
59	0xbdcb779e	-0.099349245
60	0xbdec1e09	-0.11529166
61	0x3b2c16c5	0.002625869
62	0xbde1bca2	-0.11022307
63	0xbde3592e	-0.11100994
64	0x3e27166a	0.16317144
65	0xbe18583e	-0.14877412
66	0xbe193f6b	-0.14965598
67	0xbd8a8d52	-0.06765236
68	0xbded477b	-0.115858994
69	0xbd7fa3d0	-0.062412083
70	0x3e96c4be	0.29446977
71	0x3e89a4b0	0.2688346
72	0x3d3d2547	0.04617813
73	0x3e4f6d88	0.20256627
74	0x3e844c92	0.2583967
75	0x3e0fdf6c	0.14050072
76	0x3dc3b3a3	0.09555747
77	0xbd0b81d4	-0.03405936
78	0x39ae9d89	0.0003330524
79	0x3b685388	0.003545018
80	0xbd4c1677	-0.04982611
81	0xbd5b0432	-0.053470798
82	0xbe1cf8d6	-0.15329298
83	0x3dccb919	0.09996242
84	0x3da67665	0.08128051
85	0x3e1413df	0.14460705
86	0x3e709c22	0.2349706
87	0x3e064d4d	0.13115425
88	0x3d059424	0.03261198
89	0x3db870e2	0.09005906
90	0xbd8cd0bf	-0.06875753
91	0x3e6f0057	0.23339973
92	0x3d1b42c7	0.03790548
93	0x3e68bfff	0.2272949
94	0x3dbb5b06	0.09148221
95	0x3e2dbba9	0.16966118
96	0xbdf6b8bd	-0.12046955
97	0x3db80b0f	0.08986484
98	0x3da85c44	0.08220723
99	0x3d890647	0.066906504
100	0x3e4534c1	0.19258405
101	0x3e1e4439	0.15455712
102	0x3e1d0a1e	0.1533589
103	0xbc43de1c	-0.0119548105
104	0xbe83e292	-0.25758797
105	0xbdbfb02a	-0.093597725
106	0x3d03bd2e	0.032162838
107	0x3e8186d4	0.25298178
108	0xbd9a2ccf	-0.07528078
109	0xbe716daf	-0.23576997
110	0x3cc7eb63	0.024404233
111	0x3e6b6bdf	0.22990368
112	0x3dc0eebb	0.09420534
113	0x3e332e6f	0.17498182
114	0xbde544a1	-0.111947306
115	0x3e8660d3	0.26245746
116	0x3e882a96	0.2659499
117	0xbe1d02e1	-0.1533313
118	0xbe170165	-0.14746626
119	0xbe585ce2	-0.21129182
120	0x3d51415a	0.051087715
121	0x3da897e6	0.08232097
122	0xbcad6905	-0.021168241
123	0xbce34e7c	-0.027747385
124	0xbdc0d9d1	-0.09416545
125	0x3e116900	0.1420021
126	0x3d103348	0.035205156
127	0xbe45e362	-0.19325021
128	0xbdc632c2	-0.0967765
129	0x3dab7c31	0.08373297
130	0xbd4f93dd	-0.050678123
131	0x3d40b838	0.047050685
132	0xbe0b2199	-0.13587035
133	0x3c4dc932	0.012560176
134	0x3e80e455	0.25174204
135	0x3de5da16	0.11223237
136	0x3e06f958	0.13181055
137	0x3dd2171a	0.102583125
138	0x3dbff2fb	0.09372517
139	0x3e800011	0.2500005
140	0x3e2a6506	0.166401
141	0x3e0a5854	0.13510257
142	0x3d5b4d3b	0.05354045
143	0x3dc434fd	0.09580419
144	0x3e15cb84	0.14628416
145	0xbdb10b6c	-0.08644757
146	0xbe2ce408	-0.16883862
147	0x3d593bfa	0.053035714
148	0xbda640c5	-0.081178226
149	0xbde7d3ae	-0.113196716

encoder.conv1.bias f4 [6]
0	0x3e84a445	0.25906578
1	0x3dce2d46	0.10067229
2	0x3e7d3ad6	0.24729475
3	0x3e31beca	0.17357937
4	0x3e5763e7	0.21034203
5	0x3e767672	0.24068621

encoder.conv2.weight f4 [16, 6, 5, 5]
0	0x3cc9fc9c	0.024656586
1	0x3d9d8bad	0.07692657
2	0xbca78735	-0.020450214
3	0xbd069ae9	-0.032862578
4	0xbd4a6f45	-0.04942252
5	0x3cb74c8e	0.022375371
6	0x3d92bcd9	0.07164926
7	0x3db46715	0.08808724
8	0x3da58dfd	0.08083723
9	0x3d9a5a8f	0.07536804
10	0x3d758e50	0.059950173
11	0xbc746db2	-0.0149187315
12	0x3d4b6e07	0.049665477
13	0xbdb74ba7	-0.089499764
14	0x3c4a607a	0.012352103
15	0x3d3f3e4b	0.046690267
16	0xbd853a0f	-0.065052144
17	0x3d7434d2	0.059620686
18	0xbc987cb2	-0.018614147
19	0xbd543409	-0.051807437
20	0x3d93ff2c	0.072264045
21	0x3da79391	0.08182443
22	0x3ce24efe	0.027625557
23	0x3da6e119	0.08148403
24	0xbb3b21e5	-0.0028554138
25	0x3dc5c1a8	0.096560776
26	0x3d079ddc	0.03310953
27	0x3d047a67	0.032343294
28	0x3cddd08e	0.027076986
29	0xbd1c2200	-0.038118362
30	0xbdb124e7	-0.08649617
31	0xbc00cc48	-0.007861204
32	0xbe14ef2d	-0.14544363
33	0xbe1b568a	-0.15169731
34	0x3c807486	0.015680563
35	0xbcbfd739	-0.023418056
36	0x3b803a47	0.003913197
37	0x3d0583ea	0.032596506
38	0x3c56dd01	0.013114215
39	0x3d21ac27	0.039470818
40	0x3d82b6a6	0.06382494
41	0x3d6d0cc4	0.057873502
42	0xbd2b64ae	-0.041844063
43	0xbcb972e3	-0.02263779
44	0xbd95a729	-0.07307274
45	0x3dc2f207	0.09518819
46	0x3d38211d	0.044953454
47	0xbdc2c6f5	-0.09510604
48	0xbd94dc3c	-0.07268569
49	0xbcb23c76	-0.021757346
50	0x3dbeec3d	0.093224026
51	0x3d872d10	0.06600392
52	0x3cccf920	0.025021136
53	0xbdef3640	-0.11680269
54	0xbd0250fb	-0.03181551
55	0xbc3604c9	-0.011109539
56	0xbe10b8e1	-0.14133026
57	0xbe354485	-0.1770192
58	0xbe3b70f0	-0.18304801
59	0xbc646543	-0.013940158
60	0xbd71edfe	-0.059064858
61	0x3af5414a	0.0018711474
62	0xbc400055	-0.011718829
63	0x3bd7fcfa	0.0065914365
64	0x3e04fa22	0.12986043
65	0xbba19d9c	-0.0049321186
66	0x3c55d943	0.0130522875
67	0xbdc8596f	-0.09782683
68	0xbe0388da	-0.12845173
69	0xbdae06df	-0.08497404
70	0xbc04e1d2	-0.00811048
71	0x3b5ac67d	0.0033382468
72	0xbd837034	-0.064178854
73	0xbd3d9a7a	-0.0462899
74	0x3dda892d	0.106706955
75	0x3ca84a01	0.0205431
76	0x3db4af15	0.08822457
77	0x3d679d39	0.056546424
78	0x3d80f81d	0.06297324
79	0x3d6cf45c	0.057850227
80	0xbcd88f93	-0.026435649
81	0xbd7cc006	-0.061706565
82	0xbd9022d1	-0.07037891
83	0xbc72353a	-0.014783198
84	0xbd854705	-0.065076865
85	0x3d536b89	0.051616225
86	0x3d79732c	0.060900852
87	0x3d06b2ca	0.03288535
88	0xbd3724ea	-0.04471294
89	0x3d123c62	0.035702117
90	0xbd1f38a5	-0.03887238
91	0x3d35729a	0.044298746
92	0x3d9ad6fe	0.07560538
93	0xbce97de1	-0.028502407
94	0x3c26bafb	0.010176416
95	0x3d17428d	0.036928702
96	0x3db9bdad	0.09069381
97	0x3d08a2aa	0.033358254
98	0xbd87f2cd	-0.066381074
99	0x3d3675ec	0.044546053
100	0xbc807a92	-0.015683446
101	0xbccb89c0	-0.024845958
102	0xbcfa91c9	-0.030587094
103	0xbc1d8935	-0.009615232
104	0xbdcb0371	-0.09912766
105	0xbd4371ce	-0.047715954
106	0x3d80c40e	0.062873945
107	0xbd3d2d91	-0.046186034
108	0xbd1fcae6	-0.03901186
109	0xbe00caca	-0.12577358
110	0xbda115df	-0.078655
111	0xbd5875e3	-0.0528468
112	0x3d522600	0.05130577
113	0xbbf12e30	-0.0073602423
114	0x3c046a79	0.008082026
115	0x3d1269e6	0.035745524
116	0xbd95fa01	-0.07323075
117	0x3bc648d3	0.006051162
118	0x3d068b91	0.032847945
119	0x3d8974e9	0.06711752
120	0xbc6a63a8	-0.014305986
121	0xbc595212	-0.013264196
122	0xbd036ec6	-0.032088064
123	0x3b82db27	0.00399341
124	0x3d610563	0.054936778
125	0x3d0afe5d	0.033933986
126	0x3da22dbb	0.07918879
127	0x3d934412	0.07190718
128	0x3b2d8b71	0.0026480819
129	0x3cc4973f	0.023997901
130	0x3bf6f127	0.007536072
131	0x3c38998e	0.011267079
132	0x3d09df22	0.03366006
133	0xbd60f2e5	-0.054919142
134	0x3d6121a0	0.054963708
135	0xbdc181bb	-0.09448572
136	0xbce2522b	-0.027627071
137	0x3cb9c220	0.022675574
138	0x3b827013	0.0039806454
139	0x3cf5ed79	0.030020462
140	0x3d41aa9c	0.047281846
141	0x3d9335fa	0.071880296
142	0x3de43459	0.11142797
143	0x3e00d6eb	0.12581985
144	0x3dbd6a4f	0.092487924
145	0x3dd3ba52	0.10338272
146	0x3dca747f	0.09885501
147	0x3d61c425	0.0551187
148	0xbdd15c2c	-0.102226585
149	0x3cb502f5	0.022096137
150	0xbdd4a654	-0.10383287
151	0xbdc07828	-0.09397918
152	0xbd6e8e04	-0.058240905
153	0xbdbb15aa	-0.091349915
154	0xbcf0eb2d	-0.029409016
155	0xbd0796c9	-0.033102784
156	0x3dae1231	0.084995635
157	0xbdb880cd	-0.09008942
158	0x3c0aa9b5	0.008463313
159	0x3d7a0fb4	0.061050132
160	0x3d1210e9	0.035660658
161	0xbc8d4f29	-0.01724966
162	0x3d8dc975	0.069231905
163	0x3c51aed4	0.01279803
164	0x3c75f249	0.015011379
165	0x3b26b0aa	0.002543489
166	0xbc073d41	-0.00825435
167	0x3d1991f1	0.037492696
168	0x3d0d419b	0.034486394
169	0xbb01b86a	-0.0019793757
170	0x3d5054f4	0.050862268
171	0x3d4c48a4	0.049873963
172	0x3cef4b1e	0.029210623
173	0xbc8128a2	-0.015766446
174	0xbd22073c	-0.03955768
175	0xbd3def52	-0.04637081
176	0x3c988139	0.018616306
177	0x3aa4d459	0.0012575492
178	0x3cbe7952	0.02325121
179	0x3b9e32d5	0.004827837
180	0x3d039811	0.032127444
181	0xbd30fc27	-0.04320922
182	0xbcd5e224	-0.026108809
183	0xbda5d4eb	-0.080972515
184	0x3de862c8	0.11346966
185	0x3d680458	0.056644768
186	0xbd77792d	-0.060418297
187	0x3c9bc5db	0.019015243
188	0x3d26409c	0.04058896
189	0x3d86dea9	0.06585438
190	0xbccb802e	-0.024841394
191	0xbdc8b950	-0.098009706
192	0x3d6f1f76	0.058379613
193	0xbd95e7cb	-0.073196016
194	0xbd83a724	-0.06428364
195	0xbcf236ac	-0.029567085
196	0x3cdfce45	0.027320037
197	0x3d8db4b4	0.06919232
198	0x3d9a773f	0.07542276
199	0x3cff1b3f	0.031140922
200	0x3d58c577	0.052922692
201	0x3d53b31b	0.05168448
202	0xbad4b674	-0.0016228692
203	0x3de62c45	0.112389125
204	0xbb7460b0	-0.0037289076
205	0x3e1487b0	0.14504886
206	0x3d92d5fd	0.07169721
207	0x3d893ae1	0.067006834
208	0x3cad5f43	0.021163588
209	0x3c993227	0.018700672
210	0xbd83933e	-0.064245686
211	0xbd934ec8	-0.07192761
212	0xbcbf7c8a	-0.023374815
213	0xbd450d6b	-0.0481085
214	0xbcc7054b	-0.024294516
215	0xbd1b21b4	-0.03787394
216	0x3dd0a92a	0.101885155
217	0x3dfd6f4f	0.12374746
218	0xbe093c45	-0.13401897
219	0xbe12ab17	-0.14323078
220	0xbd60b196	-0.05485686
221	0x3d5e9f57	0.054351177
222	0xbcb3a663	-0.021929925
223	0xbe0e85b7	-0.13918196
224	0xbd9620c4	-0.07330468
225	0x3d8419fa	0.06450267
226	0xbbafa91b	-0.005360735
227	0x3c7025f8	0.01465749
228	0xbd4a8209	-0.049440417
229	0x3c49403e	0.012283383
230	0x3dfa513e	0.12222527
231	0x3d05443c	0.032535776
232	0x3d6cd101	0.05781651
233	0x3c8fefc5	0.017570386
234	0x3dbfde80	0.093686104
235	0x3d9a2ac8	0.07527691
236	0xbd783e8e	-0.06060653
237	0xbd79690f	-0.060891207
238	0x3cfa8d6b	0.030585011
239	0x3d5fcfef	0.05464166
240	0xbd53f6f8	-0.0517492
241	0x3ca0343d	0.01955616
242	0xbd6b6dd8	-0.057477802
243	0x3c4b6f2b	0.012416641
244	0xbda8c7cd	-0.08241234
245	0xbd2ddb8e	-0.04244571
246	0xbd8a0907	-0.06740003
247	0xbc9c3d4d	-0.0190722
248	0xbcbaada5	-0.022787878
249	0x3d909939	0.07060475
250	0xbca71c4c	-0.020399235
251	0x3c1c5824	0.009542499
252	0xbd4a6b1a	-0.049418546
253	0x3c8b12c9	0.01697673
254	0xbca3b356	-0.019982975
255	0xbd77b3f5	-0.060474355

encoder.conv2.bias f4 [16]
0	0xbd675a27	-0.05648246
1	0x3dbc672c	0.09199366
2	0x3d85f633	0.065410994
3	0xbc339e3d	-0.01096302
4	0x3cdf9f6a	0.027297694
5	0xbd8f9aba	-0.070119336
6	0x3d9c9133	0.07644882
7	0x3d8e59da	0.069507316
8	0x3d5d8d21	0.05408967
9	0xbc4a7a6a	-0.012358287
10	0x3b90a583	0.004414262
11	0x3ba31b5d	0.004977627
12	0xbae6f756	-0.0017621319
13	0xbb14cdfb	-0.0022705782
14	0xbbf7275b	-0.0075425333
15	0xbda8142f	-0.08206975

encoder.fc1.weight f4 [120, 400]
0	0x3cf0e5ea	0.029406507
1	0x3c0331e3	0.008007499
2	0x3c85a41e	0.016313609
3	0xbd118435	-0.035526473
4	0xbb841434	-0.0040307287
5	0xbd3becaa	-0.045879997
6	0xba2a720c	-0.00065019797
7	0xbd0700d5	-0.032959778
8	0xbd21a436	-0.039463244
9	0x3d0d5b3b	0.034510832
10	0xbd3c5e6c	-0.045988485
11	0xbd058fd7	-0.03260788
12	0x3c92cfc9	0.017921345
13	0xbcdf1ec2	-0.027236346
14	0xbd0329aa	-0.032022156
15	0xbd0a35dc	-0.03374277
16	0x3c86cf4f	0.016456274
17	0xbcff72c6	-0.031182658
18	0xbcde5659	-0.027140783
19	0x3ceadaea	0.02866884
20	0x3c7019ca	0.014654586
21	0x3d0e3785	0.034720916
22	0x3c176eae	0.009242697
23	0xbd15616c	-0.036469862
24	0xbce64803	-0.02811051
25	0xbc4b78ec	-0.012418967
26	0xbc8c8b9e	-0.017156418
27	0x3d11173d	0.035422552
28	0xbc551e69	-0.013007739
29	0x3bb6edb3	0.005582535
30	0xbd45fafb	-0.048335057
31	0x3cb4e5a3	0.022082156
32	0x3c47394d	0.012159658
33	0x3ce5a906	0.028034698
34	0xbd58b1bc	-0.052903876
35	0x3d12667d	0.03574227
36	0xbb7745f9	-0.0037730916
37	0xbc6f5851	-0.014608459
38	0xbca6a567	-0.020342542
39	0xbc8b88a2	-0.017032925
40	0xbd19c5d3	-0.037542176
41	0xbd020664	-0.031744376
42	0x3c0b11ad	0.008488101
43	0xbc011045	-0.007877414
44	0xbcdcf425	-0.026971886
45	0x3ca464be	0.020067569
46	0xbd4e6d1e	-0.05039703
47	0xbd5f37be	-0.05449652
48	0xbc00e7ec	-0.0078677945
49	0xbd1bc4b8	-0.038029402
50	0x3d1fab02	0.038981445
51	0xbd1d4f0d	-0.038405467
52	0x3cd2e661	0.025744619
53	0xbcecaba5	-0.02889044
54	0xbc409ccf	-0.011756136
55	0xbcae0d9b	-0.021246722
56	0x3d1315f5	0.03590961
57	0x3c394446	0.011307782
58	0xbd27f2db	-0.04100309
59	0xbd4e6eb7	-0.050398555
60	0xbc24a959	-0.010050141
61	0x3d08e395	0.033420164
62	0x3b461147	0.00302227
63	0xbca70cf0	-0.020391911
64	0x3c3065e7	0.010766483
65	0x3c36c17f	0.0111545315
66	0xbd1b8d0e	-0.037976317
67	0x3cc56371	0.024095269
68	0x3c4680cd	0.012115669
69	0xbd5d71f8	-0.054063767
70	0xbcf22470	-0.02955839
71	0x3cf9cfcc	0.030494593
72	0xbd018750	-0.031623185
73	0xbd491923	-0.049096238
74	0x3d03cbfd	0.03217696
75	0xbc6a87a0	-0.014314562
76	0xb9338734	-0.00017121137
77	0xbc10f31d	-0.008847025
78	0x3cfe95f9	0.031077372
79	0xbc8ae3b9	-0.01695429
80	0xbcead448	-0.028665677
81	0x3bae0d42	0.005311639
82	0xbcc73d71	-0.02432129
83	0x3cd5b493	0.026087081
84	0x3cea1724	0.028575487
85	0xb80709b8	-3.219556e-05
86	0xbd2a985f	-0.04164922
87	0xbd59487f	-0.053047653
88	0x3c7fce2a	0.015613118
89	0xbd03bf54	-0.032164887
90	0x3b1e10fb	0.0024119008
91	0xbca97ef4	-0.020690419
92	0xbb98b3b7	-0.0046600956
93	0xbcef25bd	-0.0291928
94	0xbcb7f116	-0.022453826
95	0xbc936c32	-0.017995927
96	0x3cb96766	0.022632312
97	0x3bcb0e4f	0.006196774
98	0xbd01e75a	-0.031714775
99	0xbc83cc69	-0.016088681
100	0x3ca047fc	0.019565575
101	0x3c139a8b	0.009009014
102	0x3c6fa20f	0.01462604
103	0xbc84b220	-0.016198218
104	0xbd43ad85	-0.047772903
105	0xbc56daf1	-0.013113723
106	0x3caef5c6	0.021357428
107	0xbd30003f	-0.042968985
108	0x3d30f712	0.043204375
109	0xbd2bc3a3	-0.04193462
110	0x3d008517	0.031376924
111	0xbcb3bed7	-0.021941585
112	0x3d0897d9	0.03334794
113	0x3cc86f0e	0.024467018
114	0xbd4d5f0f	-0.050139483
115	0xbc87402a	-0.016510088
116	0xbd56eecc	-0.05247383
117	0xbd2a4117	-0.04156598
118	0xbc4f7f7f	-0.012664675
119	0x3cb4284d	0.021991873
120	0xbc7de678	-0.015496843
121	0xbcc86360	-0.024461448
122	0x3d032c94	0.032024935
123	0x3c7509c6	0.014955943
124	0xbbcb401b	-0.0062027103
125	0xbcb97f99	-0.022643851
126	0x3c1cdcd0	0.00957413
127	0x3b0baf82	0.0021314328
128	0x3d0235ba	0.03178952
129	0xbd293b01	-0.041316036
130	0xbd4b7334	-0.049670413
131	0xbd5dae63	-0.054121386
132	0xbc65233a	-0.013985449
133	0x3d096a30	0.033548534
134	0xbbb0fc04	-0.0054011364
135	0xbd5c8be8	-0.053844362
136	0xbc48c077	-0.012252918
137	0xbd36d41c	-0.044635877
138	0x3ca95f7f	0.020675419
139	0xbd359229	-0.044328842
140	0x3ccf56ed	0.025310004
141	0xbd76f07e	-0.060287945
142	0xbcb93203	-0.022606855
143	0xbcd58361	-0.026063623
144	0xbd1eec81	-0.038799766
145	0xbd358c9e	-0.044323556
146	0xbd5077e3	-0.050895583
147	0xbd554dbf	-0.052076098
148	0x3b69659b	0.003561354
149	0xbd24ef7a	-0.040267445
150	0xbd0fb058	-0.035080284
151	0xbcb356b3	-0.021891927
152	0xbc7152d0	-0.014729217
153	0x3cb33883	0.021877533
154	0xbd324f12	-0.04353244
155	0xbd13386b	-0.035942476
156	0xbc22b01f	-0.009929686
157	0x3c0b5f5d	0.008506623
158	0xbd46d24a	-0.04854039
159	0xbd039295	-0.032122213
160	0xbc7385ca	-0.014863441
161	0xbc85069c	-0.016238503
162	0xbbf1494e	-0.007363475
163	0x3c75ca9c	0.015001919
164	0xbcacce79	-0.021094548
165	0xbd5fe8d5	-0.054665405
166	0x3acb5700	0.0015513599
167	0x3c499d8f	0.012305631
168	0xbc5d27a4	-0.013498221
169	0xbd087632	-0.033315845
170	0xbd36c597	-0.04462203
171	0xbc63c39e	-0.013901619
172	0x3d049936	0.032372676
173	0xbd20585f	-0.039146777
174	0xbd589a5e	-0.05288159
175	0xbc5540d8	-0.013015948
176	0xbace7980	-0.0015752763
177	0xbd3fd0c0	-0.04682994
178	0xbd366169	-0.04452649
179	0xbbc7939d	-0.006090595
180	0xbd6477d9	-0.055778358
181	0x3d0470b0	0.03233403
182	0xba076114	-0.0005164307
183	0x3c23a714	0.009988565
184	0xbd036ff1	-0.032089178
185	0xbc335e0b	-0.010947715
186	0xbd6bcc67	-0.05756798
187	0xbc0cfcc8	-0.00860519
188	0x3d2781c3	0.040895235
189	0xbd38e7b0	-0.04514283
190	0xba644629	-0.00087079644
191	0xbd33da38	-0.04390928
192	0xbce732b1	-0.028222414
193	0xbd582589	-0.05277017
194	0xbd493597	-0.049123373
195	0x3d0d74c6	0.034535192
196	0xbd361a6d	-0.044458795
197	0xbd5f379d	-0.054496396
198	0x3d076796	0.03305777
199	0xbc551ac5	-0.013006871
200	0x3c315e7e	0.010825751
201	0xbc6475ba	-0.013944084
202	0xbd2d2c4d	-0.042278577
203	0xbcc33818	-0.023830459
204	0x3c447bf8	0.011992447
205	0x3cf26224	0.029587813
206	0xbd298329	-0.04138485
207	0x3c02a554	0.007973988
208	0xbd1ff5bb	-0.039052706
209	0x3d152c6a	0.03641931
210	0x3d20fd0c	0.039303824
211	0xbd166054	-0.03671296
212	0x3c59d2bb	0.013294871
213	0xbd36297d	-0.04447316
214	0xbd2ac864	-0.041695014
215	0xbcc32914	-0.023823299
216	0x3ce61b03	0.028089052
217	0xbc3f0659	-0.011659228
218	0xbc095032	-0.008380936
219	0xbc22e324	-0.00994185
220	0xbd30b3c5	-0.04314019
221	0xbca4e087	-0.020126594
222	0x3c0c1bbb	0.008551533
223	0xba46f352	-0.0007589358
224	0x3c40bfac	0.011764448
225	0xbbe44716	-0.006966482
226	0xbca18b37	-0.019719703
227	0x3caa3a9f	0.020779906
228	0x3cf230fa	0.02956437
229	0xbbb5c94c	-0.005547678
230	0xbcfa68fb	-0.030567637
231	0x3c12af4c	0.008952927
232	0x3ca0308d	0.0195544
233	0x3d1e8290	0.038698733
234	0xbce0035d	-0.027345354
235	0x3d0e785a	0.034782745
236	0x3a9da247	0.0012026512
237	0xbccf7777	-0.02532552
238	0x3c675fea	0.014121989
239	0xbbbf3534	-0.0058351997
240	0xbc8c46ba	-0.017123569
241	0xbce9f68f	-0.028559951
242	0x3cce59eb	0.02518936
243	0x3cecc802	0.028903965
244	0xbc284976	-0.010271421
245	0xbc24c913	-0.010057705
246	0xbcb5cd88	-0.022192731
247	0xbd5111b1	-0.051042262
248	0xbc2055fe	-0.009786127
249	0xbd383a73	-0.044977617
250	0x3d15394c	0.036431596
251	0x3d1c1737	0.038108077
252	0xbd145b34	-0.03621979
253	0x3cb62bdb	0.022237709
254	0xbd32f7dd	-0.043693412
255	0xbd2280bd	-0.039673556

encoder.fc1.bias f4 [120]
0	0x3cb0ea79	0.02159618
1	0xbd0cf642	-0.034414537
2	0xbd55b39a	-0.052173235
3	0xbd06c363	-0.03290118
4	0xbd131e1a	-0.03591738
5	0xbd735eba	-0.05941651
6	0x3b449ad5	0.0029999514
7	0xb9beede9	-0.0003641688
8	0x3cb5162a	0.022105295
9	0x3caf4d68	0.021399215
10	0xbc757ea4	-0.014983807
11	0xbc8c8886	-0.017154943
12	0xbd0f3e31	-0.03497142
13	0x3d2d89b8	0.042367667
14	0x3d157b28	0.036494404
15	0xbd042eb9	-0.03227112
16	0x3c51968b	0.01279224
17	0x3b5fdc85	0.003415854
18	0x3d3485f4	0.04407306
19	0xbc834f1a	-0.01602893
20	0x3d053426	0.032520436
21	0xbc41ef5d	-0.011836854
22	0xbcc863d4	-0.024461664
23	0x3d434e28	0.047681957
24	0xbd83d2ee	-0.06436716
25	0x3ce26fb9	0.027641164
26	0xbd4f08a2	-0.050545342
27	0xbd3193b7	-0.043353762
28	0x3c9fdf99	0.0195158
29	0x3bdeacae	0.0067954874
30	0x3d3c2a24	0.045938626
31	0xbcfd47fc	-0.030918114
32	0xbd448b07	-0.04798415
33	0xbc5c96cb	-0.013463686
34	0xbc482605	-0.012216096
35	0x3d3297ab	0.043601673
36	0x3b4c479b	0.003117061
37	0xbcb91963	-0.022595113
38	0xbcbf7038	-0.02336894
39	0x3c6ce332	0.014458464
40	0xbd802bbc	-0.06258342
41	0x3aca7958	0.001544754
42	0x3ad93415	0.0016571308
43	0xbd9dd0dc	-0.077058524
44	0xbd7a2f50	-0.061080277
45	0xbd0870ab	-0.033310574
46	0x3cdef073	0.027214264
47	0x3c05f803	0.008176806
48	0xbc5ec248	-0.013596125
49	0xbc9b627d	-0.018967861
50	0xbc7d5499	-0.015462064
51	0xbd9abc75	-0.075554766
52	0xbcd7f859	-0.026363539
53	0xbd9977bf	-0.07493543
54	0x3bae6f8a	0.005323355
55	0x3c395c80	0.011313558
56	0x3bd5527b	0.0065100766
57	0x3c9c09ab	0.019047579
58	0xbcf3f157	-0.029778166
59	0x3d0834fa	0.033253647
60	0xbd2a08a4	-0.041512147
61	0xbd972ebb	-0.0738196
62	0x3c2c2262	0.010506244
63	0x3d8259bd	0.063647725
64	0x3d31d54b	0.043416303
65	0xbce0e4a1	-0.027452769
66	0xbc7d992f	-0.015478416
67	0x3cb2e8fd	0.021839613
68	0xbd0c4f12	-0.034255095
69	0xbba74447	-0.005104575
70	0xbd889fea	-0.06671126
71	0x3dabac2a	0.08382447
72	0xbd2773b7	-0.04088184
73	0x3c1f7ed3	0.009734827
74	0x3cbd63ff	0.02311897
75	0xbba22beb	-0.004949083
76	0x3b4c0950	0.003113348
77	0x3c87edec	0.016592942
78	0xbd80455d	-0.0626323
79	0xbd480d4c	-0.048840806
80	0xbbf76194	-0.007549474
81	0xbce7d9b6	-0.028302055
82	0x3cb548af	0.022129385
83	0xbd2939e3	-0.04131497
84	0x3d00d460	0.031452537
85	0xbd17d280	-0.037065983
86	0xbd17bb48	-0.03704384
87	0x3d2d7f0a	0.042357482
88	0x3c7611de	0.015018908
89	0x3d047c71	0.03234524
90	0x3d2232bd	0.03959917
91	0xbcaf1949	-0.021374362
92	0x38c50182	9.393973e-05
93	0xbd76730a	-0.060168304
94	0xbcfe817f	-0.031067608
95	0x3c56990d	0.013098014
96	0x3c99b4e4	0.018763013
97	0xbd8041f4	-0.062625796
98	0xbd88f43b	-0.06687208
99	0xbd3f35d2	-0.046682186
100	0xbbf0de3c	-0.007350711
101	0xbb2d3ea8	-0.002643505
102	0xbd228574	-0.039678052
103	0xbcfbbe0c	-0.03073027
104	0xbc9aa224	-0.018876143
105	0xbd53959b	-0.051656347
106	0x3d0d7924	0.034539357
107	0x3c22e091	0.009941236
108	0x3cb14a07	0.021641744
109	0x3897ae92	7.232757e-05
110	0x3cf6e8b1	0.030140253
111	0x3d0b60d3	0.034027886
112	0x3c20240a	0.009774217
113	0x3d95fb09	0.07323272
114	0xbc906545	-0.017626414
115	0x3cf7d659	0.030253576
116	0xba9177d8	-0.0011098338
117	0x3d44c234	0.04803677
118	0x3bb7a75c	0.0056046676
119	0xbc26839a	-0.010163212

encoder.fc2.weight f4 [84, 120]
0	0x3cd0617a	0.025437105
1	0x3d16ff23	0.03686441
2	0x3d97c79e	0.07411121
3	0x3c48a82e	0.012247128
4	0x3d90d7ae	0.07072388
5	0x3c86bcce	0.016447451
6	0x3d1a1673	0.037619065
7	0xbdb2bafe	-0.08727072
8	0x3ce19182	0.027535204
9	0xbc4bb217	-0.012432597
10	0x3d458032	0.04821796
11	0x3db437b0	0.08799684
12	0xbda460e4	-0.08026293
13	0x3d9f177d	0.07768152
14	0x3c49ad27	0.012309349
15	0xbd5a6032	-0.053314395
16	0xbd0a9409	-0.033832584
17	0x3d6cca58	0.057810158
18	0x3dbccf07	0.09219175
19	0x3da0843c	0.07837722
20	0x3d2a5bbb	0.041591387
21	0x3d89b754	0.0672442
22	0xbcdf4929	-0.027256565
23	0x3d833d8f	0.06408226
24	0xbd9ebb6d	-0.077505924
25	0xbddf736d	-0.109106876
26	0xbd2714dd	-0.04079138
27	0x3d928456	0.07154147
28	0x3d51af48	0.05119255
29	0x3d2fcd7b	0.04292057
30	0xbd20892e	-0.039193325
31	0xbccc4011	-0.024932893
32	0xbd9cfee2	-0.076658025
33	0x3db80e75	0.089871325
34	0x3dafc963	0.08583333
35	0x3d8361d7	0.06415146
36	0xbd16ef20	-0.03684914
37	0xbd90b4b4	-0.070657164
38	0xbd8722e7	-0.06598454
39	0xbd43d16e	-0.04780715
40	0x3d627102	0.055283554
41	0x3c5af6db	0.013364519
42	0xbd01e46c	-0.03171198
43	0xbdcac34c	-0.09900531
44	0xbdaa1624	-0.08305004
45	0xbbbb6c90	-0.005719729
46	0xbd011a17	-0.03151902
47	0x3daf2cc7	0.085534625
48	0x3d313c7f	0.043270584
49	0x3d172990	0.03690487
50	0xbcfe343f	-0.031030772
51	0xbd11a8a7	-0.03556123
52	0x3cd7cde5	0.026343295
53	0x3d82a106	0.06378369
54	0xbce8b01c	-0.028404288
55	0xbc0d467c	-0.008622762
56	0x3d7af6fb	0.061270695
57	0x3d00a6af	0.03140896
58	0xbd5700b0	-0.05249089
59	0x3d4cf042	0.050033815
60	0xbccd4bb5	-0.025060514
61	0xbb40609b	-0.0029354456
62	0xbd09d8a2	-0.033653863
63	0x3c1ac762	0.009446951
64	0x3df28e3c	0.11843535
65	0x3ce9a4b9	0.028520929
66	0x3c5f69fe	0.01363611
67	0x3d8eda73	0.0697526
68	0xbda8b66a	-0.08237918
69	0x3ca7ddfd	0.020491594
70	0x3d13c5f0	0.03607744
71	0xbd84e801	-0.06489564
72	0x3cb1a145	0.021683345
73	0xbc4632a5	-0.012097036
74	0xbd3f1a50	-0.046655953
75	0xbc0f3cbb	-0.008742507
76	0xbd446aaf	-0.047953304
77	0xbc85d371	-0.016336175
78	0x3ca5a822	0.020221774
79	0xbc506fab	-0.012721936
80	0xbd911406	-0.07083897
81	0x3d0579da	0.03258691
82	0x3de1b975	0.11021701
83	0xbc35b733	-0.011091041
84	0x3dabce52	0.08388962
85	0x3be52c4d	0.0069938065
86	0x3dcc09f6	0.099628374
87	0x3de234dd	0.11045239
88	0x3cbe17e4	0.023204751
89	0xbd0fd40c	-0.035114333
90	0x3d1e48a8	0.03864351
91	0x3d496226	0.049165867
92	0x3e283c8f	0.16429351
93	0x3d57fef9	0.052733395
94	0x3d6b456d	0.057439256
95	0x3b622cd9	0.0034511595
96	0x39a48f5b	0.00031387326
97	0x3d96b551	0.07358802
98	0xbd27e11f	-0.040986177
99	0xbd940249	-0.07226998
100	0x3d13a770	0.036048353
101	0x3d8d2086	0.06890969
102	0x3dcb143b	0.09915968
103	0xbc9234ef	-0.017847506
104	0xbd7ebb7f	-0.06219053
105	0xbd9e0f4d	-0.07717762
106	0x3ce3b849	0.027797835
107	0xbc002015	-0.007820149
108	0xbd76866f	-0.0601868
109	0x3dc9054f	0.09815466
110	0xbc8541dc	-0.016266756
111	0xbd15be7d	-0.036558617
112	0x3d8b2a8e	0.06795226
113	0x3da075af	0.07834946
114	0xbd950149	-0.07275636
115	0x3cb363d0	0.02189818
116	0x3cc75822	0.024334017
117	0x3d9a0c93	0.075219296
118	0x3c3d6103	0.011558774
119	0x3c6802f5	0.014160861
120	0x3d6dc51d	0.05804931
121	0xbddfc762	-0.10926701
122	0xbc5cd600	-0.013478756
123	0xbd06a00f	-0.032867488
124	0x3d1c1a63	0.0381111
125	0x3d352ba9	0.04423109
126	0xbd90ea93	-0.070759915
127	0xbda137ca	-0.07871969
128	0x3db0453c	0.086069554
129	0xbd2fc250	-0.04290992
130	0x3d77e877	0.06052443
131	0x3cc4692e	0.023975935
132	0x3d3a2b70	0.04545158
133	0xbbaf052e	-0.0053411936
134	0xbd3ac282	-0.045595653
135	0x3c79c337	0.015244297
136	0xbd8f8d00	-0.070093155
137	0xbd7946cb	-0.06085853
138	0x3d150ed6	0.0363911
139	0x3bacf792	0.005278536
140	0xbd462995	-0.0483795
141	0x3d00b720	0.03142464
142	0xbd2a05f3	-0.04150958
143	0xbd76246b	-0.060093325
144	0x3daa9442	0.08329059
145	0xbdadb9d4	-0.084827095
146	0x3d6e0d94	0.058118418
147	0x3cbf53ae	0.023355331
148	0xbc9e5bfd	-0.019330973
149	0x3cbc0e1b	0.022955945
150	0x3d42f8b4	0.047600463
151	0xbb8b0ee7	-0.00424372
152	0xbcdc192d	-0.026867473
153	0xbc7a15b7	-0.015263966
154	0xbdf6f028	-0.12057525
155	0xbdf224c1	-0.118234165
156	0xbd3808a9	-0.044930134
157	0xbdbcf58b	-0.09226521
158	0xbd9bde4b	-0.076107584
159	0x3d8fd48f	0.07022964
160	0xbdde9e59	-0.10870046
161	0x3dc12c07	0.09432226
162	0xbd5d7602	-0.05406762
163	0xbddbaa05	-0.10725788
164	0x3d26f633	0.040762138
165	0x3d31baac	0.043390915
166	0x3c81a265	0.015824506
167	0x3d755fe9	0.05990592
168	0x3d9e0042	0.07714893
169	0x3d7c36e5	0.06157579
170	0xbcb37183	-0.021904713
171	0x3ce3d018	0.027809188
172	0x3d1a8dcf	0.037732895
173	0xbd128c5b	-0.035778385
174	0x3c84e6ff	0.016223429
175	0xbd3f6644	-0.046728387
176	0x3c9ac4c4	0.018892653
177	0xbd4727c8	-0.048621923
178	0x3ce0c2ba	0.027436603
179	0x3d4fb043	0.050705206
180	0x3d8f92b7	0.070104055
181	0xbd806cb0	-0.062707305
182	0xbd51a456	-0.051182114
183	0xbcadb0da	-0.021202493
184	0x3cbdc42f	0.023164837
185	0x3d93554f	0.07194006
186	0x3d3c11da	0.045915462
187	0xbca55963	-0.020184224
188	0xbbfea3a1	-0.007770971
189	0xbce0db25	-0.027448246
190	0xbc9b871c	-0.018985324
191	0xbbde0166	-0.006775069
192	0xbccf8fa3	-0.025337046
193	0xbaad15c4	-0.0013205339
194	0x3d97f915	0.074205555
195	0x3c7faeac	0.01560561
196	0x3d043548	0.032277375
197	0x3ca24f63	0.019813245
198	0x3c1dae69	0.009624102
199	0x3d154910	0.03644663
200	0xbd1bc745	-0.038031835
201	0xbd8d4fcc	-0.06899986
202	0xbe03cea6	-0.12871799
203	0x3d9421fe	0.07233046
204	0xbdb11577	-0.08646672
205	0x3c1ba39e	0.009499459
206	0x3d71e049	0.059051786
207	0xbda95a69	-0.082691975
208	0x3d2e575f	0.042563792
209	0xbc4fbcad	-0.012679261
210	0xbdd31eec	-0.10308632
211	0x3ccdf34f	0.025140433
212	0xbd245622	-0.040121205
213	0xbb6e2f65	-0.0036344167
214	0x3d972fd5	0.0738217
215	0xbd5d774c	-0.05406885
216	0x3d033e44	0.032041803
217	0xbd4d093f	-0.050057646
218	0xbb826f41	-0.0039805477
219	0x3d034d99	0.032056425
220	0xbd80589a	-0.062668994
221	0xbce033c6	-0.027368437
222	0xbda4c9ae	-0.0804628
223	0xbd846833	-0.06465187
224	0x3d1ea755	0.0387338
225	0xbd78bd4f	-0.060727414
226	0xbd48aecd	-0.048994828
227	0xbdaf3974	-0.0855588
228	0x3c974445	0.01846517
229	0xbc3d1ee4	-0.011543009
230	0xbd57a886	-0.05265095
231	0xbd21111d	-0.03932296
232	0xbd6dde31	-0.058073226
233	0xbd70d900	-0.058800697
234	0xbd2c1797	-0.042014685
235	0x3d61de1e	0.055143468
236	0x3c9d4851	0.019199522
237	0x3db58a8f	0.088643186
238	0xbcf8fed7	-0.030394955
239	0xbd8a0e8f	-0.06741058
240	0x3ca14be4	0.019689508
241	0xbde535c2	-0.11191894
242	0xbd98acf9	-0.07454867
243	0x3d54737b	0.051867943
244	0x3d86bce4	0.06578997
245	0x3da9e409	0.082954474
246	0xbc8dec3d	-0.017324561
247	0xbb8a5a7b	-0.004222212
248	0xbc008fa5	-0.0078467475
249	0xba8763e2	-0.001032945
250	0x3da56060	0.08075023
251	0xbd909aea	-0.070607975
252	0xbb24aced	-0.0025127486
253	0xbdb6a1f3	-0.08917608
254	0x3d30502d	0.04304521
255	0xbd5311b2	-0.051530547

encoder.fc2.bias f4 [84]
0	0x3d34ad2f	0.044110473
1	0xbddd3841	-0.10801745
2	0xbdfe00ca	-0.12402494
3	0xbc1278e2	-0.0089399535
4	0xbd277e9b	-0.040892225
5	0xbdd9c669	-0.10633547
6	0x3c3df1d9	0.0115933055
7	0xbd991420	-0.07474542
8	0x3dabebdb	0.08394595
9	0xbd67c7e7	-0.056587126
10	0xbd2152e6	-0.0393857
11	0xbd0181ca	-0.031617917
12	0x3cef612f	0.029221145
13	0xbc2294b2	-0.009923147
14	0x3d626770	0.055274427
15	0xbca3da96	-0.02000169
16	0xbd8204af	-0.063485496
17	0xbdcbdd4c	-0.099543184
18	0xbda434ad	-0.080178596
19	0x3bb2d003	0.005456926
20	0xbd1966c8	-0.037451535
21	0xbd189e03	-0.037260067
22	0xbd198f78	-0.037490338
23	0x3d3498f4	0.04409118
24	0x3c53a50d	0.012917769
25	0xbb73ceb2	-0.0037202057
26	0x3d42bae9	0.047541533
27	0xbbda4369	-0.006660868
28	0xbd42f102	-0.047593124
29	0x3becec5b	0.007230324
30	0xbd5c4efb	-0.05378626
31	0x3df9160c	0.12162408
32	0xbddb7ff7	-0.10717767
33	0x3cdd0d8b	0.026983997
34	0xbd385d81	-0.045011047
35	0x3dc992b6	0.09842436
36	0xbcc35d3e	-0.023848172
37	0x3d745b8a	0.05965761
38	0xbd27b980	-0.04094839
39	0xbc8a69e0	-0.016896188
40	0xbd97fc31	-0.074211486
41	0x3d598667	0.05310669
42	0xbd53c486	-0.05170109
43	0x3daf228e	0.08551513
44	0xbc4cbb15	-0.012495776
45	0xbbce8851	-0.0063028713
46	0x3db55987	0.088549666
47	0xbcf7559a	-0.030192185
48	0xbd2772ce	-0.04088097
49	0xbd10ee5b	-0.035383563
50	0xbd43258f	-0.04764324
51	0xbdcb90db	-0.09939738
52	0xbd335b8e	-0.043788485
53	0xbcd7a6a4	-0.026324578
54	0x3c23e341	0.010002912
55	0x3d84ac44	0.064781696
56	0xbcf2d39c	-0.029641919
57	0xbdfe6e35	-0.12423364
58	0x3da5f91d	0.08104155
59	0x3d1cc185	0.038270492
60	0x3cf2d80d	0.029644037
61	0xbc3074db	-0.010770048
62	0x3c83408a	0.016021986
63	0xbda18a58	-0.07887715
64	0x3c9733ab	0.018457254
65	0xbdaa4c62	-0.0831535
66	0x3a6a8243	0.0008945802
67	0x3e013632	0.1261833
68	0x3b49e6ad	0.003080766
69	0x3a832572	0.0010005666
70	0x3b67003b	0.003524794
71	0x3cf53ff7	0.029937727
72	0xbd0cd04d	-0.03437834
73	0xbd2be86f	-0.041969713
74	0xbd534c15	-0.05158623
75	0xbbfc0536	-0.007691051
76	0x3d7ddc25	0.061977524
77	0x3ad0f0aa	0.0015940864
78	0xbd78dcf7	-0.060757603
79	0x3d7196ef	0.058981832
80	0xbd68abae	-0.05680435
81	0xbcec2f46	-0.028831135
82	0xbca700b1	-0.020386072
83	0xbd5b54d3	-0.05354769

bottleneck.fc.weight f4 [16, 84]
0	0x3d6553ce	0.055988126
1	0xbc7498cf	-0.0149290105
2	0xbd07b40a	-0.033130683
3	0xbbbf94d5	-0.0058465996
4	0x3e0fc59d	0.14040227
5	0xbce92b4a	-0.028463025
6	0xbd1db81a	-0.03850565
7	0xbcaec089	-0.021332042
8	0x3df9be37	0.12194484
9	0x3dfc80f2	0.12329282
10	0x3d01ca79	0.031687234
11	0xbe0931e7	-0.13397942
12	0xbd788688	-0.060675174
13	0x3dbb8a61	0.09157253
14	0xbdb64c08	-0.089012206
15	0xbd133148	-0.03593567
16	0xbd738ea7	-0.059462216
17	0xbd97711f	-0.07394623
18	0x3bd399d4	0.0064575467
19	0xba62f26c	-0.00086573395
20	0xbc9394e3	-0.01801533
21	0x3dd5dbc8	0.104423106
22	0x3d7ab879	0.061211083
23	0x3db95e1b	0.09051152
24	0x3d09529a	0.03352604
25	0xbd2a59a0	-0.04158938
26	0x3dbe23fc	0.09284207
27	0x3d6ed564	0.058308974
28	0x3daa114a	0.08304079
29	0x3dcacc0e	0.099022016
30	0xbdea9d14	-0.114557415
31	0xbd9f9cdd	-0.07793591
32	0xbdfaf790	-0.1225425
33	0x3df710e8	0.120637715
34	0xbb5eba5f	-0.0033985598
35	0xbe167eca	-0.14696804
36	0x3dc13175	0.09433261
37	0xbd3733c7	-0.044727113
38	0xbc5dee05	-0.013545518
39	0x3cd63c11	0.026151689
40	0x3d6bb088	0.0575414
41	0x3deaab04	0.114584
42	0x3d067538	0.032826632
43	0xbd3a8d7e	-0.045545094
44	0xbd39e359	-0.04538283
45	0xbd1bb4e5	-0.03801431
46	0x3dafd501	0.08585549
47	0x3d5a83b2	0.05334825
48	0x3de8ae2d	0.113613464
49	0xbdfd0da4	-0.12356117
50	0x3da2ff7d	0.07958887
51	0xbda0f9e8	-0.07860166
52	0x3dd6af51	0.10482658
53	0xbc68ab52	-0.014201002
54	0x3d8b4075	0.067994036
55	0xbbea2f1b	-0.0071467287
56	0xbcf675b1	-0.030085417
57	0xbc49d5bf	-0.012319027
58	0x3cdfd1ff	0.027321814
59	0x3d0d451c	0.034489736
60	0x3df8232f	0.12116086
61	0x3e082f35	0.13299258
62	0xbdd603c2	-0.104499355
63	0xbd70789a	-0.058708765
64	0x3d646cc8	0.055767804
65	0xb9d5c44a	-0.00040772773
66	0xbc300f13	-0.0107457815
67	0xbde39405	-0.11112217
68	0x3ddce27b	0.10785385
69	0x3c94361f	0.018092213
70	0x3d8604dd	0.06543896
71	0xbd919c6d	-0.07109914
72	0x3c01ea98	0.007929467
73	0xbdd1411b	-0.10217496
74	0xbd905537	-0.070475034
75	0xbe231648	-0.15926468
76	0xbdabcfa9	-0.083892174
77	0x3e2f44cd	0.17116089
78	0x3c8ca7c3	0.017169839
79	0x3d5c0904	0.053719535
80	0x3e1b1a3c	0.15146726
81	0x3d86b672	0.065777674
82	0x3cbd88b6	0.023136478
83	0x3ceda384	0.029008634
84	0xbd9ebd10	-0.077509046
85	0x3cb2c746	0.021823537
86	0x3dcf1ab4	0.10112515
87	0x3d6de1f2	0.058076806
88	0xbdc896f4	-0.09794417
89	0x3ce46934	0.027882196
90	0xbda74810	-0.08168042
91	0xbda0a8e7	-0.078447156
92	0x3d873904	0.06602672
93	0xbde428cf	-0.11140596
94	0x3d9a2507	0.07526594
95	0xbd314c3f	-0.043285605
96	0x3cd16802	0.02556229
97	0xbdf624eb	-0.1201876
98	0x3d1d3887	0.038383987
99	0xbde68941	-0.11256648
100	0x3d349253	0.04408486
101	0x3dc6e27d	0.09711168
102	0xbcbbafca	-0.022910971
103	0xbd5acfd0	-0.05342084
104	0x3daa461c	0.083141536
105	0xbd108ba5	-0.035289425
106	0xbda82a5d	-0.08211205
107	0xbdfad7da	-0.12248202
108	0x3d9450f5	0.07242004
109	0xbcee3a9b	-0.02908068
110	0xbd5250eb	-0.0513467
111	0xbd88e80d	-0.06684885
112	0xbd98e7f6	-0.07466118
113	0xbe01e765	-0.12685926
114	0xbba764a6	-0.005108434
115	0xbdb2d28f	-0.08731567
116	0xbc1426a7	-0.009042419
117	0x3d4e6b8b	0.05039553
118	0x3d306699	0.043066595
119	0xbcc5717f	-0.02410197
120	0xbe081589	-0.13289465
121	0xbcb61594	-0.022227086
122	0x3d877d45	0.0661569
123	0xbccea095	-0.025223056
124	0xbd815718	-0.0631544
125	0xbe1085af	-0.14113496
126	0xbdd5ee76	-0.104458734
127	0x3d37a843	0.0448382
128	0xbbe69236	-0.0070364727
129	0xbbb0f575	-0.0054003545
130	0xbe0deff0	-0.1386106
131	0xbd3909ee	-0.045175485
132	0x3d8789fd	0.06618116
133	0xbda030e2	-0.07821824
134	0x3d793d82	0.060849674
135	0xbb7e65a6	-0.0038817911
136	0xbddf70ce	-0.10910188
137	0x3d5857f3	0.05281825
138	0x3c468bb2	0.012118267
139	0xbdd72b95	-0.105063595
140	0x3da57e29	0.08080704
141	0x3d469cfb	0.048489552
142	0x3c7cb9fb	0.015425201
143	0xbd8af97b	-0.06785866
144	0xbdcbbd8d	-0.09948263
145	0xbd64ce13	-0.05586059
146	0x3db34a85	0.08754448
147	0xbdd0f250	-0.102024674
148	0x3d807ace	0.06273423
149	0x3db50e4f	0.0884062
150	0xbd81d1db	-0.06338855
151	0x3c701f95	0.014655967
152	0xbd6cbf04	-0.057799354
153	0xbdaa93fd	-0.08329008
154	0x3d81e1b1	0.06341875
155	0x3dcdbeea	0.100461796
156	0x3c52260c	0.012826454
157	0x3db943c9	0.09046132
158	0xbcd2dac3	-0.02573908
159	0x3d329172	0.04359574
160	0xbd952087	-0.07281595
161	0x3d8f4ea5	0.06997422
162	0xbcafc17e	-0.021454569
163	0xbd83b467	-0.064308934
164	0x3d690ccf	0.05689698
165	0x3ce242ce	0.027619746
166	0xbc84a3fe	-0.016191479
167	0xbdce53d2	-0.10074581
168	0x3e078e86	0.13237962
169	0xbd8d28b8	-0.06892532
170	0x3da04358	0.07825345
171	0xb917b8ed	-0.00014469372
172	0xbe0979b4	-0.13425332
173	0xbdb59e84	-0.08868125
174	0xbd6aff7f	-0.057372566
175	0x3dddf115	0.108369984
176	0xbdb7cde4	-0.089748174
177	0xbdfc69b2	-0.12324847
178	0x3dc47576	0.095927164
179	0x3db10c95	0.08644978
180	0x3e15c174	0.14624578
181	0xbc0e7a52	-0.008696156
182	0x3db5254b	0.08845004
183	0xbcc876f6	-0.024470787
184	0xbe325631	-0.17415692
185	0x3ce66f21	0.028129162
186	0xbc8bd850	-0.01707092
187	0xbcb47837	-0.02202998
188	0xbcb3809d	-0.021911914
189	0xbd37cd7e	-0.044873707
190	0xbc90599f	-0.01762086
191	0x3de5e46d	0.112252094
192	0xbdd53f49	-0.10412461
193	0x3cc1adbf	0.023642419
194	0xbc829d97	-0.015944285
195	0xbda2043a	-0.079109624
196	0x3a0378a0	0.0005015228
197	0x3d4599af	0.048242267
198	0x3a65f3e1	0.00087719975
199	0x3dd8ed0b	0.10592087
200	0xbd90b0a5	-0.07064942
201	0xbd06edec	-0.032941744
202	0x3ba153b3	0.004923308
203	0xbd3a92d3	-0.04555018
204	0x3df42d6e	0.119227275
205	0xbb574ee1	-0.0032853412
206	0xbe0d3985	-0.13791473
207	0xbd87f5b0	-0.06638658
208	0x3df1ff26	0.11816244
209	0x3dd8e70e	0.10590945
210	0x3cb991b9	0.022652494
211	0xbd64d184	-0.055863872
212	0xbc98e253	-0.018662607
213	0xbcace8c9	-0.021107094
214	0x3cef2f81	0.029197456
215	0xbd087808	-0.033317596
216	0x3d1e1101	0.038590435
217	0xbcbcdaed	-0.02305361
218	0x3d88d8e4	0.066819936
219	0x3b8ed9a4	0.004359441
220	0x3dac28c2	0.084062114
221	0xbd8c721b	-0.068577014
222	0xbc8bc663	-0.017062372
223	0x3dcdb2d4	0.100438744
224	0x3e2313bc	0.15925497
225	0x3decf37f	0.11569881
226	0x3d7fe78d	0.062476683
227	0xbb1b2b21	-0.002367683
228	0xbd5c64b4	-0.053806975
229	0xbdf5a5f8	-0.11994547
230	0x3da4ecdb	0.08052989
231	0xbd6d5bd7	-0.057948913
232	0xbde45a6b	-0.11150058
233	0xbe04c7b8	-0.12966812
234	0x3ca46ac5	0.020070443
235	0x3dff22c5	0.12457804
236	0x3d441024	0.047866955
237	0x3d2e19f6	0.042505227
238	0x3c0721b5	0.0082477825
239	0xbd87b6c0	-0.06626654
240	0x3c887e4c	0.016661786
241	0x3d386e4e	0.04502707
242	0x3cb2161b	0.021739056
243	0xbd4eb511	-0.050465647
244	0x3de9d686	0.1141787
245	0xbbe9614c	-0.0071221944
246	0x3d6033f0	0.05473703
247	0x3cbb9b0b	0.022901079
248	0xbd9ef5ac	-0.07761702
249	0x3d92ba63	0.07164457
250	0x3d874dc2	0.06606628
251	0x3dfd2b75	0.123618044
252	0xbcecf5e2	-0.02892584
253	0x3d0d0827	0.034431603
254	0x3d4996cd	0.04921608
255	0xbc7e3908	-0.015516527

bottleneck.fc.bias f4 [16]
0	0x3da32ed3	0.079679154
1	0x3c9dd059	0.019264387
2	0xbde9fdbc	-0.11425349
3	0xbd0a2288	-0.033724338
4	0xbdc4f6f2	-0.096174136
5	0xbd8c03ba	-0.06836648
6	0x3da23667	0.07920533
7	0x3db52b56	0.08846156
8	0xbdc93113	-0.09823813
9	0xbdaa19bb	-0.08305689
10	0x3dc939be	0.098254666
11	0xbd7a8e1c	-0.061170682
12	0x3d95fc2d	0.07323489
13	0x3dd684e0	0.10474563
14	0xbd9b905c	-0.07595894
15	0x3ce56ee0	0.02800697

decoder.fc3.weight f4 [84, 16]
0	0xbd15f612	-0.036611624
1	0xbdd627f1	-0.10456837
2	0xbe1d4d0f	-0.15361427
3	0xbb3be773	-0.002867189
4	0x3bf07180	0.007337749
5	0xbd96e78a	-0.07368381
6	0x3d9ca43c	0.07648513
7	0xbda6680b	-0.08125313
8	0xbdfd2404	-0.12360385
9	0xbda9ec37	-0.082970075
10	0x3e1c963a	0.15291682
11	0xbe7d1ccc	-0.24718016
12	0x3de85c96	0.11345784
13	0xbe383b21	-0.17991306
14	0x3e242e9a	0.16033402
15	0xbe4772b2	-0.19477347
16	0xbd38495c	-0.044991836
17	0xbe5c751c	-0.21529049
18	0x3dccf7a8	0.10008174
19	0xbe7f7cb5	-0.24949916
20	0x3cccbd68	0.02499266
21	0x3de1cf28	0.1102584
22	0xbd7d617a	-0.06186054
23	0x3e53ba16	0.20676455
24	0xbd44c412	-0.04803855
25	0xbe572cb1	-0.21013142
26	0xbe0c1fe4	-0.1368404
27	0x3e353a82	0.176981
28	0xbd452d86	-0.048139118
29	0x3ea16748	0.3152411
30	0xbe3f7310	-0.18696237
31	0x3e1813d8	0.1485132
32	0xbd689f5b	-0.0567926
33	0x3e10d493	0.1414359
34	0xbe4dabe8	-0.20085108
35	0x3d921cf6	0.0713443
36	0xbe335b02	-0.17515185
37	0x3da78dbf	0.08181333
38	0x3e90b4aa	0.28262836
39	0x3e418c81	0.18901254
40	0x3cf4a649	0.029864447
41	0xbd629643	-0.055319082
42	0xbe5b5a1b	-0.21421091
43	0xbe37c1e8	-0.17945063
44	0x3da39eea	0.07989295
45	0xbe728fc3	-0.23687653
46	0xbbf4ff9b	-0.0074767596
47	0xbe1a5062	-0.15069726
48	0x3e7881bb	0.24268238
49	0x3e3d256d	0.18471308
50	0x3e74bf28	0.23901045
51	0xbd24af33	-0.040206145
52	0x3c01c101	0.007919551
53	0xbe6f8c07	-0.2339326
54	0x3cdf7e87	0.027282013
55	0xbe84bd66	-0.2592575
56	0xbe0f9a2a	-0.14023653
57	0xbe7e8305	-0.24854667
58	0x3e1333e5	0.14375265
59	0x3e3c3f4e	0.18383524
60	0x3e63b784	0.22237974
61	0x3e1e77f2	0.15475443
62	0x3e773f4e	0.24145243
63	0x3de16de0	0.11007285
64	0x3d333556	0.043752037
65	0xbe63d70a	-0.2225
66	0xbd92603e	-0.07147263
67	0xbd152316	-0.036410414
68	0x3d74f87e	0.059807293
69	0x3e57c6e0	0.21071959
70	0xbe12cee6	-0.14336738
71	0x3dd5eca0	0.10445523
72	0xbd3c5181	-0.045976166
73	0xbe8d3400	-0.27578735
74	0xbe7355fc	-0.23763269
75	0xbc971d40	-0.018446565
76	0x3e100bf3	0.14067058
77	0x3d2466fc	0.040137276
78	0x3e8719e0	0.2638693
79	0xbe4270e0	-0.18988371
80	0x3d810aee	0.06300913
81	0xbd4dce2a	-0.05024544
82	0x3e5b797a	0.21433058
83	0x3c69435a	0.014237249
84	0x3db5024d	0.088383295
85	0x3e180e44	0.14849192
86	0x3e87f498	0.26553798
87	0xbde11b22	-0.10991503
88	0x3e1a88cd	0.15091248
89	0x3be24b08	0.006905917
90	0x3e80367d	0.2504157
91	0x3daf6723	0.08564594
92	0x3dcaf40d	0.0990983
93	0x3e087f32	0.13329771
94	0xbdddf404	-0.10837558
95	0x3cc8a1e0	0.02449125
96	0xbd573dcb	-0.052549165
97	0xbdd020d8	-0.101625144
98	0xbda9c803	-0.08290102
99	0x3df7fd00	0.12108803
100	0xbde24bb8	-0.110495985
101	0xbdbbf858	-0.09178227
102	0x3e660885	0.22464187
103	0xbeb41a43	-0.35176286
104	0xbe236b16	-0.15958819
105	0x3e309c1b	0.1724705
106	0x3e2e4e22	0.17021993
107	0xbd9e82cb	-0.077397905
108	0xbe42aa64	-0.19010311
109	0x3e6d5d54	0.23180133
110	0xbe603d0a	-0.21898285
111	0x3d0d8b48	0.034556657
112	0xbe637e07	-0.22216044
113	0x3e609044	0.21930033
114	0x3dcc3f73	0.099730395
115	0xbdcd2d79	-0.10018439
116	0xbd88c1a0	-0.06677556
117	0xbdb998d1	-0.090623505
118	0x3e7f1f11	0.24914195
119	0xbdd93744	-0.10606244
120	0xbe6a100f	-0.22857688
121	0xbe746d3a	-0.23869792
122	0x3e84fb00	0.25972748
123	0x3dc0814c	0.093996614
124	0x3de308e5	0.11085681
125	0x3e3b97ef	0.18319677
126	0x3bec4680	0.0072105527
127	0x3df0852c	0.117441505
128	0xbe23ac1b	-0.15983622
129	0xbd11db62	-0.03560961
130	0x3c7c5943	0.015402141
131	0xbdfebe54	-0.12438646
132	0xbe54e7b9	-0.2079152
133	0x3e834447	0.2563803
134	0xbe231d3d	-0.15929122
135	0x3da141b9	0.07873864
136	0xbdcb3a86	-0.09923272
137	0xbe18d940	-0.14926624
138	0xbe6ef19c	-0.23334354
139	0xbdf8fe2c	-0.121578544
140	0x3e084bbe	0.13310143
141	0x3d9f9bf0	0.077934146
142	0x3e1d24ff	0.15346144
143	0x3e573fd4	0.21020442
144	0x3dc8dc41	0.09807635
145	0xbd2ee37b	-0.04269741
146	0x3dfa2bfe	0.12215422
147	0x3de1dd4c	0.11028537
148	0x3d6fb424	0.058521405
149	0x3e7c795c	0.2465567
150	0xbcc649f7	-0.024205191
151	0xbd53be35	-0.051695067
152	0x3e127244	0.14301401
153	0xbe6ada58	-0.22934854
154	0xbcffc370	-0.031221122
155	0x3e70610d	0.23474522
156	0x3db22619	0.08698673
157	0xbd0bb136	-0.03410455
158	0x3e858634	0.2607895
159	0x3d7c9100	0.06166172
160	0x3d9ba1ea	0.07599242
161	0xbdef68cf	-0.116899125
162	0xbe630d3b	-0.22173016
163	0x3c1c5a00	0.009542942
164	0xbd46e3b7	-0.04855701
165	0x3e06cbb3	0.13163643
166	0x3d82f519	0.06394405
167	0x3d5c9a44	0.053858057
168	0x3e201412	0.15632656
169	0xba931388	-0.0011221031
170	0x3da7c275	0.081913866
171	0xbd3793c8	-0.04481867
172	0x3e111201	0.14167024
173	0xbdd32a32	-0.103107825
174	0x3e5193b3	0.20466499
175	0x3e18ddd2	0.14928368
176	0x3e868a8a	0.26277572
177	0x3e2eb5e1	0.17061569
178	0x3e0af591	0.13570239
179	0x3e6ebf2d	0.23315115
180	0x3d6378da	0.055535175
181	0x3e215cd3	0.15758066
182	0xbdb126b9	-0.08649964
183	0xbdd58909	-0.10426528
184	0x3e47d520	0.19514894
185	0x3e20dab9	0.15708436
186	0x3e0758e0	0.13217497
187	0xbde7bede	-0.11315702
188	0xbe238d7a	-0.15971938
189	0xbeda473d	-0.42632475
190	0xbd53f2a7	-0.051745083
191	0xbda15a64	-0.07878569
192	0xbe07c63f	-0.13259219
193	0x3db08e55	0.08620898
194	0x3e23e6e5	0.16006048
195	0xbe735071	-0.23761155
196	0x3e66c380	0.22535515
197	0x3cffed08	0.031240955
198	0xbe0235c9	-0.1271583
199	0x3d7774cc	0.06041412
200	0x3de9d5dc	0.114177436
201	0x3e9cfb52	0.30660492
202	0x3e1bde8d	0.15221615
203	0x3e0cc9d3	0.13748865
204	0xbe42f59f	-0.1903901
205	0xbeb137fb	-0.34613022
206	0xbe0d2a5a	-0.13785687
207	0x3d1ce7e8	0.0383071
208	0x3e565cef	0.20933889
209	0x3e6c2aa3	0.2306314
210	0x3e49f1e4	0.1972118
211	0x3d3bfccc	0.045895383
212	0xbe4de43b	-0.20106594
213	0x3ddc2920	0.107500315
214	0xbe48d5da	-0.19612828
215	0x3e45fdc5	0.19335087
216	0x3dea7c7b	0.11449524
217	0xbe8cdce1	-0.27512267
218	0x3e0d51d8	0.13800752
219	0x3df920b4	0.12164441
220	0x3e1cc2b9	0.15308656
221	0xbd1e187f	-0.03859758
222	0xbe4040f4	-0.18774778
223	0xbe0ac7bc	-0.13552755
224	0xbe23b3e6	-0.15986595
225	0xbd9a898c	-0.07545766
226	0x3dbe5ff3	0.092956446
227	0xbe41d850	-0.18930173
228	0x3d4b87d3	0.04969008
229	0xbd6c7a11	-0.0577336
230	0xbddbf8c9	-0.107408114
231	0xbe1d920e	-0.15387747
232	0xbd7bee98	-0.061506838
233	0x3e96455f	0.293498
234	0x3e1d3560	0.15352392
235	0xbe309e7d	-0.17247958
236	0x3e8f7f08	0.28026605
237	0x3efcfc35	0.4941117
238	0x3e060f0c	0.13091677
239	0x3d9626f8	0.073316514
240	0x3df57b34	0.1198639
241	0x3dda5e5d	0.106625296
242	0x3e2c2416	0.1681064
243	0xbe622892	-0.22085789
244	0xbe52cb33	-0.20585327
245	0xbe52c1c8	-0.20581734
246	0x3db97305	0.09055141
247	0x3da66c4a	0.08126123
248	0xbe623130	-0.22089076
249	0x3d0a46d3	0.03375895
250	0xbe064d6a	-0.13115469
251	0x3e670a14	0.22562438
252	0xbd5fe71f	-0.054663774
253	0xbe17b985	-0.14816864
254	0xbde02588	-0.109446585
255	0xbe6e878a	-0.23293892

decoder.fc3.bias f4 [84]
0	0x3e511d86	0.20421419
1	0xbe5f3d2a	-0.21800676
2	0x3e3e75e8	0.18599665
3	0x3d6042b1	0.054751102
4	0x3e1113bd	0.14167686
5	0xbedf8c55	-0.43661752
6	0x3d4d93c8	0.050189763
7	0x3da54358	0.080694854
8	0x3dc31b0b	0.095266424
9	0x3c7e8b83	0.015536192
10	0xbcd145a7	-0.025545908
11	0xbc11a647	-0.008889741
12	0x3e9485a2	0.29008204
13	0xbd77e4c9	-0.06052092
14	0xbe6cd1a2	-0.23126844
15	0xbe25f406	-0.16206369
16	0xbe6f39fc	-0.23361963
17	0x3ebe4c1f	0.3716745
18	0x3e09a0f4	0.13440305
19	0x3cae33f7	0.021265013
20	0x3e0a96e6	0.13534126
21	0xbe59e178	-0.21277416
22	0x3e1bf40a	0.15229812
23	0xbd9c9890	-0.076462865
24	0xbe5a3e14	-0.21312743
25	0x3cec947d	0.028879398
26	0xbd700850	-0.058601677
27	0x3e37b02a	0.17938295
28	0x3e330cd0	0.17485356
29	0xbe04266e	-0.12905285
30	0x3e46aa25	0.19400842
31	0xbe2ad3fe	-0.16682431
32	0x3e69d168	0.22833788
33	0xbe022fda	-0.12713566
34	0xbe4281b8	-0.18994796
35	0x3e1c7611	0.15279414
36	0x3b989493	0.0046563833
37	0xbd98eb7d	-0.07466791
38	0xbe401039	-0.18756188
39	0x3e0d481f	0.13797043
40	0x3e1cac3b	0.15300076
41	0x3d825007	0.0636292
42	0xbe8eff5f	-0.27929208
43	0xbda71da6	-0.08159952
44	0x3dca9464	0.098915845
45	0x3e21acb6	0.1578854
46	0x3cbec1d1	0.023285778
47	0xbe004502	-0.12526324
48	0x3e625c0c	0.22105426
49	0xbe4f1539	-0.2022294
50	0xbe7fa136	-0.24963841
51	0x3d70e84c	0.058815286
52	0x3e3c8607	0.18410502
53	0xbe1bd0b8	-0.15216339
54	0xbe9007bf	-0.2813091
55	0x3d476319	0.04867849
56	0xbe2e811b	-0.17041437
57	0xbdf3c5aa	-0.11902936
58	0x3e907201	0.28211978
59	0x3e3483d0	0.17628407
60	0x3dbb2a99	0.09138984
61	0xbdfefa90	-0.12450135
62	0x3e1bc834	0.1521309
63	0xbe3fe896	-0.18741068
64	0x3e38d37b	0.18049423
65	0x3e99d7ff	0.30047604
66	0xbdc4727b	-0.09592148
67	0x3ea6a667	0.3254883
68	0x3e9c4544	0.30521595
69	0xbde8ccc2	-0.113671795
70	0xbdf46770	-0.11933792
71	0x3e16e6c5	0.14736469
72	0x3e079dfc	0.1324386
73	0x3d18c53d	0.037297476
74	0x3e0c67e6	0.13711509
75	0xbdd75477	-0.10514157
76	0x3e79dd5e	0.24400851
77	0x3e47129b	0.19440691
78	0xbe210c24	-0.15727288
79	0x3e75719d	0.23969121
80	0x3e824707	0.25444815
81	0x3d72513a	0.059159495
82	0xbd8163a5	-0.06317834
83	0x3ce2477a	0.027621973
