tutorials/W1D2_ComparingTasks/RR/models/ConvNet_regression_10000_epoch_5.pth (torch, 248022 bytes, 9 tensors)

ConvNet.conv1.weight f4 [6, 1, 5, 5]
00000000: 0837 1d3d 6533 76bd dd5b 11bd 99c5 10be
00000010: a76c c03c d23d 0dbe bcc3 2dbd 4f92 17bc
00000020: 4dcd 183e dc44 86bc 7a86 9939 6354 66bd
00000030: 470b 283e 7df6 bd3d d041 293e b24f 12be
00000040: f6fd 6ebd 0c09 86bd 0880 12be 0aa2 3cbe
00000050: 274e 12be 8206 35be c316 d73b 6f35 b4bd
00000060: 91e0 6e3d e1db 33be c677 45be fe8f 2a3d
00000070: 629e 0e3e 3390 b0bd 042a 8a3d d3e9 89bd
00000080: fbf9 c7bc 01e1 0e3e 6d99 af3d 8343 9f3d
00000090: 1afa 363e 1d23 50be 6510 de3d 2712 b93d
000000a0: a506 b6bd e21b dc3d 091b 2d3c 24a1 2bbc
000000b0: c98b 8a3d 5920 62bb b02c cdbd cba3 82bd
000000c0: 0abd c7bd 1a26 e9bd 632a 8ebd 1070 1b3e
000000d0: 7746 42be b91c d4ba 8aea 6c3d 45fb 003e
000000e0: db2e 3f3e 223a 2d3c fa73 54be 0c27 3e3e
000000f0: 2882 ea3c a9ea 06bd 4724 b13d e444 f6bd
00000100: b415 3cbd b0d5 9dbd 4111 233e 009b cdbd
00000110: 00fc fcbc dac6 1c3e 4145 1d3c a40b 1dbd
00000120: b6fa 15be d2ff 43be 30d2 013e 1f15 c03b
00000130: 8680 09bd fad3 a6bd b2ad 5dbd e4c0 e7bd
00000140: 7139 2dbe 95a5 74bd 4caa 18be 1d02 4b3d
00000150: 36e1 ecbc e178 afbd 3a5a 6ebb 1ffd e53c
00000160: 981a 333e 3fee eebc 6bc4 143e da61 d9bc
00000170: 8ee7 6fbb 5d16 17be 76f9 01be f02a 413e
00000180: cfe6 063e de1b 31be 6221 18be e556 773d
00000190: d434 bebd d62c fbbd 38f2 04bb c103 d43d
000001a0: 0886 e1bc cebc 413c becd 2b3d b833 9dbc
000001b0: 9ac9 a3bd 9a7e a3bd 7c97 02bd 2049 e1bb
000001c0: 0e23 49bd 85e5 8fbd b3ec 29be 3829 933d
000001d0: 10e4 2ebe 85b5 2d3d e2f7 ec3d cfc3 3b3e
000001e0: f3e3 ad3d f794 c0bd aeb3 17be f9e0 843d
000001f0: 016e 343e 9f85 343e 8c8a b0bc 1a1b c8bc
00000200: 4637 f03d 90f7 c13d 1bf1 48be 8d3b 09be
00000210: d079 073c 79e7 343e 4d8a b1bd 7b9a 80bb
00000220: ebbd 3fbe 1905 3cbe f71e 13be 881d 40be
00000230: c956 d3bd e571 303e 1fbe 2fbe c994 c2bd
00000240: 912b 143e 6d14 f03b df51 a83d d4e0 1fbe
00000250: 3490 333e 4532 883d
0.03838256 -0.060107607 -0.035488 -0.14137878 0.02348931 -0.13793114 -0.042422995 -0.009251191
0.14922066 -0.016390257 0.00029282627 -0.05623282 0.16410552 0.092755295 0.16529012 -0.14288214
-0.058347665 -0.06544694 -0.14306653 -0.18421188 -0.14287625 -0.17678264 0.0065639927 -0.08799254
0.058319632 -0.17564346 -0.19283971 0.041641228 0.13927606 -0.08621254 0.06746295 -0.067340516
-0.024411192 0.1395302 0.085741855 0.07776549 0.17868844 -0.20325895 0.10842971 0.090366654
-0.08887986 0.10747506 0.010565528 -0.010475431 0.06764943 -0.0034504144 -0.10018289 -0.06378897
-0.09752853 -0.113842204 -0.069416784 0.15179467 -0.18972193 -0.0016182876 0.05784086 0.12595852
0.18670218 0.010572942 -0.20747367 0.18569583 0.028626516 -0.032938633 0.086494975 -0.120248586
-0.045919135 -0.07706773 0.1592455 -0.100393295 -0.030881882 0.15310231 0.009599031 -0.03834118
-0.1464642 -0.19140556 0.12677836 0.005861893 -0.033569835 -0.081459 -0.054120727 -0.11316088
-0.16916443 -0.059728224 -0.14908713 0.049562562 -0.028915983 -0.08567978 -0.0036369697 0.0280748
0.17490613 -0.029166339 0.14528053 -0.026535917 -0.0036606523 -0.14754625 -0.12692818 0.18864036
0.13173984 -0.17295787 -0.14856485 0.060385603 -0.0928742 -0.12264411 -0.0020285975 0.103522785
-0.027529731 0.0118248 0.041944258 -0.0191897 -0.07997437 -0.07983132 -0.031882748 -0.0068751723
-0.049105696 -0.07026199 -0.165942 0.07185596 -0.17079186 0.04240944 0.115707174 0.18336414
0.084907435 -0.09403413 -0.14814636 0.06488223 0.17620088 0.17629097 -0.02155044 -0.024426986
0.117292926 0.09471047 -0.19623224 -0.13401623 0.008268788 0.17666425 -0.08668957 -0.0039246655
-0.18724792 -0.1836132 -0.14367281 -0.18761265 -0.10319287 0.17230947 -0.17162369 -0.09501035
0.14469744 0.0073266537 0.08218741 -0.15613109 0.17535478 0.06650213

ConvNet.conv1.bias f4 [6]
00000000: 6ba5 df3c c574 c5bd 75f5 77bd 4ae7 1cbe
00000010: 52fc 51bd c568 8abc
0.027300557 -0.09641413 -0.06053682 -0.15322605 -0.051266022 -0.016895661

ConvNet.conv2.weight f4 [16, 6, 5, 5]
00000000: a585 d2bc dece 02bd c39a 253c 44b4 d4bc
00000010: 4344 4cbd 8394 c23c 9c35 54bc ef41 ec3c
00000020: ee5d 653d f04c 6bbd 6302 3b3d 9d30 293d
00000030: f2ed 7c3a a8fd a1bc c4ff 02bd 3791 623d
00000040: b47f b8bb 9ac9 b6bd d427 93bc 3f3e 87bc
00000050: 16cb 3c3d c291 b63c 8f3d b53c 9285 b3bd
00000060: 6ddc 45bd bec5 d2b9 9181 913d 5f06 7cbd
00000070: aa3a 6f3d 2f73 db3c 9635 08bc 36e5 d03c
00000080: 4f54 413c 94a7 2d3d 4ee9 5bbc bc27 0e3d
00000090: 443f 2e3d 653b 7d3d 8022 7abd 7de2 a23c
000000a0: d45a 6fbc 8b9f aabc 5da6 aebd 7101 913c
000000b0: 7298 0fbd 48bd 133d 3429 0ebd bda8 d93c
000000c0: 15c8 553d f9e7 5b3d e2b9 0ebd 6da0 653d
000000d0: 0f1a 0c3c 4a77 7a3d 0e34 febb 5cf8 373d
000000e0: e88c 6d3d 06ea 3b3d 7188 3d3c 2c37 5b3d
000000f0: 3f01 25bc 9ce9 03bd de37 c3bc 6759 b5bd
00000100: 89d0 e9bc b3a3 99bd 4136 243d 6f53 9cbd
00000110: e2f6 88bd 675d 443d 81a2 e93c f06c a2bc
00000120: 8c1e 1c3d 2ffa 84bd a6dc 963d d143 f1bb
00000130: dba3 213c 6aea 7b3d 117d 9dbd 393b 583c
00000140: 8a43 7ebb f835 2c3c 7b79 91bd 7f07 9ebd
00000150: be3a 913d 478b 1abd ce9b a3bd 3987 9fbc
00000160: b3c7 a3bb 28e4 80bd d9fc 8b3d bba2 b1bd
00000170: 6789 e2bb 0dc7 b2bd 7fd2 7e3c edcc 953b
00000180: 9f21 b6b9 e2c6 023a c6fb 70bb 5685 51bd
00000190: 26fc 153d bd36 593d a8b4 83bd 6b65 7c3d
000001a0: 77b1 0a3d 6d79 1abd 0d43 2fbd df75 9b3d
000001b0: 4324 853d c47f 01bd 78d9 12bd 534a f3bc
000001c0: 1d9a a0bd c843 533c 9451 203d 7007 df3c
000001d0: af1d 19bd ab6e 38ba c30d 19bd b753 c63c
000001e0: 6ec1 6b3d dcff 4dbc c88a 8c3d 9346 713d
000001f0: 1303 473c ac3b 8b3c f8f1 353b c4b7 a5bd
00000200: 092b 743d 4cd9 253d 7f78 ff3c f644 9cbb
00000210: 2f2c 6e3d 4351 95bd 74eb babc a251 943c
00000220: 401c 59bd df07 cbbc 0fa5 48bd f987 2bbd
00000230: 4be0 083d 497d a1bd 6310 a1bd a3cf debb
00000240: 9dbb 5e3d e261 223c c7fd 4f3d fe57 b8bd
00000250: f0b4 453d 6b09 99bd a05d 0d3d a921 803d
00000260: 761a 20bd 0581 9d3c e8ac 64bd c644 8bbd
00000270: 04b7 023d 558b 883c f0eb 30bc 2f79 74bc
00000280: d374 05bd 9690 5f3d 4ade b2bd 036c 8c3d
00000290: e83f 533d 2bb9 943c 6310 23bd 5ccc de3b
000002a0: f4d3 933d 8f24 9abd d3f5 d939 8eea 843c
000002b0: e0b8 033d 366b 6bbd d931 3cbd 0308 213d
000002c0: 4b5e 123d d7b2 313c 422b 4f3c 690d f1bc
000002d0: 8ca0 81bd 3691 0d3d e4f4 cabc 61ca 783d
000002e0: 3f10 853d e19a 08bc c864 813b 0748 353c
000002f0: a6f6 9bbd c6a1 f1bc 08d0 043c 2dac 523b
00000300: 1658 643d 9707 67bd a227 57bd 30df 5c3c
00000310: 1322 a9bd 691d 833d 2cac 6abd a591 09bd
00000320: 2aa8 033d 998b d43c 4b39 663d 59cd f73c
00000330: 8008 15bd 97de 6e3d fb25 17bd ba0a 3f3d
00000340: 0a0f 2dbd ae93 a2bd 3820 903d 4e83 fd3c
00000350: 8468 a1bd 9599 2e3c cbc2 053d 4c6e 8f3c
00000360: 35ef 603d 95fb bd3c 1b09 b1bc e3ab d3bc
00000370: 9a91 c5bb 7057 a8bd 7570 3abd d03f 03bd
00000380: 48d1 23bd d2f0 e5bb 257d 1ebd 6d60 f03b
00000390: b32a 423d fef9 e53c 4120 6cbc 0a2f 7abc
000003a0: 155c 853d dc3d a13b 772e 58bc 30c6 aabd
000003b0: 7cc2 3cba c745 9abd 793f 15bd 095f db3c
000003c0: 2db6 42bd 4d8c 42bc 2afb e7bc 27b9 0abd
000003d0: d759 213d 7445 80bc 57ab eabc a2fa b3bd
000003e0: c1be 86bc f5d3 aebd 1b69 29bd ef5e 84bd
000003f0: a94c 913c 17bf 75bd 2b30 633d 829d a1bd
-0.025698492 -0.031935565 0.010107699 -0.025964864 -0.049869787 0.023752457 -0.012952235 0.028840033
0.05599778 -0.05744642 0.045656573 0.041306127 0.0009648494 -0.019774273 -0.0319822 0.05531427
-0.005630458 -0.08925171 -0.017963327 -0.016509173 0.046092115 0.0222863 0.02212408 -0.08765711
-0.048305918 -0.0004020165 0.07104791 -0.061529513 0.058405556 0.026788322 -0.008313557 0.025499921
0.011799886 0.042396143 -0.013422323 0.034705862 0.042540804 0.06182422 -0.061068058 0.019883389
-0.014609057 -0.02082803 -0.08527825 0.017700883 -0.035057493 0.036069185 -0.034707263 0.026569718
0.052192766 0.053688023 -0.03484524 0.056061197 0.008551135 0.06114892 -0.0077576702 0.04491459
0.057995707 0.04587748 0.011568175 0.053519413 -0.010071098 -0.03220521 -0.02383035 -0.08854943
-0.02854182 -0.07501926 0.040090803 -0.07633101 -0.06687714 0.047940638 0.02851987 -0.019827336
0.03811507 -0.06493031 0.07366304 -0.0073628207 0.009865726 0.06150285 -0.0768987 0.0131977135
-0.003879758 0.010510914 -0.07103249 -0.077162735 0.07091282 -0.03773048 -0.07988702 -0.019473659
-0.0049981712 -0.06293517 0.06835336 -0.086736165 -0.0069133523 -0.08729372 0.015553116 0.004571548
-0.00034738795 0.00049887423 -0.0036771162 -0.05115255 0.03661742 0.053030718 -0.06430942 0.061620157
0.03386065 -0.037713457 -0.042788554 0.075908415 0.06501057 -0.031615987 -0.035851926 -0.029698526
-0.07841895 0.012894578 0.0391403 0.027225226 -0.037381824 -0.0007035534 -0.03736664 0.02420984
0.057557516 -0.012573209 0.06862408 0.058905195 0.012146729 0.016996227 0.0027762633 -0.08091691
0.059611354 0.040490434 0.031185387 -0.004768963 0.058147606 -0.0729089 -0.02281735 0.018105332
-0.053005457 -0.024784027 -0.048985537 -0.04187772 0.033417027 -0.07885224 -0.07864454 -0.0067996546
0.05437814 0.009911032 0.05077913 -0.09001158 0.04826826 -0.074724995 0.034513116 0.0625642
-0.039087735 0.01922656 -0.05582896 -0.06800227 0.03191282 0.016668001 -0.010798439 -0.014921471
-0.032582115 0.054581247 -0.087338045 0.06856539 0.051574618 0.018154701 -0.03981055 0.006799264
0.07218161 -0.07526504 0.0004157262 0.016225126 0.032158732 -0.05747529 -0.045945976 0.03931428
0.035734456 0.010845861 0.012644591 -0.02942534 -0.0632945 0.034562312 -0.024774976 0.06073988
0.06497239 -0.008337707 0.0039487816 0.011064536 -0.07615404 -0.029496085 0.008106239 0.0032146082
0.055748068 -0.056403723 -0.05252803 0.013480946 -0.08258452 0.06402094 -0.057293102 -0.033586163
0.032142796 0.025945472 0.056206983 0.030249285 -0.03638506 0.058317747 -0.036901455 0.04664109
-0.04225067 -0.07938324 0.07037395 0.0309464 -0.07881263 0.010656734 0.032656472 0.017508648
0.054915626 0.023191253 -0.021610787 -0.025838798 -0.00602932 -0.082198024 -0.045517404 -0.03204328
-0.039994508 -0.0070172334 -0.038693566 0.0073357136 0.047404002 0.028073307 -0.014411987 -0.015270004
0.06511704 0.0049207043 -0.013194672 -0.083385825 -0.0007200611 -0.0753284 -0.036437485 0.026778715
-0.047537018 -0.011874271 -0.028318007 -0.03386798 0.03939232 -0.015658118 -0.028646154 -0.08788039
-0.01644838 -0.08536521 -0.041360002 -0.0646342 0.01773675 -0.05999669 0.05546586 -0.0789137

ConvNet.conv2.bias f4 [16]
00000000: 19d4 f7bc 1f93 97bd 8dce a63c 1347 873c
00000010: 6309 31bd 5f12 c7bb bb5e d4bc 6c4f a2bd
00000020: 2b9a 873d 2828 b33c 0f8e 08bd 1239 9bbd
00000030: 7186 a23c 1cb1 99ba 3f42 62bd 150c 643c
-0.030252503 -0.07401108 0.020362163 0.016513383 -0.043221842 -0.006075188 -0.025924077 -0.07925305
0.06621202 0.021869734 -0.033338603 -0.07579245 0.019839497 -0.0011725756 -0.05523896 0.013918896

ConvNet.fc1.weight f4 [120, 400]
00000000: f98e 2e3d c64a 4ebc c714 c53a 577b 0dbc
00000010: f424 1b3d 9598 55ba 7be9 16bd 7b28 25bd
00000020: 19e6 203d b303 63bc a6d6 843c 7efa fbbb
00000030: 604a 153d 25e3 013d 96f2 ed3c b3e8 063d
00000040: f615 f13c e418 cdbc e79f 9cbc 2b7a 1e3c
00000050: be51 eb3c 3838 2c3b 73ed fd3b 4259 3ebd
00000060: 8c41 293d 78c6 c93c e99c f33c 9981 e6bc
00000070: a2c8 11ba bdc0 af3c d9a2 0dbd ef86 15bd
00000080: 1863 3ebd 16ce 1f3d 52c0 383c 1b49 c13c
00000090: 988d 40bd be39 fdba 64b2 09bd 654a 0bbd
000000a0: a83c d63c baf0 da3b 8e25 953c 06f5 263c
000000b0: 1663 2fbd 395b 1f3d 183b 0b3c 34f9 23bd
000000c0: 0226 3c3c 0351 bfbb 6bec 6bbd fea3 873c
000000d0: 3734 e1bb 2cee 173d 39ab 22bd 420e 4bbd
000000e0: ceb2 9c3c 55e7 543c 59da 8cba 5015 083b
000000f0: c69a 44bc b08c cebc 5f5b 25bb 3fa7 30bd
00000100: 92e3 33bd 1c39 09bb e9b0 763c fabf 13bd
00000110: 9705 54bc 8954 efbc f325 41bd 73d4 2cbd
00000120: 4547 91bc 9470 ca3b 0afe cbbc 73c0 23bc
00000130: c5ef 943c f4a3 e03c 5a40 e73c 61f8 9d3c
00000140: b02a 8bbb c2f0 a6bc 525c e73c 350a f9bc
00000150: cced c63c 2aed ad3c b6ea ca3b 3c77 133c
00000160: 8329 393d 9e7b f0bc 39ac a8bc bc30 a1bc
00000170: 68fe 78bd 49d2 b2bc 30e0 1ebd 5b08 cf3c
00000180: 7555 3abd 6a3a cf3b 3681 08bb 9c7d f7bc
00000190: 6f9b da3c 6a01 01bd 0e42 11bb 3f20 19bd
000001a0: c60a 00bb 5ab4 6dbd ddb9 473c 7de0 5bb8
000001b0: c1f8 923c 3600 093a 5172 8cbc 209a 46bb
000001c0: 13fe 253c 3881 ad3c c510 903c b439 63bc
000001d0: 6521 a83c bd4a e63c 569a 253c b627 b33c
000001e0: 7cdb ff3c b8d3 18bd 6c5a d0bc e629 26bd
000001f0: c428 3a3d f687 0bbd 0fe2 cc3b 3090 bc3a
00000200: b739 f8bc 589d 033d 820f 51bb a493 50bb
00000210: b593 c3bb df6e de3c a20f 5bbd 6c6d a5bc
00000220: 6459 eebb 147d 99bd 43e9 863c 67fb 57bd
00000230: fc2f 26bd 6cfb efbb d602 cbbc 2d54 9d3c
00000240: 13fd 89bc 2121 523d c8db 583c abfd 03bd
00000250: d623 cebc ef7d 0ebc 1934 053d afdb 0bbd
00000260: 785a 203d 6007 27bd 669a 5abd c6f4 55bc
00000270: 47fb 26bd 038e b33c 6915 e8bb 648f 5abb
00000280: a1c6 7eba 3926 e63b 1fa9 8e3c 24d2 54bd
00000290: 6989 3fbd 78fc f13c 2ebf 3cbd ae64 92bc
000002a0: 6cc7 c5bc 1411 30bd 7780 f4bb 679a dc3b
000002b0: 745d db3c a25f 46bd bb59 45bd cccf 443d
000002c0: b68c 493d 2f1f 1ebd d717 d13c 8b8c 35bd
000002d0: bbb4 213d 678d 90bc 3d24 a63c 2736 133d
000002e0: 1e09 0cbd b43b 3dbd 53da 393d 6c71 c03c
000002f0: fb2d 493d e61b 40bb 75a5 573c a859 0e3d
00000300: da88 203d aa87 c5bc 2938 16bd aa5f 473d
00000310: 4086 c0bb 07b2 363d b736 a13c cdbd 273d
00000320: e857 d13c df9e a23c a888 983c 248e 8d3c
00000330: cbc5 88ba 7823 03bb 3cde ae3b 6cf6 293c
00000340: ac22 81bc af24 973c 4c94 64bc 72c3 cd3c
00000350: 5cd4 f5bb 2866 2fbc 55bb 473d 094e 3dbd
00000360: 14a2 afba 9682 833c b673 bf3b f882 9c3b
00000370: 7d24 033c a09f f03c 2bdf 1abb 8261 0b3d
00000380: 9e3d c6bb e489 283d d8e0 073d 794e 233d
00000390: 826a 673c 48d4 5e38 15c0 ecbb 8113 b1bc
000003a0: a965 403d cea8 2fbd 243f 9a3c f0bd 9dba
000003b0: 7ff1 f1bc ae1e e4ba 0856 06bc a6e6 dabb
000003c0: c2ec a4bc d543 a93b 6cb8 4abc cdaf 6b3c
000003d0: 0512 b53c 724c 33bd 9066 53bd 3655 8dbc
000003e0: 22d5 40bd ad59 fdbc 3576 03bc bc7b 30bc
000003f0: 5a6a 6c3c 07fd 6dbb f1cc 7cbd ec0f 913b
0.042616818 -0.01259107 0.0015036099 -0.008635364 0.037877038 -0.00081480417 -0.036843758 -0.04032181
0.03928194 -0.013855862 0.016215634 -0.007689773 0.036447883 0.031710763 0.029046338 0.032936763
0.029429417 -0.025036283 -0.019119216 0.009672682 0.028725501 0.0026278626 0.0077492534 -0.04647184
0.041322276 0.02463077 0.029737907 -0.028137969 -0.00055612077 0.02145421 -0.03457913 -0.036505636
-0.046481222 0.0390149 0.0112763215 0.02359443 -0.047010034 -0.0019319577 -0.033617392 -0.034006495
0.02615197 0.006681529 0.018206384 0.010190254 -0.042819105 0.038905356 0.008497976 -0.04003258
0.011483671 -0.005838515 -0.057598513 0.01655769 -0.0068726796 0.037092373 -0.039714072 -0.049574144
0.01912823 0.012994607 -0.0010746225 0.0020764656 -0.0119997915 -0.02521357 -0.0025231463 -0.04312825
-0.0439182 -0.002093858 0.015056827 -0.036071755 -0.012940786 -0.029215114 -0.04715533 -0.042194795
-0.01773418 0.006177971 -0.024901409 -0.009994614 0.018180737 0.027421929 0.028228927 0.019283475
-0.004247032 -0.020378474 0.028242264 -0.030400375 0.024283312 0.021231253 0.0061925305 0.009000596
0.045205604 -0.02935582 -0.020589935 -0.019676559 -0.060789496 -0.021828787 -0.03878802 0.025272539
-0.045491654 0.006324102 -0.002082897 -0.030211262 0.026685445 -0.03149549 -0.0022164616 -0.037384268
-0.0019537671 -0.058033325 0.012190309 -5.242274e-05 0.01794088 0.00052261667 -0.017144354 -0.0030304268
0.010131377 0.02117978 0.017586121 -0.013868738 0.020523736 0.02811181 0.010107597 0.021869522
0.031232588 -0.037311286 -0.025433742 -0.0405673 0.045449033 -0.03406521 0.006252534 0.0014386233
-0.030300958 0.032132477 -0.0031900113 -0.0031826282 -0.005968536 0.027152477 -0.053481705 -0.020193778
-0.00727384 -0.0749456 0.01646865 -0.05272999 -0.040573105 -0.007323673 -0.024781626 0.019205177
-0.016844308 0.051301125 0.013235994 -0.03222434 -0.025163572 -0.008697017 0.032520387 -0.034145053
0.039148778 -0.040778518 -0.053369902 -0.013058847 -0.04076698 0.021918302 -0.0070826304 -0.0033349628
-0.0009718929 0.0070235995 0.017414628 -0.05195822 -0.046761904 0.029539332 -0.04608076 -0.017870273
-0.024142943 -0.042985037 -0.0074616033 0.0067322734 0.02677796 -0.048431046 -0.048181277 0.048049733
0.049206458 -0.038603958 0.025524063 -0.044323485 0.039479 -0.01764555 0.020280952 0.035940316
-0.034188382 -0.046199515 0.045374226 0.023491584 0.049116116 -0.0029313504 0.013162007 0.03475347
0.03919301 -0.024112541 -0.036674652 0.048675217 -0.005875379 0.044603374 0.01967941 0.040952493
0.025554612 0.019851146 0.01861985 0.017279692 -0.0010434923 -0.0020010155 0.005336551 0.010373693
-0.015763603 0.01845011 -0.013951372 0.02511761 -0.007502122 -0.010705508 0.048762638 -0.046217
-0.0013399743 0.01605348 0.0058426512 0.004776355 0.008004305 0.02937299 -0.0023631554 0.034028538
-0.006049826 0.041147128 0.033173412 0.03986976 0.014124515 5.3126627e-05 -0.0072250464 -0.021615745
0.04697195 -0.042885594 0.018828936 -0.0012034755 -0.0295341 -0.0017404163 -0.008199222 -0.0066803275
-0.020132426 0.005165557 -0.012373071 0.014385176 0.022103319 -0.043774076 -0.051611483 -0.017252546
-0.04707826 -0.03092655 -0.008023788 -0.010771688 0.014429653 -0.0036314146 -0.061718885 0.004426947

ConvNet.fc1.bias f4 [120]
00000000: fdc7 883b 46d4 82bb 3790 9a3c abe4 ba3c
00000010: 2d97 6abc 1908 ccbb fcbc 0f3c c49e b7bc
00000020: ebb3 b73c 602e 023c 3241 01bc 4252 d8bc
00000030: 5687 66bc 909d ac3c 2642 e33c ffb9 89bc
00000040: c098 42bd 6d7c 01bd afcd 923a 964a c9bc
00000050: 784e 4ebb d4b6 efbc ced5 91bc 0829 17bd
00000060: 50ae ee3c dd44 4bbd 2c97 5dbd 5fb5 e9bc
00000070: d954 213d f328 e4b9 b146 0ebb 8b79 a3bb
00000080: d423 0f3c 07d2 ca3c bc28 34bd 2c3c 03bd
00000090: 7441 40bd 9b91 08bc f72b 833b d446 6bbc
000000a0: d8c6 00bd 2842 bebc b06d 10bc 773f a9bc
000000b0: 7db4 01bd 41b3 113b 8895 6a3c aa1c adbc
000000c0: 8626 25bc db1b a9bc 623e 55bd fd46 53bd
000000d0: a053 e5bc 9a8f ed3a 0eff 193b 6e17 21bd
000000e0: 9a8b d8bb 6d67 b2ba 8693 5f3c 3bc4 1cbd
000000f0: fcab a5bb f9f4 bbbc 89e7 a4ba b3eb 06bd
00000100: dc1e 28bc 2224 2e3c 09fb 8a3b 9790 fcbc
00000110: b5e1 333c cc94 fd3a eb17 4fbd ce44 8bbc
00000120: 8dcc 9ebc 3b8a d73b 3fa2 9e3c 3e5f 6cbc
00000130: 08c5 24bc 8e5b 9f3c c566 c73a 982b 3abc
00000140: 5897 fdbc fda2 173c 36e7 4e3c 164e 0a3d
00000150: 12cb c9bc f426 8ebd 95a4 db3c aa32 6cbc
00000160: 979b a8bc e214 153c 18a0 503c 365b 15bd
00000170: a1b9 d73b d227 9fbc 4b07 0f3d b80c 4c3c
00000180: 84db cc39 ed3c e2bc 59c1 84bc 890d 22bc
00000190: 45c5 26bd e3af a9bb 717a 863c fed8 10bc
000001a0: 3676 7cbd 28aa 363b 45ef 293c 2fc0 96bc
000001b0: d351 903b 6d23 fe38 d3c7 e5bc 9833 ca3c
000001c0: 2820 09bd cd82 cb3c 8971 babc 3f9d 60bd
000001d0: 62bb 273d 949e 03bc 04c6 b53c 2836 29bd
0.004174231 -0.00399259 0.018867595 0.022814116 -0.01431827 -0.0062265513 0.008773085 -0.022414573
0.022424659 0.007945627 -0.007889079 -0.026406411 -0.014070353 0.021071225 0.027741503 -0.016812323
-0.047508955 -0.031612802 0.0011200215 -0.024571698 -0.0031479876 -0.029261984 -0.017802145 -0.036904365
0.029135853 -0.04962622 -0.054099247 -0.028528867 0.039387558 -0.00043518058 -0.0021709616 -0.0049888543
0.008736569 0.024758352 -0.04398416 -0.032039806 -0.04693742 -0.008335496 0.0040030438 -0.014360148
-0.031439632 -0.023224905 -0.008815214 -0.020660145 -0.031666268 0.0022232088 0.014317878 -0.021131832
-0.0100799855 -0.020643165 -0.052061446 -0.05158137 -0.027993977 0.0018124462 0.0023497972 -0.039328985
-0.0066084387 -0.0013611146 0.013646012 -0.038273077 -0.0050559025 -0.02294396 -0.001258121 -0.032939624
-0.010261264 0.010628732 0.0042413515 -0.030830665 0.010979106 0.0019346713 -0.05055992 -0.017000582
-0.019384647 0.0065777577 0.019364474 -0.014427004 -0.010056742 0.019452836 0.0015213123 -0.011362933
-0.030955955 0.009255168 0.012628367 0.033765875 -0.024632964 -0.069410235 0.026811877 -0.014416376
-0.020582004 0.009099217 0.012733482 -0.03646394 0.006583408 -0.019428167 0.034919064 0.012454204
0.00039073464 -0.027616942 -0.016205477 -0.009890922 -0.040715475 -0.005178438 0.016415806 -0.0088407975
-0.061636172 0.0027872417 0.010371988 -0.018402187 0.0044042855 0.000121182624 -0.028049385 0.024682805
-0.033477932 0.024842644 -0.022759216 -0.05483746 0.040950187 -0.008033413 0.022189148 -0.041311413

ConvNet.fc2.weight f4 [84, 120]
00000000: cf9d a03d 817c 24bd 16ee c5bc 9976 7d3d
00000010: e916 f03c 0425 21bd f319 04bd ebf9 253d
00000020: c342 dabc 023d 363d 99d5 89bd 00a2 353b
00000030: a652 a33d 18a4 aabd 0f3f 843d 4ba4 2bbd
00000040: 044c f83a 5a9f b4bd 77d1 f4bc a7ce 2f3d
00000050: 62c9 a3bc 8782 263c 7b23 44bc 1bea b3bc
00000060: e42b 393c d39c d5bc a411 99bd 61b0 70bd
00000070: 2a0f 09bd ea56 b63c 0943 21bd eaa2 34bd
00000080: bd22 c13c 1f47 df3b b848 5ebd c974 353d
00000090: 13a5 2bbd 2b36 743c 67cd 343d bd1b 80bd
000000a0: 80e8 913d 691b 9b3d 845f 35bd 4e43 0c3d
000000b0: f944 48bd acd1 53bd b4c7 6b3d e5c7 583d
000000c0: e04f ccbd 7364 d03b 6bc6 873d 9228 563c
000000d0: 5d4e 24bd 987d 363d 4a85 b63c 3feb 163d
000000e0: e016 f33c 5a40 98bd 6653 dbbc 58a9 71bd
000000f0: 63c6 fabc cd25 063d ec50 b53d a1cd 0339
00000100: 3fed b33c 21e7 9a3d 0bd7 a4bd 7c31 753d
00000110: f016 823d 770f b23c 94a7 bdbc fdbf 113c
00000120: 4473 abbd e57f b4bd 33a1 153c c8d5 7dbd
00000130: f6fc 02bd 666a 65bd ef00 453d d92d babd
00000140: 170f 86bd 6b4b b7bd a503 703d 9533 a6bd
00000150: 42cd a13d 4c59 443d 44ec c9ba f328 893d
00000160: 68fc b3bd 64de 2ebd c01f 40bd 0bb0 933c
00000170: 16f7 4fbb 91ec 95bd 444d 873c 6aec a4bd
00000180: a8c2 483d 450d 2ebd 766a 5bbd 444a 113c
00000190: 9b48 a5bd b0c7 553d 0c48 e53c 9f91 673c
000001a0: 1bd9 99bd b991 033d 1378 10bd 1931 a9bc
000001b0: 5976 0fbd 6fc2 903c b64d 8b3d 78a2 5d3d
000001c0: f3c6 28bd ad5a acbc e4d0 51bd 3135 803d
000001d0: 4c98 d2bc 13a9 3b3d 1493 a7bc 8d67 4d3a
000001e0: 5538 9c3d a8f6 4fbd b35f 91bd 6033 72bb
000001f0: dcc7 89bd 26a6 a5bd ac97 00bd 0040 acbd
00000200: 6a1f 87ba 33ca 7cbb 7d7d 333d ad3b 90bd
00000210: 6a4f 5abd 0c3d 4c3b 44ea 52bb 2f4a e03c
00000220: a3d3 ab3d cfbd a8bb dd2e 433d fd20 ca3c
00000230: 373b 91bd ce58 dfbc 61a6 383d 6c5e 75bd
00000240: 311f 223d 4b04 b7bd efc7 77bd fbb5 a1bd
00000250: 2eaf e9bc a87e eb3c 4f0f 553d ab9b a1bd
00000260: 3e17 1abd 212f 2d39 1f70 093d 8649 f43b
00000270: 87ea be3b 1ed3 553b d6ee 793d 2c44 813d
00000280: 11bb 94bd 5634 2e3d 2afc 993d 3a11 533d
00000290: 8c40 99bd c65b d3bc bd6f b13c eb6b 9ebd
000002a0: 4503 4f3d b818 71bd e65e 543d e723 0abc
000002b0: 990e 1a3d e807 433a d118 26bd 8f78 77bd
000002c0: dc36 cd3c d714 f63c a617 7e3c ef8a 203c
000002d0: 945e a53d af16 84bc 621b ad3c 44e2 74bc
000002e0: fd23 463d 9611 533c 5e6e 9f3d 28de bfbd
000002f0: 2314 953d 6df6 19bd 6f62 cb3c 0692 563c
00000300: 8785 4a3d c80a 6b3d ea0f 6d3d 9bb2 11bd
00000310: 1770 ab3d 9c8f bb3c b3ba a23b f140 73bc
00000320: fb3d 633c 6dc2 8fbb 1704 833d 7431 293c
00000330: c019 b33d 47ce 61bd 318f 5dbd 2a66 e3bc
00000340: 7c28 09bd 1af4 36bd f596 703d 4b68 abbb
00000350: 1ec9 9e3c 63d8 64bc a0e2 b13d 7ef9 e73b
00000360: 2557 a1bd 54d3 8bbd e80c 9ebd 3038 763c
00000370: 83a9 40bc 022c 83bd 2a7f 1d3d bcd8 5fbb
00000380: 0acc 313d 59cd 9fbd 7423 3fbd 45e0 a2bc
00000390: acb8 003d 23c5 0c3d be96 1bbd dacb c13d
000003a0: 40f1 0f3d 857d 5e3b 7ed5 16bd 2dc0 6f3c
000003b0: 761b a7bd 5770 2ebd f1be ecbb 1329 64bd
000003c0: a804 33bc 6d7a ffbc 0ecc c23c 6199 88bd
000003d0: 6ff9 3a3c 281b 87bd 29d9 913d 0647 8dbd
000003e0: 22ca 6eba a00f 8bbd 72c3 0fbd 9026 483d
000003f0: 328a 003d 4075 4ebd e0af f93c 7754 9abd
0.078425996 -0.0401578 -0.02416138 0.06188068 0.0293078 -0.03934194 -0.03225131 0.040521543
-0.026643163 0.044491775 -0.06730194 0.0027714968 0.07974748 -0.0833208 0.0645734 -0.04190473
0.0018943553 -0.088194564 -0.029885037 0.04292169 -0.019993488 0.010162956 -0.01197135 -0.021962216
0.011301968 -0.026075756 -0.07474068 -0.058761958 -0.033461727 0.02225824 -0.03937057 -0.04410068
0.023576135 0.006813898 -0.05426857 0.044300828 -0.041905474 0.014905493 0.0441412 -0.06255291
0.07124424 0.075735874 -0.044280544 0.034243874 -0.048893902 -0.05171363 0.0575635 0.05292501
-0.099761724 0.0063596307 0.06629642 0.013071196 -0.040113796 0.04455337 0.022280354 0.036845442
0.029673994 -0.07434149 -0.026773166 -0.05899939 -0.030612176 0.032750893 0.08853325 0.00012569736
0.021963714 0.075636156 -0.08048829 0.059861645 0.06352031 0.02173589 -0.023151197 0.008895871
-0.083715945 -0.088134564 0.009132671 -0.061971456 -0.031979524 -0.056009673 0.048096593 -0.09090776
-0.06545847 -0.08949932 0.058597226 -0.08115307 0.07900478 0.047936723 -0.0015405496 0.066972636
-0.08788377 -0.042692557 -0.04690528 0.01802828 -0.0031732968 -0.07320512 0.016516335 -0.08052905
0.049013764 -0.042493124 -0.053568326 0.008867804 -0.08070489 0.05219239 0.027988456 0.01413384
-0.07512113 0.032121394 -0.03527076 -0.020653294 -0.035024974 0.017670838 0.068019316 0.05411002
-0.041205358 -0.021039331 -0.051224604 0.062601455 -0.025707386 0.04581554 -0.020455875 0.00078355597
0.07627932 -0.05077234 -0.07098331 -0.0036956891 -0.06727573 -0.08088331 -0.031394646 -0.084106445
-0.0010309045 -0.0038572669 0.043820847 -0.07042632 -0.05329839 0.0031164316 -0.003218309 0.027379123
0.08389976 -0.00514958 0.047652114 0.024673933 -0.070913725 -0.027264025 0.045080546 -0.0599045
0.039580528 -0.08936366 -0.060493406 -0.07896038 -0.028525915 0.028746918 0.052016553 -0.078910194
-0.03761982 0.00016516123 0.033554193 0.0074550537 0.0058262977 0.0032627056 0.061018787 0.06311831
-0.072622426 0.04253038 0.075187996 0.0515301 -0.074830145 -0.025800597 0.021659726 -0.077354275
0.050540227 -0.058861464 0.051848315 -0.008431411 0.037611578 0.0007439838 -0.04055101 -0.060417708
0.025050573 0.030039234 0.015508568 0.009798749 0.0807468 -0.016124098 0.021131221 -0.014946524
0.048374165 0.012882611 0.07784723 -0.09368545 0.072792314 -0.037588526 0.02482721 0.013096338
0.049443748 0.05738333 0.057876505 -0.035570722 0.08370989 0.022895627 0.004966104 -0.014847026
0.013869758 -0.004387191 0.063972645 0.010326732 0.08745146 -0.055128362 -0.054091636 -0.027758677
-0.033485875 -0.044666387 0.058737714 -0.0052309386 0.01938301 -0.013967606 0.086858034 0.0070793023
-0.078779496 -0.06827417 -0.077173054 0.015028045 -0.011759165 -0.06404878 0.03845135 -0.0034156283
0.043407477 -0.07802839 -0.04666467 -0.01988233 0.031426117 0.03436769 -0.037985556 0.0946271
0.035142183 0.0033949327 -0.036824696 0.014633221 -0.08159535 -0.042587604 -0.0072249104 -0.055703234
-0.010926403 -0.031186307 0.023778941 -0.0666988 0.011412009 -0.065969765 0.07121498 -0.06898312
-0.00091090996 -0.067900896 -0.0350985 0.0488649 0.031381793 -0.050404787 0.030479372 -0.07535642

ConvNet.fc2.bias f4 [84]
00000000: 7e6f 6b3d af3b 6d3d c275 023d e40c d43c
00000010: 14fe 84bd 5e29 0c3d c6ed ccbc f308 b83b
00000020: 0c3c 053d a682 a939 b22b c6ba f042 eb3b
00000030: 8feb 90bd e59f 0dbc 1513 0abc dcc6 4dbb
00000040: 2dd8 973c 4bd1 afbd 3f14 a63d f9a2 a3bd
00000050: e49e 0e3d c174 6cbd dbca 94bd 979e 673d
00000060: ff42 933d 73be ad3c 5579 623d 1f39 a5bd
00000070: eb73 223a 861a a8bc a30f babd 5c19 a53c
00000080: 2164 86bd 531c 3bbb 29c7 7abb 6f52 853c
00000090: 209c 433d 2e47 b6bc de35 823d fc3a 6e3c
000000a0: 8ef0 30bc 8731 033b b4f2 43bd c39a a5bd
000000b0: f27a f73c 706e a73c 6972 20bb daaa 2fbd
000000c0: 018c 15bc d146 393d bb0c f6bc 76d7 bf3c
000000d0: d2ee 15bc 7b43 73bb 7949 4fbd 9644 933d
000000e0: a22b debc bc9c c4bc e38d 9fbd d205 8cbd
000000f0: b8c3 4bbc 7e33 28bd 201c 00bd bc8e aebc
00000100: 02e4 253d 5fb4 2e3d 1093 25bc a721 dcbc
00000110: a966 883d 6655 68bd 01de 71bd accd 0a3c
00000120: ebe6 efbc 21f9 babb 5ae1 01bd 5247 ce3c
00000130: 44e6 743b 8538 f63b 9674 a8bd 687a 1a3d
00000140: 916b 383d f8c6 95bd 9301 85bc fc8b 3abd
0.057479374 0.057918247 0.031850584 0.025885053 -0.06493774 0.03421914 -0.025015723 0.005616301
0.03252797 0.00032331533 -0.0015119223 0.0071796104 -0.07076179 -0.008644079 -0.008427401 -0.0031399047
0.018535698 -0.08584841 0.081093304 -0.07990069 0.0348195 -0.057728533 -0.07265254 0.056547727
0.07190513 0.021208977 0.055291492 -0.080675356 0.00061970827 -0.02052046 -0.09085014 0.020153694
-0.06562067 -0.0028550818 -0.0038265681 0.016274659 0.047756314 -0.022250738 0.063579306 0.01454043
-0.01079954 0.0020018534 -0.04783888 -0.08086159 0.030209992 0.020438403 -0.0024482256 -0.042887546
-0.009127618 0.04523355 -0.030035367 0.02341817 -0.0091511775 -0.003711908 -0.05060718 0.07190816
-0.027120415 -0.024000518 -0.077907346 -0.06837048 -0.0124368 -0.04106473 -0.031276822 -0.021308295
0.04050065 0.042652484 -0.010105863 -0.026871515 0.06660206 -0.056722067 -0.05904961 0.008471888
-0.029284915 -0.005705968 -0.031709053 0.025180493 0.0037368694 0.007514062 -0.08225362 0.037714392
0.04502446 -0.07313341 -0.016236102 -0.045543656

Output.fc.weight f4 [1, 84]
00000000: d12e 19bc 1091 24bd be3d acbc fd27 ca3c
00000010: e386 323d e369 3239 f71a 153c 30b4 ae38
00000020: 6f06 e4bc 6cf8 a63c 6ad4 8f3b 39ce bfbd
00000030: 257f 58bd 73fc 77bb bdd4 c93c a266 8a3c
00000040: 3b80 30bd bd08 043d b60d b4bd 508d 8a3d
00000050: 50a0 83bd 656c dbbc bbb5 22bd 4e49 86bc
00000060: a5a7 b6bd fe82 e3bb ad74 5fbd 3bc4 9dbc
00000070: ac29 4bb9 9952 56bd 1c7e bebc 7acd 3b3c
00000080: faa8 b1bc 7e5b ac3c 5d1b 86bd 5912 373d
00000090: dbf3 513d 5607 a83d ebed 63bd 825a 00bd
000000a0: c051 95bd bfc6 d13b 2d9e 9e3d 8e4e a1bc
000000b0: c462 0f3d 5d5e 893b 38f1 2dbc 8416 c5bc
000000c0: 1f05 2d3d e9b5 2b3d 2644 d93d a103 383a
000000d0: 6d7d 09bc 8904 cc3d 7b37 743c 5ec8 07bd
000000e0: fa90 cd3c d31f ec3a 1a0b 85bc 0fef 313d
000000f0: 4e4f ae3d 65e2 a7bd 17a1 6e3a 54d6 bb3d
00000100: d936 a6bb 0169 1d3b a621 6ebc 218c a13d
00000110: 88df 53bd 545a 10bc 881d 73bd b322 11b9
00000120: 2bfb 8cbd 3b67 6d3d 6f13 a03d b46b b83a
00000130: 6d6d ef3a 62e5 c83b c802 403c 4db4 82bd
00000140: 721e b6bd 1224 80bc 057a 7b3b d600 ca3c
-0.009349541 -0.040177405 -0.021025535 0.024677271 0.04358567 0.00017014849 0.009100667 8.330529e-05
-0.027835099 0.020382129 0.0043893354 -0.09365506 -0.05285563 -0.003783968 0.024637574 0.016894642
-0.04309104 0.032234896 -0.08791678 0.067652345 -0.064270616 -0.026785085 -0.039724093 -0.016392376
-0.089186944 -0.0069431057 -0.05455463 -0.019258609 -0.00019375113 -0.052324865 -0.023253493 0.011462564
-0.02168702 0.02103972 -0.06548188 0.044695232 0.05125795 0.08204524 -0.055646818 -0.031336315
-0.07290983 0.006401866 0.077450134 -0.019690778 0.0350063 0.004192157 -0.010616593 -0.024058588
0.042241212 0.04192153 0.106087014 0.0007019584 -0.00839172 0.099618025 0.014905806 -0.03315007
0.025093544 0.0018014855 -0.016240645 0.043440875 0.0851122 -0.08197478 0.0009102984 0.09171739
-0.0050724563 0.0024018886 -0.01453439 0.078880556 -0.051726848 -0.008810598 -0.059354335 -0.00013841204
-0.06883844 0.057959776 0.07816207 0.0014070184 0.0018266864 0.00613086 0.011719413 -0.06382046
-0.08892526 -0.0156422 0.003837229 0.024658602
