tutorials/W1D2_ComparingTasks/RR/models/ConvNet_autoencoder_100_epoch_7.pth (torch, 506458 bytes, 19 tensors)

encoder.conv1.weight f4 [6, 1, 5, 5]
-0.14241508 -0.14671399 0.011125142 0.16599987 -0.16670902 0.10836943 0.105778426 -0.015779903
-0.087192416 0.025207842 0.07905921 -0.012228791 0.17504887 -0.15506928 0.18303882 0.1854509
-0.13917708 0.105792 0.18241741 -0.054489866 -0.11225365 0.1552143 0.13267693 0.032400873
0.011564917 -0.17031801 -0.05157708 0.14518732 -0.061310295 0.18896961 0.18629423 -0.1806559
-0.16144657 0.1799291 0.14253503 -0.17429696 -0.003558025 0.19094364 0.17458859 0.11575669
-0.09874441 -0.12926288 0.07497472 -0.18176207 0.05526394 -0.20634769 -0.10908165 -0.10450402
-0.025635546 0.014784643 0.1459334 -0.16328615 0.06802814 -0.083011426 0.026119344 -0.18763307
-0.004134175 0.2019664 0.14797959 0.01105613 -0.11628519 -0.15993077 0.056245077 -0.17264235
0.16070098 -0.14883104 0.07754943 -0.08988249 -0.04901471 -0.14935496 -0.21352957 -0.042031046
0.19359885 0.211103 0.13092472 0.17661434 0.07541141 0.15160705 0.19757634 0.124159716
0.037254777 -0.020218499 -0.02227175 0.10422356 -0.04258482 -0.13113038 -0.17939453 -0.011888153
0.06747087 -0.17934002 -0.1120038 0.19424705 0.09506784 -0.12571698 0.12999623 -0.06590667
-0.1262014 0.18129733 -0.0455972 0.10892669 0.1459405 0.12983595 -0.1548268 -0.019014781
0.12460793 -0.16439436 -0.11837109 -0.153381 0.17303361 -0.13006097 -0.025781594 -0.022358213
-0.114821576 0.0005187231 0.15152012 0.04029957 -0.20402975 0.12848943 0.02399787 -0.18408874
-0.073580794 -0.13161859 -0.03895455 -0.07662984 -0.16286439 0.033584125 -0.08038763 0.030012
-0.13256863 0.06300597 -0.07907052 -0.014362646 0.18160045 -0.10128841 0.07022773 0.08893668
0.03167938 -0.14112344 -0.18555807 0.1735724 0.12579355 -0.1595396 0.13373086 -0.10438785
0.123024 0.13325909 -0.15879898 0.06264949 0.110394485 0.077899486
00000000: 42d5 11be 313c 16be 3a46 363c dffb 293e
00000010: c5b5 2abe cbf0 dd3d 5ca2 d83d db44 81bc
00000020: f091 b2bd ad80 ce3c cce9 a13d 445b 48bc
00000030: 0340 333e 7bca 1ebe 876e 3b3e d7e6 3d3e
00000040: 7084 0ebe 7aa9 d83d a1cb 3a3e c430 5fbd
00000050: 3ee5 e5bd 7ff0 1e3e 76dc 073e c7b6 043d
00000060: c77a 3d3c d867 2ebe 7d42 53bd fcab 143e
00000070: 8120 7bbd 4081 413e eac3 3e3e dcfd 38be
00000080: 4052 25be 563f 383e b4f4 113e e77a 32be
00000090: c12d 69bb bb86 433e 5ac7 323e d811 ed3d
000000a0: 823a cabd 7d5d 04be 598c 993d d61f 3abe
000000b0: 715c 623d cf4c 53be 3366 dfbd 3406 d6bd
000000c0: a301 d2bc 4a3b 723c 916f 153e 7c34 27be
000000d0: 5652 8b3d e501 aabd 3cf8 d53c e222 40be
000000e0: f977 87bb 48d0 4e3e f687 173e c524 353c
000000f0: ee26 eebd e4c4 23be 3d61 663d 28c9 30be
00000100: cc8e 243e 2a67 18be 3cd2 9e3d 5014 b8bd
00000110: a6c3 48bd 82f0 18be 7fa7 5abe bf28 2cbd
00000120: c73e 463e 632b 583e 2111 063e 64da 343e
00000130: 4c71 9a3d e13e 1b3e 7451 4a3e 7347 fe3d
00000140: 7798 183d 44a1 a5bc 3f73 b6bc 2973 d53d
00000150: 6c6d 2ebd 0b47 06be 33b3 37be 87c6 42bc
00000160: 2b2e 8a3d e9a4 37be 4062 e5bd b3e8 463e
00000170: edb2 c23d f4bb 00be bb1d 053e 14fa 86bd
00000180: f13a 01be 02a6 393e 21c4 3abd f514 df3d
00000190: 6d71 153e b7f3 043e eb8a 1ebe e3c4 9bbc
000001a0: 7132 ff3d ff56 28be 8b6c f2bd e90f 1dbe
000001b0: b92f 313e b42e 05be ec33 d3bc 9228 b7bc
000001c0: 9327 ebbd ebfa 073a 1728 1b3e 2911 253d
000001d0: 2ded 50be bc92 033e 2e97 c43c c281 3cbe
000001e0: 87b1 96bd 06c7 06be ce8e 1fbd 1bf0 9cbd
000001f0: ecc5 26be 828f 093d 45a2 a4bd badb f53c
00000200: 12c0 07be 4609 813d baef a1bd 4e51 6bbc
00000210: 78f5 393e 4c70 cfbd 8ed3 8f3d 6f24 b63d
00000220: 3dc2 013d aa82 10be ef02 3ebe f7bc 313e
00000230: 06d0 003e 595e 23be bef0 083e 4cc9 d5bd
00000240: 02f4 fb3d 1275 083e 339c 22be 604e 803d
00000250: 8116 e23d c489 9f3d

encoder.conv1.bias f4 [6]
-0.17000312 0.07754873 0.108054 0.04568228 0.09899777 0.023396268
00000000: 4c15 2ebe ded1 9e3d 6a4b dd3d 581d 3b3d
00000010: 58bf ca3d 88a9 bf3c

encoder.conv2.weight f4 [16, 6, 5, 5]
-0.036146317 0.023976903 0.04421207 0.07061727 0.003986199 -0.031794466 0.05932552 -0.046285525
0.041419454 -0.006740069 0.023558037 0.020730792 0.01933559 0.08389485 0.012255696 0.096161604
0.026740232 -0.058538347 0.09210494 -0.047113236 0.011387543 0.049825698 0.008515939 -0.021285517
0.062400155 -0.05495069 0.0603414 0.09712867 -0.058947727 -0.04898731 0.09449956 0.009446392
0.062013917 -0.056959722 0.03738597 0.061873555 -0.0024203593 0.025274478 0.061637864 -0.032814372
-0.023571918 0.007929844 -0.05606765 -0.03054886 -0.051495817 0.040953048 0.080101594 -0.060927942
0.01805946 0.05570079 -0.052910812 -0.016906263 0.07736296 -0.028470146 0.07540387 -0.034340225
-0.044970814 0.09125397 0.04967793 0.0775756 0.036934372 -0.00408465 0.095470056 -0.06507997
-0.0125130685 0.023841774 0.00019862526 0.04032462 -0.066011235 -0.047492653 -0.043885775 0.064786
0.08585376 -0.05984071 0.032107018 0.062889375 0.01822342 0.010507565 -0.0053321775 -0.004308176
-0.036221523 0.0032085732 0.05021648 -0.011665222 0.044684913 -0.05014224 0.023179846 0.063266516
0.027164849 -0.013561302 -0.027194856 0.06512964 -0.026287379 0.07344444 -0.047826212 0.06486393
-0.03826166 0.050765563 -0.05931668 -0.03861566 -0.062504776 0.05304677 -0.035270136 0.07278031
0.09393985 -0.037445568 0.03360469 -0.048375644 0.052798614 0.08418139 0.014257225 0.00088404503
-0.012232793 -0.016669707 -0.028885681 0.05983992 0.065445274 0.039526254 0.07090251 -0.04295127
0.082338005 0.043796554 0.046447936 -0.038723927 0.026673893 0.001942588 0.08704455 0.08994165
0.07012196 -0.045644462 0.060181387 0.010856323 0.014401269 -0.0001710717 0.09196202 0.008813285
0.08574417 -0.011381051 0.079857185 0.07335581 -0.011256507 0.0028783325 -0.031101689 -0.030279387
0.08385197 -0.010129963 -0.028777858 0.079086095 0.027712824 0.005237473 0.045572646 0.061783243
0.038518663 -0.056261986 -0.036604054 0.012671952 0.041081537 0.07280486 0.022194358 0.08009581
0.0641651 0.055654384 -0.047706995 -0.0004188854 -0.008594379 0.030869463 -0.054247275 0.0037009772
-0.016894003 0.05360993 -0.025451057 0.0068557663 0.025452306 0.02369985 -0.03889779 -0.023451835
-0.017867388 -0.010019498 0.0015636445 -0.01924729 -0.03156666 0.060547728 -0.0029546982 0.06550484
0.03155247 -0.067784116 -0.066928685 -0.0047309785 0.066130586 0.010996091 -0.04098634 0.08346106
-0.055919632 0.012647504 0.011265477 -0.04525201 -0.028519053 0.05162962 0.077055536 -0.05654533
0.07302146 -0.05471162 -0.060925025 0.06528891 -0.04111821 0.07472589 0.025799561 -0.06390238
0.08058481 -0.051932756 0.077586465 0.0033404604 0.012185043 0.09224058 -0.05818844 0.0026511145
0.06262117 0.0013096967 0.012266987 0.016749324 -0.032210298 0.066373326 0.08358091 0.018502554
0.0058440454 -0.06343424 0.043363962 0.0605489 0.014129488 -0.017585078 -0.028994044 -0.049307104
0.022767598 -0.059548113 -0.036568645 -0.05372824 -0.004790542 -0.058262657 0.052719552 0.023750084
0.007167927 0.061589174 -0.030616522 0.019332524 0.030033492 -0.055676363 0.016376322 0.0007189245
-0.03387343 0.076048255 0.053211976 -0.007057516 0.062282562 0.022115452 0.053289477 0.064783886
00000000: 290e 14bd 366b c43c b717 353d ca9f 903d
00000010: a99e 823b ea3a 02bd 51ff 723d e495 3dbd
00000020: 72a7 293d ccdb dcbb c9fc c03c 9fd3 a93c
00000030: ac65 9e3c 10d1 ab3d 1dcc 483c 60f0 c43d
00000040: 550e db3c e8c5 6fbd 84a1 bc3d cff9 40bd
00000050: d192 3a3c 0816 4c3d 7086 0b3c f75e aebc
00000060: 4e97 7f3d fa13 61bd 8b28 773d 65eb c63d
00000070: 2c73 71bd eba6 48bd fc88 c13d 0ac5 1a3c
00000080: 4e02 7e3d 994e 69bd 0822 193d 206f 7d3d
00000090: e49e 1ebb 6c0c cf3c fc77 7c3d 5d68 06bd
000000a0: e519 c1bc 2dec 013c 31a7 65bd 9a41 fabc
000000b0: 47ed 52bd 62be 273d 4e0c a43d 948f 79bd
000000c0: 6ff1 933c 8326 643d 02b9 58bd 017f 8abc
000000d0: 7970 9e3d 393a e9bc 586d 9a3d 56a8 0cbd
000000e0: 5133 38bd 5de3 ba3d 167b 4b3d f5df 9e3d
000000f0: 7f48 173d 87d8 85bb ce85 c33d a648 85bd
00000100: 9d03 4dbc d34f c33c 1046 5039 6e2b 253d
00000110: e630 87bd a887 42bd 92c1 33bd 86ae 843d
00000120: 19d4 af3d 881b 75bd a682 033d 25cc 803d
00000130: 4849 953c ec27 2c3c 8cb9 aebb 9a2b 8dbb
00000140: 055d 14bd ed46 523b ccaf 4d3d 7d1f 3fbc
00000150: 8707 373d f361 4dbd a9e3 bd3c e091 813d
00000160: d188 de3c 3930 5ebc bfc7 debc b062 853d
00000170: a158 d7bc 0a6a 963d 6be5 43bd 61d7 843d
00000180: 42b8 1cbd 8def 4f3d 0cf6 72bd 742b 1ebd
00000190: 8102 80bd 9247 593d 6b77 10bd d80d 953d
000001a0: 8963 c03d 8660 19bd 12a5 093d 8a25 46bd
000001b0: 5c43 583d 4b67 ac3d 2397 693c 42bf 673a
000001c0: 0d6c 48bc e98e 88bc aaa1 ecbc b41a 753d
000001d0: 2c08 863d 48e6 213d 5635 913d aced 2fbd
000001e0: d4a0 a83d 0464 333d 3140 3e3d fb9c 1ebd
000001f0: 3583 da3c 709e fe3a 6a44 b23d 5433 b83d
00000200: 1a9c 8f3d b0f5 3abd c280 763d b8de 313c
00000210: 4df3 6b3c b661 33b9 9556 bc3d 9965 103c
00000220: a49a af3d 9677 3abc 2a8c a33d 923b 963d
00000230: 366d 38bc 68a2 3c3b f8c8 febc 7a0c f8bc
00000240: 95ba ab3d 25f8 25bc 8bbf ebbc e4f7 a13d
00000250: 0106 e33c 1c9f ab3b 62aa 3a3d 6d10 7d3d
00000260: bfc5 1d3d f872 66bd 22ee 15bd 059e 4f3c
00000270: 1d45 283d b71a 953d f1d0 b53c 4609 a43d
00000280: fe68 833d daf5 633d 6968 43bd d99d dbb9
00000290: 70cf 0cbc f5e1 fc3c 6432 5ebd 188c 723b
000002a0: 4b65 8abc 1696 5b3d bc7e d0bc 56a6 e03b
000002b0: 5b81 d03c 3026 c23c 4a53 1fbd 101e c0bc
000002c0: a15e 92bc d228 24bc 34f3 cc3a 7eac 9dbc
000002d0: 0b4c 01bd e500 783d 9ca3 41bb 6727 863d
000002e0: 2a3d 013d 66d2 8abd e811 89bd 5306 9bbb
000002f0: 796f 873d f328 343c 4be1 27bd a2ed aa3d
00000300: fc0b 65bd 7a37 4f3c d692 383c 2c5a 39bd
00000310: caa0 e9bc 9579 533d 4bcf 9d3d 139c 67bd
00000320: 468c 953d 4b19 60bd 858c 79bd 31b6 853d
00000330: 916b 28bd e309 993d 9a59 d33c 40df 82bd
00000340: a609 a53d 71b7 54bd a7e5 9e3d a0eb 5a3b
00000350: c6a3 473c a1e8 bc3d 0057 6ebd 52be 2d3b
00000360: 873f 803d 21aa ab3a 79fb 483c e135 893c
00000370: f2ee 03bd bdee 873d 782c ab3d ab92 973c
00000380: 687f bf3b d0e9 81bd 699e 313d 2002 783d
00000390: 5e7f 673c 950e 90bc eb84 edbc 3ff6 49bd
000003a0: 1d83 ba3c b9e8 73bd 01c9 15bd 2512 5cbd
000003b0: fbf9 9cbb d3a4 6ebd 75f0 573d 898f c23c
000003c0: eee0 ea3b ee44 7c3d 80cf fabc 3e5f 9e3c
000003d0: cc08 f63c e60c 64bd a327 863c 3576 3c3a
000003e0: debe 0abd 30bf 9b3d cdf4 593d bc42 e7bb
000003f0: 001c 7f3d 772b b53c 1146 5a3d 6aad 843d

encoder.conv2.bias f4 [16]
-0.020639308 -0.04267464 0.06776367 0.05916352 0.04150679 -0.07090933 -0.0022118755 0.0096122455
0.0719582 -0.056009717 -0.017931402 0.029041374 0.04141062 -0.030719517 0.033732947 -0.007348776
00000000: c413 a9bc 9acb 2ebd aec7 8a3d 7255 723d
00000010: 0603 2a3d e938 91bd 1df5 10bb ae7c 1d3c
00000020: d25e 933d 726a 65bd e0e4 92bc 2de8 ed3c
00000030: 2f9e 293d 7fa7 fbbc 8f2b 0a3d 00ce f0bb

encoder.fc1.weight f4 [120, 400]
0.005308746 -0.023607772 0.00033002382 -0.0029114545 -0.009115563 0.049308468 0.05180173 0.04495964
0.055335186 -0.04000806 0.02775186 0.017167957 0.029947838 0.05202826 -0.028887535 0.05592906
-0.013162267 -0.015550517 0.037284266 0.028234066 -0.009665103 -0.02522685 0.046237532 0.041520234
0.008802769 0.047197744 0.005472785 0.036783352 -0.028158093 -0.016808063 0.02286876 0.009145168
0.00042371074 0.010096728 0.010303266 -0.023527455 0.033152875 -0.035955183 -0.007572824 -0.03369322
0.0021155418 0.037579093 0.006727631 0.056907613 -0.0456564 0.049027607 -0.011242606 0.028667213
0.022491438 0.016260656 0.017668406 -0.012675996 -0.008477976 -0.011186023 -0.00961364 0.046845715
0.0263496 -0.039032605 -0.018880913 -0.017305212 0.003206139 0.018484816 -0.015987007 0.02980653
0.0479473 0.052673336 -0.027219526 0.036785837 -0.018431861 -0.030131534 0.04118889 -0.044409852
-0.018358769 0.02690317 0.04647395 -0.008782641 0.038379837 -0.028817859 -0.012452366 0.05176546
0.0011060389 0.054335576 -0.0065422053 0.0013641098 -0.028803974 0.04430719 0.0019252659 0.0005397827
0.050283175 0.03126008 0.041746464 0.013600689 -0.0021120938 0.041690834 0.012645586 -0.005683494
0.021771764 -0.002145676 -0.04285865 0.02680651 -0.011360994 0.015109182 -0.038690574 0.04425526
-0.013183657 0.052417587 0.03917439 0.008853499 -0.003350854 0.00085695257 -0.032554172 0.05961528
0.032208517 0.030570805 -0.027045682 0.02449675 0.0058417995 0.037196692 -0.026451403 0.015486635
0.03738471 0.01150613 0.03189298 0.0422983 -0.0070728473 0.009753976 0.036684364 -0.035788164
0.039106715 -0.042533398 -0.024606949 -0.015094973 0.022914803 0.052041937 -0.03228071 -0.0068544834
0.044349696 -0.0042492626 0.0231521 -0.0187838 0.03190405 -0.026337598 0.0012345741 0.0007896816
0.0049720276 0.029655082 0.051323794 -0.03484137 0.056141537 -0.010220977 0.04449385 0.035054862
0.010957621 0.033560187 0.0010220562 0.04231053 0.031667884 -0.01625239 -0.022609556 -0.017350622
-0.0014585331 -0.03682325 -0.009327717 0.011666786 0.012803702 0.05854514 0.008512723 -0.009012748
-0.014327223 0.03288765 0.044881225 0.01700582 0.047384217 0.005907488 0.007061288 -0.016632376
-0.027531147 -0.012626528 0.00844061 -0.03763364 -0.029103946 0.007674178 0.00039644996 0.03434689
0.0285396 0.016259607 0.041217975 0.045129485 0.0083694635 -0.0050353557 -0.014367304 0.047001354
0.009424502 -0.007064816 0.004125127 0.05163746 0.05726465 0.0553896 0.0028539803 0.049263824
0.0022668105 0.04903816 0.02480222 -0.028464263 0.0017555787 0.033232026 -0.027388392 0.021616187
-0.008787696 0.02344036 -0.033724323 0.009381747 0.040885627 0.03360897 -0.04901085 0.0030130683
0.017541865 -0.044974513 0.014745414 -0.030617941 -0.00039290154 0.018178442 -0.03677846 -0.037431285
-0.028532224 -0.009812356 0.029729774 0.029469363 -0.0028108156 -0.03785089 0.012665985 0.039209157
0.007263787 0.03844099 0.050264146 -0.008510074 -0.021940472 -0.02838271 -0.0274853 0.0052840826
0.037465215 0.012241432 -0.008304739 -0.005077348 -0.008007724 0.016519334 0.04290838 -0.03376767
0.016961373 0.018215138 -0.047209598 -0.031898987 -0.015203011 0.02463412 -0.015602274 0.014267677
00000000: fdf4 ad3b 1665 c1bc 0c07 ad39 1ace 3ebb
00000010: 7159 15bc adf7 493d 0d2e 543d 9927 383d
00000020: 26a7 623d 7edf 23bd de57 e33c d1a3 8c3c
00000030: 2b55 f53c 961b 553d 8da5 ecbc df15 653d
00000040: 8da6 57bc 98c7 7ebc 63b7 183d 214b e73c
00000050: 615a 1ebc 8aa8 cebc 9163 3d3d 1f11 2a3d
00000060: 7d39 103c 6c52 413d 0c55 b33b 24aa 163d
00000070: cdab e6bc 10b1 89bc 4457 bb3c 9dd5 153c
00000080: 7e25 de39 bf6c 253c 08cf 283c a6bc c0bc
00000090: 4fcb 073d be45 13bd 7425 f8bb e701 0abd
000000a0: e7a4 0a3b 89ec 193d 7673 dc3b f517 693d
000000b0: 3502 3bbd 2cd1 483d e832 38bc 81d7 ea3c
000000c0: f73f b83c 1135 853c 55bd 903c fbae 4fbc
000000d0: 35e7 0abc 9545 37bc 8782 1dbc 4be1 3f3d
000000e0: 1edb d73c a7e0 1fbd 25ac 9abc a9c3 8dbc
000000f0: 161e 523b 786d 973c 2ff7 82bc d32c f43c
00000100: 6364 443d ffbf 573d 7cfb debc bfac 163d
00000110: 6afe 96bc 68d6 f6bc aeb5 283d 1be7 35bd
00000120: 2165 96bc 0964 dc3c 785b 3e3d 11e5 0fbc
00000130: 2d34 1d3d 6e13 ecbc 0205 4cbc 0508 543d
00000140: 82f8 903a fb8e 5e3d ff5f d6bb eecb b23a
00000150: 50f6 ebbc 757b 353d 3459 fc3a 3480 0d3a
00000160: bbf5 4d3d 920a 003d 57fe 2a3d 6dd5 5e3c
00000170: 0e6b 0abb 02c4 2a3d 6f2f 4f3c 9a3c babb
00000180: b35a b23c 789e 0cbb 8d8c 2fbd 5399 db3c
00000190: 7623 3abc 818c 773c 027a 1ebd 0145 353d
000001a0: 4400 58bc d3b3 563d 5375 203d 440e 113c
000001b0: 009a 5bbb 1da5 603a 8657 05bd 272f 743d
000001c0: 14ed 033d a06f fa3c e88e ddbc 69ad c83c
000001d0: 916c bf3b 8f5b 183d 9db0 d8bc a8bb 7d3c
000001e0: b620 193d 3584 3c3c 37a2 023d fb40 2d3d
000001f0: 58c3 e7bb 24cf 1f3c 5842 163d 9c96 12bd
00000200: 5d2e 203d 8037 2ebd 8394 c9bc e850 77bc
00000210: d3b7 bb3c ed29 553d c738 04bd 939b e0bb
00000220: 07a8 353d 663d 8bbb 79a9 bd3c 7ce0 99bc
00000230: d2ad 023d f2c1 d7bc 6fd1 a13a a302 4f3a
00000240: 64ec a23b 37ef f23c e638 523d d3b5 0ebd
00000250: abf4 653d e275 27bc 2f3f 363d b095 0f3d
00000260: 9887 333c 6876 093d 84f6 853a ce4d 2d3d
00000270: 2fb6 013d bb23 85bc ad37 b9bc e422 8ebc
00000280: 402c bfba fad3 16bd 48d3 18bc 0c26 3f3c
00000290: 9ec6 513c 07cd 6f3d f378 0b3c 34aa 13bc
000002a0: bbbc 6abc 33b5 063d 60d5 373d ca4f 8b3c
000002b0: f415 423d 9a93 c13b 6162 e73b 9f40 88bc
000002c0: 0089 e1bc 7fdf 4ebc 7c4a 0a3c bb25 1abd
000002d0: 666b eebc ac77 fb3b 9dda cf39 53af 0c3d
000002e0: e1cb e93c de32 853c 2ed4 283d b2d9 383d
000002f0: 1320 093c a0ff a4bb d764 6bbc 7e84 403d
00000300: 3a69 1a3c f97f e7bb 132c 873b cd81 533d
00000310: 568e 6a3d 35e0 623d d809 3b3b ddc8 493d
00000320: c58e 143b 3ddc 483d 062e cb3c e32d e9bc
00000330: 721b e63a 4e1e 083d 9f5d e0bc 6e14 b13c
00000340: 45fa 0fbc ff05 c03c 8422 0abd e6b5 193c
00000350: b077 273d 8fa9 093d 9abf 48bd e676 453b
00000360: f5b3 8f3c 3237 38bd c096 713c 7ad2 fabc
00000370: 5afe cdb9 f5ea 943c 03a5 16bd 8c51 19bd
00000380: 69bc e9bc 01c4 20bc db8b f33c bc69 f13c
00000390: a935 38bb 8909 1bbd fe84 4f3c c899 203d
000003a0: 1005 ee3b 4d74 1d3d c7e1 4d3d d66d 0bbc
000003b0: 81bc b3bc db82 e8bc da28 e1bc 1926 ad3b
000003c0: 2075 193d 4a90 483c 9a10 08bc e25f a6bb
000003d0: d432 03bc 8e53 873c b3c0 2f3d f84f 0abd
000003e0: 94f2 8a3c ea37 953c da5e 41bd 83a8 02bd
000003f0: 0d16 79bc 7ecd c93c aea0 7fbc fac2 693c

encoder.fc1.bias f4 [120]
0.015469912 0.029998846 -0.020882614 0.02077622 0.054870997 -0.054754406 0.022295235 -0.0048471875
0.063366205 0.03925841 -0.044550676 -0.0064267726 -0.025329811 0.014958221 0.025052855 -0.013107592
0.03459556 -0.054161873 0.03991094 0.06673041 0.022339705 0.040544998 0.04367589 -0.046030935
-0.009236954 -0.0010553246 -0.040564157 0.0026802241 0.014995183 -0.046531476 0.027388543 0.015912578
0.014967257 0.030423965 -0.025545942 0.0021258832 0.010113926 -0.0268619 0.058383808 -0.041106664
0.054816186 0.04953038 -0.024576912 -0.014673883 0.029378587 -0.047974713 -0.005327416 0.020881403
-0.010044408 0.038211215 0.022236984 0.009562783 -0.017697398 -0.024381109 -0.014943651 -0.003992043
-0.017613985 0.052664246 0.0060904333 -0.0031134 0.036231965 0.037692603 0.010356651 0.017075114
0.05394593 -0.055890847 -0.03162327 -0.033152968 0.042042017 -0.028391344 0.0040467563 -0.049989812
0.02101052 0.006926937 -0.004415369 -0.035183992 -0.0010938725 -0.018568706 0.062930025 0.039310563
0.050109673 0.00347274 -0.05510532 0.014028634 0.010565103 -0.028902896 -0.009571122 -0.038840882
-0.022164183 0.04314337 -0.048963677 -0.021228949 -0.018873036 -0.027252281 0.007881158 -0.021285085
0.0077494727 0.03134314 0.0003473135 -0.015759012 0.0036527724 0.012670723 0.03676046 0.027132804
-0.0011233552 0.009316858 -0.007502929 0.018147942 -0.04668841 0.023101998 -0.025932318 0.022902224
0.028337153 0.02009666 0.020103091 -0.0008756829 -0.008352989 0.06748158 0.0023135485 -0.043983106
00000000: 8475 7d3c 24c0 f53c 0412 abbc e432 aa3c
00000010: 69c0 603d 2846 60bd 7fa4 b63c 28d5 9ebb
00000020: 24c6 813d 6dcd 203d c57a 36bd ad97 d2bb
00000030: 7780 cfbc 5413 753c a53b cd3c 3ac1 56bc
00000040: 13b4 0d3d d7d8 5dbd a779 233d f4a9 883d
00000050: c201 b73c 8312 263d 7de5 323d ef8a 3cbd
00000060: 9856 17bc d152 8aba 9a26 26bd b3a6 2f3b
00000070: 5bae 753c ca97 3ebd f05d e03c 185b 823c
00000080: 3a39 753c ae3b f93c b945 d1bc 6752 0b3b
00000090: e1b4 253c 7d0d dcbc dc23 6f3d 765f 28bd
000000a0: f086 603d 5ee0 4a3d 8555 c9bc ba6a 70bc
000000b0: 5dab f03c 2281 44bd 9b91 aebb 7a0f ab3c
000000c0: 4d91 24bc 5d83 1c3d 562a b63c 38ad 1c3c
000000d0: 22fa 90bc e4ba c7bc 37d6 74bc afcf 82bb
000000e0: 344b 90bc 77b6 573d 4292 c73b 2f0a 4cbb
000000f0: f867 143d 8f63 1a3d f1ae 293c 1ce1 8b3c
00000100: 68f6 5c3d cded 64bd 6787 01bd 68cb 07bd
00000110: 4034 2c3d f794 e8bc a79a 843b 1ec2 4cbd
00000120: 411e ac3c 5cfb e23b cdae 90bb 171d 10bd
00000130: 4560 8fba 661d 98bc 75e1 803d 1d04 213d
00000140: cd3f 4d3d e996 633b 1eb6 61bd 5bd8 653c
00000150: 4119 2d3c c4c5 ecbc 32d0 1cbc 9e17 1fbd
00000160: a991 b5bc 1ab7 303d 238e 48bd 55e8 adbc
00000170: a09b 9abc 2d40 dfbc f91f 013c 0f5e aebc
00000180: 4aef fd3b aa61 003d a117 b639 0b19 81bc
00000190: 5a63 6f3b dd98 4f3c 2392 163d 9d45 de3c
000001a0: 8c3d 93ba bca5 183c 21db f5bb feaa 943c
000001b0: 593c 3fbd 6740 bd3c 0370 d4bc 729d bb3c
000001c0: 5123 e83c c0a1 a43c 3daf a43c 168e 65ba
000001d0: fada 08bc c833 8a3d e79e 173b a127 34bd

encoder.fc2.weight f4 [84, 120]
-0.064710155 -0.08055721 0.05660543 0.043936886 0.078057684 0.009825044 0.06982734 0.03924695
-0.021053694 0.07856433 -0.05220638 0.004335857 0.013452446 0.010268033 0.09076775 -0.038397994
-0.009590887 0.022597559 0.05644375 -0.057309665 0.036474224 0.0361315 0.06909394 -0.017896425
-0.010053068 -0.024360184 -0.003977894 -0.06948227 0.07689568 0.029733663 0.057642344 -0.0020144985
0.026412152 -0.06977069 -0.042901073 -0.053790588 0.08772349 -0.025653776 0.07249065 0.088005096
0.029390503 -0.048051544 0.08636669 0.008422267 -0.045297977 0.06934027 0.021383466 0.042328823
0.04542577 0.08610627 0.021759968 -0.018275138 0.085116036 0.087638326 -0.06644231 0.022173893
0.05871476 0.09059728 -0.033889845 0.056340817 0.030245783 0.038422886 -0.07860189 -0.083309434
0.0635139 0.084109776 0.033635877 0.07482274 0.03923741 0.008902524 0.036123354 0.07790299
-0.05646863 0.06824809 0.03331613 0.04648055 0.051038485 0.07027226 0.09137843 0.022293037
-0.06103491 -0.032603174 0.016338818 0.020567672 0.09025828 0.02697145 -0.057879813 0.051524553
-0.0071779266 0.06950233 0.088090636 -0.06741205 0.0807465 -0.073964804 -0.037085723 0.03671589
0.038204156 0.08391222 0.06058771 -0.07648882 -0.047850773 0.043827076 0.09554533 -0.058678355
0.067578256 -0.01649334 -0.028990338 0.043574702 -0.014440895 0.0002688052 -0.005937922 0.08748727
-0.08921039 0.023369513 0.0010165613 0.08920586 -0.085607074 -0.022431077 0.07832964 0.034566063
-0.014374175 -0.026623469 -0.08861548 0.08030401 -0.087054744 0.06170732 0.077109955 0.009271337
0.018287338 -0.08289948 -0.06607542 -0.03149413 0.055357445 -0.00811962 0.088746615 0.060999375
-0.083067864 0.008378781 -0.07120529 0.017087696 -0.06811334 -0.050280716 0.050476678 -0.030819511
-0.011914822 0.051318552 -0.02989158 0.079336524 0.0046024555 0.05596379 -0.006838341 -0.09421721
0.024740998 0.07987374 -0.0127031915 0.062075544 -0.04164948 -0.0026185678 -0.01538183 0.062467255
-0.062032625 -0.033995282 0.08533253 0.083294064 0.07652285 -0.028718984 0.0043249186 -0.020270681
0.031747237 -0.061721403 -0.024482341 0.066926554 -0.043671332 0.0048658038 0.0055721556 -0.03299234
0.009728476 0.05845496 0.07238773 0.002483682 -0.084216 -0.057925776 -0.03891037 0.072976984
0.058174346 -0.070010826 0.0320595 0.07521479 -0.033276312 -0.0038814007 -0.07539786 0.035771087
0.040320907 0.049364444 0.05817142 -0.040309425 -0.036769725 -0.04273547 -0.0655055 -0.023889063
-0.063602515 0.050291065 0.018122667 0.047386713 0.06186991 0.022874465 -0.02416038 0.057676103
0.015859326 0.050639488 0.000646483 0.081156164 -0.007139095 -0.07206533 0.016992653 0.07816807
-0.046085507 -0.074602306 -0.05717663 0.061467074 0.075389445 0.02128397 -0.078001074 -0.021852953
0.0025316344 -0.065706 0.055353086 -0.024961803 0.028958306 -0.00524706 0.033860344 -0.07376299
0.05514641 -0.047670625 -0.057098515 -0.063146226 0.015272112 0.073572785 0.053072456 0.08995571
0.06858966 0.07833037 -0.0039376286 0.05933835 -0.040210094 0.021902762 -0.07317863 0.08601386
0.03845116 -0.05842503 0.023493102 0.051917795 -0.06456261 -0.028509086 -0.051567767 -0.07653451
00000000: c286 84bd 2efb a4bd 18db 673d 2af7 333d
00000010: b5dc 9f3d 39f9 203c a301 8f3d 69c1 203d
00000020: cc78 acbc 56e6 a03d 5bd6 55bd ce13 8e3b
00000030: a667 5c3c 403b 283c 71e4 b93d 3747 1dbd
00000040: 1923 1dbc 841e b93c 9031 673d 8abd 6abd
00000050: ff65 153d a0fe 133d 2081 8d3d 869b 92bc
00000060: a0b5 24bc 028f c7bc fe58 82bb b84c 8ebd
00000070: 7b7b 9d3d 0394 f33c 611a 6c3d ad05 04bb
00000080: 4c5e d83c efe3 8ebd 09b9 2fbd 8553 5cbd
00000090: 60a8 b33d de27 d2bc fa75 943d 043c b43d
000000a0: 5ac4 f03c b2d1 44bd 05e1 b03d 8cfd 093c
000000b0: 5f8a 39bd 4502 8e3d 612c af3c fd60 2d3d
000000c0: 5f10 3a3d 7c58 b03d f641 b23c beb5 95bc
000000d0: 5151 ae3d b97b b33d e812 88bd 06a6 b53c
000000e0: e37e 703d 118b b93d 14d0 0abd a1c5 663d
000000f0: 01c6 f73c 5161 1d3d 07fa a0bd 239e aabd
00000100: 9313 823d bf41 ac3d c6c5 093d aa3c 993d
00000110: 68b7 203d e4db 113c 15f6 133d 9a8b 9f3d
00000120: a64b 67bd a8c5 8b3d 7f76 083d 6462 3e3d
00000130: bb0d 513d e7ea 8f3d 9d24 bb3d e39f b63c
00000140: beff 79bd e88a 05bd fcd8 853c 897d a83c
00000150: 55d9 b83d 3bf3 dc3c 6213 6dbd 690b 533d
00000160: d034 ebbb 3d57 8e3d dd68 b43d 540f 8abd
00000170: 6c5e a53d dc7a 97bd 33e7 17bd 6763 163d
00000180: f67b 1c3d 2cda ab3d d22a 783d 2ca6 9cbd
00000190: 2cff 43bd 0584 333d 45ad c33d b758 70bd
000001a0: 7866 8a3d 0a1d 87bc 257d edbc 637b 323d
000001b0: 8199 6cbc 6cee 8c39 e692 c2bb 872c b33d
000001c0: f0b3 b6bd 6c71 bf3c 233e 853a 90b1 b63d
000001d0: c352 afbd 61c1 b7bc 4a6b a03d 2595 0d3d
000001e0: a981 6bbc 7619 dabc 087c b5bd 6e76 a43d
000001f0: c249 b2bd d1c0 7c3d d3eb 9d3d cee6 173c
00000200: 54cf 953c 34c7 a9bd 8d52 87bd fdff 00bd
00000210: 7dbe 623d 2808 05bc c9c0 b53d 7bda 793d
00000220: 7c1f aabd 2847 093c 14d4 91bd 7ffb 8b3c
00000230: 027f 8bbd 27f3 4dbd a2c0 4e3d 3379 fcbc
00000240: 6336 43bc 6733 523d 30df f4bc 307b a23d
00000250: 32d0 963b 493a 653d 2914 e0bb f4f4 c0bd
00000260: a2ad ca3c d894 a33d 0c21 50bc ed42 7e3d
00000270: a598 2abd 479c 2bbb 1204 7cbc aadd 7f3d
00000280: ec15 7ebd a33e 0bbd d2c2 ae3d 1496 aa3d
00000290: 03b8 9c3d 1344 ebbc 0cb8 8d3b b30e a6bc
000002a0: 6409 023d 95cf 7cbd 318f c8bc ca10 893d
000002b0: b6e0 32bd 5271 9f3b a196 b63b fa22 07bd
000002c0: 3064 1f3c 786e 6f3d 0540 943d 45c5 223b
000002d0: 7079 acbd 9443 6dbd 7b60 1fbd f574 953d
000002e0: 3948 6e3d d661 8fbd d350 033d 360a 9a3d
000002f0: be4c 08bd 195f 7ebb 316a 9abd b484 123d
00000300: 8927 253d 5f32 4a3d 2845 6e3d 7f1b 25bd
00000310: da9b 16bd 630b 2fbd bf27 86bd ffb2 c3bc
00000320: 0942 82bd 01fe 4d3d fd75 943c 9218 423d
00000330: 4e6b 7d3d 3b63 bb3c fdeb c5bc c73d 6c3d
00000340: 6beb 813c 5a6b 4f3d bd78 293a 3435 a63d
00000350: 12ef e9bb fd96 93bd 2d34 8b3c 9516 a03d
00000360: 28c4 3cbd 18c9 98bd 0b32 6abd e6c4 7b3d
00000370: c865 9a3d b85b ae3c 07bf 9fbd f704 b3bc
00000380: c7e9 253b de90 86bd ebb9 623d b27c ccbc
00000390: f839 ed3c 88ef abbb 25b1 0a3d 0d11 97bd
000003a0: 34e1 613d 4642 43bd 22e0 69bd cf52 81bd
000003b0: e137 7a3c 54ad 963d 8162 593d b33a b83d
000003c0: bc78 8c3d ac6b a03d 3907 81bb c50c 733d
000003d0: 57b3 24bd 6c6d b33c adde 95bd 0928 b03d
000003e0: f77e 1d3d 164f 6fbd 9b74 c03c c1a7 543d
000003f0: 6739 84bd e38b e9bc b938 53bd 20be 9cbd

encoder.fc2.bias f4 [84]
-0.024176437 -0.06849341 -0.071390636 0.025615307 0.0008954475 -0.029421099 -0.03353571 -0.032148346
-0.007949123 -0.06852432 0.082690746 0.074478485 -0.010930248 -0.0744606 -0.02670879 0.03641749
-0.023676882 0.06232863 -0.05771795 0.029066555 0.029647868 -0.027973477 0.014320094 -0.01432474
0.066166505 0.070363946 0.01924736 0.107735604 -0.042721905 -0.05234957 0.07431502 -0.03666897
0.01277282 0.06578786 0.036149863 -0.055962276 -0.09142795 0.07128198 0.069502816 0.015798364
0.003993637 -0.065368876 -0.07438939 -0.013455774 -0.03733038 -0.05478916 0.055060647 0.06813749
0.018967139 -0.07791334 -0.05224608 -0.02533716 -0.054505054 0.060855664 0.074101955 0.05197402
-0.071982384 -0.05321682 0.061200265 -0.06657988 -0.06176737 -0.020934708 0.0145491995 0.04298292
-0.049658917 0.087325014 0.039530706 0.06340621 0.0065785167 0.06550834 0.03899467 -0.06301814
0.097222276 -0.08285601 -0.039075978 0.10738576 0.006156272 0.06589552 0.031743165 0.021040056
0.016373849 0.028702071 0.027968062 -0.038612925
00000000: aa0d c6bc 4646 8cbd 4135 92bd 31d7 d13c
00000010: 77bc 6a3a 8404 f1bc be5c 09bd fcad 03bd
00000020: 0a3d 02bc 7b56 8cbd c459 a93d 2d88 983d
00000030: c814 33bc cd7e 98bd 64cc dabc 822a 153d
00000040: 05f6 c1bc 4e4c 7f3d a869 6cbd fc1c ee3c
00000050: 16e0 f23c a228 e5bc d49e 6a3c 50b2 6abc
00000060: 4e82 873d f91a 903d a4ac 9d3c 7ca4 dc3d
00000070: 2afd 2ebd 816c 56bd 7932 983d 3432 16bd
00000080: 1745 513c c9bb 863d e111 143d b338 65bd
00000090: 943e bbbd 49fc 913d 7e57 8e3d 926b 813c
000000a0: 0edd 823b 1ee0 85bd 7759 98bd 9b75 5cbc
000000b0: bee7 18bd 996a 60bd 4687 613d ab8b 8b3d
000000c0: f960 9b3c 0791 9fbd fcff 55bd e08f cfbc
000000d0: b140 5fbd ca43 793d c4c2 973d b6e2 543d
000000e0: 806b 93bd e1f9 59bd 21ad 7a3d 085b 88bd
000000f0: c8ff 7cbd 447f abbc c45f 6e3c dc0e 303d
00000100: 2667 4bbd 75d7 b23d f3ea 213d 1ddb 813d
00000110: 9990 d73b 3d29 863d e0b8 1f3d a80f 81bd
00000120: 791c c73d 69b0 a9bd 220e 20bd 11ed db3d
00000130: 8dba c93b 3bf4 863d 1f05 023d 325c ac3c
00000140: 7322 863c 9b20 eb3c 471d e53c 9628 1ebd

bottleneck.fc.weight f4 [16, 84]
-0.007113306 -0.086173095 0.018586963 0.078869544 0.07486567 -0.013965959 -0.04029499 0.013028808
0.1044719 0.045665443 0.1007585 0.120380685 0.08079838 0.06970329 -0.045208205 0.035261337
0.045271534 0.05350375 0.059745617 0.050330974 0.11197636 0.067753606 0.054879006 -0.09524615
0.005470995 0.027387114 0.020927574 0.011607078 0.08268089 -0.05563794 -0.08188163 0.00842804
-0.08109522 -0.08872295 0.026358502 0.0024473856 -0.095643 0.078218505 -0.027838599 0.10521827
0.055274464 -0.09105278 0.014367668 -0.043547474 -0.050184935 0.027175086 -0.021453531 -0.082070224
-0.017809132 -0.037027657 -0.045561157 0.034237828 -0.06578917 0.049966466 -0.01104432 -0.018856676
-0.022113187 -0.08000437 0.11968264 0.04373611 -0.022378134 0.05997432 -0.043010395 0.09491212
0.051498577 0.04118123 0.07923118 0.030359628 0.0138484575 -0.0120299915 0.07368862 0.10490696
0.08237362 -0.091374725 0.025250167 -0.046464335 -0.07140118 -0.069815874 0.076787226 0.08250132
0.0015145701 -0.05872851 -0.06415347 -0.047631066 -0.09681519 -0.010339027 -0.1014877 -0.09852134
-0.036382765 -0.07343257 0.051445056 -0.07618223 -0.02361477 -0.033376385 -0.10269667 -0.034613565
0.054929864 0.047609143 -0.08933154 -0.079823 0.075001486 0.047657486 -0.045250256 -0.07948223
0.056484528 0.06304797 -0.07628463 -0.07109893 -0.08073135 0.10708808 0.013136699 -0.10133141
0.080251984 -0.03563114 -0.018483756 0.0055799563 0.09381979 0.024362803 -0.051152244 0.041001674
-0.10666703 0.07534558 -0.10399796 0.029035198 -0.03126931 0.079996474 0.08861899 -0.04569817
-0.055510186 -0.016263546 -0.09854321 -0.0010451354 -0.10762469 0.015095445 -0.006707932 -0.08230505
-0.0712899 -0.042341907 0.08898549 -0.09651621 -0.026264176 -0.04866987 -0.040725827 -0.10894168
0.09689446 0.09231135 -0.03128523 -0.09237133 -0.08790564 0.0067603104 -0.055344857 -0.008980428
-0.06520315 0.026614917 0.012508224 0.0638656 -6.0793784e-05 -0.043427832 -0.059462655 -0.10263973
-0.10347878 0.097202584 0.04034128 0.06571572 0.051395603 0.09750073 0.07890068 0.040082004
-0.012688399 -0.06654821 0.01261034 -0.11098418 -0.010358108 -0.046282716 -0.105188675 0.09863061
-0.096272476 0.07512265 -0.026899267 -0.069467805 0.05429652 -0.0378992 -0.093295425 -0.09645607
-0.097322404 -0.06677517 -0.10482899 -0.06516588 -0.03382925 0.010052014 0.088641554 -0.059606053
0.053148977 -0.088049255 0.0018624717 -0.07258123 -0.10258515 0.004629094 -0.11275805 0.015083934
0.08934414 -0.09242484 0.06545033 -0.09988772 -0.036956172 -0.0548356 -0.05378418 -0.04199015
0.03408853 -0.05087986 0.0971138 0.027756734 -0.106493495 -0.02592149 0.08522264 -0.009368603
-0.10590927 -0.055477653 0.07785512 0.07513626 -0.05604238 0.05956461 -0.03496724 0.03041966
0.085671216 0.07290975 -0.06926201 0.019194838 -0.029862495 0.037639387 0.05129491 0.03158828
0.100538425 -0.06899069 0.10045179 -0.080968045 -0.09802255 -0.10082514 -0.09320452 0.09579902
-0.08671944 -0.06284685 0.04077443 -0.04568406 -0.007755048 0.034767848 0.04015906 -0.069075495
0.027388087 -0.048963066 -0.085822985 0.10195892 -0.021442916 -0.019865805 -0.042310234 -0.025605673
00000000: bc16 e9bb 857b b0bd b043 983c 5b86 a13d
00000010: 2c53 993d 7ad1 64bc 5c0c 25bd c876 553c
00000020: 5df5 d53d b00b 3b3d 795a ce3d 268a f63d
00000030: 9f79 a53d 99c0 8e3d 3d2c 39bd 316e 103d
00000040: a56e 393d c026 5b3d d2b7 743d da27 4e3d
00000050: dd53 e53d 67c2 8a3d cfc8 603d 6a10 c3bd
00000060: 0846 b33b f15a e03c 4e70 ab3c 9d2b 3e3c
00000070: 9954 a93d 9ce4 63bd 8eb1 a7bd c315 0a3c
00000080: 4015 a6bd 61b4 b5bd c9ed d73c 5164 203b
00000090: 7ae0 c3bd 0631 a03d c60d e4bc ad7c d73d
000000a0: 7a67 623d e179 babd 5e66 6b3c d65e 32bd
000000b0: b88e 4dbd 499e de3c 51bf afbc 6f14 a8bd
000000c0: 75e4 91bc 50aa 17bd 569e 3abd f73c 0c3d
000000d0: 79bc 86bd a3a9 4c3d 3cf3 34bc 5179 9abc
000000e0: b726 b5bc 55d9 a3bd 2c1c f53d a324 333d
000000f0: 5952 b7bc a2a7 753d ab2b 30bd 4961 c23d
00000100: 2cf0 523d a6ad 283d f543 a23d c1b4 f83c
00000110: a4e4 623c 7119 45bc 0fea 963d 76d9 d63d
00000120: 80b3 a83d ac22 bbbd 70d9 ce3c 6351 3ebd
00000130: c83a 92bd a0fb 8ebd 9f42 9d3d 74f6 a83d
00000140: 8a84 c63a 4e8d 70bd e562 83bd cb18 43bd
00000150: 0b47 c6bd 0665 29bc c9d8 cfbd 8ec5 c9bd
00000160: 1806 15bd d163 96bd 0db8 523d 6e05 9cbd
00000170: c373 c1bc adb5 08bd a252 d2bd f4c6 0dbd
00000180: 23fe 603d ce01 433d 74f3 b6bd 3e7a a3bd
00000190: 619a 993d 7f34 433d 5558 39bd 94c7 a2bd
000001a0: 525c 673d 4b1f 813d 1e3b 9cbd 519c 91bd
000001b0: 7a56 a5bd ff50 db3d 4f3b 573c d886 cfbd
000001c0: 275b a43d f5f1 11bd 3f6b 97bc 11d8 b63b
000001d0: 9724 c03d 8094 c73c 0485 51bd 5ff1 273d
000001e0: 3e74 dabd c94e 9a3d e2fc d4bd 39db ed3c
000001f0: 3f14 00bd 31d5 a33d df7d b53d 012e 3bbd
00000200: a65e 63bd 213b 85bc 06d1 c9bd edfc 88ba
00000210: 556a dcbd e352 773c 36ce dbbb 8d8f a8bd
00000220: 7000 92bd b56e 2dbd 063e b63d 4aaa c5bd
00000230: f827 d7bc 0f5a 47bd 20d0 26bd d11c dfbd
00000240: 9a70 c63d bc0d bd3d f124 00bd 2e2d bdbd
00000250: df07 b4bd 9885 dd3b 4ab1 62bd a522 13bc
00000260: 3b89 85bd 8707 da3c 4bef 4c3c f8cb 823d
00000270: d4fc 7eb8 62e1 31bd 1d8f 73bd c734 d2bd
00000280: afec d3bd 2612 c73d e63c 253d f795 863d
00000290: 3284 523d 76ae c73d ae96 a13d 072d 243d
000002a0: 01e3 4fbc 6e4a 88bd 999b 4e3c ac4b e3bd
000002b0: 0eb5 29bc f292 3dbd 296d d7bd d8fe c93d
000002c0: 812a c5bd e7d9 993d da5b dcbc 2345 8ebd
000002d0: 0766 5e3d 313c 1bbd ac11 bfbd c38a c5bd
000002e0: f850 c7bd 6cc1 88bd 95b0 d6bd b075 85bd
000002f0: 8a90 0abd 34b1 243c b489 b53d 7a25 74bd
00000300: beb2 593d 2b53 b4bd 2e1e f43a 78a5 94bd
00000310: 2a18 d2bd a8af 973b b1ed e6bd 9b22 773c
00000320: 0ffa b63d 3c49 bdbd d30a 863d ef91 ccbd
00000330: 5b5f 17bd 4b9b 60bd cd4c 5cbd ddfd 2bbd
00000340: 6aa0 0b3d 6667 50bd 9ae3 c63d 1762 e33c
00000350: 4319 dabd 4e59 d4bc 3589 ae3d c57e 19bc
00000360: f6e6 d8bd 893c 63bd 8172 9f3d 0ae1 993d
00000370: b28c 65bd 05fa 733d cf39 0fbd a732 f93c
00000380: 6474 af3d b551 953d 3ed9 8dbd 7e3e 9d3c
00000390: 31a2 f4bc c22b 1a3d 9d1a 523d b662 013d
000003a0: 17e7 cd3d fe4a 8dbd abb9 cd3d 93d2 a5bd
000003b0: 0cc0 c8bd 697d cebd 03e2 bebd 4732 c43d
000003c0: f699 b1bd d9b5 80bd 1703 273d 351f 3bbd
000003d0: 0f1e febb bb68 0e3d d47d 243d 7477 8dbd
000003e0: fb5c e03c 7f8d 48bd f6c3 afbd d7cf d03d
000003f0: 0ea9 afbc 9dbd a2bc 7f4d 2dbd fdc2 d1bc

bottleneck.fc.bias f4 [16]
0.098165214 0.0053043813 0.10052213 0.017551254 -0.011104686 0.09451504 0.03574717 0.07101735
-0.09677175 0.019543413 -0.08906611 -0.012589602 0.0057776547 -0.104281366 -0.0863185 0.05817258
00000000: d80a c93d 60d0 ad3b 8cde cd3d a6c7 8f3c
00000010: 6ef0 35bc 1a91 c13d a06b 123d 8b71 913d
00000020: 4430 c6bd 8219 a03c 4b68 b6bd 9e44 4ebc
00000030: 7b52 bd3b 7891 d5bd c1c7 b0bd 5f46 6e3d

decoder.fc3.weight f4 [84, 16]
-0.217854 0.029274732 0.18954462 -0.011566758 -0.088124305 -0.06470749 0.0949665 -0.07161647
-0.105362505 0.0851616 0.20433533 0.081237376 -0.06272519 0.20273677 -0.24147612 0.025536478
0.04865653 -0.17028183 0.14818417 0.17145243 -0.15291622 -0.17855741 -0.009307784 0.095972955
0.08029995 -0.11995429 0.118411034 -0.18647185 -0.138907 0.073005974 -0.086533 0.24797219
0.12069235 0.103467286 -0.051369675 -0.1559946 0.10835801 -0.24465555 0.10754402 0.14479983
0.24220641 0.0008321411 -0.17176667 0.22751707 0.053313646 -0.0317007 0.06387225 0.05687602
-0.22134003 0.08484289 0.24052383 -0.0018539072 0.011352437 -0.10963075 -0.08957998 -0.14758891
0.06675182 -0.010899668 0.10065546 0.13566993 -0.22168426 -0.18314502 -0.08313719 0.21452141
0.23789896 0.115949124 0.2447567 -0.11615926 0.11800367 0.10144183 -0.046295643 -0.1704728
0.02173395 0.18819535 -0.1485103 0.24106413 0.14538506 0.23745674 0.11269581 -0.11151856
0.038085595 -0.20511648 -0.05079594 0.1121907 -0.02127379 -0.15079138 -0.12018927 -0.06823587
0.07389987 -0.19972889 0.21778579 0.20694341 -0.043998774 -0.20658597 0.035019506 -0.14654934
-0.21952912 -0.07768634 -0.14238277 -0.20886263 0.16178581 0.20845723 0.024179429 0.055597752
0.12830114 -0.1166203 0.0859977 -0.027029216 -0.14252165 -0.047379166 -0.03719881 0.04353416
0.051667757 0.23203143 0.038516294 -0.0788978 -0.1883036 0.14860319 -0.18758342 0.18666528
-0.027335465 0.039967727 -0.08118123 -0.21382798 0.020071773 0.23465827 0.103886575 0.19821092
0.20154211 -0.002861619 0.16173199 -0.17839624 0.08237422 -0.2356151 -0.21380904 0.20188895
0.221499 0.14752463 -0.14095764 0.13615921 -0.17786753 0.19168934 0.14220071 0.051920682
0.11451082 -0.036687165 -0.089877754 -0.16141602 0.060669653 -0.12971923 0.14825031 -0.1787309
0.21164705 -0.22938035 0.094336525 -0.1235441 0.13277858 -0.004945606 -0.11988309 0.031314537
0.15087166 -0.12003484 -0.09101772 -0.018913597 -0.07762393 0.11023328 -0.19634649 0.1674532
0.12875605 -0.22749233 0.16275516 0.09399596 0.21294379 0.15160069 -0.0098674 -0.0050691366
0.08402591 0.22745797 0.14547855 0.18625027 -0.044860248 -0.23932216 -0.13508262 0.10725016
-0.036286503 0.1715524 0.029936982 -0.07592833 0.12604617 0.063069314 -0.14663911 0.029523302
-0.07366115 -0.10762292 -0.20037171 -0.19134891 -0.07398322 0.12069115 -0.18227732 -0.2217398
-0.18261966 0.09592277 -0.21884587 0.059066266 -0.060987264 -0.20187959 0.056435555 0.24449018
0.075733125 0.056272686 0.19425213 0.08680652 -0.1752313 -0.12101702 -0.17453201 0.01861176
-0.17232388 -0.13232593 -0.16316772 -0.14008276 -0.1505834 -0.24393165 -0.064388454 0.100062035
-0.06460739 -0.17229229 0.22907081 0.06632796 0.03185724 -0.057098683 -0.17820193 -0.2246491
-0.04524539 0.11123903 0.0009795241 0.083320394 0.16259699 0.16967353 -0.030149715 -0.1246221
-0.23540033 0.21122575 0.12931244 -0.027084647 -0.13235374 0.055072933 0.17881285 0.23793164
0.1970515 0.096238844 0.015825033 -0.09877139 0.112100065 -0.24121621 -0.1564562 0.16316305
00000000: 1e15 5fbe 90d1 ef3c fc17 423e 8082 3dbc
00000010: 847a b4bd 5c85 84bd cc7d c23d a8ab 92bd
00000020: 4cc8 d7bd 3469 ae3d 483d 513e c85f a63d
00000030: 1076 80bd 3a9a 4f3e 8445 77be e031 d13c
00000040: 124c 473d 5c5e 2ebe 97bd 173e 3a91 2f3e
00000050: 1296 1cbe c1d7 36be ad7f 18bc 788d c43d
00000060: 4d74 a43d 98aa f5bd 7c81 f23d 7af2 3ebe
00000070: a33d 0ebe 2884 953d 3738 b1bd 6cec 7d3e
00000080: 8d2d f73d a8e6 d33d 0269 52bd 0cbd 1fbe
00000090: ceea dd3d fc86 7abe 0a40 dc3d 6846 143e
000000a0: f504 783e 0b24 5a3a 9ae3 2fbe 3cfa 683e
000000b0: 695f 5a3d 98d8 01bd 74cf 823d d4f6 683d
000000c0: f6a6 62be 1cc2 ad3d e14b 763e cefe f2ba
000000d0: 92ff 393c 1686 e0bd b575 b7bd 8c21 17be
000000e0: 2eb5 883d 8594 32bc 7324 ce3d 0fed 0a3e
000000f0: 3301 63be 5e8a 3bbe d543 aabd 80ab 5b3e
00000100: c99b 733e bc76 ed3d 80a1 7a3e e8e4 edbd
00000110: e8ab f13d bcc0 cf3d 80a0 3dbd 6c90 2ebe
00000120: 660b b23c 48b6 403e 1613 18be 84d9 763e
00000130: d2df 143e dc27 733e 10cd e63d d863 e4bd
00000140: a4ff 1b3d 0e0a 52be 670f 50bd 3dc4 e53d
00000150: 5f46 aebc 0e69 1abe cb25 f6bd 3fbf 8bbd
00000160: d158 973d bb85 4cbe 3d03 5f3e f9e8 533e
00000170: 0f38 34bd 468b 53be 9d70 0f3d 0811 16be
00000180: 3ecc 60be 041a 9fbd cacc 11be 16e0 55be
00000190: 2eab 253e d075 553e f013 c63c 78ba 633d
000001a0: 6061 033e a0d6 eebd 901f b03d 606c ddbc
000001b0: 32f1 11be a810 42bd c85d 18bd e050 323d
000001c0: 92a1 533d a699 6d3e 43c3 1d3d 2b95 a1bd
000001d0: a9d2 40be 6f2b 183e de15 40be 2f25 3f3e
000001e0: a0ee dfbc 33b5 233d 5842 a6bd b9f5 5abe
000001f0: 8f6d a43c 424a 703e 7cc2 d43d cef7 4a3e
00000200: 0e61 4e3e 008a 3bbb 129d 253e 81ad 36be
00000210: d1b3 a83d 1645 71be c2f0 5abe fabb 4e3e
00000220: a2d0 623e b210 173e 3357 10be 526d 0b3e
00000230: e822 36be 364a 443e 109d 113e c8aa 543d
00000240: a684 ea3d 4845 16bd d411 b8bd 3e4a 25be
00000250: be80 783d 1ed5 04be eece 173e 3c05 37be
00000260: 01ba 583e afe2 6abe 8233 c13d b004 fdbd
00000270: 1cf7 073e c00e a2bb 4485 f5bd ac43 003d
00000280: 1a7e 1a3e d4d4 f5bd 8067 babd b0f0 9abc
00000290: 4cf9 9ebd fcc1 e13d 0e0f 49be da78 2b3e
000002a0: a0d8 033e c0f3 68be 4aa9 263e f480 c03d
000002b0: f00d 5a3e 363d 1b3e e0aa 21bc 001b a6bb
000002c0: c715 ac3d beea 683e 54f8 143e 64b8 3e3e
000002d0: 61bf 37bd de10 75be 1953 0abe f9a5 db3d
000002e0: 28a1 14bd 6fab 2f3e 673e f53c 5080 9bbd
000002f0: 3f12 013e 7c2a 813d 9028 16be dada f13c
00000300: a8db 96bd 6869 dcbd 3e2e 4dbe f8f0 43be
00000310: 8484 97bd ec2c f73d e8a6 3abe c20f 63be
00000320: a600 3bbe 2873 c43d 2219 60be 78ef 713d
00000330: c8cd 79bd 86b9 4ebe f828 673d a25b 7a3e
00000340: f819 9b3d 307e 663d 08ea 463e 9ec7 b13d
00000350: d56f 33be c5d7 f7bd 85b8 32be b177 983c
00000360: ac75 30be 7380 07be 7015 27be db71 0fbe
00000370: 8932 1abe 38c9 79be 18de 83bd 53ed cc3d
00000380: e150 84bd 646d 30be 8a91 6a3e f4d6 873d
00000390: bd7c 023d 4fe0 69bd 917a 36be 6a0a 66be
000003a0: 3b53 39bd 4ad1 e33d 6063 803a e2a3 aa3d
000003b0: d37f 263e e6be 2d3e 89fc f6bc df39 ffbd
000003c0: c90c 71be 904b 583e 7b6a 043e 9fe0 ddbc
000003d0: bd87 07be 2894 613d b71a 373e 5aa4 733e
000003e0: dec7 493e df18 c53d 80a3 813c a848 cabd
000003f0: b894 e53d 6201 77be 0e36 20be 3714 273e

decoder.fc3.bias f4 [84]
-0.2119348 0.24389203 0.19402641 0.18105063 -0.25390038 0.18180951 -0.024510711 -0.010789598
-0.05806907 -0.25079966 -0.23145482 0.21519753 -0.24102539 0.010727618 0.16550708 -0.0045901416
-0.028025478 0.20406264 -0.23539367 -0.17418417 -0.21040225 -0.14768702 0.06745068 -0.10562655
0.11494996 -0.0370256 0.19127452 0.0375527 0.010621629 0.17860681 0.15673085 0.071637325
0.13156544 -0.12863518 0.1849864 0.062340647 -0.09617722 -0.24263579 0.02550411 0.08255327
0.24472591 0.21237314 0.05455547 0.16019118 0.059138905 -0.057867646 -0.22235645 -0.13143384
-0.10630688 -0.06556091 0.15737224 -0.23430565 -0.09333864 -0.13620412 -0.12215528 -0.20277865
0.2719367 -0.13232383 -0.06917927 -0.1818261 -0.233865 -0.18243623 -0.13680944 0.14484844
-0.20947476 0.1138202 -0.23808865 -0.16353554 -0.061314136 0.25053468 0.1964332 0.039918926
-0.0033530823 -0.17854205 -0.06199169 0.23457313 0.23437889 -0.1908496 -0.027459502 -0.11931022
0.2365479 0.12979074 0.18685023 0.16013807
00000000: 7005 59be d5be 793e dcae 463e 5665 393e
00000010: 3bff 81be 462c 3a3e b0ca c8bc dbc6 30bc
00000020: d5d9 6dbd d068 80be 7e02 6dbe be5c 5c3e
00000030: 5ccf 76be e4c2 2f3c b07a 293e e668 96bb
00000040: b095 e5bc ccf5 503e 0a0b 71be 565d 32be
00000050: b073 57be 443b 17be 9523 8a3d bc52 d8bd
00000060: e26a eb3d 28a8 17bd 78dd 433e dcd0 193d
00000070: 5706 2e3c b4e4 363e 0d7e 203e 97b6 923d
00000080: 17b9 063e f1b8 03be 136d 3d3e e858 7f3d
00000090: 90f8 c4bd 8475 78be ffed d03c b011 a93d
000000a0: 6e99 7a3e 5878 593e 8e75 5f3d 2809 243e
000000b0: a33b 723d a006 6dbd 69b1 63be 9896 06be
000000c0: 6cb7 d9bd cc44 86bd 3026 213e d2ed 6fbe
000000d0: 5428 bfbd 1879 0bbe 8c2c fabd 35a5 4fbe
000000e0: 4a3b 8b3e e67f 07be dcad 8dbd 9f30 3abe
000000f0: 4e7a 6fbe 90d0 3abe c617 0cbe 2653 143e
00000100: 8d80 56be 911a e93d 83cd 73be dc75 27be
00000110: 8824 7bbd 1546 803e c925 493e 0782 233d
00000120: 63bf 5bbb bad3 36be 00eb 7dbd f033 703e
00000130: 0501 703e 146e 43be c0f2 e0bc eb58 f4bd
00000140: 9d39 723e dde7 043e ab55 3f3e 3cfb 233e

decoder.fc2.weight f4 [120, 84]
-0.021021929 -0.05505041 -0.0062444215 0.10165813 -0.10593085 0.10432999 -0.009154811 0.10364939
0.022020591 -0.0008706102 0.044186987 0.05800735 0.043086663 -0.011416328 -0.09220084 -0.0038681834
0.08630181 -0.091455325 -0.005363419 -0.089976765 -0.0026755377 0.04172173 0.00045953025 -0.022533696
-0.01569571 -0.09776367 0.04500185 0.0051749116 -0.10573243 -0.082984075 -0.027319677 0.08195587
0.018099274 0.08237602 -0.08930735 -0.02824476 -0.08445227 -0.048283517 0.06674373 -0.05073175
-0.08932251 0.05188669 0.044602633 -0.050837275 -0.006968211 -0.03044386 -0.07923137 -0.07243863
0.053851496 -0.10376024 -0.08019288 0.092613995 -0.06590444 -0.10272676 0.07044829 0.019498195
0.048694793 0.04638925 0.02419447 -0.080604725 0.059032805 -0.093191184 0.021296334 -0.07927157
0.090338044 -0.022023087 0.03004273 -0.0639766 -0.106537715 -0.0862695 -0.06246945 -0.100509554
-0.058501296 -0.034502786 0.09981269 0.106234655 -0.09935696 0.015453639 0.05939083 -0.10832424
-0.0729094 -0.0653318 0.03948654 -0.024337556 -0.020498106 0.039509837 -0.017003959 -0.074127674
-0.10253595 0.045037165 0.06549948 -0.08961247 -0.03826009 -0.019524612 0.08042132 0.032576296
0.06020135 0.0061228583 -0.056854624 0.064315625 0.10383914 0.014360338 0.037898432 0.05382354
-0.10157214 -0.024866208 -0.010964698 -0.07446153 -0.06729063 -0.10699805 -0.008379364 0.024679596
0.02290569 -0.059380855 0.014989422 -0.054085977 0.097883396 -0.09827363 -0.016022047 0.02546838
-0.03833143 -0.064046435 -0.035177976 -0.03203891 -0.09374791 0.08203889 0.05209731 0.010798195
-0.007207226 -0.03649145 0.08822779 -0.02186239 0.088401444 -0.04780994 -0.054283276 0.104883984
-0.092504166 -0.04698168 0.08235375 0.065857574 0.088647 -0.008517828 0.02339173 0.08533943
-0.10710729 -0.03300651 -0.10803707 -0.046810627 -0.09941917 0.011705455 0.098463595 0.07189098
0.08899049 0.016309446 -0.07002382 0.07965025 0.008388592 -0.048745845 -0.03229417 0.04228115
-0.026324248 0.06921933 0.05214287 0.023266837 -0.07235266 -0.08913028 -0.050208103 0.08432274
-0.0841298 -0.019886136 -0.000906561 -0.09571132 -0.032772675 0.056692325 0.09833556 -0.025383785
0.086563066 -0.0620883 -0.016179757 0.06310064 -0.01935611 0.005509173 -0.10783622 -0.096243665
-0.056176044 -0.05682368 0.07468258 0.057281844 -0.04486372 0.0033049628 -0.09822571 0.0017525232
0.09804359 -0.1057808 0.009264886 0.02236955 0.07238946 0.04011006 -0.013664684 -0.045990914
-0.0226775 -0.023584384 -0.051890798 -0.0059532383 0.07534513 -0.04865152 0.09366444 0.10456152
-0.06974976 0.045846667 -0.09223039 0.048428025 -0.0927016 0.055928435 -0.0767252 0.07191205
0.01354108 -0.08694831 -0.069942765 0.065271035 0.097750135 -0.057310343 0.021724321 -0.054302208
0.10884361 -0.05233477 -0.012247255 -0.09793161 -0.024648666 0.083752565 0.058785845 0.10376054
0.0749426 -0.09538941 -0.049343534 0.016793067 -0.07403875 -0.10104717 -0.064018495 -0.044089995
-0.03217786 -0.026573595 -0.003894171 -0.023097904 0.09769016 0.037934866 -0.106177315 0.09090287
-0.073272154 -0.051095758 0.06917972 0.048484538 0.028257234 0.0028303447 -0.08691313 -0.1028818
00000000: 2e36 acbc 8a7c 61bd 019e ccbb 2332 d03d
00000010: 46f2 d8bd f6aa d53d 0ffe 15bc 2246 d43d
00000020: 8764 b43c a939 64ba 6afd 343d 1d99 6d3d
00000030: a47b 303d 8d0b 3bbc cbd3 bcbd 5981 7dbb
00000040: 01bf b03d ee4c bbbd 9fbf afbb bd45 b8bd
00000050: 1358 2fbb 68e4 2a3d 1bed f039 9698 b8bc
00000060: 4a94 80bc 5238 c8bd dc53 383d 4e92 a93b
00000070: 3f8a d8bd 8ef3 a9bd 84cd dfbc 7bd8 a73d
00000080: ee44 943c c2b4 a83d c6e6 b6bd 8e61 e7bc
00000090: 50f5 acbd f0c4 45bd f0b0 883d 18cc 4fbd
000000a0: b8ee b6bd 2387 543d 40b1 363d bf3a 50bd
000000b0: 9755 e4bb 6765 f9bc 0e44 a2bd b45a 94bd
000000c0: 6393 5c3d 4080 d4bd 2a3c a4bd 68ac bd3d
000000d0: e8f8 86bd 6862 d2bd 3147 903d aeba 9f3c
000000e0: 3174 473d a702 3e3d 7b33 c63c 1714 a5bd
000000f0: 62cc 713d 05db bebd a675 ae3c 2259 a2bd
00000100: 2703 b93d c369 b4bc 2c1c f63c 2a06 83bd
00000110: 7230 dabd 10ae b0bd f7df 7fbd f4d7 cdbd
00000120: 0e9f 6fbd cb52 0dbd 986a cc3d 8e91 d93d
00000130: a97b cbbd 4331 7d3c cd43 733d 19d9 ddbd
00000140: 8651 95bd aecc 85bd a3bc 213d 8e5f c7bc
00000150: a5eb a7bc 11d5 213d e34b 8bbc 40d0 97bd
00000160: 5efe d1bd e478 383d 9724 863d be86 b7bd
00000170: 9db6 1cbd 14f2 9fbc efb3 a43d b96e 053d
00000180: b195 763d 42a2 c83b 65e0 68bd e9b7 833d
00000190: 9da9 d43d a047 6b3c 633b 1b3d 1376 5c3d
000001a0: 0e05 d0bd 38b4 cbbc 47a5 33bc 497f 98bd
000001b0: abcf 89bd cb21 dbbd 9a49 09bc dd2c ca3c
000001c0: b7a4 bb3c 5739 73bd 3196 753c 4289 5dbd
000001d0: 1777 c83d af43 c9bd ab40 83bc 10a3 d03c
000001e0: 6b01 1dbd c72a 83bd c816 10bd 3b3b 03bd
000001f0: e7fe bfbd 0104 a83d fd63 553d eaea 303c
00000200: 982a ecbb 0f78 15bd c6b0 b43d c118 b3bc
00000210: d10b b53d 5bd4 43bd 2458 5ebd 6acd d63d
00000220: d372 bdbd dd6f 40bd 15a9 a83d 56e0 863d
00000230: 8f8c b53d 5c8e 0bbc 03a0 bf3c 70c6 ae3d
00000240: 115b dbbd d631 07bd 8a42 ddbd 80bc 3fbd
00000250: 479c cbbd 3dc8 3f3c 48a7 c93d 943b 933d
00000260: a540 b63d 639b 853c a668 8fbd ac1f a33d
00000270: 4e70 093c b9a9 47bd e446 04bd 002f 2d3d
00000280: f3a5 d7bc ddc2 8d3d c393 553d 189a be3c
00000290: a22d 94bd f089 b6bd 03a7 4dbd 67b1 ac3d
000002a0: 3f4c acbd 40e8 a2bc 47a6 6dba 4c04 c4bd
000002b0: a43c 06bd 3636 683d 2764 c93d a8f1 cfbc
000002c0: fa47 b13d 4d50 7ebd 698b 84bc e93a 813d
000002d0: b490 9ebc 4b86 b43b 3cd9 dcbd 661b c5bd
000002e0: da18 66bd f2bf 68bd 2ef3 983d 5ea0 6a3d
000002f0: 05c3 37bd 1398 583b 902a c9bd ecb4 e53a
00000300: 14cb c83d 9ba3 d8bd c0cb 173c 5940 b73c
00000310: ed40 943d 724a 243d d7e1 5fbc f860 3cbd
00000320: 2ac6 b9bc 0a34 c1bc 728b 54bd 6213 c3bb
00000330: 8c4e 9a3d d146 47bd 24d3 bf3d 5a24 d63d
00000340: f6d8 8ebd b7c9 3b3d 49e3 bcbd 775c 463d
00000350: 56da bdbd 3715 653d 1a22 9dbd a046 933d
00000360: 68db 5d3c f511 b2bd 273e 8fbd d2ac 853d
00000370: 3931 c83d 40be 6abd 34f7 b13c fe6b 5ebd
00000380: 66e9 de3d fc5c 56bd b6a8 48bc 5e90 c8bd
00000390: 00ec c9bc 7786 ab3d 6dc9 703d 6880 d43d
000003a0: 827b 993d 865b c3bd 721c 4abd 9d91 893c
000003b0: a1a1 97bd d2f1 cebd 211c 83bd b697 34bd
000003c0: efcc 03bd deb0 d9bc 5935 7fbb d137 bdbc
000003d0: c711 c83d 9761 1b3d 7e73 d9bd 492b ba3d
000003e0: b60f 96bd c949 51bd 19ae 8d3d b997 463d
000003f0: b77b e73c 4e7d 393b 83ff b1bd b1b3 d2bd
