tutorials/W1D2_ComparingTasks/RR/models/ConvNet_autoencoder_1000_epoch_2.pth (torch, 506482 bytes, 19 tensors)

encoder.conv1.weight f4 [6, 1, 5, 5]
000000 c5 e0 21 3e 5c db 11 be 98 99 17 be d4 71 50 3e
       0.15808399 -0.14243835 -0.14804685 0.20355922
000010 3a 67 e6 3c 7d bf b6 bc 59 12 77 3c 49 ea 8c bd
       0.028125394 -0.022308106 0.015080058 -0.06880624
000020 55 9c 0d 3e 9a e5 54 bd ee df 56 3d 39 84 10 bd
       0.13829167 -0.051976778 0.05245965 -0.035282347
000030 f7 1c c4 3d 7a ea 80 3a 6a 3e ad 3d 98 7f 37 3e
       0.09575837 0.0009835504 0.0845917 0.17919767
000040 7d 43 24 be 51 31 f8 bc 3d b3 fc bc 81 25 b9 bb
       -0.1604137 -0.030296953 -0.030847186 -0.0056502228
000050 5b 42 28 be d2 45 7c 3d 9b 13 d5 bd 71 09 23 be
       -0.16431563 0.061590023 -0.1040413 -0.1592157
000060 17 c1 27 be 5a c2 5f 3e 96 83 bb 3d 94 93 3b 3d
       -0.16382252 0.21851483 0.091559574 0.04579504
000070 29 9f ab bc 05 0f 3e be 62 98 d1 bd eb a1 86 3c
       -0.020949917 -0.18560417 -0.10234143 0.01643463
000080 07 d3 99 bd 79 1a 01 be 1f 8d 7d bd 0a ec 08 be
       -0.075109534 -0.12607755 -0.06190216 -0.13371292
000090 4f 3d 47 3e 2e 22 41 3e 08 d1 17 be fe 4b af 3d
       0.19456981 0.18860695 -0.14825833 0.08559416
0000a0 df 03 0f 3e ee 9e 12 be 13 9d 43 3e b9 76 87 3d
       0.1396632 -0.1431844 0.19102888 0.066144414
0000b0 97 57 29 3d da a3 64 3e b0 fa 27 bd 08 c3 27 bd
       0.041343298 0.2232813 -0.04101056 -0.04095748
0000c0 d3 84 01 be 59 1f 89 bc f1 51 a6 ba e9 39 f7 bd
       -0.12648325 -0.01673858 -0.0012689215 -0.12071592
0000d0 fd e6 54 3e 33 20 13 3e 07 b0 10 be 77 57 e7 bd
       0.2079124 0.14367752 -0.14129649 -0.112959795
0000e0 ab 1d 78 bd 72 de 8d bd 6a c5 fd 3d 8f 4e 32 3d
       -0.06057517 -0.06927194 0.12391169 0.04353195
0000f0 91 0e 67 3e c8 0c 3c 3e ee 9d d1 bd d8 a6 39 3e
       0.2256415 0.1836425 -0.10235201 0.18130052
000100 7d a1 28 3e 91 dc 44 bd 3d 93 3d bd 53 98 23 3d
       0.16467853 -0.04806191 -0.046282995 0.03994019
000110 ea 3a 09 be 07 01 fc bd d2 4d eb bd 37 33 1b bd
       -0.1340138 -0.123048835 -0.114894524 -0.03789064
000120 42 ed 89 bd 8b 0b 27 be e3 2b 30 be b2 59 e6 3d
       -0.067347065 -0.16312997 -0.17204241 0.11247577
000130 aa f5 a3 3c 8c c4 c8 3c 72 41 b8 3d f6 7a ac bd
       0.020014603 0.024507783 0.08996858 -0.084218904
000140 fb 98 2f bd e4 ce 49 3e 29 7e 7d 3d 2d 32 1f 3d
       -0.042870503 0.19707829 0.061887894 0.03886621
000150 e7 a6 2c 3e 1d f9 7d bc ad f1 79 bd 24 46 0b be
       0.16860543 -0.015501288 -0.061021496 -0.13600975
000160 9c 27 17 be 67 89 32 be 3a bc e5 3b 25 d3 a8 bd
       -0.14761204 -0.17435227 0.0070109637 -0.082433976
000170 02 45 4a 3e 1f 74 ab 3c 46 10 91 bd 91 f6 59 3e
       0.19752887 0.020929394 -0.07083182 0.21285464
000180 d9 5e 5c bd d7 42 96 bd 2e f4 4f 3e df 82 ba 3b
       -0.05380139 -0.073369674 0.20307991 0.0056918706
000190 7d ed 19 bd ca a4 2c 3e fa 99 a5 3b a7 a9 7b 3d
       -0.037580002 0.16859737 0.005053756 0.06144109
0001a0 93 5e 5d 3e 6a c3 8e 3d 3a ab 3e 3c 44 d5 db bd
       0.21618108 0.06970866 0.011637503 -0.107340366
0001b0 d1 3f df 3c ff c6 14 be f7 85 2c be 59 2a 64 3e
       0.02725211 -0.14529036 -0.16847979 0.2228178
0001c0 59 ad 29 3e bb fa ed bd 99 48 58 3e fe b0 c5 3d
       0.16570033 -0.11620089 0.21121444 0.09652899
0001d0 de 19 17 bd de 5e bb bd bc a1 8a bd 8e e6 f8 3d
       -0.036889903 -0.09148954 -0.0676913 0.1215335
0001e0 f0 aa 1d 3e c5 d9 85 bd e4 fb d8 bb 98 1f 50 3e
       0.15397239 -0.06535677 -0.0066218246 0.20324552
0001f0 ba 6a 20 3d b7 1c b1 bd 0a eb f5 bd fd f9 15 3e
       0.039164282 -0.08648055 -0.12007721 0.14646144
000200 21 1d b2 bd 51 b9 e8 3c 0e 24 30 be 99 41 09 be
       -0.08696962 0.028408678 -0.17201254 -0.1340393
000210 78 8b c8 3d ae 1a fe bc 8b 6c 52 3d 1a 78 14 3e
       0.097922266 -0.031018581 0.051373046 0.1449894
000220 e6 cf 32 3e 16 e6 00 3d d5 a7 34 be 1d ac bd 3d
       0.1746212 0.031469427 -0.17642148 0.09261344
000230 77 d2 9c bd 2e 80 b1 bd 96 f5 43 be 0c 60 2e 3e
       -0.076573305 -0.086670265 -0.19136652 0.17028826
000240 48 4d 1e 3d 70 a2 51 bd 5d 39 95 bc 93 06 13 bc
       0.03864792 -0.051180303 -0.01821583 -0.008973735
000250 32 7b 0f be 71 68 19 be
       -0.14011839 -0.14981247

encoder.conv1.bias f4 [6]
000000 46 4a d0 bd 54 24 14 3e a9 a2 fe bd 86 96 b9 bc
       -0.101704165 0.14466983 -0.12433369 -0.022654783
000010 ca 86 09 be 4f d3 ba bc
       -0.13430324 -0.022805838

encoder.conv2.weight f4 [16, 6, 5, 5]
000000 ee f3 7f bd 23 02 0a bc f5 23 8d 3d 8d 1d 57 bc
       -0.06248849 -0.008423361 0.06891624 -0.013129604
000010 67 09 41 bd 5a 42 2b 3d 1d a4 29 bd 7c dc 42 3c
       -0.047128107 0.041811325 -0.041416276 0.011893388
000020 0f 3c 69 bb cd ab 3d bd 82 77 41 bd f1 ee 87 bd
       -0.0035588776 -0.04630642 -0.047233112 -0.06637371
000030 38 2e 32 3d 16 90 02 bd 02 9c 83 3c 83 48 8a bd
       0.04350111 -0.031875692 0.016065601 -0.06752112
000040 c5 7b 89 bc 8c 7d 10 3d dc 7d ac 3d 69 e2 96 bd
       -0.01678265 0.03527598 0.08422443 -0.07367403
000050 98 45 44 3d c9 74 95 3d 52 76 fd b9 1b 34 8c 3d
       0.047917932 0.072976656 -0.00048344076 0.06845876
000060 8a a5 24 3d 5c 4a 42 bd d1 76 6c bd ec 8f 25 bd
       0.040196933 -0.047434196 -0.0577305 -0.040420458
000070 6e f7 0a bd 8d 80 53 3d 6b 3e 3a 3d d3 8d 61 bd
       -0.033927374 0.051636267 0.045469683 -0.055066895
000080 66 a5 1e 3c 99 fb 80 3c 15 80 04 3d a4 dc a8 3c
       0.009682989 0.015744971 0.03234871 0.020613022
000090 fd 43 d9 3c b2 fb 59 bd 64 82 40 bd 97 31 9d 3d
       0.026521677 -0.05321855 -0.04699935 0.07675474
0000a0 25 21 1a 3d ad 2f 74 bb 76 92 83 3c 40 84 87 3d
       0.037629265 -0.0037259862 0.016061049 0.066170216
0000b0 1f 78 61 bd 10 0f c0 bc 66 38 e0 3c 69 bb 95 3d
       -0.055046197 -0.023444682 0.027370643 0.07311136
0000c0 b9 82 a0 3b e2 97 69 bd df 13 a9 3d 2c ce 33 3c
       0.004898396 -0.057029612 0.08255743 0.010974448
0000d0 e1 31 ad 3c 1d a5 91 bd 9d ee 42 bd ff 95 bf bc
       0.021141948 -0.07111571 -0.04759084 -0.023386953
0000e0 95 64 18 3d 72 64 7c bd 1a 22 79 3d 47 14 c3 bc
       0.037205297 -0.06161923 0.060823537 -0.02381338
0000f0 0b bb d0 3c 41 18 78 3d de b8 9b 3d e7 32 86 bd
       0.025479814 0.060570005 0.0760362 -0.065526776
000100 7b dc 36 bc 75 df 4d bc a5 60 8d bd d5 99 c2 3c
       -0.011160965 -0.012565483 -0.06903199 0.023754993
000110 82 21 34 bd 0a bd 13 3d 33 7b ac bc bc 6b 90 3d
       -0.043977268 0.036068954 -0.02105484 0.07051799
000120 64 8d 9d bc 8b 5e 19 3d ea 20 b3 3d bc a2 10 bd
       -0.01923246 0.03744368 0.08746512 -0.035311446
000130 f9 08 a2 3d 4b e7 22 bc df dd 23 bc 51 fc 91 bc
       0.07911868 -0.00994284 -0.010001629 -0.01782051
000140 cc 27 79 bd 08 8a d7 3a 55 9d 3e 3d 5b 45 38 bb
       -0.06082897 0.0016444335 0.046536762 -0.002811751
000150 d1 96 55 3d 23 f4 f0 bc c2 7c 1c 3d d4 ee 58 bd
       0.052145783 -0.029413288 0.038204916 -0.05296214
000160 d5 aa 0e 3d ab 80 ad 3d 20 f0 83 3d 80 fb 8d 3d
       0.034830887 0.08471807 0.064422846 0.069327354
000170 6e d6 4e 3d 6f 44 91 3d 40 7b 46 3d 20 0d 29 bc
       0.050497465 0.07093131 0.048457384 -0.010318071
000180 33 a9 aa bc c4 1c 83 bd 35 7c b4 bb 21 b6 33 3d
       -0.020832634 -0.06401971 -0.0055079707 0.043874864
000190 ee 84 3b 3c c2 58 a0 3d cc be 0c bd b4 eb e2 3d
       0.011445267 0.07829429 -0.034361646 0.11080113
0001a0 e1 73 d7 3d 9b 03 d6 bc ba c2 c0 bc 20 d0 dd 3d
       0.10520149 -0.026124766 -0.023530353 0.10830712
0001b0 7d d8 6e 3d 80 89 ce 3d 71 8d 90 3d 5c b8 c4 3d
       0.058311928 0.1008482 0.07058228 0.09605476
0001c0 01 73 c9 bc 42 cb 21 bd 3f e6 f8 3a b4 f0 fc bc
       -0.024590971 -0.039500482 0.0018989517 -0.030876495
0001d0 7f 61 0d bd c9 d6 00 bd 63 ef 14 bb 28 c3 9c 3d
       -0.034516808 -0.031454835 -0.0022725693 0.076544106
0001e0 75 e2 92 bb d8 1e c0 3d 75 4e 6b 3d 0b 05 0d 3d
       -0.004482562 0.09380883 0.05744787 0.034428637
0001f0 c3 f5 b0 bc 98 8b 54 3b aa 84 2e bd 13 8c ba bc
       -0.021601563 0.0032431837 -0.042606987 -0.02277187
000200 df 81 3b bd 7d d3 3a 3d 69 71 8a bd f1 19 50 3d
       -0.04577815 0.045611847 -0.067599125 0.05080599
000210 f4 c1 11 bc e7 18 eb bc 31 20 34 3d 74 63 93 3d
       -0.00889634 -0.028698398 0.043976013 0.071967036
000220 77 04 4a bd 02 83 48 bd 0c d0 52 3d 2e 98 99 3d
       -0.049320664 -0.048953064 0.05146794 0.07499729
000230 2e 28 16 3b fc 49 92 bd 3a cf 8e 3a a8 59 30 bd
       0.0022912133 -0.07143018 0.0010895499 -0.043054253
000240 8d 70 75 3c 61 4a 29 3b 78 ee 01 3d d3 63 82 bd
       0.0149804475 0.0025831687 0.031721562 -0.06366696
000250 34 71 15 39 eb 31 ca 3c eb 92 75 bd 2d cb 9c bd
       0.00014251919 0.024682006 -0.059954565 -0.0765594
000260 0c 2f 17 bc 3e 8b 8d bc a9 2d 3d bd 2f be 8f 3d
       -0.009227525 -0.01727831 -0.046186123 0.070186965
000270 e5 8d b5 bc 7f c9 2b 3d a0 d3 33 3c 08 43 23 3d
       -0.022162387 0.04194021 0.010975748 0.039858848
000280 10 bd b7 3c ef 74 77 3c 50 bf 92 bc a7 bd a4 3d
       0.02242902 0.015103563 -0.01791349 0.08043986
000290 f7 c8 58 bc c5 47 fb 3b 34 ec 54 3d 41 9a 8c 3d
       -0.0132315075 0.0076684677 0.051983073 0.06865359
0002a0 8b 49 86 3d cf c0 41 3d 36 a8 80 bd eb b9 66 3d
       0.06556996 0.047303017 -0.06282084 0.05632965
0002b0 c1 f3 2e 3b 70 7c cc b9 78 6d 99 bd f6 f6 54 3d
       0.0026695582 -0.00039002625 -0.07491583 0.051993333
0002c0 1c 27 85 3d 28 d3 9a 3d 41 ca 11 bc 46 0d 9d bc
       0.065016 0.07559806 -0.008898319 -0.019171368
0002d0 79 c5 44 3d 7c ad c0 3c 9a f3 33 bc db 95 74 3d
       0.048039887 0.023520224 -0.010983372 0.059713226
0002e0 3d 40 19 3d 6d 5b 99 bd b4 76 c3 3c 5c c9 8e 3d
       0.037414778 -0.07488141 0.023860313 0.06972
0002f0 6f eb af bc ba b4 29 3d b4 f5 26 bd be 61 1d bd
       -0.021474568 0.04143212 -0.040761665 -0.038423292
000300 b7 48 3e bd 38 71 ae 3d d6 fa f0 3c 66 47 94 bd
       -0.046456065 0.085176885 0.029416483 -0.07240181
000310 6e 92 39 3d 94 c5 ad 3d 1e 9b 58 bd ef 53 d2 bc
       0.04530566 0.08484951 -0.052882306 -0.025674788
000320 ba ba 0c bd 0c 37 8f bd d5 e0 99 3d 3f 3b 2e 3d
       -0.034357764 -0.06992921 0.075135864 0.04253697
000330 5d 3e 4a 3d a6 37 a0 3d 3c 3d 80 3c 12 3b dc bc
       0.04937588 0.07823114 0.015654199 -0.026883636
000340 2d c4 3b 3b ca 49 81 3d c3 b3 a2 3d 28 c4 61 bc
       0.0028650865 0.06312902 0.07944443 -0.013779677
000350 a4 d7 3c 3d a7 8c 86 bb 77 2e 9e 3d 32 cc b7 3d
       0.04610409 -0.0041061225 0.07723706 0.08974494
000360 67 ea a5 3d 1d 87 68 bc 60 fe 21 bc ff b1 39 3d
       0.08101349 -0.01419237 -0.009887308 0.045335766
000370 da 8a 01 3d 80 df 7e bd 5a d4 5d 3d 5f 55 4c 3d
       0.03162656 -0.062224865 0.054157592 0.049886104
000380 05 12 78 3c 93 83 a5 3d 2d 7e 02 3d 65 85 e8 ba
       0.015141015 0.080817364 0.03185861 -0.001773995
000390 25 96 1d 3c bd 8c 6b bd 30 1b 75 bd 36 c5 17 3c
       0.009618317 -0.057507265 -0.05984038 0.009263327
0003a0 76 bf bc bc 70 67 5d bd f6 2a 6f 3c 5e 16 50 bd
       -0.023040514 -0.054053724 0.014597645 -0.05080258
0003b0 da c0 d1 bb 5e d9 4c 3d d7 5a 44 3d 98 8e 46 3d
       -0.0064011635 0.050011985 0.047938194 0.04847583
0003c0 2a f7 37 bd 7f 06 35 bd ea bb 48 bc 70 85 c2 3a
       -0.04491345 -0.04419565 -0.012251833 0.0014840793
0003d0 01 14 1c 3d 2d be 21 bd b1 54 27 bd 14 37 3f 3c
       0.038105015 -0.039488006 -0.040852252 0.0116708465
0003e0 e4 d6 3d 3d fb 44 91 bd b1 fa 18 3d d2 ca 60 bd
       0.046347514 -0.07093235 0.037348453 -0.054880925
0003f0 7d a8 f0 bb 61 ff 1f 3d dd cd 0f bb 78 a5 2e bd
       -0.007344304 0.039061908 -0.0021942772 -0.042638272

encoder.conv2.bias f4 [16]
000000 20 02 95 3d b0 01 20 bd f5 70 2d bd 6e 49 9c 3d
       0.07275796 -0.03906411 -0.042344052 0.07631193
000010 08 60 8f bd 28 e2 11 3d 19 17 a7 3d 14 13 6c 3d
       -0.070007384 0.03561607 0.081587024 0.05763538
000020 2f 1f fc 3c 6e 4e ef bb 94 13 77 bc 17 df 1e 3d
       0.030776588 -0.0073030507 -0.015080351 0.038786974
000030 d9 6b 2d bc 1f 3c 09 bd 66 f7 41 bc 6e 3e b3 3b
       -0.010584795 -0.0335046 -0.01183877 0.0054700887

encoder.fc1.weight f4 [120, 400]
000000 be ab 52 ba 05 3b c2 bc 6f 49 63 3b 74 a3 43 bd
       -0.0008036456 -0.023709783 0.003468122 -0.047763303
000010 a6 4e c6 3c e8 61 29 bd 14 b4 4d bb b8 ca ba bc
       0.024207424 -0.041353136 -0.0031387853 -0.022801742
000020 e2 32 98 bb 5c 86 fd 3c c0 5e 92 bc fd cb 8e 3c
       -0.0046447376 0.030947857 -0.017867446 0.017431254
000030 33 0b 2b bd cf a1 d1 3c 84 17 5a bd 3c 2c 40 bd
       -0.041758727 0.025589852 -0.053245082 -0.046917185
000040 59 d9 f8 bc af 57 1a bd dd c7 ff 3b a7 f5 f3 3a
       -0.030377077 -0.037681278 0.007805808 0.0018612639
000050 6b 44 4f bd 01 0b 18 bd 90 9b d8 3c f9 94 ae bb
       -0.050602358 -0.03711987 0.026441365 -0.0053278175
000060 17 59 83 3c 76 b1 0f 3c 83 8e d4 3c d2 c1 d0 bc
       0.016033692 0.008770337 0.025946861 -0.025483046
000070 2a b0 b2 3c c7 f2 1e 3d 00 74 6a 3c ce a6 bb 3c
       0.021812517 0.03880575 0.014309883 0.022906687
000080 ef 85 1c bc 21 b4 39 3d da 06 79 3c 15 7f 9e 3c
       -0.009553417 0.0453378 0.015199387 0.019347707
000090 5f a2 28 3d 5f 11 c5 3c 77 df ac 3c ba 4d 51 3a
       0.041170474 0.024056135 0.02110265 0.00079842994
0000a0 66 e2 1e bd 22 20 9b 3b ba a7 29 3d 4b fc 27 3d
       -0.03879013 0.004734055 0.041419722 0.04101209
0000b0 e1 9e 25 ba f9 03 67 3b 08 e3 52 3c 4b 9b 0a bd
       -0.0006317925 0.003525017 0.012871511 -0.033839505
0000c0 59 43 e8 38 2e 53 77 3c c9 90 1f 3d 6b d7 0b 3c
       0.000110751665 0.015095515 0.038956437 0.008535246
0000d0 48 6b c1 bc 92 ff ca bc ee 16 38 bd c9 75 98 bc
       -0.023610726 -0.024780069 -0.044943742 -0.018610852
0000e0 40 43 34 bd 80 a8 21 3d 57 4f d4 bb c5 7d 92 3b
       -0.044009447 0.039467335 -0.0064791846 0.0044705593
0000f0 9c 54 ba bb 8e 93 3c 3d a6 d0 2d bd 02 6c b0 3c
       -0.0056863558 0.046039157 -0.04243531 0.021535877
000100 74 47 26 3d 83 af db bc 41 b3 d2 3c fe 51 29 bd
       0.040595487 -0.026817089 0.02572024 -0.04133796
000110 77 ed f0 3c ef 16 09 3d da 82 36 bd 66 82 36 bd
       0.029410107 0.033469137 -0.044558384 -0.04455795
000120 46 70 e3 3c 37 7d 3a bd eb 44 a1 bc d1 01 0d 3d
       0.027763497 -0.04552957 -0.019686183 0.03442556
000130 60 5c 18 3d 5f 70 3e bd bb 02 9f 3b 60 77 b2 3b
       0.03719747 -0.046493884 0.0048526204 0.0054463595
000140 25 da 41 bd 21 89 9c bc ff 67 d1 bc c3 f5 11 3c
       -0.04732718 -0.019108357 -0.025562285 0.008908692
000150 82 10 57 bd 6f dd 41 3d 66 24 17 bd 23 4f 1b 3d
       -0.052505977 0.047330316 -0.036899947 0.037917268
000160 1e 1e 1f bd d6 91 2b 3d 2c 98 ab bc 34 5e 23 bd
       -0.03884708 0.041887127 -0.020946585 -0.03988476
000170 d9 c3 2c 3c 02 86 42 bd 36 dd 2a 3d dc 1f af 3b
       0.010544741 -0.04749108 0.04171487 0.005344374
000180 43 57 00 3d 88 5d 62 39 a3 9f 50 bd df 62 eb ba
       0.03133322 0.00021587883 -0.05093349 -0.0017958543
000190 03 f9 c5 3c 8b b5 af 3c 9d d4 57 3c 61 b0 9c 3c
       0.02416659 0.021448871 0.01317325 0.019127073
0001a0 f2 c3 4a 3d 1a 3e 42 bb 27 fc 3a 3d 19 71 aa bc
       0.049503274 -0.0029639066 0.045650627 -0.020805882
0001b0 42 8d 3e 3d f7 6f 14 bd 68 20 12 3d 1d 8d ac 3c
       0.046521433 -0.03623959 0.035675436 0.021063382
0001c0 92 9e c8 bc 4d 3d a7 3b e7 07 7b bb d3 15 da bc
       -0.024489675 0.005103743 -0.003830427 -0.026621735
0001d0 b3 5a b3 bb de f0 ce 3c 89 62 15 3c bd 37 0b 3d
       -0.0054734587 0.025261339 0.009117731 0.033988703
0001e0 73 b6 fc 3c 63 51 49 bd 5e 8b 29 3b 80 61 bf bb
       0.030848717 -0.049149882 0.0025870423 -0.0058404803
0001f0 ca c1 99 bc c6 7a 43 3d c2 df 8a 3b d4 d9 1b bc
       -0.018769164 0.047724508 0.0042381 -0.0095123835
000200 5b ea 06 bd b9 6a b0 3c a9 fd fc bc 38 20 04 3d
       -0.032938343 0.021535264 -0.030882673 0.03225729
000210 59 ee 3e 3c 98 57 31 bd 2d c1 8d 3c 53 66 ab bc
       0.011653506 -0.043296427 0.017304027 -0.020922815
000220 3e bf c3 bc 76 8f 60 bc 10 52 3a bd 53 b2 bf bc
       -0.023894902 -0.013706079 -0.045488417 -0.023400461
000230 c3 be be ba 77 d5 1e 3d 68 ed 16 3c 41 ba 8f bc
       -0.0014552701 0.038777795 0.0092118755 -0.017544867
000240 5a 55 49 3d 24 9d 1a 3d 1a fc 46 bc cf bb ce 3c
       0.049153663 0.037747517 -0.012145067 0.025236038
000250 71 13 31 3d 53 34 91 bc cc 57 f0 3c 87 06 d0 3b
       0.04323143 -0.017725145 0.02933874 0.0063484344
000260 2b 6f 1f bc da 21 29 3c d8 c1 29 3c d6 41 35 3b
       -0.009731094 0.010323012 0.010361157 0.002765765
000270 c9 0e b4 3c f2 7b e5 3c 2b cf af 3c 47 cf 2a bc
       0.021979706 0.028013203 0.02146109 -0.010425395
000280 c4 d2 0c 3d 6c 89 84 3c 1e 25 71 bc a0 fc e3 bc
       0.03438069 0.01617881 -0.014718322 -0.027830422
000290 19 47 39 bc 5f 9f 1d bd 09 28 34 3c 09 d7 e1 3c
       -0.011308455 -0.038482066 0.010995873 0.027568357
0002a0 da 29 23 bd 67 80 3f 3d 5f f2 97 3c 98 8c 49 bd
       -0.039834835 0.046753313 0.018548189 -0.049206346
0002b0 33 e5 4c 3b 8a 47 15 3d 2c 94 34 bd e3 a8 10 3d
       0.0031264543 0.036445178 -0.04408662 0.035317313
0002c0 b4 89 38 bd cd 97 58 bd ac ab 33 3d e2 d4 08 3d
       -0.0450532 -0.052879144 0.04386489 0.033406146
0002d0 33 8b ac 3c 09 b4 06 3b 74 86 76 3c 3b dc a7 bc
       0.02106247 0.0020554087 0.015046705 -0.020490756
0002e0 1b da 59 bd 5b 9e 49 bd d0 f3 08 bd 59 b6 0d 3d
       -0.053186517 -0.049223285 -0.033435643 0.03459773
0002f0 f7 e2 3a bd 9b 96 58 bd 7c 29 d4 bc 68 cc 5c bd
       -0.045626607 -0.052878004 -0.025898688 -0.053905874
000300 74 9f e5 bc 27 80 1f 3c 83 2b 0e bd 34 3f 32 bd
       -0.028030135 0.009735144 -0.034709465 -0.043517306
000310 fd 2c 2a 3c 5d 2e 08 3c 30 27 03 bd 4f 39 ee bc
       0.010386703 0.008311835 -0.032019794 -0.029080061
000320 d1 a4 1f bd 73 fc 08 3c 81 08 7e bb 62 35 30 bc
       -0.03897554 0.00836097 -0.0038762393 -0.010754915
000330 c9 6e 02 bd 42 2e 77 3c 31 ca 21 bd 00 f0 f3 3c
       -0.031843934 0.015086712 -0.039499465 0.029777527
000340 32 2c 07 3d 39 d2 b7 3c 40 6c 45 3b d2 f8 15 3d
       0.033001132 0.02243911 0.0030124336 0.036614247
000350 47 1e d2 3b 46 b1 b7 bc e8 3b 00 bc 59 65 3d bd
       0.0064123007 -0.022423398 -0.007826783 -0.04623923
000360 22 16 2c bd 5a 81 02 bc 80 6d 9a bb d6 89 43 bd
       -0.042013295 -0.00796541 -0.0047127604 -0.047738872
000370 1b 6e cd bc f5 af 80 3b dd 2a aa 3c 88 6e f7 ba
       -0.025076916 0.0039272257 0.020772392 -0.0018877545
000380 f8 53 a9 bc 7a c8 cd bc 0c 22 03 3d 8c 36 6c 3b
       -0.020669922 -0.025120009 0.03201489 0.0036043255
000390 0c fb b8 b9 9c 06 6b bc 4f 82 75 ba fe a5 64 bd
       -0.0003528226 -0.0143448375 -0.0009365426 -0.055822365
0003a0 f5 22 39 bd 7e 32 62 bd 69 12 ba 3c 87 d6 0e bd
       -0.045199353 -0.055223934 0.022713857 -0.034872558
0003b0 56 ea fa 3c 91 84 2a 3c a7 63 7e bc e1 c2 52 bd
       0.030629318 0.010407583 -0.015526689 -0.051455382
0003c0 1e 63 c1 3b 53 28 dd 3c d2 56 d0 3c d2 31 68 bc
       0.0059017083 0.026996767 0.025432024 -0.014172034
0003d0 77 ac 11 bd 40 53 3e bd 49 e3 a0 bc c8 cc 2b 3d
       -0.035564866 -0.046466112 -0.019639628 0.04194334
0003e0 0d 11 1a 3d 43 3d 21 bd 0a 4a e1 3c d3 d7 0d 3b
       0.037613917 -0.039365064 0.027501125 0.0021643534
0003f0 2b 28 3b bc 26 2a 55 bd 3f 37 b9 bc c7 19 1c 3d
       -0.011423151 -0.05204215 -0.022609351 0.03811052

encoder.fc1.bias f4 [120]
000000 52 3d fc 3c b4 b9 33 bc c1 92 bf bc 3b 99 53 bd
       0.030790959 -0.010969568 -0.023385407 -0.051659804
000010 73 7f 5a 3d 51 a9 67 3d 70 62 0c 3d 4b 9f 62 bd
       0.0533442 0.056557957 0.034273565 -0.055327695
000020 f5 0f 8c 3c ba 59 6b 3d 7c f4 25 3d 6f e9 08 3d
       0.017097453 0.057458617 0.04051636 0.033425745
000030 b0 45 8a 3c 96 29 fc bc 46 b6 99 3c 8c fd 16 bd
       0.016878933 -0.030781548 0.018763673 -0.036862895
000040 f6 03 84 3c e3 1e b3 bb af de c8 bc 7e 71 f3 3c
       0.01611517 -0.0054663285 -0.024520246 0.029717203
000050 14 70 4d 3d 73 ad 17 3d 72 90 f8 3c 40 2c ca bc
       0.050155714 0.03703065 0.030342314 -0.024679303
000060 f4 37 2a bd f2 f2 3d bd 62 4a d9 bc 0b d1 16 3d
       -0.041557267 -0.04637427 -0.026524726 0.036820453
000070 0c f3 57 3d ec fe 35 bd 71 fa b0 bc 88 32 4e bd
       0.052722022 -0.044432566 -0.021603795 -0.05034116
000080 a9 9a 51 3d 4d 94 f3 bc 92 37 82 bc 29 57 de 3c
       0.051172886 -0.029733801 -0.015895639 0.02714117
000090 ed cc b5 bc c2 66 82 3c 94 8d 70 bc d2 0c 3f bc
       -0.022192443 0.01591814 -0.014682192 -0.011660771
0000a0 9e 0a 4f 3d a5 eb 11 3d 16 e7 49 3d f4 4b 1b bb
       0.050547235 0.03562512 0.049292646 -0.0023696395
0000b0 e4 47 0d 3c bf 09 24 bc a9 89 50 3d 5a af 8a 3c
       0.008623097 -0.010012089 0.050912533 0.016929317
0000c0 91 18 ba bc 32 36 cb 3c 04 0b 20 3c 6b a9 3a bd
       -0.022716792 0.024806116 0.009768251 -0.045571726
0000d0 b4 d1 b3 3a f8 d3 2e bd c8 e5 3b bd e0 d8 f4 3c
       0.0013719113 -0.042682618 -0.045873433 0.02988857
0000e0 e1 26 04 3d a4 13 9d 3b bd ad dd 3b 9a fe 38 ba
       0.03226364 0.004793601 0.006765096 -0.00070569816
0000f0 d9 9d fc 3b 8d 3d de 3c c4 3c 35 3d a2 84 c7 bc
       0.0077092466 0.02712896 0.044247404 -0.024355236
000100 93 37 32 3d 07 a7 7a 3d 41 8e 86 bc 59 f2 5a bb
       0.04351003 0.061194446 -0.016425254 -0.003340861
000110 3f 38 8e 3b 6e 49 34 3c 6c 39 21 bd cb 1d 1b 3d
       0.004340201 0.011003835 -0.039361402 0.03787021
000120 ac 42 7d 3b 4e f4 1c bd 55 95 a3 bb 08 92 3a 3c
       0.0038644476 -0.038318925 -0.004992167 0.011387356
000130 81 6b 18 bd ce f7 e5 bc 48 c6 13 bd be 64 1e 3d
       -0.0372119 -0.028072264 -0.036077768 0.038670294
000140 16 d3 a5 3c b7 2e 4a 3d a6 5e 45 3c d8 0d b1 3c
       0.020242255 0.049360957 0.012046492 0.021613047
000150 b7 61 8e 3c fb 9d 28 3c 93 2e 60 bd bf 94 db 3c
       0.017380578 0.010291572 -0.054731917 0.026804326
000160 09 fd 73 3d 64 80 7c bb b7 6a 16 bd 63 b9 83 bc
       0.059567485 -0.0038528675 -0.036722865 -0.01607961
000170 fe d0 3e bd 2d 4c 29 3d 5a fd 95 bc 22 24 2c bc
       -0.04658603 0.041332413 -0.018309284 -0.010506662
000180 17 7a 9d bc 47 3f 18 bb 24 ae 4e 3b 59 8f 69 3b
       -0.019223256 -0.0023231076 0.0031536901 0.003563842
000190 e2 7a 44 bc 6d 24 3f 3c a0 b0 90 bc cd f8 dc ba
       -0.011992188 0.011666399 -0.017662346 -0.0016858816
0001a0 74 64 06 3d 20 7e 02 3d 93 0e 81 3c 22 de 60 3b
       0.032810643 0.031858563 0.01575402 0.003431209
0001b0 6b 75 c2 bb b4 9c 4c 3c 9f 11 e7 3c 1a 6e 30 bd
       -0.0059344075 0.012488533 0.028206645 -0.04307375
0001c0 c7 b8 87 bc 69 ce 02 bd 47 9b 5b 3c 27 d2 7e 3d
       -0.0165676 -0.03193513 0.01340372 0.062212136
0001d0 26 13 51 3c b6 5f e1 3c db f2 e2 bc d4 4d 09 3d
       0.012760913 0.027511459 -0.027703693 0.03352149

encoder.fc2.weight f4 [84, 120]
000000 59 ad 4a bd d6 fc 01 3c df 7e 89 bd 98 38 fc 3c
       -0.049481723 0.007933816 -0.06713652 0.030788705
000010 6b dc a4 3c 03 85 c8 3c bb 54 23 bd 6a 5a 83 bd
       0.020124635 0.024477487 -0.039875727 -0.064137295
000020 14 2d 86 bd a5 90 9b 3d 75 13 83 bd e6 5f b9 bd
       -0.06551567 0.07595948 -0.064001955 -0.09051494
000030 17 a8 0c bd c6 dd 31 bd ec 44 54 3d 0f fb 7d bd
       -0.03433999 -0.04342439 0.05182354 -0.062007006
000040 e7 ed a1 bd c8 a7 a4 bd 3f 44 a1 bd ce a7 4f 3d
       -0.079067044 -0.08039814 -0.07874345 0.05069714
000050 96 c5 47 3b c5 af aa 3d ee fd 87 bc cb e7 03 3d
       0.003048276 0.08334307 -0.016600575 0.032203477
000060 24 34 23 3c 9b 16 26 3c f4 1b 80 bd 0e 0d a0 3d
       0.009961162 0.0101372255 -0.06255332 0.0781499
000070 05 f5 90 bd 3e 5d ae bd 48 33 6c bd 3b 92 86 3d
       -0.07077984 -0.08513878 -0.057666093 0.0657086
000080 ff 86 a2 bd 2c 35 4f 3d b4 0f 2a 3d 88 3b 3f 3c
       -0.07935905 0.050587818 0.041518882 0.011671908
000090 5c d5 68 3b 51 53 d2 3c 23 07 12 3d ef b9 99 bc
       0.0035527563 0.025674494 0.035651337 -0.018765418
0000a0 20 31 74 3c ad a0 96 3d a3 f8 1d bc bc 86 c4 3c
       0.01490429 0.07354865 -0.009641799 0.023990028
0000b0 24 91 0b bd 6a e0 52 bd b8 58 70 bd 31 cb e1 bc
       -0.034073964 -0.05148355 -0.05867836 -0.02756271
0000c0 bb 26 91 bc 4e cc 19 bd 84 4b cc 3c ed ab a8 bd
       -0.017718663 -0.037548356 0.024938352 -0.08235917
0000d0 f1 6b 8d bd e1 7b 38 3d 91 0f 98 3d 90 cb b0 bd
       -0.06905354 0.045040015 0.07424844 -0.086325765
0000e0 fe 64 39 bd bf f6 17 bd 2c d7 80 bd b3 f8 8d bd
       -0.04526233 -0.03710055 -0.06291041 -0.06932201
0000f0 fe c5 af 3d f7 a7 56 3d 6f 66 4c 3d c7 f8 4f 3d
       0.08582686 0.052406278 0.049902376 0.050774362
000100 d5 c7 90 3d c8 f7 32 bd 07 88 b3 bd 77 8b 14 3c
       0.07069365 -0.043693334 -0.087661795 0.009066454
000110 f2 f7 ac bd 71 2c 59 bd 7a 09 9b bd 8f bf 8e 3d
       -0.08445729 -0.0530209 -0.07570167 0.06970131
000120 dd 02 b2 3d 59 ff 28 3d 43 9d 81 3c 9d d5 4d bd
       0.086919524 0.041259144 0.015822059 -0.050252546
000130 17 a9 b5 3c a8 77 c6 bc 27 11 00 3d 89 bc ea 3c
       0.022175355 -0.024226978 0.031266358 0.028654354
000140 d7 94 83 bd cc 99 8f bd 31 dc 60 bd 96 38 30 3d
       -0.06424873 -0.07011756 -0.05489749 0.043022715
000150 8b ba 83 3d a5 32 b6 3d 0a d3 a4 3c 09 5f 86 3d
       0.064320646 0.088963784 0.020120163 0.06561095
000160 6c df 83 3d b0 f6 d6 bc 43 28 4a bd a9 58 1a 3d
       0.06439099 -0.026240677 -0.049354803 0.03768221
000170 c6 07 a1 3d 8f 28 78 3c 40 d8 11 bd 1a d9 e5 3b
       0.07862811 0.015146389 -0.035606623 0.007014406
000180 49 28 0f 3d cb 50 58 3d 76 1e b6 bc d9 02 0f bd
       0.03495053 0.052811425 -0.022231322 -0.034914825
000190 b6 99 9f 3d 14 93 b6 3d 8b 21 4f 3d f9 0a b9 3d
       0.0779299 0.08914772 0.0505691 0.09035296
0001a0 1a 09 e0 3c 46 49 63 3d 6a 90 9b 3d 8d 48 65 bc
       0.02734809 0.0554898 0.07595904 -0.013994348
0001b0 92 af 8a bd 79 8c ba 3d 7e dd 98 3d a4 45 8b 3d
       -0.06771769 0.09108824 0.07464121 0.06800392
0001c0 31 d3 ba 3d 4f 56 a6 bd b9 b8 83 3b 6c c2 b5 bc
       0.09122313 -0.08121931 0.0040198234 -0.022187434
0001d0 db ec 14 bd 87 85 7a 3d 50 fb 02 bd f3 5d 3c 3d
       -0.036358695 0.061162498 -0.03197795 0.045988034
0001e0 6d fa 40 bc fc 90 b1 bc ea dd 22 3d b9 6a 8c 3d
       -0.011778456 -0.02167558 0.039762415 0.06856293
0001f0 b4 a5 59 bd 07 01 ea 3c 5d 51 52 bd 9d 60 bd 3d
       -0.053136542 0.028564943 -0.051347125 0.09246943
000200 af e4 8a 3c a9 b6 82 bd da 2c 3d bc 78 73 6a bd
       0.016954748 -0.06382496 -0.011546338 -0.057239026
000210 e2 ce 2e bb c3 5d 94 bd 41 3a d0 bd f2 6d 39 3d
       -0.0026673605 -0.07244446 -0.10167361 0.045270868
000220 29 8f aa ba cc ea 9f 3c fd 24 60 3d 2d 75 92 3d
       -0.0013012636 0.01952114 0.054722775 0.07151256
000230 d4 ea 02 3d ee e9 2f bb 23 22 85 3d d1 3f ef 3c
       0.03196223 -0.0026842314 0.06500652 0.029205235
000240 5e cf 7a bd dc 18 11 bd 6f 3c cb bd 4f e0 a2 bd
       -0.061232917 -0.0354241 -0.09923636 -0.0795294
000250 25 78 85 3c 3f e8 44 3a 63 65 63 bd af fe 90 3d
       0.016292641 0.0007511414 -0.05551661 0.07079827
000260 71 46 89 3d 24 ac 16 bd 2d e6 4f bd 68 e6 22 3d
       0.06702889 -0.03678526 -0.050756622 0.039770514
000270 ff 09 8f bc 03 25 c6 bc b7 92 4f bb 9a 9d 9e bd
       -0.017460821 -0.02418757 -0.0031673142 -0.07744904
000280 9a 06 51 3d ce ac e5 3c 12 e0 b9 bd 56 91 18 bc
       0.051031686 0.028036501 -0.09075941 -0.009311995
000290 d9 25 85 bd 04 7f 74 3d 61 6a be bd 17 68 89 bd
       -0.065013595 0.059691444 -0.09297634 -0.06709307
0002a0 06 a2 ff bb 90 15 e7 3c 9f 0e 5f 3d c4 41 95 bd
       -0.007801297 0.028208524 0.054457303 -0.072879344
0002b0 0a 1d b3 3c 86 04 9c 3d b3 8f d8 bc 08 66 be bd
       0.021864433 0.0761805 -0.026435709 -0.09296805
0002c0 05 4d b0 bd a7 27 7a 3d 52 ec b1 bd 78 ca a0 3d
       -0.0860844 0.06107297 -0.08687653 0.07851118
0002d0 ef fd ec 3b 47 c9 51 bd 28 84 6a 3c 8b 0d 7a 3c
       0.0072324197 -0.051217344 0.014313735 0.015262018
0002e0 b8 04 8a 3d d6 76 46 bd 48 1f 6c 3d 54 15 c4 bd
       0.06739181 -0.048453175 0.05764702 -0.095743805
0002f0 61 e5 c8 3c 4a 2a 88 bd 97 71 3b 3d 1c a0 43 3d
       0.024523439 -0.06648691 0.045762625 0.047760114
000300 90 1c 84 3b bc 8d b9 3d ba 6b cf bc f9 35 a7 bd
       0.004031725 0.09060237 -0.025319923 -0.08164591
000310 56 5e 36 bd eb 65 0a 3d 9b 32 0e 3d 33 09 8d 3d
       -0.04452356 0.033788603 0.03471623 0.0688652
000320 80 1a 9d 3c 65 d8 5b 3d eb 5a 4f 3d d8 e5 ea 3c
       0.019177675 0.053673167 0.050623816 0.028674051
000330 8e 72 93 bc 6f a1 a2 3d 8c 23 a0 3a 11 67 ac bd
       -0.01799896 0.07940947 0.0012217625 -0.08418096
000340 c4 fc bf 3c 80 0a 9b 3c df 52 40 3c 71 35 47 bc
       0.023435958 0.018925905 0.011738508 -0.0121587375
000350 a7 95 86 3d 22 45 62 3d 5d 2a 9f 3d 56 98 4c bd
       0.06571513 0.05524171 0.07771752 -0.049949966
000360 97 1c 07 bd 11 2c 01 bd 87 d8 11 bd d1 f3 93 bd
       -0.03298625 -0.031536166 -0.035606887 -0.07224239
000370 2e c7 86 bd 0e 47 60 bd d9 c9 5a bd 1d a7 94 3d
       -0.06580959 -0.054755263 -0.053415153 0.07258437
000380 95 51 57 3d b1 b3 10 3d 6b 40 80 3c 81 c1 52 3d
       0.052568037 0.035327617 0.015655717 0.05145407
000390 75 47 96 bd 3a af b2 bc e6 04 f6 39 1b 37 71 3c
       -0.07337848 -0.02181207 0.00046924426 0.014722611
0003a0 87 20 51 bd 69 0b 26 bd 69 9b df 3c b3 81 52 3b
       -0.05105641 -0.040538225 0.027295785 0.0032120764
0003b0 56 2f 51 3d b5 0a d3 bd 81 49 57 3c 04 dd a1 bc
       0.051070534 -0.103047766 0.013140083 -0.019758709
0003c0 e5 4d 84 3c c1 4b 98 3d 5a d7 20 3d 46 a1 b2 bc
       0.016150424 0.07436324 0.039267875 -0.021805417
0003d0 ce 07 9a 3d 9d 76 d9 bb 16 76 4c bd f6 90 15 bb
       0.0752102 -0.0066364543 -0.049917303 -0.0022822
0003e0 cf 20 93 bd d9 48 93 bd 4e 3f 87 3a 98 c0 1b bd
       -0.07183992 -0.07191629 0.0010318549 -0.03802547
0003f0 03 8c 0c 3d 71 95 68 bb 6b 24 54 bc 35 3a 5b bd
       0.034313213 -0.0035489465 -0.012948136 -0.053522307

encoder.fc2.bias f4 [84]
000000 d4 3d ce bc 6d f8 d3 bc cc 77 0f 3c 56 c8 75 bd
       -0.025175966 -0.025875295 0.008756589 -0.06000551
000010 5f 63 a0 bd 92 f2 2f bd 8b 1c 4c 3c 28 a3 be 3c
       -0.078314535 -0.042955942 0.012457977 0.023271158
000020 22 83 10 3d e3 f6 7e bd b1 2e 54 3d 9c 82 cc bc
       0.035281308 -0.06224717 0.05180234 -0.024964623
000030 fe 7c b4 bd 66 22 95 3d 43 46 55 3c bb dd 0a 3d
       -0.08812903 0.072819516 0.01301724 0.033902865
000040 12 6d 96 3d 51 87 86 3c fd fd 35 3c 78 de 39 3d
       0.07345022 0.016421946 0.011107919 0.04537818
000050 0d a4 a6 3d 3f 93 9f bd 6d 26 d0 3c 00 73 c3 3c
       0.08136759 -0.07791757 0.025408948 0.023858547
000060 5a 37 b0 bc af a9 c2 3d 51 97 5e 3b 8b a4 25 bd
       -0.021510769 0.09505021 0.0033964703 -0.040440124
000070 11 34 0e 3c 05 a8 77 3d f8 c4 77 3d ca 23 13 3d
       0.008679406 0.06046297 0.06049058 0.035922803
000080 25 bd 9f bd 5c 45 90 3c 7c 10 a3 3d 02 d4 b8 3d
       -0.07799748 0.017611198 0.079621285 0.09024812
000090 56 a5 16 bc 94 c4 0b 3d a2 6d 6b bd ce 26 8b bc
       -0.009194693 0.03412302 -0.0574776 -0.016986277
0000a0 10 32 18 3b e4 de a6 bd 9c 5e 18 3d 2e 62 81 3d
       0.00232232 -0.08147982 0.0371996 0.063175544
0000b0 23 41 24 bd 74 93 50 3d f2 eb f8 3b 36 56 91 bd
       -0.04010118 0.050921872 0.0075964862 -0.070965216
0000c0 81 7b ab 3d bb e4 49 bd 86 ac b4 3d 8e 0f b8 3c
       0.08373166 -0.0492904 0.08821969 0.022468355
0000d0 98 6d 6b bd 48 74 9d bc e1 4d b1 bd 38 f3 49 3d
       -0.057477564 -0.019220486 -0.08657432 0.049304217
0000e0 08 12 17 3c d5 87 71 3d 2e 75 91 bd 81 9f 3d 3d
       0.009220608 0.05896743 -0.071024284 0.046294693
0000f0 f6 6d 4c 3d 2f 69 96 bd 18 02 ab 3d e3 3a 17 bd
       0.049909554 -0.07344281 0.08350009 -0.036921393
000100 e3 fd 36 bd 8d 98 1d bd c6 7b 94 bd 0c a4 a0 bd
       -0.04467572 -0.038475562 -0.072501704 -0.078437895
000110 42 ba 36 3c e4 58 0b 3d d8 c9 f2 bc 11 23 59 3d
       0.011152806 0.03402032 -0.029637262 0.053011958
000120 a8 21 1d bc 5d df cd 3c 09 6f 49 3d 5e e0 59 3c
       -0.009590544 0.025130922 0.049178157 0.013298122
000130 38 91 2d bd 2f 70 c9 bc 2b 54 7f bd 18 4f c6 bc
       -0.04237482 -0.024589626 -0.06233613 -0.024207637
000140 2e fe ad 3d 3a 8d 85 3d 6a a1 a1 3d 0c ad da 3c
       0.084957466 0.065210775 0.078921154 0.026693843

bottleneck.fc.weight f4 [16, 84]
000000 51 f4 ce bd 05 74 05 bd d8 d1 0b bd 30 35 d6 3d
       -0.101051934 -0.032581348 -0.03413567 0.104593635
000010 0a 8e 09 bc 97 3d 49 3d ec fe e2 bc 48 c4 28 bc
       -0.008395681 0.049131002 -0.027709447 -0.010300703
000020 c7 84 69 3c 21 56 84 bd 82 d2 85 bd bf d0 28 bd
       0.014252848 -0.0646174 -0.06534292 -0.0412147
000030 af ae 7c bd 90 dd 88 bc 40 59 31 bd 00 ca 22 bc
       -0.06169003 -0.016707212 -0.043298006 -0.009935856
000040 45 b2 97 b9 42 94 d1 3b 3d 37 f5 3c ce 87 83 bb
       -0.00028933786 0.0063958475 0.029933566 -0.004013992
000050 46 9a be bd 9b e0 e9 bd cf 29 21 3d bf 9c 9f 3d
       -0.09306769 -0.11419793 0.039346512 0.07793569
000060 29 5f 94 bd b3 0f 59 3d ea dd 46 3d d9 0a 58 3d
       -0.07244713 0.052993488 0.048551477 0.05274472
000070 ca fa 14 bd 0a 4a e0 bc ba 1f cf bd 67 6b e7 bd
       -0.036371984 -0.027379055 -0.10113473 -0.11299782
000080 ee 1a b5 bd 9d 7d d3 bd 53 96 a2 bd f9 c1 ac 3c
       -0.08843027 -0.10326693 -0.07938828 0.021088587
000090 e9 2d f7 3c ae e2 c6 bd 61 c2 ce 3d d8 03 51 3d
       0.030173259 -0.097112045 0.100956686 0.051029056
0000a0 a3 e1 0c bc 33 f4 60 bd ed 48 ec bd 8e b1 83 bc
       -0.008598718 -0.054920387 -0.11537347 -0.016075876
0000b0 37 7d 97 bd 55 3a 4e 3d f8 03 c4 bd 2d fb cf bd
       -0.0739693 0.0503486 -0.095710695 -0.1015533
0000c0 3b ac a2 3d 59 2d b9 3d cf 6a 1e bd 66 f3 b8 3d
       0.079430066 0.090418525 -0.03867608 0.090307996
0000d0 88 33 18 3d 72 9c 5f 3d bc c4 15 3d f3 75 81 39
       0.03715852 0.054592557 0.036564574 0.00024692676
0000e0 3c 11 c1 bd ae ee c2 3d ea 5d 3c 3d e0 34 85 bd
       -0.09427115 0.09518181 0.045988 -0.06504226
0000f0 4e ef 8b 3d 0b d5 39 bd ec 88 eb bd 19 d8 d7 bc
       0.06832753 -0.04536919 -0.11500725 -0.02634816
000100 fb 87 be bd 17 a3 bd bd 54 87 87 bd 4c d1 2f bd
       -0.0930328 -0.092596225 -0.06617609 -0.04292421
000110 31 a2 78 3d e5 1c 89 3d a4 b7 1e bd 6d 42 63 3c
       0.060701553 0.06694964 -0.038749352 0.013870818
000120 a3 a9 dc bb 00 53 c0 bb 41 00 f3 bc 79 db 80 3d
       -0.0067340895 -0.0058692694 -0.029663207 0.06291861
000130 95 fd 8b 3d 54 18 69 3d 13 cb bb 3d ca de 46 3c
       0.06835476 0.056907967 0.09169593 0.012138078
000140 44 f1 16 bb 2c 99 fe bb b4 bc b7 3c 9b d3 b0 3d
       -0.002303199 -0.0077697244 0.022428848 0.086341105
000150 0c da bc 3d 4d 7c b5 bd ce c4 e3 bc 6d 6a ad bd
       0.09221277 -0.08861599 -0.027803805 -0.08467565
000160 59 1f ae 3d 47 b5 a5 bd aa 28 85 bd 95 b0 b4 3d
       0.08502073 -0.080912165 -0.06501897 0.08822743
000170 d3 54 85 3d fd de af bd 75 71 c3 bd 74 b7 d3 bd
       0.065103196 -0.085874535 -0.095431246 -0.10337725
000180 da 8f 69 3d f1 43 90 bd 8e 61 c5 bc c9 50 24 bd
       0.057021953 -0.07044209 -0.02409437 -0.040116105
000190 50 44 88 bd fe d7 33 bc e0 23 d8 bd c1 df 63 3c
       -0.066536546 -0.0109767895 -0.105537176 0.013908328
0001a0 64 5b c5 bc f3 12 c5 bd 46 4c a6 bd e2 aa 28 bd
       -0.02409143 -0.09622755 -0.08120017 -0.04117859
0001b0 46 04 88 bd 22 db 1c 3d 79 ec 0e bd 9e 7e 0c 3c
       -0.0664144 0.03829492 -0.034893487 0.00857511
0001c0 19 ae 18 3d bb 6d 42 3d 43 79 6f bb a8 54 5e 3d
       0.037275407 0.04746793 -0.0036540783 0.054279953
0001d0 da 49 c5 3d 30 27 99 3d da ee 2a bc e6 94 60 bd
       0.09633227 0.074781775 -0.010432923 -0.0548295
0001e0 c4 42 97 bc f8 d2 8e 3d a2 07 75 3d d8 7e d4 3d
       -0.018464454 0.06973833 0.059821732 0.10375756
0001f0 d9 f2 aa bd 5f 9d 71 bd 3a e9 2c bd da 17 22 bd
       -0.08347101 -0.05898797 -0.04221461 -0.039573528
000200 40 1a ba 3d 19 53 4d bd 24 17 2f 3d 3e 88 b1 3d
       0.09087038 -0.050128076 0.042746678 0.08668564
000210 35 09 44 3d 69 af 0f bc 20 01 9a bd af 3e a5 bd
       0.047860343 -0.008769848 -0.07519746 -0.080685966
000220 68 ad ba 3d df a6 3b bd ed a5 cf bd 0e 31 a7 3d
       0.09115106 -0.045813438 -0.1013907 0.08163653
000230 e4 28 bb bd b3 99 c2 3c c5 ef fc bc 60 6e 45 3c
       -0.09138659 0.02375493 -0.03087605 0.012050241
000240 3a 0c ae bd 9f 43 cc bd 5b 6b d1 3d fd 0f cc bd
       -0.08498426 -0.09973835 0.102255546 -0.09963987
000250 8b 02 53 bd f1 40 b6 bd 5b ee 90 bd ba 18 a5 bd
       -0.051516097 -0.08899105 -0.07076713 -0.08061357
000260 1a db b1 3d e3 2d cf 3d e2 cc 61 bc ef 55 bc bd
       0.086843684 0.10116174 -0.013781758 -0.09196078
000270 de 53 ce bd 35 0a 0a bd a9 e1 ec bb 82 5c 2b 3d
       -0.1007459 -0.03370114 -0.007229049 0.04183627
000280 3c a6 9b bd a0 3c d1 bd fe 6b 86 3d 9c 78 98 3d
       -0.07600066 -0.102166414 0.065635666 0.074448794
000290 b8 0c 41 bd 7f 23 c3 bd e5 78 66 3d b1 c1 fe 3b
       -0.04713127 -0.09528255 0.056267638 0.0077745547
0002a0 b0 0b d4 bd a3 30 09 3d a6 be 12 ba 91 1e 9c bd
       -0.10353792 0.03349365 -0.0005597867 -0.076230176
0002b0 51 96 48 bd 98 1f 9b bc 4d dc 7f 3d 01 8e d2 bd
       -0.048971478 -0.018935964 0.062465955 -0.10280991
0002c0 70 f6 96 3c 24 86 24 bd c0 63 ce bd 28 4a 78 3d
       0.018428057 -0.04016699 -0.100776196 0.060617596
0002d0 47 9d e6 3d cf 30 f5 3d 83 22 69 3b 2d 3f 8c 3d
       0.11260467 0.119722 0.003557355 0.06847987
0002e0 dd 54 86 3d a5 87 17 bd 02 c6 82 bd 77 2b 39 3c
       0.06559155 -0.036994595 -0.06385423 0.011301867
0002f0 39 fe e4 bd 7c 6d 94 bc 53 51 4a bd 4f af 88 3d
       -0.111813016 -0.018118612 -0.049393963 0.066740625
000300 39 72 49 3d 4b ef 70 3d 26 f2 28 bc 17 b3 db 3d
       0.049181197 0.058821958 -0.010311639 0.10727518
000310 43 35 7a 3d ce 45 95 bc 88 36 81 bd d4 bd a2 bd
       0.06108595 -0.018221762 -0.06309229 -0.07946363
000320 f9 f2 c9 3c be d4 2f 3d 1a d3 c7 3c 2c 9c 11 3d
       0.024651991 0.042927496 0.024392653 0.035549328
000330 42 c5 d4 3d 85 74 04 3d 2c 2a 91 bd 2d 9e 75 3c
       0.103891864 0.032337684 -0.07088122 0.014991325
000340 5d 12 81 bc 30 b5 88 3c 4f c2 21 3d be a5 16 bd
       -0.015755827 0.01668796 0.039491948 -0.036779158
000350 30 a1 72 3d 9c 6c cf 3d 2d 00 a4 3d 58 63 b3 bd
       0.05923575 0.101281375 0.08007846 -0.08759183
000360 96 79 d8 3d 05 ef d5 bb 13 5d 24 3d 24 74 c7 3d
       0.10570066 -0.0065287375 0.040127825 0.09738949
000370 95 bd 72 3c ee 0f 1b bd 05 40 c5 3d 47 80 00 bd
       0.014815708 -0.03785699 0.096313514 -0.031372335
000380 64 8e b2 3c 10 bc 9d 3d 98 cb d4 3d c0 38 a2 3c
       0.021796413 0.07701886 0.10390395 0.019802451
000390 c6 8b 58 bd dc a4 bf 3d 47 c0 a8 bd fa 36 e5 3d
       -0.052867673 0.09357616 -0.08239799 0.111921266
0003a0 76 2e ee 3c f4 02 b9 3d 54 03 d7 3d 08 81 08 3c
       0.029074889 0.090337664 0.10498682 0.008331545
0003b0 a4 c1 d5 bb 3b 6a 87 bc a8 db a3 3d 08 a7 40 3d
       -0.006523328 -0.016530147 0.080008805 0.047034293
0003c0 06 10 4f bd f6 f0 a0 3b 59 c0 73 bd c5 6e 1e 3d
       -0.05055239 0.0049115373 -0.05950961 0.038679857
0003d0 c5 09 9e bd e2 10 c0 bd bc 9a 8c 3c 3a d3 be 3d
       -0.07716707 -0.0937822 0.017163627 0.09317632
0003e0 af 4e 9d 3d 49 95 46 3c de 77 79 bc 65 58 dd 3d
       0.07681023 0.012120553 -0.0152263325 0.108078755
0003f0 5f fd c6 bd 04 d7 6a bc 80 f7 bc 3d 7e ad db bd
       -0.097162955 -0.01433349 0.092268944 -0.107264504

bottleneck.fc.bias f4 [16]
000000 ed eb 0d 3d 68 96 fd bb 83 c6 c2 bd b4 03 3e 3d
       0.034648824 -0.007738877 -0.09510519 0.04639025
000010 24 81 11 bb bd 5c 25 3b 54 a1 3b 3a 91 9e 46 3c
       -0.0022202218 0.0025232278 0.00071575237 0.012122766
000020 0b 26 9b bc 0e 2b 6a 3a 8b fc 1e 3c d7 db cf 3d
       -0.018939039 0.0008932807 0.009703766 0.10149353
000030 6c 7d 4b bd 3d f6 7f 3d 61 62 94 3d 88 59 72 bb
       -0.04968016 0.06249069 0.07245327 -0.0036979634

decoder.fc3.weight f4 [84, 16]
000000 b8 29 91 3d 80 a1 90 bd f8 74 7e be 80 1c 78 3c
       0.07088035 -0.07062054 -0.24849308 0.015143514
000010 9c eb bb bd 08 5f 4f bd 2e 5d 5a 3e 02 e7 2c be
       -0.09175798 -0.05062774 0.21324608 -0.16884997
000020 00 d6 a3 3a 62 20 40 3e 20 0e d6 bd d8 63 2a be
       0.001249969 0.18762353 -0.10451913 -0.1663965
000030 5e 14 22 3e 98 de ac bd 8e 12 53 be 00 7e 18 bd
       0.15828082 -0.08440894 -0.20612547 -0.037229538
000040 4c 5c c9 bd 00 bc bd bc ae 8a 12 3e 23 53 7e 3e
       -0.09832057 -0.023160934 0.14310715 0.24836402
000050 74 e0 d0 3d 68 e1 34 be 80 82 12 be 7d 71 c2 bd
       0.10199061 -0.1766411 -0.14307594 -0.094943024
000060 5c 2c 54 3e 14 88 b0 3d 96 73 5d 3e 77 74 e3 3d
       0.20720047 0.08619705 0.21626124 0.11106198
000070 48 e0 c2 bd 4a c1 0a 3e e6 dc 14 be f0 97 a6 3d
       -0.095154345 0.13550296 -0.14537391 0.081344485
000080 4d cd 8f 3d 68 f6 1a bd d0 3e 3e be bb 14 17 be
       0.0702158 -0.037832648 -0.18578649 -0.14754002
000090 20 94 4c bc 5d 00 29 3e e7 8f 01 3c 45 e0 18 3d
       -0.012486488 0.16504045 0.007907844 0.037323255
0000a0 16 1d ad 3c 90 1a 88 bd 56 c9 3d be 6f 5c 11 3e
       0.021132033 -0.066456914 -0.18533835 0.14195417
0000b0 fe 05 36 be 55 a2 41 3e 46 c2 3a 3e 48 03 24 bd
       -0.17775723 0.18909581 0.18238172 -0.04004219
0000c0 ab cd c1 3b c4 d2 ec bd 99 8c e0 ba aa 7d 3e 3c
       0.00591441 -0.11563638 -0.0017131745 0.01162664
0000d0 5a 65 36 3e 3e b1 6a 3d 9d 1c e3 3c 01 a6 61 be
       0.178121 0.057297938 0.027723605 -0.22035982
0000e0 10 fa 59 be fc 43 e7 bd 91 62 14 be fc 58 59 3e
       -0.21286798 -0.11292264 -0.14490725 0.21225351
0000f0 ea b7 b3 3d 20 3a 5e bd db 4f be bd b6 3b 5c 3e
       0.08775313 -0.05425465 -0.09292575 0.21507153
000100 78 46 7a 3d bc cc 2b 3e 4d 75 31 3e 3c 26 35 be
       0.06110236 0.16777319 0.17329903 -0.17690367
000110 76 2b 6c be f3 dc 72 3e 80 43 ae bc 0c b0 17 3e
       -0.23063454 0.23717098 -0.02127242 0.1481325
000120 ce 91 30 be 80 e4 44 3b a8 f2 35 bd 75 94 6b bc
       -0.1724312 0.0030043423 -0.04442087 -0.014378657
000130 ac c8 87 bd 3c 38 1c be aa 38 11 3e c2 13 4b be
       -0.06630072 -0.15255827 0.14181772 -0.19831756
000140 5a d7 36 3e 40 64 32 3c 01 b5 59 be ab 6a 46 be
       0.17855588 0.010888159 -0.21260454 -0.19376628
000150 c0 df 5e 3d 27 16 f7 bd 10 9c d7 3c 7c 9c bb 3d
       0.054412603 -0.12064772 0.026319534 0.091607064
000160 18 6b 08 3e 48 90 a5 bd e4 23 84 3d e5 33 4a 3d
       0.13322103 -0.0808416 0.06452158 0.049365897
000170 04 16 01 be c5 1d d9 3d fc 79 2a be 60 89 cb 3d
       -0.12606055 0.10601381 -0.16648096 0.099383116
000180 fb f3 ac 3d 2e 44 65 be 2a 99 d8 bd 25 8b 6a 3e
       0.08444973 -0.2238929 -0.10576089 0.22904642
000190 40 6d 1d be cc 2f 53 be 77 57 87 3d 6c 40 e8 3d
       -0.15373707 -0.20623702 0.066084795 0.113404125
0001a0 c7 b0 36 3d 3e e1 02 be 67 eb 3b 3d 07 93 b5 3d
       0.04460218 -0.12781236 0.045878794 0.08865934
0001b0 48 e9 4a be ab f0 52 bc 45 4e 27 3d fc 1b fe 3d
       -0.19815552 -0.0128747625 0.040846128 0.12407681
0001c0 2c 5d 11 be c0 d2 6d 3d 99 53 03 bd 0b 7e 5b 3e
       -0.14195698 0.058062315 -0.032062147 0.214348
0001d0 80 61 a6 3b c6 76 04 be 7c fe 03 be 7d 3b 03 bd
       0.005077541 -0.12935933 -0.12890047 -0.032039154
0001e0 40 a9 d7 bb dc f9 28 bd 06 10 ef bd 23 95 cd 3b
       -0.0065814555 -0.04125391 -0.11672978 0.006273882
0001f0 a0 6d 49 3c ea e2 ab 3d 50 38 17 3d ec ee 28 be
       0.012294203 0.0839289 0.03691894 -0.16497391
000200 47 a3 22 3e c4 8e 62 3e fe c8 14 be 87 e7 e3 3d
       0.15882598 0.22124773 -0.14529797 0.11128145
000210 98 e4 84 bd 4e 09 68 be 97 80 f1 3d 89 68 04 3e
       -0.06488913 -0.226598 0.11792105 0.12930502
000220 ab f7 85 3d be 57 ea bc a8 6c af 3a 05 a7 50 bb
       0.065413795 -0.028606292 0.0013383823 -0.0031837833
000230 4a a6 26 be 42 ab 14 3e 06 a2 b2 3d 30 06 b4 3d
       -0.16274372 0.14518455 0.0872231 0.08790243
000240 98 81 68 be dc 17 84 bd 87 db 4c 3d 1b 98 2b 3d
       -0.22705686 -0.06449863 0.050014045 0.041893106
000250 d2 09 6d be 53 c2 98 3c 44 b8 d8 3d 5e 78 72 3e
       -0.23148277 0.018647349 0.10582021 0.23678729
000260 d4 4d 65 3e e0 bb bb 3c 94 96 76 3e 23 93 e4 3c
       0.2239297 0.022916734 0.24080878 0.027902192
000270 08 b9 16 bd 96 df 42 3e 14 b4 38 3e a8 12 15 bd
       -0.036797553 0.19030604 0.18037444 -0.036394745
000280 15 8d 93 3d 34 68 5b 3e 41 91 65 be f4 72 42 be
       0.07204644 0.21426469 -0.22418691 -0.18989164
000290 e2 57 42 be 21 4f fa 3d 19 74 7c 3d a7 32 2e bd
       -0.18978837 0.12222124 0.061634157 -0.042528775
0002a0 32 6b 67 3d 3e d8 a8 3d 4e 77 9b bd 52 b0 45 3e
       0.056498714 0.0824437 -0.07591115 0.19305542
0002b0 30 a5 e7 bd 88 35 59 be 08 a5 18 bd 8a b8 4c be
       -0.11310804 -0.21211827 -0.03726676 -0.19992271
0002c0 99 d1 55 3e d0 47 1d be 7a 19 3d 3e 6f 48 2f 3e
       0.20880736 -0.15359426 0.1846675 0.17117475
0002d0 44 c6 ae 3d 75 a1 e3 3d e5 42 8d bd d7 cf 61 3c
       0.0853391 0.1111478 -0.06897525 0.013782463
0002e0 0a 3d 69 be 1b 5e 80 be e3 b4 3e 3e 85 a6 33 3e
       -0.22777191 -0.25071797 0.1862369 0.17543991
0002f0 e6 1d 20 3c 9c 4c 82 3d cb 49 3d be 40 59 3b be
       0.009772753 0.06362268 -0.18485181 -0.18295765
000300 47 60 5b be 76 ae 47 3e 6e 2f 74 3e 96 99 49 be
       -0.21423446 0.19500145 0.23846218 -0.19687495
000310 88 3c b1 bd ce 4d 08 3e 72 52 d6 3d c6 fe e4 3c
       -0.086541235 0.1331093 0.10464944 0.027953517
000320 14 0d 3d 3e 9c a6 6c be 68 df 12 3e 09 c2 35 be
       0.1846202 -0.23110431 0.14343035 -0.177498
000330 bf 89 e7 bd 70 34 89 3c 79 ab 12 3e bc 2b 79 3e
       -0.1130557 0.016748637 0.14323224 0.2433309
000340 e6 55 69 3e 34 1e db bd d5 28 62 3e b6 86 40 be
       0.22786674 -0.1069912 0.22085889 -0.18801388
000350 56 29 2a be 7c 4f 11 3e 78 6e 79 3e 99 09 3a 3c
       -0.16617331 0.14190477 0.24358547 0.011354827
000360 ee 56 05 3e 52 e3 70 3e fa 37 48 be fc 5e 0a 3e
       0.13021442 0.23524216 -0.19552603 0.13512796
000370 00 a6 a5 bd 63 8a 47 3e dc a5 d8 3d 78 0f e3 3d
       -0.080883026 0.19486384 0.1057851 0.11086935
000380 96 73 df bc 30 30 5a be 3f 6c 93 3c 92 57 88 bd
       -0.027276795 -0.21307445 0.017995952 -0.06657328
000390 e0 52 92 bc 1d a0 2c be d4 d1 2a be 49 a3 02 3e
       -0.017861784 -0.16857953 -0.16681606 0.12757601
0003a0 56 6c ff 3d 0e b9 c8 bc d2 04 33 3e 77 d1 5e 3e
       0.12471835 -0.024502303 0.17482308 0.21759592
0003b0 ff c6 f3 bd c2 f2 0d 3d ed 87 6f 3e 24 15 18 be
       -0.1190319 0.03465534 0.23391695 -0.14851815
0003c0 56 66 e1 3d 7a 9e 2c be e7 60 6d 3d 4d 9f f7 3b
       0.11005847 -0.16857329 0.05795374 0.007556832
0003d0 70 b7 4b 3d 53 5b 77 3e 33 82 4a 3e 3b 31 06 3e
       0.049735487 0.24155931 0.1977623 0.13104717
0003e0 3f 1c b4 bd da 91 5b be bf 8a 70 bd 1e 5b a4 3d
       -0.0879445 -0.21442357 -0.05872607 0.08025192
0003f0 93 67 28 3e 51 b8 25 be 60 ce 09 bd d0 df c1 bd
       0.1644576 -0.16183592 -0.03364408 -0.09466517

decoder.fc3.bias f4 [84]
000000 d4 c3 ec bd fc 7f 6f be 63 9b 26 3d c6 84 40 3e
       -0.11560789 -0.23388666 0.040675532 0.18800649
000010 6b ba 80 be 57 9e 33 be ac 91 87 3d de 82 c8 3c
       -0.25142226 -0.1754087 0.066195816 0.024476465
000020 e4 4c 48 3e 0e 3c 1b be d9 40 0f 3e 74 c6 17 bc
       0.19560581 -0.15159628 0.13989581 -0.0092636235
000030 0e ce 60 3e 26 6c 58 be 96 6a 2c 3e d9 43 75 3e
       0.21953604 -0.21135005 0.16837534 0.23951663
000040 5d 68 93 3c 26 9b 84 3e 51 2c 5b be a8 0f 3c 3e
       0.0179941 0.2589962 -0.21403624 0.18365347
000050 c6 d6 a1 3c 5a 22 81 3c c4 6e 03 be e6 4c 02 be
       0.019755732 0.01576345 -0.12835222 -0.12724647
000060 3c 43 8f bd 09 2d 77 3d 9c 31 55 3d e2 45 40 be
       -0.06995246 0.060345683 0.052049264 -0.18776658
000070 8b f1 25 3e 06 e3 31 3d fc 2b e0 bd e8 d3 40 3e
       0.16205423 0.043429397 -0.10945889 0.18830836
000080 15 4f d7 3d 0e 2e fb 3c 0d 22 f2 3d 64 0d d3 bd
       0.105131306 0.030661609 0.11822901 -0.103052884
000090 b0 e4 63 3e 1d bc e1 3d 28 96 79 3d 75 47 17 3e
       0.22255206 0.11022208 0.060934216 0.14773352
0000a0 c5 50 89 3e 81 a7 87 3e 34 fc 2d 3e b8 96 12 bd
       0.26819435 0.26494983 0.16990739 -0.035788268
0000b0 b1 8c 6f be 35 10 5c bd ab 65 0e 3e c2 09 43 3e
       -0.23393513 -0.053726394 0.13905971 0.19046691
0000c0 5c a7 1e 3e d4 6a 9c bc fc da a8 3d d7 23 bd 3d
       0.1549353 -0.019093908 0.08244893 0.092353515
0000d0 e0 e2 16 be fe 74 d4 bd f7 ed ab bd c0 4a 5a bd
       -0.14734983 -0.10373877 -0.083949976 -0.053293943
0000e0 ee b6 cc bd 53 7d 08 3e 43 ba 4b be e0 6b f4 3d
       -0.099958286 0.13329057 -0.19895272 0.11934638
0000f0 94 d1 d0 bd 54 5e 6d 3e 95 95 08 3c 30 6d 3b 3b
       -0.10196224 0.23180515 0.008336444 0.0028599016
000100 f1 88 16 be c8 26 75 be df 64 3d be 28 97 7a 3c
       -0.14700677 -0.23940575 -0.1849551 0.0152948275
000110 ce eb 6a be a6 ac 55 3b d0 56 5b 3e 3c ed 5e be
       -0.22941515 0.0032604127 0.21419835 -0.21770185
000120 2a af 81 3d 39 1c 7d 3e 6a a0 78 3d 85 55 9e 3d
       0.06332238 0.24717797 0.060699858 0.07731155
000130 7d 4c 21 3e 8d 1c 9b 3d 2c d0 4f be 64 2c 20 be
       0.15751834 0.07573805 -0.20294255 -0.15641934
000140 2e 11 79 3d f1 94 34 3c ed 0b c5 3d 6c fc f8 bc
       0.0608074 0.0110218385 0.09621415 -0.030393802
