tutorials/W1D2_ComparingTasks/RR/models/ConvNet_autoencoder_1000_epoch_8.pth (torch, 506482 bytes, 19 tensors)

encoder.conv1.weight f4 [6, 1, 5, 5]
0.1589357 -0.14678276 -0.1536614 0.20320079 0.028286459 -0.031659678 0.0015377438 -0.0785821
0.13500579 -0.054880008 0.037015274 -0.05212584 0.08403128 -0.007600115 0.0765618 0.15172155
-0.17246406 -0.035750404 -0.03707501 -0.0154301785 -0.19400863 0.05385879 -0.10806975 -0.16462758
-0.17192248 0.2238495 0.09681696 0.05047104 -0.020764986 -0.19132832 -0.09384246 0.023987686
-0.068205535 -0.12553981 -0.06778855 -0.12460256 0.2011423 0.1917466 -0.15140939 0.07574848
0.14805563 -0.13666458 0.1939039 0.06600334 0.038553145 0.23130067 -0.033865955 -0.036121517
-0.123290785 -0.014676783 0.008214018 -0.110352784 0.21664712 0.15172593 -0.1325977 -0.10204251
-0.05088108 -0.062365748 0.13001432 0.050006796 0.23633073 0.19135524 -0.09731188 0.1853585
0.16911176 -0.03589323 -0.03852714 0.043239992 -0.13639347 -0.1232574 -0.1048634 -0.03557221
-0.071142316 -0.166111 -0.17418462 0.12130455 0.02871463 0.03218981 0.09803917 -0.07558268
-0.03271316 0.20726058 0.0721509 0.049789824 0.17943816 -0.0050820867 -0.048613053 -0.12260949
-0.13465106 -0.16310525 0.015631994 -0.07039282 0.20879632 0.030654708 -0.059818935 0.22013061
-0.043014735 -0.064291105 0.21106589 0.017891977 -0.028225683 0.17630158 0.011866963 0.06825365
0.22175002 0.078703254 0.019138064 -0.098730095 0.037333228 -0.13743941 -0.16119407 0.23042198
0.17653508 -0.10409078 0.21921518 0.10270881 -0.027888285 -0.07841566 -0.05644393 0.12917404
0.15742765 -0.057193633 0.004212864 0.21132112 0.04622788 -0.09986512 -0.13770336 0.10510127
-0.1253632 -0.0015484625 -0.19264275 -0.15778175 0.06225684 -0.075995035 0.01780576 0.12057467
0.15494612 0.0059859506 -0.20585793 0.051669862 -0.1026714 -0.10376151 -0.20511076 0.15794995
0.010866399 -0.07471622 -0.031959467 -0.01909492 -0.14913084 -0.16808525
00000000: 0ac0 223e 384e 16be 6a59 1dbe de13 503e
00000010: 01b9 e73c 94ad 01bd 1f8e c93a a7ef a0bd
00000020: f53e 0a3e dcc9 60bd 549d 173d e881 55bd
00000030: 9718 ac3d 630a f9bb 6fcc 9c3d e55c 1b3e
00000040: 6b9a 30be 046f 12bd f7db 17bd dcce 7cbc
00000050: 33aa 46be 099b 5c3d ac53 ddbd 2294 28be
00000060: 720c 30be ce38 653e f847 c63d b9ba 4e3d
00000070: 551b aabc 92eb 43be 7a30 c0bd d381 c43c
00000080: 58af 8bbd 828d 00be b9d4 8abd a12f ffbd
00000090: 3ff8 4d3e 3959 443e 100b 1bbe 0522 9b3d
000000a0: e59b 173e cdf1 0bbe be8e 463e c22c 873d
000000b0: e7e9 1d3d 15da 6c3e 07b7 0abd 28f4 13bd
000000c0: e17f fcbd e476 70bc 1794 063c a400 e2bd
000000d0: bed8 5d3e 0b5e 1b3e b1c7 07be aafb d0bd
000000e0: ae68 50bd 3a73 7fbd 7922 053e edd3 4c3d
000000f0: af00 723e a1f2 433e 734b c7bd 9ece 3d3e
00000100: a22b 2d3e c804 13bd a2ce 1dbd 6b1c 313d
00000110: bbaa 0bbe 606e fcbd 9fc2 d6bd 2ab4 11bd
00000120: 10b3 91bd 0119 2abe 745d 32be 856e f83d
00000130: f23a eb3c 76d9 033d c3c8 c83d 18cb 9abd
00000140: 3cfe 05bd 1e3c 543e dac3 933d 6af0 4b3d
00000150: a3be 373e a287 a6bb 7b1e 47bd af1a fbbd
00000160: f8e1 09be 1005 27be ab0e 803c 1c2a 90bd
00000170: b4ce 553e 951f fb3c b304 75bd eb69 613e
00000180: 3830 30bd 0eab 83bd a821 583e 3292 923c
00000190: 8c39 e7bc 6788 343e a66d 423c 92c8 8b3d
000001a0: 7012 633e 2c2f a13d 6ec7 9c3c 0133 cabd
000001b0: baea 183d ebbc 0cbe 0f10 25be bdf3 6b3e
000001c0: 9dc5 343e 8c2d d5bd f279 603e ff58 d23d
000001d0: f975 e4bc 6498 a0bd c031 67bd 3346 043e
000001e0: b734 213e df43 6abd 110c 8a3b 9064 583e
000001f0: 7259 3d3d 1686 ccbd 1c02 0dbe 563f d73d
00000200: 365f 00be c8f5 caba 2444 45be 8a91 21be
00000210: 0701 7f3d 49a3 9bbd 63dd 913c daef f63d
00000220: 32aa 1e3e cb25 c43b 6ccc 52be c7a3 533d
00000230: 6245 d2bd ea80 d4bd 8e08 52be a2bd 213e
00000240: fb08 323c d104 99bd eee7 02bd f36c 9cbc
00000250: c1b5 18be 8a1e 2cbe

encoder.conv1.bias f4 [6]
-0.095797256 0.14338212 -0.12193133 -0.02028413 -0.132531 -0.009815008
00000000: 5a31 c4bd c3d2 123e 22b7 f9bd e72a a6bc
00000010: 35b6 07be 21cf 20bc

encoder.conv2.weight f4 [16, 6, 5, 5]
-0.059533644 -0.010859423 0.06299995 -0.015950078 -0.04828584 0.040003162 -0.053627092 0.005495343
-0.002743502 -0.04349047 -0.056114353 -0.0813339 0.040222425 -0.029904597 0.02108378 -0.076119065
-0.028171994 0.035791777 0.09086487 -0.06793997 0.044236086 0.07042481 0.0014588907 0.07389992
0.041124143 -0.04796609 -0.06320701 -0.039675284 -0.027856274 0.059206847 0.042704586 -0.057285603
0.014887914 0.02465701 0.03832348 0.018600104 0.02466055 -0.04276558 -0.037787553 0.07735825
0.035351448 -0.0028136016 0.027560677 0.07279418 -0.05936365 -0.026091546 0.031362213 0.085376166
0.010677548 -0.063253395 0.090543024 0.012071228 0.021769585 -0.06789007 -0.03485955 -0.020856889
0.029621 -0.0624649 0.07206685 -0.006683137 0.017808719 0.05263687 0.081703365 -0.05403661
-0.0008673208 -0.016995905 -0.06692123 0.036434412 -0.03571525 0.031434007 -0.016884707 0.07903229
-0.013278934 0.033074543 0.07378042 -0.036738683 0.076702036 -0.007861022 -0.0017744909 -0.0074194195
-0.062410355 -0.00095700053 0.05072895 0.006157483 0.05879397 -0.032382052 0.03758531 -0.04325345
0.04419893 0.08797049 0.06257202 0.074499674 0.061030645 0.078059934 0.04517046 -0.0034164828
-0.007479508 -0.050564297 -0.002797179 0.033972044 0.010314093 0.08081137 -0.029051092 0.120347865
0.11454118 -0.026244456 -0.018182792 0.11570343 0.06804882 0.107867755 0.07380989 0.10491006
-0.015631076 -0.032180496 0.0031863428 -0.02297935 -0.023486726 -0.024202917 -0.00019856694 0.071173
0.006928283 0.104210004 0.06257295 0.030471873 -0.031775963 -0.0038629696 -0.051467694 -0.042123854
-0.06824778 0.033866033 -0.07894618 0.033167213 -0.035041496 -0.05277157 0.03358369 0.061082374
-0.06881017 -0.06984597 0.034737185 0.06922224 -0.007973793 -0.09094086 -0.016152272 -0.055207342
0.016715012 -0.0077838977 0.0147073185 -0.08074672 -0.008244242 0.02737279 -0.048196223 -0.062183037
-0.0047116694 -0.016666459 -0.03926433 0.08522241 -0.0115790265 0.03996675 0.011654236 0.049101394
0.042199142 0.024128236 -0.016508928 0.08704299 -0.0016671576 0.02647063 0.061506804 0.0759139
0.075992525 0.06445131 -0.051279277 0.06646513 0.014454118 0.017621757 -0.05212661 0.07404297
0.074331515 0.08162945 0.0023070273 -0.0033705248 0.06640968 0.02966908 -0.008575728 0.07348228
0.055091217 -0.07214704 0.02324049 0.07375988 -0.005234004 0.056488305 -0.051273324 -0.052898254
-0.042509377 0.104903415 0.045374792 -0.09614747 0.021771537 0.085362025 -0.03319234 -0.0150334835
-0.002074698 -0.046269532 0.078767486 0.043117687 0.050651122 0.09557395 0.009877081 -0.045890354
-0.0028547808 0.06712205 0.090810336 -0.018634899 0.033356216 -0.0021998584 0.082424134 0.089082286
0.07665899 -0.012129034 -0.0048689074 0.04830948 0.022551037 -0.06315218 0.064860545 0.058972448
0.014337451 0.11234046 0.049498625 0.008343162 0.018543398 -0.048163485 -0.03788532 0.015714206
-0.01947943 -0.044311494 0.025729734 -0.041736003 -0.0066847783 0.05320713 0.06038253 0.059041884
-0.061572555 -0.057295505 -0.0067776255 0.01848566 0.046932414 -0.07568917 -0.0633153 0.011246637
0.05665335 -0.07195052 0.05766607 -0.042988777 0.0014965078 0.0463867 0.0028062013 -0.033322766
00000000: 8dd9 73bd b9eb 31bc 1e06 813d bda9 82bc
00000010: 5fc7 45bd 5bda 233d 15a8 5bbd 4712 b43b
00000020: 53cc 33bb 1023 32bd 2ad8 65bd 6392 a6bd
00000030: 45c0 243d 7cfa f4bc e4b7 ac3c 50e4 9bbd
00000040: f4c8 e6bc 669a 123d 5c17 ba3d 1c24 8bbd
00000050: e630 353d e23a 903d 4038 bf3a d758 973d
00000060: ca71 283d 1778 44bd ad72 81bd 8d82 22bd
00000070: d732 e4bc e182 723d 01eb 2e3d 4fa4 6abd
00000080: 70ec 733c 7ffd c93c 15f9 1c3d 3f5f 983c
00000090: ec04 ca3c f62a 2fbd 1fc7 1abd 016e 9e3d
000000a0: aecc 103d 6764 38bb eec6 e13c 1d15 953d
000000b0: 4c27 73bd f0bd d5bc aa75 003d b3d9 ae3d
000000c0: e2f0 2e3c ff8a 81bd 9f6e b93d 66c6 453c
000000d0: 2156 b23c f309 8bbd e3c8 0ebd 11dc aabc
000000e0: bda7 f23c 32db 7fbd c997 933d 37fe dabb
000000f0: 97e3 913c c299 573d 1854 a73d 7e55 5dbd
00000100: ea5c 63ba ff3a 8bbc ff0d 89bd 403c 153d
00000110: 274a 12bd f2c0 003d cc51 8abc aedb a13d
00000120: e38f 59bc 2c79 073d 301a 973d 4d7b 16bd
00000130: f515 9d3d 84cb 00bc 0996 e8ba 9a1e f3bb
00000140: 00a2 7fbd 38df 7aba 29c9 4f3d b6c4 c93b
00000150: f2d1 703d 0ba3 04bd 0ef3 193d 882a 31bd
00000160: f009 353d df29 b43d c225 803d 4993 983d
00000170: 45fb 793d e3dd 9f3d a904 393d 12e7 5fbb
00000180: a916 f5bb 821c 4fbd e050 37bb 4526 0b3d
00000190: 71fc 283c 6e80 a53d 8efc edbc f178 f63d
000001a0: 9194 ea3d 9dfe d6bc 14f4 94bc ebf5 ec3d
000001b0: 2e5d 8b3d c5e9 dc3d a429 973d 16db d63d
000001c0: be0c 80bc b2cf 03bd f6d1 503b 313f bcbc
000001d0: 3c67 c0bc 3245 c6bc 6836 50b9 26c3 913d
000001e0: a606 e33b 0e6c d53d 3f26 803d 26a0 f93c
000001f0: 8327 02bd e029 7dbb cacf 52bd 108a 2cbd
00000200: 7ec5 8bbd 1cb7 0a3d 89ae a1bd 58da 073d
00000210: ac87 0fbd 0027 58bd 0d8f 093d 8331 7a3d
00000220: 59ec 8cbd 670b 8fbd 9448 0e3d 64c4 8d3d
00000230: 83a4 02bc 343f babd c551 84bc 1821 62bd
00000240: eced 883c 1110 ffbb f7f6 703c 895e a5bd
00000250: db12 07bc e73c e03c 6769 45bd a4b3 7ebd
00000260: 5964 9abb 1988 88bc a2d3 20bd 1689 ae3d
00000270: f5b5 3dbc 2db4 233d 69f1 3e3c 8b1e 493d
00000280: 02d9 2c3d 94a8 c53c bb3d 87bc 9843 b23d
00000290: 8784 daba efd8 d83c 8fee 7b3d bf78 9b3d
000002a0: f8a1 9b3d 0cff 833d 380a 52bd df1e 883d
000002b0: f7d0 6c3c 815b 903c b682 55bd d7a3 973d
000002c0: 1f3b 983d 572d a73d 7f31 173b 06e4 5cbb
000002d0: cc01 883d 920c f33c 3681 0cbc e17d 963d
000002e0: 54a7 613d d4c1 93bd d762 be3c 6c0f 973d
000002f0: 0282 abbb 4860 673d fa03 52bd d7ab 58bd
00000300: 501e 2ebd 9ad7 d63d ebda 393d f7e8 c4bd
00000310: 395a b23c 49d2 ae3d b1f4 07bd 004f 76bc
00000320: a8f7 07bb 1f85 3dbd d950 a13d 2c9c 303d
00000330: 8d77 4f3d 46bc c33d 7bd3 213c 86f7 3bbd
00000340: 4617 3bbb 4977 893d c5fa b93d 37a8 98bc
00000350: 87a0 083d 802b 10bb fccd a83d c670 b63d
00000360: 63ff 9c3d dbb8 46bc 5b8b 9fbb 29e0 453d
00000370: f4bc b83c ee55 81bd 9bd5 843d 188d 713d
00000380: a1e7 6a3c c112 e63d 12bf 4a3d c2b1 083c
00000390: 53e8 973c 1347 45bd a32d 1bbd 14bb 803c
000003a0: 5393 9fbc f87f 35bd 2ac7 d23c 5ff3 2abd
000003b0: fc0b dbbb b8ef 593d ac53 773d e7d5 713d
000003c0: 8133 7cbd b1ae 6abd d816 debb 3d6f 973c
000003d0: 343c 403d ec02 9bbd 74ab 81bd d143 383c
000003e0: 580d 683d cb5a 93bd 4233 6c3d 0015 30bd
000003f0: 7826 c43a fbff 3d3d 3fe8 373b 747d 08bd

encoder.conv2.bias f4 [16]
0.067775115 -0.029164176 -0.04548737 0.07280491 -0.068885274 0.030708456 0.08201956 0.05200305
0.029937686 -0.010038601 -0.021453097 0.034601353 -0.016589442 -0.04044092 -0.013626804 0.0022391342
00000000: aecd 8a3d b6e9 eebc f750 3abd be1a 953d
00000010: b913 8dbd 4d90 fb3c dff9 a73d 2601 553d
00000020: e13f f53c f278 24bc 68be afbc 26ba 0d3d
00000030: 95e6 87bc 61a5 25bd f542 5fbc 70be 123b

encoder.fc1.weight f4 [120, 400]
-0.0007940554 -0.02371675 0.0034635265 -0.04777304 0.024203286 -0.04134432 -0.0031503916 -0.022808759
-0.0046397042 0.030943623 -0.017874693 0.017421274 -0.041765597 0.025581254 -0.05325169 -0.046926416
-0.030387094 -0.03768842 0.007803328 0.0018587507 -0.050608158 -0.037126675 0.026433874 -0.0053331773
0.016028853 0.008761322 0.025940493 -0.025486398 0.021808187 0.038801976 0.014310985 0.022914136
-0.009548387 0.045334447 0.0151943825 0.019337544 0.041179348 0.024055932 0.0210978 0.00079155853
-0.038799345 0.004728739 0.041409284 0.041009728 -0.0006394956 0.0035153178 0.012862881 -0.0338485
0.00010199703 0.0150897 0.03894714 0.008530635 -0.023606211 -0.024774887 -0.044948395 -0.018619083
-0.044010676 0.039471216 -0.0064873034 0.0044649774 -0.0056891087 0.046037845 -0.04244152 0.021525456
0.040591426 -0.026820198 0.025714168 -0.04135041 0.029403621 0.03347433 -0.04455788 -0.044565644
0.027753098 -0.045538694 -0.019693822 0.03442618 0.037191436 -0.046502028 0.004844524 0.005440221
-0.047331292 -0.019118361 -0.025571076 0.00890207 -0.05251034 0.04733061 -0.036910683 0.037908576
-0.038851652 0.041884482 -0.020951968 -0.039894044 0.010535645 -0.04749802 0.04170629 0.0053381952
0.03132364 0.00020564257 -0.050945684 -0.0017976165 0.02416659 0.02144649 0.013166837 0.019131238
0.049503274 -0.0029639066 0.045650627 -0.02080551 0.046521433 -0.03623959 0.035675436 0.021063382
-0.024494473 0.005103743 -0.003830427 -0.026621735 -0.0054734587 0.025256133 0.009114889 0.033988703
0.030848717 -0.049151253 0.0025860013 -0.0058404803 -0.018769164 0.04772711 0.004246241 -0.009513033
-0.032939937 0.021534223 -0.03087672 0.032257244 0.011661095 -0.043296427 0.017304027 -0.020930951
-0.023902224 -0.013704161 -0.045494184 -0.023400461 -0.001457402 0.038771316 0.0092086755 -0.017549977
0.049153663 0.037749767 -0.012146188 0.025226789 0.04322305 -0.017727813 0.029348372 0.006346993
-0.009733899 0.010327915 0.010360464 0.0027653023 0.021970334 0.028005613 0.02145449 -0.010425522
0.034373187 0.016173732 -0.014727339 -0.027837403 -0.011304112 -0.038485255 0.010986661 0.027560102
-0.039839257 0.046751406 0.018543715 -0.04921277 0.0031190081 0.036443014 -0.044079453 0.035322424
-0.04505349 -0.052887455 0.04385705 0.03339899 0.021072647 0.0020482813 0.015037338 -0.02049976
-0.053192593 -0.049226675 -0.03344538 0.03458869 -0.045635894 -0.052886058 -0.025907911 -0.053915657
-0.02803682 0.009727128 -0.03471434 -0.043524195 0.010381751 0.008303323 -0.03202791 -0.029087352
-0.038972687 0.008352679 -0.0038824007 -0.010751644 -0.03184622 0.015077408 -0.039509647 0.029769942
0.033000115 0.02243528 0.0030048173 0.036604017 0.0064214123 -0.022431616 -0.007826915 -0.046247095
-0.04202053 -0.007972645 -0.0047102165 -0.047740895 -0.02508183 0.0039211987 0.020768128 -0.0018913698
-0.020672495 -0.025118316 0.03200591 0.0035954127 -0.00036020135 -0.014351527 -0.000937782 -0.05583332
-0.045207985 -0.055231355 0.022714876 -0.03488207 0.030620772 0.01039967 -0.015529629 -0.05146013
0.0059028934 0.026986599 0.02542377 -0.014179088 -0.035569973 -0.046466257 -0.01964831 0.041940182
0.037603315 -0.039372217 0.027500466 0.002157346 -0.011423961 -0.052045908 -0.022607455 0.038111083
00000000: 2828 50ba a149 c2bc 55fc 623b aaad 43bd
00000010: f845 c63c a958 29bd cd76 4ebb 6fd9 babc
00000020: a908 98bb 7b7d fd3c f36d 92bc 0fb7 8e3c
00000030: 6712 2bbd c78f d13c 721e 5abd ea35 40bd
00000040: 5bee f8bc 2c5f 1abd 0fb3 ff3b 53a1 f33a
00000050: 804a 4fbd 2412 18bd da8b d83c efc1 aebb
00000060: f14e 833c a68b 0f3c 2881 d43c dac8 d0bc
00000070: 15a7 b23c d2ee 1e3d 9f78 6a3c 6db6 bb3c
00000080: d670 1cbc 9db0 393d dcf1 783c c569 9e3c
00000090: adab 283d f210 c53c 4bd5 ac3c 9880 4f3a
000000a0: 10ec 1ebd 8af3 9a3b c89c 293d d1f9 273d
000000b0: d3a3 27ba 3f61 663b d5be 523c baa4 0abd
000000c0: 3de7 d538 ca3a 773c 0987 1f3d 14c4 0b3c
000000d0: d061 c1bc b4f4 cabc cf1b 38bd 0c87 98bc
000000e0: 8a44 34bd 92ac 213d 7293 d4bb f24e 923b
000000f0: b46b babb 2e92 3c3d 29d7 2dbd 2756 b03c
00000100: 3243 263d 08b6 dbbc 85a6 d23c 0c5f 29bd
00000110: dddf f03c 611c 093d 5382 36bd 778a 36bd
00000120: 775a e33c c886 3abd f054 a1bc 7702 0d3d
00000130: 0c56 183d e978 3ebd d0be 9e3b e243 b23b
00000140: 75de 41bd 1c9e 9cbc 6f7a d1bc fdd9 113c
00000150: 1515 57bd bedd 413d a82f 17bd 0646 1b3d
00000160: e922 1fbd 108f 2b3d 76a3 abbc f067 23bd
00000170: b39d 2c3c 498d 42bd 37d4 2a3d 07ec ae3b
00000180: 384d 003d c2a1 5739 6cac 50bd 009e ebba
00000190: 03f9 c53c 8db0 af3c b8b9 573c 1db9 9c3c
000001a0: f2c3 4a3d 1a3e 42bb 27fc 3a3d 5170 aabc
000001b0: 428d 3e3d f76f 14bd 6820 123d 1d8d ac3c
000001c0: a2a8 c8bc 4d3d a73b e707 7bbb d315 dabc
000001d0: b35a b3bb f3e5 ce3c 9e56 153c bd37 0b3d
000001e0: 73b6 fc3c d352 49bd e779 293b 8061 bfbb
000001f0: cac1 99bc 817d 433d 0d24 8b3b 8ddc 1bbc
00000200: 07ec 06bd 8a68 b03c 2df1 fcbc 2c20 043d
00000210: 2d0e 3f3c 9857 31bd 2dc1 8d3c 6377 abbc
00000220: 99ce c3bc 6b87 60bc 1c58 3abd 53b2 bfbc
00000230: 4c06 bfba acce 1e3d fcdf 163c f8c4 8fbc
00000240: 5a55 493d 809f 1a3d ce00 47bc 69a8 ce3c
00000250: a70a 313d eb39 91bc ff6b f03c 70fa cf3b
00000260: ee7a 1fbc 6a36 293c f0be 293c 133a 353b
00000270: 21fb b33c 076c e53c 54c1 af3c cfcf 2abc
00000280: e6ca 0c3d c67e 843c f04a 71bc 440b e4bc
00000290: e234 39bc b7a2 1dbd 6501 343c b9c5 e13c
000002a0: 7d2e 23bd 677e 3f3d fde8 973c 5493 49bd
000002b0: 4668 4c3b 4545 153d a88c 34bd 3fae 103d
000002c0: 028a 38bd 84a0 58bd 73a3 333d 61cd 083d
000002d0: 8ba0 ac3c 753c 063b 2b5f 763c 1def a7bc
000002e0: 7ae0 59bd e9a1 49bd 06fe 08bd dfac 0d3d
000002f0: b4ec 3abd 0d9f 58bd d43c d4bc aad6 5cbd
00000300: 79ad e5bc 885e 1f3c a030 0ebd 6d46 32bd
00000310: 3818 2a3c a90a 083c b32f 03bd 9948 eebc
00000320: d3a1 1fbd add9 083c e06f 7ebb aa27 30bc
00000330: 2f71 02bd 3c07 773c ded4 21bd 18e0 f33c
00000340: 212b 073d 31ca b73c 78ec 443b 18ee 153d
00000350: b66a d23b 82c2 b7bc 763c 00bc 986d 3dbd
00000360: b81d 2cbd b29f 02bc 2958 9abb f58b 43bd
00000370: 6978 cdbc 667d 803b ec21 aa3c d7e7 f7ba
00000380: 5d59 a9bc edc4 cdbc a118 033d 04a1 6b3b
00000390: 68d9 bcb9 ab22 6bbc 7cd5 75ba 7bb1 64bd
000003a0: 022c 39bd 463a 62bd 8c14 ba3c 80e0 0ebd
000003b0: 6ad8 fa3c 6163 2a3c fc6f 7ebc dbc7 52bd
000003c0: 0f6d c13b 0013 dd3c 8345 d03c 684f 68bc
000003d0: d2b1 11bd 6753 3ebd 7ef5 a0bc 78c9 2b3d
000003e0: ef05 1a3d c344 21bd a848 e13c 4362 0d3b
000003f0: 912b 3bbc 172e 55bd 4533 b9bc 5e1a 1c3d

encoder.fc1.bias f4 [120]
0.030783322 -0.018501062 -0.023395162 -0.051669657 0.03890223 0.04861397 0.013147161 -0.055345528
0.017084174 0.043614335 0.040472347 0.028710674 0.016853383 -0.042390477 0.010356404 -0.036872376
0.057254467 -0.005476477 -0.02453387 0.029700037 0.03412305 0.08208269 0.03032205 -0.035786413
-0.041659694 -0.046391863 -0.041315317 0.03675299 0.04011142 -0.044455208 -0.023392705 -0.050351698
0.035166 -0.029733801 -0.015912116 0.027104016 -0.03259118 0.01591339 -0.014694977 -0.011671998
0.033194076 0.03561096 0.04195452 -0.013400582 0.008614135 -0.019850517 0.034242477 0.011294599
-0.022730311 0.024718858 0.007144041 -0.045571726 -0.009889673 -0.042694364 -0.04690727 0.029843628
0.03911093 0.004783658 0.006750337 -0.00071771274 0.007695722 0.0271167 0.031399302 -0.030496819
0.043499306 0.05221129 -0.016433146 -0.022607243 0.004325911 0.010956686 -0.05289915 0.023066036
-0.002542631 -0.038335785 -0.0050045233 0.0015365992 -0.037230734 -0.044984683 -0.036092144 0.033663925
0.009507423 0.030542733 -0.004315528 0.006440613 0.017371409 0.010279407 -0.071185336 0.026787294
0.04526431 -0.019195646 -0.03673466 0.014482652 -0.046596903 0.032910287 -0.030057978 -0.023528853
-0.027172986 -0.0023342185 0.009580454 0.0035517942 -0.02159044 0.011652725 -0.03279105 -0.0016931496
0.032801073 0.020766476 0.015741998 -0.005378265 -0.0066639883 0.012475423 0.028191349 -0.04307375
-0.016579887 -0.029357996 0.005971564 0.050078474 0.012754775 0.016264983 -0.027713887 0.033511814
00000000: 4e2d fc3c 8a8f 97bc 36a7 bfbc 90a3 53bd
00000010: f257 1f3d 711f 473d 3167 573c feb1 62bd
00000020: 1cf4 8b3c f2a4 323d 55c6 253d a632 eb3c
00000030: 1b10 8a3c a3a1 2dbd e8ad 293c 7d07 17bd
00000040: a983 6a3d 0574 b3bb 41fb c8bc 7e4d f33c
00000050: 9cc4 0b3d f81a a83d f365 f83c c694 12bd
00000060: 5ba3 2abd 6505 3ebd 403a 29bd 4e8a 163d
00000070: df4b 243d aa16 36bd 0fa2 bfbc 953d 4ebd
00000080: 390a 103d 4d94 f3bc 205a 82bc 3e09 de3c
00000090: 547e 05bd cc5c 823c 33c3 70bc e83b 3fbc
000000a0: 83f6 073d ccdc 113d 81d8 2b3d 1d8e 5bbc
000000b0: 4d22 0d3c 8d9d a2bc d741 0c3d fb0c 393c
000000c0: eb34 babc 347f ca3c 8f18 ea3b 6ba9 3abd
000000d0: 4c08 22bc 49e0 2ebd d621 40bd a07a f43c
000000e0: c832 203d 3bc0 9c3b ee31 dd3b e324 3cba
000000f0: 652c fc3b d723 de3c 8e9c 003d 77d4 f9bc
00000100: 542c 323d 81db 553d ce9e 86bc d332 b9bc
00000110: 5fc0 8d3b ac83 333c c7ac 58bd fcf4 bc3c
00000120: 45a2 26bb fc05 1dbd fcfc a3bb b767 c93a
00000130: 417f 18bd dc41 38bd 5bd5 13bd 2fe3 093d
00000140: 06c5 1b3c c134 fa3c 4669 8dbb c70b d33b
00000150: 7c4e 8e3c f56a 283c 9ec9 91bd 0771 db3c
00000160: 1267 393d 3040 9dbc 1577 16bd a548 6d3c
00000170: 65dc 3ebd f0cc 063d 263c f6bc 95bf c0bc
00000180: e299 debc b0f9 18bb 56f7 1c3c 38c5 683b
00000190: 6fde b0bc 12eb 3e3c e84f 06bd acec ddba
000001a0: 6b5a 063d 751e aa3c 5df5 803c 283c b0bb
000001b0: 965d dabb b765 4c3c 8bf1 e63c 1a6e 30bd
000001c0: 8bd2 87bc 2e80 f0bc 1cad c33b 161f 4d3d
000001d0: 67f9 503c 243e 853c 3c08 e3bc af43 093d

encoder.fc2.weight f4 [84, 120]
-0.049481723 -0.030779826 -0.06713652 0.030788705 0.033438306 0.054040063 -0.030592915 -0.064137295
-0.06551567 0.08649598 -0.064001955 -0.06310115 -0.03433999 -0.035784725 0.064194724 -0.062007006
-0.10901601 -0.08039814 -0.07874345 0.05069714 0.016627656 0.0841306 -0.016600575 0.041076217
0.009961162 0.0101372255 -0.03785109 0.0781499 -0.059573647 -0.08513878 -0.06013253 0.0657086
-0.07573137 0.050587818 0.041518882 0.011671908 0.0081161335 0.025674494 0.035651337 -0.018765418
0.03797185 0.07354865 -0.022855364 0.032612868 -0.034073964 -0.046702806 -0.047738846 0.016539719
-0.017718663 -0.037548356 0.040931966 -0.08235917 -0.06086777 0.045040015 0.07424844 -0.086325765
0.012270293 -0.03710055 -0.06291041 -0.06932201 0.08582686 0.052406278 0.06299456 0.0650904
0.07069365 -0.049916692 -0.087661795 0.016245794 -0.08445729 -0.0530209 -0.07490731 0.07366583
0.11762124 0.041259144 0.015822059 -0.04335639 0.022175355 -0.02575088 0.031266358 0.03161089
-0.046740238 -0.06447833 -0.04714037 0.036507532 0.064320646 0.088963784 0.043184202 0.06561095
0.070165716 0.0036369746 -0.049354803 0.0073290644 0.07862811 0.011085282 -0.035606623 0.01384442
0.0625265 0.052811425 -0.017548248 -0.034914825 0.08817074 0.08914772 0.08170126 0.09035296
0.02734809 0.088019036 0.07595904 -0.0087251 -0.051403824 0.09108824 0.07464121 0.06800392
0.09122313 -0.08554928 0.016024167 -0.014629559 -0.036358695 0.06989065 -0.03197795 0.045988034
-0.011774845 -0.021712212 0.039767448 0.068562254 -0.05317195 0.028530296 -0.051383186 0.09247447
0.0169605 -0.063866906 -0.011573696 -0.05726438 -0.0026864375 -0.07248287 -0.10171145 0.045274142
-0.0012992334 0.019523913 0.05473389 0.071491905 0.031927034 -0.0026842314 0.06499999 0.029191561
-0.061273962 -0.035422094 -0.09927551 -0.07956425 0.016263653 0.0007352606 -0.05555265 0.0707993
0.06701034 -0.03678526 -0.050759394 0.03974803 -0.017502211 -0.024187552 -0.0031699676 -0.077456914
0.050992902 0.028041903 -0.09079583 -0.009352669 -0.065013595 0.059655853 -0.09298964 -0.06709307
-0.007805316 0.028180074 0.054434918 -0.072879344 0.021825433 0.0761805 -0.026435709 -0.09299635
-0.08610093 0.061073344 -0.08687802 0.07850575 0.007239792 -0.05121569 0.014277842 0.015238462
0.06738083 -0.048491802 0.057643794 -0.09577466 0.024514984 -0.06651496 0.04572688 0.04772474
0.0039958656 0.09060918 -0.025313621 -0.081682764 -0.0445247 0.033748895 0.03471955 0.06882911
0.01913594 0.053633437 0.050583307 0.028642144 -0.017998727 0.0794184 0.0012190432 -0.08419032
0.023399573 0.018890142 0.011734832 -0.0121587375 0.06571393 0.055207286 0.07771752 -0.049989857
-0.032999177 -0.031543437 -0.035646413 -0.07224934 -0.06584918 -0.054750226 -0.05344894 0.07258051
0.052560683 0.035291098 0.015633633 0.051414248 -0.07338228 -0.021807006 0.00046625486 0.014722611
-0.05106169 -0.040539697 0.027260903 0.0031740032 0.051070534 -0.10308738 0.013140902 -0.019756798
0.01614346 0.07436391 0.039261907 -0.021808373 0.075194746 -0.006650409 -0.04993238 -0.0022954019
-0.071849726 -0.07192202 0.0010171004 -0.03803862 0.03429979 -0.0035644227 -0.012952371 -0.05353132
00000000: 59ad 4abd f925 fcbc df7e 89bd 9838 fc3c
00000010: 9bf6 083d 1d59 5d3d fe9d fabc 6a5a 83bd
00000020: 142d 86bd ce24 b13d 7513 83bd 2d3b 81bd
00000030: 17a8 0cbd 0193 12bd 8678 833d 0ffb 7dbd
00000040: c943 dfbd c8a7 a4bd 3f44 a1bd cea7 4f3d
00000050: b936 883c aa4c ac3d eefd 87bc 893f 283d
00000060: 2434 233c 9b16 263c bf09 1bbd 0e0d a03d
00000070: 7f03 74bd 3e5d aebd 874d 76bd 3b92 863d
00000080: 0c19 9bbd 2c35 4f3d b40f 2a3d 883b 3f3c
00000090: 88f9 043c 5153 d23c 2307 123d efb9 99bc
000000a0: 5f88 1b3d ada0 963d 2c3b bbbc 1295 053d
000000b0: 2491 0bbd 714b 3fbd cf89 43bd 4e7e 873c
000000c0: bb26 91bc 4ecc 19bd 47a8 273d edab a8bd
000000d0: 7c50 79bd e17b 383d 910f 983d 90cb b0bd
000000e0: 5709 493c bff6 17bd 2cd7 80bd b3f8 8dbd
000000f0: fec5 af3d f7a7 563d 4b03 813d 1e4e 853d
00000100: d5c7 903d 7275 4cbd 0788 b3bd e615 853c
00000110: f2f7 acbd 712c 59bd 0169 99bd 1cde 963d
00000120: 68e3 f03d 59ff 283d 439d 813c 7896 31bd
00000130: 17a9 b53c 82f3 d2bc 2711 003d 6c7a 013d
00000140: b172 3fbd 370d 84bd 4316 41bd ec88 153d
00000150: 8bba 833d a532 b63d ebe1 303d 095f 863d
00000160: 0bb3 8f3d 4f5a 6e3b 4328 4abd a628 f03b
00000170: c607 a13d 0b9f 353c 40d8 11bd b5d3 623c
00000180: e50d 803d cb50 583d 58c1 8fbc d902 0fbd
00000190: dc92 b43d 1493 b63d fd52 a73d f90a b93d
000001a0: 1a09 e03c 5343 b43d 6a90 9b3d b9f3 0ebc
000001b0: d18c 52bd 798c ba3d 7edd 983d a445 8b3d
000001c0: 31d3 ba3d 7634 afbd 1d45 833c d1b0 6fbc
000001d0: dbec 14bd d422 8f3d 50fb 02bd f35d 3c3d
000001e0: 48eb 40bc cfdd b1bc 31e3 223d 5e6a 8c3d
000001f0: d5ca 59bd 5eb8 e93c 2d77 52bd 4163 bd3d
00000200: bff0 8a3c a7cc 82bd 999f 3dbc 0e8e 6abd
00000210: f10e 30bb e671 94bd 184e d0bd 6171 393d
00000220: 0a4b aaba 9df0 9f3c a530 603d 596a 923d
00000230: ecc5 023d eee9 2fbb b71e 853d 2423 ef3c
00000240: 68fa 7abd c216 11bd f550 cbbd 95f2 a2bd
00000250: 5a3b 853c 81be 403a 2d8b 63bd 39ff 903d
00000260: b83c 893d 24ac 16bd 15e9 4fbd d5ce 223d
00000270: cc60 8fbc f924 c6bc 3bbf 4fbb bba1 9ebd
00000280: efdd 503d 22b8 e53c 2af3 b9bd f03b 19bc
00000290: d925 85bd b259 743d 5a71 bebd 1768 89bd
000002a0: bcc3 ffbb e6d9 e63c 26f7 5e3d c441 95bd
000002b0: 40cb b23c 8604 9c3d b38f d8bc df74 bebd
000002c0: af55 b0bd 0b28 7a3d 1aed b1bd 9fc7 a03d
000002d0: c73b ed3b 8bc7 51bd 9ced 693c beaa 793c
000002e0: f6fe 893d 579f 46bd e61b 6c3d 8125 c4bd
000002f0: a6d3 c83c ff38 88bd 1c4c 3b3d 047b 433d
00000300: c0ef 823b 4e91 b93d 835e cfbc 4b49 a7bd
00000310: 885f 36bd 483c 0a3d 1636 0e3d 47f6 8c3d
00000320: fac2 9c3c bcae 5b3d 7130 4f3d eea2 ea3c
00000330: 1172 93bc 1da6 a23d 4dc8 9f3a f96b acbd
00000340: 76b0 bf3c 80bf 9a3c 7443 403c 7135 47bc
00000350: 0695 863d 0921 623d 5d2a 9f3d 2ac2 4cbd
00000360: 252a 07bd b133 01bd f901 12bd 76f7 93bd
00000370: efdb 86bd c641 60bd 47ed 5abd 17a5 943d
00000380: df49 573d 668d 103d 1b12 803c bf97 523d
00000390: 7349 96bd 9ba4 b2bc ab73 f439 1b37 713c
000003a0: 1026 51bd f40c 26bd 4252 df3c f002 503b
000003b0: 562f 513d 7a1f d3bd f04c 573c 02d9 a1bc
000003c0: 4a3f 843c 1b4c 983d 18d1 203d 79a7 b2bc
000003d0: b4ff 993d adeb d9bb e585 4cbd 746e 16bb
000003e0: f325 93bd da4b 93bd 3a50 853a 62ce 1bbd
000003f0: f07d 0c3d 1799 69bb 2e36 54bc a843 5bbd

encoder.fc2.bias f4 [84]
-0.007179394 -0.025906695 0.008741949 -0.06000551 -0.083430715 -0.042955942 0.0075616045 0.025493838
0.022552783 -0.074736625 0.05177903 -0.025004111 -0.086155556 0.062732376 0.012953179 0.005943457
0.058050003 0.06212023 -0.0048408583 0.04533113 0.08135225 -0.08646312 0.02527827 0.023820408
-0.031769313 0.07084475 -0.012058937 -0.040440124 -0.0009049882 0.09216041 0.060471978 0.042425275
-0.08196436 0.032407407 0.07960392 0.084755644 -0.023392044 0.034009118 -0.068104 -0.017018247
0.00232232 -0.09235673 0.037146784 0.06314743 -0.0008225612 0.048847444 0.007485508 -0.0875222
0.08371985 -0.030049264 0.066119485 0.010655271 -0.055383626 -0.019241387 -0.08663619 0.025651798
-0.0081908265 0.06273397 -0.071054496 0.068142176 0.049893808 -0.08041007 0.09971792 -0.037055228
-0.059628524 -0.04051654 -0.083617896 -0.078437895 -0.0010055428 0.03400947 -0.045886505 0.05299821
0.0032063653 0.02509611 0.043928534 0.013298122 -0.042434197 -0.0374249 -0.062368482 -0.03483502
0.070432045 0.05581067 0.06757078 0.026680786
00000000: 1f41 ebbb 473a d4bc 643a 0f3c 56c8 75bd
00000010: b9dd aabd 92f2 2fbd 56c7 f73b 74d8 d03c
00000020: 9dc0 b83c 840f 99bd 4016 543d 6cd5 ccbc
00000030: 5372 b0bd d579 803d 9239 543c 55c1 c23b
00000040: d7c5 6d3d c871 7e3d 10a0 9ebb 23ad 393d
00000050: 029c a63d 9413 b1bd 6014 cf3c 0423 c33c
00000060: 8a20 02bd 0d17 913d d992 45bc 8ba4 25bd
00000070: bb3c 6dba 99be bc3d 77b1 773d 20c6 2d3d
00000080: eedc a7bd a1bd 043d 6107 a33d 5e94 ad3d
00000090: aca0 bfbc 254d 0b3d 1c7a 8bbd da69 8bbc
000000a0: 1032 183b 8625 bdbd 3a27 183d 7153 813d
000000b0: 26a1 57ba 4214 483d fe48 f53b d73e b3bd
000000c0: 5075 ab3d e029 f6bc a769 873d 7293 2e3c
000000d0: f1d9 62bd 1da0 9dbc 516e b1bd b823 d23c
000000e0: d132 06bc ab7a 803d 0585 91bd 208e 8b3d
000000f0: 735d 4c3d 09ae a4bd e938 cc3d 39c7 17bd
00000100: 0a3d 74bd acf4 25bd dc3f abbd 0ca4 a0bd
00000110: 6bcc 83ba 844d 0b3d 7df3 3bbd a714 593d
00000120: e221 523b 5b96 cd3c 68ee 333d 5ee0 593c
00000130: 7bcf 2dbd da4a 19bd 1876 7fbd 2aaf 0ebd
00000140: ad3e 903d bb99 643d 8d62 8a3d aa91 da3c

bottleneck.fc.weight f4 [16, 84]
-0.101051934 -0.032596882 -0.0341499 0.104593635 -0.008395681 0.049131002 -0.027726017 -0.010319651
0.014235103 -0.0646174 -0.06536083 -0.04122727 -0.06169003 -0.016725367 -0.043315366 -0.009954169
-0.00030775744 0.0063772867 0.029914996 -0.004032652 -0.09308669 -0.11421338 0.03932812 0.07791817
-0.072454005 0.05297569 0.04853271 0.05274472 -0.03637263 -0.02739809 -0.10115169 -0.113016166
-0.088434204 -0.103285156 -0.07940663 0.021070296 0.030158786 -0.097130165 0.100956686 0.051011488
-0.008598718 -0.054923106 -0.11539234 -0.016094074 -0.07398678 0.050331835 -0.09572917 -0.1015533
0.07941169 0.090418525 -0.03869461 0.09029299 0.037141006 0.054576896 0.036564574 0.000228604
-0.09428876 0.09516328 0.045988 -0.06506042 0.06831239 -0.04536919 -0.1150257 -0.026365776
-0.093049645 -0.0926124 -0.06617609 -0.04292421 0.060683332 0.0669398 -0.038749352 0.0138558075
-0.0067526055 -0.0058880514 -0.029681586 0.06291861 0.068335466 0.05689666 0.09169593 0.012120715
-0.0023221024 -0.007786933 0.02241177 0.0863285 0.078514695 -0.08861599 -0.027803805 -0.08467565
0.07128492 -0.080912165 -0.07866862 0.074506246 0.051365625 -0.085874535 -0.095431246 -0.10337725
0.04332633 -0.0841306 -0.02409437 -0.05384753 -0.080267645 -0.024714308 -0.119248934 0.013908328
-0.02409143 -0.10996586 -0.08120017 -0.04117859 -0.0664144 0.024598436 -0.048618887 0.00857511
0.02354169 0.03376431 -0.0036540783 0.04056396 0.09633227 0.06104899 -0.010432923 -0.0548295
-0.03220136 0.06973833 0.059821732 0.10375756 -0.08347101 -0.05898797 -0.04221461 -0.039573528
0.07713369 -0.050128076 0.042746678 0.08668564 0.047860343 -0.022478579 -0.08863424 -0.09440779
0.09115106 -0.045813438 -0.1013907 0.06791158 -0.10512229 0.010081771 -0.03087605 -0.001688341
-0.08498426 -0.11347519 0.0885168 -0.09963987 -0.0652516 -0.08899105 -0.07076713 -0.08061357
0.07319778 0.10116174 -0.013781758 -0.09196078 -0.11446847 -0.03370114 -0.020966949 0.04183627
-0.07600066 -0.1158991 0.065635666 0.06071 -0.060868982 -0.10900673 0.056267638 0.0077745547
-0.1591492 0.033509355 -0.0005597867 -0.076230176 -0.06507762 -0.018935964 0.08327289 -0.14144784
0.008865439 -0.027694482 -0.100776196 0.060592625 0.13214882 0.1663135 0.0036032752 0.075347066
0.06527704 -0.040840365 -0.08680698 0.011305775 -0.1118205 -0.021380382 -0.049283065 0.06673615
0.04021254 0.064804606 -0.022159854 0.10727518 0.062134057 -0.016124692 -0.06309229 -0.11664982
0.043010812 0.06134351 0.024392653 0.049150474 0.1086089 0.032475498 -0.060782924 0.015012938
-0.015755827 0.003337329 0.03947187 -0.036779158 0.07974564 0.088216834 0.080174595 -0.06947828
0.10570066 0.033012077 0.03847897 0.09245941 0.01596892 -0.037825778 0.09637077 -0.052572876
0.012607562 0.10532591 0.10389245 0.01259757 -0.052867673 0.106460296 -0.09434854 0.11204116
0.027078122 0.09071879 0.096484445 0.008331545 -0.0214684 -0.016530147 0.074889906 0.047034293
-0.06677666 0.0048849327 -0.06606714 0.038679857 -0.07716197 -0.11334025 0.017188894 0.09572156
0.07519999 0.0051247906 -0.025672812 0.108078755 -0.07917471 -0.014295126 0.09228138 -0.107264504
00000000: 51f4 cebd 4f84 05bd c4e0 0bbd 3035 d63d
00000010: 0a8e 09bc 973d 493d ac21 e3bc c113 29bc
00000020: 593a 693c 2156 84bd e6db 85bd eddd 28bd
00000030: afae 7cbd a303 89bc 746b 31bd d016 23bc
00000040: 815a a1b9 8ff8 d03b 4b10 f53c 5624 84bb
00000050: 3ca4 bebd b4e8 e9bd 8616 213d 9093 9f3d
00000060: c462 94bd 0afd 583d 3cca 463d d90a 583d
00000070: 78fb 14bd f671 e0bc 9e28 cfbd 0575 e7bd
00000080: fe1c b5bd 2b87 d3bd f19f a2bd 9d9b ac3c
00000090: 8f0f f73c 2eec c6bd 61c2 ce3d 6cf1 503d
000000a0: a3e1 0cbc 0df7 60bd d252 ecbd b8d7 83bc
000000b0: 6286 97bd c128 4e3d a80d c4bd 2dfb cfbd
000000c0: 99a2 a23d 592d b93d 3d7e 1ebd 88eb b83d
000000d0: 2b21 183d 068c 5f3d bcc4 153d 6bb5 6f39
000000e0: 771a c1bd f7e4 c23d ea5d 3c3d 663e 85bd
000000f0: 5ee7 8b3d 0bd5 39bd 9892 ebbd 0afd d7bc
00000100: d090 bebd 92ab bdbd 5487 87bd 4cd1 2fbd
00000110: 168f 783d bc17 893d a4b7 1ebd 7803 633c
00000120: f644 ddbb 8ef0 c0bb cc26 f3bc 79db 803d
00000130: 77f3 8b3d 790c 693d 13cb bb3d f795 463c
00000140: 6a2e 18bb 8729 ffbb e398 b73c ffcc b03d
00000150: 50cc a03d 4d7c b5bd cec4 e3bc 6d6a adbd
00000160: d4fd 913d 47b5 a5bd 031d a1bd bb96 983d
00000170: c364 523d fdde afbd 7571 c3bd 74b7 d3bd
00000180: f376 313d aa4c acbd 8e61 c5bc 3a8f 5cbd
00000190: 5d63 a4bd a975 cabc c938 f4bd c1df 633c
000001a0: 645b c5bc c835 e1bd 464c a6bd e2aa 28bd
000001b0: 4604 88bd a982 c93c 9924 47bd 9e7e 0c3c
000001c0: 81da c03c 724c 0a3d 4379 6fbb 6526 263d
000001d0: da49 c53d 810e 7a3d daee 2abc e694 60bd
000001e0: 93e5 03bd f8d2 8e3d a207 753d d87e d43d
000001f0: d9f2 aabd 5f9d 71bd 3ae9 2cbd da17 22bd
00000200: 45f8 9d3d 1953 4dbd 2417 2f3d 3e88 b13d
00000210: 3509 443d ff24 b8bc de85 b5bd df58 c1bd
00000220: 68ad ba3d dfa6 3bbd eda5 cfbd 3a15 8b3d
00000230: 5b4a d7bd 032e 253c c5ef fcbc 534b ddba
00000240: 3a0c aebd ae65 e8bd 4c48 b53d fd0f ccbd
00000250: a2a2 85bd f140 b6bd 5bee 90bd ba18 a5bd
00000260: b8e8 953d e32d cf3d e2cc 61bc ef55 bcbd
00000270: 726e eabd 350a 0abd e1c2 abbc 825c 2b3d
00000280: 3ca6 9bbd 825c edbd fe6b 863d 0dab 783d
00000290: c151 79bd ec3e dfbd e578 663d b1c1 fe3b
000002a0: 02f8 22be 1b41 093d a6be 12ba 911e 9cbd
000002b0: 6a47 85bd 981f 9bbc fa8a aa3d b4d7 10be
000002c0: 5940 113c 8adf e2bc c063 cebd f92f 783d
000002d0: 0552 073e 164e 2a3e ed24 6c3b 904f 9a3d
000002e0: f8af 853d 3a48 27bd dcc7 b1bd db3b 393c
000002f0: 2502 e5bd e925 afbc 0add 49bd f6ac 883d
00000300: e8b5 243d 47b8 843d 9588 b5bc 17b3 db3d
00000310: 4880 7e3d ee17 84bc 8836 81bd 1ae6 eebd
00000320: 1b2c 303d 5543 7b3d 1ad3 c73c 0252 493d
00000330: 586e de3d 0705 053d 84f7 78bd d3f8 753c
00000340: 5d12 81bc 17b7 5a3b 41ad 213d bea5 16bd
00000350: af51 a33d 07ab b43d 9432 a43d a14a 8ebd
00000360: 9679 d83d ac37 073d 209c 1d3d 5c5b bd3d
00000370: 41d1 823c 34ef 1abd 0a5e c53d a856 57bd
00000380: f38f 4e3c 1cb5 d73d 91c5 d43d 0a66 4e3c
00000390: c68b 58bd db07 da3d cf39 c1bd d675 e53d
000003a0: f0d2 dd3c c6ca b93d a399 c53d 0881 083c
000003b0: 7fde afbc 3b6a 87bc e15f 993d 08a7 403d
000003c0: 34c2 88bd c911 a03b 354e 87bd c56e 1e3d
000003d0: 1807 9ebd ef1e e8bd b9cf 8c3c aa09 c43d
000003e0: 7402 9a3d dced a73b ca4f d2bc 6558 dd3d
000003f0: 5a26 a2bd 1b36 6abc 05fe bc3d 7ead dbbd

bottleneck.fc.bias f4 [16]
0.034630127 -0.021466633 -0.11218817 0.07089899 -0.0022202218 0.0024239921 0.00069804135 0.0036197503
-0.019052207 0.00087787 0.0052323807 0.08609713 -0.049690448 0.06243078 0.072442874 -0.0036979634
00000000: 52d8 0d3d cbda afbc e9c2 e5bd 7d33 913d
00000010: 2481 11bb d7db 1e3b c3fc 363a 5539 6d3b
00000020: 6013 9cbc dc20 663a 6474 ab3b b153 b03d
00000030: 3688 4bbd 6bb7 7f3d ee5c 943d 8859 72bb

decoder.fc3.weight f4 [84, 16]
0.07088035 -0.07062054 -0.24849308 0.015143514 -0.09175798 -0.05062774 0.21324608 -0.16884997
0.001249969 0.18762353 -0.10451913 -0.1663965 0.15828082 -0.08440894 -0.20612547 -0.037229538
-0.09832057 -0.011029577 0.1464395 0.2783211 0.10199061 -0.17673497 -0.14307594 -0.1120072
0.20732328 0.08619705 0.22424807 0.113893785 -0.095154345 0.13556883 -0.14537391 0.081344485
0.07023163 -0.037832648 -0.17691031 -0.14229853 -0.012486488 0.16518869 0.007930591 0.044425227
0.021020338 -0.0664439 -0.18557647 0.14596021 -0.17774718 0.1891188 0.18239196 -0.04004219
0.0059268973 -0.10254639 -0.028828708 0.024665112 0.178121 0.057447914 0.027742688 -0.23300245
-0.21298255 -0.11291235 -0.14503834 0.2063827 0.087762855 -0.054231867 -0.092915475 0.21507153
0.06110236 0.16777319 0.2240357 -0.23369712 -0.23063454 0.23730198 -0.02127242 0.17242362
-0.17254977 0.0030043423 -0.04442087 -0.0067785084 -0.06630072 -0.15265901 0.14181772 -0.19831756
0.17855588 0.010888159 -0.13422836 -0.19396846 0.054412603 -0.120763 0.026319534 0.17065011
0.13333778 -0.0808416 0.06452158 0.11814824 -0.12606055 0.10592318 -0.16648096 0.099383116
0.084463865 -0.22082068 -0.1292139 0.22635737 -0.15373707 -0.20628658 0.06610133 0.085979745
0.04451379 -0.12780017 0.045825806 0.05818116 -0.19814542 -0.012856507 0.040856387 0.12407681
-0.14194185 0.07096129 0.017623264 0.27069288 0.005077541 -0.12930587 -0.12888148 -0.018901609
-0.0065814555 -0.04124367 -0.1163546 0.008172163 0.012294203 0.08395178 0.03691894 -0.16497391
0.158812 0.21449946 -0.17566429 0.0669768 -0.06488913 -0.226452 0.11790208 0.12784082
0.06530198 -0.028618643 0.0006497366 -0.008560552 -0.16275363 0.14514983 0.087213024 0.08790243
-0.22705686 -0.075881384 0.04150405 -0.007914996 -0.23148277 0.01879014 0.10582021 0.23650312
0.22381571 0.022916734 0.23516431 0.03457663 -0.036797553 0.19038439 0.18037444 -0.036394745
0.07206175 0.21426469 -0.22522652 -0.2347261 -0.18978837 0.12234751 0.061652634 -0.04909075
0.056379903 0.08245708 -0.076052755 0.18351547 -0.11309817 -0.21210346 -0.03725631 -0.19992271
0.20879194 -0.14072263 0.1972809 0.18296106 0.0853391 0.111292996 -0.06899613 0.00073800655
-0.22788271 -0.25073087 0.18626961 0.16927065 0.009763107 0.06359682 -0.18486187 -0.18295765
-0.21424286 0.19500145 0.27843967 -0.08749791 -0.086541235 0.13319367 0.104653 0.05790526
0.1846202 -0.23111524 0.14344628 -0.14680088 -0.11306553 0.016762504 0.14322288 0.2433309
0.22786674 -0.1069912 0.27063558 -0.2951378 -0.16617331 0.14178677 0.24358547 0.044237796
0.13029534 0.23524216 -0.19552603 0.14407603 -0.080883026 0.1947765 0.1057851 0.11086935
-0.027291575 -0.22557731 0.019305723 -0.12097564 -0.017861784 -0.16845322 -0.16683564 0.12632062
0.12460006 -0.024514394 0.1744217 0.20677826 -0.11904199 0.034629308 0.23390657 -0.14851815
0.110074066 -0.16153006 0.049256243 -0.046178542 0.049735487 0.24170955 0.19778335 0.13994466
-0.08806085 -0.21441242 -0.059551958 0.07927938 0.16446519 -0.16181634 -0.033633325 -0.09466517
00000000: b829 913d 80a1 90bd f874 7ebe 801c 783c
00000010: 9ceb bbbd 085f 4fbd 2e5d 5a3e 02e7 2cbe
00000020: 00d6 a33a 6220 403e 200e d6bd d863 2abe
00000030: 5e14 223e 98de acbd 8e12 53be 007e 18bd
00000040: 4c5c c9bd 66b5 34bc 3cf4 153e 1a80 8e3e
00000050: 74e0 d03d 03fa 34be 8082 12be 0864 e5bd
00000060: 8e4c 543e 1488 b03d 49a1 653e 2541 e93d
00000070: 48e0 c2bd 8ed2 0a3e e6dc 14be f097 a63d
00000080: 9ad5 8f3d 68f6 1abd fa27 35be b5b6 11be
00000090: 2094 4cbc 3927 293e 4fef 013c 3af7 353d
000000a0: d832 ac3c bd13 88bd c207 3ebe 9876 153e
000000b0: 5b03 36be 5ca8 413e f5c4 3a3e 4803 24bd
000000c0: 6b36 c23b d703 d2bd 2f2a ecbc 7d0e ca3c
000000d0: 5a65 363e 814e 6b3d a244 e33c 3298 6ebe
000000e0: 1918 5abe 973e e7bd ee84 14be fd55 533e
000000f0: 03bd b33d 3c22 5ebd 784a bebd b63b 5c3e
00000100: 7846 7a3d bccc 2b3e 9d69 653e 4c4e 6fbe
00000110: 762b 6cbe 4aff 723e 8043 aebc d18f 303e
00000120: e3b0 30be 80e4 443b a8f2 35bd 401e debb
00000130: acc8 87bd a552 1cbe aa38 113e c213 4bbe
00000140: 5ad7 363e 4064 323c 2973 09be ab9f 46be
00000150: c0df 5e3d 9752 f7bd 109c d73c e7be 2e3e
00000160: b389 083e 4890 a5bd e423 843d b4f7 f13d
00000170: 0416 01be 41ee d83d fc79 2abe 6089 cb3d
00000180: 64fb ac3d d11e 62be a650 04be 3aca 673e
00000190: 406d 1dbe ca3c 53be 2260 873d 2616 b03d
000001a0: 1854 363d 0cde 02be d7b3 3b3d 5e4f 6e3d
000001b0: a2e6 4abe 19a4 52bc 0759 273d fc1b fe3d
000001c0: 3459 11be 2754 913d aa5e 903c 4298 8a3e
000001d0: 8061 a63b c268 04be 82f9 03be 8cd7 9abc
000001e0: 40a9 d7bb 1fef 28bd 524b eebd 89e4 053c
000001f0: a06d 493c e9ee ab3d 5038 173d ecee 28be
00000200: 9d9f 223e bfa5 5b3e 57e1 33be 222b 893d
00000210: 98e4 84bd 08e3 67be a576 f13d b4e8 023e
00000220: 0bbd 853d a571 eabc 1653 2a3a 8f41 0cbc
00000230: e3a8 26be 28a2 143e be9c b23d 3006 b43d
00000240: 9881 68be b367 9bbd 2700 2a3d e6ad 01bc
00000250: d209 6dbe c8ed 993c 44b8 d83d e02d 723e
00000260: f22f 653e e0bb bb3c eace 703e 39a0 0d3d
00000270: 08b9 16bd 20f4 423e 14b4 383e a812 15bd
00000280: 1c95 933d 3468 5b3e c8a1 66be 0a5c 70be
00000290: e257 42be 5591 fa3d 7987 7c3d 6213 49bd
000002a0: 9dee 663d 42df a83d 8cc1 9bbd 7beb 3b3e
000002b0: 03a0 e7bd a631 59be 139a 18bd 8ab8 4cbe
000002c0: 8ecd 553e 9819 10be 0104 4a3e 255a 3b3e
000002d0: 44c6 ae3d 95ed e33d d84d 8dbd c876 413a
000002e0: 165a 69be cc5f 80be 76bd 3e3e 4955 2d3e
000002f0: 70f5 1f3c 0d3f 823d 6e4c 3dbe 4059 3bbe
00000300: 7b62 5bbe 76ae 473e a58f 8e3e 1b32 b3bd
00000310: 883c b1bd ec63 083e 5054 d63d 112e 6d3d
00000320: 140d 3d3e 79a9 6cbe 95e3 123e f852 16be
00000330: e78e e7bd 8551 893c 05a9 123e bc2b 793e
00000340: e655 693e 341e dbbd bf90 8a3e 4d1c 97be
00000350: 5629 2abe 8d30 113e 786e 793e b132 353d
00000360: 246c 053e 52e3 703e fa37 48be ab88 133e
00000370: 00a6 a5bd 7e73 473e dca5 d83d 780f e33d
00000380: 9592 dfbc bdfd 66be 0927 9e3c 14c2 f7bd
00000390: e052 92bc 007f 2cbe f6d6 2abe 315a 013e
000003a0: 512e ff3d 69d2 c8bc 9a9b 323e aebd 533e
000003b0: 49cc f3bd 76d7 0d3d 3485 6f3e 2415 18be
000003c0: 836e e13d 2368 25be eac0 493d b625 3dbd
000003d0: 70b7 4b3d b582 773e b887 4a3e a74d 0f3e
000003e0: 3f59 b4bd ee8e 5bbe c1ec 73bd 3a5d a23d
000003f0: 9069 283e 2fb3 25be 19c3 09bd d0df c1bd

decoder.fc3.bias f4 [84]
-0.11560789 -0.29536784 0.034542117 0.18470623 -0.2772248 -0.15650652 0.025605716 0.052601364
0.18643454 -0.183938 0.11004982 -0.029413652 0.2505605 -0.23691483 0.15286592 0.23581529
0.0036507433 0.26131472 -0.24086837 0.2242092 -0.00058961427 0.009402314 -0.062347185 -0.12724647
-0.08380898 0.13483407 0.022818286 -0.21187331 0.14128347 0.03782589 -0.07359025 0.21905088
0.09575909 0.03683669 0.116075195 -0.103052884 0.23575053 0.11027523 0.041028406 0.14628598
0.27954262 0.26456603 0.13460729 0.037937347 -0.27519238 -0.043377776 0.20307921 0.18839653
0.14518856 -0.096593805 0.071411215 0.17551908 -0.14734983 -0.16402389 -0.1319299 -0.08597059
-0.11765788 0.12443769 -0.22858505 0.17277119 -0.10196224 0.22852749 0.05969758 -0.01779271
-0.14319319 -0.1724049 -0.21871327 0.016172452 -0.18272047 -0.0028381473 0.22016045 -0.17305426
0.08557695 0.2546548 0.052209277 0.0772425 0.15748411 0.075806834 -0.19405805 -0.14792608
0.07661409 0.010989219 0.095176354 -0.03724056
00000000: d4c3 ecbd 743a 97be 097c 0d3d a123 3d3e
00000010: 69f0 8dbe 3f43 20be 14c3 d13c 8774 573d
00000020: b2e8 3e3e 3e5a 3cbe cd61 e13d e6f4 f0bc
00000030: 7749 803e cd99 72be e288 1c3e 9079 713e
00000040: 4f41 6f3b 0bcb 853e 33a6 76be 1997 653e
00000050: 5890 1aba 2a0c 1a3c c35f 7fbd e64c 02be
00000060: 0ba4 abbd f111 0a3e 6aed ba3c 51f5 58be
00000070: 9dac 103e 52ef 1a3d 7cb6 96bd e04e 603e
00000080: 571d c43d 12e2 163d d5b8 ed3d 640d d3bd
00000090: 9668 713e fbd7 e13d 670d 283d fecb 153e
000000a0: 3620 8f3e 3375 873e 7ed6 093e 3164 1b3d
000000b0: 04e6 8cbe e5ac 31bd fff3 4f3e 05eb 403e
000000c0: 4fac 143e f9d2 c5bd 0b40 923d 46bb 333e
000000d0: e0e2 16be e1f5 27be a218 07be 5911 b0bd
000000e0: 9df6 f0bd 30d9 fe3d 3312 6abe eeea 303e
000000f0: 94d1 d0bd 1c03 6a3e 7385 743d 04c2 91bc
00000100: 3ca1 12be e98a 30be 5ff6 5fbe 177c 843c
00000110: 131b 3bbe 3600 3abb be71 613e 2335 31be
00000120: f842 af3d 1d62 823e 65d9 553d 5131 9e3d
00000130: 8443 213e 9d40 9b3d 27b7 46be ef79 17be
00000140: d9e7 9c3d 200c 343c d2eb c23d 8f89 18bd

decoder.fc2.weight f4 [120, 84]
0.07796922 0.028034896 0.06584815 0.03007898 -0.067164555 0.015617447 -0.013575705 -0.017670909
0.08781086 -0.09096505 -0.0911448 0.083483145 -0.051069587 -0.013054197 -0.0040297927 0.016208047
-0.08922686 0.019702662 -0.030986411 -0.10672527 -0.053815 0.030644892 -0.035214312 0.097892
0.03414592 0.05082636 -0.01759586 -0.014694003 0.022708585 -0.022178987 0.05573843 0.012407967
-0.101631284 -0.0027729978 -0.083869874 0.038563382 -0.08119998 0.016097372 -0.09690365 0.02250542
0.0013712549 -0.010100665 -0.0017111877 0.017264953 0.037839305 -0.05760938 0.04235736 0.035181638
0.0670182 0.09682546 0.06852054 -0.0516262 -0.107419506 0.02266872 -0.03534936 0.065135285
-0.023175959 -0.061886653 -0.010608177 -0.060096215 0.066164784 -0.0479661 -0.02903854 0.0045135287
-0.078042634 0.005240752 0.050166696 0.022666117 -0.052028045 0.058599744 0.06269703 0.07753999
-0.10632413 -0.06970481 -0.051616278 0.0209513 -0.03925918 -0.006035155 -0.07532561 0.10010969
0.00968831 -0.09264856 0.030255053 0.06745173 0.0059463186 -0.10398716 0.1085345 -0.10146407
-0.02144725 0.043294694 -0.057325996 0.047900442 0.10674767 -0.041901134 0.051779002 0.043010082
-0.07015674 0.008211388 -0.10716287 0.08578207 -0.08607342 -0.09801446 0.027988214 0.06085024
-0.08275097 0.04996652 -0.04854182 0.014037667 0.046202786 0.02476143 0.04943505 -0.014521689
-0.099356115 -0.10643749 0.08950622 -0.046506245 -0.03308513 0.09893976 -0.019602247 0.087245494
0.012825419 0.028605556 -0.013890616 -0.047538802 0.06486795 -0.04165276 0.0029832604 0.03701496
0.011646288 -0.07049787 -0.01659411 -0.078263275 0.09855904 0.043763172 0.079323135 0.07199933
0.03302835 0.086853646 -0.04296014 -0.0023978816 -0.037292935 -0.01867022 0.10897984 0.059050646
0.05374965 0.102292046 -0.112445116 -0.049361553 -0.031574007 0.08250543 -0.10079435 -0.021308718
0.053971495 -0.02380999 0.022668006 -0.08681691 -0.110276364 0.1090071 -0.059053898 -0.026592528
0.043804627 0.004516035 -0.075086504 -0.10601648 0.043994214 0.06297108 -0.020423593 0.038418494
-0.049486116 0.008208119 -0.07491479 -0.057814255 0.059522394 -0.15674609 0.07384954 0.09209641
0.017991384 -0.0068766577 0.11684928 -0.004452353 0.07426911 -0.086147174 0.057432156 0.06148678
-0.020263525 -0.06449125 0.020327719 0.09160223 -0.07195412 -0.045635894 0.035506703 0.038683563
-0.014641817 -0.02685269 0.008332051 0.052500516 0.07567219 -0.00462989 0.03993576 -0.02660899
0.05288228 -0.07752 -0.06293603 0.020572908 0.14672318 0.10383611 -0.04304136 0.076378785
0.14530952 0.11396081 -0.05045224 -0.041385256 -0.03249159 0.02620676 -0.0011919846 0.07178171
0.037110813 0.051923495 -0.018315598 0.20164634 -0.041817904 0.060530417 0.08706743 -0.027276099
-0.05724747 -0.012831264 -0.10427077 0.100905694 -0.01730283 -0.04466096 0.06665839 0.06876999
0.0942193 0.0620796 -0.09287927 -0.020411605 -0.017879685 -0.021237297 -0.07913022 0.0052288
-0.06422365 0.030565213 0.10194675 0.018208828 0.07053591 -0.08446766 -0.02203509 0.02618807
-0.005579351 -0.0885828 0.0021315396 -0.0075108865 0.063878655 -0.09213987 -0.07230274 0.052747805
00000000: 54ae 9f3d 70a9 e53c 65db 863d 3168 f63c
00000010: 928d 89bd 52e0 7f3c a26c 5ebc 95c2 90bc
00000020: 2ed6 b33d e24b babd 20aa babd 36f9 aa3d
00000030: 582e 51bd 45e1 55bc 5a0c 84bb bdc6 843c
00000040: 92bc b6bd 7a67 a13c 37d7 fdbc c792 dabd
00000050: 1e6d 5cbd ff0a fb3c e23c 10bd 9a7b c83d
00000060: 98dc 0b3d 4d2f 503d 3125 90bc 1ebf 70bc
00000070: 5b07 ba3c b5b0 b5bc fb4d 643d c94a 4b3c
00000080: 1024 d0bd 2fbb 35bb f8c3 abbd a3f4 1d3d
00000090: 2d4c a6bd a3de 833c 6c75 c6bd 495d b83c
000000a0: aebb b33a 427d 25bc ee49 e0ba 3b6f 8d3c
000000b0: 63fd 1a3d d0f7 6bbd e97e 2d3d 9f1a 103d
000000c0: d740 893d 6d4c c63d 7f54 8c3d ff75 53bd
000000d0: c2fe dbbd c0b3 b93c 7eca 10bd a665 853d
000000e0: 82db bdbc dc7c 7dbd ebcd 2dbc 7327 76bd
000000f0: 6781 873d 1a78 44bd 3be2 edbc 39e6 933b
00000100: d1d4 9fbd 9dba ab3b 987b 4d3d 4bae b93c
00000110: 5c1b 55bd 4906 703d 4d67 803d 49cd 9e3d
00000120: 77c0 d9bd 65c1 8ebd 976b 53bd 10a2 ab3c
00000130: 3cce 20bd 8dc2 c5bb 5044 9abd 4f06 cd3d
00000140: b8bb 1e3c 87be bdbd 72d9 f73c 2224 8a3d
00000150: 56d9 c23b 38f7 d4bd 5647 de3d 65cc cfbd
00000160: 25b2 afbc c755 313d aace 6abd 4133 443d
00000170: 869e da3d 86a0 2bbd 3816 543d 572b 303d
00000180: 56ae 8fbd 0f89 063c 3578 dbbd 83ae af3d
00000190: 4347 b0bd cebb c8bd 8a47 e53c 1a3e 793d
000001a0: 5779 a9bd b2a9 4c3d cad3 46bd 3efe 653c
000001b0: 223f 3d3d 7cd8 ca3c 687c 4a3d 61ec 6dbc
000001c0: 387b cbbd e6fb d9bd 094f b73d 557d 3ebd
000001d0: 4684 07bd eea0 ca3d e494 a0bc c4ad b23d
000001e0: b521 523c 3356 ea3c 7795 63bc 0cb8 42bd
000001f0: 7dd9 843d 169c 2abd ce82 433b 009d 173d
00000200: 13d0 3e3c 3061 90bd 5ff0 87bc 7f48 a0bd
00000210: 52d9 c93d 0341 333d 2b74 a23d 6274 933d
00000220: bc48 073d 53e0 b13d f9f6 2fbd c725 1dbb
00000230: 7ac0 18bd 4af2 98bc d330 df3d 17df 713d
00000240: 9828 5c3d 7e7e d13d a049 e6bd 572f 4abd
00000250: bf53 01bd 9bf8 a83d 456d cebd 9f8f aebc
00000260: 3711 5d3d 2b0d c3bc 41b2 b93c 10cd b1bd
00000270: 93d8 e1bd 1d3f df3d 80e2 71bd 93d8 d9bc
00000280: 7b6c 333d 3ffb 933b f4c6 99bd 2b1f d9bd
00000290: 4733 343d fbf6 803d 614f a7bc b65c 1d3d
000002a0: f4b1 4abd 597b 063c ed6c 99bd a4ce 6cbd
000002b0: c1cd 733d 0c82 20be 6d3e 973d 0b9d bc3d
000002c0: ab62 933c 9655 e1bb ad4e ef3d 0be5 91bb
000002d0: 671a 983d ee6d b0bd fb3d 6b3d 90d9 7b3d
000002e0: b1ff a5bc fd13 84bd 5186 a63c f399 bb3d
000002f0: af5c 93bd b4ec 3abd 7a6f 113d a872 1e3d
00000300: 3be4 6fbc 2cfa dbbc 2883 083c c80a 573d
00000310: 05fa 9a3d 55b6 97bb ae93 233d 19fb d9bc
00000320: 179b 583d cec2 9ebd 9be4 80bd 8488 a83c
00000330: 9a3e 163e 07a8 d43d 234c 30bd 7b6c 9c3d
00000340: 05cc 143e 4964 e93d 02a7 4ebd 9683 29bd
00000350: e715 05bd 8faf d63c 5e3c 9cba 4a02 933d
00000360: 8201 183d bbad 543d 980a 96bc 617c 4e3e
00000370: 4049 2bbd beee 773d 6950 b23d 2072 dfbc
00000380: 537c 6abd 393a 52bc ea8b d5bd a5a7 ce3d
00000390: aabe 8dbc 69ee 36bd 3284 883d 48d7 8c3d
000003a0: 0cf6 c03d 2e47 7e3d 7d37 bebd 3d36 a7bc
000003b0: 6b78 92bc d7f9 adbc 060f a2bd 5a56 ab3b
000003c0: b087 83bd e663 fa3c 75c9 d03d ae2a 953c
000003d0: 2275 903d 61fd acbd ef82 b4bc 5d88 d63c
000003e0: fdd2 b6bb e66a b5bd 4db1 0b3b e21d f6bb
000003f0: d0d2 823d d4b3 bcbd 7513 94bd 150e 583d
