tutorials/W1D2_ComparingTasks/RR/models/ConvNet_regression_1000_epoch_10.pth (torch, 248022 bytes, 9 tensors)

ConvNet.conv1.weight f4 [6, 1, 5, 5]
00000000: 2197 f73d c74e e43d 89a3 333c a532 133e
00000010: dfc8 88bd 0044 e33c 002c 353e f8d0 243e
00000020: cf6e 0ebe 945e 09bd 8298 d73d 5992 90bd
00000030: 1d76 ac3b b102 cfbd 2488 dfbd e8c3 2e3d
00000040: a934 b0bd 64de 68bd 4d13 a53c 0a90 0d3e
00000050: 4032 aebd 73cb 8e3d a462 e73d 98a7 23be
00000060: 1e3a 213e 9c3d 2fbe 9583 f63c 004b f9bd
00000070: c4d6 2a3e 28c7 073e 5229 19bd a12e adbd
00000080: 2037 49be 8e4d 873d cc2c a63c c058 53be
00000090: 3805 963d 26a8 123e 56aa b2bd 3af6 89bd
000000a0: b9ec 3e3d 7b27 e03d a779 66bd bab7 11be
000000b0: e8d7 063e 4b15 8cbc 62b2 943d 611b 8c3c
000000c0: a203 893d a744 1ebe a449 3cbe d1a4 c3bd
000000d0: df15 083c 0386 463c 8830 543c f5ff 123e
000000e0: 0c2a edbd 5e62 45bd ac81 b63d 73c4 3abd
000000f0: 7a00 893d a622 d6bc 76c4 9d3d 86d2 4a3d
00000100: 533e 673d cf50 2f3d d53a 58bd 4ba8 94bd
00000110: 1503 54be 4376 0b3e 749a 32bd 0b82 c9bc
00000120: 490c 31be 2e75 7dbd 3d50 0f3e 28e4 bf3d
00000130: 5262 02be 98d4 ef3d 7937 3e3e 7460 b8bd
00000140: 5b1d 2abe d28c e63d eabc f43c 0e68 673d
00000150: d24b 36bd f048 923d 53a2 083e 02c0 39be
00000160: 0efc 4bbe 7d6f 843d c06d 41be 9a36 a0bc
00000170: 7153 263e d1a9 1fbe 861d dfbc 33da 7cbd
00000180: 396e 3e3e efbc 0b3e 89ed 7cbd 7049 ebbd
00000190: 9a8d 8e3d a1ae 2e3c 122d b5bd 1acf f53d
000001a0: 3fcc f43d 8b44 51bd 675d 8e3d 75db 0a3e
000001b0: d063 be3d 5df2 a6bd 5208 f1bd 7468 b33d
000001c0: 5cac 7cbd 6c98 9c3d 9c28 00be 023c 49be
000001d0: b6db 1abe db68 55be 41e4 f6bd d6e0 e53c
000001e0: 8fdf a33d 80e7 363e 0053 2abe a8eb 553d
000001f0: 6259 5f3d c85a 38be c5a0 14bd 35b3 1dbd
00000200: d74c d4bd 7323 1a3e ac05 1fbe 1cd0 63bd
00000210: 78a1 0cbe 467b cc3c 3303 4abe ce45 0bbe
00000220: b78c 893d 68df 493e f144 163e 0623 a53d
00000230: 5cbd 67bd ad16 03be ab64 40be 2d7c 1fbe
00000240: dd53 b13b 6341 5fbb a1ac b13c fd4b 2e3e
00000250: eb94 f8bd 829d 34be
0.120893724 0.11147838 0.010964283 0.14374788 -0.06678938 0.027742386 0.17692566 0.1609534
-0.13909458 -0.033537462 0.105271354 -0.070591636 0.0052631036 -0.10107935 -0.10914639 0.0426673
-0.08603794 -0.056852713 0.020150805 0.13824478 -0.08505678 0.069723986 0.11298111 -0.159819
0.15744826 -0.17113346 0.03009204 -0.12172508 0.16683489 0.13259566 -0.03739292 -0.084561594
-0.19649935 0.06606589 0.020285033 -0.20639324 0.07325214 0.14321956 -0.08723895 -0.06736417
0.046612475 0.1094503 -0.05626836 -0.14230242 0.13168299 -0.017099997 0.07260586 0.017102899
0.06690146 -0.15455876 -0.18387467 -0.095529206 0.008305996 0.012116912 0.012951024 0.14355452
-0.115802854 -0.048189513 0.08911452 -0.045597505 0.06689544 -0.026139569 0.077034876 0.049517177
0.05645592 0.042801674 -0.05279048 -0.07258662 -0.207043 0.13619332 -0.04360433 -0.024598142
-0.17289843 -0.06187933 0.13995452 0.09369689 -0.12732819 0.11710471 0.18575849 -0.09002772
-0.1661276 0.11257328 0.029875237 0.05649572 -0.0445059 0.07142818 0.13343172 -0.18139651
-0.1992037 0.06466577 -0.18889523 -0.019557286 0.16242768 -0.15592124 -0.027235758 -0.06173153
0.18596734 0.13646291 -0.06174997 -0.114886165 0.06960602 0.010661752 -0.08846487 0.12002392
0.11953019 -0.05109076 0.06951409 0.13560279 0.092963815 -0.08151696 -0.11769165 0.08760157
-0.061687812 0.0764626 -0.12515491 -0.19651797 -0.15122876 -0.2084078 -0.12055255 0.028061312
0.08001625 0.17861748 -0.16633224 0.052226692 0.0545286 -0.1800338 -0.036286134 -0.038500983
-0.103662185 0.15052585 -0.15529507 -0.05561839 -0.1373347 0.024961125 -0.19727783 -0.13600847
0.06716292 0.19714129 0.14674737 0.08063321 -0.05657707 -0.12801619 -0.18788402 -0.15574713
0.0054116086 -0.0034066073 0.021688761 0.17021175 -0.12137779 -0.1763821

ConvNet.conv1.bias f4 [6]
00000000: a74e babb d779 3abe 3d8a 87bd 06e4 8a3c
00000010: c7d7 1a3d 4e00 803d
-0.0056856456 -0.1821054 -0.06618164 0.016954433 0.037803438 0.06250058

ConvNet.conv2.weight f4 [16, 6, 5, 5]
00000000: 950f 933d f6db 3a3b 9bf9 68bd e4c7 9ebd
00000010: 6813 eebc 2cab 993d f73b e13c 74bd a9bd
00000020: 1913 b3bd 0b47 16bd f7e5 953c 406d 5e3d
00000030: 91cd 6cbd 6078 afbd e23f 56bc 925d 0d3d
00000040: cf78 323c f1c3 78bd a78e 0e3d 908e 0d3d
00000050: bd21 d23c 92bb 223d 11b6 a2bd e554 03bc
00000060: 1db1 2b3d 0a77 9abd da44 253d 5004 9ebd
00000070: 5a19 423c 71ff 99bd 7667 8a3d 390e 093c
00000080: d1d5 a8bd 23e8 86bd 8c23 923d 619c 80ba
00000090: 4ea6 3fbc 2fd7 70bd 7158 85bd e31c 70bc
000000a0: 5dae 68bd 6b54 943d 0c40 8abc 9ade 84bd
000000b0: f58f 8d3c 7660 423d ef51 e63c 9f17 3d3d
000000c0: c1f0 13bd c806 573c f88a 14bd 6f66 56bd
000000d0: 0a7d a93c d1b8 443b 99be 37bb 34c7 cd3c
000000e0: b825 853d f834 383d 78ce 6ebc cc5d 6e3c
000000f0: 174e 883d 415b 6bbd f201 ddbc 3fca ceba
00000100: f504 37bd 39bf 863c feda e63c 7a50 8c3d
00000110: e88c 55bd 8d1f 023d 8b8b 0c3c fd3f 32bd
00000120: b086 d6bb c83b 1d3d a209 903d 8be4 53bd
00000130: c531 3cbd f51b b53b 918d 6bbb 9cd7 95bd
00000140: 3b3d 44bd 3630 7d3a 0c90 683d c0fc 8a3d
00000150: 8815 0bbd ec14 8f3d 6fbf 8bbc 43b4 4d3d
00000160: dd63 f4bc 3cba d23c 048b 97bc 9096 3a3c
00000170: bd2a 8a3c 56ef 72bd 513b 7fbd 20ed 7d3d
00000180: aaef 873d 71d5 c33c d972 213d 4b60 263d
00000190: 0bd8 08bd b53a 803d 499c 4ebd 44f8 9c3d
000001a0: 9831 833d 0760 38bd 8c23 443d 5439 253d
000001b0: e21b 7a3c 8d70 8a3d 1391 8f3d 10f7 58bc
000001c0: a522 683d cfe4 323d c6f3 68bd 2f6a a93c
000001d0: 11fd 20bc 84b6 da3c 2608 2cbd 1f46 6d3d
000001e0: be01 a3bd af29 013b a287 1b3d 8ff5 51bd
000001f0: 3d8e 9cbd d111 83bd 5eed b5bc 9d2d a33c
00000200: fc77 153d fcf0 60bd 9656 223c 1674 99bb
00000210: 609e c33c 8bd8 48bd df0c 8b3a bd6c dfbc
00000220: 67d6 9d3d c2ce 1abb 030e 523c 06dc 9f3d
00000230: 2e69 283d be54 a83d a6dd 82bb 395d 813d
00000240: 8c76 043d ceeb 44bc f096 8d3d 2b40 543c
00000250: 1c34 0d3d dc73 2ebd 6b71 003d 056b 153d
00000260: 3d0c 4abd c8d0 12bd 6588 8b3c 0823 72bd
00000270: bc82 55bd 0f8d dfba 6822 87bc 9b29 5e3d
00000280: 11d9 2e3d 81bd a63a cfaa 143d fcff 42bd
00000290: f305 b7bd 4ca1 9dbd 724f 02bc 802e 8fbd
000002a0: cfae 3cbd ef66 78bb 9163 3fbd c8c2 0d3d
000002b0: e6f5 f2bc 21a3 a63d 4fb6 c1bc 9337 5b3d
000002c0: 49a9 a03a 2e2d b7bd ec14 4abd ffb8 66bd
000002d0: 7ac1 6ebd 8482 343d 26f6 a4bd 324d f23c
000002e0: 0711 6fbd f70e 2cba 0fa5 f33b 6a6c 9abd
000002f0: c517 32bc 385b b93c 1c4c 43bd d890 9ebc
00000300: e114 81bd e804 0fbd 65f9 2f3d 523a 8f3c
00000310: cb28 58bd 9598 ae3d 618c 18bd 1142 b9ba
00000320: 8d54 19bc 40f3 77bd 4e1b e03c 082f 85bd
00000330: ca31 903d b747 6a3d 4d2d 543d 54a8 32bd
00000340: 633e 36bc 1cfb 233c 4562 9fbd ebd0 27bd
00000350: 6638 0f3d da9a 00bd bbd3 7938 9e25 573d
00000360: 7679 0cbb 15b7 3ebc dd33 a7bb 28c5 2ebd
00000370: 3040 ad3d 4009 333d 3972 87bd 5f42 83bc
00000380: 36ee 94bd b011 563d 65a4 543d 89c3 1fbd
00000390: 09ec c8bc d10a a0bd c1cf f1bc 38d7 17bd
000003a0: 041c 893d e3d2 1bbd c999 993b 104c 98bd
000003b0: 978b 313d e92f 0ebc 4b7c e53c 18ad c13c
000003c0: 433e 57bd 07fd 563d 6222 71bd e6ee 3cbc
000003d0: 1ba0 853d c6b2 69bd 72c5 0ebd f8c7 9e3d
000003e0: d91f 33bc c720 94bc 5108 e9bc 0a12 f4bb
000003f0: c972 a83b 3847 1dbd b163 443d 915f babc
0.071807064 0.0028512455 -0.056878667 -0.0775297 -0.029061988 0.075033516 0.027494414 -0.082880884
-0.08743877 -0.036688846 0.018298132 0.054303408 -0.05781323 -0.085678816 -0.013076754 0.034513064
0.010893061 -0.06073374 0.034804013 0.034559786 0.025650853 0.039729662 -0.07944883 -0.008015846
0.041916955 -0.07542236 0.040348865 -0.07715666 0.011846865 -0.07519425 0.06758015 0.008365207
-0.08243907 -0.06587245 0.07135686 -0.000981223 -0.011697365 -0.058798965 -0.065110095 -0.014655325
-0.05680691 0.07242664 -0.016876243 -0.064877704 0.017280558 0.047455274 0.02811524 0.046165105
-0.036118273 0.013124175 -0.036265343 -0.052343782 0.020689506 0.0030017386 -0.002803719 0.025119402
0.06501335 0.04497239 -0.014575593 0.01454873 0.066555195 -0.057460073 -0.026978467 -0.0015776827
-0.04468246 0.016448604 0.028180595 0.06851287 -0.05213633 0.03176837 0.0085781915 -0.043518055
-0.0065468177 0.03838709 0.07033087 -0.051731627 -0.0459459 0.0055270144 -0.0035942534 -0.07316515
-0.047909956 0.0009658368 0.056778 0.067864895 -0.03395608 0.069864124 -0.017059056 0.05022074
-0.029832775 0.02572357 -0.018498905 0.011388436 0.016866082 -0.05931028 -0.062312428 0.06199372
0.06637509 0.023905488 0.039416168 0.040619176 -0.03340916 0.062611975 -0.050442014 0.076645404
0.06405944 -0.045013454 0.047885463 0.040337875 0.015265437 0.067597486 0.070100926 -0.013242498
0.056673665 0.04367524 -0.056873105 0.020680515 -0.009825961 0.026698358 -0.04199996 0.0579282
-0.07959317 0.0019708683 0.037971146 -0.051259574 -0.07644317 -0.063998826 -0.022207912 0.019919211
0.03649138 -0.05491732 0.009908339 -0.004683028 0.02387923 -0.049034636 0.0010608694 -0.02727353
0.077069096 -0.0023621772 0.0128207235 0.07805638 0.041115932 0.08219288 -0.0039937077 0.06316609
0.032339618 -0.012019111 0.06913555 0.012954752 0.034473523 -0.04259096 0.031358164 0.036479015
-0.049328078 -0.03584364 0.017032811 -0.05911544 -0.05212663 -0.0017055589 -0.016495898 0.054238897
0.04268748 0.0012721271 0.03629571 -0.047607407 -0.089366816 -0.076967806 -0.007953512 -0.06991291
-0.046065148 -0.003790315 -0.046725813 0.034609586 -0.02965827 0.08136583 -0.023646502 0.053519797
0.0012257482 -0.08944164 -0.04933636 -0.05632877 -0.058289982 0.044069782 -0.080547616 0.029577825
-0.058365848 -0.0006563509 0.007435448 -0.075402096 -0.010869925 0.022626504 -0.047680005 -0.019356176
-0.063028105 -0.03491679 0.04296245 0.017483864 -0.05277328 0.085251965 -0.03724325 -0.0014134069
-0.009358537 -0.060534716 0.02735677 -0.06503111 0.070407465 0.0571973 0.051801015 -0.04361756
-0.011123273 0.0100086 -0.07782415 -0.040970724 0.034965895 -0.031397678 5.9563416e-05 0.05252611
-0.00214347 -0.01164033 -0.005102618 -0.04266849 0.084595084 0.043709993 -0.06613583 -0.01602286
-0.07271998 0.052262962 0.05191459 -0.039004836 -0.024526613 -0.07814563 -0.02951801 -0.037070483
0.06694797 -0.038042914 0.004687522 -0.07436383 0.043346014 -0.008678415 0.028013369 0.023642108
-0.05254961 0.0524874 -0.05887068 -0.011531567 0.06524678 -0.057055257 -0.034856267 0.07752985
-0.010932886 -0.018082036 -0.028446348 -0.0074484395 0.0051406366 -0.038397998 0.047946636 -0.022750648

ConvNet.conv2.bias f4 [16]
00000000: dfae 8a3c c256 90bc 95e7 0b3d 7523 a6bd
00000010: ccf1 d33a 08a8 16bc a389 853d 616e 07bd
00000020: a131 c3bc 811e d23c c134 8fbd 17f0 74bd
00000030: 05a6 7abd 70a2 5ebd be4e 823d 20a8 903d
0.016929088 -0.017619494 0.0341564 -0.08112232 0.0016170084 -0.009195335 0.06520393 -0.03306425
-0.023827376 0.025649311 -0.06992484 -0.05979928 -0.061193485 -0.05435413 0.06362675 0.07063317

ConvNet.fc1.weight f4 [120, 400]
00000000: 3313 20bd 8221 5abd 17d3 74bd ccbe 65bd
00000010: 4946 76bd 81a0 143d 4645 1e3d c51b 33bc
00000020: 7539 c13c ce55 27bc 59ab 4abc 091d 2ebd
00000030: 0c1a f4bc 87e3 083d 11c0 55bd 3dd0 13bd
00000040: fb80 883c 9282 d4bc 13cc 6fbc f1bc d2bb
00000050: a333 26bd 174b b83c 34ad e33c 09a1 413c
00000060: 9d29 16bd bc89 23bc 5ffe 343d 51b7 97bb
00000070: 5bbd 6a3c 1bbf 7abc 5589 7dbc bc41 3cbb
00000080: 8f0e d6bc 3bfb fd3c ec02 b73b 69c5 183d
00000090: c0fa f9bc c158 35bd 08d0 3b3d 2fb2 18bd
000000a0: 3474 083d 28de 313d 6d8b a83c 23b0 1e3d
000000b0: faf6 a83c d0cd eabc 4d45 4b3c 7a9c 3bbd
000000c0: 74fb 2a3d 411f 933c bdbf a23c 9d41 f23c
000000d0: ad4b 4bbd 4aa8 efbc 6239 1e3d f36d a6bb
000000e0: 3503 86bc e306 c2bc f767 00bd 4f03 453d
000000f0: bde5 833c 0252 413d cadf 483d ca12 e9bc
00000100: 1a8e 423b 90b1 79bc 2d76 e2bc 102b 4c3d
00000110: 3776 fb3c 9344 d23c cd6e 0aba 0553 013d
00000120: 66fa 303d bdc7 8dbc 4dd5 453c 3cc4 5abd
00000130: cb2e 34bd 4a56 ddbc caf3 c83b 47d9 be3c
00000140: 6b7f 04bd 2bc5 bbbc ad75 07bb 5ffe e03b
00000150: 3778 c8bb 743c bb3c f9c0 87bc 13af b63c
00000160: d76d a53c 4c3b 7bbd 4884 d9bc e42a e33c
00000170: 0b9d 863a 18ba 2c3d f8b9 69bd bd5c a4bc
00000180: 0987 e2bb 6f65 8a3b 999c c33b 001a c4bc
00000190: d8d7 273d 9201 163d fc9c 70bd 428b 9ebc
000001a0: c70c 28bd 96c4 ef3c e82f da3b 7eba a1bc
000001b0: 9151 bcbc ac7b 1abd 071e 97ba 6ad4 a3bb
000001c0: 5180 f0bb b189 0ebd 2cf0 47bc dea6 e23c
000001d0: c103 17bd 5dc5 a33c b362 c1bb e4d7 173d
000001e0: f69a f73c 7320 a03c 1d36 41bd 0159 93bb
000001f0: 85a3 113d b362 f43c a88d 1dbd c9bf 3bbd
00000200: 2f06 5fbd 36bc 1abd 984e 333d 99d6 44bb
00000210: 544a ed3b f8b4 81bd afd7 3dbd 9468 45bc
00000220: 6df9 fdbc 5361 17bc 6f5b 0bbd 0bc3 0ebd
00000230: b7c9 b23c e6cc 58bd f701 7ebc 0613 8eba
00000240: c02a ac3c 9df4 ce3c 4ffb 183d e58a 53bd
00000250: 36ea 64bc c125 1ebc c4a9 59bc b2ef 4e3a
00000260: 1807 153b 2708 51bd b3a1 473c 3001 833c
00000270: f7dd 22bd 9db3 263d 834e 843c bd3e 6e3c
00000280: 97ae d3bb 555f 71bc 5d3c dabc 3e0c 433d
00000290: 02bc 4a3c 80d4 44bd 07f4 54bd b9c8 aebc
000002a0: 1830 48bd 12c2 d5bb 55c0 4dbc 1a97 11bd
000002b0: c1e4 a3bb 86f6 63bd 761c 243d dc71 38bc
000002c0: e798 69bb 02b7 8e3b c670 f3bc 1168 f2bc
000002d0: 062a 2ebd 93a3 9c3c 6b83 49bd 9643 abbc
000002e0: d7a5 7fbd cc03 383d e970 a73c 2d64 35bd
000002f0: edc7 143d 2d1a eebc 7fcf 3c3c 0f7e b5bc
00000300: 4d2c 94bc 2e6f a2bc 332a 303c e2d8 18bd
00000310: 6e80 4abd e66e 503b 38d4 44bd a154 31bd
00000320: 0b6b 9dbc 77d7 34bd b222 853c 72fc 9b3c
00000330: b5ac 8a3c 0dfd 913b fdb0 083d 5746 fdbc
00000340: 2ff9 663c 920b abbc 1707 213d 02bf 36bc
00000350: 26a6 5e3b f1c6 983b 0f8e 3f3d 1e8e 663b
00000360: 8945 3b3c 4da0 aa3c da82 31bd 74c4 f8bc
00000370: 2f56 c4bb 3979 e4bc b3c4 cabb 22b9 253d
00000380: 6278 f23c f977 f63c 1f07 75bc 1043 b5bc
00000390: b87b bbbc 6a4f dbbc 6922 8dbb f407 2cbd
000003a0: e3ed 803c 809a 0a3c ab47 45bc 1afa 9e3c
000003b0: 4c0a 403c 24b0 2bbd 1a08 0bbd 9394 79bc
000003c0: a591 283d 82f6 e63c f281 013d 670a eb3b
000003d0: ecf8 a4bc 621e 0a3d 5e51 59bd 6770 0e3d
000003e0: 69ad d83c 6715 b83c f78a 0f3d 9356 58bc
000003f0: 7bc8 883c a2e9 1a3d 04c9 003d 9e0e fdbc
-0.03908081 -0.05325461 -0.059771623 -0.05609016 -0.060125623 0.03628588 0.038640283 -0.010931914
0.023586968 -0.0102133285 -0.012369954 -0.04250816 -0.029797576 0.033420112 -0.052185122 -0.036087263
0.016663065 -0.025941167 -0.014636057 -0.006431215 -0.04057659 0.022496743 0.02779255 0.011818179
-0.03666078 -0.009981569 0.0441879 -0.0046300073 0.014327372 -0.015304352 -0.015474637 -0.0028725704
-0.026129989 0.031003585 0.005585065 0.03729764 -0.030515075 -0.044274095 0.04585269 -0.037279304
0.033313945 0.043424755 0.020574296 0.038742196 0.02062558 -0.028662592 0.012406659 -0.045803525
0.04174371 0.017959239 0.019866819 0.029572302 -0.049632717 -0.029255051 0.038628943 -0.005079025
-0.016358951 -0.023684924 -0.03134915 0.04809886 0.016100759 0.04719735 0.049041547 -0.028451342
0.002968675 -0.015240088 -0.027644241 0.049845755 0.030696018 0.025667464 -0.0005280793 0.031573314
0.04320755 -0.017307157 0.012074781 -0.0534098 -0.043989938 -0.027018685 0.0061325775 0.023296965
-0.032348078 -0.022921165 -0.0020669505 0.006866261 -0.0061178464 0.022855975 -0.016571509 0.022300279
0.020193977 -0.061335847 -0.026552334 0.027730413 0.0010270191 0.04216966 -0.05706212 -0.020063752
-0.00691307 0.0042235176 0.0059695956 -0.023938179 0.04097733 0.03662259 -0.058743462 -0.019353513
-0.04102781 0.029268544 0.006658543 -0.019742247 -0.022988113 -0.0377156 -0.0011529335 -0.004999687
-0.0073395153 -0.03479928 -0.0122032575 0.02766746 -0.036868814 0.019991571 -0.0059016584 0.037071124
0.030225258 0.019546723 -0.047170747 -0.004496694 0.035556335 0.02983222 -0.038465172 -0.045837197
-0.054449257 -0.03777715 0.043776125 -0.0030035137 0.0072415266 -0.06333345 -0.04634827 -0.012048859
-0.031002725 -0.0092395125 -0.034022745 -0.034853976 0.0218247 -0.05292978 -0.015503398 -0.001083941
0.021016479 0.025263125 0.03734904 -0.051646132 -0.013971856 -0.009652556 -0.013285104 0.0007893994
0.0022739824 -0.051033165 0.012184548 0.015991777 -0.039762463 0.040698636 0.016150719 0.014541325
-0.0064600217 -0.014732202 -0.026640112 0.047619097 0.012373926 -0.04805422 -0.051990535 -0.021335946
-0.04887399 -0.006523379 -0.012558063 -0.035544492 -0.005001635 -0.055655025 0.040066205 -0.011257615
-0.0035644115 0.0043553123 -0.02971686 -0.029590638 -0.042520545 0.019120967 -0.049197596 -0.02090625
-0.062414017 0.044925496 0.020439582 -0.04428499 0.036323477 -0.029065216 0.01152408 -0.022154836
-0.01808753 -0.019828405 0.010752249 -0.03731621 -0.049438886 0.0031804382 -0.04805395 -0.0432936
-0.019216081 -0.044150796 0.016251896 0.019041274 0.016928056 0.004455215 0.033371914 -0.03091733
0.014097496 -0.02087954 0.039313402 -0.011153938 0.0033973544 0.0046623875 0.046766337 0.0035179923
0.011430153 0.02082839 -0.04333768 -0.030367114 -0.005991719 -0.027889835 -0.006187999 0.04045976
0.029598419 0.030086504 -0.014955311 -0.022126704 -0.022886142 -0.026771266 -0.0043070805 -0.041999772
0.015738433 0.008459687 -0.012041013 0.019406367 0.011721205 -0.041916028 -0.033943273 -0.015233177
0.041154522 0.028193716 0.031618066 0.007172871 -0.020138226 0.03372038 -0.053056113 0.034775164
0.026449876 0.022471143 0.035044637 -0.013204235 0.016697159 0.037820466 0.031441703 -0.03089076

ConvNet.fc1.bias f4 [120]
00000000: 1aa0 0b3c 40c1 1e3d 168c 7abb 1056 e6bc
00000010: bc73 57bd df6c f63c c350 c13c 3a57 103d
00000020: c0dc f8bc 64ba debc 7a8e 7bbc 1c94 263c
00000030: 8c33 d23c c9cf aebc 5c08 b5bb 2bcf 1c3d
00000040: cc83 2d3d f1c3 56bd bf6c f93c 2884 c9bc
00000050: 10f9 873c 3321 2cbd 05ea 0ebd 3c27 1dbd
00000060: b087 953c 074a 123d da31 e23c 4ffe bcbc
00000070: b2d8 a3bc 07e5 9ebc cff3 d4bc 63e4 803c
00000080: b589 e33c 6c14 86bb fde5 17bd 1ce3 883b
00000090: d26b 9dbc e896 bebc a40f 5ebc e58b 7b3d
000000a0: 40f7 81bb 69dc a3bc dac7 473d b760 39bd
000000b0: 269d 2c3d 5cbe dc3c 374e 123c 0cc1 cc3a
000000c0: b09e 5f3c 57c4 5d3c 57b0 9ebc 577d a03c
000000d0: 67f8 36bc 3c6b 35ba 6c27 3bbd 49c2 f6bc
000000e0: 14d4 48bd 6817 11bd 3bd2 eabc 096d 1ebd
000000f0: 8a7e 883c 008e d5bb 248c 06ba c5f7 26bd
00000100: ab02 af3a def8 89bc 211f 143d e0aa d23c
00000110: 3ddd 643c aff7 e8bc 79f4 8d3c 373a 25bd
00000120: ec7b 843c 59af db3c 5244 ce3c eb22 19bd
00000130: d64a c8bc 457e 50bc aa36 ce3c 74bc 9d3c
00000140: 3309 ddbc 42f9 743a 242d 07bd 2c05 a5bc
00000150: fd99 08bb e6cf d33c df44 25bd 827a 7bbc
00000160: f011 5ebc b5ee d6bc 053a 1cbc d0fb 4bbd
00000170: 2712 2fbd d4ae cf3c bd33 e73c 533c ec3b
00000180: 3d44 bcbc 4a7b 923b 85ba 513c c7ac 04bd
00000190: e26b 23bd 055f bcbb ae09 b03c 5541 df3a
000001a0: 632e 613d 9099 de3b 6dfd 07bd 4708 19bd
000001b0: 9664 6eb9 e3cd fabc 3dc0 f03c 16ea 023d
000001c0: f164 8a3c 05d5 40bc 6f6e e43c b406 33bd
000001d0: fdc4 5abd 9b4e 52bd 9010 dcbc 76ad 5dbd
0.008522058 0.038758516 -0.003823047 -0.02811721 -0.052600607 0.03008121 0.02359808 0.035239436
-0.0303787 -0.027188487 -0.015353793 0.010167148 0.025659345 -0.021339314 -0.005524678 0.03828351
0.04236202 -0.052432958 0.030447362 -0.02459915 0.016598254 -0.04202385 -0.034891147 -0.038367495
0.018253177 0.03571513 0.027611662 -0.023070483 -0.02000079 -0.019396318 -0.025995163 0.015733903
0.027775625 -0.00409179 -0.03708457 0.004177464 -0.019216452 -0.023265317 -0.013553534 0.06141271
-0.003966242 -0.02000256 0.048774578 -0.04525825 0.042142056 0.02694624 0.008929781 0.0015621497
0.013648674 0.013535581 -0.019371195 0.019591017 -0.011167622 -0.0006920581 -0.045691893 -0.03012194
-0.04903038 -0.035422713 -0.028664699 -0.038678203 0.016661901 -0.006517172 -0.0005132577 -0.040763635
0.0013352236 -0.016842302 0.0361625 0.025716245 0.013968763 -0.028438417 0.017328488 -0.04033872
0.016172372 0.02681701 0.025179062 -0.037386816 -0.024449747 -0.0127254175 0.02517255 0.0192549
-0.026981926 0.00093450036 -0.033002034 -0.020144068 -0.0020843737 0.02585597 -0.040348884 -0.015349032
-0.013554081 -0.026236871 -0.009535317 -0.049800694 -0.04274192 0.02535192 0.028222913 0.0072093396
-0.022981757 0.0044702636 0.012800817 -0.032391336 -0.039897807 -0.005748632 0.02148899 0.001703302
0.05497588 0.0067932084 -0.03320067 -0.03736141 -0.0002273492 -0.030615753 0.029388541 0.031961523
0.016893836 -0.011769538 0.02788469 -0.043707564 -0.05341052 -0.051344495 -0.026863366 -0.054120503

ConvNet.fc2.weight f4 [84, 120]
00000000: 8991 30bb 114b 2f3c ad55 0ebd 0803 8c3c
00000010: 0cb0 abbd 9e3a 203d c95b 543d c26b 433d
00000020: b41b 5bbd 00b7 c0bd 2827 cc3c 3531 1e3c
00000030: 3852 94bd a6f6 a5bd 589d 72bd 8c65 d33c
00000040: 5bcd 573c f18e 38bd b689 ecbc 03a8 b3bd
00000050: 026d 9b3a 91b5 f43b 9117 bc3c bf51 81bd
00000060: c9df b7bd bf9a 64ba fe93 593d a1ba 013d
00000070: 10eb 0b3d 0169 563d 5d31 bcbd f003 45bd
00000080: 3700 e9bb 375d 28bc 75a0 1ebd 4899 c8bd
00000090: 10eb 60bd 595b cf3c ae82 893d 4d05 5bbd
000000a0: 3ed0 873b f363 623d 2e6f 513c 2205 333d
000000b0: 42c3 e73c 0842 87bd e0b0 2ebd 647c 09bd
000000c0: 069f 6d3d d71a a93a b13f 723d 2a7b eabc
000000d0: 238d a23d b746 763d 57ec 9c3d 9651 5f3d
000000e0: e61d 9fbc 66f7 423b 427f 64bd e065 5e3c
000000f0: bb01 93bd 9299 4d3d d87d 953d 334e f43c
00000100: d119 afbb a4c3 48bd e4f9 85bd b28d 6c3d
00000110: 725c 35bd b892 3339 3deb 213c 1610 5a3d
00000120: 979b 3fbd f9cd 2dbd f079 ab3d fead 52bd
00000130: e386 22bc 119b 0d3d ac5e 633d 165e 93bc
00000140: fc88 0c3d e38f 943d 8d99 8ebc 594f 1dbc
00000150: dd7d aebd 6c8f 613d 6323 62bd cb4a c8bd
00000160: 5c6a ac3c 20df b3bd 2340 8bbd 2c48 03bd
00000170: b4dd de3c bea8 b53a 0969 9a3d f4ad b8bd
00000180: 3925 8cbd c907 963d a03b 083d 13ef c5bd
00000190: 394e 54bd 8244 81bd de42 edbc be67 a83d
000001a0: 4312 843d f23b 6b3d d125 c03c 69e5 a4bd
000001b0: 736f f43c aa38 22bd df5e 4a3b ddfa ab3d
000001c0: 3e39 9dbd 48ff 4f3d ff03 d2bc 58c0 473d
000001d0: ac0e a9bd 4c88 97bd 6568 58bd 5262 203c
000001e0: 42fd 713d 0772 1f3d d433 74bd ab91 32bc
000001f0: 1760 a23d 31ce 3fbd 7de1 bfbd 90f3 443d
00000200: 9b18 913d 0230 1b3d 9b59 b6bd db55 cfbc
00000210: fcd9 76bd e0dc 613d 41aa 63bd ee3c 7bbd
00000220: a1e7 23bd c7a7 c23b 7f65 12bd cb10 9fbb
00000230: 4ea5 54bd a8a6 483d 2729 513d 9023 a93d
00000240: e7f2 c2bc 2ac9 a7bd d453 e23b 6379 723d
00000250: c168 efbb eecb 4a3d fb8b 19bd af01 733c
00000260: dd33 d13b 5318 bb3b 5cae 123c 4115 a83d
00000270: 9be2 94bd 55a9 b0bc 8bc2 843d 5b46 a5bd
00000280: 60f3 0abd 8d2b 963c f6ac 5d3d fcb5 9cbc
00000290: 4ebb f93c 3b47 a3bd 3954 553d a456 88bc
000002a0: 141a 91bd 120e 05bd e5b8 663c d6e6 9ebd
000002b0: a597 ff3c ab04 e6bb 8991 853d 8b21 3abd
000002c0: 28db 6c3d 1756 27bd cde8 513b abde 7e3d
000002d0: 2b6b 6cbd 50e9 b6bd 78aa 7c3d 8b21 893d
000002e0: df02 81bd 6a0c c53c 6ce5 b03d 874e ad3d
000002f0: 259c 8bbd 78c8 1f3c 7ed7 21bd f191 113d
00000300: 2969 3c3d bb0e 8b3d 936a 213d 6145 99bb
00000310: 633e 623d 33ea 1b3c 9ec0 81bd 8ce9 6fbc
00000320: 9258 e8bb b611 863d 0c38 9cbc bd0c ed3b
00000330: 399d 633d cff1 bfbd 1027 98bc 1a58 433d
00000340: 1ec8 a9bd 44c9 f5bc aa82 23bd 651d b5bb
00000350: 8ea5 73bd 12ed b0bd 942d 223d b0ba 7d3c
00000360: 8bc0 5c3d d063 a53c 979a 263d 6ae8 003d
00000370: 3fca 3e38 325d 603d a641 823d a5ea 833d
00000380: d628 133d 7068 373d 4cbc abbd 8d2e 3bbc
00000390: 1604 cf3c dbd6 093d 5e43 76bd 7007 d93c
000003a0: 9c3e b03c c961 84bc 15c1 94bd 070b f03a
000003b0: 6881 1d3c 878d 39bd 2f23 97bd 818e 5dbd
000003c0: de02 853d 9204 96bb f412 113d ebce e63c
000003d0: 8e1e a8bd eb9d 543d ad58 afbd 1ae3 0e39
000003e0: 0fa5 90bd a334 de3c 47e8 aebd c5a3 3f3d
000003f0: 0ec2 94bc 3add b1bd a443 08bd fca0 febc
-0.0026942214 0.01069905 -0.034749676 0.01709129 -0.08383188 0.0391184 0.051845346 0.047710188
-0.053493217 -0.094099045 0.024921015 0.009655287 -0.072422445 -0.08103685 -0.059232086 0.025805257
0.013171519 -0.045058195 -0.02887426 -0.0877228 0.0011858048 0.0074679335 0.022960456 -0.0631442
-0.089782305 -0.0008720569 0.053119652 0.031672124 0.03415972 0.052346233 -0.09189103 -0.04809946
-0.0071106213 -0.01027613 -0.038727242 -0.09794861 -0.054911673 0.025312113 0.06714378 -0.053471852
0.0041446975 0.0552711 0.012782855 0.043706067 0.028291348 -0.06604391 -0.04264915 -0.033565894
0.058012985 0.0012901676 0.059142772 -0.028623182 0.07937076 0.060126033 0.07662266 0.054521166
-0.019423436 0.0029749512 -0.055785425 0.013574094 -0.071780644 0.050195284 0.072993934 0.029822445
-0.0053436537 -0.049014702 -0.065418035 0.05775232 -0.044277616 0.00017125427 0.009882745 0.053237997
-0.04677924 -0.04243276 0.08372867 -0.051435463 -0.009919855 0.03457171 0.055510208 -0.0179892
0.034310326 0.07254007 -0.017407203 -0.0096014375 -0.085201 0.05506842 -0.05520953 -0.097798906
0.02104681 -0.08782792 -0.067993425 -0.03205125 0.027205326 0.0013859493 0.07539565 -0.09017554
-0.06843037 0.07325704 0.033259988 -0.096647404 -0.05183241 -0.06311895 -0.028962549 0.08222912
0.06448796 0.057430215 0.023455532 -0.08051569 0.0298383 -0.03960482 0.0030879301 0.08397458
-0.07676934 0.050780565 -0.025636671 0.048767418 -0.082547516 -0.073990434 -0.052833933 0.009789066
0.059079416 0.038927104 -0.05961974 -0.010898988 0.07928484 -0.0468275 -0.0936918 0.04808384
0.07084771 0.03788758 -0.0890381 -0.025309494 -0.06026648 0.055142283 -0.05558229 -0.061337404
-0.04001582 0.005940411 -0.035741325 -0.004854297 -0.05191546 0.04898706 0.051064637 0.08258736
-0.023797465 -0.08192666 0.0069069657 0.059197795 -0.007306189 0.04951089 -0.03748701 0.014831944
0.0063843564 0.005709687 0.008952703 0.08207179 -0.07269784 -0.021565119 0.064824186 -0.0807006
-0.033923507 0.018331314 0.054120027 -0.019129746 0.030484822 -0.079725705 0.052082274 -0.016642876
-0.07085052 -0.03248412 0.014082168 -0.07758872 0.03120024 -0.0070195994 0.06521899 -0.045442145
0.05782619 -0.040853586 0.003202963 0.06222407 -0.05771939 -0.089312196 0.06168601 0.06695851
-0.06299376 0.024053771 0.08637509 0.084622435 -0.068168916 0.009752385 -0.03951215 0.03553957
0.045998726 0.06789919 0.039408278 -0.00467746 0.055235278 0.009516287 -0.06335567 -0.014643084
-0.0070906365 0.06546347 -0.019069694 0.0072341845 0.05556986 -0.09372293 -0.018573314 0.047691442
-0.082901224 -0.030003197 -0.039919533 -0.0055271857 -0.059484057 -0.086389676 0.039594248 0.015486404
0.05389456 0.020189196 0.040674772 0.031471647 4.5487886e-05 0.054776378 0.06360178 0.06441239
0.035927616 0.044777334 -0.08385524 -0.011424673 0.025270503 0.033652168 -0.06012284 0.026492804
0.02151423 -0.016159909 -0.0726339 0.0018313833 0.009613372 -0.045300987 -0.073797576 -0.05409098
0.064946875 -0.0045781815 0.035418466 0.028174838 -0.08208953 0.051908415 -0.085618354 0.00013626777
-0.070627324 0.027124709 -0.08540397 0.046787042 -0.018158939 -0.08684774 -0.033267632 -0.031082623

ConvNet.fc2.bias f4 [84]
00000000: 556f 143d 37b9 f6ba b768 363d 169d a4bc
00000010: bc7f 8a3d 3089 a6bd 3333 893d 55fb 903d
00000020: 2d7b a4bd f6e5 413d 146d b0bd dd6d a63c
00000030: 8f7f b3bd d3bc 73bc 9324 93bd 519d aa3d
00000040: c7f7 c33d 9531 a3bd 3691 65bd cbfb 083d
00000050: e0db abbd 8f18 7c3d edaa 963d c248 73bd
00000060: 5c99 ca3c 091f ccbc 1b7a 4bbd 358b 79bc
00000070: 9fec adbc b566 99bd d365 8f3d f596 b1bd
00000080: 5712 71bd 1121 893b 7eb8 333d f79b 14bd
00000090: f503 31bd dbf5 7b3d a3e6 a2bd 85bc b0bd
000000a0: 1ddf 50bc a15f 723d 080f 22bd 73f9 24bc
000000b0: c4c3 ce3c 7a76 bd3d da2f 183d 8a20 fe3c
000000c0: d686 363c 858b 493d eeff 523d 1da9 a23c
000000d0: 95fb a2bc 1536 1abc 4b6a 963d 9185 013d
000000e0: e139 afbd 56e1 a63d 33f5 1c3d 6521 93bd
000000f0: 63f3 073d 2a17 abbd b2bf 79bc 1b74 23bd
00000100: a184 593d 3ca2 dbbc d5e8 cb3d 2744 a13d
00000110: c382 ca3c 1ccc 8e3c 9d61 a53d 7b44 7bbd
00000120: af33 b0bb 7ad9 9e3d d948 29bd ff75 80bd
00000130: ab78 99bd 8d4f f6bc fca3 a4bd 64b8 09bc
00000140: f927 8d3d 033a b63d 55cb 34bd d232 67bd
0.036238987 -0.0018823509 0.044533458 -0.020094436 0.06762645 -0.08131635 0.066992186 0.07079188
-0.080313064 0.04733845 -0.08614555 0.020316059 -0.08764564 -0.014876562 -0.0718471 0.08330787
0.09568744 -0.079684414 -0.056046687 0.033443253 -0.08391547 0.06154686 0.0735682 -0.05939556
0.02473133 -0.024917142 -0.049676996 -0.015230943 -0.021230994 -0.07490293 0.07001843 -0.08671371
-0.05885538 0.00418485 0.043877117 -0.036281552 -0.043216664 0.061513763 -0.07954147 -0.08629707
-0.012748507 0.05917323 -0.039565116 -0.010069239 0.025239833 0.09251113 0.03715501 0.031021375
0.011140546 0.04920532 0.051513605 0.01985603 -0.019895354 -0.009412308 0.073444925 0.03162152
-0.085559614 0.08148448 0.038319778 -0.07184104 0.033191096 -0.083540276 -0.015243458 -0.03990565
0.053105 -0.026810758 0.099565186 0.07874327 0.024720555 0.017431311 0.08075259 -0.061344605
-0.005377255 0.07756324 -0.04132924 -0.06272506 -0.07493719 -0.03006723 -0.0803909 -0.008405779
0.0689239 0.088977836 -0.044139225 -0.05644495

Output.fc.weight f4 [1, 84]
00000000: 92a9 afbd c45b 50bd 1b37 aabd b53e 8ebd
00000010: e5f9 adbc f2e5 793d ac47 a3bd 1d28 783d
00000020: 4bfa 6bbd 930c dd3d 78e9 a03d 8ce5 913d
00000030: f136 1a3d 83f1 ccbd d8e0 ec3c 10a8 ed3c
00000040: 2cac b93d a300 b43b d131 543c 3d54 883d
00000050: e180 1a3d 43a7 98bc afbe d93d 60a8 03bd
00000060: 02d3 c8bd 8b2e 5bbd 304a cabd 3df1 41bd
00000070: 5988 34bd fcb1 8fbd 8828 b63d 6cb6 a43d
00000080: 5b2d 093d 320e af3d 8797 ecbb 3b3f d93b
00000090: 0213 003d a1f1 6abd e8c9 b7bd 0ebc 4f3d
000000a0: 7a5b b3bd ddcc a5bd dc62 62bd 76ae 843d
000000b0: 583e c63d 9531 5f3d d853 e2bc 73e2 91bc
000000c0: fe33 28bd 371b 4cbd 98db adbd 0f83 9e3d
000000d0: 296c cabd d796 fe3c 931f ac3d f08c 8cbc
000000e0: 3081 023d e75f a13d 273a 9cbd 64c0 bebb
000000f0: 896b 9cbb c7d9 c13c 259d 2abd c12c 82bc
00000100: 5893 153d 72cc 4bbd 5ebf 183d 54ab a53d
00000110: 144c 31bd d594 a53d 366a aebd 4f2a 5bbd
00000120: ef9d ccbd 95de cd3c f45d 823d a651 aabd
00000130: fdd5 513d e3e8 913b 1ee5 62bd 6657 d8bc
00000140: 471f 553c 9856 de3d 98e0 773d 7afd 9a3d
-0.08577265 -0.050868765 -0.08311292 -0.06945554 -0.021237323 0.06101031 -0.07972655 0.06058513
-0.057611745 0.10793414 0.07857031 0.07123861 0.037650052 -0.10007002 0.028915808 0.029010803
0.09066042 0.00549324 0.01295133 0.06656692 0.037720565 -0.018634444 0.10632073 -0.032142997
-0.098058715 -0.053511184 -0.098774314 -0.047349203 -0.044075344 -0.0701637 0.088944495 0.08042607
0.03349052 0.085476294 -0.007220212 0.006629852 0.031268127 -0.05735934 -0.089740574 0.050716452
-0.08757682 -0.08095715 -0.05527006 0.06478588 0.0967986 0.054490644 -0.02762787 -0.017808175
-0.04106521 -0.04983064 -0.0848915 0.07739841 -0.09883911 0.031077785 0.0840446 -0.017157048
0.031861484 0.0787962 -0.07628279 -0.0058212746 -0.0047735614 0.023663415 -0.04165377 -0.015890481
0.03651747 -0.04975552 0.037291877 0.08089319 -0.043285444 0.08085028 -0.08516352 -0.053507145
-0.09991061 0.02513055 0.063655764 -0.083163545 0.051229466 0.004452811 -0.055394284 -0.026408862
0.013007945 0.1085636 0.060516924 0.07567878
