tutorials/W1D2_ComparingTasks/RR/models/ConvNet_inpainting_10_epoch_10.pth (torch, 506434 bytes, 19 tensors)

encoder.conv1.weight f4 [6, 1, 5, 5]
0.16149816 0.17250767 -0.0384936 0.19024159 -0.037965745 0.049322877 -0.08839667 0.12651204
0.18522224 -0.1403543 0.18268268 0.04629603 0.15663473 0.032790877 0.10064434 -0.019379903
0.16284195 0.038241766 -0.088472575 0.053340364 -0.08320479 -0.014816976 -0.07262927 0.1380648
-0.1575142 -0.088141285 -0.05176452 -0.11362704 0.027288707 -0.18848462 0.18586019 -0.16206844
0.16348325 0.042509727 -0.055889763 0.1277549 0.03996517 0.17094855 0.030884499 -0.056859523
0.059643153 -0.045219775 0.093530975 0.18796778 0.12220205 -0.081831194 0.12450923 0.044749126
0.11076488 -0.11265047 -0.20382494 -0.07934202 -0.15333281 0.16537833 0.06594988 0.08033428
0.06400172 -0.00070332445 0.16058661 -0.1333103 0.011337107 -0.13561153 0.064399734 -0.06389383
0.066470526 -0.041765567 0.16734608 -0.115899466 -0.11596262 -0.12238803 0.18081975 0.06898613
0.19893569 -0.15861651 -0.19866261 -0.1552788 -0.1308181 0.08563164 0.07465713 0.16888072
-0.1091509 -0.13516669 0.110698566 -0.0780795 0.12357042 -0.041655123 0.11922111 -0.15088888
-0.09806585 0.062017597 0.050164327 -0.04222416 0.12514432 0.13955419 -0.14358792 -0.099132456
0.19179752 -0.062508985 -0.06733556 -0.19412579 -0.123435244 0.04189947 -0.03465826 -0.15394521
-0.001255291 -0.14523381 -0.17766707 -0.11851188 -0.1837006 -0.13607283 0.19206944 0.03025845
0.053138893 -0.19525294 -0.14014271 -0.072959974 0.024713736 -0.18426916 -0.0948596 -0.12848373
-0.0054303114 -0.08030922 -0.021560004 -0.14397362 -0.14552009 -0.11974695 -0.0737011 -0.15927313
0.17274444 -0.036267973 0.16962767 0.06535104 -0.16443346 0.14248522 -0.053320244 -0.08049963
-0.16526216 -0.19714947 0.0603257 -0.040737815 0.0716242 -0.1722932 0.14853299 -0.14421703
-0.031861976 0.042401813 0.10376069 0.16436271 0.18671715 -0.15431426
00000000: c65f 253e daa5 303e 77ab 1dbd b1ce 423e
00000010: f881 1bbd c906 4a3d 5009 b5bd 5f8c 013e
00000020: e6aa 3d3e 0ab9 0fbe 2b11 3b3e e8a0 3d3d
00000030: db64 203e ba4f 063d 9f1e ce3d 9ac2 9ebc
00000040: 0ac0 263e 66a3 1c3d 1c31 b5bd 6d7b 5a3d
00000050: 4667 aabd e7c2 72bc a8be 94bd dc60 0d3e
00000060: 674b 21be 6b83 b4bd 0907 54bd 4bb5 e8bd
00000070: 918c df3c 1d02 41be 2252 3e3e 45f5 25be
00000080: 2768 273e ae1e 2e3d aaec 64bd 2ed2 023e
00000090: 85b2 233d 230d 2f3e 7d01 fd3c 88e5 68bd
000000a0: 614c 743d 5f38 39bd 2b8d bf3d a07a 403e
000000b0: 1245 fa3d 1d97 a7bd b2fe fe3d dc4a 373d
000000c0: b3d8 e23d 4ab5 e6bd 7cb7 50be 127e a2bd
000000d0: 4703 1dbe f058 293e bb10 873d 4d86 a43d
000000e0: 5513 833d 4e5f 38ba d170 243e 7f82 08be
000000f0: 46bf 393c c0dd 0abe 02e4 833d c5da 82bd
00000100: b321 883d 5f12 2bbd c55c 2b3e b35c edbd
00000110: cf7d edbd 93a6 fabd d028 393e 9a48 8d3d
00000120: ccb5 4b3e 5e6c 22be 366e 4bbe 6801 1fbe
00000130: 2ef5 05be a45f af3d d6e5 983d 11ef 2c3e
00000140: 828a dfbd 2369 0abe eeb5 e23d 25e8 9fbd
00000150: 7d12 fd3d 909e 2abd 332a f43d 9d82 1abe
00000160: c0d6 c8bd 2a06 7e3d 1c79 4d3d 3ef3 2cbd
00000170: d525 003e 4be7 0e3e b608 13be f505 cbbd
00000180: 9266 443e b604 80bd 3ae7 89bd e9c8 46be
00000190: 9ecb fcbd c79e 2b3d d2f5 0dbd d0a3 1dbe
000001a0: 9488 a4ba 2cb8 14be 5bee 35be 5bb6 f2bd
000001b0: 031c 3cbe ad56 0bbe daad 443e 92e0 f73c
000001c0: 2ba8 593d 63f0 47be 9281 0fbe 0a6c 95bd
000001d0: 7674 ca3c 0eb1 3cbe c045 c2bd 3d91 03be
000001e0: c1f0 b1bb 2979 a4bd 9b9e b0bc d26d 13be
000001f0: 3803 15be e43d f5bd 9af0 96bd 7f18 23be
00000200: ebe3 303e ba8d 14bd e0b2 2d3e c4d6 853d
00000210: 3f61 28be a5e7 113e 5466 5abd fddc a4bd
00000220: 7c3a 29be 8de1 49be 1518 773d b2dc 26bd
00000230: b5af 923d a16d 30be 0819 183e a1ad 13be
00000240: b481 02bd 86ad 2d3d 7c80 d43d b34e 283e
00000250: c832 3f3e 8f04 1ebe

encoder.conv1.bias f4 [6]
0.059396047 -0.07669179 -0.01321851 -0.14485693 0.19057454 -0.14907245
00000000: 4549 733d 9610 9dbd 7392 58bc 6055 14be
00000010: f925 433e 73a6 18be

encoder.conv2.weight f4 [16, 6, 5, 5]
0.050668407 0.035759024 0.028725179 -0.04902718 0.07020031 0.02407396 0.016345967 -0.0668984
0.028653884 -0.016995259 -0.031289823 0.0765197 0.02291031 -0.04196548 -0.04678722 0.0033140886
0.05195376 -0.015943445 -0.043114096 -0.035980575 -0.053125057 0.03611857 0.0692445 -0.07212623
0.012370763 0.048204057 0.020433031 -0.02820617 0.03746024 0.03747833 0.031492874 -0.009636082
-0.015870614 0.014550031 -0.017820768 -0.021953981 0.05685603 0.07515481 -0.008036229 -0.024937063
0.008535661 -0.0028158822 0.024538789 0.022237713 -0.07867664 -0.021918785 0.072666146 0.036171846
-0.0050822482 -0.055017855 -0.05247956 -0.06578321 -0.020278348 0.034155197 0.053169075 0.043149274
-0.071861826 -0.042886134 -0.005784204 0.08441772 0.020914193 -0.017512243 0.040091187 -0.024588205
-0.04992194 0.061922967 -0.030575601 -0.007870562 -0.07732654 0.060223807 0.06134255 0.037694994
-0.049385354 -0.074526474 -0.060057886 0.062351026 0.03772555 0.06774083 0.045303747 0.022647107
0.0063763694 -0.066353895 -0.07007958 -0.07787994 0.0318165 -0.03305464 -0.01449855 -0.038116787
-0.014925509 -0.06024937 -0.052665174 0.03303792 -0.0169668 0.046057664 -0.029696852 -0.06052057
-0.008422412 -0.03573365 -0.025671236 -0.0756312 0.04685915 -0.056391064 0.04524753 0.044905946
0.06641019 -0.062132217 0.05881751 -0.035608206 0.038383573 0.08490681 -0.012374797 0.0010762233
-0.015939144 -0.06273127 0.043985218 -0.08230757 0.05299754 0.06409116 0.08084825 -0.014304688
-0.06863803 0.019923767 0.049395155 -0.07768433 -0.0135246 -0.05098642 -0.00936179 -0.032510724
-0.02722862 -0.026199505 -0.07464014 0.06679704 0.07424229 -0.011514017 -0.013047196 -0.031083824
-0.06654795 -0.08050696 0.032230042 -0.05096809 -0.05069492 0.00203314 -0.025217516 -0.025430623
0.007393577 -0.0111763645 -0.019921621 -0.030938033 -0.06624241 0.067881584 -0.025844919 0.027246559
-0.024396768 0.0043675527 0.07193023 0.044886455 -0.06498979 0.034156088 0.07750099 0.020609558
0.061476227 0.08354261 -0.016143452 0.011929381 -0.057342112 -0.010228795 0.063037485 0.035804156
-0.05801115 -0.06746928 -0.049211044 -0.076759346 -0.06620819 -0.027342772 0.051958833 0.020600967
-0.058986578 -0.060415015 0.04290465 -0.05706768 -0.0045029414 0.04034124 -0.038411953 -0.0104835015
-0.0040188027 -0.0133883795 -0.044487122 -0.07853756 -0.07045497 -0.044619266 0.085144 -0.036199905
-0.061147813 0.013632719 0.01949365 0.05085286 0.06618321 0.04700601 -0.08812788 0.0018428379
0.056336578 -0.0010843247 -0.047084168 0.07873726 -0.032163784 -0.03958477 -0.067877635 0.0064130346
0.03183334 0.017248943 0.022799382 -0.056289133 -0.07305131 -0.00046829344 0.07576011 0.052849755
-0.04135841 -0.006030815 -0.05570108 -0.035865463 0.021641815 0.050471526 0.07275727 -0.06851017
0.06099084 -0.05173849 0.030624164 0.06711683 -0.0057212547 0.06578105 -0.06705654 -0.027539281
0.046314918 -0.022407832 -0.022695955 -0.034139965 0.05763114 0.040975302 0.025426818 -0.0404439
-0.067106366 0.0054810173 0.021634245 -0.032538112 -0.01687459 0.05634163 -0.00014149045 -0.0020994935
-0.019548248 -0.06779941 -0.071659565 -0.031787112 -0.034502584 0.03273375 -0.016341025 -0.025577812
00000000: ad89 4f3d 0e78 123d 1151 eb3c b9d0 48bd
00000010: 2ec5 8f3d c136 c53c fae7 853c 0702 89bd
00000020: 8dbb ea3c a439 8bbc c229 00bd 5cb6 9c3d
00000030: 67ae bb3c ffe3 2bbd f5a3 3fbd 2e31 593b
00000040: 77cd 543d d49b 82bc 6898 30bd 5e60 13bd
00000050: a999 59bd 11f1 133d 0fd0 8d3d ebb6 93bd
00000060: beae 4a3c 9e71 453d 2c63 a73c a010 e7bc
00000070: e96f 193d e182 193d acfe 003d a8e0 1dbc
00000080: 1703 82bc 4163 6e3c dcfc 91bc d6d8 b3bc
00000090: dee1 683d c4ea 993d 63aa 03bc d048 ccbc
000000a0: 28d9 0b3c aa8a 38bb 9205 c93c dd2b b63c
000000b0: 3821 a1bd 068f b3bc fdd1 943d ee28 143d
000000c0: fd88 a6bb 675a 61bd cff4 56bd 59b9 86bd
000000d0: c71e a6bc 52e6 0b3d d1c7 593d 4bbd 303d
000000e0: 4b2c 93bd 5fa9 2fbd 6c89 bdbb 33e3 ac3d
000000f0: 3e54 ab3c d675 8fbc a836 243d 346d c9bc
00000100: f37a 4cbd f0a2 7d3d af79 fabc 88f3 00bc
00000110: 615d 9ebd 3dad 763d 5342 7b3d 1166 1a3d
00000120: 4c48 4abd 56a1 98bd 42ff 75bd ca63 7f3d
00000130: 1b86 1a3d b4bb 8a3d 6c90 393d 6d86 b93c
00000140: ddf0 d03b 8de4 87bd e285 8fbd 857f 9fbd
00000150: 0552 023d 4d64 07bd 548b 6dbc 5920 1cbd
00000160: 1f8a 74bc 0bc8 76bd 70b7 57bd c552 073d
00000170: f5fd 8abc f6a6 3c3d d046 f3bc 6be4 77bd
00000180: 28fe 09bc 735d 12bd 7c4c d2bc 88e4 9abd
00000190: 61ef 3f3d 51fa 66bd 7955 393d 4cef 373d
000001a0: 1102 883d 5a7e 7ebd a1ea 703d e9d9 11bd
000001b0: 1838 1d3d 9fe3 ad3d a9bf 4abc 1010 8d3a
000001c0: cf92 82bc 4179 80bd d829 343d df90 a8bd
000001d0: f313 593d 3a42 833d c493 a53d 365e 6abc
000001e0: 1892 8cbd 2b37 a33c 9352 4a3d f618 9fbd
000001f0: 4996 5dbc 23d7 50bd 3162 19bc f729 05bd
00000200: 8e0e dfbc 58a0 d6bc eedc 98bd e3cc 883d
00000210: 570c 983d 4aa5 3cbc e8c3 55bc 81a3 febc
00000220: 4b4a 88bd d5e0 a4bd a603 043d eac3 50bd
00000230: 7aa5 4fbd 6e3e 053b f794 cebc e253 d0bc
00000240: d245 f23b 121d 37bc ab32 a3bc c271 fdbc
00000250: 1aaa 87bd 8005 8b3d b9b8 d3bc 2d34 df3c
00000260: bbdb c7bc b01d 8f3b 2850 933d dcda 373d
00000270: 5e19 85bd 41e7 0b3d d7b8 9e3d 60d5 a83c
00000280: 7fce 7b3d 6318 ab3d 463f 84bc 7373 433c
00000290: 90df 6abd ad96 27bc cc19 813d 61a7 123d
000002a0: 1a9d 6dbd 552d 8abd 8591 49bd 0134 9dbd
000002b0: 2998 87bd f3fd dfbc c9d2 543d 5cc3 a83c
000002c0: e99b 71bd bc75 77bd c9bc 2f3d cdbf 69bd
000002d0: 698d 93bb db3c 253d da55 1dbd fec2 2bbc
000002e0: 29b0 83bb ef5a 5bbc 2138 36bd 4dd8 a0bd
000002f0: b24a 90bd b1c2 36bd fa5f ae3d 5a46 14bd
00000300: 2176 7abd c55b 5f3c 26b1 9f3c 174b 503d
00000310: 108b 873d 6089 403d 647c b4bd 618b f13a
00000320: 2fc1 663d e61f 8eba 54db 40bd 0041 a13d
00000330: 2cbe 03bd a423 22bd 6e03 8bbd 6f24 d23b
00000340: ad63 023d a84d 8d3c c5c5 ba3c 6f8f 66bd
00000350: ed9b 95bd 4885 f5b9 1e28 9b3d fc78 583d
00000360: 7067 29bd 259e c5bb d126 64bd aae7 12bd
00000370: 2d4a b13c 3bbb 4e3d c301 953d 0f4f 8cbd
00000380: 88d1 793d bdeb 53bd 87df fa3c 8c74 893d
00000390: 5d79 bbbb 37b8 863d f054 89bd 0f9a e1bc
000003a0: b6b4 3d3d a190 b7bc deec b9bc 59d6 0bbd
000003b0: a10e 6c3d b8d5 273d e74b d03c 81a8 25bd
000003c0: 106f 89bd 1b9a b33b 4d3a b13c af46 05bd
000003d0: 953c 8abc 7bc6 663d 0e5d 14b9 a897 09bb
000003e0: a623 a0bc 6bda 8abd 40c2 92bd 3433 02bd
000003f0: 9552 0dbd d313 063d 9ddd 85bc 8f88 d1bc

encoder.conv2.bias f4 [16]
-0.00096246676 0.038828075 0.038347006 0.006675813 -0.033056296 0.05142664 0.06210763 0.021278737
-0.033726238 0.025147477 0.00784054 0.08397362 0.013891672 0.011756118 0.0015332496 0.045216426
00000000: 0d4e 7cba 300a 1f3d c011 1d3d c7c0 da3b
00000010: 0a66 07bd bea4 523d 9264 7e3d bf50 ae3c
00000020: 8624 0abd 1502 ce3c 9c75 003c 5cfa ab3d
00000030: e599 633c bc9c 403c 52f7 c83a dc34 393d

encoder.fc1.weight f4 [120, 400]
0.0026614398 0.042165756 0.029806454 -0.03758972 0.0010764278 -0.043011576 -0.040455867 0.014264286
0.012916161 0.0017902475 0.0550045 -0.019245457 -0.014309563 -0.0034533893 0.003639236 0.0033937122
0.051478285 -0.017410679 -0.0221638 0.0074226297 0.044277478 0.011375449 0.032877214 0.016607296
0.046558075 0.029840577 0.032199696 -0.008089134 -0.038901035 -0.017312726 0.0140846595 0.039873153
-0.013761609 0.044516135 0.006527879 0.005227684 0.005080395 -0.011439249 0.054108344 0.003365158
0.0325318 -0.04284631 -0.02046835 0.013458176 0.043764543 0.024954064 0.012075192 -0.042955738
-0.0030757592 -0.03407263 -0.04437108 0.008494518 -0.028257888 0.05001739 -0.019995568 0.024539404
0.03780033 -0.03053994 0.0340375 -0.00014551752 0.026933001 0.04912194 -0.019083505 -0.014761869
0.040704764 0.0063448334 -0.0015237547 0.03967411 -0.023489175 -0.008425562 0.027555497 0.013937281
-0.030837484 0.013254826 -0.044328522 -0.02530532 0.039329793 -0.0104203485 -0.018535273 0.010597715
0.011917242 -0.026052123 -0.03378202 -0.051724005 0.016508233 -0.025939913 0.009827597 -0.0050733336
-0.025809148 -0.008644164 -0.035413265 -0.02289116 0.00015170983 -0.034743734 -0.041110717 0.040795844
0.012390646 -0.013640523 0.005716203 0.03579556 -0.03919132 -0.021990562 -0.035997763 -0.0012586358
-0.00080730976 -0.032553397 0.040939376 -0.030306064 0.055440955 -0.03321542 -0.0037993207 0.009934854
-0.014524085 0.04851418 -0.030721823 0.0038034776 -0.028422792 0.022405323 0.046165682 0.05416759
0.01223614 -0.017352225 0.05144451 0.008631655 0.041666012 -0.024028404 -0.020020315 -0.046153467
0.045542084 0.0130522065 -0.03590947 0.002034952 -0.021864476 -0.0019164641 0.010728849 -0.02481174
0.011270629 -0.02881185 0.0060978625 -0.048285764 0.007037384 0.051955443 0.046976045 0.015650507
0.040897734 0.048612893 0.016844321 0.016676549 0.010399617 0.039829064 0.045656968 -0.021061547
0.0037852798 -0.021799164 0.023740599 -0.040609483 0.02600858 -0.0052748984 0.026320826 0.02292072
-0.020532984 0.029247697 0.027001185 -0.038896404 0.055939194 0.049656764 0.036924113 0.00248351
0.023814114 -0.023741666 -0.014177428 0.023541544 0.024662502 0.022640916 -0.044955187 0.041956957
-0.019970708 0.045425232 0.0453278 0.019357646 0.050402824 0.03159063 0.03548233 -0.01107739
0.05300176 0.02099424 0.037506584 -0.004470259 0.041413113 0.051849272 -0.033838432 0.047184296
-0.026938623 -0.028884843 -0.03534641 0.020564843 -0.03133259 -0.016093908 -0.022252332 0.012649085
-0.047437366 -0.015683789 0.0072172326 0.011887103 -0.021068018 0.021598365 -0.025834788 -0.03965738
-0.0017497189 -0.024473518 0.03690766 -0.032179907 -0.0017855957 0.025564158 -0.04011735 0.036887735
-0.016800243 -0.0075855223 -0.027107013 -0.013118972 -0.02158755 -0.04413071 0.017146008 -0.00038392283
0.048367318 0.03736162 0.046198346 0.02098187 0.030359 0.052022442 0.04936391 -0.030454297
-0.004040057 -0.041646913 0.0076689227 -0.009277121 0.05103975 0.014666226 0.0060133003 -0.030108083
-0.035607617 0.013264887 -0.018818604 -0.017114222 0.04061515 -0.025933756 -0.023301922 0.043534424
0.02541894 -0.025720846 0.014279859 0.032581385 -0.037039246 0.014059545 0.017896416 -0.00058808085
00000000: 8d6b 2e3b 00b6 2c3d aa2c f43c aef7 19bd
00000010: ec16 8d3a e82c 30bd 0db5 25bd c0b4 693c
00000020: 4e9e 533c bda6 ea3a 664c 613d a6a8 9dbc
00000030: a872 6abc 4252 62bb 4080 6e3b 0b69 5e3b
00000040: e5da 523d d7a0 8ebc dc90 b5bc 8839 f33b
00000050: 4d5c 353d 1760 3a3c 42aa 063d 060c 883c
00000060: aeb3 3e3d 3a74 f43c d4e3 033d 4988 04bc
00000070: b156 1fbd 6bd3 8dbc 58c3 663c 0852 233d
00000080: 5f78 61bc 8d56 363d d1e7 d53b fe4c ab3b
00000090: 7179 a63b b06b 3bbc b6a0 5d3d fc89 5c3b
000000a0: 1140 053d 9d7f 2fbd 3ead a7bc ae7f 5c3c
000000b0: 7342 333d 776c cc3c 07d7 453c 5bf2 2fbd
000000c0: ad92 49bb be8f 0bbd 73be 35bd 972c 0b3c
000000d0: 167d e7bc 09df 4c3d bfcd a3bc dc06 c93c
000000e0: 85d4 1a3d e52e fabc e86a 0b3d 1096 18b9
000000f0: 99a2 dc3c 1634 493d 0355 9cbc c4db 71bc
00000100: 0aba 263d 52e8 cf3b b9b8 c7ba 5281 223d
00000110: 5f6c c0bc 5e0b 0abc 11bc e13c 3259 643c
00000120: e49e fcbc c52a 593c d391 35bd 1a4d cfbc
00000130: 4718 213d 1cba 2abc 49d7 97bc 0aa2 2d3c
00000140: 8940 433c 436b d5bc 045f 0abd 8ddc 53bd
00000150: 463c 873c f17f d4bc ee03 213c 353e a6bb
00000160: b56d d3bc 40a0 0dbc 800d 11bd 3e86 bbbc
00000170: 4c14 1f39 724f 0ebd b663 28bd 8b19 273d
00000180: 2302 4b3c 807c 5fbc fc4e bb3b 5d9e 123d
00000190: 1487 20bd 8d25 b4bc 6472 13bd cff8 a4ba
000001a0: a4a1 53ba b656 05bd 0cb0 273d 6c44 f8bc
000001b0: 0e16 633d e40c 08bd 06fe 78bb ccc5 223c
000001c0: 6ef6 6dbc ceb6 463d 55ac fbbc c443 793b
000001d0: ead6 e8bc 5e8b b73c 3a18 3d3d d6de 5d3d
000001e0: 177a 483c 4126 8ebc 7bb7 523d c96b 0d3c
000001f0: fba9 2a3d 37d7 c4bc a501 a4bc 6b0b 3dbd
00000200: 568a 3a3d ecd8 553c cf15 13bd d45c 053b
00000210: 211d b3bc dd31 fbba 0ec8 2f3c fd41 cbbc
00000220: 72a8 383c d406 ecbc 94d0 c73b 4bc7 45bd
00000230: db99 e63b 3bcf 543d f469 403d 7e35 803c
00000240: 6284 273d 501e 473d 1afd 893c 429d 883c
00000250: 2863 2a3c cd23 233d cd02 3b3d 4489 acbc
00000260: 7512 783b 2994 b2bc a57b c23c 2156 26bd
00000270: f20f d53c 0ed9 acbb c69e d73c 3cc4 bb3c
00000280: ca34 a8bc de98 ef3c 9731 dd3c d651 1fbd
00000290: 7f20 653d e464 4b3d bd3d 173d 62c2 223b
000002a0: d115 c33c e27d c2bc 7148 68bc 32da c03c
000002b0: 0409 ca3c 7179 b93c ee22 38bd 0fdb 2b3d
000002c0: 9c99 a3bc cf0f 3a3d a5a9 393d ed93 9e3c
000002d0: 3173 4e3d 2d65 013d eb55 113d f17d 35bc
000002e0: 6018 593d 1dfc ab3c 81a0 193d 407b 92bb
000002f0: cca0 293d e75f 543d 2b9a 0abd 5244 413d
00000300: 63ae dcbc e89f ecbc 66c7 10bd 9a77 a83c
00000310: 9a56 00bd 5fd7 83bc 864a b6bc 1c3e 4f3c
00000320: af4d 42bd 4a7b 80bc 897e ec3b 20c2 423c
00000330: d696 acbc 0eef b03c 7aa3 d3bc c76f 22bd
00000340: d356 e5ba b07c c8bc 7d2c 173d 14cf 03bd
00000350: a60a eaba ed6b d13c 1752 24bd 9817 173d
00000360: aaa0 89bc f98f f8bb 870f debc f5f0 56bc
00000370: 60d8 b0bc 67c2 34bd c975 8c3c 4049 c9b9
00000380: cf1c 463d 8008 193d 7a3a 3d3d 2ce2 ab3c
00000390: 70b3 f83c 7c15 553d d031 4a3d 4a7b f9bc
000003a0: 7462 84bb f495 2abd 964b fb3b 11ff 17bc
000003b0: 0f0f 513d 9c4a 703c 380b c53b 3aa5 f6bc
000003c0: 4bd9 11bd f854 593c 7929 9abc 2033 8cbc
000003d0: 125c 263d 0773 d4bc ace3 bebc 2751 323d
000003e0: 613b d03c 86b4 d2bc 12f6 693c 0f74 053d
000003f0: 77b6 17bd 015a 663c 819b 923c 7029 1aba

encoder.fc1.bias f4 [120]
-0.02196209 0.022524334 -0.013346505 0.030924022 0.023193425 0.028749727 8.928648e-06 -0.017915461
0.0043275226 -0.0126907965 0.012803742 -0.002463466 -0.0050999066 0.04706042 -0.041287363 0.047248766
0.02238091 -0.029340351 0.0345233 -0.015116443 -0.03505547 -0.012559086 0.0101165995 -0.033509243
0.004686328 0.021017114 -0.03926138 0.021163607 0.019005938 0.05492481 0.05236382 -0.010047495
-0.02047914 -0.043668788 -0.0241557 0.0063248747 0.0218401 0.03427588 0.017237376 -0.004996574
0.0159866 0.034505583 0.03796313 0.031657882 -0.027714228 -0.020763746 -0.012599146 -0.0066860854
-0.041005395 0.04443502 0.04095957 0.04051856 0.016586518 0.058613993 0.003296336 -0.0077094366
0.0010506634 0.015292885 0.010748246 0.002310671 0.008898307 -0.028344894 -0.00077557564 0.02555483
0.0032168173 -0.047038335 -0.007660094 -0.009878336 0.03608663 0.032785464 -0.022564005 0.020550953
0.0073721204 -0.039401997 -0.017782336 0.013598002 0.033606406 -0.020129107 0.009562588 0.016103191
-0.042637985 -0.011464033 0.01902755 0.019749546 0.017354043 -0.024032544 -0.011961965 0.028340008
0.017642478 -0.011896065 0.053823974 0.0056632645 -0.04119535 0.007282542 -0.012603185 -0.011462742
-0.0018063578 -0.014819176 -0.02728149 0.02732374 0.040283155 -0.034868468 0.0049143597 0.021373816
0.0049945945 -0.005144981 -0.016631672 -0.00683927 -0.04201956 0.044346664 0.044997662 0.027637005
-0.019620646 -0.009863107 0.01837905 0.03524383 -0.00041399332 -0.0064737936 -0.04898571 -0.041927632
00000000: d7e9 b3bc f484 b83c 4dab 5abc 6054 fd3c
00000010: 2300 be3c 8c84 eb3c 40cc 1537 72c3 92bc
00000020: e4cd 8d3b 0fed 4fbc c9c6 513c 1a72 21bb
00000030: 1e1d a7bb 6dc2 403d f01c 29bd ec87 413d
00000040: 2c58 b73c 2d5b f0bc 4e68 0d3d f5aa 77bc
00000050: 5396 0fbd a0c4 4dbc 18c0 253c fd40 09bd
00000060: c58f 993b 152c ac3c 8ad0 20bd 4d5f ad3c
00000070: 57b2 9b3c d6f8 603d 727b 563d 409e 24bc
00000080: dfc3 a7bc 0bde 32bd 2de2 c5bc e540 cf3b
00000090: 02ea b23c dd64 0c3d 6635 8d3c 4dba a3bb
000000a0: 55f6 823c ba55 0d3d 3a7f 1b3d b2ab 013d
000000b0: f308 e3bc bb18 aabc a66c 4ebc f316 dbbb
000000c0: 46f5 27bd 7f01 363d 39c5 273d caf6 253d
000000d0: 73e0 873c 3a15 703d 5707 583b 719f fcbb
000000e0: 6ab6 893a 028f 7a3c 6919 303c a06e 173b
000000f0: 34ca 113c 8d33 e8bc 0050 4bba 5d58 d13c
00000100: 3dd1 523b 45ab 40bd 8701 fbbb bfd8 21bc
00000110: 93cf 133d 0d4a 063d 26d8 b8bc 795a a83c
00000120: d491 f13b fd63 21bd 43ac 91bc 27ca 5e3c
00000130: dfa6 093d cce5 a4bc 67ac 1c3c d7ea 833c
00000140: 2ba5 2ebd a4d3 3bbc aadf 9b3c cdc9 a13c
00000150: 112a 8e3c e6df c4bc 1efc 43bc 4e29 e83c
00000160: f586 903c b7e7 42bc 8776 5c3d e892 b93b
00000170: 75bc 28bd 64a2 ee3b 977d 4ebc 3ace 3bbc
00000180: 4fc3 ecba 21cc 72bc 6e7d dfbc 09d6 df3c
00000190: f3ff 243d 3dd2 0ebd a308 a13b 2418 af3c
000001a0: b2a9 a33b 3b97 a8bb 253f 88bc f41b e0bb
000001b0: b41c 2cbd d9a4 353d 784f 383d 0067 e23c
000001c0: 7abb a0bc df98 21bc a98f 963c d65b 103d
000001d0: 3e0d d9b9 1e22 d4bb 3da5 48bd 4fbc 2bbd

encoder.fc2.weight f4 [84, 120]
0.006317255 -0.004053874 -0.00828823 0.08013945 0.029845646 -0.06837829 -0.06441568 0.021643005
0.055824704 -0.08423018 0.033475395 -0.040741008 0.034564655 -0.047548935 0.076762915 0.08540208
-0.06362499 -0.080737755 0.02635383 0.07283716 0.040047698 -0.04450512 0.07747473 -0.09034978
0.07614226 -0.032888535 -0.006312184 -0.00016238523 -0.025236603 -0.020877851 0.022486849 0.017616088
0.010578066 0.089612156 -0.008979276 -0.056518327 -0.079976335 0.06920312 -0.066053696 0.04605731
-0.053209487 -0.060946334 0.014400409 0.06936586 -0.082204126 0.0599858 -0.090838864 -0.018388087
-0.025879234 -0.06476152 -0.07073686 -0.038057048 -0.07307359 0.0009313808 -0.061019246 -0.042476926
-0.04553456 0.026845427 -0.026198052 0.053009275 0.055635765 -0.067136094 -0.015496624 -0.09099907
0.043696467 -0.019891592 0.023516975 0.0300756 0.08093201 -0.009102659 -0.027004352 0.08614443
-0.0071848007 0.016722359 0.0090209115 -0.048125964 0.05263191 -0.07548237 0.04564743 0.044454288
0.059609458 -0.06450763 0.0640959 0.08433813 -0.0015186206 -0.086412326 -0.0043166806 -0.00049184595
-0.07985887 -0.005655363 -0.030158153 -0.08275717 0.05929819 0.02402865 -0.038894873 0.08284801
0.0046383278 0.0050420165 0.0112392735 -0.07542028 -0.038529295 0.012305072 -0.03375326 0.04749854
0.0024243412 0.01931974 0.08836621 -0.039159942 -0.012296812 -0.053534508 -0.0798837 0.020834116
0.06496436 0.030898038 -0.07174893 0.05909735 -0.08335889 -0.06390875 0.08307482 -0.041898552
-0.045020252 -0.029751832 -0.04380465 0.030444609 -0.048116542 -0.090859115 -0.023825409 0.014207199
0.0033080073 0.009041658 -0.09164195 -0.025712093 -0.054122258 -0.022124225 -0.051286295 0.0015761363
-0.01155255 -0.07893348 0.03830427 0.03309479 0.025797592 0.034453996 0.0013318942 0.023172608
-0.089002274 0.055351168 0.07748395 -0.03357555 0.08090856 -0.024754643 0.03678887 -0.03190336
-0.0510722 -0.04102412 0.06555854 -0.028485073 -0.070273586 0.007849583 -0.060276587 -0.057406932
-0.050836865 -0.048390314 -0.058521286 0.034524035 -0.03239867 0.02312903 0.07268919 0.026596833
0.09565437 0.08037778 0.016084602 0.046724696 0.08937425 -0.061438058 -0.052429605 0.06586867
0.0497093 0.030845556 0.014770592 -0.047476616 0.039584547 -0.0026129943 0.003719538 0.085841894
0.053896736 0.00078564545 -0.015271187 -0.051282194 0.039790567 0.08720753 -0.040597644 -0.061874267
0.05513544 -0.07834654 0.083336994 0.018090548 0.08643 0.014136718 0.023104506 -0.08554063
-0.007611621 0.07434904 -0.03324026 0.07171291 -0.0065114163 -0.044300884 -0.040220942 -0.066101134
0.024214547 -0.050184418 0.041768786 -0.025009621 0.048039854 0.068885386 -0.0664379 -0.05314754
0.064904965 -0.018985774 -0.077025115 -0.048942473 -0.08160438 -0.055377435 0.00066222093 0.07095336
0.018959545 0.0070726844 -0.0027231716 -0.053597715 0.048057884 0.06218474 0.033180993 0.07587141
0.089127995 0.01360152 -0.04513965 0.07197178 0.015196258 -0.01317312 -0.014080641 0.008228342
-0.04207529 0.050706994 -0.069355555 0.005685836 -0.08989695 0.035940237 -0.044966124 -0.008667896
0.06996237 0.014392238 0.0019117587 0.036455188 0.010484604 0.0567433 0.011963416 0.055998314
00000000: fa00 cf3b 5cd6 84bb 5bcb 07bc 2720 a43d
00000010: db7e f43c eb09 8cbd 5eec 83bd ac4c b13c
00000020: 72a8 643d df80 acbd 7f1d 093d 0be0 26bd
00000030: ab93 0d3d acc2 42bd e035 9d3d 49e7 ae3d
00000040: d24d 82bd d659 a5bd fde3 d73c a62b 953d
00000050: 0e09 243d 004b 36bd 12ab 9e3d 4e09 b9bd
00000060: 79f0 9b3d 21b6 06bd 70d6 cebb f445 2ab9
00000070: febc cebc 0708 abbc 5736 b83c 9d4f 903c
00000080: a04f 2d3c 9486 b73d d01d 13bc c37f 67bd
00000090: a2ca a3bd 5eba 8d3d 2947 87bd 97a6 3c3d
000000a0: 31f2 59bd dda2 79bd b1ef 6b3c b00f 8e3d
000000b0: a35a a8bd acb3 753d ba09 babd 9da2 96bc
000000c0: b000 d4bc b0a1 84bd 7dde 90bd b5e1 1bbd
000000d0: 9ba7 95bd e827 743a 51ef 79bd 49fc 2dbd
000000e0: 7282 3abd f1ea db3c 4c9d d6bc 4120 593d
000000f0: 54e2 633d a67e 89bd 8de5 7dbc b85d babd
00000100: 11fb 323d b1f3 a2bc aca6 c03c 1b61 f63c
00000110: afbf a53d 5223 15bc 3b38 ddbc 7e6c b03d
00000120: 7a6e ebbb 54fd 883c 72cc 133c bb1f 45bd
00000130: 8f94 573d 8096 9abd cdf8 3a3d b315 363d
00000140: 0c29 743d 941c 84bd b644 833d 78b9 ac3d
00000150: 740c c7ba f2f8 b0bd f172 8dbb 39ef 00ba
00000160: 0c8d a3bd a050 b9bb 3b0e f7bc 977c a9bd
00000170: a9e2 723d bbd7 c43c 3b50 1fbd 38ac a93d
00000180: 1dfd 973b 8037 a53b ee24 383c f375 9abd
00000190: e5d0 1dbd 369b 493c dc40 0abd d48d 423d
000001a0: b2e1 1e3b 6e44 9e3c 58f9 b43d 2d66 20bd
000001b0: 9178 49bc 0047 5bbd 119a a3bd 4fac aa3c
000001c0: 090c 853d e21d fd3c 1af1 92bd 1010 723d
000001d0: 11b8 aabd 97e2 82bd 2223 aa3d d19d 2bbd
000001e0: 2867 38bd 1dba f3bc 816c 33bd f966 f93c
000001f0: da15 45bd 5814 babd 812d c3bc 50c5 683c
00000200: 27cb 583b 7623 143c c6ae bbbd 2ba2 d2bc
00000210: 4daf 5dbd dd3d b5bc 9411 52bd 5c96 ce3a
00000220: e846 3dbc e0a7 a1bd f0e4 1c3d 678e 073d
00000230: 7955 d33c a21f 0d3d f492 ae3a 7bd4 bd3c
00000240: d346 b6bd e8b7 623d e8af 9e3d 8486 09bd
00000250: 63b3 a53d 40ca cabc edaf 163d 19ad 02bd
00000260: 1531 51bd e808 28bd 8e43 863d 8759 e9bc
00000270: 99eb 8fbd 8a9b 003c 95e4 76bd 8823 6bbd
00000280: 513a 50bd ec34 46bd 04b4 6fbd 1369 0d3d
00000290: 78b4 04bd 1779 bd3c 12de 943d 9ae1 d93c
000002a0: 70e6 c33d 1b9d a43d dbc3 833c 6562 3f3d
000002b0: d909 b73d 79a6 7bbd 6dc0 56bd 27e6 863d
000002c0: fb9b 4b3d d2af fc3c 5a00 723c d776 42bd
000002d0: 6823 223d c53e 2bbb 7ec3 733b e0cd af3d
000002e0: d3c2 5c3d c6f3 4d3a 0034 7abc 470d 52bd
000002f0: 6ffb 223d dd99 b23d b749 26bd df6f 7dbd
00000300: b3d5 613d 2774 a0bd 96ac aa3d a132 943c
00000310: 3602 b13d b19d 673c a945 bd3c ed2f afbd
00000320: e86a f9bb 4f44 983d f026 08bd 38de 923d
00000330: b85d d5bb d874 35bd b7be 24bd 0860 87bd
00000340: 965d c63c 2d8e 4dbd bf15 2b3d fae0 ccbc
00000350: 70c5 443d c813 8d3d 9810 88bd 3cb1 59bd
00000360: e5ec 843d 0e88 9bbc 58bf 9dbd e777 48bd
00000370: 3220 a7bd 73d3 62bd e598 2d3a ff4f 913d
00000380: 0c51 9b3c fac1 e73b 3d77 32bb 4789 5bbd
00000390: 58d8 443d 6db5 7e3d cbe8 073d 7862 9b3d
000003a0: bd88 b63d e9d8 5e3c 5be4 38bd f165 933d
000003b0: baf9 783c 12d4 57bc 7db2 66bc 2bd0 063c
000003c0: 2457 2cbd 23b2 4f3d 490a 8ebd 4050 ba3b
000003d0: e41b b8bd 1236 133d 662e 38bd ca03 0ebc
000003e0: 6e48 8f3d 6ccd 6b3c fa93 fa3a 0952 153d
000003f0: 9ec7 2b3c aa6b 683d 3402 443c 7d5e 653d

encoder.fc2.bias f4 [84]
-0.09030702 0.068957046 0.06905181 0.04051484 0.010427662 0.0020815332 0.0127141625 0.06052744
0.06832437 -0.047665894 0.0265224 -0.0069906684 0.055279337 -0.04077904 0.05733623 0.024992013
0.010803717 0.00014505361 0.05737733 0.08129559 0.09451877 -0.014626997 0.09520955 0.08057241
0.07288781 0.037637085 -0.09285978 -0.072673425 -0.08030643 -0.061085958 -0.08481592 0.029255863
0.096526615 -0.04971676 0.041090082 0.023821766 0.031113831 0.01597458 0.029996935 0.022686917
0.02895054 0.037949517 -0.09332776 -0.08469246 0.02374234 -0.088686086 0.021543194 0.035412993
-0.07469372 0.057356678 -0.06417313 -0.06762929 0.03574135 0.073636964 0.0008806962 -0.025789306
0.008321677 -0.044461492 -0.07408872 -0.047613867 -0.019356467 -0.040272515 0.081875175 0.060702138
0.009453019 0.06580351 -0.044900443 0.05910603 -0.06320194 -0.0905842 0.030668031 0.031939678
-0.006926236 0.04720365 0.010246489 0.02959748 0.0004797122 -0.08225807 -0.09071093 -0.024815481
0.0066367025 -0.06395313 0.026233373 -0.04099633
00000000: e3f2 b8bd 5a39 8d3d 096b 8d3d e4f2 253d
00000010: c9d8 2a3c 556a 083b 104f 503c 9feb 773d
00000020: a6ed 8b3d 503d 43bd 8145 d93c fa11 e5bb
00000030: 966c 623d ec07 27bd 65d9 6a3d 0dbc cc3c
00000040: 1302 313c 8819 1839 7e04 6b3d 4d7e a63d
00000050: 0f93 c13d 12a6 6fbc 39fd c23d 2603 a53d
00000060: 3446 953d 5829 1a3d 452d bebd ced5 94bd
00000070: b377 a4bd 4535 7abd f8b3 adbd fea9 ef3c
00000080: bfaf c53d cda3 4bbd 134e 283d dd25 c33c
00000090: 6fe2 fe3c 1fdd 823c 22bc f53c ead9 b93c
000000a0: af29 ed3c f470 1b3d a022 bfbd 3e73 adbd
000000b0: 4c7f c23c 0da1 b5bd 5a7b b03c 370d 113d
000000c0: 05f9 98bd d6ee 6a3d 346d 83bd 3a81 8abd
000000d0: 8665 123d face 963d 86de 663a 1844 d3bc
000000e0: a557 083c 411d 36bd d4bb 97bd c206 43bd
000000f0: 7491 9ebc cbf4 24bd 2cae a73d cea2 783d
00000100: d6e0 1a3c fec3 863d 87e9 37bd 2a19 723d
00000110: 0570 81bd 3684 b9bd 863b fb3c 2ed3 023d
00000120: 7bf5 e2bb 9d58 413d e4e0 273c 6a76 f23c
00000130: e281 fb39 eb76 a8bd a7c6 b9bd d649 cbbc
00000140: b278 d93b dcf9 82bd 5fe7 d63c c5eb 27bd

bottleneck.fc.weight f4 [16, 84]
-0.02123221 0.047324393 -0.006897039 -0.08511468 0.017896654 -0.10224855 0.09992262 -0.061966985
0.063223615 -0.012703664 -0.01651221 0.087998405 -0.06605026 -0.08161777 -0.09903263 -0.06920243
0.09777111 -0.036904886 0.059911188 -0.004804279 -0.039980613 -0.05660019 0.11250908 -0.08541088
0.038624473 -0.00073576556 -0.01982946 0.107971616 0.03989481 -0.100475214 0.002805978 -0.002426608
0.0900674 -0.07440565 0.049678825 0.024228795 0.06655874 -0.027535446 0.08057651 -0.032439083
-0.02326131 0.09051219 -0.047835086 0.04002638 -0.04465126 0.048863973 0.10909097 -0.08901109
0.08197865 -0.028335769 -0.05551686 -0.038021058 0.0038375738 0.014527918 0.0659319 0.060009077
-0.056004904 0.06910605 -0.10604748 0.032671645 0.06450511 -0.03029557 -0.05761646 -0.0033806919
0.061321937 -0.055712283 0.044868633 0.026513636 -0.052625492 0.022894634 0.022526387 0.08552755
0.018945795 0.029940525 -0.05056977 -0.09285588 0.072902866 0.015254973 0.027380953 -0.060732342
-0.00800611 -0.00034290442 -0.09379398 0.011174337 0.024880474 -0.0692692 0.094504565 0.10857905
0.07664748 -0.07380596 0.06590409 0.029778393 -0.080113925 -0.07963515 0.016853498 0.09976017
0.095721714 0.09424089 -0.020006254 -0.053898305 0.06699695 0.017875701 0.07048501 0.010348938
0.052063335 0.08423327 -0.0343245 -0.060588986 0.029593943 0.006166875 -0.04489763 0.10248604
0.10008318 0.09231576 -0.0069469837 -0.07051805 0.026178954 0.047396462 -0.05773499 -0.06668921
-0.06091504 -0.029431272 -0.03416474 -0.0592321 0.02688023 0.054841574 -0.010250438 0.0023424448
0.035218474 -0.10049933 0.032443095 0.045425598 0.06720755 0.102419786 -0.045506775 -0.073191695
0.04711271 -0.10635302 -0.06187279 0.025761226 0.009989336 0.0032414508 -0.05290923 0.044304423
-0.10346301 0.08211803 0.024618264 -0.10896532 -0.0746703 -0.09509264 -0.09022784 -0.06007142
0.0027377363 0.019049058 -0.070643246 0.056063637 0.006660161 0.027056567 0.08678267 0.04401639
0.06338607 -0.0068090986 0.073310524 0.0698485 0.022953868 0.086180724 -0.08885921 0.072635874
-0.055890076 -0.09604913 0.093611054 -0.040710293 -0.03394624 0.05478679 0.06778173 0.08651485
0.10011008 -0.034838635 -0.04651025 -0.008258762 0.040084407 0.019606281 0.00049684674 0.07368187
0.035304178 0.012289684 -0.01436162 0.05213049 0.0994644 0.101910956 0.034110904 0.025400367
0.0379668 -0.09221584 0.020887133 -0.057988986 -0.031993177 0.030731184 -0.037258472 -0.09068998
0.012960494 -0.0053672562 0.09293558 0.05168369 -0.010959627 0.050903108 -0.055440582 0.09273211
0.084747 0.063354984 -0.04884771 0.0053898054 -0.010414408 -0.076659076 -0.055464208 -0.06784032
-0.09213233 0.07415175 0.062266815 -0.009229144 -0.01710103 -0.09285799 -0.041172888 0.07559912
-0.017380644 -0.08527507 -0.00034138947 0.0021714852 0.026748993 0.080147706 -0.046354063 -0.049520083
-0.06697995 0.08313821 0.07072865 -0.022755967 0.040459584 0.0687981 -0.029540408 -0.013295253
0.019495409 -0.108653456 -0.030263579 0.02126225 -0.026209392 -0.030422216 -0.08464228 -0.027921818
-0.083558075 -0.08984516 0.09099064 0.018374374 0.067686774 -0.023911215 -0.06971495 0.09405202
00000000: 2cef adbc 39d7 413d 8e00 e2bb 9b50 aebd
00000010: 019c 923c b067 d1bd 3ba4 cc3d 18d1 7dbd
00000020: 627b 813d 0723 50bc 9d44 87bc 8238 b43d
00000030: 5c45 87bd 3827 a7bd 9fd1 cabd 01ba 8dbd
00000040: 383c c83d 9429 17bd 6f65 753d 376d 9dbb
00000050: b6c2 23bd 9ad5 67bd 296b e63d e6eb aebd
00000060: b234 1e3d 64e0 40ba 6471 a2bc 3920 dd3d
00000070: be68 233d f3c5 cdbd 80e4 373b ba07 1fbb
00000080: 4275 b83d fd61 98bd 067c 4b3d 777b c63c
00000090: f34f 883d 0492 e1bc 4c05 a53d d8de 04bd
000000a0: 818e bebc 745e b93d b9ee 43bd b4f2 233d
000000b0: 3de4 36bd 9725 483d 166b df3d 724b b6bd
000000c0: 6ce4 a73d 6a20 e8bc a665 63bd f8bb 1bbd
000000d0: ce7f 7b3b 8106 6e3c 4e07 873d 14cc 753d
000000e0: 6665 65bd 7987 8d3d 6c2f d9bd b4d2 053d
000000f0: 411b 843d 6a2e f8bc 3dff 6bbd 998e 5dbb
00000100: b62c 7b3d 9032 64bd 2cc8 373d 2033 d93c
00000110: d48d 57bd 878d bb3c 4289 b83c 1129 af3d
00000120: 3634 9b3c d545 f53c 3f22 4fbd 392b bebd
00000130: 194e 953d ffef 793c 054e e03c 7ac2 78bd
00000140: 0f2c 03bc dac7 b3b9 0f17 c0bd 9114 373c
00000150: 23d2 cb3c 03dd 8dbd 9c8b c13d b15e de3d
00000160: 5bf9 9c3d 9427 97bd b9f8 863d d1f1 f33c
00000170: c512 a4bd c117 a3bd 5910 8a3c 0f4f cc3d
00000180: bf09 c43d 5e01 c13d 28e4 a3bc 78c4 5cbd
00000190: b235 893d 1070 923c 725a 903d 988e 293c
000001a0: 5d40 553d 7e82 ac3d d997 0cbd 282c 78bd
000001b0: ff6e f23c 7f13 ca3b 94e6 37bd 33e4 d13d
000001c0: 69f8 cc3d 0c10 bd3d 86a3 e3bb c46b 90bd
000001d0: 3f75 d63c cb22 423d 867b 6cbd 5a94 88bd
000001e0: 0d82 79bd da19 f1bc 54f0 0bbd 5c9d 72bd
000001f0: ee33 dc3c 8fa1 603d 74f1 27bc b483 193b
00000200: 3f41 103d 98d2 cdbd 0de3 043d 3110 3a3d
00000210: 1da4 893d 77c1 d13d 5065 3abd 87e5 95bd
00000220: 42f9 403d 9dcf d9bd 536e 7dbd 3509 d33c
00000230: 50aa 233c 856e 543b 59b7 58bd 8e78 353d
00000240: 6ae4 d3bd 7f2d a83d 3eac c93c 3629 dfbd
00000250: beec 98bd eebf c2bd 60c9 b8bd 730d 76bd
00000260: 986b 333b c50c 9c3c 68ad 90bd fca2 653d
00000270: 7b3d da3b bca5 dd3c 1dbb b13d 884a 343d
00000280: 8ed0 813d dc1e dfbb d423 963d bb0c 8f3d
00000290: c009 bc3c 857f b03d d1fb b5bd 1ec2 943d
000002a0: feec 64bd 68b5 c4bd 27b7 bf3d d6bf 26bd
000002b0: 360b 0bbd 1d68 603d 26d1 8a3d b32e b13d
000002c0: 8306 cd3d f5b2 0ebd 8881 3ebd c24f 07bc
000002d0: 8c2f 243d 5a9d a03c d23e 023a 85e6 963d
000002e0: 1d9b 103d ac5a 493c 004d 6bbc c886 553d
000002f0: feb3 cb3d b1b6 d03d e0b7 0b3d 6e14 d03c
00000300: 1383 1b3d a9db bcbd 7e1b ab3c dc85 6dbd
00000310: 470b 03bd f7bf fb3c 579c 18bd abbb b9bd
00000320: 4058 543c cfdf afbb 0255 be3d 47b2 533d
00000330: 0290 33bc c77f 503d aa15 63bd 55ea bd3d
00000340: d68f ad3d 42c0 813d 8914 48bd f79c b03b
00000350: 31a1 2abc 6fff 9cbd 702e 63bd deef 8abd
00000360: e0af bcbd dfdc 973d 7d0b 7f3d d635 17bc
00000370: 7617 8cbc 542c bebd e7a4 28bd b6d3 9a3d
00000380: da61 8ebc b2a4 aebd 85fc b2b9 7a4f 0e3b
00000390: b420 db3c 7b24 a43d c2dd 3dbd 92d5 4abd
000003a0: c92c 89bd 5e44 aa3d 2fda 903d b96a babc
000003b0: f3b8 253d 05e6 8c3d bafe f1bc 55d4 59bc
000003c0: d6b4 9f3c b485 debd 53eb f7bc 2c2e ae3c
000003d0: 14b5 d6bc 0338 f9bc ef58 adbd 4cbc e4bc
000003e0: 7f20 abbd bd00 b8bd 4d59 ba3d db85 963c
000003f0: 5d9f 8a3d 74e1 c3bc b6c6 8ebd 589e c03d

bottleneck.fc.bias f4 [16]
-0.0486352 -0.035451192 -0.025437491 -0.0042852988 -0.073021255 -0.0031431029 0.01294204 -0.034241598
-0.06051083 0.080620624 0.040001344 0.027243564 0.010504097 0.051730327 -0.06611849 0.050205324
00000000: b435 47bd 4535 11bd 4962 d0bc b16b 8cbb
00000010: 2b8c 95bd 84fc 4dbb da0a 543c eb40 0cbd
00000020: 34da 77bd 6d1c a53d 73d8 233d e52d df3c
00000030: 6019 2c3c 2ee3 533d 2269 87bd 19a4 4d3d

decoder.fc3.weight f4 [84, 16]
0.09004167 0.1145449 0.1159519 -0.17205185 0.106224746 -0.20638376 0.034897607 -0.124860615
0.015778154 -0.1966473 0.11401725 0.12641677 -0.02868554 -0.07915114 -0.17797643 -0.1323747
0.027131984 -0.07487072 -0.1842453 -0.24108145 -0.0784753 -0.009447897 -0.103062294 -0.06750871
0.20457576 -0.13334402 0.17285943 0.024675274 -0.08218229 -0.114274636 -0.09785321 -0.029017305
-0.14711492 0.17966385 0.029335 -0.13529214 -0.2427369 -0.113301374 0.15076292 -0.078738466
0.09007296 -0.09033427 0.14938003 0.07214459 -0.0010328591 0.0065030227 0.2123915 -0.19238876
0.08644837 0.16183145 -0.07559766 0.1498616 0.04035592 -0.06783045 0.1322271 0.03143906
0.050574612 -0.09763113 -0.14731674 -0.15740335 0.06925154 -0.051580094 -0.08988729 -0.11630847
-0.11454174 -0.13142842 0.10512927 0.14734167 -0.22788921 -0.0030780137 0.07025319 0.20189285
0.17891946 -0.07920849 0.0012969971 -0.047522604 -0.19601378 0.12026122 0.06339106 -0.11966914
0.09307623 -0.076188296 -0.04038778 -0.10423669 0.04777482 -0.030178135 0.07289983 -0.026142845
0.011128115 0.015010333 0.04329282 0.063769996 -0.16260144 -0.1570908 0.08926672 0.23470458
-0.143641 0.20539737 -0.20509419 -0.11471608 -0.0011209846 -0.19529262 -0.058107227 -0.20503503
0.09422356 -0.18787009 0.020320505 0.05353734 -0.07147047 0.24915361 0.24722877 0.21066517
0.24630149 0.009034395 0.051169425 -0.026552653 0.07901728 0.20675725 -0.23081386 -0.009087235
0.24350819 -0.060035437 -0.09250441 0.2119785 0.0027117133 -0.22740528 0.039453357 -0.11102036
-0.12891302 -0.123318166 -0.02984932 -0.06027782 0.16920507 0.16727361 -0.03492713 -0.10241267
0.16379267 0.10085195 0.07100555 -0.13281316 0.018001646 -0.017084837 0.20060804 0.059848666
0.012948364 -0.24770376 -0.09555313 0.09571865 -0.1104095 -0.14866325 -0.23593307 -0.20375061
0.055471092 0.07903716 -0.11289999 -0.19261798 0.20631826 0.18076244 0.19787785 -0.12809524
-0.02678755 0.0012690425 -0.18947822 -0.051870406 -0.15131709 0.21132839 -0.0361301 -0.24988955
-0.10108128 0.13967705 -0.08923152 0.17482981 -0.117669284 -0.09348491 -0.13096303 -0.03448832
0.1452712 0.11952434 0.18370405 0.11373289 -0.11703524 -0.23875472 -0.22385979 -0.056237347
-0.023343123 -0.10356386 -0.15960637 -0.18588401 0.12372312 -0.055542845 -0.12665361 0.009284918
-0.21651025 0.16261218 0.17661059 0.011705942 0.22129518 -0.20751108 -0.00043367187 0.23036744
-0.20161453 -0.12518233 -0.17710586 -0.12396836 0.23818302 -0.045754705 -0.009906948 -0.10136716
-0.13563806 0.06388396 -0.17620662 0.015034389 0.14650553 -0.100894615 0.015535303 0.14090024
0.21029694 -0.049391806 0.17216177 0.180696 -0.23283029 -0.206806 0.11337218 0.140455
0.1657963 0.10672509 -0.1039793 -0.08047462 0.03923163 0.18408544 -0.019731103 -0.2093998
-0.13897322 -0.16280577 -0.09529829 0.20686781 0.05004722 0.10091617 -0.13962775 0.223961
0.18649285 0.24575782 0.03575525 0.021086918 0.12964138 -0.079662286 -0.13104254 0.10070187
-0.20119543 0.15175943 0.0097332075 0.030421054 0.02126968 0.09873234 -0.020930588 0.00019351827
00000000: c467 b83d 8496 ea3d 3178 ed3d 5c2e 30be
00000010: 5c8c d93d 4456 53be cbf0 0e3d ecb6 ffbd
00000020: 3041 813c e95d 49be e081 e93d 6673 013e
00000030: f0fd eabc fe19 a2bd 743f 36be 3c8d 07be
00000040: e543 de3c d255 99bd cdaa 3cbe 0ede 76be
00000050: a8b7 a0bd 5acb 1abc 5312 d3bd 0242 8abd
00000060: 4f7c 513e 568b 08be 1002 313e cd23 ca3c
00000070: 304f a8bd d208 eabd 4467 c8bd b3b5 edbc
00000080: 4ba5 16be cdf9 373e f44f f03c 068a 0abe
00000090: 0690 78be 8d0a e8bd 9861 1a3e a241 a1bd
000000a0: 2c78 b83d 2c01 b9bd 14f7 183e 8bc0 933d
000000b0: 0061 87ba 4f17 d53b 287d 593e 8f01 45be
000000c0: d80b b13d 25b7 253e f2d2 9abd 5275 193e
000000d0: 404c 253d b1ea 8abd 8a66 073e 3ec6 003d
000000e0: 5327 4f3d d4f2 c7bd 33da 16be 582e 21be
000000f0: c0d3 8d3d a645 53bd d416 b8bd 2333 eebd
00000100: dc94 eabd 2c95 06be 044e d73d bce0 163e
00000110: ca5b 69be 80b8 49bb e8e0 8f3d 00bd 4e3e
00000120: aa36 373e 1038 a2bd 0000 aa3a 10a7 42bd
00000130: d6b7 48be 844b f63d 2cd3 813d 1815 f5bd
00000140: c09e be3d 9c08 9cbd a86d 25bd 0c7a d5bd
00000150: 88af 433d 2338 f7bc 824c 953d 8529 d6bc
00000160: b252 363c e6ed 753c d053 313d d899 823d
00000170: fe80 26be 69dc 20be 78d1 b63d 6656 703e
00000180: a016 13be b053 523e 3604 52be 44f0 eabd
00000190: 00ee 92ba cafa 47be d801 6ebd b4f4 51be
000001a0: 48f8 c03d 0461 40be 3077 a63c f849 5b3d
000001b0: 1c5f 92bd 2022 7f3e 8a29 7d3e 9cb8 573e
000001c0: 7536 7c3e 0005 143c 0897 513d f384 d9bc
000001d0: d0d3 a13d 2cb8 533e 785a 6cbe a0e2 14bc
000001e0: 365a 793e b8e7 75bd f472 bdbd e410 593e
000001f0: 00b7 313b eedc 68be d899 213d a45e e3bd
00000200: c601 04be 3c8e fcbd 9086 f4bc e0e5 76bd
00000210: 1844 2d3e c649 2b3e c00f 0fbd bcbd d1bd
00000220: 44b9 273e 788b ce3d 5c6b 913d 2c00 08be
00000230: 3078 933c 80f5 8bbc 326c 4d3e e023 753d
00000240: 6025 543c 0ea6 7dbe 5cb1 c3bd 2408 c43d
00000250: 601e e2bd 2e3b 18be 7098 71be 00a4 50be
00000260: a835 633d 3cde a13d 1c38 e7bd a63d 45be
00000270: 1845 533e ca19 393e 7ea0 4a3e 662b 03be
00000280: 9071 dbbc 0056 a63a 9406 42be 1076 54bd
00000290: def2 1abe 7866 583e 28fd 13bd 0ce3 7fbe
000002a0: b403 cfbd 8007 0f3e 04bf b6bd 9606 333e
000002b0: 98fc f0bd 0475 bfbd 2c1b 06be a043 0dbd
000002c0: f9c1 143e 2dc9 f43d ea1c 3c3e caec e83d
000002d0: 2cb0 efbd 1e7c 74be 803b 65be 2259 66bd
000002e0: 143a bfbc 4a19 d4bd da6f 23be 6158 3ebe
000002f0: 8c62 fd3d e580 63bd 7cb1 01be c51f 183c
00000300: ddb4 5dbe cf83 263e 68d9 343e 48ca 3f3c
00000310: 349b 623e c97d 54be 745e e3b9 71e5 6b3e
00000320: 0a74 4ebe cc2f 00be 3d5b 35be 20e3 fdbd
00000330: 40e6 733e 4969 3bbd c050 22bc 9699 cfbd
00000340: b4e4 0abe 98d5 823d 826f 34be cc52 763c
00000350: 8c05 163e d6a1 cebd c987 7e3c 2748 103e
00000360: 1558 573e 104f 4abd 2d4b 303e 5f08 393e
00000370: 106b 6ebe f4c4 53be ac2f e83d 6fd3 0f3e
00000380: 81c6 293e af92 da3d 19f3 d4bd e1cf a4bd
00000390: 58b1 203d e580 3c3e 1fa3 a1bc e76c 56be
000003a0: ff4e 0ebe 8eb6 26be c02b c3bd 28d5 533e
000003b0: 50fe 4c3d 23ad ce3d 94fa 0ebe 0856 653e
000003c0: fbf7 3e3e f0a7 7b3e 1974 123d 79be ac3c
000003d0: b6c0 043e fb25 a3bd 0430 06be c83c ce3d
000003e0: 2d06 4ebe d366 1b3e 0878 1f3c 9335 f93c
000003f0: c03d ae3c 2e34 ca3d a076 abbc 2aeb 4a39

decoder.fc3.bias f4 [84]
-0.00807026 0.22962551 0.1895539 0.13531218 -0.036554605 0.15198193 -0.099098444 -0.20728716
-0.15508565 -0.20926207 -0.1516518 0.077394776 0.16513333 -0.018350493 0.15620492 0.01643061
-0.19007285 0.16716512 -0.17111006 -0.008267999 0.16644974 0.15710063 -0.08615506 -0.07522997
-0.07183224 0.14128432 -0.05425793 -0.15060014 -0.0079293735 0.21158312 0.1168371 -0.004425036
-0.009097971 0.1482781 -0.21137273 -0.21400362 0.009375576 -0.044241875 -0.071074955 -0.10437274
0.08485137 0.19371228 -0.09242212 -0.041532427 -0.10830051 -0.22819158 -0.024216982 -0.043013185
0.082774065 -0.17723006 0.12228559 -0.22602117 -0.046678156 -0.16176015 0.028710833 -0.0124307005
-0.08936259 0.21463427 -0.22608209 -0.09647614 0.1535117 -0.089356124 0.179615 -0.23097336
-0.18020405 0.1451319 -0.09652826 -0.15415081 -0.1962204 -0.16862667 0.2018712 -0.05493951
-0.15280724 0.2470403 -0.05343059 0.10647456 0.18403345 -0.21129005 0.23578529 -0.081133276
-0.20154646 0.23874515 0.15603994 0.24679959
00000000: 2039 04bc f322 6b3e 6b1a 423e 478f 0a3e
00000010: 48ba 15bd 27a1 1b3e 20f4 cabd 1643 54be
00000020: c6ce 1ebe cc48 56be 9c4a 1bbe 2781 9e3d
00000030: b618 293e c653 96bc 2ff4 1f3e 7d99 863c
00000040: 75a2 42be 552d 2b3e 7a37 2fbe 8076 07bc
00000050: cd71 2a3e fdde 203e 1072 b0bd 2c12 9abd
00000060: c81c 93bd d6ac 103e 903d 5ebd ec36 1abe
00000070: 34ea 01bc 3fa9 583e 4a48 ef3d e4ff 90bb
00000080: a80f 15bc 37d6 173e 1872 58be c423 5bbe
00000090: 049c 193c f836 35bd bf8f 91bd 60c1 d5bd
000000a0: 8ec6 ad3d 835c 463e cf47 bdbd e81d 2abd
000000b0: a8cc ddbd 0eab 69be b162 c6bc 982e 30bd
000000c0: 7385 a93d cc7b 35be de70 fa3d 1872 67be
000000d0: 9831 3fbd 74a4 25be fb32 eb3c 23aa 4bbc
000000e0: bc03 b7bd 16c9 5b3e 1082 67be 4895 c5bd
000000f0: 2c32 1d3e 5800 b7bd ffec 373e 4884 6cbe
00000100: 6987 38be 759d 143e 9cb0 c5bd b6d9 1dbe
00000110: 00ee 48be 78ac 2cbe 53b7 4e3e 4008 61bd
00000120: 8079 1cbe 22f8 7c3e 09da 5abd 560f da3d
00000130: 4473 3c3e 6b5c 58be b371 713e 3429 a6bd
00000140: 3262 4ebe 9c79 743e efc8 1f3e 08b9 7c3e

decoder.fc2.weight f4 [120, 84]
-0.10682511 -0.103241704 -0.06579149 0.0037220758 -0.108756356 -0.104817465 -0.043030396 0.08243308
0.00057293655 -0.077478334 -0.08135833 -0.07312127 -0.08354858 -0.051016316 0.051682018 -0.011071093
-0.10275683 -0.100274436 -0.098803945 0.10681059 0.08590711 0.09638712 0.059396826 -0.07464364
-0.046812423 -0.03461648 0.037064813 -0.010947646 -0.020713784 0.08311114 0.01983166 8.792874e-05
-0.026342642 0.07681064 0.013504557 0.0777585 -0.06524905 -0.014711848 0.09022742 0.07614204
0.098969385 -0.038074948 0.05214549 0.05878988 0.055397835 0.048765406 -0.023939895 0.08725829
0.0039050304 -0.024328023 0.019844359 0.030728213 0.08730189 -0.052645646 0.009614712 -0.005420334
0.02349075 0.030270383 -0.07445713 -0.085398756 -0.014293807 -0.039127693 0.04157887 -0.026964372
-0.0755501 -0.034748577 -0.023885362 0.032969832 0.1069365 0.079509564 -0.03402534 0.04615324
0.09044352 -0.040636454 -0.10183741 -0.053788085 0.0953588 -0.05370101 0.010732705 0.057488002
-0.07231872 -0.02365475 -0.00015360954 0.07758003 -0.055805728 0.092585355 0.025694361 -0.0129992245
0.06540622 0.09084826 -0.025401786 0.0042650066 0.0140273655 -0.10787555 -0.02325028 0.106274426
-0.05488953 0.043455526 -0.074881874 0.10204103 -0.08697837 -0.032721177 -0.068380274 -0.10268105
-0.08475556 0.04414546 -0.048249595 -0.013752728 0.051901452 -0.027481286 -0.009492584 0.09055335
0.031013519 -0.08638236 -0.08088952 0.05235882 -0.08480606 0.05726094 0.024167597 -0.022684444
0.01867549 -0.0881195 0.08187092 -0.04609601 0.07082079 0.07778045 -0.031222079 -0.09689646
-0.04157111 0.043422773 -0.07357327 0.09876313 -0.07287632 -0.017396063 -0.08614376 0.004563852
-0.056925185 -0.0076444866 0.07593513 0.105950505 0.012500718 0.025042942 0.0017506112 0.104219116
0.037292276 -0.045342878 0.057515178 -0.021915743 0.10007532 -0.059120283 -0.0489038 0.052445643
-0.071848564 -0.099797145 0.019179802 -0.02073483 0.10728866 0.005147336 -0.00017953373 0.03275752
0.10446356 -0.017838823 -0.042828273 -0.030118963 -0.029720824 0.091765106 0.016352162 -0.047105912
-0.074527755 0.030413775 -0.09079339 0.07807565 0.06851 -0.06676069 -0.00061050017 0.051779773
-0.055463415 -0.07856068 -0.004824027 0.09161826 -0.07298494 -0.008142075 0.073539235 0.076372795
-0.03431104 0.08377174 -0.043719262 -0.011775616 0.008711473 0.0033429686 0.028796861 0.078315586
-0.029743977 -0.007829261 -0.08490572 0.06942231 -0.07200524 -0.058125414 0.05469063 -0.047590334
0.033145774 0.016519014 -0.03585361 0.031508077 -0.07076122 -0.018490948 0.105230466 0.10314856
0.09033838 -0.098593965 -0.062122937 -0.059382923 0.07049682 -0.0074923723 -0.006570437 -0.08799464
0.03519007 -0.028494257 -0.04602243 -0.042048343 -0.081978425 0.077750266 -0.0014700936 0.0051573263
-0.10583534 -0.08713332 0.086445026 -0.043275744 0.049731422 0.09200874 -0.031184388 0.0011069437
0.022608874 0.041527733 -0.011546839 0.10788517 0.08597672 -0.07155454 0.02230929 0.013093725
0.018172346 -0.05976673 -0.099966414 0.041896332 -0.06376559 0.055685077 0.04150267 0.08096209
-0.043213896 -0.018150548 -0.00932689 0.030792078 -0.03966499 -0.044271547 -0.101839624 -0.097070284
00000000: 20c7 dabd 6370 d3bd b0bd 86bd 12ee 733b
00000010: a7bb debd 8aaa d6bd a440 30bd add2 a83d
00000020: 1f31 163a f6ac 9ebd 329f a6bd 9bc0 95bd
00000030: 851b abbd 7cf6 50bd 86b0 533d 8863 35bc
00000040: 2c72 d2bd af5c cdbd b959 cabd 83bf da3d
00000050: 11f0 af3d 9c66 c53d 164a 733d c4de 98bd
00000060: 62be 3fbd 03ca 0dbd 46d1 173d c15d 33bc
00000070: f4af a9bc 2c36 aa3d 0176 a23c 6266 b838
00000080: 86cc d7bc e64e 9d3d 3842 5d3c d93f 9f3d
00000090: 4ba1 85bd f709 71bc 27c9 b83d 5cf0 9b3d
000000a0: 76b0 ca3d 7af4 1bbd 8296 553d a8cd 703d
000000b0: d7e8 623d 3cbe 473d 991d c4bc 79b4 b23d
000000c0: 8aeb 7f3b 904b c7bc a390 a23c bcb9 fb3c
000000d0: 55cb b23d f6a2 57bd 0687 1d3c 0f9d b1bb
000000e0: ac6f c03c 98f9 f73c fb7c 98bd 8be5 aebd
000000f0: 9230 6abc 5c44 20bd 9b4e 2a3d 63e4 dcbc
00000100: 03ba 9abd 8654 0ebd 3cab c3bc 600b 073d
00000110: 8601 db3d e9d5 a23d 285e 0bbd 2e0b 3d3d
00000120: 743a b93d 6972 26bd 2290 d0bd e550 5cbd
00000130: 794b c33d 97f5 5bbd 3ad8 2f3c 8a78 6b3d
00000140: d61b 94bd 9bc7 c1bc 3f12 21b9 47e2 9e3d
00000150: 8c94 64bd 649d bd3d fb7c d23c b3fa 54bc
00000160: b2f3 853d a70e ba3d 6817 d0bc 78c1 8b3b
00000170: 09d3 653c dbed dcbd 5f77 bebc 68a6 d93d
00000180: d8d3 60bd 6cfe 313d ab5b 99bd e3fa d03d
00000190: b721 b2bd a406 06bd f50a 8cbd 714a d2bd
000001a0: 5394 adbd dfd1 343d 5ea1 45bd 1f53 61bc
000001b0: 9e96 543d 6f20 e1bc c886 1bbc 0974 b93d
000001c0: 1010 fe3c 3ce9 b0bd 68a9 a5bd 3476 563d
000001d0: cdae adbd 738a 6a3d 20fb c53c bad4 b9bc
000001e0: 57fd 983c ff77 b4bd f1ab a73d 2bcf 3cbd
000001f0: 7e0a 913d 5b4b 9f3d 72c5 ffbc a771 c6bd
00000200: 7846 2abd 14dc 313d 95ad 96bd 5344 ca3d
00000210: 2e40 95bd 3082 8ebc 246c b0bd 5e8c 953b
00000220: 622a 69bd 9a7e fabb e183 9b3d 94fc d83d
00000230: d0cf 4c3c db26 cd3c c474 e53a d570 d53d
00000240: c9bf 183d 74b9 39bd 0995 6b3d a588 b3bc
00000250: 4af4 cc3d 1c28 72bd 5a4f 48bd 3ed1 563d
00000260: 5725 93bd 7262 ccbd f61e 9d3c 17dc a9bc
00000270: 28ba db3d fcaa a83b 3841 3cb9 c02c 063d
00000280: fef0 d53d b922 92bc b36c 2fbd 0bbc f6bc
00000290: 1679 f3bc 58ef bb3d f8f4 853c 21f2 40bd
000002a0: 02a2 98bd 4f26 f93c e3f1 b9bd 20e6 9f3d
000002b0: f94e 8c3d d4b9 88bd f909 20ba 0717 543d
000002c0: 9b2d 63bd 6ce4 a0bd df12 9ebb 5ba2 bb3d
000002d0: 2179 95bd 5666 05bc bd9b 963d 5769 9c3d
000002e0: bc89 0cbd 8590 ab3d f812 33bd 83ee 40bc
000002f0: 91ba 0e3c b515 5b3b 65e7 eb3c ec63 a03d
00000300: a4a9 f3bc 4d46 00bc 0de3 adbd 492d 8e3d
00000310: 7c77 93bd ea14 6ebd 4803 603d 15ee 42bd
00000320: ddc3 073d e252 873c 3cdb 12bd 9d0e 013d
00000330: 42eb 90bd 547a 97bc 1283 d73d 8d3f d33d
00000340: 5403 b93d a2eb c9bd 9f74 7ebd 823b 73bd
00000350: a360 903d 9382 f5bb d24c d7bb 8936 b4bd
00000360: 7623 103d ca6c e9bc 0482 3cbd e23a 2cbd
00000370: 4ee4 a7bd 883b 9f3d 28b0 c0ba cafe a83b
00000380: 33c0 d8bd f472 b2bd 170a b13d e841 31bd
00000390: 2db3 4b3d 146f bc3d 6776 ffbc de16 913a
000003a0: 3f36 b93c fc18 2a3d f42e 3dbc e6f2 dc3d
000003b0: 9014 b03d 308b 92bd f9c1 b63c 1087 563c
000003c0: 2cde 943c f5cd 74bd 31bb ccbd 7d9b 2b3d
000003d0: 8997 82bd 0916 643d b4fe 293d 74cf a53d
000003e0: 0e01 31bd 75b0 94bc d0cf 18bc ab3f fc3c
000003f0: c277 22bd 1556 35bd 4b91 d0bd c9cc c6bd
