tutorials/W1D2_ComparingTasks/RR/models/ConvNet_autoencoder_10_epoch_10.pth (torch, 506458 bytes, 19 tensors)

encoder.conv1.weight f4 [6, 1, 5, 5]
0	0x3e24ebbc	0.1610555
1	0x3e32d2a4	0.17463166
2	0xbd1cf8c5	-0.038323183
3	0x3e44e4df	0.19227932
4	0xbd100d62	-0.035169013
5	0x3d3e81e7	0.046510603
6	0xbdb61629	-0.088909455
7	0x3dfcf25f	0.12350916
8	0x3e39a6bd	0.18130012
9	0xbe114f49	-0.14190401
10	0x3e387340	0.18012714
11	0x3d322ffe	0.0435028
12	0x3e1b85c9	0.15187754
13	0x3cf336a8	0.029689148
14	0x3dc9e04f	0.098572366
15	0xbc9ec913	-0.019382989
16	0x3e268e76	0.16265282
17	0x3d0cff82	0.03442336
18	0xbdbc76e7	-0.09202366
19	0x3d5315ce	0.051534466
20	0xbdaa795d	-0.083239295
21	0xbc74eecb	-0.014949511
22	0xbd964a48	-0.07338387
23	0x3e079a18	0.13242376
24	0xbe22ff11	-0.15917613
25	0xbdc2fc3e	-0.09520768
26	0xbd710149	-0.058839116
27	0xbde9778f	-0.11399757
28	0x3ce0194d	0.027355814
29	0xbe41a493	-0.18910436
30	0x3e37d84f	0.17953609
31	0xbe2cefcc	-0.1688835
32	0x3e243d16	0.16038927
33	0x3d2e5540	0.04256177
34	0xbd633641	-0.055471662
35	0x3e004a52	0.12528351
36	0x3d119b9b	0.035548788
37	0x3e2e638f	0.17030166
38	0x3cfdc290	0.030976564
39	0xbd64f222	-0.05589498
40	0x3d673a0e	0.05645185
41	0xbd482df0	-0.048871934
42	0x3dbef8ac	0.09324774
43	0x3e405668	0.18782961
44	0x3dfa54ca	0.122232035
45	0xbdac166f	-0.08402716
46	0x3df8712a	0.12130959
47	0x3d36f4cc	0.04466705
48	0x3de29678	0.11063856
49	0xbded4ded	-0.11587129
50	0xbe501001	-0.20318605
51	0xbda05b75	-0.07829944
52	0xbe1b04bc	-0.15138525
53	0x3e2bd9a9	0.1678225
54	0x3d82c0e3	0.063844465
55	0x3da63cba	0.081170514
56	0x3d845ad9	0.0646264
57	0x39948986	0.00028331223
58	0x3e24ed98	0.1610626
59	0xbe0b7be7	-0.13621484
60	0x3c4082fc	0.011749979
61	0xbe0a52c8	-0.13508141
62	0x3d84cf77	0.06484883
63	0xbd8332c3	-0.064061664
64	0x3d887870	0.06663597
65	0xbd286ff6	-0.0411224
66	0x3e2ba981	0.1676388
67	0xbdee44be	-0.11634205
68	0xbdf30371	-0.11865891
69	0xbe032091	-0.12805392
70	0x3e39a162	0.18127969
71	0x3d8d36f9	0.06895251
72	0x3e4848eb	0.19559066
73	0xbe2a60c3	-0.16638474
74	0xbe513048	-0.20428574
75	0xbe1f4ef3	-0.1555746
76	0xbe0e196d	-0.13876887
77	0x3d9ebc39	0.077507444
78	0x3d8f0455	0.06983248
79	0x3e3001bf	0.17188166
80	0xbddf4e5a	-0.10903616
81	0xbe0f5071	-0.1399553
82	0x3dd78523	0.10523441
83	0xbdad1516	-0.084512874
84	0x3e00f133	0.1259201
85	0xbd288047	-0.04113796
86	0x3de878bf	0.113511555
87	0xbe1e4b63	-0.15458445
88	0xbdcf2537	-0.1011452
89	0x3d8429f6	0.06453316
90	0x3d50e0e3	0.05099572
91	0xbd39891d	-0.045296777
92	0x3dfde71b	0.123975955
93	0x3e0be86e	0.13662884
94	0xbe121e7d	-0.14269443
95	0xbdc9c00a	-0.09851082
96	0x3e445095	0.19171365
97	0xbd814eae	-0.06313835
98	0xbd931790	-0.071822286
99	0xbe49bdfc	-0.1970138
100	0xbdfd25d1	-0.123607285
101	0x3d27c784	0.040961757
102	0xbd10ec33	-0.035381507
103	0xbe1d8876	-0.15384087
104	0x3a348ac8	0.0006887135
105	0xbe14c1cc	-0.14527053
106	0xbe366ba0	-0.17814493
107	0xbdf30343	-0.118658565
108	0xbe3c1b52	-0.18369797
109	0xbe0b3d74	-0.13597661
110	0x3e44e205	0.19226845
111	0x3cf66d61	0.030081453
112	0x3d5a258e	0.05325847
113	0xbe47b0f0	-0.1950109
114	0xbe0f3478	-0.13984859
115	0xbd94ec1d	-0.072715975
116	0x3cc44976	0.02396081
117	0xbe3ca640	-0.18422794
118	0xbdc1ba8d	-0.0945941
119	0xbe0339a4	-0.12814957
120	0xbb8e2270	-0.0043376014
121	0xbda614a3	-0.08109405
122	0xbcafbb28	-0.021451548
123	0xbe12f058	-0.14349496
124	0xbe149861	-0.14511253
125	0xbde4f6d4	-0.11179891
126	0xbd816901	-0.06318856
127	0xbe2331a2	-0.15936902
128	0x3e2313bc	0.15925497
129	0xbd3f396d	-0.046685625
130	0x3e35df0d	0.17760868
131	0x3d8e4c2d	0.06948123
132	0xbe2906e8	-0.16506541
133	0x3e0dc58e	0.13844892
134	0xbd6e5e8f	-0.058195647
135	0xbd94944a	-0.072548464
136	0xbe26fb7a	-0.16306868
137	0xbe4a026e	-0.1972749
138	0x3d7648be	0.060127966
139	0xbd26ad41	-0.04069257
140	0x3da0ffb9	0.07861275
141	0xbe28f1b1	-0.16498448
142	0x3e197d5b	0.14989226
143	0xbe12de84	-0.14342695
144	0xbcf9ea2d	-0.030507172
145	0x3d3852e7	0.045000937
146	0x3dd8df2b	0.10589441
147	0x3e29d43e	0.1658487
148	0x3e404ffd	0.18780513
149	0xbe1c8080	-0.15283394

encoder.conv1.bias f4 [6]
0	0x3d728e32	0.05921764
1	0xbda44141	-0.08020259
2	0xbc573b12	-0.013136642
3	0xbe1201de	-0.14258525
4	0x3e434b32	0.19071653
5	0xbe166088	-0.14685261

encoder.conv2.weight f4 [16, 6, 5, 5]
0	0x3d55533d	0.052081335
1	0x3d1a2632	0.037634082
2	0x3cf6ff43	0.030151015
3	0xbd556cc8	-0.052105695
4	0x3d8d27be	0.06892346
5	0x3ccfe063	0.02537555
6	0x3c946489	0.018114345
7	0xbd83eb9a	-0.06441422
8	0x3d0d3f78	0.034484357
9	0xbc9ab314	-0.01888422
10	0xbcfb0466	-0.030641746
11	0x3d9e300d	0.07724009
12	0x3cc7a7f3	0.024372077
13	0xbd2afce5	-0.041745085
14	0xbd2ae5e0	-0.041723132
15	0x3b790669	0.0037998206
16	0x3d57ab27	0.052653458
17	0xbc640ae5	-0.013918613
18	0xbd27fb20	-0.041010976
19	0xbd076066	-0.033050917
20	0xbd56b6d8	-0.052420467
21	0x3d17d03e	0.03706383
22	0x3d911386	0.07083802
23	0xbd910858	-0.070816696
24	0x3c4e37ec	0.012586575
25	0x3d4ad453	0.049518894
26	0x3cb999ef	0.02265641
27	0xbcb4301c	-0.021995597
28	0x3d2bfd0d	0.041989375
29	0x3d1a92a2	0.037737496
30	0x3d14c4d7	0.036320534
31	0xbc03496f	-0.008013113
32	0xbc7bd717	-0.015371106
33	0x3c41dc0c	0.011832248
34	0xbc8077f6	-0.015682202
35	0xbcafb822	-0.021450106
36	0x3d578379	0.052615616
37	0x3d9c6ff2	0.076385394
38	0xbbe64f8a	-0.0070285248
39	0xbcbe6610	-0.023242027
40	0x3c1143e5	0.008866285
41	0xbb13306e	-0.0022459286
42	0x3caa1c05	0.020765314
43	0x3ca6e31c	0.020371966
44	0xbda57e11	-0.08080686
45	0xbcb4ef58	-0.022086784
46	0x3d9a523a	0.07535215
47	0x3cfc5a2c	0.030804716
48	0xbc31b2d8	-0.010845862
49	0xbd6b4029	-0.057434235
50	0xbd57cd18	-0.052685827
51	0xbd86bd36	-0.06579058
52	0xbc966711	-0.018359693
53	0x3d0adf02	0.033904083
54	0x3d665589	0.056233916
55	0x3d2b5f25	0.041838784
56	0xbd933dbe	-0.07189511
57	0xbd35a853	-0.04434998
58	0xbbbe8120	-0.0058137327
59	0x3dad1759	0.08451719
60	0x3cacbf53	0.021087324
61	0xbc9e5b01	-0.019330503
62	0x3d21ff45	0.039550085
63	0xbcc9d87d	-0.024639362
64	0xbd457f07	-0.048216846
65	0x3d89b25e	0.06723474
66	0xbcebf90a	-0.028805275
67	0xbc0b96d9	-0.008519852
68	0xbd9dbaef	-0.077016704
69	0x3d76a5b9	0.06021664
70	0x3d851a86	0.064991996
71	0x3d1bd16a	0.03804151
72	0xbd4875d2	-0.048940487
73	0xbd9bd6c7	-0.07609325
74	0xbd7e70b4	-0.0621192
75	0x3d743d44	0.05962874
76	0x3d19d273	0.037554216
77	0x3d8bd212	0.06827177
78	0x3d449bea	0.048000254
79	0x3cafb9a6	0.021450829
80	0x3b58e22e	0.0033093798
81	0xbd88cda6	-0.06679849
82	0xbd85fa2a	-0.06541856
83	0xbda107e2	-0.07862832
84	0x3cf1a35c	0.029496841
85	0xbcfd6fea	-0.030937154
86	0xbc2b5058	-0.010456167
87	0xbd2386a3	-0.03992332
88	0xbca37a66	-0.019955825
89	0xbd736cd9	-0.059429977
90	0xbd595c3d	-0.05306648
91	0x3d10c704	0.035346046
92	0xbc9aac0e	-0.01888087
93	0x3d2f9b72	0.042872854
94	0xbcda6356	-0.026658695
95	0xbd6f42aa	-0.058413185
96	0xbbe5a0c8	-0.007007692
97	0xbd021c16	-0.031765066
98	0xbce01a5c	-0.02735632
99	0xbda8669a	-0.08222695
100	0x3d424fb3	0.04743929
101	0xbd630640	-0.055425882
102	0x3d39a870	0.04532665
103	0x3d37be01	0.044858936
104	0x3d890d40	0.0669198
105	0xbd790d79	-0.060803864
106	0x3d75da52	0.06002266
107	0xbd10a4bb	-0.03531335
108	0x3d114917	0.035470095
109	0x3dae3669	0.08506472
110	0xbc4256fd	-0.01186156
111	0x39deadda	0.0004247267
112	0xbc84d728	-0.016215876
113	0xbd82c266	-0.06384735
114	0x3d382855	0.04496034
115	0xbda98bc6	-0.08278613
116	0x3d5b3580	0.05351782
117	0x3d837f60	0.06420779
118	0x3da6c2de	0.08142637
119	0xbc39accc	-0.011332702
120	0xbd8c6de5	-0.06856898
121	0x3cbd0de3	0.02307791
122	0x3d4e2b2a	0.050334133
123	0xbd9b5a53	-0.07585587
124	0xbc2b8221	-0.010468037
125	0xbd4171ec	-0.047227785
126	0xbb13642c	-0.0022490127
127	0xbd05061f	-0.03247654
128	0xbce20cb4	-0.027593948
129	0xbcb63ef5	-0.022246817
130	0xbd9c52af	-0.07632958
131	0x3d881d74	0.06646243
132	0x3d98c43a	0.07459302
133	0xbc43d75d	-0.011953202
134	0xbc48edc3	-0.012263718
135	0xbcc75330	-0.02433166
136	0xbd8e2374	-0.06940356
137	0xbda298d7	-0.07939308
138	0x3cfad3a4	0.030618496
139	0xbd409b02	-0.047022827
140	0xbd36378c	-0.044486567
141	0x3b119d88	0.002221914
142	0xbcf84d49	-0.03031029
143	0xbcf6d14b	-0.030129096
144	0xbb00ab36	-0.00196333
145	0xbc205e82	-0.009788157
146	0xbca09f42	-0.01960719
147	0xbd1420a1	-0.03616393
148	0xbd882d68	-0.066492856
149	0x3d85e51f	0.06537842
150	0xbccc8bf0	-0.024969071
151	0x3ceceddf	0.02892202
152	0xbcd6bec4	-0.026214011
153	0x3b80158e	0.0039088195
154	0x3d9363bf	0.071967594
155	0x3d3ceff0	0.04612726
156	0xbd7e82d2	-0.06213648
157	0x3d02987d	0.031883705
158	0x3d99b684	0.07505515
159	0x3c9340e3	0.017975276
160	0x3d7ed18a	0.06221155
161	0x3dadef5d	0.084929205
162	0xbc6e6e62	-0.0145526845
163	0x3c4c968e	0.012487067
164	0xbd721fdd	-0.05911242
165	0xbc124f43	-0.00893003
166	0x3d82fb74	0.06395617
167	0x3d18fb82	0.03734923
168	0xbd7257e7	-0.05916586
169	0xbd8d1030	-0.06887853
170	0xbd400c44	-0.046886697
171	0xbd97bf37	-0.07409518
172	0xbd8bfcc4	-0.068353206
173	0xbcea77a4	-0.028621502
174	0x3d52dfa0	0.051482797
175	0x3cb1a0fd	0.02168321
176	0xbd609c4d	-0.05483656
177	0xbd6fe163	-0.058564555
178	0x3d1eb278	0.03874442
179	0xbd6406a0	-0.05567038
180	0xbb865814	-0.004099855
181	0x3d226000	0.039642334
182	0xbd20ce5f	-0.03925931
183	0xbc6e5193	-0.014545816
184	0xbc157bc4	-0.009123746
185	0xbc58e13b	-0.013237293
186	0xbd31ca49	-0.043405805
187	0xbda4782e	-0.08030735
188	0xbd903473	-0.07041254
189	0xbd3d989f	-0.04628813
190	0x3db34686	0.08753686
191	0xbd0c1464	-0.034199134
192	0xbd739b93	-0.05947454
193	0x3c6f6330	0.0146110505
194	0x3c9dd692	0.019267354
195	0x3d57ebe5	0.0527152
196	0x3d8d0e2e	0.0688747
197	0x3d4f3f57	0.050597515
198	0xbdb273d9	-0.087135024
199	0x3bc8c06d	0.0061264546
200	0x3d6ac980	0.05732107
201	0xb9c01be2	-0.00036641868
202	0xbd33856a	-0.043828405
203	0x3d9eb4c8	0.07749325
204	0xbcebbfc2	-0.02877796
205	0xbd206706	-0.03916075
206	0xbd8b1b6f	-0.06792342
207	0x3b5e156b	0.0033887278
208	0x3d028cfe	0.031872742
209	0x3c949ce1	0.018141212
210	0x3cbd332e	0.023095693
211	0xbd5b5a14	-0.053552702
212	0xbd949ed1	-0.07256854
213	0xbaaaab58	-0.0013021035
214	0x3d9f1b33	0.0776886
215	0x3d5aa312	0.053378172
216	0xbd1de1ac	-0.038545296
217	0xbb8b3066	-0.004247713
218	0xbd5a3cea	-0.05328075
219	0xbd0d6610	-0.034521163
220	0x3cb466dd	0.022021705
221	0x3d5101bc	0.051027045
222	0x3d988d02	0.0744877
223	0xbd8689f3	-0.065692805
224	0x3d82a512	0.06379141
225	0xbd51803f	-0.051147696
226	0x3d06aec3	0.03288151
227	0x3d894dda	0.06704302
228	0xbbb72b73	-0.0055898963
229	0x3d88ea1d	0.066852786
230	0xbd8d3cc6	-0.06896357
231	0xbcf463ca	-0.02983274
232	0x3d384788	0.044990093
233	0xbcc4c63f	-0.024020312
234	0xbcbc9e91	-0.02302483
235	0xbd06ae68	-0.03288117
236	0x3d7fccf5	0.06245132
237	0x3d1d3d0f	0.03838831
238	0x3cbfccbe	0.023413058
239	0xbd3056d3	-0.043051552
240	0xbd869993	-0.06572261
241	0x3bb2a47f	0.0054517384
242	0x3cb4b783	0.022060161
243	0xbd016794	-0.03159292
244	0xbc823c81	-0.015897991
245	0x3d623507	0.055226352
246	0xbb16b064	-0.002299332
247	0xb89e2209	-7.540367e-05
248	0xbca538e9	-0.020168738
249	0xbd86ace8	-0.06575948
250	0xbd93e402	-0.072212234
251	0xbd04c6b7	-0.03241607
252	0xbd0e6ee5	-0.034773726
253	0x3d08647a	0.033298947
254	0xbc78a576	-0.015176168
255	0xbcda0382	-0.026613

encoder.conv2.bias f4 [16]
0	0x3a82bfc2	0.0009975361
1	0x3d1fbe73	0.038999986
2	0x3d1745d0	0.036931813
3	0x3bdf5daf	0.006816588
4	0xbd1025fa	-0.035192467
5	0x3d5b9407	0.053607967
6	0x3d7b8105	0.06140234
7	0x3cabdce0	0.020979345
8	0xbd147651	-0.036245648
9	0x3ccb229c	0.024796776
10	0x3bfbd43c	0.0076852124
11	0x3daba026	0.08380155
12	0x3c8348b9	0.016025888
13	0x3c3d783b	0.01156431
14	0x3b374166	0.0027962564
15	0x3d3811d3	0.044938873

encoder.fc1.weight f4 [120, 400]
0	0x3b21a7f6	0.0024666763
1	0x3d2881f9	0.041139577
2	0x3ce5542b	0.027994236
3	0xbd2a2253	-0.04153664
4	0xbb36ccc4	-0.0027893046
5	0xbd24dece	-0.040251546
6	0xbd1c3a4b	-0.03814153
7	0x3bd5abfa	0.0065207453
8	0x3bf9ae2b	0.0076196394
9	0xbbaaad7b	-0.0052086688
10	0x3d509dcd	0.05093174
11	0xbcb92efc	-0.022605412
12	0xbc8e105b	-0.017341783
13	0xbc3d9a8e	-0.011572493
14	0xbb30bb39	-0.0026967062
15	0xbbe4dfdd	-0.0069846944
16	0x3d3162ec	0.04330723
17	0xbc8dbd5b	-0.017302206
18	0xbcbda8a0	-0.023151696
19	0x3aaac3a0	0.0013028271
20	0x3d151655	0.03639825
21	0x3c25c253	0.010117131
22	0x3d0129a3	0.03153385
23	0x3c4d6549	0.012536355
24	0x3d21a03a	0.039459445
25	0x3cf603f3	0.03003118
26	0x3d0ea26f	0.034822877
27	0xbbdcad1a	-0.0067345025
28	0xbd30969f	-0.043112393
29	0xbccd25c8	-0.02504243
30	0x3c5a26d2	0.01331492
31	0x3d20afbc	0.039230093
32	0xbca8dc22	-0.02061278
33	0x3d36cf43	0.044631254
34	0x3b62df9a	0.003461814
35	0x3adbb734	0.0016762973
36	0x3835d3ac	4.3350898e-05
37	0xbc1da1bb	-0.009621079
38	0x3d4e9add	0.050440658
39	0xba68eb52	-0.0008885163
40	0x3ce1a73f	0.02754557
41	0xbd3baa23	-0.045816552
42	0xbcb3e808	-0.021961227
43	0x3c1e091d	0.009645727
44	0x3d1b23d4	0.037875965
45	0x3cb612c8	0.022225752
46	0x3c5691cb	0.013096283
47	0xbd3b4e9b	-0.04572926
48	0xbb316203	-0.0027066476
49	0xbd172c11	-0.03690726
50	0xbd3f6535	-0.046727378
51	0x3b50a533	0.0031836748
52	0xbd0f08fd	-0.03492068
53	0x3d356d45	0.04429366
54	0xbcbe5990	-0.023236066
55	0x3ca28d15	0.019842664
56	0x3cf0933c	0.029367082
57	0xbd2d5f94	-0.04232748
58	0x3cbd4569	0.023104386
59	0xbb2a306c	-0.0025968803
60	0x3cb9189e	0.022594746
61	0x3d36d6ab	0.044638317
62	0xbcce7ad5	-0.025205055
63	0xbcc18da1	-0.023627104
64	0x3d168945	0.036752004
65	0x3c103bd9	0.008803331
66	0xb9888984	-0.00026042399
67	0x3d11af78	0.03556773
68	0xbce3e2f3	-0.027818179
69	0xbbc818fe	-0.006106495
70	0x3cf7f131	0.030266376
71	0x3c82dcff	0.01597452
72	0xbd11f6e8	-0.03563586
73	0x3c1a3346	0.009411639
74	0xbd2c706e	-0.04209941
75	0xbcfb48e5	-0.030674407
76	0x3d13a39e	0.03604471
77	0xbc314a78	-0.010820977
78	0xbce170d0	-0.027519614
79	0x3be5a5cf	0.0070082913
80	0x3c0850fa	0.008320088
81	0xbd048b88	-0.03235963
82	0xbd14d535	-0.036336143
83	0xbd554681	-0.05206919
84	0x3c8b0d6b	0.016974172
85	0xbd10592e	-0.0352413
86	0x3af254db	0.0018488424
87	0xbc6c6bbc	-0.014429983
88	0xbce64785	-0.028110275
89	0xbc35d1d7	-0.011097393
90	0xbd2bc498	-0.041935533
91	0xbcf57d88	-0.029967085
92	0xbbb8d30d	-0.0056403936
93	0xbd279b96	-0.040919863
94	0xbd2a59df	-0.041589614
95	0x3d121c68	0.03567162
96	0x3c1ca930	0.009561822
97	0xbc97c55e	-0.01852673
98	0xbb1cc96c	-0.0023923768
99	0x3d0b2b63	0.033976924
100	0xbd37ba8f	-0.04485565
101	0xbce2bfe2	-0.027679387
102	0xbd23eaa3	-0.04001869
103	0xbbd67e15	-0.006545792
104	0xbbb17eab	-0.0054167113
105	0xbd22bf3e	-0.039733164
106	0x3d17330c	0.036913916
107	0xbd0ea2cd	-0.034823228
108	0x3d510e79	0.051039193
109	0xbd1d2239	-0.038362715
110	0xbc1e0389	-0.009644398
111	0x3bc20ae5	0.005921709
112	0xbc994d8a	-0.018713731
113	0x3d3c6b5b	0.04600082
114	0xbd166852	-0.03672058
115	0xbba4eb46	-0.0050329296
116	0xbd03dc6c	-0.032192633
117	0x3c969324	0.018380709
118	0x3d378bfa	0.044811226
119	0x3d4f64eb	0.050633352
120	0x3b764070	0.003757503
121	0xbcd9a683	-0.026568657
122	0x3d38df37	0.04513475
123	0x3bdbbb8a	0.006705706
124	0x3d1dee9e	0.03855764
125	0xbccff882	-0.025387052
126	0xbcbe17b7	-0.023204667
127	0xbd39ade7	-0.04533186
128	0x3d2eb1f9	0.042650197
129	0x3c37a3fb	0.01120853
130	0xbd1315cf	-0.03590947
131	0x3ad2108a	0.0016026658
132	0xbcafb13a	-0.021446813
133	0xbaaeb906	-0.0013330288
134	0x3c5088d2	0.012727933
135	0xbccb41fd	-0.02481174
136	0x3c319cf9	0.010840648
137	0xbcff3912	-0.031155143
138	0x3bc44a00	0.005990267
139	0xbd3a4ba3	-0.04548229
140	0x3c028a6d	0.007967574
141	0x3d5562d2	0.052096196
142	0x3d42281e	0.04740154
143	0x3c6d5708	0.014486082
144	0x3d212999	0.03934631
145	0x3d471e50	0.048612893
146	0x3c8ad84e	0.016948845
147	0x3ca00e44	0.019538052
148	0x3c1c20a5	0.009529267
149	0x3d272737	0.040808883
150	0x3d22368f	0.039602812
151	0xbcdb742e	-0.026788797
152	0xbba04ed3	-0.004892209
153	0xbce90764	-0.028445907
154	0x3c77a3d0	0.01511474
155	0xbd31bc94	-0.043392733
156	0x3cbd02d9	0.023072647
157	0xbc0bd185	-0.00853384
158	0x3c918398	0.017762944
159	0x3c5b0cf0	0.013369784
160	0xbce40adf	-0.027837215
161	0x3cb8c92a	0.02255686
162	0x3c946c91	0.018118175
163	0xbd3a8897	-0.04554042
164	0x3d4074a0	0.046986222
165	0x3d2606e1	0.040533904
166	0x3d000c70	0.03126186
167	0x389ac5d2	7.380139e-05
168	0x3c7fead6	0.015619954
169	0xbcf81125	-0.030281613
170	0xbca586fc	-0.020205967
171	0x3ca36345	0.019944796
172	0x3c9dfae7	0.019284679
173	0x3c87af49	0.016563075
174	0xbd509784	-0.050925747
175	0x3d1a5d65	0.037686724
176	0xbcc9b11c	-0.024620585
177	0x3d24c459	0.040226314
178	0x3d21ccd3	0.039501976
179	0x3c87a76e	0.016559329
180	0x3d3cd537	0.046101775
181	0x3cccedae	0.025015678
182	0x3cd69e34	0.026198484
183	0xbc9ed17d	-0.019387001
184	0x3d50e66b	0.051000994
185	0x3c5b9e8d	0.013404501
186	0x3cdbf1e4	0.02684874
187	0xbc6b4d57	-0.014361701
188	0x3d07039a	0.03296242
189	0x3d487ce5	0.048947234
190	0xbd2972ab	-0.04136912
191	0x3d1c7408	0.038196594
192	0xbd142bec	-0.0361747
193	0xbd184b64	-0.037181273
194	0xbd352da2	-0.044232972
195	0x3c9c6819	0.019092606
196	0xbd03b892	-0.03215844
197	0xbcb07244	-0.021538861
198	0xbce7b4de	-0.028284486
199	0x3c20f0fc	0.00982308
200	0xbd57b57e	-0.05266332
201	0xbcbdddd2	-0.023177061
202	0x3b27acd6	0.0025585196
203	0x3c11bad3	0.00889464
204	0xbcd7cf9e	-0.026344117
205	0x3c6ee592	0.014581101
206	0xbcf78ca3	-0.030218428
207	0xbd25969b	-0.04042683
208	0xbc0d55e9	-0.00862644
209	0xbccf7c9f	-0.025327979
210	0x3d0fba94	0.035090044
211	0xbd1a424d	-0.037660886
212	0xbc03259b	-0.008004571
213	0x3cbd0067	0.02307148
214	0xbd363a2b	-0.044489067
215	0x3d14b06b	0.036301058
216	0xbc9749e2	-0.018467847
217	0xbc345cff	-0.0110085
218	0xbd04b629	-0.032400284
219	0xbc827dc0	-0.015929103
220	0xbcb20bde	-0.021734174
221	0xbd42287a	-0.047401883
222	0x3c575423	0.013142618
223	0xbb70bf62	-0.0036735167
224	0x3d4326fa	0.047644593
225	0x3cf9005b	0.030395677
226	0x3d22c848	0.039741784
227	0x3c3d2112	0.011543529
228	0x3cbd028e	0.023072507
229	0x3d350a5c	0.044199333
230	0x3d2826a2	0.041052468
231	0xbd286954	-0.041116074
232	0xbc698a8c	-0.014254224
233	0xbd522c8d	-0.05131202
234	0xba52d869	-0.0008043112
235	0xbc5e8e42	-0.013583722
236	0x3d29902d	0.041397262
237	0x3ba9dee6	0.0051840423
238	0xbb3ed8d4	-0.002912094
239	0xbd203b2e	-0.03911894
240	0xbd2acea8	-0.04170099
241	0x3bc17c98	0.0059047453
242	0xbcdf2c30	-0.02724275
243	0xbcd752e3	-0.02628464
244	0x3d0321c8	0.03201464
245	0xbcee14bd	-0.029062623
246	0xbcd13b16	-0.02554087
247	0x3d16c464	0.036808386
248	0x3c898ff9	0.016792284
249	0xbd0254ad	-0.031819034
250	0x3c3905f8	0.011292927
251	0x3cc6f958	0.024288818
252	0xbd2b5c3a	-0.041836
253	0x3bcca24c	0.006244933
254	0x3c63b747	0.013898677
255	0xbbb97cae	-0.005660615

encoder.fc1.bias f4 [120]
0	0xbcfeda61	-0.03110999
1	0x3cbb51e1	0.022866191
2	0xbc5aab4d	-0.013346505
3	0x3cf67a68	0.030087665
4	0x3cbe0023	0.023193425
5	0x3cf2406e	0.029571738
6	0x3af62432	0.0018779098
7	0xbc94bb7b	-0.018155804
8	0x3bd6fd8d	0.0065609873
9	0xbc583ff8	-0.013198845
10	0x3c4a875a	0.012361372
11	0xbb21721a	-0.002463466
12	0xbbcb9a2f	-0.0062134485
13	0x3d41998a	0.047265567
14	0xbd28f6c5	-0.041250963
15	0x3d43a94f	0.047768887
16	0x3ca3587f	0.01993966
17	0xbcf32cc8	-0.02968444
18	0x3d3b63f1	0.04574961
19	0xbc61cd44	-0.013781849
20	0xbcff5784	-0.03116966
21	0xbc4dc4a0	-0.012559086
22	0x3c19fea7	0.009399093
23	0xbd09ef68	-0.03367558
24	0x3b916b27	0.0044378224
25	0x3caf6d89	0.021414535
26	0xbd427dab	-0.047483128
27	0x3cab88cb	0.020939251
28	0x3cae68f8	0.021290287
29	0x3d6554ed	0.055989195
30	0x3d65f822	0.05614484
31	0xbc232cf5	-0.009959449
32	0xbcabd728	-0.020976618
33	0xbd397439	-0.045276854
34	0xbcdeccca	-0.02719726
35	0x3bceab54	0.006307045
36	0x3cb27f7b	0.021789303
37	0x3d0d00e9	0.034424696
38	0x3c8e24a4	0.017351456
39	0xbba3ba4d	-0.004996574
40	0x3c517d80	0.012786269
41	0x3d0aaeac	0.033857986
42	0x3d1b7f3a	0.03796313
43	0x3d0cdb75	0.034388978
44	0xbce308f3	-0.027714228
45	0xbcad4785	-0.021152267
46	0xbc4d930f	-0.0125472685
47	0xbbda9cbb	-0.0066715158
48	0xbd29b6d8	-0.04143414
49	0x3d386f73	0.04502816
50	0x3d29d506	0.04146292
51	0x3d12d684	0.03584911
52	0x3c889935	0.016674617
53	0x3d7013a7	0.058612492
54	0x3b7ed339	0.0038883223
55	0xbc0c839d	-0.008576301
56	0x3a8cb0a4	0.0010733795
57	0x3c78f98a	0.0151962135
58	0x3c2fb5a4	0.010724459
59	0x3a47c009	0.0007619863
60	0x3c13d35a	0.009022558
61	0xbcee1255	-0.029061476
62	0xba4b5000	-0.00077557564
63	0x3ce4b2d9	0.027917312
64	0x3baea87c	0.0053301435
65	0xbd40ab45	-0.047038335
66	0xbbef590e	-0.0073043173
67	0xbc60c984	-0.01371992
68	0x3d0d10f7	0.034440007
69	0x3d064a0d	0.032785464
70	0xbcb8c3d7	-0.022554321
71	0x3cb8bc67	0.022550775
72	0x3bed10c0	0.007234663
73	0xbd1b498a	-0.03791193
74	0xbc91ac43	-0.017782336
75	0x3c69bbf3	0.014266002
76	0x3d09196f	0.03347152
77	0xbc913971	-0.017727586
78	0x3c1a76d9	0.00942775
79	0x3c83ead7	0.016103191
80	0xbd2781f8	-0.040895432
81	0xbc2b87f3	-0.010469425
82	0x3ca5fd00	0.020262241
83	0x3ca1b9a0	0.019741833
84	0x3c86b633	0.016444301
85	0xbcc1bf0a	-0.023650665
86	0xbc425cb4	-0.011862922
87	0x3cd8672b	0.026416382
88	0x3c8c9da2	0.017165009
89	0xbb91ffc3	-0.004455538
90	0x3d590320	0.052981496
91	0x3c140efa	0.009036774
92	0xbd28bc75	-0.04119535
93	0x3b6b0680	0.0035862029
94	0xbc3c9681	-0.011510492
95	0xbc0e574e	-0.008687807
96	0xbae9122c	-0.0017781905
97	0xbc51159f	-0.0127615025
98	0xbcc51ad7	-0.02406065
99	0x3cdffc94	0.027342118
100	0x3d25ebb7	0.040508
101	0xbd0eca89	-0.03486112
102	0x3bdcec1a	0.0067420127
103	0x3cb382b4	0.02191291
104	0x3b3fb392	0.002925132
105	0xbba1cc6a	-0.004937698
106	0xbbd671fb	-0.0065443492
107	0xbb8429b3	-0.0040332912
108	0xbd2f4d00	-0.042798042
109	0x3d4d4062	0.05011023
110	0x3d3d25ef	0.046178754
111	0x3ce26700	0.027637005
112	0xbca0bb7a	-0.019620646
113	0xbc77d073	-0.015125382
114	0x3c94d34a	0.018167157
115	0x3d11f1f1	0.035631124
116	0xba63bac5	-0.00086871936
117	0xbbe3984c	-0.0069456454
118	0xbd486561	-0.048924807
119	0xbd2cba91	-0.04217011

encoder.fc2.weight f4 [84, 120]
0	0x3bcf00fa	0.006317255
1	0xbb84d65c	-0.004053874
2	0xbc07cb5b	-0.00828823
3	0x3da42027	0.08013945
4	0x3cf47edb	0.029845646
5	0xbd8c09eb	-0.06837829
6	0xbd83ec5e	-0.06441568
7	0x3cb14cac	0.021643005
8	0x3d64a872	0.055824704
9	0xbdac80df	-0.08423018
10	0x3d091d7f	0.033475395
11	0xbd26e00b	-0.040741008
12	0x3d0d93ab	0.034564655
13	0xbd42c2ac	-0.047548935
14	0x3d9d35e0	0.076762915
15	0x3daee749	0.08540208
16	0xbd824dd2	-0.06362499
17	0xbda559d6	-0.080737755
18	0x3cd7e3fd	0.02635383
19	0x3d952ba6	0.07283716
20	0x3d24090e	0.040047698
21	0xbd364b00	-0.04450512
22	0x3d9eab12	0.07747473
23	0xbdb9094e	-0.09034978
24	0x3d9bf079	0.07614226
25	0xbd06b621	-0.032888535
26	0xbbced670	-0.006312184
27	0xb92a45f4	-0.00016238523
28	0xbccebcfe	-0.025236603
29	0xbcab0807	-0.020877851
30	0x3cb83657	0.022486849
31	0x3c904f9d	0.017616088
32	0x3c2d4fa0	0.010578066
33	0x3db78694	0.089612156
34	0xbc131dd0	-0.008979276
35	0xbd677fc3	-0.056518327
36	0xbda3caa2	-0.079976335
37	0x3d8dba5e	0.06920312
38	0xbd874729	-0.066053696
39	0x3d3ca697	0.04605731
40	0xbd59f231	-0.053209487
41	0xbd79a2dd	-0.060946334
42	0x3c6befb1	0.014400409
43	0x3d8e0fb0	0.06936586
44	0xbda85aa3	-0.082204126
45	0x3d75b3ac	0.0599858
46	0xbdba09ba	-0.090838864
47	0xbc96a29d	-0.018388087
48	0xbcd400b0	-0.025879234
49	0xbd84a1b0	-0.06476152
50	0xbd90de7d	-0.07073686
51	0xbd1be1b5	-0.038057048
52	0xbd95a79b	-0.07307359
53	0x3a7427e8	0.0009313808
54	0xbd79ef51	-0.061019246
55	0xbd2dfc49	-0.042476926
56	0xbd3a8272	-0.04553456
57	0x3cdbeaf1	0.026845427
58	0xbcd69d4c	-0.026198052
59	0x3d592041	0.053009275
60	0x3d63e254	0.055635765
61	0xbd897ea6	-0.067136094
62	0xbc7de58d	-0.015496624
63	0xbdba5db8	-0.09099907
64	0x3d32fb11	0.043696467
65	0xbca2f3b1	-0.019891592
66	0x3cc0a6ac	0.023516975
67	0x3cf6611b	0.0300756
68	0x3da5bfaf	0.08093201
69	0xbc152352	-0.009102659
70	0xbcdd383b	-0.027004352
71	0x3db06c7e	0.08614443
72	0xbbeb6e7a	-0.0071848007
73	0x3c88fd54	0.016722359
74	0x3c13cc72	0.0090209115
75	0xbd451fbb	-0.048125964
76	0x3d57948f	0.05263191
77	0xbd9a9680	-0.07548237
78	0x3d3af8cd	0.04564743
79	0x3d3615b3	0.044454288
80	0x3d74290c	0.059609458
81	0xbd841c94	-0.06450763
82	0x3d8344b6	0.0640959
83	0x3dacb978	0.08433813
84	0xbac70c74	-0.0015186206
85	0xbdb0f8f2	-0.086412326
86	0xbb8d72f1	-0.0043166806
87	0xba00ef39	-0.00049184595
88	0xbda38d0c	-0.07985887
89	0xbbb950a0	-0.005655363
90	0xbcf70e3b	-0.030158153
91	0xbda97c97	-0.08275717
92	0x3d72e2a9	0.05929819
93	0x3cc4d7bb	0.02402865
94	0xbd1f503b	-0.038894873
95	0x3da9ac38	0.08284801
96	0x3b97fd1d	0.0046383278
97	0x3ba53780	0.0050420165
98	0x3c3824ee	0.0112392735
99	0xbd9a75f3	-0.07542028
100	0xbd1dd0e5	-0.038529295
101	0x3c499b36	0.012305072
102	0xbd0a40dc	-0.03375326
103	0x3d428dd4	0.04749854
104	0x3b1ee1b2	0.0024243412
105	0x3c9e446e	0.01931974
106	0x3db4f958	0.08836621
107	0xbd20662d	-0.039159942
108	0xbc497891	-0.012296812
109	0xbd5b4700	-0.053534508
110	0xbda39a11	-0.0798837
111	0x3caaac4f	0.020834116
112	0x3d850c09	0.06496436
113	0x3cfd1de2	0.030898038
114	0xbd92f11a	-0.07174893
115	0x3d721010	0.05909735
116	0xbdaab811	-0.08335889
117	0xbd82e297	-0.06390875
118	0x3daa2322	0.08307482
119	0xbd2b9dd1	-0.041898552
120	0xbd4eb777	-0.050467934
121	0xbcf33ec6	-0.029693019
122	0xbd336c81	-0.04380465
123	0x3ced9955	0.029003778
124	0xbd4515da	-0.048116542
125	0xbdb64d0a	-0.08901413
126	0xbcc471c1	-0.023980023
127	0x3c57a22f	0.013161226
128	0x3bc07936	0.0058738245
129	0x3be8102b	0.0070820055
130	0xbdbbcc8f	-0.09169876
131	0xbcd2a22b	-0.025712093
132	0xbd60753a	-0.054799296
133	0xbcb3f67f	-0.021968124
134	0xbd49d653	-0.04927666
135	0xb9a58b30	-0.00031574955
136	0xbc4c911e	-0.0124857705
137	0xbda55c46	-0.080742404
138	0x3d2137cf	0.039359864
139	0x3d03f01e	0.032211415
140	0x3cd84c65	0.026403615
141	0x3d0d1fa2	0.034453996
142	0x3a121bdf	0.0005573611
143	0x3ca74102	0.02041674
144	0xbdb699c0	-0.08916044
145	0x3d8165da	0.06318255
146	0x3d9e7b1e	0.077383265
147	0xbd03c05e	-0.032165878
148	0x3da3056b	0.07960018
149	0xbcd2c69a	-0.025729466
150	0x3d116e28	0.035505444
151	0xbce9cb50	-0.02853933
152	0xbd513115	-0.0510722
153	0xbd24a253	-0.040193867
154	0x3d805ee6	0.062681004
155	0xbce6f227	-0.02819164
156	0xbd8c5af0	-0.068532825
157	0x3be96797	0.0071229446
158	0xbd598fdd	-0.053115714
159	0xbd6b2388	-0.057406932
160	0xbd508d9f	-0.05091631
161	0xbd505012	-0.05085761
162	0xbd6fb404	-0.058521286
163	0x3d100349	0.035159383
164	0xbd04b478	-0.03239867
165	0x3cbd98bf	0.023144124
166	0x3d970106	0.07373242
167	0x3cd0ca4d	0.02548709
168	0x3dc20a2d	0.09474597
169	0x3da29518	0.079385936
170	0x3c75c0e4	0.014999602
171	0x3d3732f6	0.044726335
172	0x3db36be0	0.0876081
173	0xbd82588a	-0.06364544
174	0xbd581dc6	-0.05276277
175	0x3d85a9dd	0.065265395
176	0x3d480744	0.048835054
177	0x3cf051d1	0.029335888
178	0x3c72005a	0.014770592
179	0xbd49aa55	-0.049234707
180	0x3d1cdb90	0.03829533
181	0xbb78260b	-0.0037864472
182	0x3b73c37e	0.003719538
183	0x3dae3f65	0.08508185
184	0x3d5a92f3	0.053362798
185	0x3a4df3c6	0.00078564545
186	0xbc7c6330	-0.0154045075
187	0xbd55f6c2	-0.05223728
188	0x3d1d6f95	0.03843649
189	0x3db299dd	0.08720753
190	0xbd282e22	-0.04105962
191	0xbd82120a	-0.06351097
192	0x3d6211ee	0.05519288
193	0xbd9c41be	-0.07629727
194	0x3daaac96	0.083336994
195	0x3c895044	0.016761906
196	0x3daebf7e	0.08532618
197	0x3c82c5d7	0.015963478
198	0x3cbff3ba	0.023431648
199	0xbdaf2fed	-0.08554063
200	0xbbc25094	-0.005930016
201	0x3d9aab11	0.075521596
202	0xbd16a3f7	-0.036777463
203	0x3d926e87	0.07149988
204	0xbbe24b9e	-0.006905987
205	0xbd34c56d	-0.044133592
206	0xbd2e8c4f	-0.042614277
207	0xbd8b49a9	-0.06801159
208	0x3cbee20a	0.023301143
209	0xbd4b11ca	-0.04957751
210	0x3d20f7d0	0.039298832
211	0xbccce0fa	-0.025009621
212	0x3d44c570	0.048039854
213	0x3d86d0f0	0.065828204
214	0xbd82b9d7	-0.063831024
215	0xbd4db829	-0.050224457
216	0x3d8496e9	0.06474096
217	0xbca79920	-0.020458758
218	0xbd9ba3bf	-0.075995915
219	0xbd4b1e27	-0.049589302
220	0xbda94546	-0.08265166
221	0xbd58caff	-0.052927967
222	0x36b7ab6d	5.4737816e-06
223	0x3d8eee55	0.06979052
224	0x3c74872d	0.014924807
225	0x3c1d7a85	0.00961173
226	0x3ac9ac50	0.0015386436
227	0xbd6127f5	-0.054969747
228	0x3d4ba03a	0.04971335
229	0x3d866cd5	0.06563727
230	0x3d11bbbe	0.035579436
231	0x3d9b6278	0.07587141
232	0x3db688bd	0.089127995
233	0x3c296e8f	0.010341301
234	0xbd400395	-0.046878416
235	0x3d8d46c6	0.068982646
236	0x3c662348	0.014046498
237	0xbc7334d2	-0.014844136
238	0xbc520bde	-0.012820212
239	0x3c05c92d	0.00816564
240	0xbd234e9b	-0.039869886
241	0x3d532841	0.05155206
242	0xbd8e0a49	-0.069355555
243	0x3ba85331	0.0051368703
244	0xbdb81be4	-0.08989695
245	0x3d0ed745	0.034873266
246	0xbd3a9838	-0.045555323
247	0xbc1b5450	-0.009480551
248	0x3d907536	0.07053606
249	0x3c66a299	0.014076852
250	0x3af8aeb8	0.0018972969
251	0x3d155209	0.036455188
252	0x3beac7ea	0.007164945
253	0x3d718e41	0.058973555
254	0x3c4e6b35	0.012598802
255	0x3d64a57d	0.055821884

encoder.fc2.bias f4 [84]
0	0xbdb8f2e3	-0.09030702
1	0x3d8bdd87	0.06829362
2	0x3d8d909e	0.06912349
3	0x3d115216	0.035478674
4	0x3c2ad8c9	0.010427662
5	0x3b0ff913	0.0021968528
6	0x3c40ab8d	0.011759651
7	0x3d785b38	0.060633868
8	0x3d8b8cd0	0.06813967
9	0xbd3f2714	-0.046668127
10	0x3cdd3049	0.027000563
11	0xbbe28d52	-0.0069138194
12	0x3d619767	0.05507603
13	0xbd2707ec	-0.04077904
14	0x3d6ad965	0.05733623
15	0x3cccbc0d	0.024992013
16	0x3c56e400	0.013115883
17	0x3b335e82	0.0027369563
18	0x3d6be70c	0.05759339
19	0x3da20cbe	0.07912587
20	0x3db12915	0.08650414
21	0xbc5a1ed3	-0.013313013
22	0x3dc1fb95	0.094718136
23	0x3da50ab1	0.0805868
24	0x3d951d54	0.072809845
25	0x3d15bba7	0.036555912
26	0xbdc3d794	-0.09562603
27	0xbd94e155	-0.07269541
28	0xbda11b60	-0.078665495
29	0xbd749db7	-0.05972072
30	0xbda9077f	-0.08253383
31	0x3cf865d7	0.030321999
32	0x3dc65ef9	0.09686083
33	0xbd4d514d	-0.050126363
34	0x3d24c5bd	0.04022764
35	0x3cc325dd	0.023821766
36	0x3d0c0de9	0.034192953
37	0x3c81f438	0.015863523
38	0x3cf4b1ee	0.02987
39	0x3cb492eb	0.022042712
40	0x3d083fcb	0.033263963
41	0x3d1b7001	0.037948612
42	0xbdbe4395	-0.09290234
43	0xbdaa0703	-0.08302119
44	0x3cc6125b	0.024178674
45	0xbdb5a10d	-0.088686086
46	0x3cb07b5a	0.021543194
47	0x3d110d37	0.035412993
48	0xbd98f905	-0.07469372
49	0x3d6c5c42	0.05770517
50	0xbd836d34	-0.06417313
51	0xbd83f104	-0.064424545
52	0x3d14e005	0.036346454
53	0x3d964841	0.07338
54	0x3ad8d324	0.0016542417
55	0xbcfadd48	-0.030623093
56	0x3bcf0338	0.0063175224
57	0xbd27aa00	-0.04093361
58	0xbd97bbd4	-0.07408872
59	0xbd401d92	-0.0469032
60	0xbcb1f4f4	-0.021723248
61	0xbd24f4cb	-0.040272515
62	0x3da8b16c	0.082369655
63	0x3d774010	0.06036383
64	0x3bcfbe3c	0.0063398164
65	0x3d871faf	0.0659784
66	0xbd434443	-0.04767252
67	0x3d6e7d4e	0.05822497
68	0xbd81a10f	-0.063295476
69	0xbdb98436	-0.0905842
70	0x3cfc9cf9	0.03083657
71	0x3d03b17a	0.032151677
72	0xbbc0eb3b	-0.0058874167
73	0x3d40c9e0	0.047067523
74	0x3c4fe1e2	0.012688132
75	0x3cee8bca	0.029119391
76	0x39fb81e2	0.0004797122
77	0xbda4dcb4	-0.08049908
78	0xbdb9c6a7	-0.09071093
79	0xbccbcb39	-0.024877178
80	0x3c091749	0.008367368
81	0xbd9018eb	-0.07036003
82	0x3cd770e3	0.026298946
83	0xbd244b83	-0.040111076

bottleneck.fc.weight f4 [16, 84]
0	0xbcadef2c	-0.02123221
1	0x3d40dfe9	0.047088537
2	0xbc082a93	-0.008310932
3	0xbda6daed	-0.081472255
4	0x3c929c01	0.017896654
5	0xbdd5ef54	-0.10446039
6	0x3dca5701	0.09879876
7	0xbd8c279b	-0.06843492
8	0x3d7dbc43	0.06194712
9	0xbc41b868	-0.011823751
10	0xbc95752b	-0.018244347
11	0x3db42cf0	0.08797634
12	0xbd89c34d	-0.06726704
13	0xbda72738	-0.08161777
14	0xbdcad19f	-0.09903263
15	0xbd8dba01	-0.06920243
16	0x3dc28752	0.094984666
17	0xbd26ceb1	-0.04072446
18	0x3d6f5def	0.05843919
19	0xbc043f40	-0.008071721
20	0xbd3490ee	-0.04408353
21	0xbd6926fe	-0.05692195
22	0x3de3de5b	0.11126395
23	0xbdb0c582	-0.086314216
24	0x3d0ddfce	0.034637265
25	0xbb92dc1c	-0.0044818055
26	0xbcb9bf11	-0.022674115
27	0x3ddadace	0.10686265
28	0x3d29bd91	0.04144055
29	0xbdd0e3ce	-0.101997
30	0x3b067bcd	0.0020520568
31	0xbbbeb282	-0.0058196196
32	0x3db5f267	0.08884125
33	0xbd9de7c2	-0.0771022
34	0x3d46a527	0.048497345
35	0x3cc67b77	0.024228795
36	0x3d8880da	0.066652015
37	0xbceb3cdc	-0.028715543
38	0x3d9d43ab	0.07678922
39	0xbd09fdf6	-0.03368946
40	0xbce25436	-0.027628046
41	0x3db95e74	0.09051219
42	0xbd4d3afe	-0.050105087
43	0x3d1e2e7f	0.03861856
44	0xbd3a7949	-0.045525823
45	0x3d482597	0.048863973
46	0x3ddf6b16	0.10909097
47	0xbdb64b72	-0.08901109
48	0x3da7e46c	0.08197865
49	0xbce8206a	-0.028335769
50	0xbd6365a6	-0.05551686
51	0xbd16d232	-0.03682155
52	0xbb826cbf	-0.0039802487
53	0x3c5ac668	0.013352968
54	0x3d846ff3	0.06466665
55	0x3d6ccfb1	0.057815257
56	0xbd69735b	-0.056994777
57	0x3d8fa583	0.07013991
58	0xbdd92f6c	-0.10604748
59	0x3d0565c7	0.032567766
60	0x3d88d09a	0.066804126
61	0xbcf82e6a	-0.03029557
62	0xbd6c8b08	-0.057749778
63	0xbb971d11	-0.0046116193
64	0x3d7545aa	0.05988089
65	0xbd6a3a49	-0.05718449
66	0x3d206762	0.039161094
67	0x3cc8fee4	0.024535604
68	0xbd65f20e	-0.056139044
69	0x3cbb8d87	0.022894634
70	0x3cb0110d	0.021492505
71	0x3dac815e	0.08423112
72	0x3c94fe45	0.018187651
73	0x3cebdf34	0.028792955
74	0xbd487e09	-0.04894832
75	0xbdc16692	-0.09443392
76	0x3d954e19	0.072902866
77	0x3c48c8ca	0.012254903
78	0x3ce04e05	0.027380953
79	0xbd80b430	-0.06284368
80	0xbc16c6ee	-0.009202702
81	0xbb1d2929	-0.0023980832
82	0xbdc02b63	-0.09383275
83	0x3c8a3c42	0.016874436
84	0x3ccbd223	0.024880474
85	0xbd8e856c	-0.06959042
86	0x3dc0cebf	0.09414434
87	0x3dde5eb1	0.10857905
88	0x3d9cf95b	0.07664748
89	0xbd9a8ba1	-0.07546163
90	0x3d86373b	0.06553503
91	0x3cf3f1d1	0.029778393
92	0xbda4cf2e	-0.08047329
93	0xbda317c1	-0.07963515
94	0x3c860f7c	0.016364805
95	0x3dcb9a70	0.09941566
96	0x3dc34f4b	0.09536608
97	0x3dc1015e	0.09424089
98	0xbca3e428	-0.020006254
99	0xbd5cc478	-0.053898305
100	0x3d8935b2	0.06699695
101	0x3c927010	0.017875701
102	0x3d8f92a7	0.070103936
103	0x3c298e98	0.010348938
104	0x3d55405d	0.052063335
105	0x3db0df23	0.0863631
106	0xbd0e1291	-0.034685675
107	0xbd7e1080	-0.062027454
108	0x3cf26eff	0.029593943
109	0x3bca137f	0.006166875
110	0xbd38ccf6	-0.04511734
111	0x3dd125de	0.10212301
112	0x3dd24694	0.10267368
113	0x3db80d33	0.089868926
114	0xbbe3a386	-0.0069469837
115	0xbd906bc4	-0.07051805
116	0x3cd381be	0.025818702
117	0x3d4c6154	0.049897507
118	0xbd6e21da	-0.058137752
119	0xbd88945a	-0.06668921
120	0xbd7b08f0	-0.06128782
121	0xbcf4121e	-0.029793795
122	0xbd0bf054	-0.03416474
123	0xbd71b69a	-0.059012033
124	0x3cdc33ee	0.02688023
125	0x3d60a18f	0.054841574
126	0xbc27f174	-0.010250438
127	0x3b02709d	0.0019903549
128	0x3d10413f	0.035218474
129	0xbdcdd298	-0.10049933
130	0x3d04e30d	0.032443095
131	0x3d3a1031	0.045425598
132	0x3d89a41d	0.06720755
133	0x3dd1c177	0.102419786
134	0xbd3a6550	-0.045506775
135	0xbd99a48c	-0.07502088
136	0x3d40f942	0.04711271
137	0xbdda8907	-0.10670667
138	0xbd7f1208	-0.062273055
139	0x3ce48cb8	0.027899131
140	0x3c1debd4	0.009638745
141	0x3b546e85	0.0032414508
142	0xbd58b759	-0.05290923
143	0x3d340b74	0.043956235
144	0xbdd3e46a	-0.10346301
145	0x3da82d7f	0.08211803
146	0x3cc6ca83	0.024266487
147	0xbddfe716	-0.10932748
148	0xbd999f3a	-0.07501073
149	0xbdbe5783	-0.09294035
150	0xbdb37ea9	-0.08764393
151	0xbd72d56d	-0.05928557
152	0x3b336b98	0.0027377363
153	0x3c9c0cc5	0.019049058
154	0xbd91698a	-0.07100208
155	0x3d642467	0.05569878
156	0x3bce8d7a	0.0063034864
157	0x3cdaae70	0.026694506
158	0x3db1bb1d	0.08678267
159	0x3d2c9942	0.042138346
160	0x3d81d08e	0.06338607
161	0xbbdf1edc	-0.0068090986
162	0x3d9623d4	0.073310524
163	0x3d8ea0e2	0.0696428
164	0x3cb9087e	0.022587057
165	0x3dafe9ef	0.08589541
166	0xbdb5fbd1	-0.08885921
167	0x3d94c21e	0.072635874
168	0xbd64ecfe	-0.055890076
169	0xbdc4b218	-0.09604281
170	0x3dbfb6e0	0.093610525
171	0xbd1b09b0	-0.037851036
172	0xbd0b0b36	-0.03394624
173	0x3d6066ec	0.054785654
174	0x3d8acfdb	0.067779265
175	0x3db12d86	0.08651261
176	0x3dcd067e	0.10011004
177	0xbd0eb2f5	-0.034838635
178	0xbd3e8c0e	-0.046520285
179	0xbc07a7d1	-0.008279757
180	0x3d242eb4	0.040083602
181	0x3ca09d5a	0.019606281
182	0x3a023ed2	0.00049684674
183	0x3d96e685	0.07368187
184	0x3d10945e	0.035297744
185	0x3c55c595	0.0130475955
186	0xbc6b4f17	-0.014362118
187	0x3d5590d9	0.05214009
188	0x3dcbb558	0.09946698
189	0x3dd0b6b1	0.101910956
190	0x3d0bb722	0.034110196
191	0x3cd0137b	0.025399914
192	0x3d1b8173	0.03796525
193	0xbdbcb9f4	-0.09215155
194	0x3cab01fc	0.02087497
195	0xbd6d8869	-0.05799142
196	0xbd030b47	-0.031993177
197	0x3cfbbb42	0.03072894
198	0xbd189c57	-0.037258472
199	0xbdb95770	-0.090498805
200	0x3c5456bd	0.012960133
201	0xbbdafaec	-0.0066827442
202	0x3dbe549e	0.09293483
203	0x3d53b247	0.05168369
204	0xbc32a4b1	-0.010903523
205	0x3d507eb1	0.050902072
206	0xbd632224	-0.05545248
207	0x3dbdf9e8	0.092761815
208	0x3dacb53b	0.084330045
209	0x3d828a50	0.06374037
210	0xbd48157e	-0.04884862
211	0x3bb0cf1c	0.005395783
212	0xbc2aa57f	-0.010415434
213	0xbd9cff6f	-0.076659076
214	0xbd632e70	-0.055464208
215	0xbd8aefde	-0.06784032
216	0xbdbcafe0	-0.09213233
217	0x3d97d877	0.07414334
218	0x3d7f0b7d	0.062266815
219	0xbc1735d6	-0.009229144
220	0xbc8c1200	-0.017098427
221	0xbdbe2c7c	-0.092858285
222	0xbd28a7de	-0.041175716
223	0x3d9aeca3	0.07564666
224	0xbc8e71c2	-0.017388228
225	0xbdaea629	-0.08527786
226	0xb9b2fc85	-0.00034138947
227	0x3b0e4f7a	0.0021714852
228	0x3cdb20b4	0.026748993
229	0x3da4247b	0.080147706
230	0xbd3e4077	-0.046448197
231	0xbd4ad58f	-0.04952007
232	0xbd892d90	-0.066981435
233	0x3daa4367	0.08313637
234	0x3d90da2f	0.07072865
235	0xbcba6ab4	-0.022755958
236	0x3d25b937	0.040459838
237	0x3d8ce605	0.0687981
238	0xbcf202dd	-0.029542381
239	0xbc59d71b	-0.013295914
240	0x3ca0a370	0.019609183
241	0xbdde8698	-0.108655155
242	0xbcf7ac86	-0.030233633
243	0x3cae3062	0.021263305
244	0xbcd6b514	-0.026209392
245	0xbcf93803	-0.030422216
246	0xbdad58ef	-0.08464228
247	0xbce5933c	-0.028024308
248	0xbdab212c	-0.083559364
249	0xbdb7fca1	-0.08983732
250	0x3dba594d	0.09099064
251	0x3c968c4b	0.018377444
252	0x3d8a9f5d	0.067686774
253	0xbcb511d5	-0.02210323
254	0xbd8d5f48	-0.06902939
255	0x3db26883	0.0871134

bottleneck.fc.bias f4 [16]
0	0xbd4d1508	-0.050068885
1	0xbd12b42b	-0.035816353
2	0xbcd0625f	-0.025437532
3	0xbb6f0464	-0.0036471123
4	0xbd958c2b	-0.073021255
5	0xbb7850be	-0.0037889923
6	0x3c540cbd	0.01294249
7	0xbd027adf	-0.03185546
8	0xbd7b05bf	-0.061284777
9	0x3da38e3f	0.07986116
10	0x3d2d39fc	0.042291626
11	0x3cd58a95	0.026067058
12	0x3c2c1960	0.010504097
13	0x3d53e32d	0.051730324
14	0xbd876922	-0.06611849
15	0x3d4f5e47	0.05062702

decoder.fc3.weight f4 [84, 16]
0	0x3db867c4	0.09004167
1	0x3dea9684	0.1145449
2	0x3ded369e	0.11582683
3	0xbe343003	-0.1759644
4	0x3dd98c5c	0.106224746
5	0xbe535644	-0.20638376
6	0x3d0eb5b1	0.034841243
7	0xbdffb6ec	-0.124860615
8	0x3c814130	0.015778154
9	0xbe499e21	-0.19689228
10	0x3de981e0	0.11401725
11	0x3e015635	0.12630542
12	0xbceafdf0	-0.02868554
13	0xbda37212	-0.079807416
14	0xbe363f74	-0.17797643
15	0xbe07bcbe	-0.13255593
16	0x3cdf02a4	0.027222939
17	0xbd963632	-0.07334556
18	0xbe3cbb54	-0.18430835
19	0xbe766cf0	-0.24064994
20	0xbda0b7a8	-0.0784753
21	0xbc0867ec	-0.008325558
22	0xbdd3454f	-0.10315954
23	0xbd87ab3c	-0.06624457
24	0x3e5045a6	0.20339069
25	0xbe08eff0	-0.13372779
26	0x3e3151b3	0.17316322
27	0x3cce368a	0.02517249
28	0xbda84f30	-0.08218229
29	0xbdea05b9	-0.11426873
30	0xbdc86744	-0.09785321
31	0xbce928d1	-0.028461846
32	0xbe16706b	-0.14691322
33	0x3e39701e	0.18109176
34	0x3cefcdca	0.029272933
35	0xbe09e3c8	-0.13465798
36	0xbe789006	-0.2427369
37	0xbde2259a	-0.11042328
38	0x3e1a8b4c	0.150922
39	0xbda382c8	-0.07983929
40	0x3dbed8c8	0.093186915
41	0xbdb4bed3	-0.08825459
42	0x3e166813	0.14688139
43	0x3d9591aa	0.07303174
44	0xba876100	-0.0010328591
45	0x3bd460ed	0.006481281
46	0x3e597d28	0.2123915
47	0xbe43d31f	-0.19123505
48	0x3dafcb9f	0.085837595
49	0x3e2590fd	0.1616859
50	0xbd9acfff	-0.07559203
51	0x3e195ecb	0.14977567
52	0x3d254c40	0.04035592
53	0xbd8cfe4b	-0.0688444
54	0x3e075f55	0.1321996
55	0x3cf693a0	0.03009969
56	0x3d575e0e	0.052579932
57	0xbdc78c99	-0.09743614
58	0xbe156860	-0.14590597
59	0xbe212a49	-0.15738787
60	0x3d8dd3c0	0.06925154
61	0xbd534db3	-0.05158777
62	0xbdb816d4	-0.08988729
63	0xbdee6546	-0.1164041
64	0xbdea94dc	-0.11454174
65	0xbe06952c	-0.13142842
66	0x3dd74e04	0.10512927
67	0x3e16e0bc	0.14734167
68	0xbe695bca	-0.22788921
69	0xbb49b880	-0.0030780137
70	0x3d8fe0e8	0.07025319
71	0x3e4ebd00	0.20189285
72	0x3e3736aa	0.17891946
73	0xbda23810	-0.07920849
74	0x3aaa0000	0.0012969971
75	0xbd42a710	-0.047522604
76	0xbe48b7d6	-0.19601378
77	0x3df64b84	0.12026122
78	0x3d81d32c	0.06339106
79	0xbdf51518	-0.11966914
80	0x3dbd3923	0.092394136
81	0xbd9fac58	-0.07796544
82	0xbd256757	-0.040381756
83	0xbdd55fae	-0.1041864
84	0x3d43af88	0.04777482
85	0xbd070cd8	-0.032971233
86	0x3d953eeb	0.07287391
87	0xbce64aa0	-0.028111756
88	0x3c523e66	0.01283226
89	0x3c6c0d34	0.014407445
90	0x3d381162	0.044938453
91	0x3d82be21	0.063839205
92	0xbe2680fe	-0.16260144
93	0xbe20dcf9	-0.15709294
94	0x3db6d178	0.08926672
95	0x3e7059be	0.23471734
96	0xbe1316a0	-0.143641
97	0x3e5253b0	0.20539737
98	0xbe520436	-0.20509419
99	0xbdeaf044	-0.11471608
100	0xba92ee00	-0.0011209846
101	0xbe47faca	-0.19529262
102	0xbd6e01d8	-0.058107227
103	0xbe51f4b4	-0.20503503
104	0x3dc0f848	0.09422356
105	0xbe406104	-0.18787009
106	0x3ca67730	0.020320505
107	0x3d5b49f8	0.05353734
108	0xbd925f1c	-0.07147047
109	0x3e7f2220	0.24915361
110	0x3e7d298a	0.24722877
111	0x3e57b89c	0.21066517
112	0x3e7c22af	0.24622606
113	0x3c140500	0.009034395
114	0x3d519708	0.051169425
115	0xbcda33d2	-0.026636038
116	0x3da1d3d0	0.07901728
117	0x3e53b82c	0.20675725
118	0xbe6c5a78	-0.23081386
119	0xbc14e2a0	-0.009087235
120	0x3e799214	0.2437213
121	0xbd75e7b8	-0.060035437
122	0xbdbb794f	-0.09153997
123	0x3e58fc5d	0.21190019
124	0x3b31b700	0.0027117133
125	0xbe68dcee	-0.22740528
126	0x3d2199d8	0.039453357
127	0xbde387b8	-0.11109871
128	0xbe0401c6	-0.12891302
129	0xbdfc8e3c	-0.123318166
130	0xbcf48690	-0.02984932
131	0xbd76e5e0	-0.06027782
132	0x3e2d4418	0.16920507
133	0x3e2b49c6	0.16727361
134	0xbd0f0fc0	-0.03492713
135	0xbdd1bdbc	-0.10241267
136	0x3e27b944	0.16379267
137	0x3dce8b78	0.10085195
138	0x3d916b5c	0.07100555
139	0xbe08002c	-0.13281316
140	0x3c937830	0.018001646
141	0xbc8bf580	-0.017084837
142	0x3e4d6c32	0.20060804
143	0x3d7523e0	0.059848666
144	0x3c542560	0.012948364
145	0xbe7da60e	-0.24770376
146	0xbdc3b15c	-0.09555313
147	0x3dc40824	0.09571865
148	0xbde21e60	-0.1104095
149	0xbe183b2e	-0.14866325
150	0xbe719870	-0.23593307
151	0xbe50a400	-0.20375061
152	0x3d6335a8	0.055471092
153	0x3da1de3c	0.07903716
154	0xbde7381c	-0.11289999
155	0xbe453da6	-0.19261798
156	0x3e534518	0.20631826
157	0x3e3919ca	0.18076244
158	0x3e4aa07e	0.19787785
159	0xbe032b66	-0.12809524
160	0xbcdb7190	-0.02678755
161	0x3aa65600	0.0012690425
162	0xbe420694	-0.18947822
163	0xbd547610	-0.051870406
164	0xbe1af2de	-0.15131709
165	0x3e586678	0.21132839
166	0xbd13fd28	-0.0361301
167	0xbe7fe30c	-0.24988955
168	0xbdcf03b4	-0.10108128
169	0x3e0f0780	0.13967705
170	0xbdb6bf04	-0.08923152
171	0x3e330696	0.17482981
172	0xbdf0fc98	-0.117669284
173	0xbdbf7504	-0.09348491
174	0xbe061b2c	-0.13096303
175	0xbd0d43a0	-0.03448832
176	0x3e147749	0.14498629
177	0x3df2151c	0.118204325
178	0x3e3c2116	0.18371996
179	0x3de8efff	0.113739006
180	0xbdefb02c	-0.11703524
181	0xbe76a9b8	-0.2408818
182	0xbe6527bf	-0.22378443
183	0xbd6e8448	-0.058231622
184	0xbcae46c8	-0.021273986
185	0xbdd45770	-0.1036824
186	0xbe21bac1	-0.15793897
187	0xbe3e407e	-0.1857929
188	0x3dfd628c	0.12372312
189	0xbd6389e6	-0.055551432
190	0xbe01b17c	-0.12665361
191	0x3c18596c	0.009298664
192	0xbe5ce25f	-0.21570729
193	0x3e29b15f	0.16571568
194	0x3e34d825	0.17660578
195	0x3c4d4470	0.012528524
196	0x3e629b34	0.22129518
197	0xbe52d34c	-0.20588416
198	0xb9aa7926	-0.0003251519
199	0x3e6ad8f2	0.2293432
200	0xbe4da47e	-0.2008228
201	0xbdffad06	-0.124841735
202	0xbe313d52	-0.17308548
203	0xbdfd0a5f	-0.12355494
204	0x3e73e640	0.23818302
205	0xbd3b4f82	-0.04573012
206	0xbc2250c0	-0.009906948
207	0xbdcf3001	-0.10116578
208	0xbe09f50d	-0.13472386
209	0x3d82e70b	0.06391724
210	0xbe3496b8	-0.1763562
211	0x3c870c98	0.016485497
212	0x3e16058c	0.14650553
213	0xbdcffb5e	-0.10155366
214	0x3c726690	0.014794961
215	0x3e10ceb2	0.14141348
216	0x3e567a0e	0.20944998
217	0xbd4f48d0	-0.05060655
218	0x3e30c00e	0.17260763
219	0x3e3ae392	0.18250874
220	0xbe6e6b10	-0.23283029
221	0xbe53b525	-0.2067457
222	0x3de82fac	0.11337218
223	0x3e1169f9	0.14200582
224	0x3e255323	0.16144995
225	0x3de1fedd	0.110349394
226	0xbdd4f186	-0.103976294
227	0xbdab8602	-0.08375169
228	0x3d20b158	0.03923163
229	0x3e3d03b8	0.1845845
230	0xbccdbeee	-0.025115456
231	0xbe561140	-0.20905018
232	0xbe10f69e	-0.14156577
233	0xbe268bdc	-0.1626429
234	0xbdc9269a	-0.09821816
235	0x3e51713d	0.20453353
236	0x3d4cfe50	0.05004722
237	0x3dceaf4d	0.1009203
238	0xbe0efa94	-0.13962775
239	0x3e623c87	0.22093402
240	0x3e401df4	0.18761426
241	0x3e7fdd04	0.24986655
242	0x3d128ac7	0.03577688
243	0x3cbdd19a	0.023171235
244	0x3e04c0b6	0.12964138
245	0xbda1aced	-0.07894311
246	0xbe06be45	-0.1315852
247	0x3dd22af4	0.10262099
248	0xbe500198	-0.20313108
249	0x3e1e7247	0.15473281
250	0x3bece89b	0.007229877
251	0x3cfe51d8	0.031044886
252	0x3cae3dc0	0.02126968
253	0x3dca2d54	0.09871927
254	0xbcab76a0	-0.020930588
255	0x3acf0ed8	0.001579727

decoder.fc3.bias f4 [84]
0	0xbc04671e	-0.008081226
1	0x3e6ba527	0.2301222
2	0x3e433250	0.19062161
3	0x3e0a8934	0.13528901
4	0xbd15ba48	-0.036554605
5	0x3e1baeda	0.1520342
6	0xbdcaf420	-0.099098444
7	0xbe545979	-0.20737256
8	0xbe1ecec6	-0.15508565
9	0xbe5648cc	-0.20926207
10	0xbe1b4a9c	-0.1516518
11	0x3d9e9f8e	0.077452764
12	0x3e295716	0.16537127
13	0xbc8e7206	-0.017388355
14	0x3e1d5ffc	0.15368646
15	0x3c8daf87	0.017295612
16	0xbe421cd2	-0.18956307
17	0x3e2b1ade	0.16709468
18	0xbe2f377a	-0.17111006
19	0xbc077680	-0.008267999
20	0x3e2a6e6e	0.16643688
21	0x3e22723d	0.15863891
22	0xbdb07210	-0.08615506
23	0xbd9b5f1d	-0.07586501
24	0xbd931cc8	-0.07183224
25	0x3e0f1df9	0.13976277
26	0xbd5e3d90	-0.05425793
27	0xbe1a3396	-0.15058741
28	0xbb864100	-0.004097104
29	0x3e5b1a94	0.21396858
30	0x3dee7509	0.116434164
31	0xbc019173	-0.007908213
32	0xbc3d3380	-0.011547923
33	0x3e176101	0.14783098
34	0xbe587218	-0.21137273
35	0xbe5b23c4	-0.21400362
36	0x3c199af8	0.009375326
37	0xbd3536f8	-0.044241875
38	0xbd8f73cf	-0.070045106
39	0xbdd5c160	-0.10437274
40	0x3daf9f86	0.085753486
41	0x3e4611ab	0.19342677
42	0xbdc069c6	-0.09395175
43	0xbd2a1de8	-0.041532427
44	0xbdddcca8	-0.10830051
45	0xbe69ab0e	-0.22819158
46	0xbcb9848c	-0.022646211
47	0xbd302e98	-0.043013185
48	0x3dad1b6f	0.08452498
49	0xbe357bcc	-0.17723006
50	0x3dfa4714	0.12220588
51	0xbe677218	-0.22602117
52	0xbd3f3198	-0.046678156
53	0xbe25a474	-0.16176015
54	0x3ce6d977	0.028179867
55	0xbcb95273	-0.022622323
56	0xbdb703bc	-0.08936259
57	0x3e5b1bdc	0.21397346
58	0xbe678210	-0.22608209
59	0xbdc6d747	-0.0970903
60	0x3e1d2ddf	0.1534953
61	0xbdb70058	-0.089356124
62	0x3e380e68	0.17974246
63	0xbe6c8448	-0.23097336
64	0xbe389ff6	-0.1802977
65	0x3e1485ce	0.14504167
66	0xbdc5b09c	-0.09652826
67	0xbe1dd9b6	-0.15415081
68	0xbe48ee00	-0.1962204
69	0xbe2cac78	-0.16862667
70	0x3e4f3957	0.20236717
71	0xbd610840	-0.05493951
72	0xbe1bcd7e	-0.15215108
73	0x3e7d0d3b	0.24712078
74	0xbd5da7aa	-0.054114975
75	0x3dd9f69c	0.1064274
76	0x3e3cf4a5	0.184527
77	0xbe58032e	-0.21094963
78	0x3e720363	0.23634104
79	0xbda62934	-0.081133276
80	0xbe4e6232	-0.20154646
81	0x3e74723f	0.23871706
82	0x3e1fa31d	0.15589567
83	0x3e7c76e4	0.24654728
