tutorials/W1D2_ComparingTasks/RR/models/ConvNet_classification_1000_epoch_2.pth (torch, 251136 bytes, 10 tensors)

ConvNet.conv1.weight f4 [6, 1, 5, 5]
000000 be 49 3f be 01 b1 65 3d 2a 79 dd 3d 93 54 56 be
       -0.18680474 0.056077007 0.10814126 -0.209307
000010 50 63 1b be 45 0c 73 3d e0 da 32 be f4 f9 4a 3e
       -0.15174603 0.059337873 -0.17466307 0.19821912
000020 80 13 d2 bd 47 47 28 3e f8 7d d5 3d 65 37 ee 3d
       -0.102576256 0.1643344 0.10424417 0.116316594
000030 2d e0 a8 bd 6b f7 df bc b1 1b 18 be a6 6c d7 3d
       -0.08245883 -0.027339658 -0.14854313 0.1051877
000040 cf 95 cc bc d9 51 3f 3e 0a db 03 bd 78 c6 35 3e
       -0.024973778 0.18683566 -0.032191314 0.17751491
000050 b4 c3 fb 3d 1f 93 77 3d 6a 8c c4 3d 37 a2 04 3e
       0.12293187 0.06044304 0.09597094 0.12952505
000060 3c 07 80 3d 33 86 68 be f7 dd ba bd d3 2d 9e bb
       0.0625138 -0.22707443 -0.09124368 -0.00482724
000070 9c 34 4e 3e 0a f9 cb 3d 48 bc 5c be 66 57 46 be
       0.20137256 0.0995961 -0.21556199 -0.19369277
000080 0d 9a 64 3d 88 09 5a 3e 61 e5 d9 3d 9b 65 b6 3d
       0.055810977 0.21292698 0.10639454 0.089060985
000090 a5 84 d3 bd 96 4d 19 be 89 8e 71 3e 61 6d ba bd
       -0.10328034 -0.14971003 0.23589529 -0.091028936
0000a0 a3 28 f0 bd 6d f2 1b 3e b3 25 77 bd 3e 43 f8 3d
       -0.11726501 0.15229197 -0.060338687 0.121222004
0000b0 07 10 32 3e cf 95 f8 3d 87 23 00 3e e4 22 60 3e
       0.17388926 0.12137949 0.12513553 0.2188831
0000c0 7d 6a ee 3d c8 45 6c 3e d9 65 92 3d a2 ce 60 bd
       0.11641405 0.23073494 0.07148332 -0.05488456
0000d0 ce 86 91 3d b2 c4 0e 3e e2 5e 17 3c 53 ee 64 3e
       0.0710579 0.13942221 0.00923893 0.22356538
0000e0 24 f8 aa bd e1 cd be 3c 54 16 32 bc 28 62 db bd
       -0.0834811 0.02329153 -0.010869581 -0.10712081
0000f0 31 6c a2 3c b0 15 77 3e 7c fe 18 3e 7f fa 3c 3e
       0.01982698 0.24129367 0.14940828 0.18454932
000100 f6 60 49 3e 4b 88 3f 3e 6e 76 c5 bd a8 bd 5b 38
       0.19665894 0.18704335 -0.09641729 5.23903e-05
000110 0f f3 5a 3d 51 a0 82 3e 65 27 03 bd 54 7e 36 3e
       0.053454455 0.25512937 -0.03201999 0.17821628
000120 71 c8 a0 bd 23 10 6b 3e 1f 0f 95 3b d8 cb ca 3d
       -0.07850731 0.22955374 0.0045489217 0.09902161
000130 45 78 62 bd 53 30 d9 bc d0 36 3d bb 35 a7 20 3e
       -0.05529048 -0.0265123 -0.0028871782 0.15688784
000140 0c 0c 52 3c ac d1 e8 3d 03 e5 15 3e 5f f7 67 3e
       0.012820255 0.11368117 0.14638142 0.22652958
000150 cf ae c2 3c 0e b3 6e 3d 04 25 13 3e 36 f6 30 3d
       0.023764996 0.05827623 0.14369589 0.043203555
000160 b8 39 36 3e 4c c1 47 3d 8a 08 82 bd 0c 7e 73 3d
       0.17795455 0.048768327 -0.06349285 0.05944638
000170 e4 78 79 3e d3 4b 29 3e a1 0f 6a bd a1 95 0e 3e
       0.24362522 0.16532831 -0.05714381 0.13924266
000180 56 fb 53 3b c1 69 b8 bd ca 07 43 3e 84 c7 18 3e
       0.0032345853 -0.09004546 0.1904594 0.14919859
000190 49 74 82 be 69 8e a0 bd 08 49 4a 3e 20 f9 1a be
       -0.25479344 -0.078396626 0.19754422 -0.15134096
0001a0 c4 e8 32 3e 86 fa 2b 3d ad 4f 20 3e 56 26 11 be
       0.17471606 0.041986965 0.15655394 -0.1417478
0001b0 2e a0 1a 3c cf 12 b5 3d e9 b7 08 be 17 cd 44 3e
       0.009437604 0.08841478 -0.13351406 0.1921886
0001c0 cc 6d 6d 3e c8 93 73 bb 26 4e f9 3c 37 50 84 bd
       0.23186415 -0.0037166942 0.030432772 -0.06460612
0001d0 ff cf ab 3d 9e fd 6c 3d 94 83 8b bd f7 4e 02 be
       0.083892815 0.057859056 -0.06812206 -0.12725435
0001e0 cc 6f 65 3e 35 71 e4 3d 50 b9 d7 3d 7b af 6b 3e
       0.22405928 0.11154405 0.105333924 0.23016159
0001f0 5a 9a 3f 3e cd 59 71 be 6a 52 24 be 02 cb 70 bd
       0.18711224 -0.23569413 -0.16047063 -0.058787353
000200 75 49 35 3e 2d 82 ba 3d 3b 86 eb bd 45 5b 23 be
       0.17703803 0.0910686 -0.11500212 -0.15952785
000210 dd 03 0a 3e 73 0b 06 be f5 0d e4 bd f1 b0 83 bd
       0.13478036 -0.13090305 -0.111354746 -0.06430233
000220 b4 6a e5 bd 82 95 8d bd 52 60 3d be 1f 00 08 bd
       -0.11201993 -0.06913282 -0.18493775 -0.03320324
000230 ac fd 04 be ec 9f be bd 95 29 20 be 5b dd ec 3d
       -0.12987393 -0.093078464 -0.15640862 0.11565658
000240 3d 66 3a bd 24 fc 06 3e 85 73 d6 bd 57 d9 04 3e
       -0.04550766 0.13182122 -0.10471252 0.12973534
000250 d1 0c 1c be 93 b3 4e 3e
       -0.15239264 0.2018569

ConvNet.conv1.bias f4 [6]
000000 14 8b fc bd 0c e5 ab bd a5 e1 88 bd 84 8b 1e 3e
       -0.123312145 -0.083932966 -0.06683663 0.15482908
000010 69 4c be 3d 84 08 19 bd
       0.09291918 -0.037361637

ConvNet.conv2.weight f4 [16, 6, 5, 5]
000000 17 71 c0 3d 33 b5 ba 3d fa 69 81 bd 1a c2 95 3d
       0.0939657 0.09116592 -0.063190416 0.073124126
000010 1b 06 1b 3d 9e c4 a7 3c 43 a4 9d 3b 18 1a a4 bd
       0.03784762 0.020479497 0.0048108413 -0.080127895
000020 d7 a2 8d 3c 62 7c a7 3d e0 c7 9d bd 82 71 2c 3d
       0.017289562 0.08178021 -0.07704139 0.042100437
000030 2c d6 3e bc 13 7c 0e 3d fd 3d 2b 3d 4b 12 9a bd
       -0.011647742 0.034786295 0.041807164 -0.0752302
000040 6b a4 a5 3c f0 4e 3c bd 4e 5a 02 3c 99 9e 0e 3b
       0.020220002 -0.04597372 0.007956101 0.0021762012
000050 68 bd ab 3c af f2 80 bd bf 37 28 bd 58 3f 90 bd
       0.02096434 -0.06296288 -0.04106879 -0.07043332
000060 49 1d 1e 3c 69 f0 aa bd 87 ad 43 3d a1 d9 49 3b
       0.009650537 -0.08346636 0.04777291 0.0030799883
000070 52 bc de 3b 60 e7 26 bd 8d 3a 0b 3a 67 ba 8e bd
       0.006797352 -0.040748 0.0005311154 -0.06969147
000080 43 f0 a2 3d c1 f2 97 3d 8e 77 01 3d 75 de 44 3c
       0.079559825 0.074193485 0.031608157 0.0120159285
000090 5c 46 7d bc 32 ef 7f 3d 2f 1b fb 3c 46 2a 96 bc
       -0.0154586695 0.062483974 0.03065261 -0.018330704
0000a0 11 c5 7e bc f0 8e 88 bd 21 43 16 bd 8d 13 fb bc
       -0.015549914 -0.06667888 -0.036685113 -0.030648971
0000b0 c0 f2 13 3c 3d b8 62 3b 4f e8 ac 3c 2d b9 8d 3d
       0.009030044 0.0034594678 0.021106867 0.06920085
0000c0 26 a0 cb 3d 5b 58 8a 3d 9c a5 86 bc 39 5e bc 3d
       0.09942655 0.06755134 -0.01643639 0.09197659
0000d0 87 7f 82 3d 45 2c 0b 3d 09 7b f0 3c 52 67 90 bd
       0.0637198 0.033977766 0.029355543 -0.07050957
0000e0 3a c0 39 3c 40 05 20 bd a3 b6 03 bd 99 57 8d 3d
       0.011337334 -0.039067507 -0.032156598 0.069014736
0000f0 e3 a8 59 3d 4f 4e 6a bd 61 ae 14 3d 8c d9 86 3d
       0.05313958 -0.057203587 0.036299113 0.065844625
000100 0c 4e cb 3d 4e 81 99 bd f9 16 8d bd 5b 1b ae 3d
       0.09926996 -0.07495366 -0.06889147 0.085013114
000110 97 c0 d9 3b d5 e8 89 3d 5e c5 cf bd 66 8d e4 bc
       0.006645273 0.06733862 -0.10145067 -0.027899455
000120 7e 55 72 3d 5a 1c a8 bc a4 fb 27 bd a6 3d 8a 3d
       0.059163563 -0.020521332 -0.041011468 0.0675004
000130 54 46 fb bc 4c ca 66 3d 24 1b da 3d 99 28 59 3a
       -0.030673184 0.05634527 0.10649708 0.00082839426
000140 2d b9 66 3d 2c 8e 70 3d 24 f2 b6 bb 05 0c 14 bd
       0.05632894 0.058729336 -0.0055830646 -0.036144275
000150 3b d3 a5 3d ba c4 7a 3d 27 39 a5 bd 11 1d 66 bd
       0.0809693 0.06122277 -0.080675416 -0.056180064
000160 5a ec d7 3c 57 75 09 3d 14 92 0d 3d e2 47 7d bd
       0.026357818 0.03355917 0.03456314 -0.06183613
000170 18 10 2b 3c 48 32 21 3d 5d a0 48 bd ed 72 9c bd
       0.010440849 0.039354593 -0.04898106 -0.07639108
000180 f0 fd 3f 3d e4 36 c7 3a d7 9c 6f 3d 7c fa 80 bb
       0.046873033 0.0015198854 0.058499184 -0.00393611
000190 17 65 3d bd 26 b7 38 3c e4 fc 36 bc 8c 0b 9b 3d
       -0.046238985 0.011274135 -0.011168692 0.07570562
0001a0 59 0d 03 bd 9a 7b 94 bd 8a 2b f1 bc 7c 0e 8c bd
       -0.03199515 -0.072501376 -0.029439706 -0.068387
0001b0 b8 a5 c1 3d 61 79 d3 3d 50 9b a1 bd 64 3b 78 bc
       0.094554365 0.103258856 -0.07890952 -0.015150879
0001c0 a5 2c 3b 3d 0b 2e a7 39 32 05 13 bc d1 d0 95 bd
       0.045696873 0.00031887027 -0.008973407 -0.07315219
0001d0 10 42 a6 bd a7 88 3b 3d 54 64 27 3d 8b cb 0c 3d
       -0.08118069 0.04578462 0.040867165 0.0343738
0001e0 69 ac b0 3b 8c 21 35 bd e5 84 1f 3c ac 02 5e 3d
       0.0053916466 -0.044221446 0.009736274 0.054201767
0001f0 ee 00 78 3d 14 5c 8f 3d b5 92 30 3d 26 c6 31 bc
       0.06054776 0.069999844 0.04310866 -0.010850465
000200 af cc 5b 3b 9d 9e de bc 38 12 c6 bc 6f 2e f2 bc
       0.003353875 -0.027175242 -0.02417861 -0.029563157
000210 f2 33 1b 3b a2 24 9b bd 5e 7c 9c bd fd 5e 92 3d
       0.0023682085 -0.075753465 -0.07640909 0.07147024
000220 a7 b0 0e 3d 20 e2 1f bd 26 60 78 bc 96 74 9e bd
       0.034836438 -0.03903401 -0.015159642 -0.07737081
000230 7c f3 54 bd 34 29 3b bd 14 c7 eb 3c 2d 14 51 3d
       -0.051990017 -0.04569359 0.028781451 0.05104463
000240 26 0c a3 bc c3 a7 9f 3d e6 d3 90 3d 06 38 fb 3c
       -0.019903254 0.0779567 0.070716664 0.030666362
000250 f0 14 4f 3d dd c6 9d bd e3 40 0b 3e dd d0 77 3d
       0.050557077 -0.07703946 0.13598971 0.060501922
000260 22 39 ae 3d 55 24 ca 3c 48 78 4b bc 99 9b be bb
       0.08506991 0.024675528 -0.012418814 -0.0058168885
000270 61 39 0f 3b ea 2a 13 bd db 94 f4 bc 26 6c 49 bd
       0.002185427 -0.035929598 -0.029856136 -0.049175404
000280 68 b4 34 3d 1d 7e d9 3c 14 2a a2 bd ff 0b ef bc
       0.04411736 0.026549393 -0.07918182 -0.029180525
000290 dc 5f 80 3d 4c c7 3c 3d 40 58 83 3d 31 00 be bd
       0.06268284 0.0460885 0.06413317 -0.0927738
0002a0 61 38 29 3d f2 7b 50 bc b8 78 5b 3b f1 87 09 3d
       0.041313533 -0.012724863 0.0033488702 0.03357691
0002b0 63 3a 72 3d e3 59 84 3d b7 e0 f4 bc 0c 8c 48 3d
       0.059137713 0.06462457 -0.029892309 0.048961684
0002c0 fc 8d 39 3d 73 01 b1 3d 52 a7 b0 3c 8b 3a 16 3c
       0.045301422 0.086428545 0.02156416 0.009169231
0002d0 9f 1c f6 3c 52 b5 92 bd 61 f8 a4 bd 31 53 8a bc
       0.030042944 -0.0716349 -0.08055187 -0.016885372
0002e0 6f e8 52 3a 08 c6 c6 bd ed aa 41 bd 4a b9 89 bd
       0.00080454996 -0.0970574 -0.04728215 -0.06724794
0002f0 ae c9 be bb 8f 84 1c bd b6 90 10 bd 41 ae 90 bd
       -0.005822382 -0.038212355 -0.035294257 -0.07064486
000300 c3 cd 72 3a 08 f3 5d bd bc d4 bf bc ee 6a e7 39
       0.0009262228 -0.05418685 -0.02341687 0.00044139422
000310 7b ec f5 bc cd eb 98 3d 00 81 61 3d 0c c4 9a 3d
       -0.03001999 0.074668504 0.055054665 0.07556924
000320 60 e5 b7 3d 54 0b c2 3d 1f 61 ab 3c 13 a0 d3 bc
       0.08979297 0.09474817 0.020920334 -0.025833165
000330 af a6 ad 3c d5 2e e8 3d e2 a0 be 3d 1f 93 6d bc
       0.021197645 0.113370575 0.0930803 -0.014500408
000340 41 e9 86 3c ae 45 68 3d 6f 24 44 3c cf 41 c7 3c
       0.016468646 0.056707077 0.011971577 0.024323372
000350 53 68 21 3d d6 68 92 3d a0 f8 af bc 05 ca cb bc
       0.039406132 0.07148902 -0.021480858 -0.024876604
000360 45 66 31 3d 27 32 99 bd 29 d8 8e bd 4f c0 3f 3d
       0.043310422 -0.07480269 -0.06974823 0.04681426
000370 ba fd 80 3d a9 13 a2 3b b2 cb c2 bc 93 06 63 bd
       0.062983945 0.0049461913 -0.02377877 -0.05542619
000380 e2 71 92 bd 66 d5 fd 3c a0 22 3e bb ab 57 be 3c
       -0.07150628 0.030985545 -0.0029012337 0.023235163
000390 dc a2 27 3c 5d 90 ca 3d 1d fe bf 3d 68 53 60 3c
       0.0102317 0.09890816 0.0937464 0.013691761
0003a0 9a e5 8f 3d bf 74 22 3c a0 6a d9 3c ce 4c c3 bc
       0.07026215 0.00991553 0.0265401 -0.023840334
0003b0 ce 78 1f bc 71 13 60 3d 5c 51 77 3d 80 db 2b 3d
       -0.009733392 0.05470604 0.060380325 0.04195738
0003c0 87 c4 a1 bd a7 ee 6c 3d 83 37 c3 bc 7b 52 14 bc
       -0.07898813 0.057844784 -0.023830181 -0.009052868
0003d0 52 eb f4 bc 3d 9f 03 3d 8e 84 7e bd bf 10 86 3c
       -0.029897366 0.032134283 -0.062138133 0.016365407
0003e0 64 69 36 3d 01 fe 02 3d ba 51 ed 3d 39 ca c6 3d
       0.044534102 0.03198052 0.11587854 0.0970654
0003f0 d1 e7 ae bc 5c fb 66 3d 69 65 87 3d 89 a6 84 bc
       -0.021350773 0.05639206 0.06611139 -0.016192691

ConvNet.conv2.bias f4 [16]
000000 14 4e 97 3d 52 ef 5e bd 79 61 09 bd d4 9b e3 bb
       0.07387939 -0.054427452 -0.033540223 -0.0069460664
000010 aa 36 83 3d 7d e8 87 3d 7d 1d 9f bd 3e c2 bb 3c
       0.06406911 0.066361405 -0.07769296 0.02291977
000020 12 94 4c bd 41 af 91 3d 3a 31 84 3d 4c 0e 3d bd
       -0.0499459 0.07113505 0.06454702 -0.046156213
000030 95 7d 4c 3d ad 9c 43 3c 80 50 6a 3c 91 3d d9 3d
       0.04992445 0.01193921 0.014301419 0.10607446

ConvNet.fc1.weight f4 [120, 400]
000000 29 2e a1 ba f0 7b 65 3d 01 47 23 3d 8a 04 85 3c
       -0.0012297082 0.0560264 0.039862636 0.016237516
000010 17 de 4c bd 07 c2 ea 3c c7 0a 46 3c 7d ed 0d bc
       -0.05001649 0.028656973 0.01208753 -0.008662579
000020 87 a4 0a 3d e7 1a 91 3c 8e 71 4b bc 51 8b 89 3c
       0.03384831 0.017713023 -0.01241721 0.016790064
000030 c6 c2 ce bc 79 04 57 3b fd 95 5a 3b 06 59 1a bd
       -0.02523936 0.0032809062 0.003335356 -0.037682556
000040 d5 ad 1d bd 98 32 ce 3b 32 5a a1 bc ce 90 0b 3d
       -0.038495857 0.0062926523 -0.019696329 0.034073643
000050 4b ac 4a 3c a6 5f 3c ba 4b 97 30 bc 2f 32 a0 3b
       0.012370179 -0.00071858836 -0.010778259 0.004888795
000060 ad a7 ab bc 35 36 05 3d 67 c8 07 3d 7d d0 76 3c
       -0.020953977 0.0325224 0.033150103 0.015064356
000070 b7 fb 01 bc b4 e2 00 3d 71 52 8e 3b 38 35 a0 bd
       -0.007933549 0.0314662 0.004343324 -0.07822651
000080 d6 7b 9f 3b b2 95 1b 3d 9c 14 e7 3c 3c cf ea 3c
       0.0048670573 0.037984557 0.02820807 0.02866327
000090 ac cd 1e bd 17 a1 8a 3b 24 4a 87 3d 7e 7c b5 bc
       -0.038770363 0.004230629 0.06605938 -0.022154089
0000a0 d9 4b 02 3c 62 2e a0 bc c6 6d 4e 3d ca 97 fe 39
       0.007952654 -0.019553367 0.050397657 0.00048559747
0000b0 05 1c 80 bc 1f 25 80 3d 5a 36 20 bd ac 42 89 bc
       -0.01563836 0.0625708 -0.039114334 -0.016755424
0000c0 db 85 6c bd cd 8d ee 3c 1b 5b 06 bd b4 ce d5 3c
       -0.057744842 0.02912035 -0.03280173 0.02609954
0000d0 60 27 53 bd 3d c8 04 bd 5e ca 7c bd c0 34 2d bd
       -0.051551223 -0.032417525 -0.06171643 -0.042286634
0000e0 3c c4 5f bd a6 60 10 ba 4d 0d 17 3d b9 e5 18 bd
       -0.054630503 -0.0005507566 0.03687792 -0.037328456
0000f0 c5 31 47 3d 07 e1 c5 3c 9c fc 7e 3c 50 67 68 3c
       0.04863145 0.024155153 0.015563156 0.014184788
000100 98 0a c9 3c 49 c7 68 3c 2b f0 ef 3c 01 bd 88 bd
       0.024541184 0.0142076695 0.029289326 -0.06676675
000110 d2 00 ea bc 28 d6 68 bc 30 6e 19 3d 6b 5e 18 bd
       -0.028564844 -0.014211215 0.0374586 -0.03719942
000120 ff 55 84 3d e2 6c 8d 3d 22 ad 5b 3d 06 c9 21 3d
       0.06461715 0.069055334 0.05363191 0.03949835
000130 a5 da f9 3c cf 8c 55 3d eb 23 a2 3c c2 c9 89 bb
       0.030499766 0.05213624 0.019792518 -0.0042049596
000140 1c df 58 bc ce 4b 67 3d a7 09 bb 3c 89 28 19 bd
       -0.013236787 0.056468777 0.022831751 -0.037392173
000150 c0 b1 3a bb f0 d4 2a bd b5 0b 82 3c 1c e7 18 3d
       -0.0028487295 -0.04170698 0.015874723 0.037329778
000160 92 6f 9c 3c df 89 26 bd 87 a9 05 bc de 3b 37 bd
       0.01909617 -0.040658828 -0.008158094 -0.04473483
000170 76 13 0a bd 09 bb 42 3d 05 b5 3e 3d 72 4a 81 3d
       -0.033709966 0.047541652 0.046559352 0.063130274
000180 d4 58 c5 bb c9 4f fe 3c f0 f5 09 3d e4 f8 2e bd
       -0.006022552 0.031043904 0.03368181 -0.04271783
000190 35 3a f1 3c f8 0a bf bc c2 11 d0 3b 93 86 15 bd
       0.0294467 -0.02332066 0.006349773 -0.036505293
0001a0 1d f1 1d bd 18 fe 8d 3c cb 81 b4 3c 4a 3c de bc
       -0.03856002 0.017333075 0.022034546 -0.027128357
0001b0 a1 f7 24 bb 0d fa 52 bd 82 42 f4 3c dd 69 19 3b
       -0.0025172012 -0.051508 0.02981687 0.0023409047
0001c0 de cc 22 3d 69 5a 76 bd ac 4e e0 bc 94 a7 76 3d
       0.039746158 -0.060144816 -0.027381264 0.06021841
0001d0 62 5e c9 bc 46 09 77 bd ee 0e 1d bd 64 42 4f 3d
       -0.024581138 -0.06031158 -0.038344316 0.050600424
0001e0 93 a3 5f 3d e6 d9 3a 3d 66 08 82 bc 12 bd 1a bc
       0.054599356 0.04561796 -0.015873145 -0.009444492
0001f0 09 30 73 3d 18 d0 ac bc d3 b6 61 3c 8a 4a 19 bd
       0.05937198 -0.02109532 0.013776499 -0.0374246
000200 69 ba d2 3b a4 fc a5 3c 36 40 19 3d 55 08 3f bd
       0.006430913 0.02026207 0.037414752 -0.046638805
000210 99 99 32 bd 90 d3 8e 3d d7 2c 31 3d d7 42 39 3d
       -0.043603513 0.06973946 0.043255653 0.04522976
000220 9b 5f 39 3c 48 e2 0b 3b 5f f4 53 3c 24 73 ae bc
       0.011314298 0.002134459 0.012936681 -0.021295138
000230 3d 9c 65 3c 0e 84 0c 3d af f6 a6 bc 23 d9 69 bd
       0.014014301 0.034305625 -0.0203813 -0.057091843
000240 7c be 08 bc 00 ed f6 3c 75 c0 f7 3c 6b 66 2e bc
       -0.008346196 0.030142307 0.030243138 -0.0106445355
000250 d4 77 74 bd 0e 32 e4 bc 1f 90 ab 3c 14 7b 21 3d
       -0.05968459 -0.0278559 0.020942746 0.039424017
000260 f3 ff 2b 3c 53 46 47 bc ce 83 06 3a da f6 52 3d
       0.010498035 -0.012162763 0.0005131335 0.051504947
000270 72 d5 dd 3b 11 97 c0 bc 6b 66 6d 3c 86 ac 2c 3d
       0.0067698294 -0.023509534 0.01448975 0.04215672
000280 b0 e4 05 3a a5 ba b5 bb a9 df 20 3d 77 60 f9 bc
       0.00051076245 -0.0055459314 0.0392758 -0.030441506
000290 be 4f 45 bc 20 ed 4a 3c cc 23 39 bd d2 bf 75 3d
       -0.012042938 0.012385637 -0.045200154 0.059997387
0002a0 62 a1 c0 bc fb a3 84 bd 89 4d 11 3d f0 ae 97 bc
       -0.023514453 -0.06476589 0.035474334 -0.018516034
0002b0 4c ee 08 3d d5 7c f0 3c e2 e1 86 3c eb e8 d1 3c
       0.033430383 0.0293564 0.016465131 0.02562376
0002c0 a2 42 69 3d f7 b0 7b bc 65 6f 48 bc 4f e5 ad 3c
       0.05694831 -0.015362016 -0.01223359 0.021227507
0002d0 04 16 97 3c b6 02 36 bd 34 57 1d 3d 58 2a 48 bb
       0.018443115 -0.04443618 0.03841324 -0.0030542817
0002e0 79 91 12 bd 9b ca c5 3c ae 46 6f bc 8c d1 db bb
       -0.035783265 0.024144461 -0.014604254 -0.0067083295
0002f0 39 32 06 bd 22 b2 36 bd dc 26 64 bc e7 4e 5f 3d
       -0.03276274 -0.044603474 -0.01392528 0.054518607
000300 2b 78 2b bd c3 ec 14 3d dd e5 0b bc 1c 3b 18 bd
       -0.041862648 0.036358606 -0.00853869 -0.037165746
000310 9c af 0b bd 72 53 a8 3b fd cc 96 3d 6e 07 92 3d
       -0.03410302 0.0051369006 0.07363317 0.07130323
000320 2b bf 0f 3d d7 2d 94 bc c0 9c e2 bc e9 3f 81 3c
       0.03509442 -0.018088264 -0.027662635 0.015777545
000330 2e 62 38 3d 26 42 75 bd 2d f3 86 3b 66 7f ed 3a
       0.045015506 -0.059877537 0.0041183443 0.0018119633
000340 c3 37 04 3d 45 1f 29 bd 8f a2 83 3c 6b a1 9c 3c
       0.03227974 -0.041289587 0.016068725 0.019119939
000350 80 14 8c 3d 8f 5b 97 3b e8 db 82 bc 73 f5 06 bd
       0.068398476 0.004619069 -0.015974 -0.032948922
000360 a0 cc fd 3b a1 35 73 bd 69 dc 10 bd 4f 65 3c 3d
       0.0077453405 -0.059377316 -0.03536645 0.045995053
000370 8d 00 0c 3d 1f a3 28 3d 2f 1e 2c 3d a0 68 b7 3b
       0.034180213 0.04117119 0.042020973 0.005597189
000380 60 6a 25 3d a4 dc b1 bd b0 c3 13 bc 4b f7 4c bd
       0.04038465 -0.08684662 -0.0090188235 -0.050040524
000390 0e 05 63 bc f5 1b c1 3c 32 e9 3e 3d 24 4d 5c 3a
       -0.013856186 0.023572901 0.04660911 0.0008403829
0003a0 43 88 6e 3c bb af fb bc 02 19 31 3d bd 16 62 bd
       0.0145588545 -0.030723443 0.04323674 -0.055197466
0003b0 17 ab 8c 3b 4f 88 44 3c 41 63 46 bb 88 6b 9d 3c
       0.0042928564 0.011995389 -0.0030271562 0.019216314
0003c0 56 d2 13 3d 3b f9 a8 3d 0e 80 8f 3d 4e 5d 7b bb
       0.036089264 0.08250662 0.07006846 -0.0038355174
0003d0 82 b8 52 3c f8 56 53 bc 99 6a 84 3d 04 65 6d bd
       0.012861373 -0.012899153 0.064656444 -0.057957664
0003e0 ef 59 87 bd fd 5d 64 3d ec c5 32 3d bc 66 6a 3d
       -0.0660895 0.055753697 0.043645784 0.05722688
0003f0 64 19 4e 3d ba 68 2f bb 4b 22 77 3d 1c 08 4f bd
       0.050317183 -0.0026765303 0.06033544 -0.050544843

ConvNet.fc1.bias f4 [120]
000000 bf 53 da 3c 63 76 0e 3d d4 4b 5d 3d 3c cc 1f 3d
       0.026651261 0.03478087 0.054027393 0.039013132
000010 c5 99 96 3b e8 86 de bc 34 5f 33 3c d2 42 09 bb
       0.0045959675 -0.027163938 0.010947991 -0.002094437
000020 a0 99 23 bd 0d f0 b2 3c 4a 03 85 ba f2 1a 06 bd
       -0.03994143 0.02184298 -0.0010148075 -0.03274054
000030 ca 5f 8f bc dc b7 53 3d 52 26 ad bc 6c ca a1 bc
       -0.01750173 0.051689014 -0.021136437 -0.019749843
000040 dc 7a 02 3d 85 49 a5 bc 5b f2 94 3c e7 c6 33 bc
       0.03185545 -0.020176658 0.01818197 -0.010972715
000050 27 9e 26 bc 78 86 15 bd ac 14 ff 3c 36 0c 81 3c
       -0.010169542 -0.036505193 0.031137787 0.015752893
000060 3d e4 f8 3c a5 96 39 bd 6e f1 6f bc 0c 31 2d 3b
       0.03038227 -0.04530968 -0.014644964 0.002642694
000070 0d d7 37 3c 17 e2 d7 3c 8b 2a 26 3d af 43 75 3c
       0.011220706 0.026352925 0.040567916 0.01496975
000080 7a 28 94 bc 01 3f 65 3c ad 6a 30 bd b4 c0 7d 3c
       -0.018085707 0.013992072 -0.043070484 0.015487839
000090 63 22 6a 3d f3 74 db ba 4b 81 a4 3c b7 87 27 3b
       0.0571617 -0.0016743228 0.020081183 0.002556307
0000a0 08 06 93 3d a4 d2 d4 3b fb 3b 5c bc aa 7a a6 3a
       0.07178885 0.006494837 -0.013442035 0.0012701352
0000b0 e3 8d 7e 3b 08 5a 11 3d 13 0a e7 3c de ba 1f 3d
       0.0038841895 0.03548625 0.028203046 0.03899657
0000c0 aa ad 23 3d 22 33 e0 bb 5e 3e 1f bd c1 81 17 bc
       0.03996054 -0.006842033 -0.038877837 -0.009247244
0000d0 5a ea 1b bd 51 d8 f8 3b f7 d8 0e 3d af 1f 95 bc
       -0.038065292 0.0075941463 0.034874883 -0.018203584
0000e0 cd 9a a7 bc 53 c9 13 3d 1a 8f 18 bd c3 e3 3b 3d
       -0.020459557 0.03608067 -0.037245847 0.045871507
0000f0 c6 3f 92 3c 97 66 58 bc b6 57 0d bd 0a a4 44 3d
       0.017852675 -0.013208053 -0.034507476 0.048008002
000100 36 93 f1 3c e4 de e0 bc 6f 21 b0 bc f2 5c 16 3d
       0.029489141 -0.027450033 -0.021500317 0.036709733
000110 23 e4 05 bc 28 76 d9 3b 4f 77 29 bd 69 01 c7 bc
       -0.008172068 0.0066364 -0.041373547 -0.024292665
000120 ef d9 11 bb a8 00 0b 3d 9a ff 2d bd a2 ce 17 3d
       -0.0022255143 0.033936173 -0.04248009 0.037062295
000130 06 c8 62 3d 63 17 26 bd e8 d0 d4 3c 26 a0 78 bc
       0.05536654 -0.040549647 0.02597852 -0.015174901
000140 0e 30 2a 3d c3 fb c7 bb 2a 76 d6 3c f3 1d b4 3b
       0.041549735 -0.0061030104 0.026179392 0.0054967343
000150 11 d3 47 3d 60 15 1d bb a7 07 59 bd d5 a1 fb bc
       0.048785273 -0.002396904 -0.052985813 -0.030716816
000160 d0 fd af bc d3 6f 1f 3c c5 fe 74 3c 1a da ae bb
       -0.021483332 0.009731251 0.01495332 -0.0053360583
000170 cf fc 76 bc eb 47 11 3d 60 06 68 bc 53 9a c0 bb
       -0.015074923 0.035468977 -0.014161676 -0.005877772
000180 a4 53 f5 b9 c9 e9 99 bc bb 56 17 3d a5 fe 1c bb
       -0.0004679236 -0.018788235 0.036947947 -0.002395549
000190 d9 36 2e ba ae 5e 47 3d a0 99 2d 3d 16 ab b5 bc
       -0.0006645746 0.048674278 0.042382836 -0.022176307
0001a0 7d a7 97 bc 0e bc e4 3c 6b fd ce 3c 54 9d 8e bc
       -0.018512482 0.027921703 0.025267323 -0.017409004
0001b0 79 25 46 3d dc 6d a9 38 a1 bd ad 3c c7 24 02 3c
       0.04837558 8.079011e-05 0.021208586 0.007943339
0001c0 02 cb 9c bb d5 0b 1c bd 5f 25 9a bc d6 42 28 bd
       -0.0047849426 -0.03809722 -0.018816648 -0.041079365
0001d0 ed f0 16 bd 2f b4 26 3d 52 a7 b8 bc 68 f5 71 bc
       -0.03685086 0.04069918 -0.022540722 -0.014767982

ConvNet.fc2.weight f4 [84, 120]
000000 5a 8f 77 bd 52 50 4c 3d fe 95 1e bd 65 4f af bd
       -0.060439445 0.049881287 -0.038717262 -0.08560065
000010 d6 09 6c 3d 1d 64 b0 bc 2b 46 1c bd e4 43 d3 bd
       0.057626568 -0.021532113 -0.038152855 -0.103156835
000020 d5 25 0f 3c c0 b4 1f bd 32 c2 40 3c 43 52 61 bd
       0.008737047 -0.038990736 0.01176505 -0.05501009
000030 6c 44 bb bd 88 be 2f 3d 22 f7 b4 bd 81 04 cb 3c
       -0.0914391 0.042906314 -0.08836199 0.024782421
000040 e8 83 06 3c 18 de 52 bd 42 b5 54 3d 3c a6 9e bd
       0.00821016 -0.051481336 0.051930673 -0.077465504
000050 18 f9 5c bd 51 a0 95 3d 03 62 46 bd bb 85 1c 3d
       -0.05394849 0.073059686 -0.048433315 0.038213473
000060 4d cf 0e bd 96 b6 10 3d 71 60 5d bd 51 87 29 3d
       -0.034865666 0.035330378 -0.05404705 0.041388813
000070 90 00 87 bb 77 99 1a 3d 97 4e f0 bb 2d c1 85 3d
       -0.00411994 0.03774401 -0.0073335874 0.06530986
000080 da 3b 90 3d 57 fd 7c bd 48 4a 60 3d ae 2e e7 3c
       0.07042666 -0.06176504 0.05475834 0.0282205
000090 0d a8 6b bd 14 20 6c 3d 63 68 c4 bd 65 92 80 bd
       -0.057533313 0.05764778 -0.09590223 -0.062779225
0000a0 15 14 24 3b 3d 69 1b bd 0c 46 01 3d 52 43 7b bd
       0.0025036384 -0.03794216 0.031560943 -0.0613435
0000b0 47 74 99 bd d1 20 56 3d 1e f8 3e 3c 77 f6 50 bc
       -0.07492881 0.05227739 0.011655835 -0.012754074
0000c0 98 3c 22 bd 2c 33 93 3d c2 8f 8a bd 8f 65 07 bd
       -0.039608568 0.07187495 -0.06765701 -0.03305584
0000d0 6b c2 a2 3b da bb 1d bc 6a ec 5c bd 48 0e d0 bd
       0.004967024 -0.009627307 -0.0539364 -0.10158974
0000e0 1c 4e 8a bc 30 6d b8 bd 8d 7a 33 3d a9 6e 3d 3c
       -0.016882949 -0.09005201 0.043818045 0.011562028
0000f0 59 98 80 3d e9 78 8a 3c 3b f2 26 bc 05 88 31 bd
       0.06279058 0.016903358 -0.010189588 -0.04334261
000100 c3 1b a4 bd 54 ac 8a bd 37 91 b2 3d 46 5b 31 bd
       -0.08013108 -0.0677115 0.08719104 -0.043299936
000110 3a 16 c2 3c d9 5c 4f bd 94 50 e3 bc 6e 41 12 3c
       0.02369224 -0.050625656 -0.027748384 0.008926732
000120 d0 61 73 3b 3a 79 28 bd 43 fb 81 3d b2 93 90 3d
       0.0037137158 -0.041131236 0.063467525 0.07059421
000130 21 e3 96 bc 30 51 49 bd f6 8d 85 3d ee ab d1 bd
       -0.01841885 -0.049149692 0.065212175 -0.10237871
000140 25 c6 90 bd f1 d1 23 3c 18 ff ca 3b 17 40 b2 bd
       -0.07069043 0.009998784 0.0061949603 -0.087036304
000150 9d 24 dd 3c 68 27 88 bd d2 f1 03 3c 0a c7 ba bc
       0.026994998 -0.06648141 0.00805326 -0.022799987
000160 99 02 24 bd 18 d1 a4 bd 2c 76 ad bc 1a d9 a8 3c
       -0.04004154 -0.08047694 -0.021174513 0.020611335
000170 a5 e3 09 bc 4d 6d 50 bd e4 75 97 3d 05 f5 96 bd
       -0.008416091 -0.050885487 0.07395533 -0.073709525
000180 10 96 09 bd 94 03 56 bd 90 e1 4f bc ad a6 8b 3d
       -0.033590376 -0.052249506 -0.012688056 0.068189
000190 92 b2 3f bd f8 b9 2f bd 27 a4 c7 bd 9f 99 37 3b
       -0.046801157 -0.042901963 -0.097481064 0.002801515
0001a0 20 1e af bd 7e 82 72 3b a1 5b e0 3b 7f fb 8c bc
       -0.08550668 0.003700405 0.0068468605 -0.017209766
0001b0 ec 6b 5a bd 0b ff bd bd c3 24 17 bd e6 06 8f bd
       -0.05332558 -0.09277161 -0.036900293 -0.06983738
0001c0 2c f2 12 3d c5 f6 3d bb 70 fc a7 3c 2a 65 55 3d
       0.035875484 -0.0028986197 0.020506114 0.05209843
0001d0 02 52 92 3c 63 66 60 3d 78 33 01 bd 23 2e 15 3b
       0.01786137 0.054785144 -0.031543225 0.0022763095
0001e0 f7 83 1d 3d 4c 60 90 bc 9c e7 21 bd 69 f5 74 3c
       0.03845593 -0.017624043 -0.03952752 0.0149510885
0001f0 85 11 aa bd d4 72 83 bd e1 cb b5 bc a8 23 95 bd
       -0.08304123 -0.06418386 -0.022191944 -0.072821915
000200 72 56 25 bd 22 a5 ad 3d 6a dd 94 bd 25 f7 08 bd
       -0.040365644 0.08478762 -0.07268794 -0.03343882
000210 81 33 4e bd 84 0e 91 bc 9a 97 b5 bd 9e de d6 3c
       -0.050342087 -0.017707117 -0.08866806 0.026229199
000220 af 2b 41 3d 37 2d be bd 89 38 85 3b 53 8c 11 3d
       0.0471608 -0.09285968 0.0040655774 0.035534214
000230 4b 36 7e bc c7 df 34 bc 4f 17 7e 3d 1c 25 5f bd
       -0.015515874 -0.011039681 0.062033948 -0.05447875
000240 4e c7 6f bd 3d ce a3 3d 87 d6 86 bd 00 5f 54 bc
       -0.05853968 0.07998321 -0.065838866 -0.012962103
000250 12 ee e3 3c 5b 6a 61 3b 4c 11 08 3d 38 a1 e4 bb
       0.027823482 0.0034395668 0.03321962 -0.0069772266
000260 d5 cd 84 bd 9f f1 ea 3c b4 d0 94 bd 8c 75 18 3d
       -0.06484572 0.028679667 -0.072663695 0.037221476
000270 d7 52 7c 3c da d4 c7 bc 5e d8 1e bd 1d 7f 89 3d
       0.01540061 -0.024393488 -0.038780563 0.06713698
000280 fb 7b c2 bb 4a 3d 51 3d 5f bc af 3d 08 44 ab 3d
       -0.00593519 0.05108384 0.08580851 0.08362585
000290 90 9a 9d bd 54 51 bf bd 90 99 28 3d f3 37 be ba
       -0.07695496 -0.09341684 0.041162074 -0.0014512524
0002a0 6f bd 76 3d e2 7d 57 3d b4 16 88 bd df 0e 8b bd
       0.06023925 0.052610286 -0.06644955 -0.06789946
0002b0 12 64 72 3d 7c 13 77 3d 13 23 bf bc 56 68 89 bd
       0.059177466 0.060321316 -0.023332154 -0.067093536
0002c0 c6 ca 9f bd e1 7a 06 3c fc 44 24 bd db 74 a2 bd
       -0.07802348 0.008208008 -0.04010485 -0.07932445
0002d0 0e 42 8f 3d 9b 6d f1 bc fd 9a 8f bd 33 68 9e bd
       0.06995021 -0.02947121 -0.070119835 -0.07734718
0002e0 1b ee d5 bc fa be 90 bd 5b dd bd bc e3 04 3a 3c
       -0.026114514 -0.07067676 -0.02317684 0.011353704
0002f0 89 19 01 bc 50 ca 7a 3d a2 2e f2 bc af 20 ee bc
       -0.007879623 0.061228096 -0.029563252 -0.02906832
000300 54 2d 8c bd 81 dd 2b 3c 0c e3 e6 3c 22 b1 c3 3c
       -0.06844583 0.010489822 0.028184436 0.023888174
000310 75 24 71 bd e9 c5 fd bc 28 b6 78 3d 0d e2 4e 3d
       -0.05887266 -0.03097816 0.060720593 0.050508548
000320 8e 18 95 3d 41 56 73 3d 6c 90 a9 bd 9a 83 10 3d
       0.07280074 0.05940843 -0.082794994 0.035281755
000330 e8 b3 c1 bd 4e 43 99 bc d5 4c 97 3d fe 06 c7 3d
       -0.094581425 -0.018708851 0.073877014 0.097181305
000340 07 f5 aa 3d c5 f8 dc 3c a6 af 74 bc 36 43 8a 3d
       0.083475165 0.026974091 -0.014934456 0.06751101
000350 52 af 6d bd c8 05 a2 bd f4 15 3b 3b 71 74 b5 3d
       -0.058028527 -0.07911259 0.002854702 0.088601
000360 68 cb 28 bc 31 32 9e 3c 2a 27 21 3d 1c 88 2b 3d
       -0.010302402 0.019311043 0.03934399 0.04187785
000370 f9 9d 7a bd 8a 2a 9c 3d 05 66 b0 bd aa 85 ac 3a
       -0.06118581 0.07625301 -0.08613209 0.0013162394
000380 51 45 b9 bd 2d 4b 56 bd 62 3f f7 bc 8c ab fc bc
       -0.09046424 -0.052317787 -0.03018159 -0.030843519
000390 fd 88 11 3d 06 30 8d bd db c2 14 bb 72 da 93 3d
       0.035531033 -0.06893925 -0.002269915 0.072193995
0003a0 2c bd ca bc 5f 9d 5c bd 0b 18 95 bd ba 56 67 3d
       -0.024748407 -0.05386102 -0.072799765 0.056479193
0003b0 8d 8b 6e bd af c5 a4 3c 8a ef 8e bd f1 e3 b6 bc
       -0.058238555 0.020113794 -0.06979282 -0.022325488
0003c0 ce fb 3a bc 94 c0 5d bd 2d 76 d4 3d b5 65 9a bd
       -0.011412574 -0.054138735 0.10374103 -0.0753893
0003d0 00 2d 92 3c 0a 26 f8 3d f5 20 c4 3d 89 60 b0 3d
       0.017843723 0.121166304 0.095765986 0.086121626
0003e0 6f 96 94 bd e8 2b b3 bd 4a 55 5c 3d c7 0c 74 3d
       -0.072552554 -0.08748609 0.053792275 0.059582498
0003f0 35 6e 22 bd b2 ef 48 bd f1 4b 44 bd 4b 3a 9d bd
       -0.039655883 -0.049056716 -0.047923986 -0.07677134

ConvNet.fc2.bias f4 [84]
000000 18 08 00 3c 8f 74 0e bd 84 d7 39 3d d3 eb bf bc
       0.00781443 -0.034779128 0.045371547 -0.02342788
000010 4d c0 b3 3a 6a bb 91 bd 52 b7 03 3d 89 c2 ab bc
       0.0013713926 -0.071158245 0.03215725 -0.020966785
000020 d5 24 b7 bc 00 04 03 bb 15 76 9d bd 5f d7 ed 3c
       -0.02235643 -0.0019991398 -0.07688538 0.029033361
000030 c9 09 92 bb 25 b5 97 3d 67 14 08 3d d3 d9 b7 3d
       -0.004456733 0.074075975 0.033222582 0.089770935
000040 69 5b 27 bc c7 69 17 bb d2 3d 55 3d ff 0e 70 3d
       -0.010214665 -0.002310382 0.05206091 0.05860805
000050 d4 f9 92 3a e2 25 cb 3d fc 24 ca 3c e3 14 4a bd
       0.0011213371 0.09919335 0.024675839 -0.049336325
000060 fe b9 64 ba bb 8a bd 3d ee 07 f7 bc bb 95 f4 3c
       -0.0008725225 0.09254976 -0.030155148 0.029856553
000070 f7 dd f5 ba 02 c7 ff 3c 47 86 f2 bc 19 84 04 bd
       -0.0018758167 0.031222824 -0.029605044 -0.03235254
000080 10 f3 5e bc b4 1a 3c bb 76 b7 53 3c 23 63 01 3d
       -0.013607755 -0.002870244 0.012922158 0.031588685
000090 8b bf 4a 3d d0 c1 46 3d 3c 25 49 3d 98 89 b2 bd
       0.049499076 0.048524678 0.049107775 -0.0871765
0000a0 e2 d3 e1 3c 58 98 cc bc 10 47 82 bd ae 1a 5e 3c
       0.027566854 -0.024974987 -0.0636121 0.013556166
0000b0 9b 2c 31 3c 76 b0 0b bd 8e 07 8a bd 7f 0c 4f bd
       0.010813857 -0.034103833 -0.06739722 -0.050549027
0000c0 46 1a 30 3d d1 03 6f bd 0d 1c b8 3d ac de 2d 3d
       0.042993806 -0.05835325 0.08989725 0.042448685
0000d0 27 34 18 3d 8a d3 c4 bb e1 d5 b0 3d f6 b0 39 3c
       0.03715911 -0.0060066627 0.08634544 0.011333695
0000e0 b2 47 98 bd eb 36 97 bd b0 e3 4e bd 5a 5b 39 3d
       -0.0743555 -0.07383522 -0.05051011 0.045253135
0000f0 9c ba d0 3d ec 6b c9 3b f1 ea b6 bd 5a 7d 35 3d
       0.10191843 0.0061468985 -0.0893153 0.044308998
000100 ee 45 83 3d 73 e1 66 bd e7 e1 04 bd f0 92 5c 3c
       0.064098224 -0.05636735 -0.032442 0.013462767
000110 2a dd bc 3d 73 23 56 3d 19 9d 00 3d 80 93 1b bd
       0.09221871 0.0522799 0.03139982 -0.037982464
000120 7d 3f 99 bd 65 09 e0 3c 5f b3 b2 bb 9e 36 76 3d
       -0.074828126 0.02734823 -0.0054535116 0.06011068
000130 30 c7 5c bc e3 a7 cb 3c c5 1d 7e 3d 74 95 55 3d
       -0.013475224 0.024860328 0.06204011 0.052144483
000140 aa 94 3f bd f3 c5 72 3c 4c ce 4e 3d 2f 61 9c bd
       -0.046772636 0.014817703 0.05048971 -0.07635724

Output.fc.weight f4 [10, 84]
000000 ff ad 19 bd c3 ce 6d bc d0 48 75 bd b0 25 ae 3b
       -0.03751945 -0.014514628 -0.059883893 0.0053145513
000010 e7 bc 2a 3d a9 a9 3e 3d fe 60 73 3d d3 90 b2 3c
       0.041684058 0.04654852 0.05941867 0.021797573
000020 e3 a4 6d 3d d5 5c 6c 3d 16 ab 3e 3d 14 95 b1 bc
       0.058018576 0.05770572 0.04654988 -0.021677531
000030 7b 7a 94 3d 9d 9c 2e bb 56 61 46 bd ed 95 09 bd
       0.07249924 -0.0026643642 -0.04843267 -0.033590246
000040 9c 25 ed 3d 05 7d c6 3c f4 3f 01 3d 3b 47 b6 3d
       0.11579439 0.024229536 0.03155513 0.08900305
000050 54 53 c2 3d 21 80 c7 3c 0e e8 1e bc 4e 52 83 3d
       0.0948855 0.024353089 -0.009698881 0.06412183
000060 b7 de e7 bd b5 b3 aa 3d 1b cb c9 3d e7 2a 95 bd
       -0.11321776 0.08335058 0.098531924 -0.072835736
000070 a5 05 59 3d 89 eb 72 3d 46 8b b0 bd 12 ff 9d bd
       0.0529839 0.059306655 -0.08620314 -0.077146664
000080 4d a2 94 3d 7d f3 68 3d b1 25 fa bd bd fd 62 3d
       0.07257519 0.056872834 -0.1221422 0.055417765
000090 cb e5 a8 bd 01 18 eb 3c 86 f5 51 3c 68 09 84 3d
       -0.082469545 0.02869797 0.012814885 0.064471066
0000a0 92 d4 b3 bd 65 df b9 bd ca e1 f2 3d 17 1b 87 bd
       -0.08780779 -0.09075812 0.11859472 -0.06596964
0000b0 aa 77 1d bd 1f 66 2a 3d 3a 6f f0 bd 68 95 69 bd
       -0.0384442 0.041601297 -0.11739965 -0.05702725
0000c0 39 53 d6 3d 11 17 3f bd 0e fa d4 bd c6 92 6a bc
       0.10465092 -0.046652857 -0.10399257 -0.01431722
0000d0 55 cf 9f bd 0c c0 93 bd 27 60 b1 3b 56 35 fc ba
       -0.07803217 -0.072143644 0.0054130736 -0.001924197
0000e0 65 f9 b5 bc d7 4b 94 3d 11 54 9a bd 9d 45 cf 3d
       -0.022213647 0.07241028 -0.07535566 0.101206996
0000f0 af ad 0d be 30 5b 2a 3d a7 9b 1f 3d 1e d1 64 bd
       -0.13835786 0.04159087 0.0389668 -0.055863492
000100 0c e8 2a 3d bb 80 64 bd e3 50 b8 bd ec 67 b1 bc
       0.041725203 -0.05578683 -0.08999803 -0.021656
000110 a8 88 fc bd a6 d9 38 bb 42 92 c0 bd 4f 9e c7 bd
       -0.123307526 -0.00282059 -0.094028965 -0.09746992
000120 6a 51 8a bd e4 69 95 3d 9a 76 fa bd 06 38 6e bd
       -0.0675381 0.07295588 -0.12229653 -0.058158897
000130 3b d5 b4 3d 5a d2 ee 3b 04 3c c5 3c 43 9a 0a be
       0.08829733 0.0072882595 0.02407647 -0.13535409
000140 26 f1 0f bc 88 8a b4 bc b8 18 01 3c a4 8e 60 3a
       -0.008785522 -0.022038713 0.007879429 0.0008566177
000150 fe 59 91 bd 25 c2 20 bd 71 1e fb 3d 5a a1 16 be
       -0.07097243 -0.03924765 0.122616656 -0.14709988
000160 9b c4 e3 bc 86 ee 09 be 87 90 1f be 44 ff 82 3c
       -0.02780371 -0.13469896 -0.15582477 0.01599086
000170 5b 0e 42 bd ee c8 d9 bd e8 46 3c 3d 05 56 1d bd
       -0.04737697 -0.106340274 0.04596606 -0.038412113
000180 54 a7 ac 3d cd 3a 0e 3c 56 78 fe 3d 14 16 92 3d
       0.08430353 0.008681011 0.12425296 0.07133117
000190 c3 60 0f 3d 9a 60 10 bc e7 7f 3f bd ef 77 73 bd
       0.03500439 -0.008812094 -0.046752837 -0.05944055
0001a0 ee fc e5 3c 9e c0 76 bd 0b 2e 7a bc d9 48 66 3d
       0.028074708 -0.060242288 -0.015269767 0.056221817
0001b0 35 e4 a0 bd b5 57 a6 3d 95 11 95 3d e0 15 d2 3c
       -0.07856027 0.081221975 0.07278744 0.025645196
0001c0 97 07 90 bc 5c 52 9a bc bf b2 71 bd 03 3c d6 3d
       -0.017581744 -0.0188381 -0.059008356 0.10460665
0001d0 02 0f 28 bd 46 2d 09 be 4a 35 d0 3c 01 2b 1b 3c
       -0.041029938 -0.13396177 0.025416035 0.009470702
0001e0 aa d1 c1 3d 14 39 ed bc dc dd 79 bd 79 dd e2 3d
       0.09463818 -0.028957881 -0.061002597 0.11077399
0001f0 aa bf 6c 3d 79 58 65 bd 73 81 2c 3d 06 6f 5b bd
       0.057799973 -0.055992577 0.04211564 -0.053572677
000200 a6 0c 00 3d b6 61 d5 3d 58 96 55 3d e4 03 b8 bd
       0.031262062 0.104190275 0.052145332 -0.08985117
000210 80 80 1d be 81 b0 d9 bd 22 a3 07 3e a3 ff 6b bd
       -0.1538105 -0.106293686 0.13245824 -0.05761684
000220 af 7b cd 3c 5c 76 77 bd bc 31 a8 bc 55 bb 9a bd
       0.025083391 -0.06041561 -0.020531528 -0.07555262
000230 de 66 dc bd 71 d0 ea bd 08 0b 2e 3c 89 90 7d 3d
       -0.10761808 -0.11465538 0.010622747 0.061905418
000240 81 8f 83 bd 0a b0 a6 3d 21 fa 93 3d 77 b4 ec bd
       -0.064238556 0.081390455 0.07225443 -0.115578584
000250 76 36 86 bd f7 c7 04 3c 6e a7 8b 3d b4 4e e1 3d
       -0.06553356 0.008104316 0.06819044 0.110013396
000260 d4 1a 9c bd f3 07 cc bc e4 44 97 3d 54 b5 ad bd
       -0.076223046 -0.024906134 0.07386187 -0.08481851
000270 64 59 62 3d 64 01 11 bc a3 b0 c4 3d 48 c7 06 3d
       0.05526103 -0.008850429 0.09604003 0.032904893
000280 39 92 0f bd 75 93 be bd 27 9c 84 3d 94 64 50 3d
       -0.03505156 -0.09305469 0.06475096 0.05087717
000290 f4 eb 2c 3d 58 f2 31 3d 42 51 06 3d 6e 72 9a 3c
       0.04221721 0.043444008 0.032792337 0.018853392
0002a0 71 d9 bf 3d fe 58 e2 bc 14 fb 5d 3c 9c 3d 36 bd
       0.093676455 -0.027630325 0.013548631 -0.04449235
0002b0 98 98 09 3d 49 b4 26 3d 8f 1f 1d 3d 63 e3 8c 3d
       0.03359279 0.040699277 0.038360175 0.06879308
0002c0 ba 52 84 bd 19 bc 99 3b 33 67 9a bd 5e 60 81 bd
       -0.06461091 0.0046916124 -0.07539215 -0.06317209
0002d0 6a f0 93 bd 53 23 d1 bc 36 b9 8e 3b 2f 84 e1 3d
       -0.0722359 -0.02552954 0.004355575 0.1101154
0002e0 13 61 f5 bd 4e dd be bd aa 8e a8 3d 88 d8 e2 bd
       -0.11981406 -0.09319554 0.08230336 -0.11076456
0002f0 cd 66 c9 3d df 34 dd 3d 97 09 a4 bd c0 24 e6 bc
       0.09834061 0.108011 -0.080096416 -0.028093696
000300 29 6f 74 bd bb 4b 81 bd e7 b7 01 3e 5b 44 8a 3c
       -0.059676323 -0.063132726 0.1266781 0.016878298
000310 2c 62 62 3d 12 39 89 3d 09 63 1e bb 1b 1f c4 bd
       0.055269405 0.067003384 -0.0024167916 -0.095762454
000320 47 d2 5a ba 55 69 09 3d 4e 5f 55 3d d3 eb 78 bd
       -0.0008347374 0.033547718 0.052092843 -0.060771775
000330 4a 97 6d 3d 3f 67 9b 3d 26 f8 3f bd 6d 10 e2 3d
       0.05800561 0.07588052 -0.046867512 0.11038289
000340 2b f4 94 bd 77 f1 40 3d 64 e9 94 bd da bc f2 3c
       -0.07273134 0.04710528 -0.07271078 0.029631067
000350 8b 0e 1b bd 66 92 79 3d 0a 6b 9a 3d 10 f6 99 3c
       -0.037855666 0.060930632 0.07539947 0.01879409
000360 dc b5 24 3c 52 e3 c8 bd 6d 84 8e 3c d3 22 88 3d
       0.010053124 -0.09808983 0.01739713 0.06647267
000370 2b f6 87 3d 74 08 12 bb 33 5e 9b bd 39 a2 26 3c
       0.0663875 -0.002228287 -0.075863265 0.010170513
000380 ab 41 8b bd 4f 3e be bd f6 22 b6 bc eb cd ae bd
       -0.067996345 -0.09289228 -0.022233468 -0.085353695
000390 95 d3 5e 3d 6f f3 94 bc 6c a2 55 3b 8f 9c dd bd
       0.054401 -0.018182484 0.0032598032 -0.10820877
0003a0 02 69 a1 bd b9 7d d1 bc d2 6e 72 3c db 86 88 3d
       -0.07881357 -0.025572645 0.014796929 0.06666347
0003b0 82 a9 bb 3d f5 e1 88 bd 7c 6a f7 bd e2 e7 1c b9
       0.091631904 -0.06683723 -0.12080857 -0.00014963702
0003c0 fc 8c 33 3d 2b db 4d bd b4 a6 1c bd 6e 3d 3a bc
       0.043835625 -0.050257843 -0.038244918 -0.011367185
0003d0 fa 19 ba 3c 70 5f 5f 3d 32 94 bb bd d2 e3 67 bd
       0.022717465 0.054534376 -0.091591254 -0.05661375
0003e0 0a 0d 37 bc 4a af 99 bd 46 d4 58 3d 4a 9b c8 3b
       -0.011172542 -0.07504137 0.052936815 0.0061220275
0003f0 a1 f9 6b 3d d6 67 72 bd 58 df ba 3d 30 f3 00 3c
       0.05761111 -0.059181057 0.09124631 0.00787048

Output.fc.bias f4 [10]
000000 cc 5a be 3c 52 76 db 3d 9e 40 c5 3c 2c 67 79 3c
       0.023236655 0.10715927 0.024078663 0.015222352
000010 af 1f d3 3d e6 9e 7d bc ef e1 00 3d 68 2c 8e bc
       0.103087775 -0.015479779 0.031465467 -0.017355159
000020 4e f3 95 3d 13 1b 92 3b
       0.07321797 0.004458794
