tutorials/W1D2_ComparingTasks/RR/models/ConvNet_inpainting_10_epoch_1.pth (torch, 506410 bytes, 19 tensors)

encoder.conv1.weight f4 [6, 1, 5, 5]
0.15381597 0.1650341 -0.04612296 0.18277732 -0.04480804 0.04134492 -0.0963814 0.11844922
0.17729153 -0.14768484 0.17482331 0.038421366 0.14875324 0.02610826 0.09544418 -0.027250653
0.15516968 0.030554352 -0.094345696 0.049984373 -0.091153175 -0.022460444 -0.08023918 0.13175939
-0.158869 -0.09121094 -0.055483416 -0.11925894 0.019869845 -0.19655295 0.18160689 -0.16891149
0.15539828 0.034268584 -0.06398376 0.122709066 0.032132808 0.16258529 0.022838503 -0.064051986
0.05279427 -0.05325453 0.085167244 0.17955798 0.11466316 -0.08839159 0.11644024 0.036780674
0.10256069 -0.120925725 -0.19897813 -0.078268565 -0.15440105 0.16311347 0.058579616 0.08184664
0.062256534 -0.0044735987 0.15552999 -0.1411361 0.0115957605 -0.13750465 0.06067566 -0.06986368
0.062264398 -0.04266522 0.16488332 -0.119531766 -0.120257735 -0.11833806 0.17889223 0.06566166
0.19338077 -0.16408607 -0.19738533 -0.15554103 -0.13356347 0.08008405 0.07062454 0.16519298
-0.10420817 -0.1373101 0.105136774 -0.081830345 0.120395206 -0.04647764 0.11347536 -0.15637477
-0.1019182 0.0599866 0.0432731 -0.050010785 0.11827288 0.1349783 -0.14600764 -0.10578307
0.1841186 -0.068468496 -0.07189022 -0.1945014 -0.11552777 0.04896639 -0.027390655 -0.14615758
0.0056025814 -0.13761048 -0.17067295 -0.111121535 -0.17602918 -0.12831135 0.1989291 0.03678434
0.060649946 -0.18752266 -0.1323348 -0.06756389 0.030282196 -0.17697126 -0.08715915 -0.12071579
-0.00043731235 -0.075409696 -0.014848231 -0.13651021 -0.13825709 -0.11754235 -0.06916917 -0.15866283
0.16866124 -0.038705677 0.17116058 0.063284285 -0.1683984 0.13938448 -0.05404181 -0.07762267
-0.16503927 -0.19784428 0.05821366 -0.0426961 0.07688836 -0.16489954 0.14947301 -0.14581738
-0.0335415 0.042746514 0.10423976 0.16245596 0.18318732 -0.15758987
00000000: ef81 1d3e b3fe 283e 6eeb 3cbd fa29 3b3e
00000010: a388 37bd 4a59 293d 9d63 c5bd 8195 f23d
00000020: e98b 353e b23a 17be e204 333e b95f 1d3d
00000030: c552 183e fde0 d53c 3d78 c33d c33c dfbc
00000040: cde4 1e3e 1f4d fa3c 5138 c1bd 6abc 4c3d
00000050: 84ae babd f7fe b7bc 7054 a4bd efeb 063e
00000060: 8eae 22be cdcc babd 9442 63bd 083e f4bd
00000070: 16c6 a23c 2d45 49be 28f7 393e 22f7 2cbe
00000080: ba20 1f3e 375d 0c3d eb09 83bd e44e fb3d
00000090: b19d 033d c27c 263e d017 bb3c b02d 83bd
000000a0: ce3e 583d 6c21 5abd 2a6c ae3d 0cde 373e
000000b0: 85d4 ea3d a606 b5bd 3878 ee3d 55a7 163d
000000c0: 570b d23d e8a7 f7bd ecc0 4bbe 454b a0bd
000000d0: 4f1b 1ebe 3807 273e 2ef1 6f3d 369f a73d
000000e0: b500 7f3d 4497 92bb 4143 1f3e fb85 10be
000000f0: 25fc 3d3c 05ce 0cbe 0a87 783d b014 8fbd
00000100: f408 7f3d bac1 2ebd 2cd7 283e 12cd f4bd
00000110: b049 f6bd 3a5b f2bd 862f 373e 9f79 863d
00000120: 9c05 463e 2e06 28be 611f 4abe 2646 1fbe
00000130: ddc4 08be 1b03 a43d 99a3 903d 5928 293e
00000140: 186b d5bd 059b 0cbe f351 d73d ab96 a7bd
00000150: c391 f63d 565f 3ebd c565 e83d b520 20be
00000160: 7dba d0bd 82b4 753d 223f 313d 1cd8 4cbd
00000170: 0d39 f23d c037 0a3e 0783 15be cba4 d8bd
00000180: 9689 3c3e 3639 8cbd 2e3b 93bd 602b 47be
00000190: d399 ecbd fb90 483d 5e62 e0bc 55aa 15be
000001a0: dc95 b73b c3e9 0cbe e4c4 2ebe b093 e3bd
000001b0: fe40 34be 0d64 03be 12b4 4b3e 2dab 163d
000001c0: 146c 783d f105 40be c682 07be f05e 8abd
000001d0: 5e12 f83c f437 35be 7f80 b2bd d739 f7bd
000001e0: 1247 e5b9 6670 9abd ff45 73bc 55c9 0bbe
000001f0: 4493 0dbe 0bba f0bd 91a8 8dbd 8278 22be
00000200: 88b5 2c3e d889 1ebd b844 2f3e 319b 813d
00000210: a170 2cbe ceba 0e3e f25a 5dbd a2f8 9ebd
00000220: 0e00 29be b197 4abe 7271 6e3d 1be2 2ebd
00000230: a577 9d3d 6ddb 28be 740f 193e 2751 15be
00000240: d062 09bd f816 2f3d a87b d53d db5a 263e
00000250: 7595 3b3e 3d5f 21be

encoder.conv1.bias f4 [6]
0.051321127 -0.08503746 -0.020948336 -0.1505414 0.18316792 -0.14588593
00000000: 1a36 523d 1f28 aebd d89b abbc 8627 1abe
00000010: 5f90 3b3e 1f63 15be

encoder.conv2.weight f4 [16, 6, 5, 5]
0.04463364 0.029689655 0.027377563 -0.045138083 0.07321984 0.018936632 0.011498022 -0.07096499
0.03328474 -0.013243789 -0.036422428 0.07112461 0.019196 -0.044212617 -0.04230887 -0.0029077635
0.046580825 -0.019872682 -0.04560358 -0.028932635 -0.060006674 0.030107083 0.064186275 -0.0759236
0.018217519 0.043173663 0.015800476 -0.028157273 0.041627225 0.041914597 0.029550515 -0.013365609
-0.020629302 0.009699263 -0.015374054 -0.025307788 0.053142678 0.07116075 -0.0071274787 -0.0192537
0.0021585915 -0.0058428883 0.020581909 0.023759767 -0.07324682 -0.02919898 0.06795704 0.030885335
-0.0050158626 -0.05018852 -0.050938524 -0.07216155 -0.025631242 0.0285495 0.05110342 0.03695459
-0.073162064 -0.048217613 -0.011897514 0.07963448 0.012790525 -0.021995096 0.034655012 -0.03011586
-0.05195219 0.058693603 -0.036144197 -0.015396837 -0.082170896 0.055601384 0.06088676 0.030730972
-0.055947438 -0.07962995 -0.065332316 0.059955243 0.038228836 0.067727104 0.041801486 0.019721324
2.815004e-05 -0.063058175 -0.07093619 -0.077354014 0.03244665 -0.03910932 -0.015560728 -0.0460621
-0.014073088 -0.05824543 -0.054258004 0.028070776 -0.023373462 0.050197348 -0.025513202 -0.06087003
-0.0134309605 -0.038761985 -0.024986131 -0.078005165 0.04469102 -0.05783677 0.04006914 0.038019318
0.05930791 -0.06362155 0.057727974 -0.039590213 0.031256855 0.077645145 -0.01250796 -0.0016219481
-0.01978945 -0.06912693 0.038213294 -0.082045004 0.049699556 0.060102087 0.076231465 -0.0202281
-0.06807875 0.017370475 0.044128668 -0.082248054 -0.019473717 -0.049935132 -0.008093791 -0.039214313
-0.032407362 -0.026717424 -0.0785511 0.06602387 0.06941519 -0.011908047 -0.010246335 -0.034208223
-0.07319854 -0.08041956 0.031294618 -0.045484897 -0.05160374 -0.0054107253 -0.028118223 -0.027358778
0.0035207565 -0.016382013 -0.027152993 -0.038155634 -0.06708434 0.06749508 -0.031681053 0.022626985
-0.02737538 0.005656929 0.07514282 0.038611755 -0.069775 0.03336858 0.078441374 0.02245439
0.0557343 0.0814813 -0.013417492 0.016017288 -0.055770516 -0.015829954 0.061460096 0.040881444
-0.05264749 -0.064538136 -0.054799367 -0.07958281 -0.062042903 -0.021175416 0.05595693 0.014658599
-0.0611314 -0.06451439 0.041589096 -0.059750006 -0.009064528 0.039925665 -0.037933215 -0.008084396
-0.006124395 -0.018324126 -0.040575203 -0.073763065 -0.06689054 -0.043145318 0.07985598 -0.038445566
-0.05564634 0.018824931 0.023139317 0.045733113 0.06305866 0.046451595 -0.08191819 0.00630991
0.05044632 -0.0065581193 -0.049052853 0.0787989 -0.029585702 -0.045495395 -0.072622165 0.0045674555
0.03521219 0.018900976 0.01713551 -0.06093106 -0.075264126 0.0023597954 0.07496695 0.048090357
-0.046545982 -0.0096076615 -0.0592299 -0.038596787 0.015770178 0.045451872 0.06862693 -0.07398108
0.05556321 -0.05662279 0.029636377 0.06811568 0.00017533853 0.073340885 -0.06861842 -0.030229988
0.046747476 -0.018769339 -0.01769051 -0.03307892 0.057253458 0.041022617 0.025423596 -0.04532849
-0.06535724 0.008010815 0.025130944 -0.03678322 -0.021891903 0.05611053 0.0055339583 0.002744001
-0.019187402 -0.072970636 -0.07579823 -0.03804303 -0.040519018 0.026431786 -0.022776512 -0.030961419
00000000: c4d1 363d b837 f33c e946 e03c b6e2 38bd
00000010: 49f4 953d ff20 9b3c 3362 3c3c 1856 91bd
00000020: 9455 083d 7afc 58bc af2f 15bd c8a9 913d
00000030: ee40 9d3c 4a18 35bd 114c 2dbd 2d90 3ebb
00000040: 89cb 3e3d 09cc a2bc d2ca 3abd 2204 edbc
00000050: 8fc9 75bd 21a3 f63c 1874 833d d57d 9bbd
00000060: e83c 953c ded6 303d 0070 813c 15aa e6bc
00000070: 4f81 2a3d a4ae 2b3d ec13 f23c 6dfb 5abc
00000080: c8fe a8bc a8e9 1e3c 75e3 7bbc 4752 cfbc
00000090: 23ac 593d babc 913d a08d e9bb efb9 9dbc
000000a0: 2877 0d3b b375 bfbb 649b a83c d8a3 c23c
000000b0: 6e02 96bd b332 efbc 102d 8b3d 3e03 fd3c
000000c0: 1b5c a4bb 7a92 4dbd eaa4 50bd 6fc9 93bd
000000d0: 9cf8 d1bc a4e0 e93c d251 513d b25d 173d
000000e0: fed5 95bd d57f 45bd caed 42bc 6717 a33d
000000f0: 5a8f 513c 0f2f b4bc 6af2 0d3d 89b5 f6bc
00000100: d2cb 54bd b468 703d f00b 14bd 0443 7cbc
00000110: 3749 a8bd 47be 633d 6564 793d 85bf fb3c
00000120: 2429 65bd 0715 a3bd f3cc 85bd a193 753d
00000130: d795 1c3d 82b4 8a3d 0938 2b3d 9d8e a13c
00000140: c023 ec37 a524 81bd fe46 91bd c86b 9ebd
00000150: c7e6 043d 1831 20bd 6cf2 7ebc 9dab 3cbd
00000160: cf92 66bc c392 6ebd a43d 5ebd aff4 e53c
00000170: b479 bfbc bc9b 4d3d 1001 d1bc da52 79bd
00000180: 880d 5cbc e3c4 1ebd b7af ccbc 2cc1 9fbd
00000190: ee0d 373d 40e6 6cbd 8a1f 243d 25ba 1b3d
000001a0: daec 723d 044c 82bd 2b74 6c3d 5929 22bd
000001b0: 3007 003d 6b04 9f3d 30ee 4cbc 8c97 d4ba
000001c0: 7c1d a2bc 6b92 8dbd 8b85 1c3d 3607 a8bd
000001d0: c391 4b3d 9b2d 763d 3e1f 9c3d 66b5 a5bc
000001e0: df6c 8bbd 874c 8e3c 43c0 343d ab71 a8bd
000001f0: 5887 9fbc c888 4cbd d29b 04bc 309f 20bd
00000200: 95bd 04bd 80de dabc 66df a0bd 8637 873d
00000210: 8d29 8e3d f819 43bc 3ee0 27bc ec1d 0cbd
00000220: 1ee9 95bd 03b3 a4bd c92e 003d 5f4e 3abd
00000230: 715e 53bd 744c b1bb 3058 e6bc 841f e0bc
00000240: 7ebc 663b 9233 86bc f46f debc 1549 1cbd
00000250: 8463 89bd dc3a 8a3d fec3 01bd 3a5c b93c
00000260: 5542 e0bc c35d b93b 7be4 993d 5c27 1e3d
00000270: 32e6 8ebd 7ead 083d dfa5 a03d 45f2 b73c
00000280: a649 643d abdf a63d 0ad5 5bbc b036 833c
00000290: a06f 64bd d2ad 81bc 95bd 7b3d 4d73 273d
000002a0: e5a4 57bd 922c 84bd 4d75 60bd 50fc a2bd
000002b0: b320 7ebd 1178 adbc 1833 653d 9f2a 703c
000002c0: eb64 7abd 1f20 84bd 5459 2a3d 6cbc 74bd
000002d0: 6383 14bc 1889 233d dc5f 1bbd 6a74 04bc
000002e0: 26af c8bb 7a1c 96bc 2f32 26bd 1711 97bd
000002f0: e8fd 88bd 25b9 30bd 888b a33d 1979 1dbd
00000300: 6bed 63bd be36 9a3c aa8e bd3c a552 3b3d
00000310: e624 813d 0744 3e3d b9c4 a7bd 5dc3 ce3b
00000320: cda0 4e3d 7ee5 d6bb a5eb 48bd 5161 a13d
00000330: b75d f2bc 6159 3abd eeba 94bd 98aa 953b
00000340: a83a 103d 38d6 9a3c c55f 8c3c d992 79bd
00000350: 1424 9abd cca6 1a3b 4688 993d 65fa 443d
00000360: 00a7 3ebd 7469 1dbc 0d9b 72bd aa17 1ebd
00000370: 7630 813c be2b 3a3d 478c 8c3d 6483 97bd
00000380: 4096 633d 4ced 67bd fdc7 f23c 3c80 8b3d
00000390: 14db 3739 bf33 963d d087 8cbd e1a4 f7bc
000003a0: 487a 3f3d 28c2 99bc b0eb 90bc c37d 07bd
000003b0: 9a82 6a3d 5507 283d 2545 d03c 5eaa 39bd
000003c0: 04da 85bd cb3f 033c 69df cd3c 00aa 16bd
000003d0: a656 b3bc 28d4 653d 3556 b53b b3d4 333b
000003e0: e62e 9dbc a171 95bd 1a3c 9bbd 02d3 1bbd
000003f0: 45f7 25bd 7987 d83c cf95 babc cda2 fdbc

encoder.conv2.bias f4 [16]
-0.004440977 0.033999056 0.034177233 -0.0017497529 -0.04018249 0.05607931 0.05505521 0.014096494
-0.03852402 0.01830993 0.0012133273 0.07558805 0.01110863 0.0053066607 0.004591741 0.04443284
00000000: 9d85 91bb 9842 0b3d 6dfd 0b3d f757 e5ba
00000010: 6596 24bd 6bb3 653d 9281 613d fbf4 663c
00000020: 5dcb 1dbd b5fe 953c 8208 9f3a e8cd 9a3d
00000030: f900 363c 7fe3 ad3b 5176 963b 36ff 353d

encoder.fc1.weight f4 [120, 400]
0.00016286096 0.0421414 0.02611484 -0.038706496 -0.0006765298 -0.04310802 -0.039222512 0.010321856
0.0103051 -0.003459255 0.04838781 -0.025939986 -0.020121371 -0.008834503 -0.00016019383 -0.0033636007
0.045869794 -0.020344751 -0.026750969 0.003625196 0.038091063 0.011164634 0.02783089 0.010530157
0.042533807 0.03003118 0.03525268 -0.0067345025 -0.041394778 -0.023000993 0.016134603 0.035999615
-0.01864004 0.040827636 0.0062813363 0.000893149 0.0027766584 -0.009762739 0.047204234 0.0013551263
0.029911341 -0.042543713 -0.024845246 0.006558466 0.03929751 0.023103736 0.010263104 -0.048462212
3.5349512e-07 -0.033926677 -0.04366854 0.005894236 -0.0309113 0.0463157 -0.026267108 0.017074471
0.030318217 -0.037933588 0.02652635 -0.0057426817 0.02510325 0.04749819 -0.022209454 -0.020719811
0.03891919 0.005348221 -0.004092769 0.037007682 -0.025066473 -0.0033922056 0.033378985 0.018582903
-0.033186086 0.012111117 -0.03907052 -0.02804154 0.03304467 -0.01254066 -0.025144286 0.004212953
0.011253411 -0.030165492 -0.034625705 -0.04938463 0.013653807 -0.031656124 0.004760529 -0.011508975
-0.03175682 -0.015005931 -0.039134793 -0.026100036 -0.002184105 -0.04176902 -0.043011975 0.037174612
0.005651929 -0.021167459 -0.00069291546 0.0364661 -0.042602472 -0.025615977 -0.037115935 -0.0044918493
-0.0026697195 -0.038048614 0.0356447 -0.037633847 0.04763458 -0.035372727 -0.0076331105 0.008452977
-0.02138046 0.04691926 -0.034920678 -0.0019208239 -0.035817206 0.014808009 0.043588195 0.047303177
0.0067755487 -0.024177123 0.04772491 0.0040324433 0.034779787 -0.025713047 -0.023204667 -0.04233855
0.04671785 0.009159212 -0.03590947 0.0035894932 -0.020920174 0.0015527932 0.015653448 -0.02481174
0.009600155 -0.0308111 0.008696509 -0.04764077 0.007967574 0.050572228 0.046922848 0.017368192
0.037497316 0.048612893 0.015004381 0.016675908 0.007417197 0.043470755 0.04204952 -0.024407804
-0.0011866792 -0.026023801 0.0188437 -0.047492195 0.018664517 -0.0127488915 0.01909284 0.016559104
-0.024984868 0.025087995 0.022097865 -0.043244246 0.05070121 0.04389127 0.032005083 -0.0041247993
0.018613461 -0.027686248 -0.017881569 0.022637622 0.021497646 0.018943558 -0.04855603 0.04049462
-0.021838522 0.042511668 0.04215624 0.017714828 0.048864063 0.027779559 0.030260526 -0.016016595
0.04731371 0.014060988 0.030501604 -0.010382871 0.036768742 0.04532339 -0.03754699 0.0418885
-0.032125134 -0.033642687 -0.040864237 0.015387012 -0.036600262 -0.019724976 -0.02590465 0.012417479
-0.049983453 -0.02200356 0.0012718297 0.0054203277 -0.023501933 0.01758634 -0.03204585 -0.04314605
-0.0062479866 -0.027603446 0.0322809 -0.033816036 -0.005004396 0.021537762 -0.043704182 0.037826058
-0.022082392 -0.012827831 -0.030233165 -0.018130442 -0.020184334 -0.0453088 0.016173026 -0.0010576467
0.048779447 0.033041038 0.042546593 0.015539571 0.025870208 0.047690745 0.04201329 -0.037469428
-0.010242803 -0.04730343 0.0027950932 -0.016707426 0.044357564 0.008869072 0.0012092504 -0.035250552
-0.0398996 0.008789976 -0.023886299 -0.022190537 0.035927482 -0.026996866 -0.023214545 0.03924046
0.020399747 -0.029336821 0.014232815 0.026031516 -0.043485645 0.010009615 0.012347831 -0.0028534965
00000000: a8c5 2a39 769c 2c3d caee d53c b48a 1ebd
00000010: 2559 31ba 0992 30bd c9a7 20bd 001d 293c
00000020: b9d6 283c abb4 62bb 4c32 463d 1880 d4bc
00000030: 93d5 a4bc 97be 10bc b4f9 27b9 db6f 5cbb
00000040: f7e1 3b3d 09aa a6bc d924 dbbc b294 6d3b
00000050: 6005 1c3d deeb 363c 9bfd e33c ae86 2c3c
00000060: ee37 2e3d f303 f63c 1d65 103d 1aad dcbb
00000070: 928d 29bd 946c bcbc b72c 843c 5574 133d
00000080: ffb2 98bc e13a 273d abd3 cd3b 3722 6a3a
00000090: 99f8 353b e5f3 1fbc 3a59 413d 7e9e b13a
000000a0: a108 f53c 5142 2ebd 4288 cbbc 66e8 d63b
000000b0: 6df6 203d 0c44 bd3c 9426 283c 5080 46bd
000000c0: 00c8 bd34 b3f6 0abd c8dd 32bd 6f24 c13b
000000d0: b239 fdbc 88b5 3d3d 1e2e d7bc c3df 8b3c
000000e0: e95d f83c 4060 1bbd ca4d d93c 1b2d bcbb
000000f0: 55a5 cd3c 768d 423d 9af0 b5bc 98bc a9bc
00000100: bb69 1f3d 2140 af3b a31c 86bb 5e95 173d
00000110: 3458 cdbc c44f 5ebb 67b8 083d 2c3b 983c
00000120: 22ee 07bd b56d 463c 6908 20bd 5fb7 e5bc
00000130: d959 073d 5777 4dbc 64fb cdbc d00c 8a3b
00000140: 3a60 383c 9f1d f7bc afd3 0dbd 8a47 4abd
00000150: 38b4 5f3c daa9 01bd 36fe 9b3b 2490 3cbc
00000160: 7013 02bd 70db 75bc ce4b 20bd becf d5bc
00000170: 3423 0fbb fe15 2bbd 532d 30bd 6844 183d
00000180: d133 b93b 6167 adbc c5a4 35ba 7a5d 153d
00000190: ee7f 2ebd 99d8 d1bc e106 18bd 5d30 93bb
000001a0: 76f6 2ebb ddd8 1bbd 2d00 123d f325 1abd
000001b0: 7a1c 433d fee2 10bd 2c1f fabb 5b7e 0a3c
000001c0: 1326 afbc 692e 403d fc08 0fbd 28c4 fbba
000001d0: 10b5 12bd 4b9d 723c 8989 323d fac0 413d
000001e0: 6c05 de3b 1a0f c6bc 327b 433d 9622 843b
000001f0: 4075 0e3d 2ba4 d2bc b717 bebc 306b 2dbd
00000200: 375b 3f3d 8510 163c cf15 13bd b43d 6b3b
00000210: c960 abbc 1887 cb3a a93b 803c fd41 cbbc
00000220: f849 1d3c 8f67 fcbc cd7b 0e3c f822 43bd
00000230: 6d8a 023c d324 4f3d 2c32 403d bd47 8e3c
00000240: c996 193d 501e 473d efd4 753c ea9b 883c
00000250: f50b f33b 640e 323d 1e3c 2c3d e0f2 c7bc
00000260: 598a 9bba de2f d5bc 1a5e 9a3c 2d87 42bd
00000270: 54e6 983c bae0 50bc 9668 9c3c f5a6 873c
00000280: 11ad ccbc 5785 cd3c 9506 b53c e120 31bd
00000290: 12ac 4f3d 55c7 333d c317 033d 5329 87bb
000002a0: 427b 983c 45ce e2bc 5e7c 92bc 8972 b93c
000002b0: d51b b03c 852f 9b3c b0e2 46bd b0dd 253d
000002c0: b3e6 b2bc b720 2e3d 06ac 2c3d b01e 913c
000002d0: af25 483d f591 e33c ece4 f73c 3c35 83bc
000002e0: 05cc 413d 0f60 663c 80de f93c eb1c 2abc
000002f0: d29a 163d 05a5 393d dfca 19bd 4793 2b3d
00000300: a595 03bd eacc 09bd 4261 27bd ce19 7c3c
00000310: 28ea 15bd 4696 a1bc fd35 d4bc af72 4b3c
00000320: 73bb 4cbd cf40 b4bc 86b3 a63a 019d b13b
00000330: 2087 c0bc 3a11 903c 8242 03bd eab9 30bd
00000340: e9bb ccbb 9f20 e2bc fa38 043d af82 0abd
00000350: ebfb a3bb f66f b03c 2803 33bd 7fef 1a3d
00000360: 22e6 b4bc d32b 52bc 8bab f7bc 4b86 94bc
00000370: 9e59 a5bc b895 39bd 4b7d 843c bca0 8aba
00000380: f5cc 473d 0a56 073d 5645 2e3d af99 7e3c
00000390: c2ed d33c 5f57 433d 2116 2c3d 8b79 19bd
000003a0: 6ed1 27bc 3ec1 41bd e22d 373b 03de 88bc
000003b0: 47b0 353d 964f 113c b67f 9e3a e262 10bd
000003c0: c36d 23bd d503 103c 33ad c3bc eec8 b5bc
000003d0: b228 133d 8828 ddbc 6e2c bebc 9bba 203d
000003e0: 5f1d a73c c653 f0bc c130 693c 0c40 d53c
000003f0: 011e 32bd 5eff 233c 8f4e 4a3c ba01 3bbb

encoder.fc1.bias f4 [120]
-0.027429942 0.018677937 -0.013346505 0.022950497 0.023193425 0.034682997 -0.0050895987 -0.020695986
0.0058932574 -0.017974008 0.017813759 -0.002463466 -0.0029756054 0.047265567 -0.037749972 0.04174282
0.018698826 -0.02911071 0.039552074 -0.014740333 -0.038898684 -0.012559086 0.0035524922 -0.04216755
0.0044378224 0.024332166 -0.041432396 0.025044385 0.015470993 0.047900043 0.04730569 -0.0069633727
-0.01762084 -0.048712738 -0.024415283 0.009175828 0.029359182 0.038415473 0.021041006 -0.004996574
0.012786269 0.028215643 0.03796313 0.032857906 -0.027714228 -0.023111893 -0.009057219 -0.0036393537
-0.04693346 0.04014933 0.033265553 0.04384889 0.019168561 0.050098926 -0.001111576 -0.010584284
0.004107132 0.01508879 0.013756443 -0.0017067154 0.0006959527 -0.032236863 -0.00077557564 0.027342353
0.00093296473 -0.047038335 -0.006160933 -0.01456266 0.034440007 0.032785464 -0.029859725 0.019205434
0.010714085 -0.03353532 -0.017782336 0.005824465 0.025173245 -0.019673299 0.012749515 0.016103191
-0.039988898 -0.010815949 0.013896442 0.022900937 0.0089847 -0.017968796 -0.016353296 0.022091584
0.020314878 -0.008968403 0.04875306 0.008153264 -0.04119535 0.00080601894 -0.0071551 -0.010006124
0.00093764276 -0.014060822 -0.02406065 0.030482994 0.032782923 -0.031597156 0.0067420127 0.017004183
-0.0019465175 -0.0010780067 -0.011194405 -0.0040332912 -0.039210185 0.047104653 0.047414977 0.027637005
-0.019620646 -0.015125382 0.012633365 0.026865236 -0.006456471 -0.008560984 -0.045758862 -0.038669657
00000000: c2b4 e0bc 7902 993c 4dab 5abc ae02 bc3c
00000010: 2300 be3c c20f 0e3d a6c6 a6bb a18a a9bc
00000020: 3a1c c13b 3a3e 93bc 29ee 913c 1a72 21bb
00000030: 6002 43bb 8a99 413d b79f 1abd 85fa 2a3d
00000040: 482e 993c 9579 eebc 5b01 223d 7081 71bc
00000050: 3a54 1fbd a0c4 4dbc eed0 683b e2b7 2cbd
00000060: 276b 913b 4054 c73c 04b5 29bd e229 cd3c
00000070: 0c7a 7d3c d632 443d 9cc3 413d 012d e4bb
00000080: 9459 90bc 0287 47bd 8f02 c8bc 3656 163c
00000090: ab82 f03c 8b59 1d3d 305e ac3c 4dba a3bb
000000a0: 807d 513c 7e24 e73c 3a7f 1b3d 0396 063d
000000b0: f308 e3bc 2755 bdbc bb64 14bc 3982 6ebb
000000c0: 4d3d 40bd a073 243d 7641 083d e59a 333d
000000d0: 6307 9d3c 8834 4d3d 4db2 91ba b469 2dbc
000000e0: 1f95 863b f936 773c b462 613c deb3 dfba
000000f0: 9870 363a cd0a 04bd 0050 4bba 12fd df3c
00000100: 3492 743a 45ab 40bd a7e1 c9bb 3998 6ebc
00000110: f710 0d3d 0d4a 063d 629c f4bc b754 9d3c
00000120: 218a 2f3c 555c 09bd 43ac 91bc 27db be3b
00000130: 1f38 ce3c e629 a1bc 57e3 503c d7ea 833c
00000140: 66cb 23bd 6135 31bc e7ad 633c bf9a bb3c
00000150: 9034 133c 4c33 93bc 59f7 85bc 69f9 b43c
00000160: 636b a63c 35f0 12bc 4ab1 473d 4595 053c
00000170: 75bc 28bd 044b 533a 5475 eabb baf0 23bc
00000180: 24cc 753a 5d5f 66bc d71a c5bc 79b7 f93c
00000190: 6347 063d 056c 01bd 1aec dc3b 5b4c 8b3c
000001a0: 4a22 ffba e74b 8dba bd68 37bc b329 84bb
000001b0: dc9a 20bd cff0 403d 3536 423d 0067 e23c
000001c0: 7abb a0bc 73d0 77bc 2cfc 4e3c 7c14 dc3c
000001d0: ce90 d3bb 5f43 0cbc a56d 3bbd 1364 1ebd

encoder.fc2.weight f4 [84, 120]
0.006317255 -0.004053874 -0.00828823 0.08013945 0.029845646 -0.06837829 -0.06441568 0.021643005
0.055824704 -0.08423018 0.033475395 -0.040741008 0.034564655 -0.047548935 0.076762915 0.08540208
-0.06362499 -0.080737755 0.02635383 0.07283716 0.040047698 -0.04450512 0.07747473 -0.09034978
0.07614226 -0.032888535 -0.006312184 -0.00016238523 -0.025236603 -0.020877851 0.022486849 0.017616088
0.010578066 0.089612156 -0.008979276 -0.056518327 -0.079976335 0.06920312 -0.066053696 0.04605731
-0.053209487 -0.060946334 0.014400409 0.06936586 -0.082204126 0.0599858 -0.090838864 -0.018388087
-0.025879234 -0.06476152 -0.07073686 -0.038057048 -0.07307359 0.0009313808 -0.061019246 -0.042476926
-0.04553456 0.026845427 -0.026198052 0.053009275 0.055635765 -0.067136094 -0.015496624 -0.09099907
0.043696467 -0.019891592 0.023516975 0.0300756 0.08093201 -0.009102659 -0.027004352 0.08614443
-0.0071848007 0.016722359 0.0090209115 -0.048125964 0.05263191 -0.07548237 0.04564743 0.044454288
0.059609458 -0.06450763 0.0640959 0.08433813 -0.0015186206 -0.086412326 -0.0043166806 -0.00049184595
-0.07985887 -0.005655363 -0.030158153 -0.08275717 0.05929819 0.02402865 -0.038894873 0.08284801
0.0046383278 0.0050420165 0.0112392735 -0.07542028 -0.038529295 0.012305072 -0.03375326 0.04749854
0.0024243412 0.01931974 0.08836621 -0.039159942 -0.012296812 -0.053534508 -0.0798837 0.020834116
0.06496436 0.030898038 -0.07174893 0.05909735 -0.08335889 -0.06390875 0.08307482 -0.041898552
-0.048654474 -0.037401706 -0.04380465 0.02461909 -0.048116542 -0.09088422 -0.02859482 0.0083651375
0.005135945 0.0016435734 -0.0920521 -0.025712093 -0.052415214 -0.021968124 -0.052171033 -0.0038276087
-0.017553493 -0.08448757 0.03974919 0.027555436 0.022958519 0.034453996 -0.005492093 0.016704043
-0.08916044 0.058080483 0.07105758 -0.03554128 0.075132065 -0.028852085 0.0358782 -0.03596137
-0.0510722 -0.04808478 0.061084963 -0.02830144 -0.07258861 0.009916126 -0.05758813 -0.057406932
-0.05091631 -0.055473387 -0.058521286 0.034472983 -0.03239867 0.021960702 0.076799065 0.023012096
0.088794544 0.07383185 0.008522563 0.041750833 0.08755433 -0.06695297 -0.05840711 0.06472063
0.0471609 0.026323684 0.014770592 -0.05277342 0.033339847 -0.008586187 0.003719538 0.080760136
0.046416998 0.00078564545 -0.02077534 -0.05727362 0.03843649 0.08720753 -0.04752135 -0.06423593
0.05826586 -0.080339886 0.083336994 0.01095428 0.07962318 0.007669365 0.025904018 -0.08554063
-0.013136599 0.06711137 -0.036154393 0.07435412 -0.013524931 -0.04730012 -0.046056416 -0.07192214
0.026126735 -0.050358843 0.03689245 -0.025009621 0.048039854 0.06388623 -0.068175696 -0.054692913
0.06060448 -0.025906151 -0.075995915 -0.051670413 -0.08832782 -0.057963464 5.4737816e-06 0.063743055
0.015896615 0.0077302116 -0.0034649074 -0.054969747 0.04292015 0.060919832 0.029434118 0.07587141
0.089127995 0.010341301 -0.050989844 0.06531915 0.008325017 -0.019315109 -0.011628602 0.011297505
-0.04242246 0.056091644 -0.069355555 0.0085720485 -0.08989695 0.0363296 -0.041972052 -0.006081419
0.070328094 0.016781844 0.0062530837 0.036455188 0.007347363 0.058973555 0.008404502 0.05906325
00000000: fa00 cf3b 5cd6 84bb 5bcb 07bc 2720 a43d
00000010: db7e f43c eb09 8cbd 5eec 83bd ac4c b13c
00000020: 72a8 643d df80 acbd 7f1d 093d 0be0 26bd
00000030: ab93 0d3d acc2 42bd e035 9d3d 49e7 ae3d
00000040: d24d 82bd d659 a5bd fde3 d73c a62b 953d
00000050: 0e09 243d 004b 36bd 12ab 9e3d 4e09 b9bd
00000060: 79f0 9b3d 21b6 06bd 70d6 cebb f445 2ab9
00000070: febc cebc 0708 abbc 5736 b83c 9d4f 903c
00000080: a04f 2d3c 9486 b73d d01d 13bc c37f 67bd
00000090: a2ca a3bd 5eba 8d3d 2947 87bd 97a6 3c3d
000000a0: 31f2 59bd dda2 79bd b1ef 6b3c b00f 8e3d
000000b0: a35a a8bd acb3 753d ba09 babd 9da2 96bc
000000c0: b000 d4bc b0a1 84bd 7dde 90bd b5e1 1bbd
000000d0: 9ba7 95bd e827 743a 51ef 79bd 49fc 2dbd
000000e0: 7282 3abd f1ea db3c 4c9d d6bc 4120 593d
000000f0: 54e2 633d a67e 89bd 8de5 7dbc b85d babd
00000100: 11fb 323d b1f3 a2bc aca6 c03c 1b61 f63c
00000110: afbf a53d 5223 15bc 3b38 ddbc 7e6c b03d
00000120: 7a6e ebbb 54fd 883c 72cc 133c bb1f 45bd
00000130: 8f94 573d 8096 9abd cdf8 3a3d b315 363d
00000140: 0c29 743d 941c 84bd b644 833d 78b9 ac3d
00000150: 740c c7ba f2f8 b0bd f172 8dbb 39ef 00ba
00000160: 0c8d a3bd a050 b9bb 3b0e f7bc 977c a9bd
00000170: a9e2 723d bbd7 c43c 3b50 1fbd 38ac a93d
00000180: 1dfd 973b 8037 a53b ee24 383c f375 9abd
00000190: e5d0 1dbd 369b 493c dc40 0abd d48d 423d
000001a0: b2e1 1e3b 6e44 9e3c 58f9 b43d 2d66 20bd
000001b0: 9178 49bc 0047 5bbd 119a a3bd 4fac aa3c
000001c0: 090c 853d e21d fd3c 1af1 92bd 1010 723d
000001d0: 11b8 aabd 97e2 82bd 2223 aa3d d19d 2bbd
000001e0: ea49 47bd 8832 19bd 816c 33bd f9ad c93c
000001f0: da15 45bd 8221 babd af3f eabc ee0d 093c
00000200: 6e4b a83b 2c6d d73a d085 bcbd 2ba2 d2bc
00000210: 56b1 56bd 7ff6 b3bc 4bb1 55bd 9ed8 7abb
00000220: 58cc 8fbc d207 adbd 0cd0 223d f0bb e13c
00000230: 8113 bc3c a21f 0d3d 04f7 b3bb ebd6 883c
00000240: c099 b6bd cde5 6d3d a386 913d bc93 11bd
00000250: d7de 993d 355b ecbc 05f5 123d 3b4c 13bd
00000260: 1531 51bd 8cf4 44bd 3a34 7a3d 6cd8 e7bc
00000270: 56a9 94bd 3f77 223c 88e1 6bbd 8823 6bbd
00000280: 9f8d 50bd 1038 63bd 04b4 6fbd 8b33 0d3d
00000290: 78b4 04bd eee6 b33c d448 9d3d dd83 bc3c
000002a0: ead9 b53d 2735 973d 38a2 0b3c ec02 2b3d
000002b0: af4f b33d a41e 89bd 4b3c 6fbd 408c 843d
000002c0: ca2b 413d c4a4 d73c 5a00 723c f128 58bd
000002d0: 5d8f 083d 14ad 0cbc 7ec3 733b 9265 a53d
000002e0: c01f 3e3d c6f3 4d3a 0c31 aabc be97 6abd
000002f0: 956f 1d3d dd99 b23d bfa5 42bd 218e 83bd
00000300: 2fa8 6e3d 3d89 a4bd 96ac aa3d 9579 333c
00000310: 7a11 a33d 4c4f fb3b aa34 d43c ed2f afbd
00000320: e43a 57bc b071 893d a116 14bd f946 983d
00000330: ac97 5dbc c5bd 41bd a7a5 3cbd ea4b 93bd
00000340: bc07 d63c 1345 4ebd 8a1c 173d fae0 ccbc
00000350: 70c5 443d c9d6 823d b39f 8bbd ad05 60bd
00000360: 673c 783d 2339 d4bc bfa3 9bbd 5ba4 53bd
00000370: 37e5 b4bd 196b 6dbd 6dab b736 b88b 823d
00000380: 9e39 823c b74d fd3b 8013 63bb f527 61bd
00000390: 0acd 2f3d 1387 793d d21f f13c 7862 9b3d
000003a0: bd88 b63d 8f6e 293c bada 50bd 0cc6 853d
000003b0: a765 083c b83a 9ebc e485 3ebc 2c19 393c
000003c0: 2cc3 2dbd 5ac0 653d 490a 8ebd c771 0c3c
000003d0: e41b b8bd 59ce 143d e3ea 2bbd a446 c7bb
000003e0: 2d08 903d 147a 893c abe6 cc3b 0952 153d
000003f0: 26c2 f03b 418e 713d 09b3 093c 4eec 713d

encoder.fc2.bias f4 [84]
-0.09030702 0.063696004 0.07347392 0.040047105 0.010427662 0.0064036967 0.011246302 0.06385045
0.063383006 -0.047665894 0.031070154 -0.014494465 0.058620904 -0.04077904 0.05733623 0.024992013
0.013839025 0.0057846205 0.051234804 0.08231233 0.08867025 -0.01622666 0.087921456 0.08232142
0.076039255 0.04093353 -0.09024813 -0.07849199 -0.082921706 -0.054232907 -0.08253383 0.026369236
0.08956538 -0.043344013 0.040859763 0.023821766 0.02334686 0.009848153 0.033108197 0.015064016
0.030302187 0.040972322 -0.088641785 -0.08736821 0.02823271 -0.088686086 0.021543194 0.035412993
-0.07469372 0.06098142 -0.06417313 -0.06300642 0.03920463 0.06651335 -0.0032411166 -0.027196469
0.00433095 -0.042406846 -0.07408872 -0.04230788 -0.019356467 -0.040272515 0.080735266 0.056556597
0.00709048 0.06899818 -0.04767252 0.051843997 -0.059139043 -0.0905842 0.026798032 0.024928667
-0.0051241415 0.040872436 0.0066997344 0.034570888 0.0004797122 -0.08049908 -0.09071093 -0.023305256
0.005993503 -0.066667944 0.030033942 -0.0373738
00000000: e3f2 b8bd 0d73 823d 7f79 963d 6f08 243d
00000010: c9d8 2a3c 1ad6 d13b 6942 383c 06c4 823d
00000020: f3ce 813d 503d 43bd d686 fe3c 317a 6dbc
00000030: 791c 703d ec07 27bd 65d9 6a3d 0dbc cc3c
00000040: 14bd 623c ea8c bd3b 96db 513d 5e93 a83d
00000050: bf98 b53d c6ed 84bc 2a10 b43d 2298 a83d
00000060: 78ba 9b3d eba9 273d 03d4 b8bd 69c0 a0bd
00000070: dbd2 a9bd 5323 5ebd 7f07 a9bd 4c04 d83c
00000080: 0e6e b73d 7e89 31bd 915c 273d dd25 c33c
00000090: ea41 bf3c 265a 213c 769c 073d 10cf 763c
000000a0: 4b3c f83c 98d2 273d d389 b5bd 1bee b2bd
000000b0: 4948 e73c 0da1 b5bd 5a7b b03c 370d 113d
000000c0: 05f9 98bd a7c7 793d 346d 83bd 8309 81bd
000000d0: 0995 203d 2738 883d ea68 54bb 21cb debc
000000e0: a4ea 8d3b cdb2 2dbd d4bb 97bd 074b 2dbd
000000f0: 7491 9ebc cbf4 24bd 8858 a53d e4a7 673d
00000100: 4257 e83b eb4e 8d3d 4344 43bd 5f5a 543d
00000110: c83b 72bd 3684 b9bd 8c87 db3c 3437 cc3c
00000120: 6ae8 a7bb db69 273d 7289 db3b 349a 0d3d
00000130: e281 fb39 b4dc a4bd a7c6 b9bd aaea bebc
00000140: 2665 c43b 3489 88bd be09 f63c 4515 19bd

bottleneck.fc.weight f4 [16, 84]
-0.02123221 0.03966057 -0.015186537 -0.08352462 0.017896654 -0.107427105 0.0922675 -0.065807536
0.055302754 -0.012703664 -0.024829976 0.08059427 -0.07436496 -0.08161777 -0.09903263 -0.06920243
0.09521421 -0.04072446 0.05178781 -0.007205491 -0.046434246 -0.06159266 0.10461228 -0.09248376
0.03561107 -0.0040379423 -0.02753429 0.10027199 0.03539321 -0.1078726 0.0020520568 -0.0047370223
0.08226705 -0.08068192 0.041956984 0.024228795 0.059235334 -0.035399344 0.07773534 -0.03969892
-0.028258195 0.09051219 -0.05151658 0.032062106 -0.048229963 0.048863973 0.10909097 -0.08901109
0.08197865 -0.028335769 -0.05551686 -0.042647686 0.0016780435 0.006874128 0.058066476 0.053198006
-0.06384149 0.06508472 -0.10604748 0.024476184 0.06450511 -0.03029557 -0.06532287 -0.011234763
0.053377133 -0.060281772 0.039161094 0.018580336 -0.056999553 0.022894634 0.01457938 0.07760669
0.0116411345 0.022113476 -0.05256528 -0.097489856 0.072902866 0.012254903 0.027380953 -0.06636482
-0.016035317 -0.008146939 -0.09772446 0.010378516 0.024880474 -0.06657269 0.097224765 0.10857905
0.07664748 -0.07380596 0.06858232 0.029778393 -0.07740694 -0.07963515 0.01938774 0.10246348
0.09842201 0.09424089 -0.020006254 -0.053898305 0.06699695 0.017875701 0.07316891 0.010348938
0.052063335 0.0863631 -0.031611975 -0.059147786 0.029593943 0.006166875 -0.04221833 0.105207935
0.10267368 0.09231576 -0.0069469837 -0.07051805 0.028906273 0.049897507 -0.055095673 -0.06668921
-0.05821806 -0.026705887 -0.03416474 -0.056615077 0.02688023 0.054841574 -0.010250438 0.0050422293
0.035218474 -0.10049933 0.032443095 0.045425598 0.06720755 0.102419786 -0.045506775 -0.07219935
0.04711271 -0.10363378 -0.059221327 0.027899131 0.012684323 0.0032414508 -0.05290923 0.047004443
-0.10346301 0.08211803 0.027319431 -0.10624512 -0.0719766 -0.09294035 -0.08764393 -0.05742484
0.0027377363 0.019049058 -0.06792531 0.058772918 0.009287466 0.029771876 0.08678267 0.04401639
0.06338607 -0.0068090986 0.073310524 0.0725195 0.02566966 0.08887488 -0.08885921 0.072635874
-0.055890076 -0.09291929 0.09679357 -0.038645692 -0.03394624 0.057967946 0.07095492 0.089691736
0.10328808 -0.034838635 -0.04335648 -0.0051503764 0.043256633 0.019606281 0.00049684674 0.07368187
0.03846306 0.015028496 -0.011184068 0.054748848 0.10257692 0.101910956 0.037294187 0.028580833
0.041124687 -0.08913657 0.024009123 -0.05481534 -0.031993177 0.03390209 -0.037258472 -0.08770054
0.016141424 -0.0053672562 0.09611143 0.05168369 -0.007823824 0.05408485 -0.052310158 0.09580904
0.08727615 0.06611862 -0.04569494 0.008549918 -0.0072496207 -0.076659076 -0.055464208 -0.06784032
-0.09213233 0.07727373 0.062266815 -0.009229144 -0.01396215 -0.08968045 -0.037999798 0.07838666
-0.014218248 -0.082111664 -0.00034138947 0.0021714852 0.026748993 0.080147706 -0.04342745 -0.046340704
-0.06380031 0.08630247 0.07072865 -0.019585289 0.04361963 0.0687981 -0.026362792 -0.01011346
0.022569042 -0.105477855 -0.027260583 0.024437385 -0.026209392 -0.030422216 -0.08464228 -0.02564518
-0.08037936 -0.08671873 0.09099064 0.021392262 0.067686774 -0.027453516 -0.076095894 0.08769101
00000000: 2cef adbc 1f73 223d f4d0 78bc f50e abbd
00000010: 019c 923c be02 dcbd bef6 bc3d 1ac6 86bd
00000020: 2485 623d 0723 50bc 3c68 cbbc 9c0e a53d
00000030: a84c 98bd 3827 a7bd 9fd1 cabd 01ba 8dbd
00000040: abff c23d b1ce 26bd 741f 543d 0a1c ecbb
00000050: d631 3ebd 9648 7cbd f73e d63d 2068 bdbd
00000060: eadc 113d b750 84bb 978f e1bc 675b cd3d
00000070: 78f8 103d 4fec dcbd cd7b 063b 0639 9bbb
00000080: a17b a83d 903c a5bd 16db 2b3d 777b c63c
00000090: c0a0 723d e7fe 10bd b533 9f3d 569b 22bd
000000a0: bb7d e7bc 745e b93d 0d03 53bd 8e53 033d
000000b0: c88c 45bd 9725 483d 166b df3d 724b b6bd
000000c0: 6ce4 a73d 6a20 e8bc a665 63bd 57af 2ebd
000000d0: ccf1 db3a 5d40 e13b 1dd7 6d3d 27e6 593d
000000e0: 54bf 82bd 234b 853d 6c2f d9bd 4782 c83c
000000f0: 411b 843d 6a2e f8bc ffc7 85bd 0312 38bc
00000100: fba1 5a3d 05ea 76bd 6267 203d ca35 983c
00000110: 5d78 69bd 878d bb3c 5ade 6e3c 42f0 9e3d
00000120: 75ba 3e3c 5227 b53c b14e 57bd c3a8 c7bd
00000130: 194e 953d cac8 483c 054e e03c 47ea 87bd
00000140: 7f5c 83bc bd7a 05bc c323 c8bd a70a 2a3c
00000150: 23d2 cb3c 4357 88bd c71d c73d b15e de3d
00000160: 5bf9 9c3d 9427 97bd e374 8c3d d1f1 f33c
00000170: 8887 9ebd c117 a3bd 0ad3 9e3c 5fd8 d13d
00000180: 7b91 c93d 5e01 c13d 28e4 a3bc 78c4 5cbd
00000190: b235 893d 1070 923c 95d9 953d 988e 293c
000001a0: 5d40 553d 23df b03d 8f7b 01bd f344 72bd
000001b0: ff6e f23c 7f13 ca3b 21ed 2cbd 4277 d73d
000001c0: 9446 d23d 0c10 bd3d 86a3 e3bb c46b 90bd
000001d0: d9cc ec3c 5461 4c3d 00ac 61bd 5a94 88bd
000001e0: 0f76 6ebd 4ec6 dabc 54f0 0bbd 36e5 67bd
000001f0: ee33 dc3c 8fa1 603d 74f1 27bc 4939 a53b
00000200: 3f41 103d 98d2 cdbd 0de3 043d 3110 3a3d
00000210: 1da4 893d 77c1 d13d 5065 3abd 41dd 93bd
00000220: 42f9 403d f23d d4bd 1092 72bd b88c e43c
00000230: e8d1 4f3c 856e 543b 59b7 58bd bb87 403d
00000240: 6ae4 d3bd 7f2d a83d 00cd df3c 0b97 d9bd
00000250: 7868 93bd 8357 bebd a97e b3bd 4f36 6bbd
00000260: 986b 333b c50c 9c3c 6d1c 8bbd dfbb 703d
00000270: 752a 183c 26e4 f33c 1dbb b13d 884a 343d
00000280: 8ed0 813d dc1e dfbb d423 963d 1b85 943d
00000290: 2e49 d23c 0804 b63d d1fb b5bd 1ec2 943d
000002a0: feec 64bd 784c bebd b53b c63d f24a 1ebd
000002b0: 360b 0bbd cc6f 6d3d d050 913d 4db0 b73d
000002c0: b388 d33d f5b2 0ebd 9096 31bd 7dc4 a8bb
000002d0: de2d 313d 5a9d a03c d23e 023a 85e6 963d
000002e0: 718b 1d3d 153a 763c 623d 37bc 5440 603d
000002f0: d913 d23d b1b6 d03d cac1 183d 5a22 ea3c
00000300: 5c72 283d 3c8d b6bd c8ae c43c 0d86 60bd
00000310: 470b 03bd ebdc 0a3d 579c 18bd 579c b3bd
00000320: 053b 843c cfdf afbb 12d6 c43d 47b2 533d
00000330: 7f2f 00bc 1388 5d3d 2d43 56bd 8837 c43d
00000340: d7bd b23d 3369 873d 9e2a 3bbd f514 0c3c
00000350: 3a8e edbb 6fff 9cbd 702e 63bd deef 8abd
00000360: e0af bcbd b041 9e3d 7d0b 7f3d d635 17bc
00000370: 80c1 64bc 62aa b7bd ada5 1bbd 2f89 a03d
00000380: a8f3 68bc 292a a8bd 85fc b2b9 7a4f 0e3b
00000390: b420 db3c 7b24 a43d fbe0 31bd c0cf 3dbd
000003a0: bda9 82bd 59bf b03d 2fda 903d 5471 a0bc
000003b0: 7faa 323d 05e6 8c3d c8f6 d7bc edb2 25bc
000003c0: b6e2 b83c c604 d8bd 9651 dfbc e930 c83c
000003d0: 14b5 d6bc 0338 f9bc ef58 adbd d715 d2bc
000003e0: ef9d a4bd 9799 b1bd 4d59 ba3d d33e af3c
000003f0: 5d9f 8a3d 32e6 e0bc 2ad8 9bbd 5897 b33d

bottleneck.fc.bias f4 [16]
-0.057092447 -0.032721195 -0.02225118 -0.010810055 -0.073021255 0.0003913616 0.01612868 -0.03185546
-0.057731643 0.08304216 0.045804314 0.02022687 0.010504097 0.054916415 -0.06611849 0.04607657
00000000: c5d9 69bd a906 06bd 1b48 b6bc a81c 31bc
00000010: 2b8c 95bd aa2f cd39 4b20 843c df7a 02bd
00000020: 0478 6cbd 0212 aa3d 4e9d 3b3d d2b2 a53c
00000030: 6019 2c3c 09f0 603d 2269 87bd c9ba 3c3d

decoder.fc3.weight f4 [84, 16]
0.09004167 0.1145449 0.11888156 -0.17205185 0.106224746 -0.20638376 0.03765325 -0.124860615
0.015778154 -0.19442119 0.11401725 0.129459 -0.02868554 -0.076712884 -0.17797643 -0.12947893
0.03082234 -0.07425645 -0.18124136 -0.23622993 -0.0784753 -0.007945508 -0.100298 -0.06624457
0.20324123 -0.13142586 0.17720665 0.029942423 -0.08218229 -0.11117176 -0.09785321 -0.02355892
-0.14965762 0.17977145 0.03237303 -0.13662814 -0.2427369 -0.11060473 0.15357831 -0.07983929
0.09007296 -0.09086443 0.14492248 0.07103157 -0.0010328591 0.00957701 0.2123915 -0.19351363
0.07901728 0.15965083 -0.078738116 0.14159495 0.04035592 -0.06942144 0.12931582 0.03009969
0.048229903 -0.10054622 -0.152034 -0.16592759 0.06925154 -0.054729503 -0.08988729 -0.12492003
-0.11454174 -0.13142842 0.10512927 0.14734167 -0.22788921 -0.0030780137 0.07025319 0.20189285
0.17891946 -0.07920849 0.0012969971 -0.047522604 -0.19601378 0.12026122 0.06339106 -0.11966914
0.08584551 -0.07835513 -0.04355082 -0.112274 0.04777482 -0.03334585 0.06980429 -0.028111756
0.008243561 0.011287903 0.03866438 0.055315543 -0.16260144 -0.16025843 0.08926672 0.22623488
-0.143641 0.20539737 -0.20509419 -0.11471608 -0.0011209846 -0.19529262 -0.058107227 -0.20503503
0.09422356 -0.18787009 0.020320505 0.05353734 -0.07147047 0.24915361 0.24722877 0.21066517
0.24520746 0.009034395 0.051169425 -0.027656436 0.07901728 0.20675725 -0.23081386 -0.009087235
0.24292365 -0.060035437 -0.09250441 0.2108806 0.0027117133 -0.22740528 0.039453357 -0.11211783
-0.12891302 -0.123318166 -0.02984932 -0.06027782 0.16920507 0.16727361 -0.03492713 -0.10241267
0.16379267 0.10085195 0.07100555 -0.13281316 0.018001646 -0.017084837 0.20060804 0.059848666
0.012948364 -0.24770376 -0.09555313 0.09571865 -0.1104095 -0.14866325 -0.23593307 -0.20375061
0.055471092 0.07903716 -0.11289999 -0.19261798 0.20631826 0.18076244 0.19787785 -0.12809524
-0.02678755 0.0012690425 -0.18947822 -0.051870406 -0.15131709 0.21132839 -0.0361301 -0.24988955
-0.10108128 0.13967705 -0.08923152 0.17482981 -0.117669284 -0.09348491 -0.13096303 -0.03448832
0.13808747 0.11758241 0.18059798 0.10584695 -0.11703524 -0.24145341 -0.22668572 -0.058231622
-0.025967926 -0.10674345 -0.16430098 -0.19412728 0.12372312 -0.058677614 -0.12665361 0.001051119
-0.2215681 0.16428226 0.1796883 0.0063873935 0.22129518 -0.20564014 0.0018858477 0.2293432
-0.20161453 -0.121771045 -0.17617416 -0.12780748 0.23818302 -0.042826526 -0.009906948 -0.10624498
-0.13138342 0.06619248 -0.17372417 0.020325491 0.14650553 -0.10122311 0.017153304 0.14141348
0.20757148 -0.04783397 0.17653024 0.18686144 -0.23283029 -0.2039477 0.11337218 0.14640401
0.16242748 0.108049154 -0.107094854 -0.0844052 0.03923163 0.18477258 -0.022435969 -0.20905018
-0.14025792 -0.16568564 -0.10065569 0.20334917 0.05004722 0.09782518 -0.13962775 0.21840413
0.1900363 0.24781284 0.032685496 0.025445525 0.12964138 -0.07872558 -0.13382438 0.10262099
-0.19814974 0.15131967 0.012063451 0.03337246 0.02126968 0.095704824 -0.020930588 0.00502244
00000000: c467 b83d 8496 ea3d 2d78 f33d 5c2e 30be
00000010: 5c8c d93d 4456 53be 4b3a 1a3d ecb6 ffbd
00000020: 3041 813c 5916 47be e081 e93d e690 043e
00000030: f0fd eabc a51b 9dbd 743f 36be 2096 04be
00000040: 227f fc3c c413 98bd 5697 39be 42e6 71be
00000050: a8b7 a0bd e02d 02bc 0a69 cdbd 3cab 87bd
00000060: 781e 503e 8094 06be a975 353e d049 f53c
00000070: 304f a8bd 05ae e3bd 4467 c8bd a3fe c0bc
00000080: d93f 19be 0216 383e 9599 043d 3fe8 0bbe
00000090: 0690 78be bc84 e2bd a243 1d3e c882 a3bd
000000a0: 2c78 b83d 2117 babd 8f66 143e 0079 913d
000000b0: 0061 87ba e4e8 1c3c 287d 593e 7028 46be
000000c0: d0d3 a13d 827b 233e 7341 a1bd 44fe 103e
000000d0: 404c 253d d42c 8ebd 5e6b 043e a093 f63c
000000e0: b88c 453d 2deb cdbd cdae 1bbe ece8 29be
000000f0: c0d3 8d3d 0b2c 60bd d416 b8bd 13d6 ffbd
00000100: dc94 eabd 2c95 06be 044e d73d bce0 163e
00000110: ca5b 69be 80b8 49bb e8e0 8f3d 00bd 4e3e
00000120: aa36 373e 1038 a2bd 0000 aa3a 10a7 42bd
00000130: d6b7 48be 844b f63d 2cd3 813d 1815 f5bd
00000140: c5cf af3d a878 a0bd 5862 32bd e9ef e5bd
00000150: 88af 433d a895 08bd 8df5 8e3d a04a e6bc
00000160: 0010 073c e6f0 383c 8a5e 1e3d 8d92 623d
00000170: fe80 26be c91a 24be 78d1 b63d 1eaa 673e
00000180: a016 13be b053 523e 3604 52be 44f0 eabd
00000190: 00ee 92ba cafa 47be d801 6ebd b4f4 51be
000001a0: 48f8 c03d 0461 40be 3077 a63c f849 5b3d
000001b0: 1c5f 92bd 2022 7f3e 8a29 7d3e 9cb8 573e
000001c0: aa17 7b3e 0005 143c 0897 513d c08f e2bc
000001d0: d0d3 a13d 2cb8 533e 785a 6cbe a0e2 14bc
000001e0: fac0 783e b8e7 75bd f472 bdbd 16f1 573e
000001f0: 00b7 313b eedc 68be d899 213d 089e e5bd
00000200: c601 04be 3c8e fcbd 9086 f4bc e0e5 76bd
00000210: 1844 2d3e c649 2b3e c00f 0fbd bcbd d1bd
00000220: 44b9 273e 788b ce3d 5c6b 913d 2c00 08be
00000230: 3078 933c 80f5 8bbc 326c 4d3e e023 753d
00000240: 6025 543c 0ea6 7dbe 5cb1 c3bd 2408 c43d
00000250: 601e e2bd 2e3b 18be 7098 71be 00a4 50be
00000260: a835 633d 3cde a13d 1c38 e7bd a63d 45be
00000270: 1845 533e ca19 393e 7ea0 4a3e 662b 03be
00000280: 9071 dbbc 0056 a63a 9406 42be 1076 54bd
00000290: def2 1abe 7866 583e 28fd 13bd 0ce3 7fbe
000002a0: b403 cfbd 8007 0f3e 04bf b6bd 9606 333e
000002b0: 98fc f0bd 0475 bfbd 2c1b 06be a043 0dbd
000002c0: cd66 0d3e 0ccf f03d adee 383e 49c6 d83d
000002d0: 2cb0 efbd 903f 77be 4d20 68be 4884 6ebd
000002e0: b0ba d4bc 4f9c dabd 843e 28be 4dc9 46be
000002f0: 8c62 fd3d f057 70bd 7cb1 01be b3c5 893a
00000300: bfe2 62be 9c39 283e 3600 383e 574d d13b
00000310: 349b 623e 5493 52be 8c2e f73a f2d8 6a3e
00000320: 0a74 4ebe 1963 f9bd 0067 34be f7df 02be
00000330: 40e6 733e de6a 2fbd c050 22bc f896 d9bd
00000340: 6089 06be ec8f 873d c0e4 31be a581 a63c
00000350: 8c05 163e 104e cfbd 1685 8c3c b2ce 103e
00000360: 9e8d 543e 8eed 43bd 58c4 343e 9b58 3f3e
00000370: 106b 6ebe aad7 50be ac2f e83d efea 153e
00000380: 6453 263e e048 dd3d 8c54 dbbd a2dc acbd
00000390: 58b1 203d 0635 3d3e a3cb b7bc 4011 56be
000003a0: c69f 0fbe 7fa9 29be 9224 cebd c43a 503e
000003b0: 50fe 4c3d 9158 c83d 94fa 0ebe 55a5 5f3e
000003c0: e098 423e a6c2 7d3e 3ae1 053d 2273 d03c
000003d0: b6c0 043e e03a a1bd 4209 09be f42a d23d
000003e0: c4e7 4abe 8bf3 1a3e c8a5 453c 90b1 083d
000003f0: c03d ae3c e400 c43d a076 abbc 4893 a43b

decoder.fc3.bias f4 [84]
-0.004896692 0.23639038 0.18996698 0.12630408 -0.036554605 0.14328147 -0.099098444 -0.20839816
-0.15508565 -0.20926207 -0.1516518 0.06839429 0.16144629 -0.011391572 0.15018208 0.020397563
-0.18844688 0.15843868 -0.17111006 -0.008267999 0.16184528 0.15952396 -0.08615506 -0.07670379
-0.07183224 0.1392046 -0.05425793 -0.1504178 -0.0050495956 0.21049133 0.12416314 -0.0074990713
-0.016268732 0.15316263 -0.21137273 -0.21400362 0.012549349 -0.044241875 -0.07686618 -0.10437274
0.08711064 0.18837604 -0.08840996 -0.041532427 -0.10830051 -0.22819158 -0.028185695 -0.043013185
0.07969128 -0.17723006 0.13027656 -0.22602117 -0.046678156 -0.16176015 0.021964908 -0.017486932
-0.08936259 0.21449332 -0.22608209 -0.096954316 0.14510125 -0.089356124 0.17780338 -0.23097336
-0.17849943 0.13635966 -0.09652826 -0.15415081 -0.1962204 -0.16862667 0.19829327 -0.05493951
-0.15446815 0.24061282 -0.058838397 0.09769877 0.17900233 -0.20923752 0.23574597 -0.081133276
-0.20154646 0.23067898 0.15163423 0.24108443
00000000: 6e74 a0bb 5210 723e b486 423e db55 013e
00000010: 48ba 15bd 61b8 123e 20f4 cabd 5466 55be
00000020: c6ce 1ebe cc48 56be 9c4a 1bbe 4e12 8c3d
00000030: 2d52 253e b7a3 3abc 55c9 193e ca18 a73c
00000040: 38f8 40be c03d 223e 7a37 2fbe 8076 07bc
00000050: c5ba 253e 405a 233e 1072 b0bd e016 9dbd
00000060: c81c 93bd a78b 0e3e 903d 5ebd 2007 1abe
00000070: 1477 a5bb 0a8b 573e 3f49 fe3d c5ba f5bb
00000080: 0146 85bc aad6 1c3e 1872 58be c423 5bbe
00000090: c99b 4d3c f836 35bd 046c 9dbd 60c1 d5bd
000000a0: 1067 b23d a6e5 403e 4810 b5bd e81d 2abd
000000b0: a8cc ddbd 0eab 69be b0e5 e6bc 982e 30bd
000000c0: 2f35 a33d cc7b 35be 3867 053e 1872 67be
000000d0: 9831 3fbd 74a4 25be c0ef b33c c140 8fbc
000000e0: bc03 b7bd 23a4 5b3e 1082 67be fc8f c6bd
000000f0: 6c95 143e 5800 b7bd 1712 363e 4884 6cbe
00000100: 8ec8 36be dea1 0b3e 9cb0 c5bd b6d9 1dbe
00000110: 00ee 48be 78ac 2cbe 640d 4b3e 4008 61bd
00000120: e62c 1ebe 3563 763e 8800 71bd 4b16 c83d
00000130: 634c 373e 5c42 56be 6467 713e 3429 a6bd
00000140: 3262 4ebe 1c37 6c3e 0146 1b3e d6de 763e

decoder.fc2.weight f4 [120, 84]
-0.10446872 -0.09627274 -0.06034892 0.009824907 -0.108756356 -0.09874814 -0.043030396 0.081428565
0.00057293655 -0.077478334 -0.08135833 -0.06740887 -0.07825065 -0.04479042 0.0574928 -0.00541242
-0.10327701 -0.09397138 -0.098803945 0.10681059 0.09293621 0.102521665 0.059396826 -0.07319296
-0.046812423 -0.02817416 0.037064813 -0.011871788 -0.020581217 0.08890199 0.026840378 0.0028650756
-0.024301503 0.08252085 0.013504557 0.0777585 -0.067831665 -0.014711848 0.0933515 0.07614204
0.10569281 -0.03226391 0.054431677 0.05878988 0.055397835 0.048765406 -0.019898752 0.08725829
0.009827443 -0.024328023 0.025255749 0.030728213 0.08730189 -0.052645646 0.014884961 -0.0008035736
0.02349075 0.037044216 -0.07445713 -0.085864134 -0.0082072895 -0.039127693 0.04853184 -0.026964372
-0.07619438 -0.027653843 -0.023885362 0.032969832 0.1069365 0.079509564 -0.027614819 0.04615324
0.0902549 -0.034527026 -0.09978347 -0.048107516 0.10162515 -0.0523448 0.016843263 0.057488002
-0.07231872 -0.01704157 0.0059784465 0.083765395 -0.055805728 0.091913894 0.025694361 -0.014059154
0.06540622 0.08977279 -0.025401786 0.003154201 0.0140273655 -0.10787555 -0.02325028 0.105197735
-0.05488953 0.042370964 -0.07596329 0.10095276 -0.088110015 -0.033737715 -0.068380274 -0.10268105
-0.08452582 0.043077324 -0.048249595 -0.014867605 0.051901452 -0.028526189 -0.009492584 0.08957916
0.031013519 -0.08746071 -0.08162312 0.051261827 -0.08590747 0.05726094 0.024167597 -0.022684444
0.01867549 -0.0881195 0.08077341 -0.04609601 0.07000285 0.07671051 -0.03232225 -0.09689646
-0.04157111 0.043422773 -0.074668504 0.09876313 -0.07395673 -0.017396063 -0.08614376 0.004563852
-0.056925185 -0.0076444866 0.07484454 0.105950505 0.012500718 0.025042942 0.0017506112 0.10463453
0.03621936 -0.045342878 0.05702755 -0.021915743 0.098946445 -0.05906713 -0.0489038 0.052445643
-0.071848564 -0.099797145 0.018143615 -0.02073483 0.10615781 0.0040845387 -0.0012810268 0.031678673
0.1034001 -0.018954016 -0.043887895 -0.030118963 -0.029720824 0.09081408 0.0152785545 -0.04816409
-0.074527755 0.030413775 -0.09079339 0.07807565 0.06851 -0.06676069 -0.00061050017 0.051779773
-0.055463415 -0.07856068 -0.004824027 0.09161826 -0.07298494 -0.008142075 0.073539235 0.076372795
-0.03431104 0.08377174 -0.043719262 -0.011775616 0.008711473 0.0033429686 0.028796861 0.078315586
-0.029743977 -0.007829261 -0.08490572 0.06942231 -0.07200524 -0.058125414 0.05469063 -0.047590334
0.033145774 0.016519014 -0.03585361 0.031508077 -0.07076122 -0.018490948 0.105230466 0.10314856
0.09033838 -0.098593965 -0.062122937 -0.059382923 0.07049682 -0.0074923723 -0.006570437 -0.08799464
0.03519007 -0.028494257 -0.04602243 -0.042048343 -0.081978425 0.077750266 -0.0014700936 0.0051573263
-0.10583534 -0.08713332 0.086445026 -0.043275744 0.049731422 0.09200874 -0.031184388 0.0011069437
0.022608874 0.041527733 -0.011546839 0.10788517 0.08597672 -0.07155454 0.02230929 0.013093725
0.018172346 -0.05976673 -0.099966414 0.041896332 -0.06376559 0.055685077 0.04150267 0.08096209
-0.043213896 -0.018150548 -0.00932689 0.030792078 -0.04190786 -0.04896263 -0.10537467 -0.100952856
00000000: b2f3 d5bd a42a c5bd 6e30 77bd a6f8 203c
00000010: a7bb debd 773c cabd a440 30bd 05c4 a63d
00000020: 1f31 163a f6ac 9ebd 329f a6bd a90d 8abd
00000030: e041 a0bd 2976 37bd 927d 6b3d ab5a b1bb
00000040: e682 d3bd 1174 c0bd b959 cabd 83bf da3d
00000050: 5755 be3d e1f6 d13d 164a 733d 31e6 95bd
00000060: 62be 3fbd 7fcd e6bc 46d1 173d e381 42bc
00000070: f199 a8bc 3f12 b63d 5ae0 db3c fec3 3b3b
00000080: f213 c7bc b100 a93d 3842 5d3c d93f 9f3d
00000090: 54eb 8abd f709 71bc 122f bf3d 5cf0 9b3d
000000a0: 7975 d83d 2927 04bd c0f3 5e3d a8cd 703d
000000b0: d7e8 623d 3cbe 473d b502 a3bc 79b4 b23d
000000c0: 4903 213c 904b c7bc 25e5 ce3c bcb9 fb3c
000000d0: 55cb b23d f6a2 57bd 0de0 733c e9a6 52ba
000000e0: ac6f c03c adbb 173d fb7c 98bd 89d9 afbd
000000f0: de77 06bc 5c44 20bd 53c9 463d 63e4 dcbc
00000100: cd0b 9cbd 508a e2bc 3cab c3bc 600b 073d
00000110: 8601 db3d e9d5 a23d 7938 e2bc 2e0b 3d3d
00000120: 90d7 b83d 366c 0dbd 475b ccbd 630c 45bd
00000130: d920 d03d 8067 56bd e2fa 893c 8a78 6b3d
00000140: d61b 94bd c39a 8bbc d8e6 c33b 318d ab3d
00000150: 8c94 64bd 5a3d bc3d fb7c d23c 5e58 66bc
00000160: b2f3 853d ccda b73d 6817 d0bc b6b6 4e3b
00000170: 09d3 653c dbed dcbd 5f77 bebc e971 d73d
00000180: d8d3 60bd 2d8d 2d3d a492 9bbd 52c0 ce3d
00000190: 0673 b4bd 8f30 0abd f50a 8cbd 714a d2bd
000001a0: e01b adbd d971 303d 5ea1 45bd 4197 73bc
000001b0: 9e96 543d c1af e9bc c886 1bbc 4775 b73d
000001c0: 1010 fe3c 9a1e b3bd 062a a7bd ecf7 513d
000001d0: 41f0 afbd 738a 6a3d 20fb c53c bad4 b9bc
000001e0: 57fd 983c ff77 b4bd 886c a53d 2bcf 3cbd
000001f0: a75d 8f3d 661a 9d3d 5664 04bd a771 c6bd
00000200: 7846 2abd 14dc 313d cdeb 98bd 5344 ca3d
00000210: a076 97bd 3082 8ebc 246c b0bd 5e8c 953b
00000220: 622a 69bd 9a7e fabb 1848 993d 94fc d83d
00000230: d0cf 4c3c db26 cd3c c474 e53a a14a d63d
00000240: c05a 143d 74b9 39bd b895 693d a588 b3bc
00000250: 6fa4 ca3d 60f0 71bd 5a4f 48bd 3ed1 563d
00000260: 5725 93bd 7262 ccbd eba1 943c 17dc a9bc
00000270: 4469 d93d 98d7 853b 20e8 a7ba 7fc1 013d
00000280: 6ec3 d33d 7445 9bbc cbc3 33bd 0bbc f6bc
00000290: 1679 f3bc bbfc b93d e752 7a3c b547 45bd
000002a0: 02a2 98bd 4f26 f93c e3f1 b9bd 20e6 9f3d
000002b0: f94e 8c3d d4b9 88bd f909 20ba 0717 543d
000002c0: 9b2d 63bd 6ce4 a0bd df12 9ebb 5ba2 bb3d
000002d0: 2179 95bd 5666 05bc bd9b 963d 5769 9c3d
000002e0: bc89 0cbd 8590 ab3d f812 33bd 83ee 40bc
000002f0: 91ba 0e3c b515 5b3b 65e7 eb3c ec63 a03d
00000300: a4a9 f3bc 4d46 00bc 0de3 adbd 492d 8e3d
00000310: 7c77 93bd ea14 6ebd 4803 603d 15ee 42bd
00000320: ddc3 073d e252 873c 3cdb 12bd 9d0e 013d
00000330: 42eb 90bd 547a 97bc 1283 d73d 8d3f d33d
00000340: 5403 b93d a2eb c9bd 9f74 7ebd 823b 73bd
00000350: a360 903d 9382 f5bb d24c d7bb 8936 b4bd
00000360: 7623 103d ca6c e9bc 0482 3cbd e23a 2cbd
00000370: 4ee4 a7bd 883b 9f3d 28b0 c0ba cafe a83b
00000380: 33c0 d8bd f472 b2bd 170a b13d e841 31bd
00000390: 2db3 4b3d 146f bc3d 6776 ffbc de16 913a
000003a0: 3f36 b93c fc18 2a3d f42e 3dbc e6f2 dc3d
000003b0: 9014 b03d 308b 92bd f9c1 b63c 1087 563c
000003c0: 2cde 943c f5cd 74bd 31bb ccbd 7d9b 2b3d
000003d0: 8997 82bd 0916 643d b4fe 293d 74cf a53d
000003e0: 0e01 31bd 75b0 94bc d0cf 18bc ab3f fc3c
000003f0: 94a7 2bbd 0a8d 48bd adce d7bd 5fc0 cebd
