tutorials/W1D2_ComparingTasks/RR/models/ConvNet_classification_10_epoch_9.pth (torch, 251108 bytes, 10 tensors)

ConvNet.conv1.weight f4 [6, 1, 5, 5]
000000 22 e7 24 3e e1 41 32 3e 96 75 1e bd aa 8d 44 3e
       0.16103795 0.17407943 -0.038686357 0.19194666
000010 00 02 12 bd 2c d1 3d 3d b1 ff b6 bd 6a 9c 00 3e
       -0.03564644 0.04634206 -0.08935488 0.12559667
000020 84 f5 3c 3e 64 d3 0d be 45 1a 38 3e ae 13 3a 3d
       0.18453032 -0.1385017 0.17978771 0.045428924
000030 f3 a1 1f 3e 58 a6 10 3d 75 5c d6 3d 48 95 a5 bc
       0.15589122 0.035314888 0.104668535 -0.020212784
000040 b8 00 26 3e 48 27 1a 3d ea 89 ae bd b3 af 72 3d
       0.16211212 0.037635118 -0.08522399 0.05924959
000050 17 15 ac bd 21 86 7e bc ae cf 95 bd f3 35 10 3e
       -0.0840246 -0.0155349085 -0.073150024 0.1408308
000060 94 28 19 be c1 85 ac bd 18 e1 44 bd 2b 9e e4 bd
       -0.14956886 -0.08423949 -0.04806623 -0.11162981
000070 46 f4 e1 3c 38 9e 41 be a2 12 41 3e 77 54 25 be
       0.027582299 -0.18908012 0.18854764 -0.16145502
000080 52 f7 26 3e 4a 88 2b 3d 2e 45 67 bd d8 2c 07 3e
       0.16305283 0.041878022 -0.05646246 0.132007
000090 cb a3 22 3d 22 3e 2e 3e 2d a8 f8 3c ce 19 60 bd
       0.039706986 0.1701589 0.03035363 -0.05471211
0000a0 ea 63 7f 3d d8 ec 3a bd f6 f5 bd 3d 13 90 3f 3e
       0.062351145 -0.045636028 0.09275429 0.18707304
0000b0 50 0f fe 3d b0 56 a1 bd d5 eb fd 3d d2 5b 35 3d
       0.124052644 -0.078778625 0.12398497 0.04427702
0000c0 c7 5f e1 3d 45 2c e8 bd 34 f8 4a be 9b 7f 95 bd
       0.11004596 -0.11336569 -0.19821244 -0.072997294
0000d0 8c 9b 14 be 70 7f 2c 3e 4c e6 7c 3d f5 9a b0 3d
       -0.14512461 0.16845489 0.061743066 0.08623306
0000e0 c1 e1 91 3d d8 c8 14 3b b0 d8 25 3e d1 70 0c be
       0.07123137 0.002270272 0.16195941 -0.13714911
0000f0 61 b2 85 3c 37 46 08 be ea 7e 86 3d 22 98 83 bd
       0.01632041 -0.13308035 0.06567176 -0.064255014
000100 8b 6d 83 3d 6e 1a 21 bd ab 25 2b 3e 4e ce f0 bd
       0.06417378 -0.039331846 0.16713588 -0.117580995
000110 fc 2d f6 bd 0a 01 03 be 65 3e 3b 3e 16 3e 8b 3d
       -0.120204896 -0.12793365 0.1828552 0.06798951
000120 6e c5 43 3e 3a 81 2f be de fa 53 be d9 67 26 be
       0.19118282 -0.1713914 -0.20701167 -0.16250552
000130 06 69 0f be 9e a1 ac 3d fb 55 9e 3d be 92 32 3e
       -0.14004907 0.084292635 0.07731243 0.1743879
000140 77 ba d8 bd 65 ba 03 be fe 60 e9 3d 97 92 95 bd
       -0.1058244 -0.12864073 0.11395453 -0.073033504
000150 72 7c 04 3e cd 31 20 bd 8c e9 fb 3d 8a 7d 16 be
       0.12938097 -0.039109994 0.12300405 -0.14696327
000160 71 d7 bd bd 84 58 8d 3d 19 97 50 3d bd 7b 2d bd
       -0.09269608 0.06901649 0.050925348 -0.042354334
000170 d0 d7 02 3e 95 c5 13 3e 42 55 0c be 10 e2 c8 bd
       0.12777638 0.1443084 -0.13704398 -0.09808743
000180 d2 7a 44 3e ab b3 70 bd ed 8d 7f bd cb f3 3e be
       0.19187477 -0.058765095 -0.06239121 -0.18647687
000190 91 d8 fc bd 4f 15 29 3d e4 11 0f bd 1a 23 1d be
       -0.12345994 0.041280087 -0.03492917 -0.15345421
0001a0 1a c4 a7 ba ff f4 14 be 98 e8 33 be 61 8e ec bd
       -0.0012799532 -0.14546584 -0.17569196 -0.11550594
0001b0 47 bc 38 be d8 38 07 be b9 6f 46 3e 9b 20 02 3d
       -0.18040572 -0.13205278 0.19378556 0.031769376
0001c0 48 7a 65 3d 4d 96 44 be 31 4c 0b be 64 e3 96 bd
       0.05602482 -0.1919796 -0.13603283 -0.0736759
0001d0 a9 e4 b9 3c 26 cc 3c be 90 d0 bb bd 40 ef fd bd
       0.022692041 -0.18437251 -0.091706395 -0.12399149
0001e0 86 ef ef bb 7e f2 a9 bd 90 fc b7 bc 60 11 10 be
       -0.0073222546 -0.08298205 -0.022459298 -0.14069128
0001f0 72 99 0f be f2 7c 00 be 7d 68 9d bd b9 b1 22 be
       -0.14023378 -0.12547663 -0.07685945 -0.15888108
000200 a1 f6 2f 3e d3 27 0f bd 3f 42 27 3e db 4d 5c 3d
       0.17183925 -0.03495009 0.16333865 0.053785186
000210 30 22 28 be c3 cd 12 3e 47 5d 4f bd 36 11 af bd
       -0.16419291 0.14336304 -0.050626066 -0.085482046
000220 0f d5 32 be be 33 4b be bc 4e 7d 3d 11 b2 24 bd
       -0.17464088 -0.19843957 0.061842665 -0.04020888
000230 cd d2 8d 3d 33 fd 2e be bd 0a 19 3e 3b 0a 12 be
       0.06924973 -0.17088775 0.14945503 -0.14261715
000240 59 d8 f2 bc 46 97 2d 3d d5 0a de 3d 2a fa 2d 3e
       -0.029644178 0.042380594 0.1084191 0.16989961
000250 ab 70 43 3e 15 79 19 be
       0.19085948 -0.14987595

ConvNet.conv1.bias f4 [6]
000000 13 0a 6f 3d 36 f1 9e bd 49 48 94 bc 32 f6 10 be
       0.058359217 -0.07760851 -0.018100874 -0.14156416
000010 8d 3f 40 3e 7f 57 0e be
       0.18774243 -0.13900565

ConvNet.conv2.weight f4 [16, 6, 5, 5]
000000 e4 cb 43 3d 31 24 16 3d e6 6e 0f 3d 4c 13 1d bd
       0.047801867 0.03665561 0.03501787 -0.03834848
000010 2e a0 9f 3d 65 2f d0 3c 5b 42 9a 3c b8 c5 81 bd
       0.07794224 0.025413224 0.018830469 -0.0633654
000020 35 b4 2d 3d 2a 47 f8 bb ce 71 0c bd b4 d3 97 3d
       0.042408187 -0.007576843 -0.03428822 0.07413426
000030 e1 c5 ba 3c 48 da 26 bd c3 08 1a bd d7 a5 e7 ba
       0.022799434 -0.040735513 -0.037606012 -0.0017673325
000040 1e dc 42 3d df 7a 98 bc e3 cd 49 bd f0 d2 15 bd
       0.0475732 -0.018613277 -0.049268615 -0.03657812
000050 f0 df 7e bd 1e f0 f6 3c 70 e2 89 3d 98 d1 9a bd
       -0.062225282 0.030143794 0.06732643 -0.07559508
000060 86 c9 27 3c 4d e2 4e 3d af 15 bf 3c 55 c6 a7 bc
       0.010240918 0.050508786 0.02332577 -0.020480314
000070 0a 49 4f 3d 6e 84 42 3d 82 71 05 3d 3b 52 35 bc
       0.050606765 0.047489576 0.032578953 -0.011066969
000080 6f 22 82 bc cb 39 8b 3c 1e 42 bd bb 76 91 e1 bc
       -0.01588556 0.016995331 -0.005775704 -0.027535181
000090 66 6f 5b 3d 04 1c 92 3d cc 51 74 bc dc 6b cd bc
       0.053573035 0.0713425 -0.01491208 -0.025075845
0000a0 70 7a 89 bb de 03 0e bb 47 c6 cf 3c 86 6f 89 3c
       -0.004195504 -0.0021669785 0.0253631 0.016776811
0000b0 a0 8c a9 bd b6 91 b1 bc 90 d0 9d 3d e3 9a 17 3d
       -0.08278775 -0.021675926 0.07705796 0.037012946
0000c0 74 42 ab ba 95 d5 41 bd f2 a9 47 bd 27 d4 84 bd
       -0.0013066069 -0.04732283 -0.048746057 -0.06485777
0000d0 cd bb a9 bc a2 12 14 3d 16 24 78 3d 15 7c 3d 3d
       -0.020719433 0.036150582 0.06058129 0.046260912
0000e0 5c 78 83 bd 48 25 39 bd f3 f5 2a bc c0 77 9d 3d
       -0.06419441 -0.04520157 -0.010434615 0.07688856
0000f0 b8 5f aa 3c bf a9 be bc 56 d7 20 3d f6 01 d4 bc
       0.020797595 -0.0232743 0.03926786 -0.025879841
000100 8c 0b 47 bd 42 2d 8c 3d 9c 9e eb bc f7 14 04 bc
       -0.048594996 0.0684457 -0.028762154 -0.008061639
000110 9a 32 94 bd a7 ac 81 3d b7 95 8e 3d b7 72 1e 3d
       -0.07236214 0.06331759 0.069621496 0.03868362
000120 6c ca 44 bd 61 03 93 bd df ed 7b bd 71 0d 8d 3d
       -0.048044607 -0.07178379 -0.06150615 0.06887329
000130 77 7a 38 3d ab 79 93 3d c8 18 2d 3d fd 8c a9 3c
       0.045038667 0.07200941 0.04225996 0.020697111
000140 da cd 02 3c 6e 3f 75 bd 69 31 90 bd 08 8c ac bd
       0.007983649 -0.059874944 -0.07040674 -0.08425146
000150 a8 a0 df 3c 62 13 01 bd 6c c9 33 bc e5 95 32 bd
       0.027298287 -0.031512626 -0.010973316 -0.04359998
000160 24 32 b4 bc e5 b0 7c bd 5d a1 55 bd be 51 01 3d
       -0.021996565 -0.061692137 -0.05215584 0.031572096
000170 cd e7 8d bc 3c f5 6a 3d 50 12 eb bc 7e 3d 89 bd
       -0.017322445 0.05736278 -0.028695256 -0.06701182
000180 89 6f 32 bc d3 f8 05 bd aa e2 90 bc 6d df a4 bd
       -0.01089085 -0.032708 -0.017686207 -0.080504276
000190 27 32 5e 3d e3 84 46 bd cf 84 4b 3d 26 4b 3c 3d
       0.054247048 -0.048466574 0.049687203 0.045970105
0001a0 ea a7 89 3d 2e 86 5b bd 08 a0 8a 3d a3 fa f3 bc
       0.0672148 -0.05359476 0.06768805 -0.029782599
0001b0 e8 20 20 3d 2f 0b af 3d 47 e0 23 bb 02 d6 08 3c
       0.03909388 0.08547055 -0.0025005506 0.008351805
0001c0 29 80 23 bc ba ed 73 bd f3 6e 43 3d 34 db 93 bd
       -0.009979286 -0.059552886 0.04771323 -0.07219544
0001d0 d6 8a 73 3d f4 15 8f 3d 49 0e b0 3d bd 3c 2f bc
       0.059458576 0.06986609 0.08596475 -0.0106956335
0001e0 2f 72 6f bd 84 0e de 3c ae 88 5c 3d d0 b3 94 bd
       -0.058458503 0.027106531 0.053841285 -0.07260859
0001f0 1e be 21 bc c6 22 26 bd 93 c7 a8 bb 39 92 00 bd
       -0.009871988 -0.040560506 -0.005150744 -0.03138945
000200 3a 3f c9 bc bc bc 8b bc 6d ac 92 bd bb 0f 7e 3d
       -0.024566282 -0.017057769 -0.07161794 0.06202672
000210 7c 7b 8e 3d 4b 1c 75 bc a4 7a 4a bc 2d f7 19 bd
       0.069571465 -0.014960359 -0.012358341 -0.03758924
000220 83 a2 8b bd c0 10 91 bd 12 ab ff 3c b2 8e 59 bd
       -0.06818106 -0.07083273 0.031209502 -0.0531146
000230 40 9c 32 bd 32 55 f2 39 7c d9 a1 bc 87 56 90 bc
       -0.043606043 0.00046221312 -0.019757025 -0.017619384
000240 8a 36 32 3c 38 f6 0e bc ca fb a1 bc bc 66 25 bd
       0.010877261 -0.008725695 -0.019773383 -0.04038118
000250 95 2c 92 bd 8b 74 86 3d 0b da c6 bc fb 84 ed 3c
       -0.071374096 0.065651976 -0.024273893 0.028994074
000260 d8 75 af bc 07 6e 5b 3c 4d b1 a8 3d e4 20 39 3d
       -0.021418497 0.013392932 0.082369424 0.045197383
000270 bb 41 81 bd 76 de 13 3d 24 e8 ae 3d dc 30 f0 3c
       -0.06311365 0.036100827 0.08540371 0.029320173
000280 67 ba 6d 3d fd 7f b5 3d 6b 8c 02 bc bc 90 aa 3c
       0.058039095 0.088623025 -0.007968049 0.020820968
000290 a4 c9 57 bd 49 d5 4a bc 96 b4 8c 3d 1b 75 4d 3d
       -0.052682534 -0.012379953 0.068703815 0.05016051
0002a0 19 f2 48 bd 55 73 76 bd aa df 4e bd a3 9c 98 bd
       -0.049059007 -0.060168583 -0.05050627 -0.07451751
0002b0 be 7b 6b bd 71 24 92 bc ae b9 73 3d dc 52 b3 3c
       -0.057491057 -0.017839642 0.05950325 0.021890096
0002c0 c7 77 62 bd 3f 3d 6b bd c8 17 47 3d 26 fb 58 bd
       -0.05529001 -0.057431456 0.048606664 -0.05297389
0002d0 bc e0 94 bb 6e 6a 40 3d 4c 4c 0c bd af d9 da bb
       -0.004543392 0.0469765 -0.03425245 -0.006678782
0002e0 d1 0c 3d bb 06 98 59 bc 12 95 09 bd ca 7f 8d bd
       -0.002884675 -0.013280874 -0.03358943 -0.069091395
0002f0 38 a5 84 bd 6a 5f 1f bd 02 44 a5 3d e1 5f 13 bd
       -0.064768255 -0.038909353 0.08069612 -0.03598011
000300 7e 3f 4a bd 2a 22 b1 3c e5 ea e8 3c 0d c4 47 3d
       -0.049376957 0.021622736 0.028432319 0.048770953
000310 a9 28 89 3d 7d b5 39 3d bb 86 ad bd a4 27 d4 3b
       0.066972084 0.045339096 -0.084729634 0.006474452
000320 09 18 47 3d 80 74 16 b7 f4 84 40 bd 9d 19 a4 3d
       0.048606906 -8.9678215e-06 -0.047001794 0.08012698
000330 30 dd df bc d0 4c 47 bd 0a 75 89 bd 52 12 43 3c
       -0.02732715 -0.04865724 -0.067117766 0.011906223
000340 5e 11 2d 3d 02 f1 9d 3c 8e da 8a 3c 72 54 60 bd
       0.04225289 0.01927996 0.016949918 -0.054768033
000350 0e 4f 8b bd 0f a6 8a bb ed a4 90 3d 9d 77 48 3d
       -0.06802188 -0.0042312215 0.07062707 0.048942197
000360 21 a2 29 bd 85 45 94 bb 28 40 69 bd 24 3c 01 bd
       -0.041414384 -0.004524889 -0.05694595 -0.031551495
000370 fa 21 83 3c 38 df 3a 3d 70 60 97 3d d6 6c 92 bd
       0.016007412 0.045623034 0.07391441 -0.07149665
000380 e9 dd 56 3d 94 02 78 bd cd b2 03 3d 09 9e 8d 3d
       0.052457724 -0.060549334 0.03215294 0.069149084
000390 e6 50 5b 3a 6f e8 95 3d 24 bb 7b bd d2 79 ba bc
       0.0008366242 0.07319724 -0.061457768 -0.022763167
0003a0 44 e5 65 3d 99 42 bb bc 85 a7 cc bc 7b f7 e6 bc
       0.056126848 -0.022858905 -0.024982223 -0.02819418
0003b0 67 27 85 3d 55 bc 43 3d 93 32 a9 3c 2b 1f 59 bd
       0.06501656 0.04778703 0.020653998 -0.05300824
0003c0 11 29 6d bd 6f 90 3c 3c 9a ac c2 3c f8 c8 24 bd
       -0.057900492 0.011509045 0.023763943 -0.04023072
0003d0 3f 31 b3 bc 5d 88 7f 3d 9f 8b bc 3b 48 6d d9 3b
       -0.021874068 0.062385906 0.005753949 0.006635342
0003e0 70 c6 4b bc b1 95 99 bd 2e a1 a6 bd c3 1a 41 bd
       -0.012437448 -0.074992545 -0.08136211 -0.047144663
0003f0 cb f5 3a bd e0 22 d1 3c d1 89 cc bc bf 7b 1e bd
       -0.045644563 0.025529325 -0.02496806 -0.038692232

ConvNet.conv2.bias f4 [16]
000000 52 80 a5 3b 68 38 19 3d a1 62 32 3d bc 7b c1 3b
       0.0050506974 0.03740731 0.04355109 0.005904643
000010 1d f7 0e bd 5d 01 87 3d 14 21 64 3d d1 c1 85 3c
       -0.034903634 0.06592057 0.05569561 0.01632777
000020 b9 de ed bc d0 e9 d5 3c fb cc 08 3c 84 2e a0 3d
       -0.029036867 0.026112467 0.008349652 0.07821372
000030 29 27 62 3c 13 41 74 3c c7 2a 3b 3c f4 ff 54 3d
       0.013803282 0.014908093 0.011423773 0.05200191

ConvNet.fc1.weight f4 [120, 400]
000000 1b d1 04 bc ce aa 2d 3d 9a a5 09 3d ac ed ef bc
       -0.008106495 0.04239922 0.033605196 -0.029288135
000010 52 0f 35 3b 86 5b 2f bd 73 e0 f0 bc 48 ec f8 3b
       0.002762754 -0.042811893 -0.0294039 0.0075965263
000020 02 bd a5 3c 0c 0d 22 bb f0 ef 41 3d f8 72 0d bd
       0.020231728 -0.0024727015 0.047347963 -0.03453347
000030 f1 eb d0 bc 89 80 8c 3a b2 c2 c3 ba e8 b6 9b 3a
       -0.02550313 0.0010719459 -0.0014935343 0.0011880072
000040 a5 ff 17 3d b1 59 b1 bc 05 ed 8c bc 2b 63 4a 3c
       0.037109036 -0.021649214 -0.017202863 0.012352745
000050 6d 8c 1d 3d ea 66 bd 3b 92 57 94 3c 6c de ef 3a
       0.038464 0.0057800906 0.018108163 0.001830054
000060 92 18 4a 3d a4 26 eb 3c c7 cf 12 3d cc 9c 86 bb
       0.04933984 0.028704949 0.035842683 -0.004108047
000070 07 e9 04 bd b0 0d 70 bc 3b 0b 8b 3c 46 97 0f 3d
       -0.032448795 -0.014651701 0.016973129 0.035056375
000080 df 20 a6 bc 20 88 4e 3d f7 3f 85 3c d7 f1 0e 3c
       -0.020279346 0.050422788 0.016265852 0.008724651
000090 24 24 e4 bb d4 da 91 bc 01 04 31 3d 23 d1 23 3c
       -0.006962316 -0.01780454 0.04321671 0.009998593
0000a0 9b a3 22 3d 99 0d 08 bd 39 4e 8e bc 2c 49 5a 3b
       0.039706808 -0.033216093 -0.017371284 0.0033307774
0000b0 e2 64 01 3d 17 6e 01 3d 64 4f f0 3b 25 06 6c bd
       0.03159035 0.03159913 0.007333683 -0.057623047
0000c0 f3 4d 01 bc 78 96 2b bd 94 f1 14 bd 25 d0 79 3c
       -0.00789212 -0.041891545 -0.0363632 0.015247379
0000d0 b2 e7 be bc 3b 11 5c 3d 0a 85 96 bc 89 a0 c7 3c
       -0.02330384 0.05372737 -0.018373985 0.024368541
0000e0 70 12 ed 3c a0 08 37 bd 2d b9 8a 3c b4 13 80 bc
       0.028939456 -0.04468596 0.016934002 -0.015634395
0000f0 03 ef c4 3c ee 87 65 3d 1c 8f 4b bc 0c fc 8d bc
       0.02403975 0.056037836 -0.012424257 -0.0173321
000100 8f ca 01 3d a0 68 2a b9 21 98 a0 bb 2e e4 3a 3d
       0.031687316 -0.00016251439 -0.0049009477 0.045627765
000110 1a cb c9 bc 24 f0 33 bc 1f 8a 15 3d 83 2d 5c 3c
       -0.02463298 -0.010982547 0.036508676 0.013438585
000120 d3 61 03 bd 6f e8 7e 3c 21 59 07 bd a9 28 e2 bc
       -0.032075714 0.015558346 -0.033043984 -0.027607279
000130 d3 28 16 3d 88 1d 8f bb 63 c7 0b bd 49 f7 09 3c
       0.036660027 -0.004367534 -0.034125697 0.008420774
000140 1c 78 8b 3c 45 52 bd bc c2 f0 cc bc 93 ed 21 bd
       0.017025046 -0.023110518 -0.025017146 -0.03953321
000150 42 88 b2 3c ec 48 dd bc 18 5e fc 3b d4 cf a2 bc
       0.021793488 -0.02701231 0.0077016465 -0.01987449
000160 98 3a 25 bd 07 55 77 bc 43 ad f4 bc f2 bc 8f bc
       -0.040339082 -0.015095956 -0.029867774 -0.01754615
000170 e2 4c f3 3b dc 18 12 bd 1a 73 58 bd 5a 1f fd 3c
       0.0074249366 -0.03566824 -0.052844144 0.030898739
000180 1a ad 57 3c 77 bb 6d bc da 0e e8 3b 69 81 05 3d
       0.013163829 -0.014510027 0.0070818486 0.03259412
000190 14 9c 0d bd a1 69 a4 bc 8b df e6 bc 01 49 a8 3b
       -0.034572676 -0.020069899 -0.028182765 0.005135656
0001a0 9c ea e8 3b 35 6f 09 bd b6 ef 0d 3d 36 85 05 bd
       0.0071080457 -0.03355332 0.034652434 -0.032597743
0001b0 e7 a5 48 3d 4c 73 d6 bc a5 31 8e bb 8a 82 d8 3b
       0.04898634 -0.026178025 -0.004339414 0.0066073583
0001c0 78 8d bc bc 06 2c 60 3d b2 2f d0 bc 17 65 c4 3b
       -0.023016676 0.054729484 -0.025413368 0.005993496
0001d0 c0 0b fa bc 9f ae 78 3c 49 64 52 3d f6 ef 62 3d
       -0.030523181 0.015178352 0.05136517 0.055404626
0001e0 b6 cd 73 3c e4 9b 86 bc b3 69 32 3d 1a de 48 3c
       0.014880588 -0.016431756 0.043557834 0.012259984
0001f0 cd bf 2e 3d 56 89 b4 bc d6 78 b0 bc 64 f0 0a bd
       0.042663384 -0.022038143 -0.021541994 -0.03392066
000200 a6 1b 54 3d f8 02 07 3c bf 16 13 bd d5 9a 55 3c
       0.05178418 0.008240454 -0.035910364 0.013037403
000210 b6 1b 85 bc 6d c1 7d 3b 2a 2d 8f 3c 77 41 86 bc
       -0.016248565 0.0038720027 0.01747759 -0.016388638
000220 06 47 3e 3c 08 05 f0 bc 74 54 97 3c 9a 22 68 bd
       0.011613613 -0.029299274 0.018472888 -0.056673624
000230 ac 7f 26 3c 73 fe 52 3d 7c f2 48 3d dd 3e dc 3c
       0.010162275 0.051512193 0.049059376 0.026885444
000240 95 e8 ed 3c a7 84 40 3d 12 d1 ae 3b b8 68 b6 3c
       0.029041568 0.047001507 0.0053349817 0.02226673
000250 f4 b5 fd 3b 18 44 17 3d af fb 4a 3d fa c6 76 bc
       0.007742638 0.036930174 0.04955643 -0.015062088
000260 a2 7f 9c 3b 9d 22 87 bc 01 ce d8 3c 0d ec 24 bd
       0.004775957 -0.016495997 0.026465418 -0.040264178
000270 50 2e 97 3c da ff 8d bc 17 26 25 3c 5c 6d 05 3c
       0.0184547 -0.017333914 0.010079882 0.008143749
000280 ce 3f 8d bc ad 40 07 3d be da f4 3c 09 55 09 bd
       -0.017242339 0.033020664 0.02988946 -0.03352836
000290 62 5b 6e 3d 11 e3 41 3d 2c 6a 15 3d c7 3b 07 3b
       0.05819262 0.047335688 0.036478207 0.0020634995
0002a0 9e d9 d6 3c 36 a2 9a bc f5 b7 38 bc 65 ea ab 3c
       0.026226815 -0.018876176 -0.0112743275 0.020985791
0002b0 43 9e 8e 3c b9 b6 9a 3c 0c 7a 34 bd 5d 7f 44 3d
       0.01740945 0.018885957 -0.044061705 0.047973026
0002c0 b8 8e b3 bc 9b aa 42 3d 20 38 21 3d 38 0c e0 3c
       -0.02191864 0.047525983 0.039360166 0.027349576
0002d0 2c ab 6f 3d bc 0e 19 3d 5e 26 10 3d a1 51 96 bc
       0.05851285 0.037367567 0.03519284 -0.01834947
0002e0 a6 f2 55 3d 97 ad 8f 3c 85 d0 f3 3c 4e 6d 30 bc
       0.05223336 0.017538829 0.029762516 -0.010768248
0002f0 57 a9 03 3d f9 9c 16 3d 12 be 20 bd 9c 67 42 3d
       0.032143917 0.036770795 -0.039243765 0.04746209
000300 be b0 d0 bc a7 c8 e6 bc 9b aa 48 bd 5d fa 40 3c
       -0.025474902 -0.02817185 -0.048990827 0.011778441
000310 12 fb 0b bd 42 50 9d bc 98 c4 de bc c6 81 2f 3c
       -0.034174986 -0.019203309 -0.027193353 0.010712093
000320 b3 ec 2f bd 4b e4 a8 bc a5 8e 0f 3c 62 fd 5a 3c
       -0.042950343 -0.020616671 0.008762036 0.013366075
000330 64 27 5e bc a7 48 db 3c 96 56 d3 bc 77 7a 4c bd
       -0.013559196 0.026768042 -0.025798123 -0.04992148
000340 96 82 67 bc 24 43 0e bd 13 ce 23 3d 76 f3 cd bc
       -0.014130255 -0.034732 0.03999145 -0.025140505
000350 60 35 93 3b 83 ad ef 3c 3c 10 10 bd 4b 05 f7 3c
       0.004492447 0.029257542 -0.035171732 0.030153891
000360 31 7b a8 bc 80 ac b3 bc f7 d1 20 bd 74 97 e1 bc
       -0.020566555 -0.02193284 -0.039262738 -0.027538039
000370 73 db 75 bc 98 44 12 bd 38 49 d0 3c 52 89 03 3c
       -0.015005934 -0.035709947 0.025425538 0.008028345
000380 f9 64 69 3d 34 42 19 3d 02 25 50 3d 14 3d ab 3c
       0.05698106 0.03741665 0.050816543 0.020903148
000390 c2 27 07 3d 10 04 47 3d 9f 7b 43 3d ce 8c 07 bd
       0.0329969 0.04858786 0.047725316 -0.033093266
0003a0 42 57 ce bb a8 8a 37 bd 02 e8 93 3a dd a8 ac bc
       -0.006297023 -0.044809967 0.0011284354 -0.021076614
0003b0 94 dd 33 3d 19 f6 7b 3c 23 3e 02 3c 6c 74 00 bd
       0.043912485 0.0153784985 0.007949385 -0.03136103
0003c0 78 29 3c bd 3f c5 97 3b d2 ff b0 bc 97 c2 9a bc
       -0.045937985 0.004631668 -0.02160636 -0.018891616
0003d0 cb 52 1f 3d 29 e8 fd bc fc 71 cd bc af 3e 13 3d
       0.038897317 -0.030994492 -0.025078766 0.03594845
0003e0 5e 29 99 3c 3d 1c c8 bc 45 06 a1 3c 8d 5b 0a 3d
       0.018696483 -0.024427528 0.01965631 0.033778716
0003f0 ed f1 4c bd e6 1c ac 3a b4 d1 48 3b 63 6e 31 bc
       -0.050035406 0.0013131171 0.003064257 -0.010829541

ConvNet.fc1.bias f4 [120]
000000 00 92 b3 bc c1 96 be 3c 4d ab 5a bc 93 cd db 3c
       -0.021920204 0.023265244 -0.013346505 0.026831424
000010 23 00 be 3c 7a 6c 26 3d 36 2a 2a bb 45 a2 b1 bc
       0.023193425 0.040630795 -0.00259651 -0.021683821
000020 8d fd d6 3b d9 29 bc bc c3 bf c9 3c 1a 72 21 bb
       0.0065609873 -0.022969173 0.024627572 -0.002463466
000030 22 8b 83 3b b2 38 31 3d 62 75 16 bd 04 cf 30 3d
       0.0040143887 0.04326696 -0.03673304 0.043166175
000040 70 d6 d4 3c 65 9a fe bc 2a 6e 47 3d 40 20 57 bc
       0.025981158 -0.03107948 0.048689045 -0.013130248
000050 a3 05 02 bd 50 6e 03 bc ff 67 56 3b 88 5e 43 bd
       -0.031743657 -0.008021906 0.0032715795 -0.047697574
000060 e2 d0 3e 3c 20 30 0c 3d b9 ff 2a bd 7d 4a d5 3c
       0.011646481 0.034225583 -0.041747782 0.026036495
000070 00 e9 93 3c 64 18 41 3d e0 5e 69 3d d8 90 3b bc
       0.018055439 0.0471424 0.056975245 -0.011448108
000080 6d 37 88 bc 26 ee 37 bd d4 a8 b8 bc 04 46 ac 3b
       -0.016627992 -0.04490485 -0.022541441 0.00525737
000090 7f 69 0b 3d 91 5a 2b 3d 52 bf 93 3c 4d ba a3 bb
       0.034036156 0.041834418 0.018035565 -0.004996574
0000a0 80 7d 51 3c 56 54 13 3d 4d 1e 0b 3d 03 96 06 3d
       0.012786269 0.0359691 0.033964444 0.032857906
0000b0 f3 08 e3 bc 27 55 bd bc 5a 95 45 bc 6f 21 1b 39
       -0.027714228 -0.023111893 -0.012059534 0.00014794407
0000c0 98 49 1f bd fc 40 1b 3d 21 a6 e7 3c 0a dd 38 3d
       -0.038888544 0.03790377 0.028277459 0.045132674
0000d0 af 4b dd 3c af 70 65 3d 6a 61 bf 3a 3c 6b 3f bb
       0.027013628 0.056015667 0.0014601175 -0.0029208204
0000e0 b3 b5 a6 3b ae 75 9f 3c c0 53 71 3c 5d 94 db bb
       0.005087578 0.019465294 0.01472944 -0.006701036
0000f0 bc dc 0c 3c 1e 7a 01 bd 00 50 4b ba 2a c0 0a 3d
       0.008597549 -0.0316106 -0.00077557564 0.03387467
000100 0e 69 71 3b 45 ab 40 bd 4a 14 2b bc 3e 37 da bb
       0.00368363 -0.047038335 -0.010441849 -0.0066594174
000110 f7 10 0d 3d 66 23 1d 3d 9b f8 e4 bc df bc 98 3c
       0.034440007 0.038363837 -0.027950576 0.018644748
000120 9b 72 dc 3b df 8b 13 bd 43 ac 91 bc 6f 3e 8e b9
       0.006727529 -0.036022063 -0.017782336 -0.00027130867
000130 ec 7f a5 3c e1 eb 94 bc 65 5c b3 3c d7 ea 83 3c
       0.0202026 -0.018178882 0.021894643 0.016103191
000140 cc d0 36 bd 0b 04 9b bb e7 ad 63 3c 32 6c f2 3c
       -0.044632718 -0.0047307066 0.013896442 0.029592607
000150 07 fb 02 3c a2 a2 d0 bc be a1 64 bc fa 4c db 3c
       0.00799442 -0.025468174 -0.013954578 0.026770104
000160 08 f0 a2 3c 4a 5b 2e bc 86 c7 5f 3d 0b d7 09 3c
       0.019889846 -0.010641882 0.05463364 0.008413087
000170 75 bc 28 bd a7 73 01 3c 61 2a b7 3a ba f0 23 bc
       -0.04119535 0.007901109 0.0013974422 -0.010006124
000180 b7 55 67 3b 28 1e d0 bb d7 1a c5 bc 46 c7 d7 3c
       0.0035298893 -0.006351251 -0.02406065 0.026340138
000190 08 cc 23 3d f2 d9 e7 bc 1a ec dc 3b 1b c7 8d 3c
       0.0399895 -0.028302167 0.0067420127 0.017306855
0001a0 65 94 c2 3b 31 bc ef 3b 76 57 a8 ba b3 29 84 bb
       0.0059381 0.0073161353 -0.0012843448 -0.0040332912
0001b0 f7 81 24 bd 08 2a 4f 3d 49 8e 53 3d 00 67 e2 3c
       -0.040163007 0.050577193 0.051649366 0.027637005
0001c0 7a bb a0 bc 73 d0 77 bc 99 23 85 3c ae 30 09 3d
       -0.019620646 -0.015125382 0.016252326 0.03349369
0001d0 8b ec f1 bb 4d 1d 59 bc e1 e7 13 bd 53 57 00 bd
       -0.0073829344 -0.013251615 -0.03610981 -0.03133328

ConvNet.fc2.weight f4 [84, 120]
000000 fa 00 cf 3b 5c d6 84 bb 5b cb 07 bc 27 20 a4 3d
       0.006317255 -0.004053874 -0.00828823 0.08013945
000010 db 7e f4 3c eb 09 8c bd 5e ec 83 bd ac 4c b1 3c
       0.029845646 -0.06837829 -0.06441568 0.021643005
000020 72 a8 64 3d df 80 ac bd 7f 1d 09 3d 0b e0 26 bd
       0.055824704 -0.08423018 0.033475395 -0.040741008
000030 ab 93 0d 3d ac c2 42 bd e0 35 9d 3d 49 e7 ae 3d
       0.034564655 -0.047548935 0.076762915 0.08540208
000040 d2 4d 82 bd d6 59 a5 bd fd e3 d7 3c a6 2b 95 3d
       -0.06362499 -0.080737755 0.02635383 0.07283716
000050 0e 09 24 3d 00 4b 36 bd 12 ab 9e 3d 4e 09 b9 bd
       0.040047698 -0.04450512 0.07747473 -0.09034978
000060 79 f0 9b 3d 21 b6 06 bd 70 d6 ce bb f4 45 2a b9
       0.07614226 -0.032888535 -0.006312184 -0.00016238523
000070 fe bc ce bc 07 08 ab bc 57 36 b8 3c 9d 4f 90 3c
       -0.025236603 -0.020877851 0.022486849 0.017616088
000080 a0 4f 2d 3c 94 86 b7 3d d0 1d 13 bc c3 7f 67 bd
       0.010578066 0.089612156 -0.008979276 -0.056518327
000090 a2 ca a3 bd 5e ba 8d 3d 29 47 87 bd 97 a6 3c 3d
       -0.079976335 0.06920312 -0.066053696 0.04605731
0000a0 31 f2 59 bd dd a2 79 bd b1 ef 6b 3c b0 0f 8e 3d
       -0.053209487 -0.060946334 0.014400409 0.06936586
0000b0 a3 5a a8 bd ac b3 75 3d ba 09 ba bd 9d a2 96 bc
       -0.082204126 0.0599858 -0.090838864 -0.018388087
0000c0 b0 00 d4 bc b0 a1 84 bd 7d de 90 bd b5 e1 1b bd
       -0.025879234 -0.06476152 -0.07073686 -0.038057048
0000d0 9b a7 95 bd e8 27 74 3a 51 ef 79 bd 49 fc 2d bd
       -0.07307359 0.0009313808 -0.061019246 -0.042476926
0000e0 72 82 3a bd f1 ea db 3c 4c 9d d6 bc 41 20 59 3d
       -0.04553456 0.026845427 -0.026198052 0.053009275
0000f0 54 e2 63 3d a6 7e 89 bd 8d e5 7d bc b8 5d ba bd
       0.055635765 -0.067136094 -0.015496624 -0.09099907
000100 11 fb 32 3d b1 f3 a2 bc ac a6 c0 3c 1b 61 f6 3c
       0.043696467 -0.019891592 0.023516975 0.0300756
000110 af bf a5 3d 52 23 15 bc 3b 38 dd bc 7e 6c b0 3d
       0.08093201 -0.009102659 -0.027004352 0.08614443
000120 7a 6e eb bb 54 fd 88 3c 72 cc 13 3c bb 1f 45 bd
       -0.0071848007 0.016722359 0.0090209115 -0.048125964
000130 8f 94 57 3d 80 96 9a bd cd f8 3a 3d b3 15 36 3d
       0.05263191 -0.07548237 0.04564743 0.044454288
000140 0c 29 74 3d 94 1c 84 bd b6 44 83 3d 78 b9 ac 3d
       0.059609458 -0.06450763 0.0640959 0.08433813
000150 74 0c c7 ba f2 f8 b0 bd f1 72 8d bb 39 ef 00 ba
       -0.0015186206 -0.086412326 -0.0043166806 -0.00049184595
000160 0c 8d a3 bd a0 50 b9 bb 3b 0e f7 bc 97 7c a9 bd
       -0.07985887 -0.005655363 -0.030158153 -0.08275717
000170 a9 e2 72 3d bb d7 c4 3c 3b 50 1f bd 38 ac a9 3d
       0.05929819 0.02402865 -0.038894873 0.08284801
000180 1d fd 97 3b 80 37 a5 3b ee 24 38 3c f3 75 9a bd
       0.0046383278 0.0050420165 0.0112392735 -0.07542028
000190 e5 d0 1d bd 36 9b 49 3c dc 40 0a bd d4 8d 42 3d
       -0.038529295 0.012305072 -0.03375326 0.04749854
0001a0 b2 e1 1e 3b 6e 44 9e 3c 58 f9 b4 3d 2d 66 20 bd
       0.0024243412 0.01931974 0.08836621 -0.039159942
0001b0 91 78 49 bc 00 47 5b bd 11 9a a3 bd 4f ac aa 3c
       -0.012296812 -0.053534508 -0.0798837 0.020834116
0001c0 09 0c 85 3d e2 1d fd 3c 1a f1 92 bd 10 10 72 3d
       0.06496436 0.030898038 -0.07174893 0.05909735
0001d0 11 b8 aa bd 97 e2 82 bd 22 23 aa 3d d1 9d 2b bd
       -0.08335889 -0.06390875 0.08307482 -0.041898552
0001e0 aa 90 1e bd 8f 88 3d bd 81 6c 33 bd 7b 78 02 3d
       -0.03871218 -0.04627281 -0.04380465 0.03185318
0001f0 da 15 45 bd c0 c5 c2 bd 0f 21 9f bc d0 3f 93 3c
       -0.048116542 -0.09510374 -0.019424943 0.017974764
000200 36 79 c0 3b c5 b0 4b bb 76 c7 ca bd 2b a2 d2 bc
       0.0058738245 -0.0031080705 -0.099013254 -0.025712093
000210 57 6b 73 bd bc 38 93 bc e6 b9 51 bd be dd 9d bb
       -0.05942854 -0.017971389 -0.051202677 -0.0048176935
000220 e0 28 45 bc cd a5 9e bd 7b 59 1a 3d f1 e2 10 3d
       -0.012033671 -0.07746468 0.03768299 0.03537268
000230 5a 82 76 3c e5 e1 e7 3c 4f 83 09 bc 3f c7 5d 3c
       0.015045727 0.028305957 -0.008393123 0.0135362735
000240 b4 49 b5 bd 30 a6 80 3d 58 d0 a5 3d 51 5a 14 bd
       -0.088519484 0.06281698 0.08096379 -0.036218945
000250 9c b7 ab 3d aa 81 16 bd 2d e2 f4 3c d6 db f3 bc
       0.0838463 -0.03674475 0.029893005 -0.029767912
000260 15 31 51 bd 80 61 1e bd a2 ae 6d 3d ce d9 03 bd
       -0.0510722 -0.038667202 0.05802787 -0.032190137
000270 00 9b 94 bd 37 45 2b 3b 5e 7d 78 bd 88 23 6b bd
       -0.072561264 0.0026133785 -0.060666434 -0.057406932
000280 9f 8d 50 bd 17 c1 40 bd c7 5a 5f bd 8b 33 0d 3d
       -0.05091631 -0.047059145 -0.05452993 0.034472983
000290 78 b4 04 bd ee e6 b3 3c db 6a a7 3d f9 d1 9c 3c
       -0.03239867 0.021960702 0.08174678 0.019143092
0002a0 fe cc c8 3d 6e e6 a1 3d 51 4a 6f 3b 8d 57 53 3d
       0.09804724 0.07905279 0.0036512802 0.051597167
0002b0 f9 bf c2 3d b3 09 91 bd 25 e0 85 bd ba 7a 85 3d
       0.09509272 -0.07081928 -0.06536893 0.06517549
0002c0 cb 81 3d 3d 2f b9 da 3c 5a 00 72 3c be d6 43 bd
       0.04626636 0.02669963 0.014770592 -0.047812216
0002d0 88 8a 30 3d f5 f3 5d bc 7e c3 73 3b e9 82 b8 3d
       0.043100864 -0.013546933 0.003719538 0.09009344
0002e0 0d 9d 3d 3d c6 f3 4d 3a b5 05 8f bc 6f ed 45 bd
       0.046292353 0.00078564545 -0.017458776 -0.048322137
0002f0 95 6f 1d 3d 56 82 a8 3d f7 1d 1b bd 9e 4e 81 bd
       0.03843649 0.082279846 -0.037870374 -0.06313823
000300 99 6a 5e 3d af 77 91 bd 96 ac aa 3d 19 10 f8 3b
       0.05430088 -0.07102906 0.083336994 0.0075702784
000310 46 e1 9a 3d a1 44 80 3c 39 1e 11 3d ed 2f af bd
       0.07562499 0.015657725 0.035429213 -0.08554063
000320 06 c2 29 bc 32 46 9c 3d a1 16 14 bd 4c 54 88 3d
       -0.0103612 0.07630576 -0.036154393 0.06656703
000330 ac 97 5d bc bc 1a 28 bd 90 9e 16 bd 98 61 9e bd
       -0.013524931 -0.04104112 -0.03677231 -0.07733458
000340 ac a5 00 3d 80 7d 63 bd a5 67 11 3d d1 ec a0 bc
       0.031407997 -0.055539608 0.035499234 -0.019644173
000350 70 c5 44 3d e7 1d 94 3d 1a 7a 98 bd ad 05 60 bd
       0.048039854 0.07232266 -0.07445164 -0.054692913
000360 02 b4 8f 3d ba 41 da bc bf a3 9b bd 80 e7 6a bd
       0.07016756 -0.026642669 -0.075995915 -0.05734968
000370 79 ed b0 bd bb e7 86 bd 6d ab b7 36 c3 ee 93 3d
       -0.08639044 -0.06587168 5.4737816e-06 0.072232746
000380 ca 9d b0 3c 55 2b 87 3b 8e ae b6 3b f5 27 61 bd
       0.021559615 0.0041250386 0.0055750078 -0.054969747
000390 0a cd 2f 3d dc f2 8f 3d 25 4a ae 3c 78 62 9b 3d
       0.04292015 0.070287436 0.02127559 0.07587141
0003a0 bd 88 b6 3d 8f 6e 29 3c 6a 48 70 bd 6e cf 8c 3d
       0.089127995 0.010341301 -0.05866281 0.068755016
0003b0 5d 8b 93 3c fa 67 28 bc 40 7a 6d bc 6c d4 83 3c
       0.01801079 -0.010278696 -0.014494479 0.016092502
0003c0 b2 3f 13 bd 0b fe 71 3d 49 0a 8e bd 03 97 87 3c
       -0.035949416 0.059080165 -0.069355555 0.0165515
0003d0 e4 1b b8 bd e9 f3 34 3d 75 6e 1f bd 4e f7 98 b9
       -0.08989695 0.044177923 -0.0389237 -0.00029175956
0003e0 36 75 90 3d 74 f8 a2 3c c2 fa 69 3c 09 52 15 3d
       0.07053606 0.019893862 0.014280977 0.036455188
0003f0 7d 5a 78 3c 2e 60 61 3d 69 d7 31 3c 85 72 7f 3d
       0.015158293 0.055023365 0.01085458 0.062365074

ConvNet.fc2.bias f4 [84]
000000 e3 f2 b8 bd 72 44 92 3d 28 0e a7 3d 28 09 20 3d
       -0.09030702 0.07141961 0.08156997 0.039071232
000010 c9 d8 2a 3c a3 76 8e 3b 7e 21 ae 3c 1f 7c 97 3d
       0.010427662 0.0043476387 0.021256205 0.07396721
000020 7b 6d 92 3d 95 59 4a bd 05 17 f3 3c 0e d3 8a bc
       0.07149788 -0.04940184 0.029674063 -0.016946342
000030 0c e4 74 3d ec 07 27 bd 95 69 7b 3d 0d bc cc 3c
       0.059787795 -0.04077904 0.061379988 0.024992013
000040 6d 88 03 3c 4b 89 94 3b 57 e4 30 3d 85 0f bd 3d
       0.008028132 0.004532968 0.04318651 0.09231476
000050 69 4d c4 3d c6 ed 84 bc c7 df bc 3d 3d 0a bd 3d
       0.09585077 -0.01622666 0.0922237 0.092304684
000060 64 77 ae 3d d7 d3 15 3d c6 9b a8 bd ae ea 96 bd
       0.08518866 0.03657898 -0.082328364 -0.0736898
000070 be 7c b5 bd 38 02 76 bd a6 02 a8 bd 44 08 a3 3c
       -0.08861683 -0.06006071 -0.0820363 0.019901402
000080 ec 05 c8 3d a9 12 3b bd 84 c1 50 3d ab e0 03 3d
       0.097667545 -0.045672093 0.0509658 0.032196682
000090 32 c2 06 3d d4 e9 92 3c 28 87 29 3d 45 6d 96 3c
       0.032900043 0.017933764 0.04138866 0.01836265
0000a0 ec e7 cf 3c bd 88 4e 3d 60 a9 a6 bd 2c 53 b1 bd
       0.025379144 0.050423373 -0.081377745 -0.08658442
0000b0 61 c9 04 3d 0d a1 b5 bd 5a 7b b0 3c 37 0d 11 3d
       0.032418612 -0.088686086 0.021543194 0.035412993
0000c0 ad e3 9a bd ad 65 8c 3d 34 6d 83 bd 83 09 81 bd
       -0.07562957 0.068553306 -0.06417313 -0.06300642
0000d0 c3 95 1a 3d 04 e3 88 3d 12 99 9f 3b f9 b7 d6 bc
       0.03774048 0.06683925 0.0048705423 -0.026210772
0000e0 b1 95 4e bb a0 40 3d bd 70 4a 9b bd 85 94 4a bd
       -0.0031522328 -0.04620421 -0.07582557 -0.049458046
0000f0 6a 1f 95 bc 5a 3c 20 bd ae 50 b0 3d f8 2f 4e 3d
       -0.018203456 -0.039120056 0.086091384 0.050338715
000100 43 55 8c 3c a2 21 87 3d 43 44 43 bd 57 73 75 3d
       0.0171305 0.06598212 -0.04767252 0.05992445
000110 d3 ec 81 bd 36 84 b9 bd 3a 7e 0c 3d f1 30 07 3d
       -0.06343999 -0.0905842 0.034300067 0.03300566
000120 99 09 72 bc 79 38 0e 3d 58 d0 03 3b f9 2c 01 3d
       -0.014772796 0.034721825 0.0020113196 0.03153703
000130 e2 81 fb 39 b4 dc a4 bd a7 c6 b9 bd d2 f6 c6 bc
       0.0004797122 -0.08049908 -0.09071093 -0.024287615
000140 1f 2d 64 3c d8 c4 92 bd 31 47 d5 3c 0b 9e e4 bc
       0.013926773 -0.07166451 0.026034923 -0.027907392

Output.fc.weight f4 [10, 84]
000000 2c ef ad bc 7f c4 44 3d 87 f6 f0 bb f5 0e ab bd
       -0.02123221 0.048038956 -0.007353607 -0.08352462
000010 01 9c 92 3c 11 31 d9 bd 4e c6 cc 3d f3 12 6d bd
       0.017896654 -0.10605062 0.09998761 -0.0578794
000020 c6 8f 80 3d 06 af 33 bc 4e 9c cf bc 62 f5 b6 3d
       0.062774226 -0.010967022 -0.025343087 0.08933522
000030 5a fe 98 bd 38 27 a7 bd 91 a7 d2 bd 01 ba 8d bd
       -0.07470389 -0.08161777 -0.10285867 -0.06920243
000040 26 87 d2 3d 2c ac 47 bd db d4 73 3d 60 c2 d9 37
       0.10279684 -0.04874818 0.059529167 2.5958929e-05
000050 52 b2 54 bd 96 48 7c bd 48 67 e6 3d 64 2d ad bd
       -0.051927872 -0.06159266 0.11250168 -0.08455923
000060 fc d4 30 3d c6 dc 5d bb f0 28 9c bc f0 e3 dc 3d
       0.043171868 -0.0033853515 -0.01906249 0.10785663
000070 c2 ae f4 3c ca d4 d4 bd 2c 9c 82 b9 33 f7 7c bb
       0.029868487 -0.10392149 -0.0002491189 -0.003859949
000080 d9 6e b8 3d be fb a8 bd 35 43 4a 3d 56 e7 83 3c
       0.090055175 -0.08251141 0.0493805 0.01610152
000090 27 aa 8a 3d 45 1a e2 bc 21 54 98 3d 4e 54 02 bd
       0.06770735 -0.027600417 0.07437921 -0.03181868
0000a0 72 e0 cc bc 15 59 c4 3d d0 c7 68 bd 03 75 23 3d
       -0.025009368 0.095873035 -0.05683118 0.039906513
0000b0 77 0c 26 bd 97 25 48 3d 16 6b df 3d 72 4b b6 bd
       -0.04053923 0.048863973 0.10909097 -0.08901109
0000c0 d2 f9 a5 3d bd e5 a6 bc a6 65 63 bd 57 af 2e bd
       0.0810429 -0.02037322 -0.05551686 -0.042647686
0000d0 94 ca c6 bb 04 13 66 3c 99 66 85 3d 27 e6 59 3d
       -0.0060666297 0.01404262 0.065137096 0.053198006
0000e0 66 46 75 bd 32 3c 8d 3d 25 a2 d5 bd 76 dc da 3c
       -0.05988159 0.06896247 -0.10431317 0.026716452
0000f0 de 2c 86 3d f4 29 00 bd ea 63 75 bd 56 8a 50 bb
       0.065515265 -0.03129001 -0.05990974 -0.0031820736
000100 52 40 7b 3d 07 89 66 bd 62 67 20 3d 41 f8 d4 3c
       0.061340638 -0.056283023 0.039161094 0.025997283
000110 36 78 80 bd 87 8d bb 3c 13 8c b9 3c 0e 03 af 3d
       -0.062729284 0.022894634 0.0226498 0.085455045
000120 26 df 9e 3c 9f f4 f2 3c 93 ae 67 bd 78 50 c0 bd
       0.019393515 0.02965766 -0.05656297 -0.09390348
000130 19 4e 95 3d ca c8 48 3c 05 4e e0 3c 47 ea 87 bd
       0.072902866 0.012254903 0.027380953 -0.06636482
000140 3d 7e 04 bc e8 eb 87 bb 15 53 d0 bd f6 8a f0 3a
       -0.008086738 -0.0041479953 -0.10172097 0.001835196
000150 23 d2 cb 3c 0f d1 99 bd ce df b4 3d b1 5e de 3d
       0.024880474 -0.07510578 0.0883175 0.10857905
000160 5b f9 9c 3d f5 60 a9 bd 36 c1 75 3d c0 7a ac 3c
       0.07664748 -0.08270446 0.059998713 0.021054626
000170 63 49 b0 bd 2f a5 a6 bd 96 9e 4e 3c c0 77 c0 3d
       -0.086077474 -0.08136975 0.012611052 0.093978405
000180 05 43 bc 3d 5e 01 c1 3d 50 4f c3 bc 78 c4 5c bd
       0.091924705 0.09424089 -0.02384153 -0.053898305
000190 f6 16 6f 3d 1b 36 1e 3c 6c 9c 83 3d dc f5 0e 3b
       0.058371507 0.009656454 0.064263195 0.0021814024
0001a0 43 61 33 3d 23 df b0 3d 00 a2 26 bd b7 90 8b bd
       0.043793928 0.0863631 -0.04068184 -0.068147115
0001b0 0b b1 ac 3c e4 65 ea 3a 68 b3 4d bd 72 b4 c5 3d
       0.021080514 0.0017883149 -0.050219923 0.09653558
0001c0 aa fb c6 3d 78 42 ae 3d fd b1 16 bc 91 bd 99 bd
       0.0971597 0.08508772 -0.009197709 -0.0750686
0001d0 ca 52 a4 3c 19 b8 2a 3d d0 80 82 bd e9 ce 99 bd
       0.020059008 0.041679475 -0.06372225 -0.07510168
0001e0 f4 50 88 bd 5c 50 11 bd dc f1 2a bd 8b 91 84 bd
       -0.066560656 -0.035477027 -0.04173456 -0.064730726
0001f0 db 71 bb 3c 60 70 40 3d db b8 96 bc e6 4f 64 bb
       0.022881439 0.04698217 -0.018398693 -0.0034837662
000200 90 43 da 3c 98 d2 cd bd 0d e3 04 3d 31 10 3a 3d
       0.026643544 -0.10049933 0.032443095 0.045425598
000210 96 b9 87 3d ee 6a c1 3d 50 65 3a bd 41 dd 93 bd
       0.066271946 0.09444223 -0.045506775 -0.07219935
000220 ef 71 26 3d 00 f0 e2 bd 63 7a 8a bd b8 8c e4 3c
       0.040636 -0.110809326 -0.06761625 0.027899131
000230 40 16 e9 3b 70 60 b5 bb 75 bb 5f bd 37 8a 26 3d
       0.007113248 -0.005535178 -0.054622132 0.040659156
000240 f4 f1 d5 bd be 23 a6 3d bc 8b 9e 3c ec 7c eb bd
       -0.104465395 0.08112286 0.01935374 -0.11498436
000250 ff be a5 bd b6 87 c6 bd a9 7e b3 bd 5b 67 87 bd
       -0.0809307 -0.096938536 -0.08764393 -0.0661151
000260 5f 61 04 bb c5 0c 9c 3c 47 a9 9d bd 06 42 4c 3d
       -0.002019964 0.019049058 -0.07698303 0.049867652
000270 f6 5b 39 3a c0 f3 a9 3c 46 8b a9 3d 8b 64 1d 3d
       0.0007070893 0.020746112 0.082785174 0.038425963
000280 8e d0 81 3d dc 1e df bb d4 23 96 3d 1b 85 94 3d
       0.06338607 -0.0068090986 0.073310524 0.0725195
000290 7f 3d 89 3c d4 d3 ad 3d cd 2a be bd d7 c3 82 3d
       0.016752956 0.08487669 -0.09285507 0.0638501
0002a0 fe ec 64 bd 46 93 c5 bd 56 4c da 3d b0 09 1b bd
       -0.055890076 -0.09647231 0.10659091 -0.037851036
0002b0 36 0b 0b bd 01 ee 8a 3d bc f3 a4 3d 95 78 cb 3d
       -0.03394624 0.06783677 0.08054301 0.099351086
0002c0 e0 1e e7 3d e1 ce 15 bd a3 e4 2d bd 2c 4a 4d bc
       0.11285186 -0.03657425 -0.042454373 -0.012529891
0002d0 d6 22 51 3d 5a 9d a0 3c e0 82 59 bb 85 e6 96 3d
       0.051058613 0.019606281 -0.003318958 0.07368187
0002e0 d7 82 42 3d e7 e9 c4 3c 6d f2 ae ba 10 cc 82 3d
       0.04748806 0.024037315 -0.0013347395 0.06386578
0002f0 39 22 e5 3d b1 b6 d0 3d 22 18 42 3d 5e af 1d 3d
       0.11188168 0.101910956 0.047386296 0.03849732
000300 8a 89 4f 3d b6 81 ad bd 2b 43 f6 3c 03 0d 39 bd
       0.050668277 -0.08472006 0.030061325 -0.045178425
000310 ee a9 19 bd 4e 5f 09 3d 57 23 11 bd e6 0b ad bd
       -0.037515573 0.033538155 -0.035434093 -0.08449535
000320 1b 35 d5 3c 92 e4 47 3b 65 70 d8 3d 9a bb 3c 3d
       0.0260263 0.0030501229 0.105683126 0.04607735
000330 76 98 f8 3a a8 9c 82 3d 76 9e 3d bd 68 d4 d6 3d
       0.0018966335 0.06377536 -0.0462937 0.10489732
000340 8a c1 bc 3d bd 0d 9a 3d 82 39 32 bd a5 07 8f 3c
       0.09216602 0.075221516 -0.043511875 0.0174597
000350 af 34 09 3b 6f ff 9c bd 70 2e 63 bd de ef 8a bd
       0.0020935943 -0.076659076 -0.055464208 -0.06784032
000360 3c c5 ba bd 63 2c b1 3d 7d 0b 7f 3d d6 35 17 bc
       -0.09119651 0.08651044 0.062266815 -0.009229144
000370 1f bb c8 bb 21 bb af bd bc a2 ee bc 80 74 a2 3d
       -0.006125822 -0.08580614 -0.029130332 0.07932377
000380 6c 37 eb bb a6 c4 b6 bd 08 52 07 bb 91 2e 8b bb
       -0.0071782377 -0.089242265 -0.002064826 -0.0042474945
000390 00 f3 d2 3c 9f 2f a6 3d c0 79 50 bd 4b 8e 1c bd
       0.025750637 0.08114552 -0.05089736 -0.03822164
0003a0 f5 52 5c bd 99 99 aa 3d 2f da 90 3d 9b d1 20 bc
       -0.05379005 0.08330078 0.07072865 -0.009815599
0003b0 43 69 4b 3d 05 e6 8c 3d b0 9c d7 bc 20 e8 37 b9
       0.049660932 0.0687981 -0.026319832 -0.00017538713
0003c0 db e0 03 3d 39 69 c3 bd aa 98 b6 bc 47 70 c8 3c
       0.03219686 -0.09541554 -0.022289593 0.0244676
0003d0 14 b5 d6 bc 03 38 f9 bc ef 58 ad bd 58 32 cb bc
       -0.026209392 -0.030422216 -0.08464228 -0.02480428
0003e0 33 9d 90 bd cc 61 a7 bd 23 2a b2 3d 69 b9 fd 3c
       -0.07061233 -0.0817295 0.08699443 0.0309722
0003f0 5d 9f 8a 3d c4 f5 12 bd 6b 4f 97 bd 49 cc b1 3d
       0.067686774 -0.03587891 -0.07388195 0.086815424

Output.fc.bias f4 [10]
000000 19 a6 ed 3d af 33 a6 bd b3 c0 23 bc 66 40 cb 3c
       0.11603946 -0.081153266 -0.009994674 0.024810981
000010 4b f0 00 3d 71 6e 34 bd ef fb e8 bd ff 12 67 bc
       0.03147916 -0.044050638 -0.113761775 -0.01410365
000020 ff 4e 22 bc 6d d2 73 3c
       -0.009906529 0.014881712
